weights/models/model0001.pth (torch, 54408 bytes, 28 tensors)

a f4 [4]
0.2 0.2 0.2 0.2
00000000: cdcc 4c3e cdcc 4c3e cdcc 4c3e cdcc 4c3e

input_layer.weight f4 [50, 2]
-0.36371157 0.060835253 -0.15436882 -0.19381468 -0.1969005 -0.07408761 -0.16351876 0.16417614
-0.124096446 -0.0776374 0.026342407 -0.17725761 0.08870024 -0.0008504241 0.04176157 0.006827769
-0.10904413 -0.30741724 0.39861506 0.12726963 0.35770395 -0.060719766 -0.11272788 -0.16283765
0.07653792 -0.03122092 -0.14817393 -0.0444886 -0.26394752 0.020366365 -0.13428962 -0.00020118167
-0.115265936 0.2535767 -0.036829613 0.14516555 0.07182879 0.2969279 -0.102309436 0.33013374
-0.19831502 -0.03487374 0.29329008 -0.0584204 -0.09238621 0.18345247 0.5242812 -0.026638111
0.24191423 0.20754007 -0.26431587 0.39547122 -0.15403406 -0.017894566 0.31180125 -0.0070764087
-0.030514257 -0.2681153 -0.4681141 0.092042506 0.37747216 -0.13416559 0.098485634 -0.19252257
0.10430881 -0.107245475 0.07481299 0.074230425 0.11058088 0.16530867 0.16572446 -0.20497788
-0.044647206 -0.08705342 -0.09627751 0.13051751 -0.32070518 0.1548893 0.040541366 0.16863182
0.07743687 -0.061573233 -0.0014217218 -0.15504006 0.029396597 -0.08618058 0.24270134 0.14197746
-0.05497409 -0.14332694 0.17048284 -0.21478987 -0.19673887 -0.0913617 -0.020289022 -0.17708407
0.2058142 0.4253433 -0.01546306 -0.13394588
00000000: 6738 babe 632e 793d dc12 1ebe 5b77 46be
00000010: 49a0 49be 3fbb 97bd 7671 27be ca1d 283e
00000020: 4726 febd 5b00 9fbd 08cc d73c 0583 35be
00000030: 79a8 b53d ffee 5eba 2e0e 2b3d 7abb df3b
00000040: 8752 dfbd cb65 9dbe 4617 cc3e f852 023e
00000050: f924 b73e 4ab5 78bd e0dd e6bd eabe 26be
00000060: eabf 9c3d 04c3 ffbc e8ba 17be ae39 36bd
00000070: 2124 87be 5dd7 a63c 3883 09be 4bf4 52b9
00000080: 8c10 ecbd ced4 813e a6da 16bd 47a6 143e
00000090: f91a 933d ef06 983e 9c87 d1bd 4a07 a93e
000000a0: 1813 4bbe c4d7 0ebd 1e2a 963e 3b4a 6fbd
000000b0: fb34 bdbd f7da 3b3e 4b37 063f 2b38 dabc
000000c0: 5db8 773e 6285 543e 6954 87be 347b ca3e
000000d0: 1bbb 1dbe a097 92bc 6aa4 9f3e 38e1 e7bb
000000e0: 09f9 f9bc 6946 89be a7ac efbe c880 bc3d
000000f0: 0844 c13e b462 09be d6b2 c93d a324 45be
00000100: db9f d53d 84a3 dbbd 8e37 993d 1f06 983d
00000110: 3a78 e23d ad46 293e acb3 293e b9e5 51be
00000120: fddf 36bd 1049 b2bd 252d c5bd 62a6 053e
00000130: 7833 a4be 4d9b 1e3e b40e 263d d2ad 2c3e
00000140: 3997 9e3d 3734 7cbd 1159 baba d2c2 1ebe
00000150: 22d1 f03c 727f b0bd b386 783e 8a62 113e
00000160: 832c 61bd 4cc4 12be 0e93 2e3e e0f1 5bbe
00000170: ea75 49be d81b bbbd 2a35 a6bc 8755 35be
00000180: f5c0 523e 99c6 d93e c658 7dbc 1c29 09be

input_layer.bias f4 [50]
-0.312379 -0.37796256 0.16610393 0.0751005 -0.013537356 -0.10964877 -0.062391553 -0.17872636
0.15807478 0.16865118 0.06501105 0.3111454 0.25207096 0.31205446 0.040793616 0.30471689
0.14156832 -0.33346844 -0.31777272 -0.1394127 -0.07739445 -0.0005283719 0.008430408 0.052715834
0.40044186 -0.14391857 0.0894621 0.13533366 -0.19289248 -0.09011957 0.035626475 0.13942334
0.017974125 0.29540628 -0.21468472 -0.22394124 -0.19470014 0.5655284 0.08820309 -0.3797829
-0.18396658 -0.07469095 -0.31909224 0.20861687 0.03296299 -0.52562237 -0.15832824 0.16776404
0.031080928 0.29897836
00000000: 24f0 9fbe 4f84 c1be 2617 2a3e 4ace 993d
00000010: c9cb 5dbc 898f e0bd 498e 7fbd 0b04 37be
00000020: 5bde 213e e5b2 2c3e 8324 853d 734e 9f3e
00000030: 720f 813e 9ac5 9f3e 3517 273d da03 9c3e
00000040: 49f7 103e 60bc aabe 1bb3 a2be 34c2 0ebe
00000050: fb80 9ebd 7082 0aba b21f 0a3c 8fec 573d
00000060: b706 cd3e 645f 13be e837 b73d e894 0a3e
00000070: 9b85 45be 9c90 b8bd 11ed 113d fec4 0e3e
00000080: 793e 933c 7e3f 973e 50d6 5bbe da50 65be
00000090: 795f 47be 78c6 103f d2a3 b43d e772 c2be
000000a0: bc61 3cbe 92f7 98bd 0f60 a3be a99f 553e
000000b0: 3304 073d 308f 06bf cc20 22be 56ca 2b3e
000000c0: 6e9d fe3c b113 993e

input_ln.weight f4 [50]
1.0144489 1.0285081 1.0036206 0.9595751 1.003722 0.99459803 0.97996545 0.9724162
0.99254674 0.9901225 0.9775489 1.0315818 1.0137509 1.0171037 0.9842061 1.0001366
1.002823 1.0219012 1.024206 0.99864036 1.0119318 1.0081724 0.96837234 0.9867251
1.0368924 1.0070732 0.97911525 0.9858041 1.0107981 0.9834682 0.99771065 1.0010772
0.9957797 1.0188456 1.029652 1.008013 1.0095232 1.0361979 0.9824828 1.0297904
0.98095614 0.9916662 0.9968239 1.0103883 1.0033431 1.0453359 1.0033435 0.9866252
0.9860879 1.024267
00000000: 76d9 813f 27a6 833f a476 803f b7a6 753f
00000010: f679 803f fa9d 7e3f 04df 7a3f 45f0 783f
00000020: 8b17 7e3f ab78 7d3f a540 7a3f df0a 843f
00000030: 97c2 813f 7430 823f eef4 7b3f 7a04 803f
00000040: 815c 803f a9cd 823f 2f19 833f e5a6 7f3f
00000050: fb86 813f cb0b 813f 40e7 773f 049a 7c3f
00000060: e4b8 843f c6e7 803f 4ca7 7a3f a85d 7c3f
00000070: d561 813f 92c4 7b3f f769 7f3f 4c23 803f
00000080: 6beb 7e3f 8869 823f a3cb 833f 9206 813f
00000090: 0e38 813f 22a2 843f fe83 7b3f 2cd0 833f
000000a0: f11f 7b3f d6dd 7d3f da2f 7f3f 6754 813f
000000b0: 8c6d 803f 91cd 853f 8f6d 803f 7893 7c3f
000000c0: 4270 7c3f 2e1b 833f

input_ln.bias f4 [50]
-0.05704319 -0.14258943 0.093675464 -0.11504861 0.13383855 -0.0967588 -0.007166456 0.06030816
0.124074586 0.03618385 -0.011602482 0.15985642 0.064735204 0.11567228 -0.055878136 0.10151483
0.08098241 -0.03945943 -0.01030205 -0.07864647 0.112915464 0.017125482 0.095302664 -0.0028485628
0.13840565 0.15483664 0.06435455 -0.034836825 -0.09557408 -0.04936982 -0.020727659 -0.0015208035
0.02197312 0.11871155 -0.09152866 -0.0776189 -0.07844224 0.13618483 0.07336865 -0.09125341
-0.026289579 -0.067632884 -0.12218573 0.14878085 -0.014283594 -0.1462588 -0.07343707 0.11757498
-0.037885193 0.07815871
00000000: 1fa6 69bd f702 12be ecd8 bf3d 9b9e ebbd
00000010: f90c 093e 7a29 c6bd 97d4 eabb b005 773d
00000020: d11a fe3d 8435 143d 5618 3ebc 67b1 233e
00000030: e493 843d 97e5 ec3d 79e0 64bd 02e7 cf3d
00000040: 1bda a53d 36a0 21bd eec9 28bc 6711 a1bd
00000050: 3940 e73d bd4a 8c3c 0b2e c33d f4ae 3abb
00000060: 36ba 0d3e 7f8d 1e3e 51cc 833d 0fb1 0ebd
00000070: 58bc c3bd 0238 4abd 0dcd a9bc b355 c7ba
00000080: f900 b43c 0b1f f33d 6173 bbbd a8f6 9ebd
00000090: 53a6 a0bd 0974 0b3e 4e42 963d 11e3 babd
000000a0: 3e5d d7bc 1c83 8abd 833c fabd 025a 183e
000000b0: bc05 6abc dec4 15be 2d66 96bd 27cb f03d
000000c0: 812d 1bbd ac11 a03d

hidden_layers.0.weight f4 [50, 50]
0.099395506 0.2563798 -0.04254535 0.16778946 -0.06440913 0.2028809 0.12391132 -0.23833542
0.066733204 0.27976352 0.087792 -0.23636328 0.030621203 0.10043493 0.106256224 -0.307855
0.11398272 0.019820089 0.001936544 0.105046205 0.11098765 -0.12776583 -0.048202187 0.116052404
-0.12578349 -0.111059375 -0.23661552 0.019920263 -0.04266493 0.08874647 -0.050641965 0.15009476
0.06390487 -0.1978278 -0.056848448 0.1506779 -0.18174036 0.2573869 0.13403301 0.27884543
-0.0317827 -0.20892832 -0.050735813 -0.18868782 -0.16838703 0.067186825 0.021668255 -0.048892442
-0.15963282 -0.14537406 -0.19245926 0.017082471 0.014244986 0.22770275 0.06477493 0.016282815
-0.24087875 0.26280156 -0.33068556 0.0874199 -0.23798853 0.031523164 0.1570124 -0.15995787
-0.06098152 -0.014716017 0.04957956 0.13240516 0.21765624 0.0373361 -0.0034188023 0.20779538
-0.18468629 -0.15444972 0.1261775 -0.0798365 -0.066514894 0.25858533 -0.14618686 0.22891068
0.35473382 0.07803569 -0.30337974 -0.23610501 0.11261142 -0.07239168 0.12158486 -0.08116711
0.04502522 0.17477332 -0.07914166 -0.053879693 0.10805655 0.23723724 -0.14632235 -0.06887037
0.066093184 0.03879142 -0.20774688 0.14657018 -0.018872458 0.0952447 -0.009727868 -0.22991015
-0.038524102 -0.09558646 -0.0069708116 -0.115890674 0.11531111 0.17227241 -0.21453097 0.17477697
-0.16546322 -0.38332936 0.12923287 -0.01226504 0.05972069 0.26760817 -0.36926922 0.2017146
0.24666776 0.23793608 0.22560985 -0.055125006 0.16755159 -0.03321944 -0.001283656 0.004058007
0.11177493 0.13155791 0.4179171 -0.09138811 0.07108118 -0.087861955 -0.047862917 -0.083005026
-0.23933 -0.008327294 0.08554886 -0.13088194 0.0045555616 0.09897331 0.045725763 0.07581548
-0.18146104 0.07548458 -0.1623823 -0.076247215 -0.1651323 0.08411402 -0.017475799 -0.009444164
-0.17089203 -0.27943468 -0.19200371 0.08984291 0.113304555 -0.01571471 -0.28118262 0.052062765
0.13127339 0.2035253 0.20626256 -0.048936818 -0.06212935 0.14784153 0.0016674327 0.058773547
-0.06584517 0.021644272 -0.09003083 0.021120345 -0.019742338 -0.18882748 -0.29297295 0.014321608
0.05370933 -0.17243217 0.06761735 0.05431315 0.21460989 0.23445676 -0.11990326 0.23893335
-0.19034357 -0.025571864 0.04690129 0.048464913 0.16371484 -0.054355953 0.022396341 -0.1290506
0.052548926 -0.078874916 -0.048847187 -0.1577048 0.06439166 0.23740692 0.0855088 0.046579365
0.16777414 -0.06095649 -0.27446714 -0.13793737 -0.03522279 0.07848072 -0.16903886 0.16907504
-0.0276685 0.060428437 0.20195912 0.08474161 -0.08581332 0.22232483 -0.09158862 0.18861304
-0.09741614 0.061211817 0.06823946 -0.13730294 -0.01347832 -0.02688358 -0.04926065 0.0705537
-0.02630731 -0.10405535 -0.19298097 -0.12611274 -0.058077343 0.01397236 0.021617092 -0.058292974
0.051076747 0.1380366 0.03917348 -0.037745632 0.048643056 0.13386591 -0.195256 -0.24487855
-0.1851025 0.018546853 -0.12959333 0.07839508 -0.08674883 -0.15143482 0.022420783 0.076098315
-0.050956707 0.12968358 0.2952784 -0.17233013 0.018761784 -0.14181447 -0.2817057 -0.14525278
00000000: df8f cb3d 3744 833e 0844 2ebd 00d1 2b3e
00000010: efe8 83bd 03c0 4f3e 38c5 fd3d 330e 74be
00000020: 6bab 883d 2a3d 8f3e 4bcc b33d 3709 72be
00000030: 51d9 fa3c d4b0 cd3d dd9c d93d 2c9f 9dbe
00000040: c66f e93d bd5d a23c a2d3 fd3a 7722 d73d
00000050: 7e4d e33d 0cd5 02be a86f 45bd e2ac ed3d
00000060: 63cd 00be 1973 e3bd 574b 72be d22f a33c
00000070: 6cc1 2ebd b6c0 b53d f36d 4fbd 71b2 193e
00000080: 8ee0 823d 5f93 4abe ebd9 68bd 4f4b 1a3e
00000090: 251a 3abe 37c8 833e f33f 093e d4c4 8e3e
000000a0: 942e 02bd 4ef1 55be 5bd0 4fbd 6137 41be
000000b0: a66d 2cbe 3f99 893d a081 b13c 7143 48bd
000000c0: c976 23be f0dc 14be 0a14 45be 8af0 8b3c
000000d0: cd63 693c e92a 693e b8a8 843d 8a63 853c
000000e0: eba8 76be ed8d 863e 9e4f a9be 3409 b33d
000000f0: 44b3 73be 6f1e 013d dcc7 203e ffcb 23be
00000100: c2c7 79bd 731b 71bc f013 4b3d 3895 073e
00000110: 47e1 5e3e bded 183d fc0d 60bb 50c8 543e
00000120: 671e 3dbe 1128 1ebe ad34 013e 5281 a3bd
00000130: f638 88bd 4c65 843e 02b2 15be 9067 6a3e
00000140: ac9f b53e 2dd1 9f3d 9754 9bbe 83c5 71be
00000150: d1a0 e63d 1742 94bd 7c01 f93d f13a a6bd
00000160: 5d6c 383d c7f7 323e 0615 a2bd f4b0 5cbd
00000170: c14c dd3d 52ee 723e 87d5 15be e90b 8dbd
00000180: dd5b 873d c1e3 1e3d 99bb 54be 7e16 163e
00000190: 6a9a 9abc a70f c33d a361 1fbc 916d 6bbe
000001a0: 73cb 1dbd d5c2 c3bd 686b e4bb 1758 edbd
000001b0: 3b28 ec3d 2e68 303e 02ae 5bbe bcf8 323e
000001c0: 316f 29be bf43 c4be 9f55 043e 4ef3 48bc
000001d0: af9d 743d f003 893e db10 bdbe 468e 4e3e
000001e0: 7996 7c3e 84a5 733e 4506 673e c2ca 61bd
000001f0: a592 2b3e 1c11 08bd 5940 a8ba 08f9 843b
00000200: 41ea e43d 1eb7 063e 3bf9 d53e b029 bbbd
00000210: 0293 913d f8f0 b3bd e80b 44bd 8afe a9bd
00000220: ec12 75be 346f 08bc 3e34 af3d ea05 06be
00000230: d246 953b 85b2 ca3d f04a 3b3d 2545 9b3d
00000240: ecd0 39be a997 9a3d 8c47 26be 8027 9cbd
00000250: 7118 29be f943 ac3d 6829 8fbc b2bb 1abc
00000260: 52fe 2ebe 1012 8fbe 9f9c 44be 8fff b73d
00000270: 380c e83d 23bc 80bc 2bf7 8fbe c43f 553d
00000280: 886c 063e f068 503e 7e36 533e f971 48bd
00000290: 587b 7ebd c563 173e c28d da3a 88bc 703d
000002a0: d5d9 86bd 544f b13c 1562 b8bd 9304 ad3c
000002b0: afba a1bc fe5b 41be 8d00 96be 2da5 6a3c
000002c0: 50fe 5b3d 0f92 30be f77a 8a3d 7777 5e3d
000002d0: b2c2 5b3e 6f15 703e d78f f5bd f2aa 743e
000002e0: 6de9 42be 167c d1bc 911b 403d 2583 463d
000002f0: dda4 273e 59a4 5ebd 8878 b73c d725 04be
00000300: 8b3d 573d 2c89 a1bd fd13 48bd 5e7d 21be
00000310: c6df 833d cd1a 733e 3d1f af3d 01ca 3e3d
00000320: fccc 2b3e 83ad 79bd f586 8cbe 743f 0dbe
00000330: c645 10bd 80ba a03d 8618 2dbe 0222 2d3e
00000340: 0da9 e2bc cf83 773d 5fce 4e3e 028d ad3d
00000350: e5be afbd 1fa9 633e d092 bbbd c723 413e
00000360: 1d82 c7bd 3eb9 7a3d 21c1 8b3d 2499 0cbe
00000370: 2cd4 5cbc f43a dcbc 89c5 49bd 757e 903d
00000380: 6e82 d7bc f91a d5bd ce9c 45be b323 01be
00000390: 82e2 6dbd 53ec 643c 5416 b13c 9dc4 6ebd
000003a0: da35 513d 7759 0d3e 5f74 203d 2a9b 1abd
000003b0: f13d 473d 2514 093e 30f1 47be 71c1 7abe
000003c0: 828b 3dbe 92ef 973c 1db4 04be 9a8d a03d
000003d0: 5fa9 b1bd bb11 1bbe caab b73c 6fd9 9b3d
000003e0: fbb7 50bd c6cb 043e bb2e 973e 4f77 30be
000003f0: 50b2 993c d037 11be bb3b 90be 25bd 14be

hidden_layers.0.bias f4 [50]
-0.13682441 -0.01570126 -0.11789501 0.015215145 0.08296371 -0.049835633 0.056056175 -0.13441892
0.027967509 -0.012485952 -0.10038845 0.08272888 0.048254747 0.052784245 0.05886235 -0.09627568
-0.041737523 -0.096508354 0.079401545 -0.057339784 -0.026026186 -0.060711596 -0.098440334 -0.00014508421
0.042266097 0.009978607 0.032693192 0.023998102 0.08167313 0.017734304 0.013184534 -0.0038641342
-0.1368785 -0.0632817 0.11753018 -0.08591732 -0.0073028817 0.077281415 0.052806906 0.12892568
-0.0010392419 -0.004496459 0.13305035 0.09782299 -0.002008038 0.033293724 0.13816656 -0.00094174733
0.04517914 0.06178747
00000000: b31b 0cbe ee9f 80bc f072 f1bd f248 793c
00000010: e1e8 a93d 7320 4cbd 299b 653d 1da5 09be
00000020: 1e1c e53c e191 4cbc 7698 cdbd c26d a93d
00000030: c5a6 453d 4b34 583d a619 713d 2f2c c5bd
00000040: f7f4 2abd 2ca6 c5bd 479d a23d 1fdd 6abd
00000050: de34 d5bc b9ac 78bd 169b c9bd bf21 18b9
00000060: 371f 2d3d 507d 233c 4ce9 053d ab97 c43c
00000070: 3e44 a73d 8847 913c f203 583c 6a3d 7dbb
00000080: e129 0cbe d699 81bd aab3 f03d 6bf5 afbd
00000090: 034d efbb b845 9e3d 0e4c 583d 1805 043e
000000a0: 2c37 88ba 0857 93bb 5a3e 083e 6b57 c83d
000000b0: 4a99 03bb 005f 083d 897b 0d3e 98df 76ba
000000c0: c30d 393d dc14 7d3d

hidden_layers.1.weight f4 [50, 50]
-0.01861682 0.26092365 -0.1733668 0.1789082 0.0614082 -0.2216303 -0.24568541 -0.0024581626
-0.13574949 0.16178608 -0.06692529 0.40316528 0.1612081 -0.07299368 0.090946876 0.061785486
0.081527084 -0.038807582 -0.33458716 0.082600795 0.17245263 -0.27800542 0.23937754 -0.21172135
-0.13020623 -0.088975765 0.1457595 0.16012369 0.0708342 -0.0669812 0.02342054 -0.17545624
-0.2752933 -0.039694656 0.22613478 -0.29565984 0.044997822 -0.070236966 0.13731676 0.0026573397
0.12082083 -0.016206617 -0.19787145 -0.0024691978 -0.119773366 0.07600602 0.08678715 -0.12582657
-0.073609196 0.03248153 -0.0071289847 0.037356995 -0.22931826 -0.25408894 0.34398317 -0.05640701
0.19310825 -0.07882474 -0.120786786 -0.059914306 -0.17553394 -0.060340505 0.20114163 0.20015188
0.011644669 -0.113812365 0.023751233 0.022357862 0.28152075 0.022839347 0.032874387 -0.18518427
0.047875352 0.15816747 -0.055600334 -0.2481841 -0.055989556 0.09641756 0.34392092 -0.09835511
0.20429151 0.04438645 -0.22933435 -0.17116435 -0.34608907 0.17090583 -0.21244814 -0.081541546
-0.09361888 0.21581927 0.09943951 -0.042180732 0.15886846 -0.24434324 0.1869097 0.13821146
-0.1291416 0.059729762 0.28477064 -0.016815845 -0.16688375 -0.012522934 0.1143929 -0.042513847
-0.051607314 -0.04054159 -0.12800574 -0.13449217 0.2509219 -0.049748693 -0.13523263 0.012225822
-0.21900259 0.33642426 -0.09245679 -0.16205886 0.0423985 -0.06721702 -0.03766397 -0.076944605
-0.18987036 0.15237139 -0.063731946 0.3643092 -0.15117554 0.023616955 -0.0716152 -0.09333131
0.04343019 0.20507245 -0.03386443 0.13450126 -0.16278581 0.079697005 -0.041893017 -0.071463786
-0.0836145 -0.18037222 -0.1640081 0.19907962 0.01964269 0.015464982 -0.03858464 -0.10282627
0.010808889 -0.16145825 0.0780991 0.08128656 0.027512565 0.057744715 -0.14734659 0.12831445
-0.25283176 0.13254839 0.034266815 0.009659056 -0.046632577 -0.20805663 0.13144739 0.13510592
0.21774152 -0.04804527 0.21429726 -0.07384226 0.04771271 -0.005815899 -0.01680585 0.032394458
-0.16079538 -0.054340646 0.10356537 -0.021694673 -0.1099085 0.011425586 -0.06829274 0.03442815
-0.026362218 0.0787649 -0.13649905 0.04805239 -0.22980206 0.19988386 0.09181467 0.020132646
0.039270926 -0.06551363 0.085286304 0.04032103 0.00022111452 0.1337373 0.06302412 0.113991134
-0.13910976 -0.014688528 -0.022586042 0.3642996 -0.12758157 -0.019475253 0.022315118 -0.08841496
-0.03205 0.07581499 -0.050474007 0.06568958 -0.106885985 -0.005742705 0.15307833 0.13681039
0.23139825 -0.10735093 0.10032448 0.20547819 0.002383884 -0.053061128 -0.21201198 0.015217141
0.24875744 -0.11686104 -0.14066826 -0.148579 0.035699025 -0.15453675 -0.06803775 -0.049616717
-0.10578673 0.059653636 0.19687869 0.12876074 0.12964033 -0.2014181 0.06338835 -0.15851821
-0.081840195 -0.05178554 -0.021824786 0.17826952 -0.0701877 0.17381677 0.16562091 0.09782792
0.015456132 0.036796447 0.12731622 0.032285336 -0.18228115 0.1443382 0.044931374 0.20617743
-0.0250442 -0.07366678 -0.030322002 -0.11765237 0.058930382 -0.1134143 0.08408224 0.06102716
00000000: 4d82 98bc c997 853e 1187 31be b633 373e
00000010: 2a87 7b3d 0ef3 62be f594 7bbe 2019 21bb
00000020: ea01 0bbe 40ab 253e 2010 89bd ae6b ce3e
00000030: bc13 253e b67d 95bd 5b42 ba3d c712 7d3d
00000040: acf7 a63d b3f4 1ebd 024f abbe 9b2a a93d
00000050: 6c97 303e ba56 8ebe 631f 753e 7bcd 58be
00000060: c854 05be ed38 b6bd fa41 153e 77f7 233e
00000070: 8511 913d 702d 89bd 6fdc bf3c cdaa 33be
00000080: 3ef3 8cbe dd96 22bd e08f 673e ba60 97be
00000090: a34f 383d 66d8 8fbd c49c 0c3e c326 2e3b
000000a0: e970 f73d bdc3 84bc d09e 4abe 44d2 21bb
000000b0: bd4b f5bd 0ba9 9b3d 76bd b13d aed8 00be
000000c0: 6bc0 96bd 5a0b 053d 429a e9bb a603 193d
000000d0: 68d2 6abe f217 82be 901e b03e 090b 67bd
000000e0: 2bbe 453e de6e a1bd 105f f7bd b468 75bd
000000f0: 2bbf 33be 9b27 77bd 12f8 4d3e 9df4 4c3e
00000100: 48c9 3e3c 7516 e9bd f291 c23c d627 b73c
00000110: 7d23 903e 9519 bb3c 4ba7 063d f2a0 3dbe
00000120: f218 443d a7f6 213e 2dbd 63bd f923 7ebe
00000130: 4e55 65bd 9276 c53d 6716 b03e 676e c9bd
00000140: cb31 513e 91ce 353d a0d6 6abe b545 2fbe
00000150: 9632 b1be f001 2f3e 018c 59be 41ff a6bd
00000160: 41bb bfbd baff 5c3e f1a6 cb3d b4c5 2cbd
00000170: 6aae 223e 1d35 7abe 4265 3f3e 4e87 0d3e
00000180: b23d 04be 32a7 743d 75cd 913e 62c1 89bc
00000190: 93e3 2abe fe2c 4dbc d346 ea3d 0023 2ebd
000001a0: 3162 53bd f00e 26bd f013 03be 51b8 09be
000001b0: d678 803e 49c5 4bbd 6c7a 0abe d04e 483c
000001c0: 3742 60be cd3f ac3e fc59 bdbd c2f2 25be
000001d0: 0daa 2d3d 14a9 89bd 8945 1abd 2295 9dbd
000001e0: 606d 42be 3f07 1c3e e585 82bd bc86 ba3e
000001f0: c3cd 1abe 5878 c13c fdaa 92bd 7c24 bfbd
00000200: dbe3 313d 83fe 513e 6eb5 0abd b3ba 093e
00000210: 53b1 26be 2f38 a33d 0398 2bbd 9b5b 92bd
00000220: 143e abbd 7fb3 38be bdf1 27be 87db 4b3e
00000230: b5e9 a03c d660 7d3c ed0a 1ebd 9496 d2bd
00000240: c417 313c 5055 25be 6cf2 9f3d 9179 a63d
00000250: 0862 e13c b985 6c3d 06e2 16be dd64 033e
00000260: 2a73 81be c4ba 073e 5c5b 0c3d 0441 1e3c
00000270: cd01 3fbd cc0c 55be 259a 063e 3559 0a3e
00000280: a2f7 5e3e 1ecb 44bd be70 5b3e 9c3a 97bd
00000290: 676e 433d 4c93 bebb 6cac 89bc 0db0 043d
000002a0: 8ba7 24be 4c94 5ebd 151a d43d 07b9 b1bc
000002b0: b517 e1bd 6232 3b3c 10dd 8bbd 8804 0d3d
000002c0: 94f5 d7bc 7e4f a13d 68c6 0bbe 95d2 443d
000002d0: 3b51 6bbe 5bae 4c3e 5409 bc3d 38ed a43c
000002e0: 8dda 203d 032c 86bd 96aa ae3d aa27 253d
000002f0: fada 6739 6ef2 083e ca12 813d 2f74 e93d
00000300: ca72 0ebe 27a8 70bc 5d06 b9bc 7a85 ba3e
00000310: bea4 02be 918a 9fbc 32ce b63c e712 b5bd
00000320: dc46 03bd e444 9b3d d5bd 4ebd 4288 863d
00000330: 0ae7 dabd 4d2d bcbb 91c0 1c3e 0618 0c3e
00000340: aaf3 6c3e ceda dbbd ec76 cd3d e068 523e
00000350: f03a 1c3b a056 59bd ab19 59be 5151 793c
00000360: 45ba 7e3e d754 efbd 570b 10be 1825 18be
00000370: 2439 123d e23e 1ebe 6057 8bbd e63a 4bbd
00000380: b7a6 d8bd 5f57 743d 919a 493e dbd9 033e
00000390: 6fc0 043e 8c40 4ebe c0d1 813d 9952 22be
000003a0: d59b a7bd 131d 54bd e5c9 b2bc 498c 363e
000003b0: 92be 8fbd 06fd 313e 8798 293e 015a c83d
000003c0: b73b 7d3c dfb7 163d 2f5f 023e a13d 043d
000003d0: e9a7 3abe 65cd 133e f609 383d 2d20 533e
000003e0: 7e29 cdbc 9cde 96bd d965 f8bc baf3 f0bd
000003f0: fc60 713d c245 e8bd 4f33 ac3d 9ef7 793d

hidden_layers.1.bias f4 [50]
0.029388247 0.11931306 -0.010846002 -0.04992612 0.064512834 -0.047752894 0.014452588 -0.0042535355
-0.019885896 0.040708054 -0.19974926 0.034410883 -0.014339499 0.028264763 0.038298577 0.027961746
0.035311874 0.0325398 0.023634564 -0.06564767 -0.027409656 -0.028703071 -0.027964327 -0.079982385
-0.04363514 0.006299984 -0.10911501 -0.04932868 -0.0059650224 -0.08017558 0.04595549 -0.07469214
0.15009442 -0.021152586 0.06552759 -0.04464246 0.047577795 -0.11371998 0.081965975 0.0034067784
0.05233802 -0.1317504 -0.04586885 0.025882846 0.085990675 -0.04906937 -0.04610621 -0.06999517
0.057646118 0.0018783564
00000000: 9fbf f03c 685a f43d 6eb3 31bc 557f 4cbd
00000010: 4e1f 843d 8a98 43bd 8cca 6c3c 3e61 8bbb
00000020: bfe7 a2bc 7dbd 263d 128b 4cbe 6df2 0c3d
00000030: 38f0 6abc 818b e73c f8de 1c3d 0810 e53c
00000040: 2fa3 103d 7448 053d 469d c13c 4972 86bd
00000050: 378a e0bc b422 ebbc 7215 e5bc cecd a3bd
00000060: c3ba 32bd 1970 ce3b b177 dfbd df0c 4abd
00000070: 3c76 c3bb 1833 a4bd d33b 3c3d 31f8 98bd
00000080: 5ab2 193e 3048 adbc 5433 863d 03db 36bd
00000090: efe0 423d 05e6 e8bd c7dd a73d 4244 5f3b
000000a0: 6460 563d 94e9 06be fae0 3bbd 4308 d43c
000000b0: e11b b03d f7fc 48bd ded9 3cbd a159 8fbd
000000c0: 561e 6c3d 2f33 f63a

hidden_lns.0.weight f4 [50]
1.0 1.0 1.0 1.0 1.0 1.0 1.0 1.0
1.0 1.0 1.0 1.0 1.0 1.0 1.0 1.0
1.0 1.0 1.0 1.0 1.0 1.0 1.0 1.0
1.0 1.0 1.0 1.0 1.0 1.0 1.0 1.0
1.0 1.0 1.0 1.0 1.0 1.0 1.0 1.0
1.0 1.0 1.0 1.0 1.0 1.0 1.0 1.0
1.0 1.0
00000000: 0000 803f 0000 803f 0000 803f 0000 803f
00000010: 0000 803f 0000 803f 0000 803f 0000 803f
00000020: 0000 803f 0000 803f 0000 803f 0000 803f
00000030: 0000 803f 0000 803f 0000 803f 0000 803f
00000040: 0000 803f 0000 803f 0000 803f 0000 803f
00000050: 0000 803f 0000 803f 0000 803f 0000 803f
00000060: 0000 803f 0000 803f 0000 803f 0000 803f
00000070: 0000 803f 0000 803f 0000 803f 0000 803f
00000080: 0000 803f 0000 803f 0000 803f 0000 803f
00000090: 0000 803f 0000 803f 0000 803f 0000 803f
000000a0: 0000 803f 0000 803f 0000 803f 0000 803f
000000b0: 0000 803f 0000 803f 0000 803f 0000 803f
000000c0: 0000 803f 0000 803f

hidden_lns.0.bias f4 [50]
0.0 0.0 0.0 0.0 0.0 0.0 0.0 0.0
0.0 0.0 0.0 0.0 0.0 0.0 0.0 0.0
0.0 0.0 0.0 0.0 0.0 0.0 0.0 0.0
0.0 0.0 0.0 0.0 0.0 0.0 0.0 0.0
0.0 0.0 0.0 0.0 0.0 0.0 0.0 0.0
0.0 0.0 0.0 0.0 0.0 0.0 0.0 0.0
0.0 0.0
00000000: 0000 0000 0000 0000 0000 0000 0000 0000
00000010: 0000 0000 0000 0000 0000 0000 0000 0000
00000020: 0000 0000 0000 0000 0000 0000 0000 0000
00000030: 0000 0000 0000 0000 0000 0000 0000 0000
00000040: 0000 0000 0000 0000 0000 0000 0000 0000
00000050: 0000 0000 0000 0000 0000 0000 0000 0000
00000060: 0000 0000 0000 0000 0000 0000 0000 0000
00000070: 0000 0000 0000 0000 0000 0000 0000 0000
00000080: 0000 0000 0000 0000 0000 0000 0000 0000
00000090: 0000 0000 0000 0000 0000 0000 0000 0000
000000a0: 0000 0000 0000 0000 0000 0000 0000 0000
000000b0: 0000 0000 0000 0000 0000 0000 0000 0000
000000c0: 0000 0000 0000 0000

hidden_lns.1.weight f4 [50]
1.0 1.0 1.0 1.0 1.0 1.0 1.0 1.0
1.0 1.0 1.0 1.0 1.0 1.0 1.0 1.0
1.0 1.0 1.0 1.0 1.0 1.0 1.0 1.0
1.0 1.0 1.0 1.0 1.0 1.0 1.0 1.0
1.0 1.0 1.0 1.0 1.0 1.0 1.0 1.0
1.0 1.0 1.0 1.0 1.0 1.0 1.0 1.0
1.0 1.0
00000000: 0000 803f 0000 803f 0000 803f 0000 803f
00000010: 0000 803f 0000 803f 0000 803f 0000 803f
00000020: 0000 803f 0000 803f 0000 803f 0000 803f
00000030: 0000 803f 0000 803f 0000 803f 0000 803f
00000040: 0000 803f 0000 803f 0000 803f 0000 803f
00000050: 0000 803f 0000 803f 0000 803f 0000 803f
00000060: 0000 803f 0000 803f 0000 803f 0000 803f
00000070: 0000 803f 0000 803f 0000 803f 0000 803f
00000080: 0000 803f 0000 803f 0000 803f 0000 803f
00000090: 0000 803f 0000 803f 0000 803f 0000 803f
000000a0: 0000 803f 0000 803f 0000 803f 0000 803f
000000b0: 0000 803f 0000 803f 0000 803f 0000 803f
000000c0: 0000 803f 0000 803f

hidden_lns.1.bias f4 [50]
0.0 0.0 0.0 0.0 0.0 0.0 0.0 0.0
0.0 0.0 0.0 0.0 0.0 0.0 0.0 0.0
0.0 0.0 0.0 0.0 0.0 0.0 0.0 0.0
0.0 0.0 0.0 0.0 0.0 0.0 0.0 0.0
0.0 0.0 0.0 0.0 0.0 0.0 0.0 0.0
0.0 0.0 0.0 0.0 0.0 0.0 0.0 0.0
0.0 0.0
00000000: 0000 0000 0000 0000 0000 0000 0000 0000
00000010: 0000 0000 0000 0000 0000 0000 0000 0000
00000020: 0000 0000 0000 0000 0000 0000 0000 0000
00000030: 0000 0000 0000 0000 0000 0000 0000 0000
00000040: 0000 0000 0000 0000 0000 0000 0000 0000
00000050: 0000 0000 0000 0000 0000 0000 0000 0000
00000060: 0000 0000 0000 0000 0000 0000 0000 0000
00000070: 0000 0000 0000 0000 0000 0000 0000 0000
00000080: 0000 0000 0000 0000 0000 0000 0000 0000
00000090: 0000 0000 0000 0000 0000 0000 0000 0000
000000a0: 0000 0000 0000 0000 0000 0000 0000 0000
000000b0: 0000 0000 0000 0000 0000 0000 0000 0000
000000c0: 0000 0000 0000 0000

output_layer.weight f4 [1, 50]
0.2605649 -0.31255478 -0.06532809 0.15163194 -0.2718581 0.10698257 0.17193948 -0.06321966
0.17784812 -0.17090859 0.412449 -0.10893778 0.5544877 -0.028546566 -0.23654376 -0.10194253
-0.20957142 -0.13773575 -0.2631315 0.150583 0.1494163 0.14662753 0.023600819 0.19842006
0.30230972 0.0017236699 0.18978412 0.12162327 0.10629235 0.34501258 -0.14886262 0.29573104
-0.31786156 -0.41192004 -0.25490785 0.2823625 -0.0773857 0.2771396 -0.35014695 0.31611425
-0.14593181 0.17302339 0.022207087 -0.08159597 -0.20628393 0.1974831 0.22416018 0.14260925
-0.15284432 -0.059263498
00000000: c368 853e 2e07 a0be bcca 85bd 6745 1b3e
00000010: fc30 8bbe ad19 db3d e710 303e 4f79 81bd
00000020: d11d 363e a902 2fbe 842c d33e c51a dfbd
00000030: e8f2 0d3f 7dda e9bc 8738 72be 3fc7 d0bd
00000040: e499 56be 9a0a 0dbe 2cb9 86be 6e32 1a3e
00000050: 9600 193e 8725 163e 8156 c13c a12e 4b3e
00000060: 57c8 9a3e c4ec e13a c556 423e 9f15 f93d
00000070: ceaf d93d 7da5 b03e 716f 18be 0f6a 973e
00000080: c0be a2be 2fe7 d2be 4883 82be d191 903e
00000090: 657c 9ebd 3ee5 8d3e 7646 b3be bad9 a13e
000000a0: 266f 15be 0b2d 313e a3eb b53c ca1b a7bd
000000b0: 183c 53be 0339 4a3e 3f8a 653e 2908 123e
000000c0: 3983 1cbe 48be 72bd

a f4 [4]
0.2 0.2 0.2 0.2
00000000: cdcc 4c3e cdcc 4c3e cdcc 4c3e cdcc 4c3e

input_layer.weight f4 [50, 2]
-0.27746972 -0.3051228 -0.05474296 -0.018652882 0.36856496 -0.014700766 -0.41077086 0.03306974
-0.34615028 -0.16509683 0.12986003 -0.15794902 0.741456 -0.12197627 0.27544966 -0.037925184
-0.06084777 -0.2859407 0.1724559 0.025962198 -0.18793717 -0.056978825 -0.4863109 0.049271148
-0.06841297 0.17800812 0.033470746 -0.1728725 0.43705592 -0.13369086 -0.17657197 0.097219214
-0.11995109 0.099425755 0.14558044 -0.21094766 -0.099563636 -0.06573772 -0.08164307 0.17001182
-0.2657161 -0.26302254 0.162049 -0.06678277 -0.14930266 0.1908883 -0.084095635 0.01975943
-0.08947449 -0.21762143 -0.06118957 0.19923496 0.056418784 0.14711636 -0.27058905 -0.07668763
-0.20947415 -0.031017244 0.14700826 0.20252968 0.1898746 0.15786095 0.0031931866 -0.06163315
-0.27720326 0.022493292 0.07717066 0.05140836 0.22683537 0.08679093 0.033878967 0.21945216
0.19192451 0.16139776 -0.061540432 -0.00448112 0.08937828 0.19272828 -0.13834652 0.05522249
-0.20775104 -0.21549405 -0.012449856 -0.00087132084 -0.050364625 -0.1637899 0.11675741 0.16823605
-0.0684388 0.25306726 0.13149977 -0.22881621 0.19232629 -0.15537642 -0.28482446 0.0007196918
-0.026851749 0.017663402 0.57937735 -0.118763745
00000000: 8310 8ebe 0e39 9cbe 273a 60bd eecd 98bc
00000010: 8cb4 bc3e 7bdb 70bc 8f50 d2be 2374 073d
00000020: 9c3a b1be 250f 29be 07fa 043e 63bd 21be
00000030: 0fd0 3d3f b2ce f9bd bd07 8d3e 7057 1bbd
00000040: 833b 79bd d266 92be 4898 303e adae d43c
00000050: 9a72 40be a162 69bd befd f8be 8bd0 493d
00000060: 191c 8cbd c347 363e 9f18 093d 7d05 31be
00000070: cbc5 df3e 42e6 08be 48cf 34be de1a c73d
00000080: eba8 f5bd bb9f cb3d 0a13 153e aa02 58be
00000090: 05e8 cbbd 7fa1 86bd 7b34 a7bd 9417 2e3e
000000a0: f10b 88be e4aa 86be 2cf0 253e 68c5 88bd
000000b0: cce2 18be 3978 433e 553a acbd 87de a13c
000000c0: 673e b7bd 27d8 5ebe eaa1 7abd 4004 4c3e
000000d0: 6217 673d aca5 163e a68a 8abe 670e 9dbd
000000e0: 6480 56be e017 febc 5589 163e f163 4f3e
000000f0: 7d6e 423e 4da6 213e c844 513b 0b73 7cbd
00000100: 96ed 8dbe da43 b83c a70b 9e3d 9391 523d
00000110: 8847 683e 71bf b13d acc4 0a3d 11b8 603e
00000120: dc87 443e 7445 253e d211 7cbd 5cd6 92bb
00000130: f60b b73d 905a 453e b6aa 0dbe fa30 623d
00000140: b0bc 54be 79aa 5cbe 7bfa 4bbc 5a69 64ba
00000150: 234b 4ebd 8ab8 27be 821e ef3d 1246 2c3e
00000160: a429 8cbd 0892 813e e0a7 063e cc4e 6abe
00000170: 2ff1 443e ff1a 1fbe 83d4 91be b3a9 3c3a
00000180: 33f8 dbbc d7b2 903c 1352 143f 683a f3bd

input_layer.bias f4 [50]
0.17292888 0.3825 0.010808114 0.11541124 0.17074478 -0.09938813 0.17005032 0.042561483
-0.15617217 -0.062339883 0.31422865 0.21604602 -0.1280061 0.043450348 -0.0775732 0.04280643
0.060493346 -0.07198108 -0.16149703 -0.0067177704 -0.08211925 -0.49936113 0.18372582 0.2361064
0.20733112 -0.1853942 0.19333185 -0.21592288 -0.25626016 0.017530652 0.06064903 0.06996644
-0.46581817 -0.089989975 0.24016976 -0.12221174 -0.011406646 -0.28279206 0.20787646 0.012370951
0.110363506 -0.24186304 -0.08068727 0.06591282 -0.112222806 -0.0036844895 0.022999447 0.31779122
0.21907775 -0.124841645
00000000: 4514 313e 0ad7 c33e 8414 313c ba5c ec3d
00000010: b8d7 2e3e 018c cbbd ac21 2e3e f354 2e3d
00000020: 99eb 1fbe 1b58 7fbd 94e2 a03e 2b3b 5d3e
00000030: 0814 03be fef8 313d b3de 9ebd cc55 2f3d
00000040: dfc7 773d d16a 93bd 7a5f 25be be20 dcbb
00000050: 232e a8bd 43ac ffbe 9f22 3c3e e0c5 713e
00000060: 9c4e 543e fad7 3dbe c9f8 453e e31a 5dbe
00000070: 8834 83be 719c 8f3c 1e6b 783d 914a 8f3d
00000080: b87f eebe aa4c b8bd 10ef 753e 264a fabd
00000090: f1e2 3abc 1fca 90be 91dd 543e 87af 4a3c
000000a0: 4306 e23d f2aa 77be 5e3f a5bd 4dfd 863d
000000b0: 12d5 e5bd 7a77 71bb 5669 bc3c 88b5 a23e
000000c0: eb55 603e faac ffbd

input_ln.weight f4 [50]
0.9887918 1.0320982 0.9855273 1.0093076 0.9667828 0.9877568 0.94966257 0.9873224
0.9638847 0.9876405 0.9904838 1.0166987 0.9934464 0.995068 0.9774825 0.9778188
0.9956775 1.0073 1.060259 0.9740916 1.0031791 1.0150123 1.0144235 1.0130558
0.9467467 0.97614634 0.9897717 1.028017 1.0543425 0.97780097 1.0298735 0.99878865
1.0361527 1.0083607 0.98621285 0.9791613 0.9903713 1.0356714 0.9940499 0.9965645
0.9394568 1.0394198 0.97776145 0.9810934 0.95825154 0.97579914 1.0107775 1.0061724
1.0094486 1.0033605
00000000: 7621 7d3f cb1b 843f 844b 7c3f fe30 813f
00000010: 147f 773f a1dd 7c3f 161d 733f 29c1 7c3f
00000020: 26c1 763f 02d6 7c3f 5990 7d3f 2f23 823f
00000030: 8152 7e3f c7bc 7e3f 4b3c 7a3f 5552 7a3f
00000040: b8e4 7e3f 35ef 803f 91b6 873f 115e 793f
00000050: 2c68 803f eceb 813f a1d8 813f d0ab 813f
00000060: fe5d 723f bae4 793f ae61 7d3f 1096 833f
00000070: b2f4 863f 2a51 7a3f e5d2 833f 9db0 7f3f
00000080: a7a0 843f f711 813f 7278 7c3f 51aa 7a3f
00000090: f988 7d3f e190 843f 0e7a 7e3f da1e 7f3f
000000a0: 3e80 703f b50b 853f 934e 7a3f f028 7b3f
000000b0: f94f 753f f9cd 793f 2861 813f 42ca 803f
000000c0: 9d35 813f 1e6e 803f

input_ln.bias f4 [50]
0.11879637 -0.36523056 -0.023878688 0.05125466 -0.06105801 0.113862514 0.06690732 -0.049968235
-0.07363904 -0.14187565 -0.03723908 0.083704926 -0.27271417 0.21468773 0.014547163 -0.13240032
0.20457764 -0.26831064 0.20268452 0.13443285 -0.07465439 0.1574814 0.11744914 -0.18544522
0.107847676 -0.19655038 0.08950579 0.12423744 -0.029746491 -0.20104147 0.1161394 -0.2975255
0.06357939 0.35896054 -0.058425285 -0.07467002 0.16566117 0.1939023 0.12265536 -0.033339676
0.07488227 0.38755485 -0.25211778 0.17654023 0.078834556 0.24327159 -0.1539413 -0.034080677
0.14298911 -0.07249881
00000000: 834b f33d 80ff babe 3d9d c3bc 68f0 513d
00000010: f717 7abd c030 e93d b406 893d 7eab 4cbd
00000020: 11d0 96bd da47 11be 0188 18bd 7d6d ab3d
00000030: 31a1 8bbe 1ad7 5b3e 3957 6e3c f393 07be
00000040: cd7c 513e 0360 89be 888c 4f3e c4a8 093e
00000050: 67e4 98bd ce42 213e 2d89 f03d 5ae5 3dbe
00000060: 3edf dc3d 8144 49be d04e b73d 3370 fe3d
00000070: eaae f3bc d1dd 4dbe 7eda ed3d 4355 98be
00000080: e935 823d adc9 b73e 5a4f 6fbd 98ec 98bd
00000090: 15a3 293e 538e 463e bc32 fb3d 2f8f 08bd
000000a0: e05b 993d 976d c63e 9515 81be f6c6 343e
000000b0: 0374 a13d 301c 793e caa2 1dbe 2e98 0bbd
000000c0: bd6b 123e 427a 94bd

hidden_layers.0.weight f4 [50, 50]
0.07893809 0.14937048 0.05887354 0.05527426 -0.048381627 0.22965914 -0.047082677 -0.0073013315
-0.23341008 0.15487926 -0.14659175 0.2192113 -0.26300514 -0.0700796 0.043593477 0.049619764
-0.10430033 -0.06294855 -0.07215442 -0.08076186 0.06958314 -0.2019587 -0.14418581 -0.05292986
-0.17404374 0.16782774 0.15809776 -0.008470732 0.071966186 -0.11262366 -0.040813558 -0.17742151
-0.11248443 -0.26974395 -0.09486921 0.2934617 -0.0863303 -0.05906525 -0.0043612914 -0.13205548
-0.01418827 -0.051492855 0.21641415 0.040336862 0.02264646 -0.054383624 0.3173614 0.4806588
-0.0419516 0.09098707 -0.1400932 0.23895095 -0.001245161 0.26644203 0.065069646 -0.08503453
0.26435697 -0.09356906 0.047652125 0.00028550436 0.11024463 -0.03862172 0.06461482 0.010352657
0.0969737 0.17974468 0.050851036 -0.099199295 -0.08086143 -0.14141482 0.02131402 -0.15526347
-0.06267632 0.27713254 -0.080721386 -0.06707783 0.0954973 -0.29045472 0.01693108 0.10155186
-0.104940556 0.071125455 -0.11748855 0.20150743 0.25502452 0.04150555 -0.17313403 -0.025822248
-0.046060435 -0.036412343 0.096758515 -0.19201787 0.11872617 0.22661573 -0.31101802 -0.14681812
0.28368214 0.2157618 0.20063694 -0.10747946 0.21855216 -0.24830996 0.099693485 -0.14985389
-0.20732184 -0.08690277 -0.23737939 -0.2299192 0.025399229 -0.15942906 -0.10153656 0.0116601065
-0.13193037 0.05649525 -0.07168914 0.055233564 -0.112280555 0.22017416 0.0039336774 0.03838777
-0.03262876 -0.0006827979 -0.005456032 -0.36457393 0.11166722 0.34599409 -0.30803016 0.13592389
0.036318455 -0.2105137 -0.10537432 0.020496625 -0.15914904 0.077961504 -0.22482458 0.05124218
0.06634801 -0.05457712 0.023928236 0.08509595 0.11014686 -0.021052243 -0.19667667 0.21129178
-0.1682365 -0.006312319 -0.05532303 0.34263167 0.22143883 -0.20872533 -0.1314911 0.026823346
0.12929785 0.1734196 -0.10238119 -0.0843236 -0.009195748 -0.22948354 -0.18699585 0.04058671
-0.034915138 0.009794793 0.22998108 0.0873346 -0.10599377 0.31897622 -0.11538602 0.0030288792
-0.13171448 0.08519062 0.082145445 -0.08940624 0.009592435 0.0016653117 -0.05248839 -0.09901705
-0.052613765 -0.068554625 0.012544726 0.031653516 0.12276258 0.054505568 0.18625447 0.07705167
-0.061989482 0.14139125 0.050698802 -0.17110468 -0.116947934 -0.067728505 0.016929979 -0.03345598
0.14178887 -0.0048220134 -0.15045093 -0.06718313 -0.053511616 0.03795751 0.0022401095 0.22478375
0.21561348 0.007897285 -0.008033927 -0.06689744 -0.043074656 0.059514686 -0.07336525 0.12408983
-0.28748184 -0.2206562 0.13852106 -0.08941381 -0.061473142 -0.002683723 -0.1178548 -0.16845512
0.13073872 -0.24209853 -0.20394775 -0.04003686 -0.15688966 -0.009246955 0.118448384 -0.26749817
0.27460167 -0.13337581 0.13515052 0.035626665 0.010106726 0.023058308 0.15641409 -0.10007539
0.21682307 0.07939969 0.050088346 -0.06994527 -0.0014537659 -0.13989444 0.2188109 0.0690693
-0.073639855 0.107949525 -0.14822382 0.16364871 -0.048669863 0.16057155 -0.1859654 -0.119395815
0.2026498 -0.07872811 -0.052415747 0.22301854 0.0273278 -0.1414868 0.19797169 0.027865816
00000000: 4baa a13d 93f4 183e 6225 713d 4367 623d
00000010: d02b 46bd c42b 6b3e c4d9 40bd 0240 efbb
00000020: 0d03 6fbe ab98 1e3e 261c 16be ed78 603e
00000030: 9ca8 86be e585 8fbd 138f 323d 183e 4b3d
00000040: 699b d5bd 2beb 80bd b2c5 93bd 7966 a5bd
00000050: 9b81 8e3d 43ce 4ebe 72a5 13be fbcc 58bd
00000060: 8638 32be 09db 2b3e 61e4 213e d3c8 0abc
00000070: 0263 933d 3ca7 e6bd 1e2c 27bd fcad 35be
00000080: 3d5e e6bd e11b 8abe ca4a c2bd 9d40 963e
00000090: f1cd b0bd 67ee 71bd 2ae9 8ebb 8d39 07be
000000a0: eb75 68bc 2cea 52bd ac9b 5d3e 4438 253d
000000b0: 1285 b93c 5dc1 5ebd 327d a23e e918 f63e
000000c0: 71d5 2bbd 6e57 ba3d 9874 0fbe 8faf 743e
000000d0: ac34 a3ba 176b 883e 3c43 853d 9526 aebd
000000e0: cc59 873e 23a1 bfbd e02e 433d bfaf 9539
000000f0: f0c7 e13d cf31 1ebd c654 843d 319e 293c
00000100: 269a c63d fd0e 383e 2d49 503d 0029 cbbd
00000110: ad9a a5bd 0ccf 10be bd9a ae3c 63fd 1ebe
00000120: 715c 80bd 51e4 8d3e 4151 a5bd 1a60 89bd
00000130: 1794 c33d 7bb6 94be 0cb3 8a3c 6cfa cf3d
00000140: 13eb d6bd 39aa 913d d69d f0bd f757 4e3e
00000150: 9392 823e b901 2a3d 0c4a 31be 2e89 d3bc
00000160: dea9 3cbd 1c25 15bd 5429 c63d 55a0 44be
00000170: b526 f33d f40d 683e c13d 9fbe 7d57 16be
00000180: c93e 913e a9f0 5c3e c573 4d3e 311e dcbd
00000190: 23cc 5f3e f744 7ebe 192c cc3d 4c73 19be
000001a0: 2d4c 54be 14fa b1bd 9513 73be f06f 6bbe
000001b0: 0b12 d03c 5f41 23be 66f2 cfbd 080a 3f3c
000001c0: c118 07be 9067 673d c1d1 92bd 973c 623d
000001d0: 59f3 e5bd 5675 613e 14e6 803b 7f3c 1d3d
000001e0: bca5 05bd cbfd 32ba 84c8 b2bb 6fa9 babe
000001f0: c9b1 e43d 2326 b13e 21b6 9dbe a22f 0b3e
00000200: a9c2 143d e790 57be 7ece d7bd 8ae8 a73c
00000210: f7f7 22be 48aa 9f3d 6a38 66be 52e3 513d
00000220: 77e1 873d 428c 5fbd 2605 c43c c946 ae3d
00000230: ad94 e13d c175 acbc 9c65 49be df5c 583e
00000240: 3046 2cbe 92d7 cebb 679a 62bd 6b6d af3e
00000250: dcc0 623e 18bc 55be 9aa5 06be a2bc db3c
00000260: a866 043e e894 313e 3bad d1bd dab1 acbd
00000270: c3a9 16bc bcfd 6abe d77b 3fbe 403e 263d
00000280: 2d03 0fbd 577a 203c 2980 6b3e 7cdc b23d
00000290: 4313 d9bd da50 a33e 814f ecbd 2980 463b
000002a0: 29e0 06be 6b78 ae3d df3b a83d 9e1a b7bd
000002b0: 9729 1d3c 9746 da3a 11fe 56bd 73c9 cabd
000002c0: 8881 57bd 5e66 8cbd 6588 4d3c 1ea7 013d
000002d0: f36a fb3d 3b41 5f3d 7eb9 3e3e 44cd 9d3d
000002e0: afe8 7dbd dec8 103e 8ca9 4f3d 1136 2fbe
000002f0: 6682 efbd 3eb5 8abd bdb0 8a3c 2309 09bd
00000300: 1a31 113e fb01 9ebb cf0f 1abe 4f97 89bd
00000310: ff2e 5bbd 5679 1b3d cdce 123b b62d 663e
00000320: c8c9 5c3e 9d63 013c bba0 03bc 8601 89bd
00000330: 0d6f 30bd acc5 733d 8540 96bd cf22 fe3d
00000340: d230 93be b3f3 61be 77d8 0d3e 961e b7bd
00000350: 43cb 7bbd 67e1 2fbb db5d f1bd 807f 2cbe
00000360: 5fe0 053e ade8 77be aed7 50be b1fd 23bd
00000370: afa7 20be 8a80 17bc 1195 f23d 85f5 88be
00000380: 9798 8c3e ab93 08be e664 0a3e 44ed 113d
00000390: ae96 253c c7e4 bc3c 042b 203e 53f4 ccbd
000003a0: de06 5e3e 4e9c a23d 7029 4d3d 773f 8fbd
000003b0: 4a8c beba 7d40 0fbe f70f 603e 3574 8d3d
000003c0: 7ed0 96bd a414 dd3d fcc7 17be 8793 273e
000003d0: 0d5a 47bd de6c 243e b76d 3ebe cb85 f4bd
000003e0: 6e83 4f3e 343c a1bd e5b1 56bd f95e 643e
000003f0: 8dde df3c eae1 10be 17b9 4a3e da46 e43c

hidden_layers.0.bias f4 [50]
-0.16363572 -0.1903596 0.03309792 -0.14955461 0.31689003 -0.034256194 0.17736585 -0.17197639
-0.09396556 0.14607847 -0.1781748 -0.11623648 0.1861725 -0.031782 -0.08675934 -0.19031818
0.16167621 -0.16844414 -0.2628802 0.16852681 0.18604031 -0.29115677 -0.014055705 -0.14993219
-0.09692378 -0.07523134 0.078443535 -0.12897447 -0.104506314 0.21941964 -0.1358348 0.07977309
-0.07939886 -0.15173227 0.045641623 0.18322322 0.1881727 0.111872405 -0.21149041 0.14244547
-0.0928046 0.15363629 0.22185667 -0.064773925 -0.1665009 0.053521547 -0.12544096 -0.07009011
-0.098336436 -0.061604563
00000000: 1f90 27be a1ed 42be af91 073d d824 19be
00000010: 693f a23e 3950 0cbd 659f 353e 941a 30be
00000020: 0471 c0bd 9895 153e 7473 36be 640d eebd
00000030: 01a4 3e3e d82d 02bd e1ae b1bd c5e2 42be
00000040: 738e 253e 9f7c 2cbe 3c98 86be 4b92 2c3e
00000050: 5a81 3e3e 8012 95be e649 66bc d387 19be
00000060: fa7f c6bd e412 9abd 01a7 a03d e211 04be
00000070: 6807 d6bd 8baf 603e 4718 0bbe 1360 a33d
00000080: df9b a2bd b45f 1bbe b6f2 3a3d de9e 3b3e
00000090: 58b0 403e 5c1d e53d f190 58be 3add 113e
000000a0: 5710 bebd d552 1d3e 652e 633e 31a8 84bd
000000b0: 367f 2abe 6939 5b3d 9873 00be 678b 8fbd
000000c0: 9d64 c9bd 1155 7cbd

hidden_layers.1.weight f4 [50, 50]
-0.014635049 0.06628125 -0.022157203 -0.06759056 0.04950257 -0.13535894 -0.048886612 -0.05534162
-0.24260421 0.004729192 -0.10668313 0.040629495 0.101959005 -0.015647424 0.3097187 -0.3607632
0.14716291 -0.020138437 -0.23523141 0.20520553 0.043316856 0.15762377 0.039737348 -0.13589826
-0.1376595 -0.18285288 -0.00504283 0.05446541 -0.11924708 -0.21049044 0.022790428 -0.10063328
0.13070653 -0.008546553 -0.13746151 0.027139276 -0.1482638 0.08740376 -0.06080406 -0.09327032
0.071584046 0.13221578 0.03143201 -0.10322346 0.061735235 0.1923956 0.30575648 0.06807502
-0.030743407 -0.35724077 -0.18034054 -0.12756303 0.0338081 -0.23361321 0.03290088 0.031926114
0.18736635 -0.18804377 -0.17258553 -0.051472966 -0.09920409 -0.1362298 0.0042743213 -0.13735406
0.18213436 -0.19414096 0.12181497 -0.022926489 -0.20047306 -0.05521953 0.15070026 -0.3145626
-0.09118155 -0.009186401 0.10659749 -0.17910828 0.034757987 0.08046675 0.1364638 0.052186333
0.021194011 -0.1242401 0.121115096 -0.06015934 -0.054605685 -0.002234028 0.077135995 0.14625865
-0.4200757 -0.17652568 0.01895801 -0.058326382 0.18639293 -0.09591527 0.17412736 -0.055904962
0.14086117 -0.03216649 -0.019482683 -0.19090219 0.08152592 -0.21270327 0.2405459 -0.05187416
0.27459604 -0.14381091 0.013719323 -0.013363751 0.35558757 0.049095 -0.25853735 -0.045107853
0.40665415 0.00066927663 -0.03964426 -0.17252283 0.20845896 -0.024442207 -0.20797342 -0.18287553
-0.24238668 -0.219404 -0.25801745 0.1455211 -0.032553438 -0.106702656 -0.11978954 0.07302293
-0.2779438 0.037363622 -0.12201253 0.116643935 -0.12598756 0.24330768 0.0068444572 0.0662201
0.13782701 0.04790797 0.04261836 0.18483809 0.04096419 0.26077718 -0.16312008 0.37631792
-0.16331822 0.20946008 -0.018804021 0.22913127 0.021917762 0.24070449 -0.15845534 0.09275815
-0.18092334 0.17677715 0.09569824 0.2745009 0.041510727 -0.14369433 -0.19306995 0.13875414
-0.22146042 0.13200821 0.054959055 -0.09904759 -0.010183682 -0.076246664 -0.004782736 0.14936385
-0.38072655 -0.081378594 -0.20779938 -0.19043526 0.08798519 0.061735477 -0.037413836 0.039651133
0.11130182 -0.018156225 0.04837444 0.101675086 0.05114916 0.33732158 -0.2792821 0.0415818
0.01897545 -0.09840705 -0.1845128 -0.05015332 -0.110238 0.061114233 -0.2771441 -0.082165934
-0.0558709 0.013523948 -0.14790824 0.14919959 0.24988244 0.015214805 -0.07083198 0.0024637699
0.28253886 0.042403586 0.048565876 -0.0005123346 -0.00041391078 0.026718648 0.0075185904 0.059317708
-0.04748174 0.014708414 -0.053468022 0.059611056 0.11611205 0.26729083 -0.048709366 0.13863274
-0.024607347 -0.042024646 0.17620684 -0.28101337 -0.02089614 -0.016885243 -0.21854311 -0.15522078
-0.029087875 -0.10718036 0.24436693 0.015991073 -0.013631545 0.13211107 0.001970907 0.0111228395
-0.057604484 -0.1493802 -0.0031178913 0.036962908 0.17111349 0.08806671 0.07986595 -0.041697156
-0.05771211 0.019021269 0.05784742 0.015538943 -0.06645624 -0.108071946 0.048289236 0.094822705
0.21849047 -0.0019921374 -0.064915866 -0.027803568 0.08914858 0.020785343 0.1520149 0.103762425
00000000: d8c7 6fbc 77be 873d 0683 b5bc eb6c 8abd
00000010: 35c3 4a3d 899b 0abe 543d 48bd e5ad 62bd
00000020: 3d6d 78be 56f7 9a3b af7c dabd 1d6b 263d
00000030: e2cf d03d 072f 80bc 7393 9e3e f4b5 b8be
00000040: e0b1 163e 5df9 a4bc 81e0 70be 6621 523e
00000050: 046d 313d 2068 213e a1c3 223d ea28 0bbe
00000060: 9df6 0cbe c93d 3bbe 533e a5bb 1f17 5f3d
00000070: d037 f4bd ce8a 57be feb2 ba3c d218 cebd
00000080: efd7 053e d706 0cbc b6c2 0cbe 3053 de3c
00000090: 77d2 17be be00 b33d ae0d 79bd 8204 bfbd
000000a0: a89a 923d 9363 073e dabe 003d d266 d3bd
000000b0: 16de 7c3d 5a03 453e 1d8c 9c3e eb6a 8b3d
000000c0: 99d9 fbbc 43e8 b6be 31ab 38be e29f 02be
000000d0: 5d7a 0a3d 4d38 6fbe 13c3 063d f5c4 023d
000000e0: f7dc 3f3e 8c8e 40be 43ba 30be 51d5 52bd
000000f0: 842b cbbd d37f 0bbe 9b0f 8c3b 8ba6 0cbe
00000100: 6e81 3a3e e3cc 46be 217a f93d 55d0 bbbc
00000110: cf48 4dbe e02d 62bd 2b51 1a3e 590e a1be
00000120: 64bd babd 8f82 16bc c94f da3d 2968 37be
00000130: 645e 0e3d c0cb a43d 2bbd 0b3e 56c1 553d
00000140: 109f ad3c 9871 febd 310b f83d a469 76bd
00000150: 36aa 5fbd c568 12bb 7af9 9d3d d4c4 153e
00000160: 2a14 d7be 26c3 34be d44d 9b3c a5e7 6ebd
00000170: cadd 3e3e 3a6f c4bd 714e 323e 9afc 64bd
00000180: e93d 103e 02c1 03bd 269a 9fbc dd7b 43be
00000190: 10f7 a63d e3ce 59be aa51 763e 007a 54bd
000001a0: da97 8c3e 2b43 13be 03c7 603c a2f3 5abc
000001b0: 930f b63e d717 493d 025f 84be 03c3 38bd
000001c0: f934 d03e 6572 2f3a 0562 22bd d3a9 30be
000001d0: 4476 553e 063b c8bc fcf6 54be b943 3bbe
000001e0: 3734 78be 71ab 60be dd1a 84be 7c03 153e
000001f0: c156 05bd ec86 dabd 3854 f5bd 0c8d 953d
00000200: a64e 8ebe 990a 193d b5e1 f9bd 04e3 ee3d
00000210: e202 01be a625 793e 7847 e03b 679e 873d
00000220: 8622 0d3e 263b 443d 9790 2e3d 3246 3d3e
00000230: 11ca 273d 9684 853e f308 27be beac c03e
00000240: e43c 27be b47c 563e e40a 9abc 63a1 6a3e
00000250: e18c b33c 3d7b 763e 1e42 22be fcf7 bd3d
00000260: f843 39be 1205 353e 70fd c33d 628b 8c3e
00000270: 2707 2a3d 9b24 13be 21b4 45be 9115 0e3e
00000280: 85c6 62be 292d 073e bf1c 613d 76d9 cabd
00000290: 75d9 26bc 3627 9cbd 7fb8 9cbb d6f2 183e
000002a0: 97ee c2be d2a9 a6bd 5cc9 54be 7601 43be
000002b0: 9431 b43d 57de 7c3d 403f 19bd 3a69 223d
000002c0: 35f2 e33d 5dbc 94bc 4724 463d 073b d03d
000002d0: c881 513d 6ab5 ac3e 10fe 8ebe ad51 2a3d
000002e0: 6772 9b3c a389 c9bd ecf0 3cbe 916d 4dbd
000002f0: 76c4 e1bd eb52 7a3d d5e5 8dbe 9d46 a8bd
00000300: e3d8 64bd 8d93 5d3c 4275 17be c7c7 183e
00000310: 2fe1 7f3e 8447 793c 5b10 91bd 3377 213b
00000320: efa8 903e 62af 2d3d 03ed 463d 314e 06ba
00000330: 2a02 d9b9 11e1 da3c 825e f63b 20f7 723d
00000340: 377c 42bd 8ffb 703c 4901 5bbd b92a 743d
00000350: 28cc ed3d 58da 883e 7983 47bd bef5 0d3e
00000360: 5995 c9bc 0922 2cbd 916f 343e fce0 8fbe
00000370: 622e abbc ec52 8abc c4c9 5fbe 32f2 1ebe
00000380: b249 eebc 6081 dbbd 533b 7a3e b6ff 823c
00000390: d856 5fbc 2048 073e 552a 013b 923c 363c
000003a0: aef2 6bbd 20f7 18be 8955 4cbb 6b66 173d
000003b0: 6038 2f3e 525c b43d c290 a33d a3ca 2abd
000003c0: 8963 6cbd 7ed2 9b3c 6bf1 6c3d 0d97 7e3c
000003d0: 361a 88bd d354 ddbd efca 453d 6832 c23d
000003e0: f7bb 5f3e 858e 02bb 9cf2 84bd 4fc4 e3bc
000003f0: 8893 b63d 0646 aa3c cba9 1b3e 6581 d43d

hidden_layers.1.bias f4 [50]
-0.063350506 0.13268508 0.15884578 0.085596524 0.09284499 0.080377586 0.08914914 -0.05534499
-0.0562512 0.24680442 0.10553157 0.047089405 -0.05686538 -0.15235016 0.07234607 -0.0750287
-0.060509168 0.051324442 0.05996099 0.09763189 -0.37761232 0.07572048 -0.094762854 -0.21400487
-0.11765376 0.047890335 -0.15981188 -0.12094153 -0.05837316 -0.040093705 0.06989325 0.056002166
-0.06127987 0.06776791 -0.09611536 0.14384976 0.08562975 0.1485812 0.09799301 -0.08149632
-0.08592521 0.13196763 -0.07817987 0.048117943 -0.08054346 -0.086688295 0.10257256 0.09018587
0.0959436 -0.082892716
00000000: e9bd 81bd 99de 073e 78a8 223e 3b4d af3d
00000010: 8425 be3d 019d a43d d393 b63d 6eb1 62bd
00000020: a967 66bd 4cba 7c3e f020 d83d d2e0 403d
00000030: aceb 68bd ae01 1cbe 2d2a 943d a6a8 99bd
00000040: 76d8 77bd 9439 523d a899 753d 3af3 c73d
00000050: 6756 c1be 5713 9b3d 0713 c2bd 1824 5bbe
00000060: 74f4 f0bd a828 443d baa5 23be 31b0 f7bd
00000070: b218 6fbd 4c39 24bd 3124 8f3d 8762 653d
00000080: 9a00 7bbd e7c9 8a3d 21d8 c4bd 5a4d 133e
00000090: a65e af3d ac25 183e 8fb0 c83d 8be7 a6bd
000000a0: 8ef9 afbd 8622 073e c51c a0bd 5217 453d
000000b0: f8f3 a4bd a289 b1bd 9011 d23d 5fb3 b83d
000000c0: 147e c43d a8c3 a9bd

hidden_lns.0.weight f4 [50]
1.0 1.0 1.0 1.0 1.0 1.0 1.0 1.0
1.0 1.0 1.0 1.0 1.0 1.0 1.0 1.0
1.0 1.0 1.0 1.0 1.0 1.0 1.0 1.0
1.0 1.0 1.0 1.0 1.0 1.0 1.0 1.0
1.0 1.0 1.0 1.0 1.0 1.0 1.0 1.0
1.0 1.0 1.0 1.0 1.0 1.0 1.0 1.0
1.0 1.0
00000000: 0000 803f 0000 803f 0000 803f 0000 803f
00000010: 0000 803f 0000 803f 0000 803f 0000 803f
00000020: 0000 803f 0000 803f 0000 803f 0000 803f
00000030: 0000 803f 0000 803f 0000 803f 0000 803f
00000040: 0000 803f 0000 803f 0000 803f 0000 803f
00000050: 0000 803f 0000 803f 0000 803f 0000 803f
00000060: 0000 803f 0000 803f 0000 803f 0000 803f
00000070: 0000 803f 0000 803f 0000 803f 0000 803f
00000080: 0000 803f 0000 803f 0000 803f 0000 803f
00000090: 0000 803f 0000 803f 0000 803f 0000 803f
000000a0: 0000 803f 0000 803f 0000 803f 0000 803f
000000b0: 0000 803f 0000 803f 0000 803f 0000 803f
000000c0: 0000 803f 0000 803f

hidden_lns.0.bias f4 [50]
0.0 0.0 0.0 0.0 0.0 0.0 0.0 0.0
0.0 0.0 0.0 0.0 0.0 0.0 0.0 0.0
0.0 0.0 0.0 0.0 0.0 0.0 0.0 0.0
0.0 0.0 0.0 0.0 0.0 0.0 0.0 0.0
0.0 0.0 0.0 0.0 0.0 0.0 0.0 0.0
0.0 0.0 0.0 0.0 0.0 0.0 0.0 0.0
0.0 0.0
00000000: 0000 0000 0000 0000 0000 0000 0000 0000
00000010: 0000 0000 0000 0000 0000 0000 0000 0000
00000020: 0000 0000 0000 0000 0000 0000 0000 0000
00000030: 0000 0000 0000 0000 0000 0000 0000 0000
00000040: 0000 0000 0000 0000 0000 0000 0000 0000
00000050: 0000 0000 0000 0000 0000 0000 0000 0000
00000060: 0000 0000 0000 0000 0000 0000 0000 0000
00000070: 0000 0000 0000 0000 0000 0000 0000 0000
00000080: 0000 0000 0000 0000 0000 0000 0000 0000
00000090: 0000 0000 0000 0000 0000 0000 0000 0000
000000a0: 0000 0000 0000 0000 0000 0000 0000 0000
000000b0: 0000 0000 0000 0000 0000 0000 0000 0000
000000c0: 0000 0000 0000 0000

hidden_lns.1.weight f4 [50]
1.0 1.0 1.0 1.0 1.0 1.0 1.0 1.0
1.0 1.0 1.0 1.0 1.0 1.0 1.0 1.0
1.0 1.0 1.0 1.0 1.0 1.0 1.0 1.0
1.0 1.0 1.0 1.0 1.0 1.0 1.0 1.0
1.0 1.0 1.0 1.0 1.0 1.0 1.0 1.0
1.0 1.0 1.0 1.0 1.0 1.0 1.0 1.0
1.0 1.0
00000000: 0000 803f 0000 803f 0000 803f 0000 803f
00000010: 0000 803f 0000 803f 0000 803f 0000 803f
00000020: 0000 803f 0000 803f 0000 803f 0000 803f
00000030: 0000 803f 0000 803f 0000 803f 0000 803f
00000040: 0000 803f 0000 803f 0000 803f 0000 803f
00000050: 0000 803f 0000 803f 0000 803f 0000 803f
00000060: 0000 803f 0000 803f 0000 803f 0000 803f
00000070: 0000 803f 0000 803f 0000 803f 0000 803f
00000080: 0000 803f 0000 803f 0000 803f 0000 803f
00000090: 0000 803f 0000 803f 0000 803f 0000 803f
000000a0: 0000 803f 0000 803f 0000 803f 0000 803f
000000b0: 0000 803f 0000 803f 0000 803f 0000 803f
000000c0: 0000 803f 0000 803f

hidden_lns.1.bias f4 [50]
0.0 0.0 0.0 0.0 0.0 0.0 0.0 0.0
0.0 0.0 0.0 0.0 0.0 0.0 0.0 0.0
0.0 0.0 0.0 0.0 0.0 0.0 0.0 0.0
0.0 0.0 0.0 0.0 0.0 0.0 0.0 0.0
0.0 0.0 0.0 0.0 0.0 0.0 0.0 0.0
0.0 0.0 0.0 0.0 0.0 0.0 0.0 0.0
0.0 0.0
00000000: 0000 0000 0000 0000 0000 0000 0000 0000
00000010: 0000 0000 0000 0000 0000 0000 0000 0000
00000020: 0000 0000 0000 0000 0000 0000 0000 0000
00000030: 0000 0000 0000 0000 0000 0000 0000 0000
00000040: 0000 0000 0000 0000 0000 0000 0000 0000
00000050: 0000 0000 0000 0000 0000 0000 0000 0000
00000060: 0000 0000 0000 0000 0000 0000 0000 0000
00000070: 0000 0000 0000 0000 0000 0000 0000 0000
00000080: 0000 0000 0000 0000 0000 0000 0000 0000
00000090: 0000 0000 0000 0000 0000 0000 0000 0000
000000a0: 0000 0000 0000 0000 0000 0000 0000 0000
000000b0: 0000 0000 0000 0000 0000 0000 0000 0000
000000c0: 0000 0000 0000 0000
