weights/models/model0002.pth (torch, 54408 bytes, 28 tensors)

a f4 [4]
0	0x3e4ccccd	0.2
1	0x3e4ccccd	0.2
2	0x3e4ccccd	0.2
3	0x3e4ccccd	0.2

input_layer.weight f4 [50, 2]
0	0x3e8036ef	0.2504191
1	0xbe3b2fd6	-0.18279967
2	0x3ccb81fe	0.024842259
3	0xbd5a846a	-0.053348936
4	0x3df23e91	0.1182834
5	0x3d4a626f	0.04941028
6	0xbeaf44b5	-0.34232107
7	0xbdecbcba	-0.11559434
8	0xbdd9494c	-0.106096834
9	0x3ec9fd43	0.39451036
10	0xbec44e76	-0.3834111
11	0xbdc24e30	-0.09487569
12	0xbd91e3f5	-0.071235575
13	0x3e8b4e8e	0.2720837
14	0x3ead2069	0.3381379
15	0xbe838915	-0.25690523
16	0x3db3933a	0.087683156
17	0x3e200323	0.15626197
18	0xbdf5599d	-0.11979983
19	0x3ecd125c	0.4005307
20	0x3eacf529	0.33780792
21	0xbe76de88	-0.24108326
22	0xbd320791	-0.043464247
23	0x3e3bc1ab	0.18335597
24	0xbde3f385	-0.11130432
25	0xbe6734f6	-0.22578797
26	0xbe7ebd62	-0.24876931
27	0x3dcdaa1a	0.1004221
28	0x3e1e6a81	0.15470316
29	0xbe2cd981	-0.16879846
30	0x3e40652b	0.18788593
31	0x3dfd816b	0.123782
32	0x3d2b2cf1	0.041790906
33	0x3e3f799a	0.18698731
34	0xbe77a5d2	-0.24184349
35	0xbea2e41a	-0.31814653
36	0x3e2b85a8	0.16750205
37	0x3e0257ee	0.12728855
38	0x3ea8a8c7	0.32941267
39	0xbe0f7ea4	-0.14013153
40	0xbdc76882	-0.0973673
41	0x3cccac00	0.02498436
42	0xbdff4b89	-0.12465579
43	0xbc8c4965	-0.017124841
44	0xbd7fa2c8	-0.0624111
45	0x3e81fceb	0.25388274
46	0x3dd3c926	0.103411004
47	0xbe56979e	-0.20956275
48	0x3ee6b7c6	0.45062083
49	0x3ef15084	0.4713174
50	0xbdfd6bfe	-0.123741135
51	0xbdd3895a	-0.10328932
52	0xbeb3ef01	-0.35143283
53	0xbd1fb9e9	-0.038995657
54	0xbe00a430	-0.12562633
55	0xbdcce49a	-0.1000454
56	0x3e019669	0.12655033
57	0x3e3c3e10	0.1838305
58	0x3d77515e	0.060380332
59	0x3e57c356	0.21070608
60	0x3e213af2	0.15745142
61	0xbe071343	-0.13190942
62	0x3d0478e6	0.03234186
63	0xbea53712	-0.32268578
64	0xbdeacb87	-0.11464601
65	0x3df021c5	0.11725191
66	0xbe22c427	-0.15895139
67	0x3e6e3b5c	0.23264831
68	0xbbe60321	-0.007019416
69	0xbcc3d5b8	-0.02390562
70	0xbde38fdf	-0.111114256
71	0x3da29324	0.07938221
72	0x3dda78f0	0.10667598
73	0xbe063ffc	-0.13110346
74	0x3df4ec45	0.11959127
75	0x3de5378e	0.11192237
76	0xbd3774ce	-0.044789128
77	0x3e0cbf30	0.13744807
78	0x3dc3645b	0.09540626
79	0xbd6e2877	-0.05814406
80	0x3e06ea4e	0.13175318
81	0x3e57fedc	0.21093315
82	0x3e8e319c	0.27772224
83	0xbe2ed943	-0.17075066
84	0x3e5397f0	0.20663428
85	0xbbaecc62	-0.005334423
86	0xbe45ac32	-0.19303969
87	0x3e10522b	0.14093845
88	0x3dc299c4	0.09501985
89	0xbee9b3bb	-0.45644936
90	0x3e81a368	0.25319982
91	0x3e816436	0.25271767
92	0xbe8063bb	-0.25076088
93	0xbe873fee	-0.26415962
94	0x3d46b63d	0.04851364
95	0x3e6e0664	0.23244625
96	0xbeac7a4a	-0.3368705
97	0xbe2fad66	-0.1715599
98	0xbe7abddc	-0.24486488
99	0xbd277b46	-0.040889047

input_layer.bias f4 [50]
0	0x3e4a9743	0.19784264
1	0x3e153e11	0.14574458
2	0x3c7ac7ff	0.015306472
3	0xbf3f5bfb	-0.74749726
4	0xbe4a12ab	-0.19733684
5	0x3c76bb43	0.015059295
6	0x3eb65dc4	0.35618412
7	0x3e878a6c	0.26472795
8	0xbd11b36f	-0.03557151
9	0xbefbeb28	-0.49202847
10	0xbea85e7c	-0.32884586
11	0x3db404ae	0.08789955
12	0xbede80e6	-0.43457717
13	0xbe23a38a	-0.15980354
14	0x3ef4e74a	0.4783271
15	0xbe3d16d5	-0.18465741
16	0xbedafa2d	-0.42768994
17	0x3e409c42	0.18809608
18	0xbc767ed7	-0.015044889
19	0x3e1fae07	0.1559373
20	0x3e911223	0.2833415
21	0xbeccbc3f	-0.3998737
22	0x3e29134f	0.16511272
23	0xbe7a9e30	-0.24474406
24	0xbf427302	-0.7595674
25	0x3f423e99	0.75876766
26	0xbe53fb0c	-0.20701236
27	0xbdc477e6	-0.09593181
28	0x3eea1ce6	0.45725173
29	0xbd84d906	-0.064867064
30	0xbe102cf4	-0.14079648
31	0xbe15e53e	-0.1463823
32	0x3d806029	0.06268341
33	0x3d5d1536	0.053975306
34	0x3cda10ef	0.026619403
35	0x3dabd34f	0.08389913
36	0x3dae0bce	0.08498345
37	0xbf197681	-0.5994645
38	0x3e281f3f	0.1641817
39	0x3ec73439	0.3890703
40	0x3e4e9802	0.20175174
41	0xbd7626be	-0.06009554
42	0x3e3a3d39	0.18187417
43	0x3ecf1630	0.40446615
44	0x3dec697e	0.115435585
45	0x3eecf68c	0.4628185
46	0xbe704ad7	-0.23466049
47	0x3e5df592	0.21675709
48	0x3d419788	0.047263652
49	0xbe04818f	-0.12940048

input_ln.weight f4 [50]
0	0x3f6f3015	0.9343274
1	0x3f87f04e	1.062021
2	0x3f83ce77	1.0297383
3	0x3f843c10	1.033083
4	0x3f84067a	1.0314476
5	0x3f8236ac	1.0172935
6	0x3f7f1f32	0.99656975
7	0x3f6ce375	0.9253457
8	0x3f74412a	0.9541193
9	0x3f854156	1.0410564
10	0x3f71da6a	0.944739
11	0x3f8b8848	1.0900965
12	0x3f82132e	1.0162103
13	0x3f81a269	1.0127689
14	0x3f6dc5b5	0.928798
15	0x3f7a60c3	0.97803897
16	0x3f85c278	1.0449972
17	0x3f7a48f3	0.9776756
18	0x3f8e8aff	1.1136168
19	0x3f7f1abe	0.9965018
20	0x3f817786	1.0114601
21	0x3f6e4704	0.9307711
22	0x3f7d8415	0.99029666
23	0x3f793db7	0.97359794
24	0x3f8db8be	1.1072004
25	0x3f764320	0.96196175
26	0x3f7fc52c	0.99910235
27	0x3f80c86d	1.0061165
28	0x3f828c5e	1.0199087
29	0x3f851fa8	1.0400286
30	0x3f7a53e2	0.97784245
31	0x3f809ab7	1.0047215
32	0x3f7e3111	0.9929362
33	0x3f84bb2d	1.0369622
34	0x3f8425c8	1.032403
35	0x3f7b3b39	0.9813724
36	0x3f824bce	1.0179384
37	0x3f808e8b	1.0043501
38	0x3f8209f7	1.0159291
39	0x3f8892c4	1.0669789
40	0x3f81f8bc	1.0154033
41	0x3f801d6b	1.0008978
42	0x3f75c879	0.9600902
43	0x3f8ddf96	1.1083858
44	0x3f7ffc67	0.9999451
45	0x3f819c25	1.0125777
46	0x3f85eba4	1.0462537
47	0x3f7b369b	0.98130196
48	0x3f781e91	0.9692164
49	0x3f84ed63	1.0384945

input_ln.bias f4 [50]
0	0xbd9eba5b	-0.07750388
1	0xbd10e820	-0.03537762
2	0x3da38e76	0.07986157
3	0xbe26e545	-0.16298397
4	0x3e2dfe10	0.16991448
5	0xbca04e7f	-0.01956868
6	0x3e1166db	0.14199392
7	0x3e0d813d	0.13818832
8	0x3e53e23d	0.20691772
9	0xbde80292	-0.11328615
10	0xbc8b3128	-0.016991213
11	0x3e712bd7	0.2355188
12	0xbd41b5b2	-0.04729242
13	0x3d998684	0.0749636
14	0x3cb0b015	0.021568337
15	0x3dea8dd0	0.1145283
16	0xbde7eec3	-0.11324837
17	0xbd1b3deb	-0.037900846
18	0xbde99d30	-0.11406934
19	0xbdb48ac6	-0.088155314
20	0x3e81bdc3	0.2534009
21	0xbd2d780e	-0.04235082
22	0x3e023539	0.12715615
23	0x3c7b8e24	0.015353713
24	0xbd2bd0ad	-0.041947056
25	0x3e8a1692	0.26970345
26	0xbc96bb60	-0.018399894
27	0xbdba6ad3	-0.09102406
28	0x3d12b3b8	0.035815924
29	0xbd248c88	-0.040173084
30	0x3dade83c	0.08491561
31	0x3d68c138	0.056824893
32	0x3dc4ee34	0.09615746
33	0x3e25a4e4	0.16176182
34	0xbe0d36c7	-0.13790427
35	0x3ba2f369	0.0049728644
36	0xbbc9d4fb	-0.0061594225
37	0x3d5e2452	0.054233856
38	0x3e02b82d	0.1276557
39	0xbc91fec7	-0.017821683
40	0x3c1ed013	0.009693163
41	0xbe0a7fe0	-0.13525343
42	0xbe094d4a	-0.1340839
43	0x3eae1edb	0.34007916
44	0xbc968444	-0.018373616
45	0xbda00010	-0.07812512
46	0xbdf6a42b	-0.12043031
47	0x3d89459e	0.067027315
48	0xbcf3c73e	-0.029758092
49	0x3d57b927	0.05266681

hidden_layers.0.weight f4 [50, 50]
0	0x3e533640	0.20626163
1	0xbe395a92	-0.18100956
2	0xbe2f9f3f	-0.17150591
3	0xbd809458	-0.06278294
4	0x3c685682	0.014180781
5	0x3dcd09f0	0.10011661
6	0xbcd5f896	-0.026119512
7	0xbb8bb505	-0.0042635226
8	0xbdb5c131	-0.08874739
9	0x3e6eda80	0.23325539
10	0xbe51d412	-0.20491055
11	0xbd1cccba	-0.03828118
12	0xbe35f3e9	-0.17768826
13	0x3d89ac9c	0.06722376
14	0x3d51058c	0.05103068
15	0xbd8df72d	-0.06931911
16	0x3e01b8d1	0.12668158
17	0xbe351c93	-0.17686681
18	0x3d20f568	0.039296538
19	0x3d352331	0.044223014
20	0xbde3310b	-0.110933386
21	0x3c8078f7	0.01568268
22	0xbda6a1d8	-0.08136338
23	0xbd26967e	-0.040670864
24	0xbe5419ec	-0.20713013
25	0xbe40b2a7	-0.1881815
26	0x3e1de074	0.15417653
27	0x3e53605c	0.20642227
28	0x3dd66247	0.10467964
29	0x3de7da12	0.113208905
30	0xbdfba0f6	-0.1228656
31	0xbe3b5803	-0.18295293
32	0xbe1b5b9c	-0.15171665
33	0xbcb884e0	-0.022524297
34	0x3d731933	0.059350204
35	0xbe5a63ac	-0.21327084
36	0xbd09297e	-0.033486836
37	0xbe335833	-0.17514114
38	0xbcbc1b1c	-0.022962146
39	0xbe4c2d3d	-0.19939132
40	0xbd222b55	-0.039592106
41	0xbd031c82	-0.03200961
42	0x3e07b10b	0.1325113
43	0xbe9b34b2	-0.3031364
44	0x3e10d6cd	0.1414444
45	0x3d58e3f5	0.05295177
46	0x3d6f10c5	0.058365602
47	0x3e0d2b8a	0.1378614
48	0xbe420b41	-0.18949606
49	0xbe413725	-0.18868692
50	0xbcfe0ee4	-0.03101296
51	0x3ea1027a	0.31447202
52	0xbc83c641	-0.016085746
53	0x3e29e165	0.16589887
54	0x3ebd4e04	0.36973584
55	0xbdcf39b7	-0.1011843
56	0x3d907e80	0.07055378
57	0x3dcad465	0.09903792
58	0x3e845d5e	0.25852484
59	0x3e490f50	0.19634748
60	0x3c95944b	0.018259188
61	0xbd3878c5	-0.04503705
62	0xbe4b222d	-0.19837256
63	0xbdbbc3a7	-0.09168177
64	0x3df75314	0.12076393
65	0x3e240aff	0.1601982
66	0xbaf33e08	-0.0018557915
67	0xbdfbd811	-0.12297071
68	0xbd34b1ef	-0.044115003
69	0xbd53a65a	-0.051672317
70	0x3e145915	0.14487107
71	0x3e81b4f4	0.2533337
72	0xbd9ad8a8	-0.07560855
73	0x3e3898d9	0.18027057
74	0x3e808ad3	0.25105914
75	0x3d935dca	0.07195623
76	0xbdf920cb	-0.12164458
77	0x3d95b3cc	0.07309684
78	0xbbd7b23a	-0.0065825256
79	0xbd23f442	-0.040027864
80	0x3ca41245	0.020028243
81	0xbc6fc48c	-0.014634263
82	0xbe2b7afa	-0.1674613
83	0xbe0edf34	-0.13952333
84	0xbcd72ca0	-0.026266396
85	0x3e3515d1	0.17684104
86	0xbe486f0a	-0.19573608
87	0xbd17318c	-0.036912486
88	0xbc76e512	-0.015069263
89	0xbe62ae44	-0.2213679
90	0xbd5e434d	-0.0542634
91	0xbe07da47	-0.1326686
92	0x3e8fb770	0.2806964
93	0xbe1013e5	-0.14070089
94	0x3e032893	0.12808447
95	0xbd6b3ecb	-0.05743293
96	0xbe4296b6	-0.19002804
97	0xbe0bc322	-0.13648656
98	0x3e32f342	0.17475608
99	0x3d43fd44	0.047848955
100	0xbdcc732b	-0.09982904
101	0xbde54682	-0.11195089
102	0xbe433952	-0.19064835
103	0xbca2e69c	-0.019885354
104	0x3db98e79	0.09060378
105	0xbe2616da	-0.16219655
106	0x3d560606	0.05225184
107	0x3d123ea7	0.03570428
108	0xbde477d2	-0.111556664
109	0x3e9d7a56	0.30757397
110	0xbe4a22b5	-0.19739802
111	0x3e3d029d	0.18458028
112	0x3e48ffc7	0.19628821
113	0xbceae814	-0.028675117
114	0xbe820832	-0.25396878
115	0xbe8c5038	-0.27404952
116	0x3d5bf410	0.053699553
117	0xbd98697b	-0.07441994
118	0xbc2ce1f4	-0.010551918
119	0xbbed28ab	-0.007237514
120	0x3a62256c	0.0008626792
121	0x3e7b2203	0.24524693
122	0xbcaaa8f0	-0.020832509
123	0x3e134545	0.14381893
124	0x3d6f9bcb	0.058498185
125	0x3e6d3df4	0.23168164
126	0x3e0b70ae	0.13617203
127	0xbda2a5a4	-0.0794175
128	0xbdbfcec3	-0.093656085
129	0xbdd9c2f2	-0.10632886
130	0x3ea0bb6d	0.31392995
131	0xbe7a73f1	-0.2445829
132	0xbd218ef5	-0.039442975
133	0x3dd597df	0.10429358
134	0x3debd959	0.11516065
135	0xbe0ecdcc	-0.13945693
136	0x3e5131ce	0.20429155
137	0xbe30e4f1	-0.17274834
138	0x3e153c6e	0.14573833
139	0xbd6e64ee	-0.058201723
140	0xbd804d26	-0.06264715
141	0x3d453755	0.04814847
142	0xbe5a7014	-0.21331817
143	0x3e2d0762	0.16897348
144	0xbda70920	-0.08156037
145	0xbe452ba7	-0.19254933
146	0xbe27eef5	-0.16399749
147	0x3db28788	0.08717257
148	0xbd641069	-0.055679712
149	0x3d008915	0.03138073
150	0x3df7189f	0.12065243
151	0x3d803ed2	0.06261982
152	0xbd401da0	-0.046903253
153	0x3e6e0f54	0.23248035
154	0x3d36e8ba	0.04465554
155	0x3e5c460d	0.21511097
156	0x3d375d91	0.044766966
157	0x3de79e11	0.11309446
158	0xbc2701aa	-0.010193268
159	0x3de4a18e	0.111636266
160	0x3e573044	0.21014506
161	0x3d3596e3	0.04433335
162	0x3db9dd9f	0.09075474
163	0x3d37d8b3	0.044884395
164	0xbed1a303	-0.4094468
165	0xbeaaa1b8	-0.33326507
166	0x3d59d789	0.053184066
167	0xbc94f8b4	-0.018184997
168	0xbe080d73	-0.1328638
169	0xbe5d6d7a	-0.21623793
170	0xbe0c6224	-0.13709313
171	0x3d8dafbf	0.069182865
172	0xbe38af60	-0.1803565
173	0x3ed2a252	0.41139466
174	0x3dd8ae11	0.105800755
175	0x3d360735	0.044440467
176	0xbbfe1cd0	-0.0077548996
177	0x3da4606a	0.08026202
178	0xbe3bb317	-0.18330036
179	0xbe7b22b4	-0.24524957
180	0x3e190e07	0.14946757
181	0x3d161bb8	0.03664753
182	0xbe0a54c3	-0.13508897
183	0xbdae6b6b	-0.08516582
184	0x3e21c6c3	0.15798478
185	0xbe09014f	-0.13379405
186	0xbd3e64cd	-0.04648285
187	0xba41d03b	-0.00073933945
188	0x3c1f954c	0.009740185
189	0xbdc3640c	-0.09540567
190	0x3d1927b3	0.037391376
191	0x3e2ed533	0.17073517
192	0xbdfb945d	-0.122841574
193	0xbe120dc4	-0.14263064
194	0xbe0cd08b	-0.13751428
195	0x3e3150af	0.17315935
196	0xbdb8a453	-0.09015717
197	0xbde6b4f3	-0.11264982
198	0x3db5583d	0.08854721
199	0x3e5f3d63	0.21800761
200	0x3f01ab6e	0.50652206
201	0x3e841fb7	0.25805447
202	0x3d153788	0.03642991
203	0x3bfc0eb0	0.0076921806
204	0x3d8d8936	0.069109365
205	0x3e02f10f	0.12787269
206	0x3cf68868	0.03009434
207	0x3daee4ad	0.0853971
208	0x3dd42f67	0.10360604
209	0xbc430ab8	-0.011904411
210	0xbe373244	-0.17890269
211	0xbd9b8ef6	-0.07595627
212	0xbc7d921e	-0.015476732
213	0xbe2cddce	-0.16881487
214	0xbdfde3df	-0.123969786
215	0x3da5cda7	0.08095866
216	0xbd353c6f	-0.044247087
217	0xbd354253	-0.044252705
218	0x3d069b7b	0.03286312
219	0x3dc61b4b	0.096731745
220	0xbb50d4dc	-0.0031865155
221	0x3e1aec21	0.15129139
222	0xbe55a85b	-0.20865004
223	0xbdd9215d	-0.10602067
224	0x3dc05dd4	0.09392896
225	0xbd913c3e	-0.070915684
226	0xbe3b4622	-0.18288472
227	0xbe81b62f	-0.25334308
228	0x3cf22d1c	0.029562525
229	0x3d19d52f	0.037556823
230	0x3c875894	0.01652173
231	0xbe6460af	-0.22302507
232	0xbe53a32e	-0.20667717
233	0xbca54efa	-0.02017926
234	0xbe2888a0	-0.16458368
235	0x3c18d01d	0.009326962
236	0x3d537d38	0.05163309
237	0xbde51a33	-0.11186638
238	0xbd9f8979	-0.07789893
239	0x3e132a45	0.14371593
240	0x3e0b05f5	0.13576491
241	0x3ddd36b0	0.108014464
242	0xbdcc09a2	-0.09962775
243	0xbd965291	-0.07339967
244	0xbd8727f2	-0.06599416
245	0x3eafe2f5	0.34352842
246	0xbe4fed1a	-0.20305291
247	0xbb306f38	-0.002692176
248	0xbe30cc7b	-0.17265503
249	0x3da80d38	0.08205646
250	0xbc18a3ba	-0.009316379
251	0x3e94cc4c	0.29062116
252	0x3e18441c	0.14869732
253	0x3e021e3f	0.1270685
254	0x3dae8890	0.08522141
255	0xbca7406f	-0.020416467

hidden_layers.0.bias f4 [50]
0	0xbdc4bca0	-0.0960629
1	0x3d1ebe6e	0.038755827
2	0x3dc2a978	0.0950498
3	0xbd0c6d3d	-0.034283865
4	0xbd5722f6	-0.052523576
5	0x3c51a9ef	0.012796863
6	0x3d6a916b	0.057267588
7	0x3dbdbaa1	0.09264112
8	0xbe03e8b3	-0.12881736
9	0xbd0e8248	-0.034792215
10	0x3db0a222	0.086246744
11	0xbc9ef602	-0.019404415
12	0x3c892e4b	0.016745707
13	0xbb95d3f7	-0.0045723873
14	0x3c881bb4	0.016614772
15	0x3e0552e9	0.13019909
16	0x3da31126	0.07962255
17	0xbc9c4e8f	-0.019080428
18	0xbd32f8cb	-0.0436943
19	0x3d7776b9	0.060415957
20	0xbbe2c68c	-0.0069206413
21	0xbc5cbbf3	-0.013472545
22	0x3e3ca5f1	0.18422677
23	0xbe05bc45	-0.130601
24	0x3c85adf6	0.016318303
25	0xbce0ad01	-0.027426245
26	0xbd3e7a20	-0.046503186
27	0xbc47ccea	-0.012194851
28	0xbb75d28c	-0.003750953
29	0x3d3d78e2	0.04625786
30	0x3d98c9c9	0.074603625
31	0xbc32bfa1	-0.010909946
32	0x3dc366c1	0.09541083
33	0x3d0463dd	0.0323218
34	0xbd5a20fa	-0.053254105
35	0x3d6fe330	0.058566272
36	0x3dff4007	0.12463384
37	0x3d61c1a4	0.05511631
38	0xbd63839a	-0.055545427
39	0x3c759d7d	0.014991161
40	0xbd8c5c6f	-0.06853568
41	0xbbedcf2f	-0.007257364
42	0x3c8b0628	0.016970709
43	0xbc1bd0ef	-0.009510263
44	0xbd84f921	-0.0649283
45	0xbdb6b30d	-0.0892087
46	0xbe477589	-0.1947843
47	0x3cfc9f97	0.030837817
48	0xbd55bb48	-0.05218056
49	0xbd3e1637	-0.046407904

hidden_layers.1.weight f4 [50, 50]
0	0xbebd5e8b	-0.36986193
1	0xbd71b9e6	-0.059015177
2	0x3d49e564	0.04929103
3	0xbe178d1c	-0.14799923
4	0xbd7934c4	-0.060841337
5	0xbe273baf	-0.16331361
6	0x3d809d13	0.062799595
7	0xbe4af50f	-0.19820045
8	0x3be29363	0.0069145425
9	0xbcc925b6	-0.024554115
10	0xbe812da9	-0.25230148
11	0xbe6d48f2	-0.23172358
12	0x3e95484b	0.29156718
13	0xbde80436	-0.11328928
14	0x3e7b8fab	0.24566524
15	0xbddff242	-0.10934879
16	0xbd876ea2	-0.066128984
17	0xbb9882e5	-0.0046542757
18	0xbe52aa8c	-0.20572871
19	0x3e489017	0.19586216
20	0xbd41b4a3	-0.04729141
21	0xbd7f1c62	-0.062282927
22	0x3dea6b1b	0.1144621
23	0x3daa63e8	0.08319837
24	0xbc943d65	-0.018095681
25	0xbdad5af7	-0.08464616
26	0xbe8049f5	-0.25056425
27	0x3d556b8a	0.05210451
28	0xbe9be25b	-0.30446133
29	0xbd0bd3d5	-0.034137566
30	0xbe1da24a	-0.1539394
31	0xbdf32540	-0.11872339
32	0xbdc68de6	-0.09695034
33	0xbd986b94	-0.07442394
34	0x3de47b38	0.111563146
35	0x3d8ab532	0.067728415
36	0xbd7ebc19	-0.062191103
37	0xbbd61a9d	-0.0065339343
38	0x3d4c8d0b	0.049939197
39	0x3e0732c0	0.13202953
40	0xbcec1ac8	-0.028821364
41	0x3e6c3589	0.23067297
42	0x3e9dfe3e	0.30858034
43	0xbe937786	-0.28802127
44	0xbd62ff55	-0.055419285
45	0x3d31ce64	0.04340972
46	0xbe1a80ee	-0.15088245
47	0xbda96685	-0.08271507
48	0x3e5c5077	0.2151507
49	0x3d8805a7	0.06641703
50	0xbea68a9c	-0.32527626
51	0x3d466695	0.048437674
52	0x3d611c5a	0.05495868
53	0x3d602d24	0.05473055
54	0xbe1ec202	-0.15503696
55	0xbdf3e949	-0.1190973
56	0xbcb1c525	-0.021700451
57	0xbcb9ad65	-0.022665689
58	0xbdbb635d	-0.091498114
59	0x3e2a2950	0.16617322
60	0x3db84e05	0.08999256
61	0x3e34ae0e	0.17644522
62	0x3e016e7b	0.12639801
63	0x3ad0aa32	0.0015919863
64	0x3ddbd8d3	0.10734715
65	0xbdf1caf6	-0.1180629
66	0x3da3616c	0.07977566
67	0xbe6c05b8	-0.23049057
68	0x3befaafc	0.007314084
69	0xbdb1c459	-0.086800285
70	0xbd12f28a	-0.035875835
71	0xbe824277	-0.25441334
72	0x3cabb5a4	0.020960636
73	0x3db5adbe	0.08871029
74	0x3ee06202	0.43824774
75	0xbe917aa1	-0.2841387
76	0x3dea3f3e	0.11437844
77	0xbe6f8d26	-0.23393688
78	0x3ed6e6ae	0.4197287
79	0x3dc2f89d	0.095200755
80	0x3e8ac324	0.27102005
81	0x3df51e25	0.1196864
82	0xbe0e54cb	-0.13899533
83	0x3e4f766b	0.20260017
84	0x3da9ee2a	0.08297379
85	0x3ae08c75	0.0017131703
86	0x3e3bd59c	0.18343204
87	0xbe6ec772	-0.2331827
88	0xbcf43ec6	-0.029815089
89	0x3c2d7d1a	0.010588909
90	0x3d9793c1	0.07401229
91	0x3e2e5001	0.17022707
92	0xbdd3ff0e	-0.10351382
93	0x3db72c93	0.08944049
94	0xbd67cdd0	-0.056592762
95	0xbe543461	-0.20723106
96	0x3d95d8a8	0.073167145
97	0xbe7fd85d	-0.2498488
98	0xbc914bc4	-0.017736323
99	0x3e213c28	0.15745604
100	0xbd9ed288	-0.077549994
101	0xbc9581e5	-0.018250415
102	0xbeb2cae7	-0.34920427
103	0xbee813ee	-0.45327705
104	0xbc5a241a	-0.013314271
105	0x3dc34e7c	0.09536454
106	0x3c7a115f	0.015262931
107	0x3e38b65f	0.18038319
108	0xbe108792	-0.14114216
109	0xbe76bc54	-0.24095279
110	0xbbaab95f	-0.0052100862
111	0xbe0c90a2	-0.13727048
112	0x3db617b7	0.08891242
113	0xbd945779	-0.072432466
114	0x3e366194	0.1781066
115	0x3cf39e38	0.02973853
116	0xbdb039e2	-0.0860479
117	0xbd76e936	-0.060281
118	0x3dbdd19c	0.092684954
119	0xbe1d9802	-0.15390018
120	0xbe0e5f30	-0.13903499
121	0xbd296623	-0.04135717
122	0x3db2bbc2	0.08727218
123	0x3dd5dd16	0.104425594
124	0x3dc3a664	0.09553221
125	0x3da588d6	0.0808274
126	0xbe3d10d2	-0.18463448
127	0xbda8a275	-0.08234111
128	0xbe0ba503	-0.13637166
129	0xbe98badd	-0.29830065
130	0x3e17e0d5	0.1483186
131	0x3deb345e	0.114845976
132	0xbe9f54f5	-0.31119505
133	0xbda62d05	-0.081140555
134	0x3e2464d3	0.16054086
135	0x3d266b72	0.04062981
136	0x3dc2e1a5	0.095156945
137	0xb9324e64	-0.00017004606
138	0x3dd25c84	0.10271552
139	0x3de42638	0.11140102
140	0xbc55116a	-0.01300464
141	0x3e71eb04	0.23624808
142	0x3e12497b	0.14285843
143	0x3da1ba2f	0.0789684
144	0xbe4b4465	-0.19850309
145	0x3e0da9fb	0.13834374
146	0x3e56824e	0.20948145
147	0x3e791c06	0.24327096
148	0x3e567ccf	0.20946048
149	0xbd1b524f	-0.037920292
150	0x3d126348	0.035739213
151	0x3cc88675	0.024478177
152	0x3e2ff82b	0.17184512
153	0x3d7151c2	0.05891586
154	0xbe0986e0	-0.13430357
155	0xbdd7af7c	-0.10531518
156	0xbd04168c	-0.032248065
157	0xbe0f7d38	-0.14012611
158	0x3d02aa42	0.03190065
159	0x3d117074	0.035507634
160	0x3e4c826a	0.19971624
161	0x3db2f1f7	0.087375574
162	0x3e4bde3a	0.19908991
163	0x3d478074	0.048706487
164	0x3eb5c2d8	0.35500216
165	0x3e41970d	0.18905278
166	0x3db5d783	0.08878996
167	0x399bb840	0.0002970118
168	0xbdf40698	-0.1191532
169	0x3e05e1f1	0.13074471
170	0xbdf20b10	-0.11818516
171	0x3e0257bd	0.12728782
172	0x3d60ce68	0.054884344
173	0x3d8a3c2e	0.067497596
174	0xbd3694fd	-0.04457568
175	0x3e821c98	0.2541244
176	0xbc14b8ec	-0.009077292
177	0xbd0b3e7d	-0.03399514
178	0x3c6850a6	0.014179384
179	0xbde2dfc2	-0.11077835
180	0xba4200f6	-0.0007400656
181	0x3e4cbe08	0.19994366
182	0x3d067266	0.032823943
183	0xbe46dcd1	-0.19420172
184	0xbda234bc	-0.079202145
185	0x3c33744c	0.01095302
186	0xbe4b6460	-0.19862509
187	0x3c7b83d1	0.015351252
188	0xbe4af07f	-0.19818304
189	0xbd9d0bcd	-0.076682664
190	0x3db7627a	0.0895433
191	0x3ea463e1	0.32107452
192	0x3e2e414e	0.170171
193	0x3e2469ca	0.1605598
194	0xbdd74961	-0.10512043
195	0xbdf648d4	-0.120256096
196	0xbd62e102	-0.055390365
197	0xbe4cad38	-0.19987953
198	0xbe3be7db	-0.18350165
199	0xbe736479	-0.23768796
200	0x3c890157	0.016724272
201	0x3e5b3115	0.21405442
202	0xbd066df0	-0.03281969
203	0x3cb8eea2	0.022574726
204	0x3d83cd89	0.06435687
205	0x3d0c5edd	0.034270156
206	0x3df3c639	0.11903042
207	0x3e04d521	0.12971927
208	0x3d87932b	0.06619867
209	0xbe1dff3a	-0.15429392
210	0xbe3ecb89	-0.1863233
211	0xbe5a527b	-0.21320526
212	0x3dccac2f	0.09993779
213	0xbd3817da	-0.04494462
214	0xbc5357ef	-0.012899383
215	0xbdb61f77	-0.0889272
216	0x3cc1fbe7	0.023679687
217	0x3ddaebea	0.10689528
218	0x3d5a1a0a	0.05324749
219	0xbdb82874	-0.08992091
220	0x3e007b07	0.12546931
221	0x3e82f770	0.25579405
222	0x3e6e6b6c	0.23283166
223	0xbe6992a1	-0.2280984
224	0x3e089885	0.13339432
225	0x3db2e1d1	0.08734477
226	0xbe2bd142	-0.16779044
227	0xbe145796	-0.14486536
228	0x3ea89054	0.32922614
229	0xbe83376f	-0.2562823
230	0x3eae35eb	0.3402551
231	0xbd9e3073	-0.07724085
232	0xbd3deb0a	-0.04636673
233	0xbd2ebc60	-0.042660117
234	0x3d41fbb9	0.047359202
235	0xbdb80021	-0.089843996
236	0x3dc7f97b	0.097643815
237	0xbbefb19e	-0.007314875
238	0x3e8f9bb6	0.28048486
239	0xbe495216	-0.1966022
240	0xbe51bd49	-0.20482363
241	0xbe19211e	-0.1495404
242	0xbdb8b64c	-0.09019145
243	0xbdd94025	-0.10607938
244	0x3d96b50b	0.0735875
245	0x3e18d5ba	0.1492528
246	0x3dfe20d0	0.12408602
247	0x3e3d0661	0.18459465
248	0xbe0f37c1	-0.13986112
249	0xbe07458a	-0.13210121
250	0xbe2081d5	-0.15674527
251	0xbd81295f	-0.06306719
252	0x3dedb012	0.11605848
253	0x3e23e06c	0.16003579
254	0x3e1cce0e	0.15312979
255	0x3d12f2de	0.035876147

hidden_layers.1.bias f4 [50]
0	0xbd16b305	-0.03679182
1	0xbce0a53a	-0.027422536
2	0x394d937e	0.00019605269
3	0x3cb2e4bc	0.021837585
4	0xbd7fbfc5	-0.062438745
5	0x3cba9423	0.022775715
6	0xbc8d4f68	-0.017249778
7	0x3ced3ea3	0.028960532
8	0x3d31e14b	0.043427747
9	0xbd89c4e2	-0.067270055
10	0x3e022236	0.12708363
11	0x3ade0ac5	0.0016940465
12	0xbba812cd	-0.0051291944
13	0xbc41896b	-0.011812548
14	0x3bf53535	0.0074831494
15	0x3b974e11	0.0046174605
16	0x3cbcad86	0.023031961
17	0xbc1b4ebd	-0.009479222
18	0x3d8c2b69	0.06844217
19	0x3ae9934d	0.0017820388
20	0x3d23a858	0.039955467
21	0x3cec4e1f	0.028845845
22	0xbd09031a	-0.033450224
23	0x3c9e3b2f	0.01931533
24	0x3b948868	0.0045328625
25	0x3d43f109	0.04783729
26	0x3c5d46e7	0.013505674
27	0x3d88dc70	0.0668267
28	0xbc97d7d5	-0.018535534
29	0x3d8ae06d	0.06781087
30	0xbd99687f	-0.07490634
31	0x3e445367	0.1917244
32	0xbd79cced	-0.060986448
33	0x3d265966	0.0406126
34	0x3ca4c705	0.020114431
35	0x3c92306a	0.017845351
36	0xbc0c624b	-0.008568357
37	0x3c71efd4	0.014766652
38	0xbdab0b09	-0.08351714
39	0x3cee40f0	0.029083699
40	0xbd07b33e	-0.033129923
41	0x3c74cb88	0.014941104
42	0xbc16957a	-0.009190911
43	0x3d53e276	0.05172964
44	0xbccfe7d9	-0.025379108
45	0x3d86942f	0.065712325
46	0xbcfe1799	-0.031017112
47	0x3dc0eed7	0.09420555
48	0xbcd1524b	-0.025551936
49	0x3ca0d53a	0.019632924

hidden_lns.0.weight f4 [50]
0	0x3f800000	1.0
1	0x3f800000	1.0
2	0x3f800000	1.0
3	0x3f800000	1.0
4	0x3f800000	1.0
5	0x3f800000	1.0
6	0x3f800000	1.0
7	0x3f800000	1.0
8	0x3f800000	1.0
9	0x3f800000	1.0
10	0x3f800000	1.0
11	0x3f800000	1.0
12	0x3f800000	1.0
13	0x3f800000	1.0
14	0x3f800000	1.0
15	0x3f800000	1.0
16	0x3f800000	1.0
17	0x3f800000	1.0
18	0x3f800000	1.0
19	0x3f800000	1.0
20	0x3f800000	1.0
21	0x3f800000	1.0
22	0x3f800000	1.0
23	0x3f800000	1.0
24	0x3f800000	1.0
25	0x3f800000	1.0
26	0x3f800000	1.0
27	0x3f800000	1.0
28	0x3f800000	1.0
29	0x3f800000	1.0
30	0x3f800000	1.0
31	0x3f800000	1.0
32	0x3f800000	1.0
33	0x3f800000	1.0
34	0x3f800000	1.0
35	0x3f800000	1.0
36	0x3f800000	1.0
37	0x3f800000	1.0
38	0x3f800000	1.0
39	0x3f800000	1.0
40	0x3f800000	1.0
41	0x3f800000	1.0
42	0x3f800000	1.0
43	0x3f800000	1.0
44	0x3f800000	1.0
45	0x3f800000	1.0
46	0x3f800000	1.0
47	0x3f800000	1.0
48	0x3f800000	1.0
49	0x3f800000	1.0

hidden_lns.0.bias f4 [50]
0	0x00000000	0.0
1	0x00000000	0.0
2	0x00000000	0.0
3	0x00000000	0.0
4	0x00000000	0.0
5	0x00000000	0.0
6	0x00000000	0.0
7	0x00000000	0.0
8	0x00000000	0.0
9	0x00000000	0.0
10	0x00000000	0.0
11	0x00000000	0.0
12	0x00000000	0.0
13	0x00000000	0.0
14	0x00000000	0.0
15	0x00000000	0.0
16	0x00000000	0.0
17	0x00000000	0.0
18	0x00000000	0.0
19	0x00000000	0.0
20	0x00000000	0.0
21	0x00000000	0.0
22	0x00000000	0.0
23	0x00000000	0.0
24	0x00000000	0.0
25	0x00000000	0.0
26	0x00000000	0.0
27	0x00000000	0.0
28	0x00000000	0.0
29	0x00000000	0.0
30	0x00000000	0.0
31	0x00000000	0.0
32	0x00000000	0.0
33	0x00000000	0.0
34	0x00000000	0.0
35	0x00000000	0.0
36	0x00000000	0.0
37	0x00000000	0.0
38	0x00000000	0.0
39	0x00000000	0.0
40	0x00000000	0.0
41	0x00000000	0.0
42	0x00000000	0.0
43	0x00000000	0.0
44	0x00000000	0.0
45	0x00000000	0.0
46	0x00000000	0.0
47	0x00000000	0.0
48	0x00000000	0.0
49	0x00000000	0.0

hidden_lns.1.weight f4 [50]
0	0x3f800000	1.0
1	0x3f800000	1.0
2	0x3f800000	1.0
3	0x3f800000	1.0
4	0x3f800000	1.0
5	0x3f800000	1.0
6	0x3f800000	1.0
7	0x3f800000	1.0
8	0x3f800000	1.0
9	0x3f800000	1.0
10	0x3f800000	1.0
11	0x3f800000	1.0
12	0x3f800000	1.0
13	0x3f800000	1.0
14	0x3f800000	1.0
15	0x3f800000	1.0
16	0x3f800000	1.0
17	0x3f800000	1.0
18	0x3f800000	1.0
19	0x3f800000	1.0
20	0x3f800000	1.0
21	0x3f800000	1.0
22	0x3f800000	1.0
23	0x3f800000	1.0
24	0x3f800000	1.0
25	0x3f800000	1.0
26	0x3f800000	1.0
27	0x3f800000	1.0
28	0x3f800000	1.0
29	0x3f800000	1.0
30	0x3f800000	1.0
31	0x3f800000	1.0
32	0x3f800000	1.0
33	0x3f800000	1.0
34	0x3f800000	1.0
35	0x3f800000	1.0
36	0x3f800000	1.0
37	0x3f800000	1.0
38	0x3f800000	1.0
39	0x3f800000	1.0
40	0x3f800000	1.0
41	0x3f800000	1.0
42	0x3f800000	1.0
43	0x3f800000	1.0
44	0x3f800000	1.0
45	0x3f800000	1.0
46	0x3f800000	1.0
47	0x3f800000	1.0
48	0x3f800000	1.0
49	0x3f800000	1.0

hidden_lns.1.bias f4 [50]
0	0x00000000	0.0
1	0x00000000	0.0
2	0x00000000	0.0
3	0x00000000	0.0
4	0x00000000	0.0
5	0x00000000	0.0
6	0x00000000	0.0
7	0x00000000	0.0
8	0x00000000	0.0
9	0x00000000	0.0
10	0x00000000	0.0
11	0x00000000	0.0
12	0x00000000	0.0
13	0x00000000	0.0
14	0x00000000	0.0
15	0x00000000	0.0
16	0x00000000	0.0
17	0x00000000	0.0
18	0x00000000	0.0
19	0x00000000	0.0
20	0x00000000	0.0
21	0x00000000	0.0
22	0x00000000	0.0
23	0x00000000	0.0
24	0x00000000	0.0
25	0x00000000	0.0
26	0x00000000	0.0
27	0x00000000	0.0
28	0x00000000	0.0
29	0x00000000	0.0
30	0x00000000	0.0
31	0x00000000	0.0
32	0x00000000	0.0
33	0x00000000	0.0
34	0x00000000	0.0
35	0x00000000	0.0
36	0x00000000	0.0
37	0x00000000	0.0
38	0x00000000	0.0
39	0x00000000	0.0
40	0x00000000	0.0
41	0x00000000	0.0
42	0x00000000	0.0
43	0x00000000	0.0
44	0x00000000	0.0
45	0x00000000	0.0
46	0x00000000	0.0
47	0x00000000	0.0
48	0x00000000	0.0
49	0x00000000	0.0

output_layer.weight f4 [1, 50]
0	0x3e9f8557	0.31156418
1	0x3df1a290	0.117985845
2	0xbc828c3c	-0.01593601
3	0x3da4886b	0.08033832
4	0xbe57b87c	-0.21066469
5	0x3ca11fb7	0.019668443
6	0x3d87c5ac	0.066295
7	0xbe368cb2	-0.17827109
8	0x3e47b26a	0.19501653
9	0xbe8224b9	-0.25418642
10	0x3df202ef	0.11816966
11	0xbe7355bb	-0.23763172
12	0x3e013b4c	0.12620276
13	0x3e1b652b	0.15175311
14	0xbce0de4c	-0.02744975
15	0x3e453fa5	0.1926256
16	0xbdd2b7c5	-0.102889575
17	0xbc030733	-0.007997322
18	0xbde8d918	-0.11369532
19	0xbded4247	-0.11584907
20	0x3e72cc42	0.2371073
21	0x3e8700fe	0.26367944
22	0xbe669e4e	-0.22521326
23	0x3c1d66e1	0.009607048
24	0xbe61ab50	-0.22038007
25	0x3ec54330	0.38527822
26	0x3eeedac0	0.46651268
27	0x3e4df03a	0.2011117
28	0x3e68d449	0.2273723
29	0x3dd8d70d	0.10587893
30	0xbf0452fe	-0.51689136
31	0x3f2055f3	0.6263115
32	0x3ed20c03	0.4102479
33	0x3c48f4b4	0.012265373
34	0xbe803a31	-0.25044397
35	0x3e60b2de	0.21943232
36	0xbea63424	-0.32461655
37	0xbeb33e8a	-0.3500865
38	0x3e0e45be	0.13893792
39	0x3c5cd253	0.01347788
40	0xbde5eed7	-0.11227196
41	0x3d092859	0.033485744
42	0xbdd4ec03	-0.10396578
43	0x3c8d7c3e	0.017271157
44	0xbd67f6c3	-0.056631815
45	0x3ef27581	0.47355273
46	0xbd130e75	-0.03590246
47	0x3ec750ba	0.38928777
48	0x3e7c11fe	0.24616238
49	0x3e5fe099	0.21863021

a f4 [4]
0	0x3e4ccccd	0.2
1	0x3e4ccccd	0.2
2	0x3e4ccccd	0.2
3	0x3e4ccccd	0.2

input_layer.weight f4 [50, 2]
0	0xbf164d80	-0.58712006
1	0x3e16393c	0.1467027
2	0xbe4b586f	-0.19857953
3	0x3e823902	0.25434119
4	0x3ea73b36	0.32662362
5	0xbd9cd19c	-0.07657167
6	0xbeadb9f9	-0.33930948
7	0xbc358a74	-0.011080373
8	0x3f064600	0.5245056
9	0x3e5016bd	0.20321174
10	0xbe01d1e7	-0.12677728
11	0x3d3754ae	0.04475849
12	0x3e20163e	0.15633485
13	0x3d745baa	0.05965773
14	0x3e8783f3	0.26467857
15	0x3dbce240	0.09222841
16	0x3e809ae4	0.25118172
17	0x3d920ca4	0.07131317
18	0xbe43b1b5	-0.19110759
19	0xbdf53937	-0.119738035
20	0x3d9db121	0.076998
21	0x3cbc3acc	0.022977255
22	0x3d8af334	0.067846686
23	0xbf0591b3	-0.52175444
24	0x3b34257a	0.0027488158
25	0x3d50d225	0.05098166
26	0x3de577b3	0.112044714
27	0xbe8015c4	-0.25016606
28	0xbe1d7bc5	-0.15379246
29	0xbe38d5d6	-0.18050322
30	0xbe73f64f	-0.23824428
31	0xbecb55fa	-0.39714032
32	0x3ed1c80d	0.4097294
33	0xbe94b341	-0.2904301
34	0x3ed8fd6d	0.4238085
35	0x3d188718	0.03723821
36	0xbdd41346	-0.103552386
37	0xbe8597ab	-0.26092276
38	0x3e9c7254	0.30555975
39	0xbf246ce1	-0.64228636
40	0xbf17bf70	-0.59276485
41	0xbe3260ff	-0.17419814
42	0x3f270bf7	0.6525263
43	0x3c0c135c	0.0085495375
44	0xbdb35aa6	-0.08757524
45	0xbcf213d6	-0.029550474
46	0x3dfa7b02	0.12230493
47	0xbe395034	-0.18097001
48	0xbebf71da	-0.3739155
49	0x3dd1a93a	0.102373555
50	0xbc9b4e4e	-0.018958237
51	0xbc5259e1	-0.012838812
52	0xbe52e9b3	-0.20596962
53	0xbe31a38c	-0.17347544
54	0x3e10097e	0.14066121
55	0x3dcddc69	0.100518055
56	0x3e73ef1a	0.23821679
57	0xbc8668f4	-0.016407467
58	0x3c96e6ae	0.018420544
59	0xbf3c68af	-0.73597234
60	0xbd6abf50	-0.057311356
61	0xbe0909bd	-0.13382621
62	0xbd869ebb	-0.06573244
63	0x3e54d014	0.207825
64	0x3dbeec9b	0.09322473
65	0x3d9adac3	0.07561257
66	0xbea9b9d6	-0.33149594
67	0xbcf7403c	-0.030181997
68	0x3e8ae531	0.27127984
69	0x3c6249fe	0.013811586
70	0xbdc66bde	-0.09688543
71	0xbe664a39	-0.22489251
72	0x3ab39535	0.0013701083
73	0xbc8e2005	-0.017349252
74	0xbe6be895	-0.23037942
75	0xbe88d4f0	-0.26724958
76	0x3e908a66	0.2823059
77	0xbda46723	-0.08027484
78	0xbeb84efe	-0.35997766
79	0xbd8135a7	-0.063090615
80	0xbea4c752	-0.3218332
81	0x3e61c9ba	0.22049609
82	0xbde7fe1c	-0.113277644
83	0xbc5d41c1	-0.0135044465
84	0xbce02ce0	-0.027365148
85	0xbd9329b4	-0.071856886
86	0xbbde8536	-0.0067907823
87	0x3d08aeee	0.03336995
88	0x3ce6bd8c	0.028166555
89	0xbd33b277	-0.04387137
90	0x3ddfb4b4	0.10923138
91	0xbeb831de	-0.35975546
92	0x3d927438	0.07151073
93	0x3eeaebe4	0.45883095
94	0x3f11bd96	0.5692991
95	0x3e3c336a	0.18378988
96	0xbdbc85ce	-0.09205209
97	0x3dca95ed	0.09891877
98	0xbe1435bd	-0.14473625
99	0x3c64f28b	0.013973842

input_layer.bias f4 [50]
0	0x3e57fafd	0.21091838
1	0x3e224dcb	0.15849988
2	0xbee3f05a	-0.4451931
3	0x3eaf7146	0.34266108
4	0x3ee3ee4d	0.44517747
5	0x3d061423	0.032734048
6	0x3b948507	0.0045324597
7	0x3deb4c07	0.114891104
8	0x3de104df	0.10987257
9	0xbe04d944	-0.12973505
10	0x3e8306ab	0.25591025
11	0x3f0fc9a2	0.5616704
12	0x3deb3682	0.11485006
13	0x3e0b0756	0.13577017
14	0xbf2455e5	-0.64193565
15	0xbe2e856d	-0.17043085
16	0x3ec66306	0.38747424
17	0xbf105f32	-0.56395257
18	0xbe939884	-0.28827298
19	0x3dd031d8	0.10165757
20	0xbd80a5b7	-0.062816076
21	0x3c976fc2	0.018485907
22	0x3e7fd39a	0.24983063
23	0x3ee4520e	0.44593853
24	0x3e923fee	0.285644
25	0xbec6d2e0	-0.3883276
26	0x3df17b3c	0.11791083
27	0x3e15b8ef	0.14621328
28	0xbe554b78	-0.2082957
29	0xbddcbd93	-0.10778346
30	0x3dff339f	0.12461018
31	0xbe2a5fc8	-0.166381
32	0xbf2993a6	-0.6624092
33	0x3e92bcb8	0.28659606
34	0x3e1c5da6	0.15270099
35	0xbeb4ad98	-0.35288692
36	0x3e49ed1e	0.1971936
37	0xbe216ae7	-0.15763436
38	0x3ecd4409	0.4009097
39	0xbea35a45	-0.31904808
40	0x3cb67d13	0.022276437
41	0xbf009a0c	-0.50235057
42	0xbeddf982	-0.43354422
43	0xbe77bc4d	-0.24192925
44	0xbd902744	-0.07038739
45	0x3d4bde6b	0.04977266
46	0xbdde2354	-0.10846582
47	0x3f0c5b98	0.5482726
48	0x3dc9cc16	0.098533794
49	0xbc7750fa	-0.01509499

input_ln.weight f4 [50]
0	0x3f776627	0.9664025
1	0x3f893e3b	1.0722116
2	0x3f8214b4	1.0162568
3	0x3f7b2a22	0.98111165
4	0x3f79e27c	0.9761121
5	0x3f782470	0.969306
6	0x3f597cd0	0.84956074
7	0x3f825f40	1.0185318
8	0x3f778385	0.9668506
9	0x3f7092a0	0.9397373
10	0x3f86e3d7	1.0538281
11	0x3f70379d	0.9383486
12	0x3f860257	1.0469464
13	0x3f7d0b5c	0.9884546
14	0x3f7f94c2	0.9983636
15	0x3f7b74c6	0.9822506
16	0x3f7f9f73	0.99852675
17	0x3f894a02	1.072571
18	0x3f937fc6	1.1523368
19	0x3f6941da	0.91116107
20	0x3f8146a5	1.0099684
21	0x3f8374ae	1.0269983
22	0x3f850196	1.0391109
23	0x3f8d8da2	1.1058848
24	0x3f7328ef	0.94984335
25	0x3f6a85c7	0.9161038
26	0x3f7d576f	0.9896154
27	0x3f881039	1.0629951
28	0x3f8ce96f	1.1008738
29	0x3f6ef0c6	0.9333614
30	0x3f846aa0	1.0345039
31	0x3f8019ce	1.0007875
32	0x3f8f9232	1.121649
33	0x3f8eccb9	1.1156226
34	0x3f7cdb20	0.9877186
35	0x3f75a599	0.95955807
36	0x3f806297	1.0030087
37	0x3f91c34d	1.1387726
38	0x3f867483	1.0504307
39	0x3f85103d	1.039558
40	0x3f78962b	0.9710414
41	0x3f97c241	1.1856157
42	0x3f71f369	0.9451204
43	0x3f7919e0	0.9730511
44	0x3f66852f	0.9004697
45	0x3f8645d8	1.0490065
46	0x3f7892fb	0.97099274
47	0x3f87ee7b	1.0619653
48	0x3f7d89c3	0.9903833
49	0x3f7359ee	0.95059097

input_ln.bias f4 [50]
0	0x3e828f3e	0.2549991
1	0xbf6dfee8	-0.9296708
2	0x3cc283e1	0.023744525
3	0x3dee36e3	0.116315626
4	0xbcf055eb	-0.029337844
5	0x3ea4bb87	0.32174322
6	0x3e1a72d3	0.15082864
7	0x3d2bd574	0.04195161
8	0xbe18df17	-0.14928852
9	0xbe5d70c4	-0.21625048
10	0xbdf5beab	-0.11999258
11	0x3e92a807	0.2864382
12	0xbf3f52b3	-0.74735564
13	0x3f0fc229	0.5615564
14	0x3d0b3d6d	0.033994127
15	0xbe89a753	-0.2688547
16	0x3ed6437f	0.4184837
17	0xbf10f06e	-0.56616867
18	0x3ec5e084	0.38647854
19	0x3e4152b8	0.18879211
20	0xbe1b32e1	-0.15156128
21	0x3ec472bb	0.38368782
22	0x3e82c0d5	0.25537744
23	0xbeae74ec	-0.3407358
24	0x3e3ca936	0.18423924
25	0xbf0c8254	-0.54886365
26	0x3e1d8966	0.15384445
27	0x3e82ee6d	0.2557253
28	0x3d17bac5	0.03704335
29	0xbeac70cb	-0.33679804
30	0x3e095a04	0.13413244
31	0xbf178a3b	-0.591953
32	0x3dfa86fe	0.12232779
33	0x3f370f47	0.71507686
34	0xbdf416e3	-0.11918428
35	0xbdba38d7	-0.090928726
36	0x3ea66a62	0.3250304
37	0x3eb7debf	0.3591213
38	0x3e0f80c9	0.14013971
39	0x3d956298	0.07294196
40	0x3deb4004	0.114868194
41	0x3f7219ec	0.94570804
42	0xbf2b7871	-0.66980654
43	0x3ea1e38c	0.31618917
44	0x3e3656d2	0.17806557
45	0x3f0707f0	0.52746487
46	0xbe8df492	-0.27725655
47	0x3ca51c66	0.020155143
48	0x3eb72aca	0.35774833
49	0xbdd3fbc5	-0.103507556

hidden_layers.0.weight f4 [50, 50]
0	0xbdd775e5	-0.105205335
1	0x3de199f0	0.110156894
2	0x3e87ee66	0.2654907
3	0xbd9273f1	-0.0715102
4	0x3e3c7823	0.18405204
5	0x3e82b927	0.25531885
6	0x3e2a787d	0.16647525
7	0x3d871dde	0.065974936
8	0x3dc6dbbc	0.0970988
9	0xbd380598	-0.04492721
10	0x3b961722	0.0045803944
11	0xbdc87ac0	-0.09789038
12	0xbda8aad9	-0.082357116
13	0xbd550c4f	-0.05201369
14	0x3df5399a	0.11973877
15	0xbe218d2a	-0.15776506
16	0xbd897c1b	-0.06713124
17	0x3c52ed13	0.012873906
18	0xbe53f638	-0.20699394
19	0x3d0a37b6	0.033744536
20	0xbd69fa7b	-0.057123642
21	0xbe65912d	-0.22418661
22	0x3e763269	0.24042667
23	0x3d60322b	0.054735344
24	0x3ca40694	0.020022668
25	0xbdd4c886	-0.10389809
26	0x3e0d4b7a	0.13798323
27	0xbe63fbd6	-0.22264037
28	0xbd82a102	-0.06378366
29	0xbafc1824	-0.0019233269
30	0xbe14b472	-0.1452196
31	0xbe6ea568	-0.23305285
32	0xbe2e0c06	-0.16996774
33	0xbb9cd1b4	-0.0047857407
34	0x3ca2ba1f	0.01986414
35	0x3def9499	0.11698265
36	0x3de501b6	0.11181967
37	0xbd8d82d7	-0.06909721
38	0x3c9788f2	0.018497918
39	0x3da52198	0.08063048
40	0x3eaf0aa6	0.34187812
41	0x3e836d29	0.2566922
42	0xbcdbcd29	-0.026831226
43	0x3e809d03	0.2511979
44	0x3cc5411e	0.024078902
45	0x3d9561bb	0.07294031
46	0xbc02bf9f	-0.007980256
47	0x3e52703b	0.20550625
48	0x3da6f813	0.08152785
49	0x3ebfcf1c	0.374627
50	0xbe97ae0d	-0.29624978
51	0xbda23f52	-0.07922234
52	0xbcbf4ece	-0.023353007
53	0x3dff8b6f	0.12477767
54	0x3e9919a9	0.2990239
55	0x3d49f9be	0.04931044
56	0xbd91c646	-0.07117896
57	0xbd8317dd	-0.06401036
58	0x3cc5d002	0.024147037
59	0xbebc3d4d	-0.3676552
60	0xbdd7c8e1	-0.105363615
61	0x3dfccb6a	0.12343486
62	0x3d76bb23	0.06023706
63	0x3df97899	0.12181205
64	0xbdaa7fc4	-0.083251506
65	0x3e077cf6	0.13231263
66	0x3e130f69	0.14361347
67	0xbe12e7dc	-0.1434626
68	0xbe4fe579	-0.2030238
69	0x3df76d38	0.12081379
70	0x3d52c41c	0.051456556
71	0xbd020103	-0.031739246
72	0x3e83e400	0.25759888
73	0xbd6cb898	-0.05779323
74	0x3d64f047	0.05589321
75	0x3da354d6	0.079751655
76	0x3becd03d	0.0072269724
77	0xbd2f4a5e	-0.04279553
78	0xbd16ffca	-0.036865033
79	0x3ac8727c	0.0015292908
80	0xbda9a0e6	-0.08282642
81	0xbd91cc8a	-0.07119091
82	0xbe36ccf9	-0.17851628
83	0x3d9bb2b4	0.07602444
84	0x39eadbab	0.00044795623
85	0x3e961641	0.29313853
86	0x3e3c8515	0.18410142
87	0x3e1297b4	0.14315683
88	0xbd7d5a58	-0.061853737
89	0x3e977ae4	0.29585946
90	0x3a43b201	0.00074651843
91	0x3e760767	0.24026261
92	0xbe2902d7	-0.1650499
93	0xbaf0d948	-0.0018375302
94	0x3ba5a59d	0.005055143
95	0xbc95a96e	-0.018269267
96	0xbdcf1e65	-0.10113219
97	0x3e13cdf4	0.14434034
98	0xbc896fd6	-0.01677696
99	0xbe042029	-0.12902893
100	0x3d51ed27	0.051251557
101	0xbe2808f8	-0.16409671
102	0xbe69169d	-0.22762533
103	0xbe1f8140	-0.15576649
104	0x3e3f62b8	0.18690002
105	0xbc283db9	-0.010268622
106	0x3d988f84	0.074492484
107	0xbd8e4c4c	-0.06948146
108	0x3e20da4a	0.1570827
109	0x3d2be882	0.041969784
110	0x3c658bb4	0.014010359
111	0x3da80f9d	0.08206103
112	0xbc440af8	-0.011965506
113	0xbdb62c49	-0.088951655
114	0xbcbc7922	-0.02300698
115	0x3bc867d3	0.0061158924
116	0xbe002458	-0.12513864
117	0x3dcf1a8c	0.10112485
118	0xbc92b895	-0.017910281
119	0x3dc05438	0.093910635
120	0xbd54b3ee	-0.051929407
121	0xbcd661de	-0.026169714
122	0xbde55984	-0.111987144
123	0xbe0d988a	-0.1382772
124	0xbd78d46c	-0.060749456
125	0x3d3b426f	0.045717653
126	0x3e0e2d29	0.13884415
127	0xbcd8fe21	-0.026488366
128	0xbdf5d3ed	-0.12003312
129	0x3d5c9583	0.053853523
130	0x3e7c0953	0.24612932
131	0xbda321c1	-0.079654224
132	0xbe32f9c7	-0.17478095
133	0xbe05157f	-0.12996481
134	0xbe04c4a0	-0.12965631
135	0x3c807a98	0.015683457
136	0x3e021ddb	0.12706701
137	0x3dda2d87	0.10653215
138	0x3c66ca0f	0.01408626
139	0xbda8372b	-0.082136475
140	0xbc3db346	-0.011578387
141	0x3ca436a1	0.02004558
142	0x3e190020	0.14941454
143	0x3e119caf	0.14219926
144	0xbc919be5	-0.017774532
145	0x3de2a1b9	0.110660024
146	0x3d9cea34	0.07661858
147	0x3d1c83a8	0.038211495
148	0xbe276e13	-0.16350584
149	0x3e710ef9	0.23540868
150	0xbe509bff	-0.20372008
151	0x3e313d5c	0.17308563
152	0x3c5268e0	0.012842387
153	0x3e37c3b4	0.17945749
154	0x3d3ce61c	0.046117887
155	0x3e3df17a	0.18549147
156	0x3e1fdea0	0.15612268
157	0xbd052232	-0.032503314
158	0xbe202ea4	-0.15642792
159	0x3de07d3f	0.10961389
160	0xbeb790ed	-0.35852757
161	0x3d8c4a26	0.0685008
162	0x3c89fbc1	0.016843678
163	0xbcb258ef	-0.021770922
164	0xbe748b4c	-0.23881263
165	0x3dd08fdb	0.10183688
166	0x3cb2f9dd	0.02184766
167	0xbe3dcde2	-0.1853557
168	0xbce7f5e1	-0.028315486
169	0xbd67765c	-0.05650936
170	0xbdb54f71	-0.08853043
171	0x3d5a7318	0.05333242
172	0xbe150c25	-0.14555414
173	0x3e8a0485	0.26956573
174	0x3e20384d	0.15646477
175	0x3dcfe6f5	0.101514734
176	0x3c411381	0.011784435
177	0x3dd4d00c	0.10391244
178	0xbe831f23	-0.25609693
179	0x3dd69998	0.104785144
180	0xbe540215	-0.20703919
181	0xbd67f1c8	-0.056627065
182	0x3e34a8a3	0.17642455
183	0x3d722a61	0.059122447
184	0xbd15d427	-0.036579277
185	0xbc4bf88a	-0.012449393
186	0x3c737137	0.0148585355
187	0x3df9ad4f	0.12191259
188	0x3e93ffad	0.28906003
189	0x3ddf281f	0.10896324
190	0x3d99849d	0.07495997
191	0x3bed75eb	0.007246723
192	0xbe03ce23	-0.12871604
193	0xbe31a801	-0.17349245
194	0x3e2ccc89	0.16874899
195	0xbe200f6e	-0.15630886
196	0xbd992fda	-0.0747983
197	0x3d490a01	0.049081806
198	0xbc9c01a0	-0.019043744
199	0xbe1a3e07	-0.15062724
200	0xbb8ee3e0	-0.004360661
201	0x3c194ba1	0.00935641
202	0xbe943363	-0.28945455
203	0x3d15f2b7	0.036608424
204	0xbb92dde6	-0.0044820188
205	0x3d7895ea	0.060689844
206	0xbea16b84	-0.3152734
207	0xbe99e3b7	-0.30056545
208	0xbe14b67b	-0.14522736
209	0xbe0c586d	-0.13705607
210	0xbd946f7f	-0.07247829
211	0x3e8bbdef	0.27293345
212	0x3e06c45a	0.1316084
213	0xbe2d6ae7	-0.16935311
214	0xbe5d7949	-0.21628298
215	0x3de1e4e9	0.11029989
216	0xbb928978	-0.004471954
217	0xbecea889	-0.40362957
218	0x3dd7ee1f	0.10543465
219	0xbe1b2dcd	-0.1515419
220	0x3c2aaf43	0.010417762
221	0xbd352f15	-0.044234354
222	0x3dd673af	0.10471284
223	0xbd420874	-0.047371343
224	0x3d79a049	0.060943875
225	0x3e4924d6	0.19642958
226	0xbd38b0c8	-0.045090467
227	0x3e365404	0.17805487
228	0xbe4a7586	-0.19771394
229	0xbe408b89	-0.18803228
230	0x3cb1186f	0.021618096
231	0xbd9996e6	-0.07499485
232	0xbd7174f2	-0.05894942
233	0x3e3f4dea	0.18682066
234	0x3e05523e	0.13019654
235	0xbdb98504	-0.09058574
236	0x3d36299e	0.044473283
237	0x3ee61f81	0.4494591
238	0x3df01846	0.1172338
239	0xbd08b44f	-0.03337508
240	0x3e504524	0.20338875
241	0x3d9a5335	0.07535402
242	0x3cb8909a	0.022529889
243	0xbdcb29c9	-0.09920079
244	0xbe040c96	-0.12895426
245	0xbd98e94c	-0.07466373
246	0xbc0ad52c	-0.008473676
247	0xbd7d315d	-0.061814655
248	0xbd272714	-0.040808752
249	0xbe1150c7	-0.1419097
250	0x3df57af0	0.11986339
251	0xbd0f06d4	-0.03491862
252	0xbcacf056	-0.021110695
253	0x3d6648cc	0.05622177
254	0xbe3c453b	-0.18385784
255	0xbe831888	-0.25604653

hidden_layers.0.bias f4 [50]
0	0xbd940b2a	-0.07228692
1	0xbe16ee69	-0.14739384
2	0xbd2aa6f9	-0.041663144
3	0xbe286680	-0.1644535
4	0x3e8b76ab	0.27238974
5	0xbcfb8e5a	-0.030707527
6	0x3e29f0ac	0.16595715
7	0xbe509030	-0.20367503
8	0xbdc018ff	-0.093797676
9	0x3e45bf6e	0.19311306
10	0xbc79b57d	-0.015241024
11	0xbdfd92a4	-0.12381485
12	0x3e990801	0.2988892
13	0x3a2c5c05	0.0006574991
14	0xbb19d2f9	-0.0023471697
15	0xbe17cfae	-0.14825317
16	0x3e1d58d0	0.1536591
17	0xbe024056	-0.12719855
18	0xbe1a5af5	-0.1507376
19	0x3e83e35e	0.25759405
20	0xbc8cdf44	-0.017196305
21	0xbe303c14	-0.17210418
22	0x3d87bba5	0.06627587
23	0xbe6407b1	-0.22268559
24	0xbdb0ac67	-0.08626633
25	0x3d76048d	0.060062934
26	0xbd467574	-0.048451856
27	0x3cb14212	0.02163795
28	0xbd2bc36e	-0.041934423
29	0x3e3ce32b	0.18446033
30	0xbe255c2a	-0.16148439
31	0xbd033778	-0.03203532
32	0xbd1c51dd	-0.03816401
33	0xbe741443	-0.23835854
34	0x3e2e9e6c	0.1705262
35	0x3e939deb	0.2883142
36	0x3e38589d	0.18002553
37	0x3e1997d7	0.14999329
38	0xbe465ada	-0.19370595
39	0x3e0f75f1	0.14009835
40	0xbca9f7c2	-0.020748023
41	0x3d0ba1bc	0.03408979
42	0x3e58ad11	0.2115977
43	0xbcc07ae0	-0.023496091
44	0xbe4aab16	-0.19791827
45	0xbe10744b	-0.14106862
46	0x3ca3f3b9	0.020013677
47	0xbd3ca834	-0.04605885
48	0xbdbb8ced	-0.09157739
49	0x3d41b8de	0.047295444

hidden_layers.1.weight f4 [50, 50]
0	0x3dfe62a1	0.12421156
1	0xbe6c22bb	-0.23060124
2	0xbe6410a2	-0.2227197
3	0x3dd837b8	0.105575025
4	0x3dab89fd	0.083759286
5	0xbe26acd1	-0.16276862
6	0xbc0d758b	-0.008633981
7	0xbdd0cd6b	-0.1019543
8	0x3e7e134b	0.24812047
9	0xbe3cbe48	-0.18431962
10	0xbcde1565	-0.027109811
11	0xbe1238f7	-0.14279543
12	0x3e922fe9	0.28552178
13	0x3b88ccc3	0.0041748
14	0x3e7b1a17	0.24521671
15	0x3e90d3bd	0.28286543
16	0xbdf309a0	-0.1186707
17	0x3df5c827	0.12001067
18	0xbc86aea7	-0.016440703
19	0xbe2d4ae2	-0.16923097
20	0x3e2fbc91	0.17161776
21	0xbce9b701	-0.028529646
22	0xbdd9513a	-0.10611196
23	0x3dcafe25	0.099117555
24	0x3e15e443	0.14637856
25	0xbdf8452d	-0.12122569
26	0x3e1d0c7d	0.15336795
27	0xbe495c77	-0.19664179
28	0x3df59063	0.1199043
29	0x3cc66b37	0.024221046
30	0xbdba6a4d	-0.091023065
31	0xbd63dcd0	-0.055630505
32	0x3de44904	0.11146739
33	0x3e0bb853	0.13644533
34	0x3b80d73c	0.003931908
35	0x3d145e2f	0.036222633
36	0xbdb036fa	-0.08604236
37	0xbba78e61	-0.0051134084
38	0xbd90e856	-0.070755646
39	0xbe5fdbd7	-0.21861206
40	0x3d226a4d	0.039652158
41	0xbd97fc00	-0.07421112
42	0xbe8c4ebd	-0.27403823
43	0x3e7678e9	0.24069561
44	0x3d2251a6	0.039628647
45	0x3d8a2e96	0.06747167
46	0x3e22c2fb	0.15894692
47	0x3ba1912b	0.0049306354
48	0xbdf3bbdd	-0.119010665
49	0xbda19ddf	-0.0789144
50	0xbe511af7	-0.20420443
51	0xbe9519e6	-0.2912132
52	0xbcf4304a	-0.029808182
53	0x3de06663	0.10957029
54	0xbea41b75	-0.32052198
55	0xbd885aee	-0.066579685
56	0x3d8e7f98	0.0695793
57	0xbdb49ed2	-0.08819355
58	0xbe23d374	-0.15998632
59	0x3bbf5df8	0.0058400594
60	0x3e511567	0.2041832
61	0xbe053e1f	-0.13011979
62	0xbc22e846	-0.009943074
63	0xbe330928	-0.17483962
64	0xbe3fd83b	-0.18734829
65	0x3e570471	0.20997788
66	0x3bbf0d4c	0.0058304425
67	0x3d2e9feb	0.04263298
68	0xbe6344de	-0.2219424
69	0x3daa12f5	0.08304397
70	0xbd85bc05	-0.065300025
71	0xbcd762b9	-0.026292192
72	0x3e0fc344	0.14039332
73	0xbe30a9d0	-0.17252278
74	0xbd4e46f3	-0.05036063
75	0x3ded1a62	0.11577298
76	0x3d787a8c	0.060663745
77	0xbd80393a	-0.06260915
78	0xbe1f3c1b	-0.15550272
79	0xbd40a0e2	-0.04702843
80	0x3e09aedb	0.13445608
81	0xbe04d22d	-0.129708
82	0xbe6e0ee6	-0.23247871
83	0xbe6d9d7e	-0.2320461
84	0xbd91ebec	-0.07125077
85	0xbe6d2817	-0.23159824
86	0x3e255723	0.16146521
87	0x3e06b6f1	0.13155724
88	0x3cfba87a	0.030719984
89	0xbe311d68	-0.17296374
90	0x3d8dd5f4	0.06925574
91	0xbdeda74f	-0.11604177
92	0x3e0c6862	0.13711694
93	0xbd3502aa	-0.044191994
94	0x3d1f663d	0.03891586
95	0x3d822f90	0.06356728
96	0xbd299cda	-0.04140935
97	0x3c0134f8	0.007886164
98	0x3cb84625	0.022494385
99	0xbd9efd42	-0.07763149
100	0x3e3402ac	0.17579144
101	0x3c29d9d7	0.0103668785
102	0xbd1171a3	-0.035508763
103	0x3e43679b	0.19082491
104	0xbd332c9e	-0.043743722
105	0xbe62b704	-0.22140127
106	0xbe16d577	-0.14729868
107	0x3e62646d	0.22108622
108	0xbca79371	-0.020456048
109	0x3ea855a8	0.3287785
110	0x3de804a3	0.113290094
111	0x3e8671b4	0.26258624
112	0x3e334390	0.17506242
113	0xbdf76bdb	-0.12081119
114	0x3e8dddd0	0.27708292
115	0x3e5fac3b	0.21843044
116	0xbc91affa	-0.017784107
117	0xbe20018b	-0.15625589
118	0x3e167a1e	0.14695022
119	0x3e8f13a1	0.27944663
120	0xbd13108e	-0.03590446
121	0xbe20991c	-0.15683407
122	0xbdb9ad62	-0.09066273
123	0x3db3d6d1	0.08781207
124	0xbe3af197	-0.18256222
125	0x3e911147	0.28333494
126	0x3d0cd00e	0.034378104
127	0x3cda142d	0.026620949
128	0x3e2aecc9	0.16691889
129	0xbdbcac10	-0.09212506
130	0x3d1959d5	0.037439186
131	0x3c3eb0a5	0.011638795
132	0xbe18a05d	-0.14904924
133	0x3dc73d8b	0.09728535
134	0x3e161109	0.14654936
135	0xbd98a8a0	-0.07454038
136	0x3e12371d	0.14278837
137	0x3df51698	0.119672
138	0x3d6863ec	0.056735918
139	0xbe43a565	-0.19106062
140	0x3c880227	0.016602589
141	0x3e0a1a37	0.13486563
142	0xbe21dc96	-0.15806803
143	0xbb3efece	-0.0029143575
144	0xbd6cbaf2	-0.057795472
145	0xbdfe748c	-0.12424573
146	0x3d241508	0.04005912
147	0x3e8b9702	0.27263647
148	0x3e8a909e	0.2706346
149	0xbe036db0	-0.12834811
150	0x3ef6d076	0.48205918
151	0x3e9d09d2	0.30671555
152	0xbdf7ef79	-0.12106223
153	0xbd3dc63a	-0.04633162
154	0x3b5c0c93	0.003357683
155	0xbd9630cf	-0.07333528
156	0xbe2b5044	-0.16729838
157	0xbda54356	-0.08069484
158	0xbc957849	-0.018245833
159	0x3e3f9356	0.18708548
160	0xbd505514	-0.050862387
161	0xbdc3e6d6	-0.09565513
162	0xbbba1bdc	-0.0056795906
163	0xbdcc8feb	-0.09988388
164	0xbbe6c207	-0.007042173
165	0x3d6ff301	0.058581356
166	0x3d69fa48	0.057123452
167	0xbe57f0f6	-0.21088013
168	0xbcb8c9eb	-0.02255722
169	0x3e53facb	0.20701139
170	0xbdb668e1	-0.08906723
171	0x3d8898b9	0.066697545
172	0xbc52a266	-0.012856102
173	0x3dd35982	0.10319807
174	0xbe9b0834	-0.30279696
175	0x3dc6db2d	0.09709773
176	0xbe7a8f31	-0.24468686
177	0x3e48eb0c	0.19620913
178	0x3d49d13a	0.0492718
179	0x3d581f4c	0.052764222
180	0x3e9471c0	0.28993034
181	0x3dba24d8	0.09089059
182	0xbdc79458	-0.09745091
183	0xbdc6285d	-0.096756674
184	0x3e37d54f	0.17952465
185	0xbd7f29d8	-0.062295765
186	0xbdd51ce9	-0.10405905
187	0x3e10d7cb	0.14144818
188	0x3df5b97b	0.11998268
189	0xbc45b19e	-0.012066273
190	0x3de9db15	0.1141874
191	0xbd7a501f	-0.061111566
192	0x3e31fc9e	0.17381522
193	0xbdccb2a0	-0.099950075
194	0xbe2ef6d2	-0.17086342
195	0x3d1290dd	0.035782684
196	0xba2b664e	-0.0006538377
197	0xbd904211	-0.07043851
198	0x3e4a12f7	0.19733797
199	0xbd00f174	-0.031480268
200	0x3e478766	0.19485244
201	0x3d811123	0.06302097
202	0xbd8845df	-0.06653952
203	0x3d6abf96	0.057311617
204	0xbe249fcf	-0.16076587
205	0xbeb6c43d	-0.35696593
206	0x3d3894cd	0.045063782
207	0x3cf3b37d	0.029748673
208	0xbd2b030d	-0.041750956
209	0x3df16424	0.117866784
210	0x3e052505	0.13002403
211	0xbe0e52d4	-0.13898784
212	0xbdadff38	-0.08495945
213	0xbd9ea908	-0.07747084
214	0x3da39b8a	0.07988651
215	0x3e44549e	0.19172904
216	0xbdf2c627	-0.11854201
217	0xbe29bf87	-0.16576968
218	0xbe689a37	-0.22715078
219	0x3dc01715	0.093794025
220	0xbe0c3d27	-0.13695203
221	0x3da36624	0.07978466
222	0x3e1c660b	0.15273301
223	0x3d6dd680	0.05806589
224	0x3d4f25b2	0.05057306
225	0x3d8a1328	0.06741935
226	0x3d41e5ca	0.047338285
227	0x3e38cc60	0.18046713
228	0xbe61e092	-0.22058323
229	0x3e6731aa	0.22577539
230	0xbebce9d6	-0.36897153
231	0xbd85b649	-0.06528909
232	0x3db53177	0.08847325
233	0xbb758006	-0.003746034
234	0x3da71ba5	0.0815957
235	0x3d6218c2	0.055199392
236	0xbda16b96	-0.078818485
237	0x3e1d6115	0.15369065
238	0x3daa4bdb	0.083152495
239	0x3d79712a	0.060898937
240	0xbd903977	-0.070422105
241	0xbe3ab9d5	-0.18234952
242	0x3e45cbda	0.19316044
243	0x3cafa8f4	0.021442868
244	0x3d85b6bb	0.06528994
245	0x39ccdccd	0.00039074422
246	0xbe274320	-0.163342
247	0xbd996fc1	-0.074920185
248	0x3db185d1	0.086681016
249	0xbb3470c6	-0.0027533039
250	0x3e0b9487	0.13630877
251	0x3dbfd06c	0.09365925
252	0xbe324884	-0.17410475
253	0x3ec528af	0.38507602
254	0xbea8ec8c	-0.3299297
255	0x3d860142	0.06543209

hidden_layers.1.bias f4 [50]
0	0xbd4bc188	-0.049745113
1	0x3db8a173	0.09015169
2	0x3e578b3d	0.21049209
3	0x3dd687b7	0.10475104
4	0x3db9c428	0.09070617
5	0x3e060107	0.1308633
6	0x3dd79806	0.10527043
7	0x3ce362e4	0.027757116
8	0x3d6775f8	0.05650899
9	0x3eb21dbf	0.3478832
10	0x3c6431bc	0.013927873
11	0xbdaf1891	-0.085496075
12	0x3b2e9307	0.0026637928
13	0xbe3df558	-0.18550622
14	0xbc21c2fe	-0.00987315
15	0x3cc9de03	0.024641996
16	0x3d9dc7b2	0.077041045
17	0xbd8d2d51	-0.06893409
18	0xbd0a8375	-0.033816773
19	0x3e7ef9b1	0.24899937
20	0xbec86bb6	-0.39144677
21	0x3d380b44	0.04493262
22	0xbdd985e6	-0.10621242
23	0xbdb9fc03	-0.090812705
24	0xbb510e0f	-0.0031899249
25	0xbd5cda00	-0.05391884
26	0xbe8d2513	-0.27567348
27	0xbcf2878f	-0.029605655
28	0xbde73156	-0.11288707
29	0xbd97dfd5	-0.074157394
30	0x3e5be8ab	0.21475475
31	0xbd634ed9	-0.055495117
32	0x3dd066c9	0.10175855
33	0x3e0d84a1	0.13820125
34	0x3d385eb0	0.045012176
35	0x3e220ca7	0.15825139
36	0xbd95f940	-0.07322931
37	0x3de7fc2f	0.11327397
38	0xbba3621a	-0.00498606
39	0xbd83a1d2	-0.06427349
40	0x3dbf410f	0.09338581
41	0x3d1c2316	0.038119398
42	0xbcbdb554	-0.023157753
43	0xbd83e567	-0.064402394
44	0xbdaca160	-0.08429217
45	0xbd53fe3e	-0.051756136
46	0x3d8f9290	0.070103765
47	0xbd878e5a	-0.06618948
48	0xbd8048b0	-0.06263864
49	0x3d2e870c	0.04260926
