weights/checkpoint/example0004_train_adam.pth (torch, 79323 bytes, 35 tensors)

a f4 [4]
0.2 0.2 0.2 0.2
00000000: cdcc 4c3e cdcc 4c3e cdcc 4c3e cdcc 4c3e

input_layer.weight f4 [50, 2]
-0.23692524 -0.14427008 -0.14098862 -0.09679013 -0.18334359 -0.45028448 -0.7764581 0.19501746
0.742928 0.10807957 0.17635335 -0.18614309 0.080525175 -0.12145925 0.1624128 -0.0786467
0.26742676 0.041982245 0.07277555 0.37850848 -0.40728116 -0.1722905 -0.38934547 -0.24676308
-0.5581586 -0.10103678 0.19782956 0.17719053 -0.026979325 0.2040185 0.6379793 -0.09865595
0.33117554 -0.22285658 0.10095949 -0.20451309 -0.16901775 0.38922653 -0.025895476 -0.043732908
0.34976777 -0.14122373 -0.19472723 0.044013597 0.63715357 -0.35834214 -0.29132098 -0.27329475
0.29155302 0.51976895 0.36982447 0.3190643 0.24626431 -0.0733843 -0.23775874 0.25419828
0.1484427 0.1159597 -0.362376 0.018051716 0.10365132 0.54630905 0.7088046 0.21143077
-0.19271079 0.1938702 -0.2814836 -0.17277044 0.03567967 -0.0122288875 -0.17708373 0.18100189
0.5935179 0.73733497 0.48277286 -0.3744023 0.45278817 -0.28095227 -0.3115711 -0.25777808
-0.6373502 0.16420268 0.19063358 -0.25963524 -0.07931842 0.28474236 0.10496858 0.32463357
-0.24110301 -0.38967356 -0.20299767 -0.15650763 0.073354654 -0.45907047 0.1253537 -0.04513029
0.025819523 0.51676375 -0.23103207 0.23922631
00000000: 889c 72be 89bb 13be 525f 10be e739 c6bd
00000010: 6cbe 3bbe b08b e6be f5c5 46bf a8b2 473e
00000020: 8830 3e3f d258 dd3d f995 343e 4b9c 3ebe
00000030: 62ea a43d a1bf f8bd 8b4f 263e 8511 a1bd
00000040: 29ec 883e 93f5 2b3d 590b 953d ddcb c13e
00000050: 2887 d0be ec6c 30be 4a58 c7be 76af 7cbe
00000060: 7be3 0ebf 5fec cebd d593 4a3e 6f71 353e
00000070: bf03 ddbc 3aea 503e 9d52 233f 210c cabd
00000080: d78f a93e 8434 64be d9c3 ce3d e16b 51be
00000090: fd12 2dbe b348 c73e c022 d4bc 4721 33bd
000000a0: c314 b33e f49c 10be 9366 47be 9a47 343d
000000b0: 7f1c 233f 9f78 b7be 0628 95be 4aed 8bbe
000000c0: 7046 953e 940f 053f a259 bd3e 655c a33e
000000d0: b62c 7c3e 824a 96bd 0777 73be 4726 823e
000000e0: 5d01 183e 477c ed3d 5989 b9be 31e1 933c
000000f0: 2547 d43d e9da 0b3f 3874 353f 4f81 583e
00000100: fa55 45be e985 463e 9e1e 90be bcea 30be
00000110: d824 123d ac5b 48bc 7055 35be 8f58 393e
00000120: caf0 173f fcc1 3c3f 012e f73e a9b1 bfbe
00000130: dad3 e73e fad8 8fbe 3f86 9fbe 7dfb 83be
00000140: 6229 23bf bf24 283e 7335 433e e9ee 84be
00000150: b271 a2bd c0c9 913e c4f9 d63d 5f36 a63e
00000160: b5e3 76be 4b83 c7be 9fde 4fbe 8943 20be
00000170: f73a 963d 490b ebbe b85c 003e 8ada 38bd
00000180: 7783 d33c a14a 043f ac93 6cbe bef7 743e

input_layer.bias f4 [50]
0.06793532 0.50599134 0.62390083 -0.6873112 -0.5008958 0.8894133 -0.14987877 0.03896414
0.088110596 0.19207409 -0.19833009 -0.4763648 -0.19752452 -0.5956528 0.3998884 0.11376704
0.31638503 -0.3955821 0.13777214 -0.23554394 -0.5961007 0.44900897 0.1553754 -0.100275196
-0.030927217 0.24218413 -0.47109923 -0.2993565 -0.16386265 0.55801576 0.17556426 0.17725112
0.23957275 -0.11222498 0.37054235 -0.28347072 -0.0011807709 -0.45473847 0.3044128 -0.23621686
0.5888566 0.5708429 0.11250286 0.18421079 0.30204016 -0.34419277 0.2450835 -0.85646623
-0.44069803 -0.28401327
00000000: ac21 8b3d a688 013f f7b7 1f3f a0f3 2fbf
00000010: b53a 00bf 97b0 633f d279 19be dd98 1f3d
00000020: 5473 b43d 12af 443e 0b17 4bbe 16e6 f3be
00000030: de43 4abe b47c 18bf 2cbe cc3e b2fe e83d
00000040: 38fd a13e bd89 cabe 2414 0d3e 6e32 71be
00000050: 0e9a 18bf 81e4 e53e bb1a 1f3e 155d cdbd
00000060: 135b fdbc 1eff 773e eb33 f1be 4145 99be
00000070: 9ccb 27be 1fda 0e3f 1ec7 333e 5181 353e
00000080: 8f52 753e 36d6 e5bd bab7 bd3e 1323 91be
00000090: 19c4 9aba 7bd3 e8be ffdb 9b3e d5e2 71be
000000a0: 4ebf 163f c322 123f e667 e63d c1a1 3c3e
000000b0: 02a5 9a3e 093a b0be 2bf7 7a3e 5f41 5bbf
000000c0: 2ca3 e1be 306a 91be

input_ln.weight f4 [50]
1.2662084 1.1648568 1.2065779 1.0316613 1.0815343 0.99676675 1.0754899 0.95625
1.1132059 0.92266333 0.93596673 0.97275513 1.1679689 0.77139 0.96978986 1.1626133
1.0767655 0.8516268 1.0622283 1.0065075 1.0108315 0.999749 0.9122464 1.102428
1.0356494 1.0000842 0.8237622 0.945668 0.95818305 1.0106981 0.9603652 0.95446074
1.0461694 0.9160039 0.9157422 1.2532004 1.0252793 1.2900486 1.229622 1.1417261
1.2321256 1.1755574 0.91329104 1.1410795 0.96603304 1.0102826 0.9773505 0.9756877
0.9025311 1.1819814
00000000: 1e13 a23f 071a 953f 2571 9a3f 7a0d 843f
00000010: b76f 8a3f 1b2c 7f3f a7a9 893f cdcc 743f
00000020: 887d 8e3f aa33 6c3f 849b 6f3f 7b06 793f
00000030: 0180 953f d179 453f 2644 783f 83d0 943f
00000040: 74d3 893f 3704 5a3f 19f7 873f 3dd5 803f
00000050: ed62 813f 8def 7f3f fb88 693f 5c1c 8d3f
00000060: 2990 843f c202 803f 14e2 523f 4c17 723f
00000070: 7c4b 753f 8e5e 813f 7eda 753f 8a57 743f
00000080: e1e8 853f 3b7f 6a3f 156e 6a3f df68 a03f
00000090: 5a3c 833f 5020 a53f 4164 9d3f 1524 923f
000000a0: 4bb6 9d3f aa78 963f 71cd 693f e50e 923f
000000b0: f14d 773f f150 813f a433 7a3f abc6 793f
000000c0: 470c 673f 2b4b 973f

input_ln.bias f4 [50]
0.08337884 -0.4537281 0.15275131 -0.8660979 -0.8217629 -1.1337433 -0.0009446723 0.78432965
0.049809925 0.08717202 -0.035396323 0.7268994 -0.816323 -1.474703 0.029249601 -0.029971132
-0.2832975 0.95205355 0.8087284 0.4143097 0.03264343 -0.07221925 0.62412566 -0.06140212
0.741457 0.5852257 -0.2786488 -0.3889757 1.1482027 -0.24225803 0.7179865 -0.5577171
0.31135532 0.7906719 -0.6011856 -0.61934197 0.1720891 -0.30186376 0.6460909 -0.48020732
0.21289895 -0.5624771 0.38519835 0.12908372 1.3609836 -0.37513906 -0.09291582 0.87361825
-0.61222374 0.3664846
00000000: 86c2 aa3d 0d4f e8be d76a 1c3e 98b8 5dbf
00000010: 0e5f 52bf 801e 91bf e3a3 77ba d4c9 483f
00000020: 7e05 4c3d 3e87 b23d bcfb 10bd 1416 3a3f
00000030: 8bfa 50bf 11c3 bcbf dc9c ef3c 0586 f5bc
00000040: 5f0c 91be c8b9 733f d308 4f3f 6720 d43e
00000050: 1eb5 053d b0e7 93bd b3c6 1f3f ca80 7bbd
00000060: 20d0 3d3f 5ad1 153f 0eab 8ebe d327 c7be
00000070: 4ef8 923f 7d12 78be f7cd 373f 8cc6 0ebf
00000080: f769 9f3e 7969 4a3f 4de7 19bf 328d 1ebf
00000090: 2038 303e e38d 9abe 3766 253f bcdd f5be
000000a0: 2f02 5a3e 80fe 0fbf b838 c53e 862e 043e
000000b0: b634 ae3f 3a12 c0be a64a bebd 72a5 5f3f
000000c0: b2ba 1cbf dfa3 bb3e

hidden_layers.0.weight f4 [50, 50]
-0.21957476 -0.17634921 -0.09864003 0.26061127 -0.09221361 -0.061597906 0.24801561 -0.1728981
-0.14215681 -0.044291474 -0.074918784 -0.009392463 0.18417084 -0.086614564 0.09206104 -0.2609716
-0.06819254 0.18952458 -0.032272458 0.4613414 -0.012190153 -0.05203881 -0.2091177 0.08578487
-0.07181832 0.08526701 0.2661423 -0.07135502 -0.2479775 0.1072383 0.1321316 -0.034472004
-0.21710955 -0.08935635 0.019700734 0.04373859 0.22272235 -0.10374255 0.06417729 -0.11920043
0.05290458 -0.039827242 0.08623324 0.05425428 0.12358245 0.16638972 0.19653825 0.08178797
0.28980973 -0.24384591 0.013575996 -0.02213993 -0.04136025 0.060971953 -0.0089827385 0.16345792
0.019021913 -0.13529529 -0.03879981 -0.015510588 -0.12907314 -0.12221534 0.21929388 -0.07613197
0.12188082 0.09761342 -0.19053958 -0.23291008 -0.007284149 -0.094354674 -0.11499079 -0.119579904
-0.13725667 -0.13056992 0.10454318 -0.08752941 0.31284082 0.061140724 -0.08936189 -0.30081362
-0.051387314 0.21677938 0.32806626 0.09078262 0.20059158 0.4035851 0.22436944 0.23265107
0.030546095 -0.03628886 0.14861748 -0.13339011 -0.15577799 0.07746489 0.0051485263 0.014094995
-0.09522107 -0.06422751 -0.005041801 0.017452758 0.012959245 0.1120669 0.30062497 0.12749214
-0.014509971 0.019200813 0.16656463 0.23664509 -0.17232402 -0.009192154 0.1407686 0.045882694
0.2814071 -0.078968346 -0.056236584 0.17591058 0.10912537 0.32837376 0.13937412 -0.22137503
-0.12561885 -0.08445915 -0.13162024 -0.11267701 0.0147671485 0.18150805 -0.15512404 -0.064219706
-0.03457376 -0.09514534 0.23970933 -0.06793771 -0.038790673 0.26504278 -0.05383178 0.08813096
-0.0886334 -0.12314173 0.34513384 0.03928508 -0.13568531 -0.018021593 -0.12506923 0.008300638
-0.083897546 0.07585427 0.0041925926 0.22304307 -0.24530017 -0.3106159 -0.14035158 0.1348851
-0.1506655 -0.151444 -0.18365882 -0.16521388 0.07389692 -0.08394122 -0.07490274 -0.0010447713
-0.31050125 -0.22577342 -0.2795943 0.028707156 -0.09615453 0.11622419 -0.18361427 0.14054361
-0.16566125 -0.0651522 0.024544284 -0.12561086 0.023152499 -0.036235943 0.1572682 0.012899387
-0.059126623 -0.20917682 -0.11853715 0.059958875 -0.3120321 0.06144125 0.33584592 -0.06732361
-0.21971594 0.037813507 -0.07288677 0.019888332 -0.30202293 0.01986591 -0.13759354 0.2424535
0.075376414 0.096625105 0.06773665 -0.11256529 0.046398286 -0.07090517 0.1905849 -0.082912795
-0.06369087 -0.3405216 -0.12571245 0.061682913 -0.018780854 -0.21271133 0.13581817 0.18562569
-0.27198297 -0.20658956 0.055564642 -0.002302234 -0.12379354 0.22649173 -0.33132643 0.23594573
-0.13661142 -0.15298992 0.023551509 -0.40471652 -0.060454033 0.15390067 -0.06934689 0.31661215
-0.046633888 -0.16541462 -0.01657977 0.03687737 -0.13568734 -0.028166361 0.26986498 -0.055166066
-0.18733637 0.035505533 -0.02197298 -0.062048588 -0.005793128 0.07452513 0.23163293 0.15315941
-0.35134542 -0.00914822 0.102285944 -0.133055 -0.18612969 -0.061531086 -0.0031064814 -0.10325056
-0.132435 -0.25633278 -0.14801198 -0.20235422 -0.25771978 0.012443132 -0.05933837 -0.054841727
00000000: 35d8 60be e394 34be c903 cabd d76e 853e
00000010: 7dda bcbd 164e 7cbd cef7 7d3e 330c 31be
00000020: 8e91 11be fa6a 35bd 056f 99bd d8e2 19bc
00000030: 4897 3c3e fa62 b1bd 808a bc3d 129e 85be
00000040: 88a8 8bbd bb12 423e 2030 04bd f134 ec3e
00000050: 35b9 47bc a626 55bd f322 56be faaf af3d
00000060: 7c15 93bd 78a0 ae3d ce43 883e 9522 92bd
00000070: d0ed 7dbe c19f db3d 824d 073e 8432 0dbd
00000080: f751 5ebe 7600 b7bd 6f63 a13c 3c27 333d
00000090: 5411 643e f976 d4bd 626f 833d 5b1f f4bd
000000a0: 79b2 583d e421 23bd 0e9b b03d bc39 5e3d
000000b0: cc18 fd3d 1162 2a3e 5341 493e 7480 a73d
000000c0: f161 943e beb2 79be db6d 5e3c cc5e b5bc
000000d0: 5e69 29bd babd 793d 562c 13bc 8361 273e
000000e0: d8d3 9b3c d98a 0abe 8dec 1ebd 1f20 7ebc
000000f0: c02b 04be 094c fabd 938e 603e 14eb 9bbd
00000100: a79c f93d 8be9 c73d cf1c 43be fb7f 6ebe
00000110: dfaf eebb 063d c1bd 4b80 ebbd 4fe6 f4bd
00000120: 038d 0cbe 1fb4 05be bc1a d63d 9f42 b3bd
00000130: ac2c a03e b26e 7a3d 5e03 b7bd 3e04 9abe
00000140: 817b 52bd 6afb 5d3e 4df8 a73e 3dec b93d
00000150: e167 4d3e b5a2 ce3e 1ac1 653e 153c 6e3e
00000160: ce3b fa3c a1a3 14bd 2e2f 183e 6b97 08be
00000170: 4484 1fbe eaa5 9e3d f8b4 a83b b2ee 663c
00000180: 4403 c3bd b689 83bd b135 a5bb 16f9 8e3c
00000190: 0353 543c 5583 e53d 84eb 993e 4d8d 023e
000001a0: 3bbb 6dbc 064b 9d3c eb8f 2a3e 1753 723e
000001b0: b575 30be b09a 16bc a525 103e 7eef 3b3d
000001c0: 9714 903e 28ba a1bd 5558 66bd e721 343e
000001d0: 1f7d df3d 9b20 a83e 17b8 0e3e 23b0 62be
000001e0: 3aa2 00be ebf8 acbd 75c7 06be 34c3 e6bd
000001f0: e9f1 713c 3fdd 393e d6d8 1ebe 9f85 83bd
00000200: 379d 0dbd 8fdb c2bd 5d76 753e ed22 8bbd
00000210: f8e2 1ebd b0b3 873e b67e 5cbd 017e b43d
00000220: 6e85 b5bd bb31 fcbd 62b5 b03e 64e9 203d
00000230: 17f1 0abe 05a2 93bc 2612 00be 66ff 073c
00000240: 7ad2 abbd 7c59 9b3d 0462 893b 6765 643e
00000250: f82f 7bbe 0c09 9fbe 53b8 0fbe 521f 0a3e
00000260: 0f48 1abe 2314 1bbe 0f11 3cbe d42d 29be
00000270: 4557 973d 60e9 abbd 9c66 99bd b5f0 88ba
00000280: 05fa 9ebe 2631 67be fc26 8fbe 452b eb3c
00000290: abec c4bd f306 ee3d 6105 3cbe aaea 0f3e
000002a0: 1aa3 29be 846e 85bd 1811 c93c 22a0 00be
000002b0: 4faa bd3c 246c 14bd ea0a 213e f357 533c
000002c0: c22e 72bd 7332 56be 9bc3 f2bd 7097 753d
000002d0: acc2 9fbe d2a9 7b3d fff3 ab3e f6e0 89bd
000002e0: 37fd 60be 56e2 1a3d a945 95bd dbec a23c
000002f0: c0a2 9abe d5bd a23c 52e5 0cbe bb45 783e
00000300: f35e 9a3d 62e3 c53d 83b9 8a3d a188 e6bd
00000310: 210c 3e3d bb36 91bd b028 433e 2fce a9bd
00000320: 5c70 82bd d958 aebe c4ba 00be 39a7 7c3d
00000330: 4eda 99bc 00d1 59be eb13 0b3e a914 3e3e
00000340: 5a41 8bbe 378c 53be c097 633d 14e1 16bb
00000350: 7887 fdbd 73ed 673e 9ea3 a9be c29b 713e
00000360: dde3 0bbe 64a9 1cbe 18ef c03c 0137 cfbe
00000370: a69e 77bd 2398 1d3e be05 8ebd fd1a a23e
00000380: 2d03 3fbd 7362 29be 4cd2 87bc ba0c 173d
00000390: 9ff1 0abe 24bd e6bc be2b 8a3e d0f5 61bd
000003a0: 1bd5 3fbe 406e 113d ae00 b4bc a926 7ebd
000003b0: 48d4 bdbb a2a0 983d 2f31 6d3e d2d5 1c3e
000003c0: 8ce3 b3be 6ae2 15bc 4b7b d13d 923f 08be
000003d0: c898 3ebe 0508 7cbd 1c96 4bbb 0875 d3bd
000003e0: 0a9d 07be 0d3e 83be 7490 17be f235 4fbe
000003f0: d9f3 83be 47de 4b3c ca0c 73bd b8a1 60bd

hidden_layers.0.bias f4 [50]
0.05045045 -0.04479279 0.032544542 -0.013458605 0.020630874 -0.07219861 -0.041936547 0.11559941
-0.040313266 -0.0036309306 0.09372963 -0.00906136 -0.06056927 -0.10603497 -0.03519169 -0.043961916
-0.061910994 0.03681706 -0.09172204 0.016327893 -0.0029486187 -0.06089241 0.058507252 0.1206106
0.03724038 -0.081488356 -9.894049e-05 0.097738445 0.06830449 -0.010550353 -0.025761183 0.08961888
-0.029184628 0.008218421 0.031687174 -0.08259204 -0.06062092 -0.06893808 -0.034428656 0.01497164
0.14475071 -0.10249594 -0.06667121 -0.08276521 0.15780066 -0.08914507 0.027731989 -0.01533819
0.022792127 0.080090225
00000000: 22a5 4e3d a578 37bd 6d4d 053d 7b81 5cbc
00000010: 1402 a93c dddc 93bd a8c5 2bbd 62bf ec3d
00000020: 861f 25bd e8f4 6dbb 52f5 bf3d 1976 14bc
00000030: 7c17 78bd dd28 d9bd 2925 10bd 6911 34bd
00000040: 6296 7dbd 7ccd 163d c4d8 bbbd 13c2 853c
00000050: 9d3d 41bb 526a 79bd 4da5 6f3d b102 f73d
00000060: 5e89 183d 5ee3 a6bd 457e cfb8 182b c83d
00000070: 39e3 8b3d 63db 2cbc 1e09 d3bc 1a8a b73d
00000080: 9a14 efbc 8ea6 063c 69ca 013d 0426 a9bd
00000090: a44d 78bd 682f 8dbd 1005 0dbd 9c4b 753c
000000a0: 8839 143e 64e9 d1bd ea8a 88bd ce80 a9bd
000000b0: 7f96 213e b191 b6bd 322e e33c 084d 7bbc
000000c0: 8eb6 ba3c 5806 a43d

hidden_layers.1.weight f4 [50, 50]
0.17938459 -0.05407064 0.018799698 0.07805883 0.0720528 -0.25041202 -0.20199712 -0.19226001
-0.011635224 0.19649197 0.07678558 -0.2831294 -0.059938453 0.33800805 0.15863426 -0.11825153
-0.05427008 -0.10921119 -0.08434796 0.00487536 -0.04247359 0.04110134 -0.13857271 0.35007644
-0.19367407 -0.36143044 0.39453152 0.44504228 -0.0058235377 -0.16388439 -0.08650345 0.14368388
-0.056768883 -0.07904918 0.040066786 0.26805606 -0.093321115 0.15828992 0.10662625 -0.29769403
-0.063470155 -0.09044886 0.030542398 -0.07505417 -0.22994836 -0.25966662 0.12707432 -0.0832998
-0.07328099 0.096328326 -0.098962635 0.1624092 0.038273778 0.022647038 0.021198954 -0.11433818
0.21782342 -0.09045135 0.12445549 -0.14330508 0.0011606034 -0.07947293 0.2328512 -0.056480486
-0.2032733 0.16633728 -0.29793468 0.0057538263 -0.11723168 -0.10229104 -0.031598136 0.015836626
0.2423063 -0.037924495 -0.13351275 -0.16337712 -0.25675443 -0.20280439 -0.053117488 0.23581241
-0.053096723 -0.0057075457 -0.13816425 -0.10733876 0.015849682 0.011109323 -0.07475278 0.005106004
0.26120177 0.011460824 -0.24388222 0.20340122 -0.10333773 0.078183815 -0.037732463 -0.014600356
-0.058037736 0.45980054 -0.28258026 0.04579753 -0.047857568 0.24124478 -0.10634619 -0.12540825
0.08904196 0.08176385 0.20847404 0.107995294 0.088271715 -0.18985608 0.0629855 -0.23217194
0.0745268 0.014246947 0.023179023 -0.045581907 0.24082102 -0.06662646 0.03072964 -0.24335769
-0.068635516 0.0038825911 -0.2054771 0.06839825 0.24049594 -0.0801302 -0.10485818 -0.016142502
0.1619316 0.085242435 -0.1230269 0.04493828 -0.1827447 0.20790757 0.03953196 0.011748
0.04548925 0.14132069 0.06481411 0.19202454 -0.108347714 -0.009943408 0.33463138 -0.16393684
-0.13728753 0.22329023 0.19676909 -0.15580854 -0.21333717 0.21302848 0.16702321 0.009790562
-0.07610308 0.17436981 -0.21455199 -0.029972253 -0.3591247 -0.17631261 -0.07673479 0.21997184
0.24059403 -0.07405109 -0.07664117 -0.14206849 -0.07831495 -0.111562245 -0.050379407 -0.15448873
0.15806168 0.18451291 -0.26819453 -0.11044256 -0.05740982 0.055248696 -0.19169568 0.023060536
-0.00408624 -0.26273242 -0.05402046 0.13026036 0.18583079 -0.30609646 -0.12305196 0.047495425
-0.23982956 -0.23296633 -0.03254548 0.078964554 0.005265802 0.17674597 -0.08015471 0.10092628
0.04172649 -0.10662938 0.13406631 0.15212142 0.10195613 0.1071837 0.03814659 0.1344168
-0.00058830925 0.13414349 0.053591233 0.150342 -0.19487639 -0.111139335 0.2545117 -0.17924722
-0.09553091 0.005759105 0.100285776 0.13711175 -0.11291307 0.25423223 0.30023614 -0.13724957
-0.22065648 0.20400806 0.047882702 -0.035982434 -0.13235673 0.19617331 -0.050519135 -0.013204502
-0.12112577 0.12044089 0.22002158 -0.1710763 -0.15027507 -0.24215126 -0.011470161 -0.25722262
0.029336145 -0.021217596 -0.055792075 0.10564929 0.051050495 0.029603962 0.09088173 -0.12476543
-0.044813097 -0.21287328 0.16080235 -0.013257344 -0.014443247 -0.13936193 0.1339298 0.23686936
-0.056812156 0.03870182 -0.1356995 -0.07766915 -0.33463588 -0.3302585 -0.18636937 0.16363685
00000000: 98b0 373e 2d79 5dbd d301 9a3c 4fdd 9f3d
00000010: 6b90 933d 0136 80be 55d8 4ebe cfdf 44be
00000020: aba1 3ebc 3135 493e c241 9d3d 56f6 90be
00000030: 0682 75bd 640f ad3e 0571 223e dc2d f2bd
00000040: 4e4a 5ebd 1eaa dfbd a0be acbd 7cc1 9f3b
00000050: c9f8 2dbd e159 283d 01e6 0dbe 383d b33e
00000060: 7f52 46be 690d b9be 0900 ca3e 95dc e33e
00000070: 60d3 bebb 4fd1 27be b928 b1bd de21 133e
00000080: 7d86 68bd 89e4 a1bd 121d 243d a53e 893e
00000090: 241f bfbd c116 223e dd5e da3d 5a6b 98be
000000a0: a4fc 81bd 403d b9bd 0d34 fa3c 00b6 99bd
000000b0: 9577 6bbe 06f3 84be c51f 023e 1699 aabd
000000c0: 5814 96bd c947 c53d ecac cabd 994e 263e
000000d0: f7c4 1c3d 4886 b93c 6ea9 ad3c 232a eabd
000000e0: 1a0d 5f3e 8f3e b9bd 85e2 fe3d 91be 12be
000000f0: 631f 983a b4c2 a2bd 8c70 6e3e 1558 67bd
00000100: e026 50be 5254 2a3e e58a 98be 988a bc3b
00000110: 2a17 f0bd f77d d1bd 0c6d 01bd d0bb 813c
00000120: 251f 783e b756 1bbd 91b7 08be 554c 27be
00000130: 5175 83be f4ab 4fbe b991 59bd cf78 713e
00000140: f37b 59bd 5d06 bbbb ee7a 0dbe 6cd4 dbbd
00000150: 31d7 813c e103 363c fc17 99bd 4450 a73b
00000160: 3dbc 853e 2ec6 3b3c 43bc 79be 6948 503e
00000170: bba2 d3bd d61e a03d 5b8d 1abd 5536 6fbc
00000180: fab8 6dbd fa6a eb3e 5cae 90be 3196 3b3d
00000190: 4c06 44bd df08 773e 08cc d9bd 056b 00be
000001a0: a25b b63d ce73 a73d 387a 553e a32c dd3d
000001b0: cdc7 b43d a269 42be 8bfe 803d 7bbe 6dbe
000001c0: 82a1 983d 076c 693c efe1 bd3c 18b4 3abd
000001d0: c999 763e 7473 88bd babc fb3c c232 79be
000001e0: c790 8cbd 1273 7e3b 9768 52be 6214 8c3d
000001f0: 9144 763e 4d1b a4bd e3bf d6bd 483d 84bc
00000200: 66d1 253e 9693 ae3d 87f5 fbbd 3411 383d
00000210: 6d21 3bbe b9e5 543e 44ec 213d af7a 403c
00000220: f052 3a3d 5fb6 103e 43bd 843d 15a2 443e
00000230: 68e5 ddbd ade9 22bc ce54 ab3e 0fdf 27be
00000240: 1a95 0cbe 32a6 643e d67d 493e 468c 1fbe
00000250: 0f75 5abe 2324 5a3e 2208 2b3e 9868 203c
00000260: eedb 9bbd 008e 323e 84b3 5bbe 5f88 f5bc
00000270: 31df b7be 4b8b 34be 2127 9dbd 4c40 613e
00000280: 485e 763e 19a8 97bd 0cf6 9cbd 677a 11be
00000290: 9763 a0bd bf7a e4bd a35a 4ebd 4b32 1ebe
000002a0: ecda 213e f4f0 3c3e cb50 89be b52f e2bd
000002b0: 8f26 6bbd 754c 623d df4b 44be 73e9 bc3c
000002c0: dee5 85bb dd84 86be 8f44 5dbd f962 053e
000002d0: 6d4a 3e3e adb8 9cbe aa02 fcbd 908a 423d
000002e0: e195 75be ba8e 6ebe 694e 05bd 2bb8 a13d
000002f0: c08c ac3b e5fc 343e 2728 a4bd 70b2 ce3d
00000300: 65e9 2a3d 8160 dabd ae48 093e b8c5 1b3e
00000310: 60ce d03d 2183 db3d 993f 1c3d 8fa4 093e
00000320: c438 1aba e95c 093e 7b82 5b3d 41f3 193e
00000330: ad8d 47be 059d e3bd 5c4f 823e 958c 37be
00000340: b6a5 c3bd e0b6 bc3b a162 cd3d 0667 0c3e
00000350: f83e e7bd ba2a 823e 8db8 993e 278b 0cbe
00000360: c6f3 61be 7de7 503e a720 443d 5162 13bd
00000370: 8688 07be a8e1 483e 27ed 4ebd b257 58bc
00000380: ca10 f8bd b7a9 f63d 564d 613e a02e 2fbe
00000390: b5e1 19be 80f6 77be 58ed 3bbc afb2 83be
000003a0: 5b52 f03c 86d0 adbc 3b86 64bd a85e d83d
000003b0: 531a 513d 0284 f23c 3320 ba3d 0585 ffbd
000003c0: f08d 37bd 74fb 59be 5fa9 243e 5535 59bc
000003d0: 5ea3 6cbc e5b4 0ebe e524 093e e28d 723e
000003e0: ddb3 68bd cd85 1e3d cff4 0abe 0111 9fbd
000003f0: 6555 abbe a417 a9be 9dd7 3ebe 6b90 273e

hidden_layers.1.bias f4 [50]
0.03910887 -0.006870421 -0.078865804 -0.014073421 -0.019821431 -0.034245756 -0.031088883 0.097109504
-0.016518494 -0.12589812 0.05402313 -0.035390086 0.06881134 -0.08272927 0.034875955 -0.037143588
0.062228337 -0.06239203 -0.11221058 -0.038785137 -0.009995053 0.032122336 0.03114196 0.029635487
0.11463314 -0.10939669 0.10991108 0.030792292 -0.054982316 0.107947014 0.11418285 0.057566684
-0.023539737 -0.034009073 0.04214107 -0.13123475 0.03347873 0.06600637 0.094003774 -0.09232121
0.06952512 0.043432776 -0.06246211 0.12196749 0.069517195 -0.19452767 -0.05094712 0.04204065
-0.057661705 0.047395162
00000000: 9f30 203d 4521 e1bb 6584 a1bd 3594 66bc
00000010: 8e60 a2bc 4745 0cbd 1dae febc 59e1 c63d
00000020: cb51 87bc 70eb 00be 5c47 5d3d 32f5 10bd
00000030: f6ec 8c3d f76d a9bd 17da 0e3d e023 18bd
00000040: 24e3 7e3d c98e 7fbd a9ce e5bd 2add 1ebd
00000050: 4ac2 23bc b692 033d 6c1d ff3c 1fc6 f23c
00000060: c8c4 ea3d 5f0b e0bd 0f19 e13d 1e40 fc3c
00000070: 2335 61bd 5313 dd3d b3d8 e93d 0bcb 6b3d
00000080: 68d6 c0bc 194d 0bbd 1d9c 2c3d 6762 06be
00000090: fe20 093d 592e 873d 0d85 c03d e712 bdbd
000000a0: 3063 8e3d 91e6 313d 45d8 7fbd 17ca f93d
000000b0: 085f 8e3d 4332 47be edad 50bd d132 2c3d
000000c0: ae2e 6cbd 6e21 423d

hidden_lns.0.weight f4 [50]
1.0 1.0 1.0 1.0 1.0 1.0 1.0 1.0
1.0 1.0 1.0 1.0 1.0 1.0 1.0 1.0
1.0 1.0 1.0 1.0 1.0 1.0 1.0 1.0
1.0 1.0 1.0 1.0 1.0 1.0 1.0 1.0
1.0 1.0 1.0 1.0 1.0 1.0 1.0 1.0
1.0 1.0 1.0 1.0 1.0 1.0 1.0 1.0
1.0 1.0
00000000: 0000 803f 0000 803f 0000 803f 0000 803f
00000010: 0000 803f 0000 803f 0000 803f 0000 803f
00000020: 0000 803f 0000 803f 0000 803f 0000 803f
00000030: 0000 803f 0000 803f 0000 803f 0000 803f
00000040: 0000 803f 0000 803f 0000 803f 0000 803f
00000050: 0000 803f 0000 803f 0000 803f 0000 803f
00000060: 0000 803f 0000 803f 0000 803f 0000 803f
00000070: 0000 803f 0000 803f 0000 803f 0000 803f
00000080: 0000 803f 0000 803f 0000 803f 0000 803f
00000090: 0000 803f 0000 803f 0000 803f 0000 803f
000000a0: 0000 803f 0000 803f 0000 803f 0000 803f
000000b0: 0000 803f 0000 803f 0000 803f 0000 803f
000000c0: 0000 803f 0000 803f

hidden_lns.0.bias f4 [50]
0.0 0.0 0.0 0.0 0.0 0.0 0.0 0.0
0.0 0.0 0.0 0.0 0.0 0.0 0.0 0.0
0.0 0.0 0.0 0.0 0.0 0.0 0.0 0.0
0.0 0.0 0.0 0.0 0.0 0.0 0.0 0.0
0.0 0.0 0.0 0.0 0.0 0.0 0.0 0.0
0.0 0.0 0.0 0.0 0.0 0.0 0.0 0.0
0.0 0.0
00000000: 0000 0000 0000 0000 0000 0000 0000 0000
00000010: 0000 0000 0000 0000 0000 0000 0000 0000
00000020: 0000 0000 0000 0000 0000 0000 0000 0000
00000030: 0000 0000 0000 0000 0000 0000 0000 0000
00000040: 0000 0000 0000 0000 0000 0000 0000 0000
00000050: 0000 0000 0000 0000 0000 0000 0000 0000
00000060: 0000 0000 0000 0000 0000 0000 0000 0000
00000070: 0000 0000 0000 0000 0000 0000 0000 0000
00000080: 0000 0000 0000 0000 0000 0000 0000 0000
00000090: 0000 0000 0000 0000 0000 0000 0000 0000
000000a0: 0000 0000 0000 0000 0000 0000 0000 0000
000000b0: 0000 0000 0000 0000 0000 0000 0000 0000
000000c0: 0000 0000 0000 0000

hidden_lns.1.weight f4 [50]
1.0 1.0 1.0 1.0 1.0 1.0 1.0 1.0
1.0 1.0 1.0 1.0 1.0 1.0 1.0 1.0
1.0 1.0 1.0 1.0 1.0 1.0 1.0 1.0
1.0 1.0 1.0 1.0 1.0 1.0 1.0 1.0
1.0 1.0 1.0 1.0 1.0 1.0 1.0 1.0
1.0 1.0 1.0 1.0 1.0 1.0 1.0 1.0
1.0 1.0
00000000: 0000 803f 0000 803f 0000 803f 0000 803f
00000010: 0000 803f 0000 803f 0000 803f 0000 803f
00000020: 0000 803f 0000 803f 0000 803f 0000 803f
00000030: 0000 803f 0000 803f 0000 803f 0000 803f
00000040: 0000 803f 0000 803f 0000 803f 0000 803f
00000050: 0000 803f 0000 803f 0000 803f 0000 803f
00000060: 0000 803f 0000 803f 0000 803f 0000 803f
00000070: 0000 803f 0000 803f 0000 803f 0000 803f
00000080: 0000 803f 0000 803f 0000 803f 0000 803f
00000090: 0000 803f 0000 803f 0000 803f 0000 803f
000000a0: 0000 803f 0000 803f 0000 803f 0000 803f
000000b0: 0000 803f 0000 803f 0000 803f 0000 803f
000000c0: 0000 803f 0000 803f

hidden_lns.1.bias f4 [50]
0.0 0.0 0.0 0.0 0.0 0.0 0.0 0.0
0.0 0.0 0.0 0.0 0.0 0.0 0.0 0.0
0.0 0.0 0.0 0.0 0.0 0.0 0.0 0.0
0.0 0.0 0.0 0.0 0.0 0.0 0.0 0.0
0.0 0.0 0.0 0.0 0.0 0.0 0.0 0.0
0.0 0.0 0.0 0.0 0.0 0.0 0.0 0.0
0.0 0.0
00000000: 0000 0000 0000 0000 0000 0000 0000 0000
00000010: 0000 0000 0000 0000 0000 0000 0000 0000
00000020: 0000 0000 0000 0000 0000 0000 0000 0000
00000030: 0000 0000 0000 0000 0000 0000 0000 0000
00000040: 0000 0000 0000 0000 0000 0000 0000 0000
00000050: 0000 0000 0000 0000 0000 0000 0000 0000
00000060: 0000 0000 0000 0000 0000 0000 0000 0000
00000070: 0000 0000 0000 0000 0000 0000 0000 0000
00000080: 0000 0000 0000 0000 0000 0000 0000 0000
00000090: 0000 0000 0000 0000 0000 0000 0000 0000
000000a0: 0000 0000 0000 0000 0000 0000 0000 0000
000000b0: 0000 0000 0000 0000 0000 0000 0000 0000
000000c0: 0000 0000 0000 0000

output_layer.weight f4 [2, 50]
-0.0022548023 0.038419668 -0.06390584 0.30707633 -0.54073465 0.08485552 -0.22298858 -0.040219784
0.09455897 -0.30794582 -0.14226533 -0.051518526 0.10647375 -0.2508817 -0.47558916 -0.2628186
0.21204637 0.06722943 0.02417017 -0.2413544 -0.091514386 0.04649725 -0.34671214 0.15279204
-0.4563071 0.33537737 -0.1713596 0.39590183 -0.15245758 -0.8340714 0.22593655 0.36876804
0.14212745 -0.6564232 -0.23951232 -0.43464676 0.16281292 0.2114915 0.35235345 0.0069080633
0.29813468 -0.4012039 -0.15195775 0.24182488 -0.08721003 -0.59973496 -0.24084552 -0.08226872
0.21100496 -0.32920983 -0.35523427 0.21712214 0.15455912 0.005280946 0.110193595 0.16775225
0.105650775 -0.49249166 -0.33956045 0.28151602 0.04274529 -0.022795895 0.22375324 0.54483384
-0.1529673 -0.099601164 -0.3983365 0.16630886 0.35433027 0.22144131 0.27038056 0.022244835
-0.050400008 -0.2416947 -0.30901873 0.60656136 -0.39873937 -0.33588696 0.15910345 -0.43215835
0.28913197 -0.20469889 -0.19400366 0.16146624 0.09319179 -0.14011842 0.3272215 -0.33875433
-0.4123824 -0.1318873 -0.32724786 0.08057664 0.30417982 -0.48509037 -0.5730042 0.5335004
-0.1746289 -0.5907232 0.16562682 0.014097688
00000000: 4ec5 13bb f15d 1d3d 11e1 82bd 1c39 9d3e
00000010: 966d 0abf bbc8 ad3d 1e57 64be 80bd 24bd
00000020: 22a8 c13d 13ab 9dbe 01ae 11be 1705 53bd
00000030: e90e da3d 9173 80be 6c80 f3be 2990 86be
00000040: af22 593e 95af 893d 8500 c63c 9c25 77be
00000050: e56b bbbd e773 3e3d 4184 b1be 8475 1c3e
00000060: 16a1 e9be 95b6 ab3e e478 2fbe a5b3 ca3e
00000070: d71d 1cbe b485 55bf e95b 673e 2acf bc3e
00000080: dc89 113e 5a0b 28bf b842 75be 058a debe
00000090: 6eb8 263e 3a91 583e ac67 b43e 095d e23b
000000a0: 1ca5 983e 996a cdbe d09a 1bbe f1a0 773e
000000b0: 2c9b b2bd 3b88 19bf 35a0 76be 817c a8bd
000000c0: af11 583e 318e a8be 44e1 b5be 4455 5e3e
000000d0: bf44 1e3e c90b ad3b 2ead e13d 3fc7 2b3e
000000e0: 6f5f d83d de27 fcbe deda adbe de22 903e
000000f0: af15 2f3d 75be babc 921f 653e 3b7a 0b3f
00000100: 76a3 1cbe b2fb cbbd c3f2 cbbe df4c 2a3e
00000110: c76a b53e 83c1 623e 526f 8a3e cd3a b63c
00000120: 3d70 4ebd d17e 77be b437 9ebe 9b47 1b3f
00000130: 9127 ccbe 60f9 abbe 04ec 223e dc43 ddbe
00000140: 1b09 943e 969c 51be e5a8 46be 6857 253e
00000150: 56db be3d 347b 0fbe 9489 a73e 3571 adbe
00000160: c923 d3be 770d 07be 088d a7be 5e05 a53d
00000170: 75bd 9b3e c45d f8be 67b0 12bf 7b93 083f
00000180: ebd1 32be a339 17bf 149a 293e fdf9 663c

output_layer.bias f4 [2]
-0.14362696 -0.31543633
00000000: f212 13be df80 a1be

exp_avg f4 [50, 2]
0.19584078 1.2988697 0.29845664 -0.5000211 -0.20658307 -0.69770277 1.0009258 -0.7646113
-0.3041268 0.9198176 -1.0360292 -0.819924 -0.5815077 -0.46119234 0.34600088 0.7512919
2.070069 1.019079 -0.2861955 0.6030828 0.84209573 -0.6809206 0.17111884 -0.81011707
0.65737957 0.11573552 -0.31339285 -0.40074778 -0.43758163 0.06081467 -0.85396534 -0.33548298
-0.14016238 -0.37693602 -0.2891786 0.42990124 -0.17211112 0.09970159 -0.37357324 -2.1466982
1.8941079 0.9571701 0.3836424 0.22199853 -0.27319354 -0.3359387 0.8530856 -0.9718947
-0.3600761 1.2279856 -0.32513383 -0.14791486 0.18449934 0.3240001 -0.32075 0.79651827
-0.47118586 0.30160475 -0.49841705 -1.5172998 -0.7097922 0.9094236 0.17655538 1.0498235
0.015163373 0.95427823 -0.40385267 -0.5394503 1.5053264 0.34133863 0.7254696 -0.44843414
-0.34637734 0.8590689 -0.23195164 -0.46102664 -0.89169455 -1.8469889 -0.5011993 -0.8153919
-1.2673508 -0.64349544 -0.65228397 0.13126293 -1.0087773 0.46390972 0.8959612 1.2007183
0.17279358 -0.2502812 -0.18509422 -0.223492 0.35832268 -0.6935599 0.34958717 0.94505566
-0.09578489 0.30389902 0.4409204 0.6031718
00000000: 7c8a 483e 5d41 a63f 4fcf 983e 6201 00bf
00000010: 838a 53be a69c 32bf 561e 803f 91bd 43bf
00000020: 82b6 9bbe 2b79 6b3f 9b9c 84bf 8ae6 51bf
00000030: b0dd 14bf 6721 ecbe 0727 b13e aa54 403f
00000040: 037c 0440 2e71 823f 3788 92be a263 1a3f
00000050: 9693 573f d050 2ebf c739 2f3e d563 4fbf
00000060: 074a 283f bf06 ed3d 0775 a0be d02e cdbe
00000070: b30a e0be ce18 793d 799d 5abf 6dc4 abbe
00000080: ba86 0fbe c2fd c0be 380f 94be 041c dc3e
00000090: e63d 30be 5930 cc3d fe44 bfbe 8163 09c0
000000a0: 2172 f23f 1a09 753f c76c c43e 9553 633e
000000b0: 06e0 8bbe 2800 acbe d163 5a3f 17ce 78bf
000000c0: e55b b8be a22e 9d3f f177 a6be fe76 17be
000000d0: 65ed 3c3e 57e3 a53e 5839 a4be 9fe8 4b3f
000000e0: 463f f1be f06b 9a3e 8530 ffbe e136 c2bf
000000f0: f1b4 35bf fccf 683f efca 343e 9e60 863f
00000100: cc6f 783c 944b 743f c7c5 cebe 6a19 0abf
00000110: 89ae c03f f0c3 ae3e 60b8 393f 2999 e5be
00000120: 5f58 b1be f0eb 5b3f bb84 6dbe af0b ecbe
00000130: 1846 64bf 226a ecbf 994e 00bf 86bd 50bf
00000140: 8d38 a2bf 1ebc 24bf 15fc 26bf ca69 063e
00000150: 9d1f 81bf 9385 ed3e b75d 653f 23b1 993f
00000160: cdf0 303e dc24 80be 5789 3dbe 16db 64be
00000170: 1276 b73e 248d 31bf 17fd b23e 2bef 713f
00000180: de2a c4bd a798 9b3e 52c0 e13e 7869 1a3f

exp_avg_sq f4 [50, 2]
5.469084 1.6245261 22.341547 2.0880513 3.8176072 4.880202 6.3887568 4.411085
5.522539 4.65056 18.989573 4.8999662 2.911678 5.838816 3.5603616 4.844147
3.5474637 8.014667 6.722552 2.9167004 4.778719 2.805058 3.8001964 7.725454
8.223532 3.1339293 11.242913 2.6792715 1.3096286 3.0303087 9.578469 3.5742662
3.2843344 1.7858255 3.6431615 2.99907 2.9636152 1.5738022 2.1179414 1.1933047
5.4879627 7.216312 14.757117 10.00819 11.654073 4.1237726 3.1734676 1.1892635
5.2111907 1.3788005 5.954628 4.441245 1.1672562 1.4913636 9.733965 4.201503
11.629085 4.209695 2.6968403 1.6027608 5.6704993 8.037719 4.811491 3.8592513
3.7541668 2.0570107 12.63676 4.556236 8.325598 5.376473 8.136146 1.6470838
20.942535 5.337286 7.655866 5.952834 4.8409657 1.1880274 6.9695277 5.582346
11.012119 26.865189 8.436649 3.7665339 16.74769 17.390858 16.847914 10.9483595
2.021035 1.2851504 9.429944 3.5885873 8.646509 1.1852703 1.9733765 3.0401425
2.479251 1.8545846 5.446955 3.5590675
00000000: bc02 af40 79f0 cf3f 7dbb b241 a2a2 0540
00000010: ad53 7440 9d2a 9c40 b270 cc40 9c27 8d40
00000020: a4b8 b040 63d1 9440 a5ea 9741 86cc 9c40
00000030: ef58 3a40 95d7 ba40 f7dc 6340 4103 9b40
00000040: a509 6340 133c 0041 251f d740 38ab 3a40
00000050: 44eb 9840 1286 3340 6b36 7340 eb36 f740
00000060: 9693 0341 4c92 4840 f9e2 3341 2f79 2b40
00000070: e9a1 a73f 94f0 4140 6941 1941 c7c0 6440
00000080: 8932 5240 ee95 e43f 8f29 6940 c3f0 3f40
00000090: dfab 3d40 5a72 c93f 5a8c 0740 35be 983f
000000a0: 649d af40 07ec e640 271d 6c41 8c21 2041
000000b0: 1577 3a41 f2f5 8340 181a 4b40 c939 983f
000000c0: 13c2 a640 897c b03f 508c be40 ae1e 8e40
000000d0: a768 953f 01e5 be3f 52be 1b41 b672 8640
000000e0: bb10 3a41 d2b5 8640 0899 2c40 4427 cd3f
000000f0: bb74 b540 7f9a 0041 bcf7 9940 f9fd 7640
00000100: 4544 7040 10a6 0340 2b30 4a41 afcc 9140
00000110: a635 0541 110c ac40 a72d 0241 a4d3 d23f
00000120: 508a a741 0ccb aa40 dbfc f440 9e7d be40
00000130: 31e9 9a40 4811 983f 5f06 df40 94a2 b240
00000140: a431 3041 e8eb d641 84fc 0641 e40e 7140
00000150: 45fb 8541 7a20 8b41 87c8 8641 7b2c 2f41
00000160: a358 0140 cf7f a43f 0de1 1641 6aab 6540
00000170: 1a58 0a41 f0b6 973f 9a97 fc3f b291 4240
00000180: 0cac 1e40 0763 ed3f 754d ae40 c3c7 6340

exp_avg f4 [50]
-7.1725264 0.15248491 -5.5350766 2.4430988 -0.88894016 1.0285159 1.4881635 0.01842901
-12.914891 7.3566513 -2.3592288 -1.5446172 5.1507916 -0.29523677 -5.4893107 5.7076526
-3.369595 -2.361917 -3.199599 11.994716 9.383425 -5.7068405 1.4959848 1.721494
-3.9845502 1.4118034 1.7249042 2.2938988 -0.7753323 -9.152472 0.5785496 0.019744985
0.8640749 1.3268824 -15.321907 6.6635485 4.96886 -3.8694642 5.6900954 3.0885284
-13.936953 -0.050557524 8.62794 -8.188152 -0.117611445 2.3839293 4.1114335 14.359583
-2.4511876 2.630787
00000000: 5685 e5c0 0125 1c3e 591f b1c0 bb5b 1c40
00000010: 9591 63bf 69a6 833f 247c be3f 6ff8 963c
00000020: 65a3 4ec1 b069 eb40 9bfd 16c0 04b6 c5bf
00000030: 49d3 a440 4629 97be 6fa8 afc0 17a5 b640
00000040: 72a7 57c0 a629 17c0 3bc6 4cc0 5bea 3f41
00000050: 8222 1641 709e b6c0 6e7c bf3f ea59 dc3f
00000060: df02 7fc0 f9b5 b43f a9c9 dc3f 3dcf 1240
00000070: 2d7c 46bf 8670 12c1 d41b 143f 3cc0 a13c
00000080: 0334 5d3f 48d7 a93f 8826 75c1 ca3b d540
00000090: e700 9f40 4da5 77c0 4315 b640 73aa 4540
000000a0: c2fd 5ec1 6815 4fbd 0b0c 0a41 ac02 03c1
000000b0: 45de f0bd 4c92 1840 dd90 8340 dac0 6541
000000c0: 42e0 1cc0 d05e 2840

exp_avg_sq f4 [50]
50.012753 53.70375 94.95817 46.030212 52.645508 91.81837 26.614876 90.17991
126.466835 68.54855 100.539505 36.58028 72.277596 46.704456 29.502987 49.709225
52.859673 62.179363 45.965286 16.34691 34.09595 126.45272 52.872337 26.285942
40.400272 107.828835 16.063475 93.01836 79.46297 17.783417 111.45686 68.979095
57.166916 74.87358 48.746075 47.414658 36.70457 115.860306 39.113956 88.24805
151.88228 87.01695 137.35345 115.34687 20.449154 54.15982 26.118877 44.78144
40.14087 92.80844
00000000: 0f0d 4842 a4d0 5642 95ea bd42 f01e 3842
00000010: 0095 5242 01a3 b742 44eb d441 1d5c b442
00000020: 05ef fc42 dc18 8942 3a14 c942 3552 1242
00000030: 218e 9042 5dd1 3a42 1e06 ec41 3fd6 4642
00000040: 4e70 5342 abb7 7842 74dc 3742 79c6 8241
00000050: 4162 0842 cbe7 fc42 467d 5342 9c49 d241
00000060: e199 2142 5da8 d742 ff81 8041 6609 ba42
00000070: 0aed 9e42 7044 8e41 eae9 de42 4cf5 8942
00000080: ecaa 6442 46bf 9542 fbfb 4242 9ca8 3d42
00000090: 7bd1 1242 7ab8 e742 b174 1c42 007f b042
000000a0: dde1 1743 ae08 ae42 7c5a 0943 99b1 e642
000000b0: de97 a341 a8a3 5842 76f3 d041 3220 3342
000000c0: 4090 2042 ec9d b942

exp_avg f4 [50]
-0.01801233 0.004770766 0.0455782 -0.26518795 0.05493114 -0.108499944 0.08558815 -0.11479247
-0.24217509 -0.05256357 -0.19560522 -0.17038682 -0.21849509 -0.10062774 -0.12616308 -0.20897491
-0.012592542 0.06549108 -0.036691982 0.042450108 0.22311962 -0.07421291 0.026879871 0.099358566
0.2020862 -0.21631785 -0.021252764 0.034111105 -0.14019379 0.078836426 0.16116858 -0.10003926
0.11113128 -0.2202624 -0.6383971 -0.28410906 -0.1496911 0.06186246 0.33848533 0.07013598
-0.21359849 -0.025811305 -0.16079445 -0.08056817 0.029843012 -0.026605733 0.05588958 -0.374077
-0.022067104 -0.101272546
00000000: 988e 93bc 1654 9c3b 35b0 3a3d b7c6 87be
00000010: 7aff 603d 3835 debd d748 af3d 5118 ebbd
00000020: bffc 77be e64c 57bd bc4c 48be e279 2ebe
00000030: 2dbd 5fbe eb15 cebd e530 01be 85fd 55be
00000040: f350 4ebc 3020 863d 554a 16bd 2ae0 2d3d
00000050: 7879 643e f0fc 97bd 2d33 dc3c 817c cb3d
00000060: afef 4e3e 6d82 5dbe 471a aebc 16b8 0b3d
00000070: f68e 0fbe fe74 a13d 6009 253e 62e1 ccbd
00000080: cc98 e33d 778c 61be fe6d 23bf be76 91be
00000090: a048 19be 7e63 7d3d f34d ad3e 74a3 8f3d
000000a0: 90b9 5abe 3b72 d3bc 4da7 24be ed00 a5bd
000000b0: 5579 f43c 44f4 d9bc 79ec 643d 0587 bfbe
000000c0: 12c6 b4bc fb67 cfbd

exp_avg_sq f4 [50]
0.06930846 0.07818316 0.10881402 0.3532655 0.32940796 0.671861 0.078607984 0.10128591
0.06493951 0.14461139 0.2190706 0.174346 0.1146372 0.1262049 0.04623414 0.19645476
0.06849354 0.09088604 0.046957362 0.056085944 0.044809524 0.16172004 0.22141965 0.061763603
0.1240056 0.4662632 0.038804054 0.19390057 0.63881147 0.05180265 0.259993 0.116515964
0.16426395 0.32433167 0.29645905 0.057441395 0.17323688 0.12584917 0.05276239 0.08720889
0.21172741 0.035516508 0.09047158 0.14864835 0.06822304 0.05800993 0.16605474 0.29662448
0.031288363 0.18909761
00000000: 98f1 8d3d 7e1e a03d e3d9 de3d 37df b43e
00000010: 29a8 a83e 15ff 2b3f 39fd a03d fd6e cf3d
00000020: 01ff 843d 0215 143e 0b54 603e c287 323e
00000030: e9c6 ea3d db3b 013e 0260 3d3d 702b 493e
00000040: 5746 8c3d 7622 ba3d 5d56 403d 60ba 653d
00000050: 318a 373d f099 253e d5bb 623e d5fb 7c3d
00000060: a6f6 fd3d 0dba ee3e 00f1 1e3d df8d 463e
00000070: 2689 233f 042f 543d cd1d 853e ec9f ee3d
00000080: cf34 283e cd0e a63e 7bc9 973e ab47 6b3d
00000090: 0265 313e 9bde 003e 601d 583d 939a b23d
000000a0: 12cf 583e c279 113d 2a49 b93d 4637 183e
000000b0: 85b8 8b3d d29b 6d3d 410a 2a3e 2adf 973e
000000c0: 3a28 003d cea2 413e

exp_avg f4 [50]
0.091420956 0.3541016 -0.47021905 -0.043778196 0.15593411 0.051597886 0.04500536 -0.040413935
0.27848336 0.085070804 0.11237342 -0.0278604 0.120516405 -0.023320975 -0.17233521 0.04820918
-0.19318253 -0.077684164 -0.012501956 -0.055674102 0.3629879 -0.10047787 -0.10736088 0.09026004
-0.24320218 -0.40382028 0.12732841 -0.080660656 0.034576587 0.10274236 -0.17610347 0.36181554
-0.068625055 0.06969288 -0.100210816 0.29800713 0.17288753 0.14623882 -0.25702384 0.19619681
-0.4885746 -0.20832352 -0.055788126 0.09094315 -0.04999218 -0.012793616 0.04108587 0.3258771
0.14251795 -0.03797336
00000000: e93a bb3d ce4c b53e 8dc0 f0be c450 33bd
00000010: 31ad 1f3e 4e58 533d 8a57 383d 1589 25bd
00000020: 5f95 8e3e 9a39 ae3d 0924 e63d 7e3b e4bc
00000030: 4ed1 f63d a10b bfbc a478 30be fd76 453d
00000040: a4d1 45be e018 9fbd 01d5 4cbc 870a 64bd
00000050: 8dd9 b93e 57c7 cdbd 05e0 dbbd 41da b83d
00000060: fe09 79be 88c1 cebe 6162 023e 6a31 a5bd
00000070: 2ea0 0d3d 966a d23d 7854 34be e33f b93e
00000080: 4b8b 8cbd 24bb 8e3d 543b cdbd 6494 983e
00000090: 6e09 313e a1bf 153e a198 83be d1e7 483e
000000a0: 7326 fabe c352 55be 1782 64bd 6740 ba3d
000000b0: 9ac4 4cbd 519c 51bc a849 283d 5dd9 a63e
000000c0: 3af0 113e f489 1bbd

exp_avg_sq f4 [50]
0.3993482 0.36439136 0.9338236 0.47375253 0.5095037 4.335657 0.1909381 0.8953852
1.2675565 0.68836004 1.0761418 2.6570208 1.8442957 2.3039904 0.3407592 0.5773474
0.6195372 2.1414702 0.576698 0.3360766 0.3583731 1.0466591 2.5029643 0.18233745
0.7797449 1.1410741 0.15767704 0.8922801 3.6436167 0.16909248 1.6428655 1.6543009
0.72998595 2.7437398 1.9460195 1.3267899 0.73288375 0.75878596 0.27856743 0.89699376
1.0872433 1.8666157 1.4375435 1.0064062 0.7049761 1.0169017 0.7117049 0.67003036
0.76021 1.5787679
00000000: 5e77 cc3e 8191 ba3e 100f 6f3f b18f f23e
00000010: d66e 023f b4bd 8a40 4785 433e f737 653f
00000020: 4b3f a23f 5d38 303f 04bf 893f a10c 2a40
00000030: e211 ec3f 9474 1340 fd77 ae3e 0acd 133f
00000040: fd99 1e3f d90d 0940 7ba2 133f 3b12 ac3e
00000050: ae7c b73e edf8 853f 9130 2040 abb6 3a3e
00000060: 5d9d 473f b70e 923f 1776 213e 786c 643f
00000070: 0431 6940 9426 2d3e 6b49 d23f 22c0 d33f
00000080: 5ce0 3a3f 6f99 2f40 2b17 f93f 40d4 a93f
00000090: 459e 3b3f cc3f 423f 64a0 8e3e 62a1 653f
000000a0: ca2a 8b3f 43ed ee3f 6d01 b83f ebd1 803f
000000b0: 5079 343f d629 823f 4b32 363f 1c87 2b3f
000000c0: 1f9d 423f 1115 ca3f

exp_avg f4 [50, 50]
0.075301215 0.07547148 -0.05325443 -0.19090433 0.03283978 -0.13358088 0.009021842 0.1632243
0.12468498 -0.069865495 -0.013237601 0.111205906 -0.22374444 -0.15837061 0.039317496 -0.07000306
-0.049086124 0.14958179 0.17623006 0.007376331 -0.06020739 0.028823152 0.15154956 0.06782164
-0.022661699 -0.07232938 -0.077104166 -0.011360295 -0.01573426 0.15688369 0.06772041 -0.15086624
-0.020999914 0.10837471 0.08588504 -0.16684121 0.034599874 -0.001814069 0.059698783 -0.08542046
0.18491395 -0.11347505 -0.019199593 0.110490434 0.1896972 0.04841455 0.025991138 -0.026131062
-0.06360774 0.077191174 -0.094578825 0.059420705 0.22477606 -0.014976817 -0.22000138 -0.17768502
-0.02095299 0.26120958 -0.17333186 0.011230703 0.1467285 -0.17583385 -0.058537472 -0.070585504
0.04037849 0.2464619 0.11465401 0.07995369 0.09472525 0.21036267 -0.10281636 -0.012034823
0.19140364 -0.056195777 0.06680504 0.039230444 -0.12377908 -0.1203831 0.16206396 -0.15966868
0.023790674 0.34943303 0.0005137066 0.015760487 -0.28506282 -0.012736149 -0.13895348 0.02898936
-0.014125998 0.01745863 -0.22877909 -0.049893696 0.09603775 -0.111992635 0.12939739 -0.027080089
-0.056530256 -0.005194394 -0.041137923 -0.1853898 -0.010018215 -0.07815413 -0.25946197 0.06936268
0.4957935 0.22236505 -0.051494427 -0.12032668 -0.038663287 0.12622537 -0.21163712 -0.06180228
0.058875557 0.2366232 -0.06468432 -0.029017858 -0.15383296 -0.13081776 -0.19764227 -0.05482984
0.15642221 -0.0980512 -0.18497565 -0.2061078 0.048083946 0.03130226 0.15805203 0.3191231
-0.2129426 -0.1361647 0.021647183 -0.08069877 0.11456533 0.12753984 0.12387685 0.012160686
0.14728479 -0.090180285 -0.15309113 0.093691364 -0.044701066 0.088835195 -0.015584133 -0.039887298
-0.2496125 -0.13928032 -0.07023506 0.17032851 0.07626487 0.14010619 0.096409604 -0.027915698
-0.05810756 0.016025977 0.14477234 0.10188292 0.033188436 -0.113955155 0.049182694 0.019826382
-0.020360108 0.13338013 0.035098743 0.036547758 -0.02197416 -0.14938635 -0.0951817 -0.02149609
-0.05944493 -0.16864008 -0.020228144 -0.020062316 -0.10218986 -0.0825101 0.0684618 0.007438353
0.079358555 0.089042336 -0.05006173 -0.034499723 -0.0024806787 -0.17363662 0.04733024 0.069634035
0.12046313 0.0047778417 0.028988605 -0.09200441 -0.122339845 -0.009804169 0.076535545 0.009520555
-0.05259989 0.07116613 -0.06980382 -0.075351775 -0.08936771 -0.01702327 0.025102913 0.117526755
0.024263985 0.15863949 0.193769 0.07190588 -0.15441127 -0.048022747 0.11107227 0.016112488
-0.037044056 -0.045386776 0.17699042 0.16115512 0.047810216 -0.074797764 -0.0340481 -0.0925678
-0.044119067 0.04948565 0.032508288 -0.0025672468 -0.2160303 0.050852507 0.022020344 0.080762684
-0.027641999 -0.116590455 -0.0056063994 -0.136281 -0.04673236 0.049982194 0.008838117 -0.1302647
-0.017954865 0.07702366 -0.0153268045 0.109355375 -0.17155577 -0.023073612 0.028460044 0.10707093
0.13241506 -0.039357934 -0.007041366 0.026433554 0.055030394 0.017674187 0.01665672 -0.05481007
-0.03225894 0.06458439 -0.03697388 0.017867366 0.06505881 0.06768705 -0.07747672 -0.08611098
00000000: 8637 9a3d cb90 9a3d 5121 5abd 6d7c 43be
00000010: 0183 063d 6dc9 08be 59d0 133c 4524 273e
00000020: d75a ff3d a415 8fbd 86e2 58bc ecbf e33d
00000030: 431d 65be e82b 22be 620b 213d c45d 8fbd
00000040: 880e 49bd f82b 193e a775 343e 26b5 f13b
00000050: 069c 76bd 881e ec3c cf2f 1b3e 12e6 8a3d
00000060: 07a5 b9bc 6d21 94bd cae8 9dbd 8820 3abc
00000070: 23e5 80bc 1ea6 203e 00b1 8a3d ae7c 1abe
00000080: 0308 acbc 8ff3 dd3d 7fe4 af3d 6cd8 2abe
00000090: 99b8 0d3d 0ec6 edba b686 743d ecf0 aebd
000000a0: 155a 3d3e 9b65 e8bd 7748 9dbc cf48 e23d
000000b0: fc3f 423e 564e 463d 5eeb d43c cf10 d6bc
000000c0: c644 82bd 6816 9e3d 8bb2 c1bd 2063 733d
000000d0: b22b 663e 5361 75bc 0b48 61be 10f3 35be
000000e0: 9ba5 abbc 43bd 853e e87d 31be fc00 383c
000000f0: ff3f 163e ca0d 34be fdc4 6fbd 228f 90bd
00000100: ea63 253d 8260 7c3e b9cf ea3d c3be a33d
00000110: 50ff c13d 5069 573e 6291 d2bd b52d 45bc
00000120: 51ff 433e 8b2d 66bd 15d1 883d 1ab0 203d
00000130: e37f fdbd 6a8b f6bd 18f4 253e 3080 23be
00000140: a9e4 c23c e3e8 b23e 44aa 063a 231c 813c
00000150: c1f3 91be 48ab 50bc d249 0ebe 187b ed3c
00000160: bb70 67bc 6705 8f3c 1145 6abe 555d 4cbd
00000170: 71af c43d 655c e5bd c080 043e 10d7 ddbc
00000180: 458c 67bd bc35 aabb 3d80 28bd d3d6 3dbe
00000190: 7023 24bc 460f a0bd 33d8 84be 050e 8e3d
000001a0: a5d8 fd3e aab3 633e d2eb 52bd d66d f6bd
000001b0: 655d 1ebd 3941 013e 67b7 58be 6324 7dbd
000001c0: 7f27 713d 5a4d 723e 3679 84bd dcb6 edbc
000001d0: 6386 1dbe 17f5 05be bc62 4abe 4195 60bd
000001e0: 252d 203e 11cf c8bd 426a 3dbe ec0d 53be
000001f0: acf3 443d cc36 003d 64d8 213e 1a64 a33e
00000200: a00d 5abe c26e 0bbe 6f55 b13c 6645 a5bd
00000210: 3aa1 ea3d ce99 023e 25b3 fd3d 9d3d 473c
00000220: d3d1 163e 71b0 b8bd ecc3 1cbe 42e1 bf3d
00000230: 7718 37bd 3aef b53d 9754 7fbc dd60 23bd
00000240: 6b9a 7fbe 809f 0ebe 66d7 8fbd 996a 2e3e
00000250: c230 9c3d ff77 0f3e 6672 c53d 76af e4bc
00000260: 3102 6ebd e948 833c 333f 143e fea7 d03d
00000270: 99f0 073d 5261 e9bd cb73 493d f06a a23c
00000280: 3eca a6bc cd94 083e b3c3 0f3d 1ab3 153d
00000290: 2703 b4bc bcf8 18be a0ee c2bd 9118 b0bc
000002a0: 877c 73bd fcaf 2cbe 7eb5 a5bc ba59 a4bc
000002b0: eb48 d1bd 0efb a8bd b335 8c3d 6dbd f33b
000002c0: bd86 a23d d45b b63d 870d 4dbd 954f 0dbd
000002d0: e292 22bb cccd 31be 5bdd 413d 4a9c 8e3d
000002e0: 60b5 f63d 718f 9c3b 8379 ed3c cf6c bcbd
000002f0: 508d fabd aaa1 20bc abbe 9c3d 1afc 1b3c
00000300: fb72 57bd 8cbf 913d 4ef5 8ebd 0852 9abd
00000310: 6b06 b7bd 6274 8bbc a0a4 cd3c deb1 f03d
00000320: 44c5 c63c 6472 223e 616b 463e 6443 933d
00000330: fd1d 1ebe 80b3 44bd dc79 e33d 56fe 833c
00000340: 82bb 17bd 7ce7 39bd fa3c 353e d905 253e
00000350: a5d4 433d 922f 99bd 0576 0bbd 3094 bdbd
00000360: 32b6 34bd 77b1 4a3d 6927 053d 413f 28bb
00000370: 0c37 5dbe b84a 503d 0264 b43c e866 a53d
00000380: 7971 e2bc fac6 eebd e3b5 b7bb 3f8d 0bbe
00000390: 6e6a 3fbd 21ba 4c3d c0cd 103c 1c64 05be
000003a0: 1516 93bc 95be 9d3d 471d 7bbc b6f5 df3d
000003b0: 51ac 2fbe df04 bdbc 0a25 e93c 0148 db3d
000003c0: d097 073e c935 21bd 42bb e6bb 2e8b d83c
000003d0: 8d67 613d 75c9 903c ac73 883c 8680 60bd
000003e0: f321 04bd d244 843d ec71 17bd 955e 923c
000003f0: 8e3d 853d 829f 8a3d 1dac 9ebd f45a b0bd
