weights/checkpoint/example0005_warm_adam.pth (torch, 79323 bytes, 35 tensors)

a f4 [4]
0.2 0.2 0.2 0.2
00000000: cdcc 4c3e cdcc 4c3e cdcc 4c3e cdcc 4c3e

input_layer.weight f4 [50, 2]
0.013508379 0.19387949 -0.16732325 -0.22576219 -0.2836244 -0.31602833 -0.17465107 0.032605376
0.20748995 0.3732507 -0.0030579504 0.18400544 -0.1162123 -0.0041018496 0.20778984 -0.19624244
0.08592166 0.101646535 0.0360748 0.116446175 -0.20441358 -0.17003068 -0.38504258 -0.055467956
-0.1800279 0.09035593 0.1951467 0.073825374 0.12245436 -0.0103667565 0.25422022 -0.17993835
0.2937137 -0.34779823 -0.03770019 0.1155347 0.06805292 -0.0441382 0.08400351 -0.3126981
0.24432142 0.09780096 -0.00042714726 -0.09833007 0.14267547 -0.17680684 -0.06813101 -0.30195585
0.04089889 0.437985 0.21261838 0.2910069 -0.06860657 0.18302535 0.18851666 0.28707656
0.21999139 0.2882905 0.0041549117 -0.25904706 -0.030016074 0.13426839 0.50798965 -0.04933301
-0.008722908 0.19086835 -0.21736503 0.31883356 0.07483792 0.11989083 -0.2226225 0.025090588
0.41968715 0.42712682 0.14762239 -0.23722096 0.030753583 -0.32422066 -0.19766411 -0.098769434
-0.10612811 -0.00784012 0.068495475 -0.04042778 0.0132917045 -0.010269747 0.016653566 0.118941024
0.039462123 -0.09576627 0.11252827 -0.32018417 0.023778917 -0.34201422 -0.023173863 0.3439252
0.06796801 0.019295659 -0.28517094 0.36975884
00000000: 4052 5d3c 5888 463e c956 2bbe 342e 67be
00000010: 3837 91be 77ce a1be bbd7 32be 378d 053d
00000020: 3f78 543e b71a bf3e e567 48bb ec6b 3c3e
00000030: b700 eebd cf68 86bb dcc6 543e c7f3 48be
00000040: b2f7 af3d 0f2c d03d 2bc3 133d 557b ee3d
00000050: cb51 51be 861c 2ebe 4d24 c5be 5e32 63bd
00000060: 3c59 38be 880c b93d 89d4 473e c231 973d
00000070: 5ac9 fa3d 54d9 29bc 2729 823e c241 38be
00000080: a461 963e 9c12 b2be 846b 1abd 759d ec3d
00000090: 545f 8b3d 42ca 34bd 080a ac3d f719 a0be
000000a0: 652f 7a3e df4b c83d bcf2 dfb9 4761 c9bd
000000b0: 8519 123e da0c 35be 4588 8bbd f599 9abe
000000c0: 9885 273d 923f e03e a2b8 593e dbfe 943e
000000d0: 9a81 8cbd ff6a 3b3e 830a 413e b3fb 923e
000000e0: 6c45 613e d09a 933e ed25 883b d1a1 84be
000000f0: 45e4 f5bc a77d 093e 9c0b 023f 6911 4abd
00000100: 87ea 0ebc fe72 433e f094 5ebe 273e a33e
00000110: a044 993d 5389 f53d 27f7 63be c78a cd3c
00000120: 3ce1 d63e 5eb0 da3e 532a 173e 0dea 72be
00000130: f0ee fb3c 4000 a6be 7668 4abe a147 cabd
00000140: b259 d9bd d973 00bc 5b47 8c3d 9a97 25bd
00000150: 73c5 593c 7142 28bc 0f6d 883c 5a97 f33d
00000160: 09a3 213d 1b21 c4bd 3975 e63d 2eef a3be
00000170: 01cc c23c 7d1c afbe 1dd7 bdbc f716 b03e
00000180: d032 8b3d ee11 9e3c ed01 92be 0851 bd3e

input_layer.bias f4 [50]
0.023258656 0.013460467 2.8651973e-06 -0.014895105 -0.00045676454 0.016618008 -0.006084252 -0.005964224
0.03081244 -0.011054867 0.004159284 -0.0005975686 -0.00890398 0.0055624093 0.008513681 -0.013542645
0.0004991002 -0.0061735734 0.004538497 -0.034581233 -0.024619233 0.005463912 0.007234721 0.0027569362
0.0051998566 -0.011750727 -0.007406575 -0.0029857864 -0.005994227 0.025512874 -0.011652632 0.00032707854
-0.006350999 -0.007002963 0.03350628 -0.007535411 0.008045041 -0.00814465 -0.015482334 -0.020792278
0.02810375 -4.0203413e-05 -0.017702699 0.020728761 0.004484612 0.0015757259 -0.01370631 -0.033036865
0.004572576 0.0040950757
00000000: f088 be3c 4a89 5c3c b747 4036 990a 74bc
00000010: e679 efb9 7d22 883c 685e c7bb 8a6f c3bb
00000020: 5f6a fc3c 791f 35bc 9a4a 883b 26a6 1cba
00000030: 00e2 11bc df44 b63b f77c 0b3c f8e1 5dbc
00000040: 0cd6 023a b04b cabb acb7 943b 0da5 0dbd
00000050: 46ae c9bc 9e0a b33b 3d11 ed3b b7ad 343b
00000060: 8f63 aa3b 1f86 40bc dbb2 f2bb 2fad 43bb
00000070: 386b c4bb 6000 d13c aeea 3ebc bd7b ab39
00000080: 0b1c d0bb 1d79 e5bb e23d 093d 9ceb f6bb
00000090: 59cf 033c 2371 05bc 9ea9 7dbc 9154 aabc
000000a0: d639 e63c 16a0 28b8 4005 91bc 5dcf a93c
000000b0: a7f3 923b 9688 ce3a 6e90 60bc aa51 07bd
000000c0: 8cd5 953b fc2f 863b

input_ln.weight f4 [50]
1.0837934 1.1653255 1.168247 1.0966809 0.9985249 0.9738976 1.0040958 0.98229885
1.0702621 0.93935454 0.8919739 1.0077742 1.0632753 1.0231133 0.9530261 1.0728147
0.99901277 0.7993883 1.014147 0.96683973 1.0455972 1.0881933 0.99776673 1.082135
1.1187081 0.9604133 0.8859053 0.91662085 0.9666215 1.0343459 0.92697275 0.91397405
1.0927849 0.99127805 0.93989897 1.181243 1.0305942 1.197275 1.1680769 1.1345906
1.1388874 1.069226 0.96241593 1.155141 0.8950908 1.0651537 0.9543064 0.96158457
0.9293999 1.1178821
00000000: beb9 8a3f 6329 953f 1e89 953f 0a60 8c3f
00000010: 549f 7f3f 5a51 793f 3686 803f f077 7b3f
00000020: 59fe 883f 8a79 703f 6758 643f bffe 803f
00000030: 6819 883f 60f5 823f 85f9 733f fe51 893f
00000040: 4dbf 7f3f b6a4 4c3f 92cf 813f cf82 773f
00000050: 21d6 853f eb49 8b3f a46d 7f3f 6683 8a3f
00000060: d431 8f3f a5dd 753f b1ca 623f aaa7 6a3f
00000070: 8274 773f 7265 843f 164e 6d3f 34fa 693f
00000080: 60e0 8b3f 66c4 7d3f 389d 703f f832 973f
00000090: 83ea 833f 4f40 993f 8b83 953f 443a 913f
000000a0: 10c7 913f 66dc 883f e460 763f a9db 933f
000000b0: ac24 653f f556 883f 6d4d 743f 682a 763f
000000c0: 27ed 6d3f c316 8f3f

input_ln.bias f4 [50]
0.13003914 -0.37548172 0.007337257 -0.79457563 -0.81055814 -1.1956025 0.03982847 0.74736327
0.077088475 0.026704561 0.035132576 0.8476515 -0.8703511 -1.4258763 -0.036515735 -0.13636076
-0.3462763 0.94078684 0.8405498 0.35269293 0.12261747 -0.15930057 0.6043786 0.027702568
0.70689964 0.465865 -0.20460963 -0.300166 1.1773058 -0.2340695 0.62191254 -0.59010094
0.22947118 0.7474487 -0.5973999 -0.63169736 0.17153282 -0.27554843 0.40085155 -0.43436885
0.17472415 -0.6694464 0.31981942 0.17856392 1.3343222 -0.23020396 -0.17539392 0.9665132
-0.4463883 0.362208
00000000: fb28 053e 243f c0be 5f6d f03b 4f69 4bbf
00000010: bd80 4fbf 8109 99bf 2e23 233d 3353 3f3f
00000020: 90e0 9d3d 86c3 da3c 2de7 0f3d b0ff 583f
00000030: 54cf 5ebf 1d83 b6bf 8691 15bd 28a2 0bbe
00000040: 214b b1be 68d7 703f 462e 573f 2b94 b43e
00000050: de1e fb3d b01f 23be 8eb8 1a3f 7ff0 e23c
00000060: 60f7 343f db85 ee3e 3085 51be 5caf 99be
00000070: f5b1 963f eaaf 6fbe a935 1f3f db10 17bf
00000080: 7efa 6a3e cc58 3f3f 33ef 18bf ebb6 21bf
00000090: 4da6 2f3e af14 8dbe 6a3c cd3e 9865 debe
000000a0: e3ea 323e d760 2bbf 5fbf a33e 76d9 363e
000000b0: 12cb aa3f 96ba 6bbe 779a 33be 696d 773f
000000c0: 028d e4be 5473 b93e

hidden_layers.0.weight f4 [50, 50]
-0.13723414 -0.15864928 -0.16985041 0.1548699 -0.12411555 -0.013146887 0.21152781 -0.15788513
-0.13567214 0.03654998 -0.020727338 -0.12304275 0.21993141 -0.041827228 0.14392115 -0.17047806
-0.11024324 0.11132533 -0.059507053 0.46039754 0.095975116 -0.035405688 -0.30198383 0.094384834
-0.0023887155 0.07937883 0.3121869 -0.05368628 -0.3029815 0.047966495 0.1520181 -0.008466183
-0.23816295 -0.031364173 -0.047940675 0.01276446 0.24367316 -0.11254889 0.024716442 -0.15459384
0.036742117 -0.08160777 0.048578285 0.22209829 0.09644362 0.16617936 0.13206823 0.068165146
0.30106825 -0.24348682 0.029544264 -0.025850097 -0.015265057 0.045057148 -0.06405733 0.17399175
0.06891432 -0.122044854 -0.048493974 0.022662701 -0.13451537 -0.15381686 0.228605 -0.045396917
0.08230626 -0.037480664 -0.18036827 -0.19687329 0.045904387 -0.0966638 -0.02175263 -0.13801424
-0.14685781 -0.06576275 0.03761235 -0.12729135 0.29769498 0.13571781 -0.06545993 -0.2900235
-0.02527416 0.18582666 0.35821435 0.13782635 0.1964197 0.36306414 0.18920416 0.2011965
0.008721773 0.01128054 0.1678213 -0.14299987 -0.124886125 0.12730244 0.039702684 0.043032337
-0.071579464 -0.06329812 0.02438943 0.013560604 -0.05367437 0.08073588 0.2612755 0.09215065
0.0041214717 0.09997936 0.16083144 0.2339851 -0.13342312 -0.03928109 0.12703626 -0.0077096904
0.24709323 -0.008547617 -0.01220566 0.13137026 0.07564022 0.3550069 0.046560783 -0.2503335
-0.11452265 -0.060846083 -0.14890541 -0.13820064 -0.0074164798 0.120229565 -0.1703001 -0.11367034
-0.056757335 -0.09809005 0.23687904 -0.00961287 -0.036288768 0.25764593 -0.02900943 0.046444055
-0.08535613 -0.15177742 0.3101585 -0.029820023 -0.11529968 0.059322137 -0.10625356 0.0016339337
-0.11972464 0.08131474 0.048410404 0.2079568 -0.22835653 -0.25308627 -0.10308037 0.12880059
-0.14477691 -0.13788684 -0.10553598 -0.096369706 0.11013901 -0.11898913 -0.0701185 0.022540554
-0.28313866 -0.124485634 -0.20588703 0.08466836 -0.037654694 0.18432194 -0.1547357 0.06568718
-0.10262762 -0.08400159 -0.078502685 -0.13440055 -0.020119408 -0.083079234 0.16523089 0.04555846
-0.0793353 -0.18160954 -0.079508804 -0.0019770814 -0.31162456 0.013315633 0.348835 -0.065600716
-0.18283185 0.080271736 -0.10138519 0.029022228 -0.31232083 0.044354796 -0.15628475 0.1398574
0.0487456 0.00875872 -0.0195695 -0.06702867 -0.0059806574 -0.00797655 0.13573915 -0.13289922
-0.01904288 -0.3386186 -0.11778275 0.0020835132 -0.06731906 -0.20582718 0.12327709 0.13419372
-0.27358606 -0.16837619 0.008008666 0.004185571 -0.09716256 0.24627572 -0.26865304 0.16895944
-0.16472182 -0.13545784 -0.03830416 -0.44660708 -0.08876952 0.09394741 -0.025109474 0.1912883
-0.004472621 -0.18313533 0.00029974224 0.090055324 -0.17480138 -0.011799489 0.237542 -0.062176738
-0.13065936 0.10238474 -0.05668806 -0.112096876 -0.04822335 0.01885315 0.12519488 0.15527394
-0.26149577 0.012606289 0.09257571 -0.12244535 -0.1481859 -0.09108806 0.024399336 -0.21817985
-0.12346225 -0.21297649 -0.11079478 -0.17963286 -0.27428466 0.09947109 -0.0959086 -0.14468397
00000000: 1b87 0cbe f574 22be 44ed 2dbe 3796 1e3e
00000010: 4b30 febd 0a66 57bc bf9a 583e a4ac 21be
00000020: a3ed 0abe 6fb5 153d 61cc a9bc d6fd fbbd
00000030: b335 613e 0753 2bbd 1160 133e cd91 2ebe
00000040: 35c7 e1bd 89fe e33d abbd 73bd 3ab9 eb3e
00000050: 9a8e c43d 8e05 11bd a09d 9abe d64c c13d
00000060: ff8b 1cbb 5e91 a23d f6d6 9f3e 25e6 5bbd
00000070: 6420 9bbe 8478 443d a2aa 1b3e bfb5 0abc
00000080: fde0 73be b877 00bd 715d 44bd 0722 513c
00000090: 7585 793e 0880 e6bd 237a ca3c d94d 1ebe
000000a0: e77e 163d f921 a7bd 06fa 463d bc6d 633e
000000b0: 3c84 c53d ec2a 2a3e e53c 073e 2b9a 8b3d
000000c0: 9e25 9a3e 9c54 79be d006 f23c 95c3 d3bc
000000d0: 4a1a 7abc d88d 383d 7d30 83bd e52a 323e
000000e0: f322 8d3d a7f2 f9bd 9ea1 46bd 21a7 b93c
000000f0: 66be 09be 2b82 1dbe 6e17 6a3e 1ef2 39bd
00000100: 2f90 a83d 5385 19bd 76b2 38be 2799 49be
00000110: 3d06 3c3d acf7 c5bd 9232 b2bc 9b53 0dbe
00000120: e561 16be 9fae 86bd 680f 1a3d aa58 02be
00000130: 7a6b 983e 9cf9 0a3e db0f 86bd f67d 94be
00000140: c10b cfbc 5849 3e3e df67 b73e 5a22 0d3e
00000150: 3f22 493e 8be3 b93e bcbe 413e 7506 4e3e
00000160: c4e5 0e3c 04d2 383c 59d9 2b3e 8f6e 12be
00000170: 4cc4 ffbd 925b 023e 489f 223d ad42 303d
00000180: 4198 92bd 72a2 81bd 58cc c73c 4c2d 5e3c
00000190: a8d9 5bbd da58 a53d e7c5 853e 7bb9 bc3d
000001a0: 690d 873b fbc1 cc3d ffb0 243e ca99 6f3e
000001b0: 12a0 08be 35e5 20bd cb15 023e 92a1 fcbb
000001c0: 0206 7d3e 4e0b 0cbc 40fa 47bc ed85 063e
000001d0: 42e9 9a3d 77c3 b53e 85b6 3e3d b62b 80be
000001e0: da8a eabd be39 79bd a97a 18be 7884 0dbe
000001f0: f105 f3bb eb3a f63d 2663 2ebe ffcb e8bd
00000200: 617a 68bd 70e3 c8bd 6b90 723e 4d7f 1dbc
00000210: 88a3 14bd 2bea 833e 2fa5 edbc 1f3c 3e3d
00000220: 32cf aebd 8a6b 1bbe 18cd 9e3e 1f49 f4bc
00000230: 3d22 ecbd c5fb 723d 779b d9bd b829 d63a
00000240: 3132 f5bd 5888 a63d fd49 463d a1f2 543e
00000250: 4bd6 69be 8694 81be cd1b d3bd 4de4 033e
00000260: 6640 14be 3532 0dbe 3f23 d8bd 7b5d c5bd
00000270: 9090 e13d 93b0 f3bd 4a9a 8fbd f8a6 b83c
00000280: 8df7 90be 53f2 febd 0dd4 52be 9b66 ad3d
00000290: cf3b 1abd e4be 3c3e 0973 1ebe 0087 863d
000002a0: 6e2e d2bd 0709 acbd 04c6 a0bd 4ca0 09be
000002b0: 75d1 a4bc 7225 aabd 4932 293e 829b 3a3d
000002c0: 8c7a a2bd daf7 39be 83d5 a2bd ec91 01bb
000002d0: 418d 9fbe d029 5a3c 809a b23e ab59 86bd
000002e0: 4638 3bbe 8265 a43d 0aa3 cfbd 06c0 ed3c
000002f0: 84e8 9fbe 60ad 353d 1c09 20be c736 0f3e
00000300: 77a9 473d bc80 0f3c 3750 a0bc 5446 89bd
00000310: 64f9 c3bb 13b0 02bc 34ff 0a3e bc16 08be
00000320: d0ff 9bbc 6b5f adbe 1538 f1bd 8d8b 083b
00000330: 93de 89bd 5cc4 52be b378 fc3d 146a 093e
00000340: 7913 8cbe cf6a 2cbe c836 033c 1d27 893b
00000350: 2afd c6bd b42f 7c3e e48c 89be b403 2d3e
00000360: d6ac 28be 76b5 0abe d3e4 1cbd afa9 e4be
00000370: cbcc b5bd 8067 c03d 62b2 cdbc 15e1 433e
00000380: 108f 92bb d487 3bbe b926 9d39 ed6e b83d
00000390: 22ff 32be a552 41bc 363e 733e 09ad 7ebd
000003a0: 91cb 05be 17af d13d bd31 68bd 0c93 e5bd
000003b0: d985 45bd ec71 9a3c 1633 003e 2200 1f3e
000003c0: c6e2 85be 9c8a 4e3c 5598 bd3d a1c4 fabd
000003d0: 0bbe 17be 608c babd 1ee1 c73c 8a6a 5fbe
000003e0: c7d9 fcbd 8216 5abe 60e8 e2bd adf1 37be
000003f0: 0a6f 8cbe 80b7 cb3d ba6b c4bd 0928 14be

hidden_layers.0.bias f4 [50]
-0.0017278601 -0.01876401 0.00036563937 -0.00052659557 0.0012154576 -0.010960795 -0.017508384 0.014260087
-0.0011894765 0.012909984 3.636972e-05 0.0046565314 -0.010774583 -0.008768815 0.0029497843 -0.012792749
-0.027835269 -0.002479101 -0.0026745566 0.0092574535 0.008442899 -0.002123955 -0.0017546699 0.000506503
0.0059788516 -0.0017043926 -0.008542516 -0.004493247 -0.0019051703 0.0039184215 0.023227444 0.0157383
-0.0066501154 0.0057110763 0.0045202845 0.0016865433 -0.006763643 0.002257319 -0.013666555 0.0014183914
0.0031402765 0.0014817149 -0.001742587 -0.0013599239 0.009687972 -0.0015935511 -0.004445593 -0.0154981185
-0.0014895169 0.0069834273
00000000: 5d79 e2ba fbb6 99bc 49b3 bf39 3b0b 0aba
00000010: fd4f 9f3a e894 33bc be6d 8fbc 24a3 693c
00000020: 35e8 9bba 6684 533c b18b 1838 d195 983b
00000030: e087 30bc 13ab 0fbc 2b51 413b ae98 51bc
00000040: ca06 e4bc 6a78 22bb 9d47 2fbb 93ac 173c
00000050: 1654 0a3c 0d32 0bbb f4fc e5ba d7c6 043a
00000060: 3eea c33b ed65 dfba e9f5 0bbc 163c 93bb
00000070: e8b6 f9ba 1a66 803b 7b47 be3c 9bed 803c
00000080: 36e9 d9bb fb23 bb3b e51e 943b 010f dd3a
00000090: 8da1 ddbb 87ef 133b b0e9 5fbc 51e9 b93a
000000a0: 19cd 4d3b 1a36 c23a 8467 e4ba 793f b2ba
000000b0: 4dba 1e3c b4de d0ba 56ac 91bb d2eb 7dbc
000000c0: e53b c3ba 3cd5 e43b

hidden_layers.1.weight f4 [50, 50]
0.14825569 -0.026576715 0.01708094 0.11150924 0.0284985 -0.21453595 -0.19739898 -0.20945367
-0.00015086561 0.1284297 0.103883095 -0.26467916 -0.061386306 0.31026578 0.15209939 -0.102835685
-0.097242795 -0.13992123 -0.07583518 0.01301689 -0.054723263 0.03152034 -0.13456552 0.3268471
-0.19992523 -0.35342264 0.36746663 0.41446012 0.0046165967 -0.14382136 -0.056459904 0.13705942
-0.01956792 -0.025624199 0.043095578 0.2832209 -0.116983876 0.1583504 0.09174602 -0.2704568
-0.03513601 -0.09255949 0.045565322 -0.10596256 -0.20670183 -0.24483523 0.10710901 -0.07711363
-0.040420018 0.08681658 -0.093979985 0.08836776 0.024524005 -0.017949393 0.043349527 -0.13315015
0.19982667 -0.007640663 0.12947895 -0.14605282 0.015515841 -0.12102545 0.26828945 -0.07508678
-0.20589079 0.10319199 -0.29274857 0.027504925 -0.10753855 -0.092926666 -0.061428107 -0.009037657
0.17628883 0.02438393 -0.18777926 -0.05923195 -0.2525416 -0.1743389 -0.049544584 0.24165073
-0.085985124 -0.013617587 -0.14953767 -0.1037413 -0.0104259625 -0.0113843335 -0.064458765 -0.03928098
0.24033085 -0.010052617 -0.22654161 0.16770443 -0.15124077 0.11321022 -0.018616274 0.057733472
-0.040869784 0.41965732 -0.25273305 0.062150944 0.0038807236 0.24772672 -0.077933565 -0.08840825
0.08263916 0.094044626 0.19151965 0.08658701 0.05483086 -0.15817353 0.10073069 -0.23623289
0.07519357 -0.03182512 0.05719834 -0.062190473 0.1720023 -0.09182 0.05162633 -0.22737703
-0.08872793 0.007364594 -0.19634545 0.05865216 0.26698452 -0.14172868 -0.06440898 -0.0077673714
0.16986494 0.021612778 -0.043974865 0.042272292 -0.15306449 0.23479162 0.0880177 0.03993557
0.041848578 0.075626366 0.09115865 0.1860758 -0.027045043 0.022491617 0.2636839 -0.101581514
-0.098625764 0.2088012 0.19540887 -0.15575816 -0.14875707 0.19226968 0.17805943 -0.010646524
-0.07040737 0.19467334 -0.2535136 -0.028956685 -0.3239928 -0.1934391 -0.09638804 0.22881404
0.26385033 -0.046194874 -0.09051656 -0.13783148 -0.06681184 -0.100764774 -0.064386964 -0.1509299
0.13552698 0.17303015 -0.26397803 -0.11566603 -0.017375961 0.034592453 -0.1734002 0.004400478
-0.008321794 -0.26255327 -0.07365214 0.15494645 0.20605575 -0.2971827 -0.12933123 -0.00038245466
-0.20713826 -0.2510886 -0.021616606 0.0902295 -0.05131846 0.20297596 -0.10846323 0.07131126
0.03900605 -0.109503455 0.15495047 0.15595783 0.059808075 0.0565771 -0.0028514438 0.10743629
-0.05467018 0.03885143 0.06985995 0.14781788 -0.1908072 -0.1512307 0.1925634 -0.14020066
-0.06438946 0.032685623 0.10013711 0.12904353 -0.029479526 0.27961665 0.26461855 -0.14340013
-0.15923773 0.19979157 0.08490895 -0.044406544 -0.12770198 0.19950685 -0.058936387 0.010487879
-0.12529193 0.15787396 0.18049325 -0.10609808 -0.16060533 -0.21862325 -0.04134744 -0.27633587
-0.006585145 -0.053302072 -0.06962986 0.044171903 0.027882678 -0.00026605473 0.07127662 -0.048283156
-0.07387888 -0.1720752 0.15733394 0.006450251 -0.030577188 -0.18036078 0.12291021 0.1892216
-0.074040696 0.0627196 -0.1295803 -0.11618271 -0.31881443 -0.29484564 -0.17795202 0.1498996
00000000: 57d0 173e 69b7 d9bc 54ed 8b3c f55e e43d
00000010: b075 e93c 50af 5bbe f522 4abe 067b 56be
00000020: ae31 1eb9 1383 033e a9c0 d43d 0784 87be
00000030: 3570 7bbd 28db 9e3e f1bf 1b3e 849b d2bd
00000040: 3b27 c7bd 8347 0fbe 7a4f 9bbd cb44 553c
00000050: 8025 60bd 791b 013d 8bcb 09be 8158 a73e
00000060: 33b9 4cbe d0f3 b4be 9624 bc3e 1e34 d43e
00000070: d246 973b e845 13be 8042 67bd 4e59 0c3e
00000080: e74c a0bc d7e9 d1bc fd84 303d 5402 913e
00000090: 3e95 efbd 9b26 223e 56e5 bb3d 5079 8abe
000000a0: c7ea 0fbd d48f bdbd b4a2 3a3d e602 d9bd
000000b0: a5a9 53be 16b6 7abe f85b db3d c0ed 9dbd
000000c0: 768f 25bd e4cc b13d 9478 c0bd 28fa b43d
000000d0: 91e6 c83c 9b0a 93bc 468f 313d 8358 08be
000000e0: 5d9f 4c3e 875e fabb 2196 043e df8e 15be
000000f0: 2736 7e3c 31dc f7bd 3c5d 893e 19c7 99bd
00000100: 09d5 52be 5256 d33d 24e3 95be 0252 e13c
00000110: 2c3d dcbd 5650 bebd 0a9c 7bbd ae12 14bc
00000120: 0f85 343e cfc0 c73c 3549 40be 349d 72bd
00000130: 224d 81be e685 32be 43ef 4abd 4a73 773e
00000140: f818 b0bd 4d1c 5fbc 6720 19be 5276 d4bd
00000150: a8d1 2abc 5b85 3abc f502 84bd 18e5 20bd
00000160: 4a19 763e bbb3 24bc 86fa 67be b6ba 2b3e
00000170: dcde 1abe c3da e73d 2881 98bc ef79 6c3d
00000180: 1367 27bd 53dd d63e 3a66 81be fd91 7e3d
00000190: bd53 7e3b 13ac 7d3e a29b 9fbd 620f b5bd
000001a0: b83e a93d 789a c03d ba1d 443e 8854 b13d
000001b0: 5396 603d 3ef8 21be e44b ce3d 09e7 71be
000001c0: 16ff 993d 0f5b 02bd ce48 6a3d 70bb 7ebd
000001d0: 5f21 303e 200c bcbd 2176 533d 86d5 68be
000001e0: fdb6 b5bd b152 f13b c80e 49be 3f3d 703d
000001f0: 32b2 883e 5321 11be dbe8 83bd 6f85 febb
00000200: 13f1 2d3e 480d b13c fd1e 34bd b625 2d3d
00000210: f0bc 1cbe 376d 703e a042 b43d 7b93 233d
00000220: 6a69 2b3d ffe1 9a3d 63b1 ba3d a88a 3e3e
00000230: 918d ddbc 5740 b83c 9301 873e f809 d0bd
00000240: 4efc c9bd fbcf 553e 4319 483e 117f 1fbe
00000250: c653 18be 58e2 443e 3655 363e c26e 2ebc
00000260: bd31 90bd 7358 473e 89cc 81be 9236 edbc
00000270: 62e2 a5be e614 46be 1867 c5bd 3a4e 6a3e
00000280: 6417 873e d636 3dbd bf60 b9bd b223 0dbe
00000290: a5d4 88bd c35d cebd 50dd 83bd 5e8d 1abe
000002a0: 96c7 0a3e d12e 313e 2128 87be 50e2 ecbd
000002b0: 0858 8ebc d1b0 0d3d d28f 31be e331 903b
000002c0: 2258 08bc 626d 86be efd6 96bd 48aa 1e3e
000002d0: 4700 533e 5528 98be 686f 04be 3284 c8b9
000002e0: 0d1c 54be af8e 80be 4f15 b1bc 3eca b83d
000002f0: 4e33 52bd eed8 4f3e f821 debd a30b 923d
00000300: cfc4 1f3d 5943 e0bd 56ab 1e3e 69b3 1f3e
00000310: 50f9 743d 64bd 673d 4adf 3abb 8f07 dc3d
00000320: d7ed 5fbd ad22 1f3d bc12 8f3d 925d 173e
00000330: f662 43be 38dc 1abe 572f 453e c390 0fbe
00000340: 9fde 83bd 5ce1 053d af14 cd3d fd23 043e
00000350: 0c7f f1bc ea29 8f3e 157c 873e 7cd7 12be
00000360: 370f 23be 2996 4c3e bee4 ad3d a3e3 35bd
00000370: 4fc4 02be 864b 4c3e 4867 71bd 5ad5 2b3c
00000380: 874c 00be b6a9 213e 39d3 383e f349 d9bd
00000390: b975 24be c6de 5fbe ef5b 29bd e57b 8dbe
000003a0: 33c8 d7bb 4653 5abd 1a9a 8ebd 99ed 343d
000003b0: 376a e43c 437d 8bb9 7af9 913d 8fc4 45bd
000003c0: cf4d 97bd 7b34 30be 261c 213e a15c d33b
000003d0: 037d fabc 7fb0 38be 59b8 fb3d 4fc3 413e
000003e0: a6a2 97bd 2273 803d b3b0 04be 33f1 edbd
000003f0: a53b a3be 02f6 96be 0e39 36be 487f 193e

hidden_layers.1.bias f4 [50]
-0.0023008022 -0.01460354 -0.00501612 -0.012957822 0.0014377821 0.0038802924 -0.00503169 0.015086368
0.010095567 -0.0038886152 0.0029970228 -0.0023992306 -0.0030574498 -0.0123031 0.009798532 -0.0030955041
0.0045704315 -0.00905356 -0.0048492323 -0.0025255787 -0.0036406645 -0.00783907 -0.007214948 0.005373717
0.00046520968 -0.015893986 0.014440329 0.00560689 -0.00508622 0.018344704 -0.012739586 -0.0044910493
-0.0015377096 -0.00538882 0.004443842 0.004046111 -0.001329459 0.005571511 0.016384555 0.003084462
0.0076555894 0.0063654063 -0.010291606 0.017481476 0.00726205 -0.017915253 0.0013508863 0.012719341
-0.0009635119 0.0026990266
00000000: 0ec9 16bb b043 6fbc 445e a4bb 0b4d 54bc
00000010: f673 bc3a 814c 7e3b e0e0 a4bb d02c 773c
00000020: e167 253c 23d8 7ebb b369 443b 693c 1dbb
00000030: 7f5f 48bb f192 49bc 068a 203c f1dd 4abb
00000040: 8fc3 953b 6255 14bc 4fe6 9ebb 2e84 25bb
00000050: 3798 6ebb 716f 00bc 5f6b ecbb 0116 b03b
00000060: 63e7 f339 1b34 82bc 2197 6c3c 01ba b73b
00000070: 4eaa a6bb a247 963c b2b9 50bc a729 93bb
00000080: f98c c9ba b394 b0bb a69d 913b 3d95 843b
00000090: 3e41 aeba 3991 b63b e738 863c af24 4a3b
000000a0: bddb fa3b e694 d03b 209e 28bc 5035 8f3c
000000b0: 7ef6 ed3b 02c3 92bc 3910 b13a c864 503c
000000c0: 3094 7cba 27e2 303b

hidden_lns.0.weight f4 [50]
1.0 1.0 1.0 1.0 1.0 1.0 1.0 1.0
1.0 1.0 1.0 1.0 1.0 1.0 1.0 1.0
1.0 1.0 1.0 1.0 1.0 1.0 1.0 1.0
1.0 1.0 1.0 1.0 1.0 1.0 1.0 1.0
1.0 1.0 1.0 1.0 1.0 1.0 1.0 1.0
1.0 1.0 1.0 1.0 1.0 1.0 1.0 1.0
1.0 1.0
00000000: 0000 803f 0000 803f 0000 803f 0000 803f
00000010: 0000 803f 0000 803f 0000 803f 0000 803f
00000020: 0000 803f 0000 803f 0000 803f 0000 803f
00000030: 0000 803f 0000 803f 0000 803f 0000 803f
00000040: 0000 803f 0000 803f 0000 803f 0000 803f
00000050: 0000 803f 0000 803f 0000 803f 0000 803f
00000060: 0000 803f 0000 803f 0000 803f 0000 803f
00000070: 0000 803f 0000 803f 0000 803f 0000 803f
00000080: 0000 803f 0000 803f 0000 803f 0000 803f
00000090: 0000 803f 0000 803f 0000 803f 0000 803f
000000a0: 0000 803f 0000 803f 0000 803f 0000 803f
000000b0: 0000 803f 0000 803f 0000 803f 0000 803f
000000c0: 0000 803f 0000 803f

hidden_lns.0.bias f4 [50]
0.0 0.0 0.0 0.0 0.0 0.0 0.0 0.0
0.0 0.0 0.0 0.0 0.0 0.0 0.0 0.0
0.0 0.0 0.0 0.0 0.0 0.0 0.0 0.0
0.0 0.0 0.0 0.0 0.0 0.0 0.0 0.0
0.0 0.0 0.0 0.0 0.0 0.0 0.0 0.0
0.0 0.0 0.0 0.0 0.0 0.0 0.0 0.0
0.0 0.0
00000000: 0000 0000 0000 0000 0000 0000 0000 0000
00000010: 0000 0000 0000 0000 0000 0000 0000 0000
00000020: 0000 0000 0000 0000 0000 0000 0000 0000
00000030: 0000 0000 0000 0000 0000 0000 0000 0000
00000040: 0000 0000 0000 0000 0000 0000 0000 0000
00000050: 0000 0000 0000 0000 0000 0000 0000 0000
00000060: 0000 0000 0000 0000 0000 0000 0000 0000
00000070: 0000 0000 0000 0000 0000 0000 0000 0000
00000080: 0000 0000 0000 0000 0000 0000 0000 0000
00000090: 0000 0000 0000 0000 0000 0000 0000 0000
000000a0: 0000 0000 0000 0000 0000 0000 0000 0000
000000b0: 0000 0000 0000 0000 0000 0000 0000 0000
000000c0: 0000 0000 0000 0000

hidden_lns.1.weight f4 [50]
1.0 1.0 1.0 1.0 1.0 1.0 1.0 1.0
1.0 1.0 1.0 1.0 1.0 1.0 1.0 1.0
1.0 1.0 1.0 1.0 1.0 1.0 1.0 1.0
1.0 1.0 1.0 1.0 1.0 1.0 1.0 1.0
1.0 1.0 1.0 1.0 1.0 1.0 1.0 1.0
1.0 1.0 1.0 1.0 1.0 1.0 1.0 1.0
1.0 1.0
00000000: 0000 803f 0000 803f 0000 803f 0000 803f
00000010: 0000 803f 0000 803f 0000 803f 0000 803f
00000020: 0000 803f 0000 803f 0000 803f 0000 803f
00000030: 0000 803f 0000 803f 0000 803f 0000 803f
00000040: 0000 803f 0000 803f 0000 803f 0000 803f
00000050: 0000 803f 0000 803f 0000 803f 0000 803f
00000060: 0000 803f 0000 803f 0000 803f 0000 803f
00000070: 0000 803f 0000 803f 0000 803f 0000 803f
00000080: 0000 803f 0000 803f 0000 803f 0000 803f
00000090: 0000 803f 0000 803f 0000 803f 0000 803f
000000a0: 0000 803f 0000 803f 0000 803f 0000 803f
000000b0: 0000 803f 0000 803f 0000 803f 0000 803f
000000c0: 0000 803f 0000 803f

hidden_lns.1.bias f4 [50]
0.0 0.0 0.0 0.0 0.0 0.0 0.0 0.0
0.0 0.0 0.0 0.0 0.0 0.0 0.0 0.0
0.0 0.0 0.0 0.0 0.0 0.0 0.0 0.0
0.0 0.0 0.0 0.0 0.0 0.0 0.0 0.0
0.0 0.0 0.0 0.0 0.0 0.0 0.0 0.0
0.0 0.0 0.0 0.0 0.0 0.0 0.0 0.0
0.0 0.0
00000000: 0000 0000 0000 0000 0000 0000 0000 0000
00000010: 0000 0000 0000 0000 0000 0000 0000 0000
00000020: 0000 0000 0000 0000 0000 0000 0000 0000
00000030: 0000 0000 0000 0000 0000 0000 0000 0000
00000040: 0000 0000 0000 0000 0000 0000 0000 0000
00000050: 0000 0000 0000 0000 0000 0000 0000 0000
00000060: 0000 0000 0000 0000 0000 0000 0000 0000
00000070: 0000 0000 0000 0000 0000 0000 0000 0000
00000080: 0000 0000 0000 0000 0000 0000 0000 0000
00000090: 0000 0000 0000 0000 0000 0000 0000 0000
000000a0: 0000 0000 0000 0000 0000 0000 0000 0000
000000b0: 0000 0000 0000 0000 0000 0000 0000 0000
000000c0: 0000 0000 0000 0000

output_layer.weight f4 [2, 50]
-0.15473971 0.06897818 -0.043498196 0.15781759 -0.44124433 0.29454342 -0.119909815 -0.108670466
0.12914816 -0.063221626 -0.017854871 0.07282594 0.14293073 -0.024899665 -0.49872723 -0.113596834
0.005816873 0.21870925 0.2628627 -0.06700807 -0.14615831 0.05283095 -0.3316756 -0.10795843
-0.30681047 0.2693701 -0.2702165 0.18728177 -0.076855935 -0.6518309 0.14282782 0.31795356
0.15105432 -0.45468158 -0.22792493 -0.13488702 0.095964074 -0.02993063 0.12152062 -0.13482627
0.15047395 -0.2212312 -0.09845336 0.026433107 -0.06256951 -0.21814933 -0.06883828 0.00029936695
0.2553356 -0.137339 -0.119999595 0.13111843 0.117603764 0.061130643 -0.020610671 -0.0008197478
0.09405302 -0.20230302 -0.15305905 0.10300892 -0.078190185 0.029465787 0.20139016 0.22462086
-0.056456823 0.07083332 -0.10313013 0.09130696 0.04464551 0.18401542 0.05600813 0.14142048
0.04893569 -0.07608778 0.0017980508 0.38347805 -0.15937641 -0.095844194 0.104971655 -0.33501348
0.2555405 0.048734013 0.0070455177 0.07694366 0.07007668 -0.10643964 0.03657236 -0.18054295
-0.26235893 -0.0495673 -0.1346967 -0.053336952 0.10131223 -0.24244668 -0.198087 0.27747154
-0.061835974 -0.23631942 -0.054873437 -0.04087329
00000000: 1674 1ebe 6f44 8d3d 2a2b 32bd ef9a 213e
00000010: c7ea e1be 65ce 963e 4793 f5bd 9f8e debd
00000020: 6a3f 043e 577a 81bd 6144 92bc c425 953d
00000030: 6f5c 123e 62fa cbbc 2d59 ffbe 75a5 e8bd
00000040: 789b be3b 51f5 5f3e f195 863e 873b 89bd
00000050: 86aa 15be 4465 583d 62d1 a9be 4f19 ddbd
00000060: 4316 9dbe e1ea 893e d159 8abe cbc6 3f3e
00000070: a566 9dbd 64de 26bf 7541 123e cfca a23e
00000080: fcad 1a3e 06cc e8be 2765 69be d31f 0abe
00000090: d088 c43d 1531 f5bc cedf f83d e60f 0abe
000000a0: d815 1a3e 6f8a 62be eaa1 c9bd 3e8a d83c
000000b0: 7124 80bd 8a62 5fbe 16fb 8cbd 5af4 9c39
000000c0: 59bb 823e 98a2 0cbe 59c2 f5bd e943 063e
000000d0: 3eda f03d 2064 7a3d b6d7 a8bc 58e4 56ba
000000e0: df9e c03d 8628 4fbe 83bb 1cbe 57f6 d23d
000000f0: 2d22 a0bd 3c62 f13c 3939 4e3e 0303 663e
00000100: 453f 67bd 0f11 913d e435 d3bd 25ff ba3d
00000110: 36de 363d 8a6e 3c3e c868 653d 88d0 103e
00000120: ca70 483d e9d3 9bbd 93ac eb3a 3c57 c43e
00000130: 9233 23be f649 c4bd 61fb d63d e386 abbe
00000140: 34d6 823e 519d 473d 16de e63b a394 9d3d
00000150: 5d84 8f3d 07fd d9bd e6cc 153d 40e0 38be
00000160: e953 86be 1507 4bbd efed 09be d977 5abd
00000170: c97c cf3d f143 78be 52d7 4abe c010 8e3e
00000180: b847 7dbd b8fd 71be f8c2 60bd c06a 27bd

output_layer.bias f4 [2]
-0.0021520369 -0.011575021
00000000: 3009 0dbb 28a5 3dbc

exp_avg f4 [50, 2]
0.42662874 1.7026737 1.0572759 -0.63280725 0.43983147 -0.907649 2.4343631 -1.3105199
-3.9037454 1.7064078 -0.34913936 -0.69598883 0.36425728 -0.8283038 2.1493936 1.4416375
1.0240871 0.8845222 1.2798452 0.22763953 1.707037 -1.0075066 1.5393329 -0.2423135
2.4459376 0.82732224 -1.2048655 0.07567179 0.020264424 -0.51955354 -2.7026284 -1.1335459
-1.3292212 -1.1166389 -0.23700511 -0.2961831 -0.19815049 -0.13565557 -0.14157784 -2.483224
0.9746558 1.1929643 -1.8440036 2.1040344 -0.36982492 -0.7177 1.9748274 -1.4516973
-1.1252441 1.8317755 0.9533218 -1.2034589 -0.1591652 0.5370546 -0.540171 1.0116998
0.34186852 0.16632049 -0.40237617 -2.0953426 -1.3246893 0.22188339 -0.9603458 0.918103
-0.54572433 1.4980563 -0.56404084 -1.2503924 3.785782 -0.06601123 2.5228531 -0.9250595
-1.1035066 0.5165965 -0.017478708 -2.1026838 -1.881542 -2.1140983 1.2316035 -2.101871
-1.3917911 1.4351337 -2.7131839 1.54994 -3.4946554 1.0281069 0.27678925 2.3346894
0.28030726 -0.5024662 -0.080615975 0.21414818 0.1822327 -1.2177463 -0.26914328 1.6438453
-0.853675 0.11734818 2.2950165 1.870841
00000000: 156f da3e 36f1 d93f d154 873f a8ff 21bf
00000010: 9731 e13e af5b 68bf 9bcc 1b40 1ebf a7bf
00000020: f7d6 79c0 926b da3f 65c2 b2be 532c 32bf
00000030: ee7f ba3e b80b 54bf aa8f 0940 9487 b83f
00000040: 4915 833f 0c70 623f f8d1 a33f 561a 693e
00000050: 3080 da3f faf5 80bf dc08 c53f 0821 78be
00000060: 3e8a 1c40 64cb 533f 0839 9abf d0f9 9a3d
00000070: 9401 a63c 7601 05bf ddf7 2cc0 0818 91bf
00000080: ec23 aabf 06ee 8ebf 78b1 72be 50a5 97be
00000090: f6e7 4abe 4be9 0abe c8f9 10be 24ed 1ec0
000000a0: 0b83 793f 0eb3 983f 4f08 ecbf 80a8 0640
000000b0: b159 bdbe 30bb 37bf 25c7 fc3f 38d1 b9bf
000000c0: 0008 90bf 9f77 ea3f e60c 743f f10a 9abf
000000d0: 34fc 22be 697c 093f a648 0abf 617f 813f
000000e0: 6409 af3e eb4f 2a3e 4004 cebe 181a 06c0
000000f0: 6b8f a9bf 6635 633e 39d9 75bf cc08 6b3f
00000100: 97b4 0bbf 4fc0 bf3f fb64 10bf dc0c a0bf
00000110: 414a 7240 e530 87bd 6d76 2140 b3d0 6cbf
00000120: b43f 8dbf ab3f 043f 822f 8fbc 5f92 06c0
00000130: 5ed6 f0bf 634d 07c0 2fa5 9d3f 0e85 06c0
00000140: 3626 b2bf 76b2 b73f cea4 2dc0 6f64 c63f
00000150: 6fa8 5fc0 0299 833f 52b7 8d3e 8d6b 1540
00000160: 6f84 8f3e a0a1 00bf fd19 a5bd a949 5b3e
00000170: 359b 3a3e 1cdf 9bbf 26cd 89be 8669 d23f
00000180: 728a 5abf 3e54 f03d 8de1 1240 b877 ef3f

exp_avg_sq f4 [50, 2]
5.5717416 1.5967252 22.75742 2.0734577 3.7984447 4.9277873 6.419501 4.3879633
5.401671 4.70789 19.31907 4.9474416 2.881154 5.9142685 3.6336591 4.9308105
3.403815 8.095475 6.7278275 2.9369648 4.816835 2.8195682 3.8455765 7.852485
8.349153 3.163745 11.461433 2.7261825 1.3268417 3.0657508 9.709236 3.6301782
3.3449125 1.8197936 3.673616 3.0198677 3.0155263 1.6017601 2.093241 1.0896212
5.4931035 7.3404846 14.7354965 10.047834 11.896787 4.1985846 3.2166936 1.1873027
5.303182 1.370048 5.9080205 4.3896804 1.1865693 1.5104367 9.93309 4.254647
11.863513 4.2943263 2.6826694 1.5569248 5.697896 8.130469 4.8882833 3.877956
3.8171434 2.0627928 12.889818 4.640613 8.191793 5.4776826 8.232089 1.6310282
21.356443 5.3885503 7.735536 6.0272446 4.8355656 1.1074687 7.105823 5.6532917
10.951618 27.176996 8.58764 3.8160758 16.89368 17.712759 17.051292 11.076274
2.0618012 1.3104405 9.609447 3.6529312 8.804363 1.1992347 1.857727 3.0379267
2.5126126 1.8838387 5.5312915 3.6257303
00000000: b54b b240 7e61 cc3f 320f b641 88b3 0440
00000010: b819 7340 6fb0 9d40 8d6c cd40 326a 8c40
00000020: 7dda ac40 09a7 9640 758d 9a41 7151 9e40
00000030: d464 3840 b041 bd40 df8d 6840 33c9 9d40
00000040: 1bd8 5940 1187 0141 5d4a d740 3bf7 3b40
00000050: 8323 9a40 ce73 3440 ed1d 7640 8f47 fb40
00000060: 2196 0541 cc7a 4a40 0862 3741 c679 2e40
00000070: f3d5 a93f 4335 4440 0859 1b41 d754 6840
00000080: 0c13 5640 ffee e83f 861c 6b40 8345 4140
00000090: 62fe 4040 7a06 cd3f a9f7 0540 b578 8b3f
000000a0: 81c7 af40 40e5 ea40 98c4 6b41 eec3 2041
000000b0: 3d59 3e41 ce5a 8640 4fde 4d40 89f9 973f
000000c0: abb3 a940 bc5d af3f 810e bd40 4378 8c40
000000d0: 81e1 973f fd55 c13f f0ed 1e41 1126 8840
000000e0: f3d0 3d41 1f6b 8940 dbb0 2b40 5049 c73f
000000f0: 2a55 b640 6716 0241 d16c 9c40 6e30 7840
00000100: 144c 7440 cc04 0440 b23c 4e41 e77f 9440
00000110: 9611 0341 2d49 af40 a3b6 0341 88c5 d03f
00000120: ffd9 aa41 016f ac40 8389 f740 30df c040
00000130: f4bc 9a40 89c1 8d3f e762 e340 c4e7 b440
00000140: d439 2f41 7d6a d941 f966 0941 963a 7440
00000150: 4226 8741 bbb3 8d41 0c69 8841 6b38 3141
00000160: 8df4 0340 84bc a73f 4bc0 1941 a0c9 6940
00000170: acde 0c41 8680 993f 00ca ed3f 646d 4240
00000180: a5ce 2040 a021 f13f 5700 b140 f70b 6840

exp_avg f4 [50]
-10.336495 -8.379562 5.291752 6.4062057 -7.456918 -11.124319 -1.3358003 3.9635785
-24.020672 13.037022 -5.6896067 -2.87178 6.009356 -6.447443 -0.56596094 3.9252505
0.32558003 3.1809127 -3.228095 10.6333065 12.169274 -10.791807 -0.08321207 0.9271952
-4.909427 14.237721 1.0220551 4.852703 2.4083202 -9.311315 13.376424 2.401789
1.9218065 3.8869922 -15.711713 9.503453 2.7036805 3.213348 7.7992587 10.90362
-27.985514 -6.799596 9.40062 -18.057056 -0.65944093 1.933587 5.9063587 15.717696
-4.0376554 2.744524
00000000: 4962 25c1 b012 06c1 0856 a940 a3ff cc40
00000010: 129f eec0 36fd 31c1 81fb aabf 45ab 7d40
00000020: 562a c0c1 a497 5041 4211 b6c0 3ecb 37c0
00000030: a54c c040 7451 cec0 d1e2 10bf 4e37 7b40
00000040: 6db2 a63e 1394 4b40 1c99 4ec0 0622 2a41
00000050: 59b5 4241 3eab 2cc1 176b aabd aa5c 6d3f
00000060: 071a 9dc0 b5cd 6341 b4d2 823f 5849 9b40
00000070: eb21 1a40 25fb 14c1 d505 5641 e9b6 1940
00000080: c1fd f53f 7bc4 7840 2d63 7bc1 250e 1841
00000090: 1a09 2d40 7ea7 4d40 8793 f940 3a75 2e41
000000a0: 55e2 dfc1 4a96 d9c0 f168 1641 da74 90c1
000000b0: 1fd1 28bf c77f f73f e400 bd40 af7b 7b41
000000c0: 7934 81c0 48a6 2f40

exp_avg_sq f4 [50]
49.83581 54.374172 95.972885 46.814632 53.647125 91.72456 25.050076 91.95866
124.79707 68.62612 102.44201 36.98764 73.1741 47.558617 29.087423 50.001854
53.606937 62.92747 46.360703 12.902979 32.30432 127.95874 53.741375 26.749502
40.7691 109.93411 16.219784 94.89712 81.0845 14.996783 113.05838 70.340515
58.272175 76.385506 38.2969 46.712658 36.79905 115.72735 37.360054 89.675156
151.14273 88.79237 134.5075 116.38344 20.877176 54.78885 26.281246 37.50358
40.830536 94.07398
00000000: df57 4742 277f 5942 1ef2 bf42 2f42 3b42
00000010: a896 5642 fa72 b742 8e66 c841 d5ea b742
00000020: 1a98 f942 9340 8942 4fe2 cc42 58f3 1342
00000030: 2459 9242 063c 3e42 0bb3 e841 e601 4842
00000040: 816d 5642 bbb5 7b42 5c71 3942 9a72 4e41
00000050: a037 0142 e0ea ff42 2bf7 5642 fbfe d541
00000060: 8f13 2342 44de db42 1ec2 8141 53cb bd42
00000070: 442b a242 d3f2 6f41 e41d e242 58ae 8c42
00000080: b516 6942 61c5 9842 0730 1942 c3d9 3a42
00000090: 3a32 1342 6774 e742 b270 1542 ae59 b342
000000a0: 8a24 1743 b295 b142 ec81 0643 52c4 e842
000000b0: 7504 a741 c827 5b42 fe3f d241 aa03 1642
000000c0: 7852 2342 e125 bc42

exp_avg f4 [50]
0.10398482 -0.11193805 0.16379867 -0.45455557 -0.14452824 -0.2662623 0.0150760645 0.17683001
-0.19695495 -0.03300092 -0.20388992 -0.3839438 -0.42378217 -0.14033726 0.06397898 -0.26887098
0.087637216 -0.04263712 0.0019387734 0.49820167 0.26719266 -0.14853707 0.116684794 0.16640055
0.42586464 -0.2392667 0.04987617 0.16390546 0.09764546 0.38477552 0.0161737 0.027066914
0.20735316 -0.3626306 -0.104864135 -0.50942355 -0.056976058 0.4585908 0.46824694 -0.0855298
-0.20127004 -0.15220362 -0.03491581 0.036519606 0.062498316 -0.14117551 0.27827996 0.09088421
-0.025247276 -0.09686193
00000000: fef5 d43d c73f e5bd d7ba 273e 82bb e8be
00000010: 36ff 13be 8853 88be 9901 773c ed12 353e
00000020: 8fae 49be f92b 07bd 85c8 50be 4894 c4be
00000030: faf9 d8be 92b4 0fbe 6907 833d 75a9 89be
00000040: 247b b33d 43a4 2ebd 711e fe3a 4a14 ff3e
00000050: 7acd 883e 1a1a 18be 70f8 ee3d e864 2a3e
00000060: ee0a da3e 5402 75be f44a 4c3d d5d6 273e
00000070: 58fa c73d 4c01 c53e b57e 843c 6fbb dd3c
00000080: 6354 543e b8aa b9be 02c3 d6bd 9569 02bf
00000090: ba5f 69bd 6acc ea3e 10be ef3e 3f2a afbd
000000a0: bc19 4ebe 44db 1bbe e103 0fbd 9595 153d
000000b0: 3cfe 7f3d 5090 10be b67a 8e3e 8021 ba3d
000000c0: 60d3 cebc 8c5f c6bd

exp_avg_sq f4 [50]
0.06983421 0.079677425 0.11104689 0.35658747 0.3334026 0.68207115 0.07884808 0.102794655
0.06351 0.14735116 0.22242261 0.17506024 0.11414358 0.12809217 0.04664651 0.19879441
0.06975277 0.09131505 0.047841728 0.052046843 0.044426013 0.16357335 0.22539581 0.062616535
0.12434236 0.47294027 0.039518982 0.19732444 0.6516728 0.05090032 0.2623734 0.11562827
0.16665311 0.32811785 0.27740687 0.054651774 0.17634761 0.12516622 0.049757894 0.08885679
0.21391344 0.036069427 0.08996359 0.15076216 0.069634005 0.058591504 0.1691816 0.2688456
0.031873994 0.19144157
00000000: 3d05 8f3d eb2d a33d 8d6c e33d a292 b63e
00000010: bfb3 aa3e 379c 2e3f 1a7b a13d 0186 d23d
00000020: 8811 823d 39e3 163e c1c2 633e fe42 333e
00000030: 1cc4 e93d 982a 033e 6910 3f3d c390 4b3e
00000040: 8ada 8e3d 6303 bb3d b0f5 433d 122f 553d
00000050: 0df8 353d c67f 273e 29ce 663e 193d 803d
00000060: 35a7 fe3d 3a25 f23e a8de 213d 6b0f 4a3e
00000070: 07d4 263f db7c 503d ce55 863e 84ce ec3d
00000080: 1da7 2a3e 10ff a73e 4608 8e3e 8ada 5f3d
00000090: 7894 343e 932b 003e efce 4b3d 8cfa b53d
000000a0: 200c 5b3e 89bd 133d d53e b83d 6561 1a3e
000000b0: 469c 8e3d a5fd 6f3d f13d 2d3e 21a6 893e
000000c0: 4e8e 023d 4209 443e

exp_avg f4 [50]
0.3628508 0.4805806 -0.2947343 -0.08396153 -0.27793828 0.07998957 -0.0077714664 -0.29554144
0.96163213 -0.60723114 0.3751512 0.12553082 -0.057623398 -0.13638835 0.04245642 -0.044250645
-0.14544666 0.24493894 0.24644387 -0.4435361 0.1915871 -0.46442607 -0.4090491 0.22099829
-0.4583198 -0.5109652 0.060443692 -0.2547426 -0.04955047 0.960106 -0.37453613 0.56228274
-0.38409388 0.16655149 1.0417 0.13483806 0.38799125 0.69777143 -0.9398793 0.19962014
-0.809057 -0.7199411 -0.9405545 0.2757695 -0.17560704 -0.3497729 -0.31988987 -1.0987048
0.28929365 -0.078027874
00000000: 94c7 b93e a90e f63e 6ae7 96be 06f4 abbd
00000010: ed4d 8ebe 92d1 a33d c9a7 febb 3551 97be
00000020: 862d 763f 8073 1bbf d113 c03e 278b 003e
00000030: 8306 6cbd 63a9 0bbe c8e6 2d3d 2a40 35bd
00000040: f8ef 14be 46d1 7a3e c85b 7c3e 2a17 e3be
00000050: 692f 443e 41c9 edbe e26e d1be 604d 623e
00000060: e5a8 eabe 9ece 02bf ce93 773d 9f6d 82be
00000070: 6ff5 4abd 82c9 753f 33c3 bfbe c3f1 0f3f
00000080: f4a7 c4be 798c 2a3e 6d56 853f fd12 0a3e
00000090: caa6 c63e 26a1 323f ee9b 70bf 3969 4c3e
000000a0: 5c1e 4fbf 0f4e 38bf 2ec8 70bf a931 8d3e
000000b0: 55d2 33be 6f15 b3be 9bc8 a3be 5ca2 8cbf
000000c0: 4c1e 943e 14cd 9fbd

exp_avg_sq f4 [50]
0.40624693 0.36571574 0.94757456 0.48049682 0.51701915 4.4171567 0.18182331 0.91353965
1.2769978 0.69726497 1.0969903 2.7122295 1.8809638 2.3515997 0.3453159 0.5879936
0.63119227 2.1820364 0.5876378 0.33616567 0.35810682 1.0565822 2.555055 0.18605368
0.7932187 1.1535805 0.16033962 0.91108143 3.7206457 0.16632596 1.6681789 1.6855891
0.7441543 2.7997446 1.9414527 1.3464849 0.74723995 0.7655128 0.27627188 0.91261464
1.0974388 1.9053028 1.43571 1.0180933 0.7197197 1.0364213 0.72639245 0.65658766
0.7741935 1.6084821
00000000: 99ff cf3e 183f bb3e 3f94 723f ae03 f63e
00000010: 5e5b 043f 5959 8d40 e42f 3a3e bcdd 693f
00000020: aa74 a33f f57f 323f 2e6a 8c3f 2b95 2d40
00000030: 6cc3 f03f 9c80 1640 3fcd b03e c086 163f
00000040: d195 213f 7ca6 0b40 6e6f 163f e81d ac3e
00000050: c759 b73e 163e 873f 0586 2340 db84 3e3e
00000060: 6110 4b3f 87a8 933f 1230 243e a23c 693f
00000070: 0f1f 6e40 5a51 2a3e e386 d53f 62c1 d73f
00000080: e580 3e3f 042f 3340 8681 f83f 9e59 ac3f
00000090: 1e4b 3f3f a6f8 433f 8273 8d3e 1da1 693f
000000a0: e078 8c3f f6e0 f33f 58c5 b73f e250 823f
000000b0: 8d3f 383f 74a9 843f dbf4 393f 2116 283f
000000c0: 8c31 463f bee2 cd3f

exp_avg f4 [50, 50]
-0.033860836 -0.0070698806 -0.1314039 -0.35650373 -0.21214098 -0.43626353 -0.05485139 0.42130116
0.12689377 -0.10184874 -0.047803853 0.046390526 -0.43148947 -0.39029813 0.1021325 0.08755592
0.12233739 0.32566527 0.42239743 0.3419862 0.037174087 0.021496944 0.4044079 0.2020296
-0.13116698 0.014501137 -0.26032126 -0.10992852 0.15263058 0.2655934 0.1629992 -0.06586256
-0.12790333 0.014624343 -0.13478376 -0.28076878 0.15947154 0.19027272 0.35768065 -0.21053885
0.13890833 -0.2595622 0.07794701 0.06479749 0.4799215 0.2546723 0.19732969 -0.010747459
-0.18853338 -0.08930548 -0.0015036514 -0.043423098 0.38531724 -0.19951917 -0.4872071 -1.0329796
-0.048556987 0.7831831 -0.12204545 0.0055289925 0.14840133 -0.563688 -0.37245148 -0.60912466
0.0070480146 0.41390452 -0.0006501139 0.7116259 0.71994984 0.44651318 0.036476612 -0.14539258
0.6763553 -0.056157976 0.5114452 0.17814626 -0.33804634 -0.26603144 0.5595792 -0.36094227
0.5157245 0.76627517 0.22306682 0.3333681 -0.7522869 -0.016574822 -0.3375547 -0.17086042
0.22252765 0.1451558 -0.22958098 -0.5397092 0.46188962 0.036645282 0.91507226 -0.2717291
-0.21488982 0.8089083 -0.38976046 -0.17122933 0.096508875 0.0060323295 -0.23577522 -0.29374346
0.34507766 0.020071778 -0.037381377 0.13407592 0.16785435 0.041566253 -0.1602946 0.24375376
-0.30381334 -0.07501642 0.059989065 -0.01967581 -0.032601226 0.08920065 0.075950235 -0.054805897
0.056628887 -0.066854656 0.04716516 -0.11033455 -0.009149612 -0.0054364875 -0.0024164594 0.2373328
-0.096173175 0.048030335 0.07779286 -0.29241675 0.016132968 0.10058025 0.18213783 -0.34298325
0.17523393 0.034385387 -0.10929345 -0.20353487 0.11062396 -0.07080858 -0.08433474 0.08757992
0.053271208 0.0013844098 -0.03235207 -0.08336391 -0.033316214 0.019927872 0.022658994 0.21219875
0.18423782 0.31531513 0.11979235 0.40891686 0.19566895 -0.4303879 -0.121949814 0.014126323
0.18762551 0.41074833 0.3636326 0.2316242 -0.1435177 -0.30607003 -0.1787189 -0.26245484
-0.3508616 -0.252606 -0.25154218 0.07928394 -0.3867222 0.020212503 -0.111539185 -0.22910967
0.24976991 -0.01427146 -0.3427163 0.042865153 -0.14178574 -0.4487362 0.010052302 0.06252757
0.18492754 0.29270628 -0.23058902 -0.12044886 -0.16561003 0.2639235 0.18260275 0.19048265
-0.11911491 -0.025587184 -0.40283534 -0.06276159 -0.0020724782 -0.21364598 0.12627758 0.23409542
-0.036722567 0.3764547 0.4627578 0.23047958 -0.30279893 -0.18361376 0.29304102 0.009041777
-0.19392821 -0.060707863 0.378907 0.35801238 0.13062415 -0.20821485 -0.15694542 -0.22850084
-0.21643358 0.17823887 0.098283514 0.12916127 -0.4023902 0.07214512 0.044085756 0.21777801
-0.056487862 -0.30468398 0.02874091 -0.2963982 -0.2024865 0.12749234 0.16098039 -0.36277363
0.010933329 0.30422148 -0.19892198 0.35568744 -0.47466904 -0.10353466 0.17896016 0.4342279
0.27931243 -0.1466063 0.09408227 -0.01701252 0.1668757 -0.021575393 0.09962268 0.07805667
-0.14114697 0.25933635 -0.04773297 0.19362769 0.29850128 0.12682468 -0.33032846 -0.40540725
00000000: a9b1 0abd 75aa e7bb be8e 06be a887 b6be
00000010: 7c3b 59be ef5d dfbe daab 60bd c9b4 d73e
00000020: 71f0 013e 1296 d0bd f9cd 43bd fe03 3e3d
00000030: 30ec dcbe 28d5 c7be d82a d13d 8550 b33d
00000040: 078c fa3d 99bd a63e 7a44 d83e d118 af3e
00000050: db43 183d 5c1a b03c 8d0e cf3e d9e0 4e3e
00000060: a350 06be 2d96 6d3c d448 85be 3422 e1bd
00000070: 314b 1c3e dcfb 873e 43e9 263e f3e2 86bd
00000080: 17f9 02be f19a 6f3c c104 0abe edc0 8fbe
00000090: 824c 233e dad6 423e eb21 b73e 7f97 57be
000000a0: fc3d 0e3e 56e5 84be afa2 9f3d 8cb4 843d
000000b0: 45b8 f53e 6864 823e cb10 4a3e 1c16 30bc
000000c0: e50e 41be cbe5 b6bd 2b16 c5ba 6bdc 31bd
000000d0: 4d48 c53e c14e 4cbe 3673 f9be ad38 84bf
000000e0: b1e3 46bd b07e 483f f7f2 f9bd 8d2c b53b
000000f0: 85f6 173e db4d 10bf f6b1 bebe 98ef 1bbf
00000100: 08f3 e63b 4beb d33e 686c 2aba 1d2d 363f
00000110: a24e 383f 609d e43e 8068 153d cbe1 14be
00000120: 9f25 2d3f e805 66bd 13ee 023f f96b 363e
00000130: 6914 adbe 4635 88be 9540 0f3f 6dcd b8be
00000140: 8506 043f 9c2a 443f a16b 643e 39af aa3e
00000150: e095 40bf ecc7 87bc f8d3 acbe 09f6 2ebe
00000160: 4ade 633e b9a3 143e 4717 6bbe 622a 0abf
00000170: cc7c ec3e 5d19 163d 2d42 6a3f 1420 8bbe
00000180: 140c 5cbe 9d14 4f3f af8e c7be be56 2fbe
00000190: 72a6 c53d d9aa c53b 0f6f 71be 8b65 96be
000001a0: 05ae b03e 926d a43c 371d 19bd 334b 093e
000001b0: 03e2 2b3e 6041 2a3d 4524 24be 969a 793e
000001c0: 6c8d 9bbe 35a2 99bd 18b7 753d 2a2f a1bc
000001d0: dd88 05bd d5ae b63d cc8b 9b3d 267c 60bd
000001e0: b1f3 673d 18eb 88bd 4130 413d 15f7 e1bd
000001f0: 41e8 15bc 9024 b2bb 765d 1ebb 5f07 733e
00000200: 71f6 c4bd 75bb 443d dd51 9f3d a6b7 95be
00000210: 4929 843c 05fd cd3d 5782 3a3e 809b afbe
00000220: 8670 333e b1d7 0c3d 3fd5 dfbd 726b 50be
00000230: d18e e23d 1704 91bd b1b7 acbd 1a5d b33d
00000240: e932 5a3d 1675 b53a 9b83 04bd b3ba aabd
00000250: 9576 08bd c73f a33c 5b9f b93c a14a 593e
00000260: d7a8 3c3e fc70 a13e b155 f53d 8d5d d13e
00000270: 715d 483e ce5b dcbe d3c0 f9bd 1872 673c
00000280: e720 403e 9b4d d23e 0d2e ba3e e52e 6d3e
00000290: 4ef6 12be 36b5 9cbe 1602 37be 7b60 86be
000002a0: 22a4 b3be 9355 81be 23ca 80be 9e5f a23d
000002b0: 7400 c6be b194 a53c a86e e4bd ba9b 6abe
000002c0: afc3 7f3e d7d2 69bc 8378 afbe 5f93 2f3d
000002d0: 4830 11be c0c0 e5be 69b2 243c 740e 803d
000002e0: a55d 3d3e 99dd 953e 871f 6cbe e4ad f6bd
000002f0: ad95 29be fb20 873e 37fc 3a3e e20d 433e
00000300: 85f2 f3bd 379c d1bc 6f40 cebe 2689 80bd
00000310: 6ad2 07bb 03c6 5abe e94e 013e b6b6 6f3e
00000320: 676a 16bd acbe c03e 97ee ec3e d702 6c3e
00000330: 7608 9bbe 3f05 3cbe 7909 963e f623 143c
00000340: 1e95 46be cfa8 78bd 1900 c23e 664d b73e
00000350: 56c2 053e 4636 55be 4db6 20be 20fc 69be
00000360: c4a0 5dbe 4084 363e de48 c93d da42 043e
00000370: 1706 cebe d2c0 933d 4493 343d 3301 5f3e
00000380: d15f 67bd 8aff 9bbe 0f72 eb3c 81c1 97be
00000390: 9f58 4fbe 5a8d 023e 0bd8 243e 77bd b9be
000003a0: b521 333c ebc2 9b3e 34b2 4bbe aa1c b63e
000003b0: d207 f3be fb09 d4bd 5541 373e 1f53 de3e
000003c0: 0a02 8f3e f61f 16be 35ae c03d d75d 8bbc
000003d0: 77e1 2a3e e1be b0bc fa06 cc3d 2ddc 9f3d
000003e0: d588 10be bcc7 843e a683 43bd 5646 463e
000003f0: 29d5 983e 54de 013e d020 a9be 8a91 cfbe
