weights/checkpoint/example0000_train_adam.pth (torch, 74678 bytes, 27 tensors)

a f4 [5]
000000 a6 86 15 3f 4c 77 58 3e 00 4e 84 3e cd cc 4c 3e
       0.5840858 0.21139258 0.2584076 0.2
000010 2c 08 88 3e
       0.26568735

input_layer.weight f4 [50, 2]
000000 75 9f 22 bf 22 07 1b be f8 8b bd be eb 3a 37 be
       -0.6352456 -0.1513944 -0.3702085 -0.17893569
000010 fa 25 1f bf 49 d4 9e 3e 36 c8 26 bf 5b a5 69 bd
       -0.6216732 0.31021336 -0.6514925 -0.05704246
000020 d4 2a 83 3e b9 59 80 be 3b f6 bb 3e 04 ca 47 3d
       0.25618613 -0.25068453 0.36711296 0.04877664
000030 a5 d1 c2 3e 26 6e da 3e 6d 31 af be f7 2c 88 3e
       0.3805057 0.42662162 -0.34217396 0.26596805
000040 98 6f 9e be 25 d3 86 3e 3b 74 c5 be cd 3e 99 3e
       -0.30944514 0.26332965 -0.3856524 0.29930726
000050 12 f6 f1 3d b9 cf 87 be b3 92 bd be 9d ef 33 3e
       0.11814512 -0.26525667 -0.37025985 0.17571874
000060 d6 72 2d 3f e5 0c b7 3e a1 e5 84 bd be 8e 22 bd
       0.6775335 0.35752025 -0.06489111 -0.03968691
000070 2f 41 dc 3e a2 10 f5 be 3b 91 6f 3e 89 8d 58 be
       0.4301848 -0.47864252 0.23395245 -0.21147741
000080 0e 07 d6 3e 73 06 86 be 9b 4a ed 3c 8c 2b 4a 3e
       0.41802257 -0.26176795 0.028966239 0.19743174
000090 3c 60 f7 3e 0f e5 a3 bd 0a 8b 36 3f 64 8f 1d bf
       0.48315609 -0.08002674 0.71305907 -0.6154692
0000a0 d5 a7 d1 bd 3e 4f 2e bf 05 f5 61 3d 98 63 50 3e
       -0.102370895 -0.68089664 0.05516531 0.20350492
0000b0 8f 4c 8f be 4f 92 92 3e 2d 21 0f be f5 33 21 bf
       -0.27988097 0.2862725 -0.139775 -0.62969905
0000c0 bd 27 0a 3f d6 df d2 3e e6 2a e7 3e f6 77 1a 3f
       0.53966886 0.41186398 0.45149916 0.60339296
0000d0 3c db 89 3e d5 98 b6 3e 1d 7a 15 3f aa 67 04 be
       0.26925075 0.35663477 0.58389455 -0.1293017
0000e0 34 2b 0a bf 0e b0 9e be 10 17 dd bd 41 12 c7 bd
       -0.5397217 -0.30993694 -0.107954144 -0.097202785
0000f0 cc 2c 99 bc 89 73 ca 3e 5e fd 84 3e 46 5c fb be
       -0.018698119 0.3954127 0.25974554 -0.49093837
000100 c2 4c 56 be c4 5a 41 be 4b f7 d1 3e 01 50 70 be
       -0.20927718 -0.1888228 0.41008982 -0.23468019
000110 e9 b5 8d be 4a 2b d9 bd 53 cb 2f be f2 5a 4a be
       -0.2767785 -0.1060396 -0.17167406 -0.19761255
000120 20 8e 39 bf 52 d2 21 3f 94 e4 db 3e e9 bf a9 be
       -0.7248249 0.6321155 0.4294783 -0.33154228
000130 3b 8c ea be 66 b3 56 3d 1f c8 db 3e c2 a8 04 bf
       -0.45810112 0.05241718 0.42926118 -0.51820004
000140 f6 1e 92 be 5b c0 a6 3e 14 a1 e7 be 4a 13 a6 bd
       -0.28539246 0.3256863 -0.4524008 -0.08109148
000150 0b 6c 16 bf 94 08 25 3f 16 30 e9 3e 43 62 1e bf
       -0.5875861 0.64466214 0.455445 -0.61868685
000160 6d 43 ce be 92 f6 6f 3e 73 38 fd 3c 14 52 23 3e
       -0.40285817 0.23433903 0.030910706 0.15949279
000170 ed 88 18 bf b9 c2 f1 be cc e0 a0 3e 94 64 00 bf
       -0.5958393 -0.47218874 0.31421506 -0.5015347
000180 88 36 26 be 60 88 9d 3e 88 b4 b6 3e c0 36 54 3d
       -0.1623174 0.30768108 0.3568461 0.051810026

input_layer.bias f4 [50]
000000 76 d8 5e 3e e3 6e 97 3e f8 da ac bd 5e 09 4d be
       0.21762261 0.29576787 -0.084402025 -0.20023105
000010 94 a2 0a 3f c2 7e 33 3f a5 a6 96 3e a8 7f 94 be
       0.54154325 0.7011529 0.29424015 -0.29003644
000020 14 3d 18 bf c3 76 35 bf d6 13 df 3c 2f d7 92 be
       -0.594682 -0.7088434 0.027231138 -0.28679797
000030 59 75 49 be d8 cf d9 bd 55 4d 28 3f da a7 2d 3f
       -0.19673671 -0.10635346 0.65743 0.67834246
000040 59 cc 76 bd 5e 4a 6d be af 9a b4 3e 68 41 74 bc
       -0.060253475 -0.231729 0.35274264 -0.014908172
000050 ec 7d 33 bf cb eb 6e 3e c3 e0 30 3f cb 06 08 bf
       -0.70114017 0.23332135 0.6909296 -0.53135365
000060 31 4d 34 be f1 67 54 3d 3f 3e 16 bf bd f2 1a bf
       -0.17607571 0.05185694 -0.5868873 -0.6052664
000070 46 01 10 3f 3c aa 73 be 53 ed d4 3e cc 34 a1 3d
       0.56251943 -0.23795408 0.41587314 0.07871398
000080 a5 b5 1f 3e a1 be fb be a2 59 22 be 3a 2d e7 3e
       0.15596636 -0.49168876 -0.15854505 0.45151693
000090 6b 5b 78 3e ff 2e 2d be c4 dd e6 3d d2 07 08 3f
       0.24253623 -0.16912459 0.11272767 0.5313693
0000a0 04 e2 19 bf 75 26 e8 3e 2c ae 30 be 08 74 cb bd
       -0.601105 0.4534184 -0.17253941 -0.099342406
0000b0 24 57 a8 3e 94 86 19 bf b2 50 95 bd ee 1a 33 3f
       0.32878983 -0.59970975 -0.07290782 0.69962966
0000c0 60 e0 7a 3e bf f1 82 be
       0.24499655 -0.25575063

hidden_layers.0.weight f4 [50, 50]
000000 60 d4 91 3c fd b4 14 3e 3e 0a ab 3d 27 0b e6 3d
       0.017801464 0.14522167 0.08351563 0.11232596
000010 71 fc a9 bd c2 aa 81 3d 13 a4 41 3d e1 6b fa 3c
       -0.083001025 0.063313976 0.047275614 0.030569019
000020 c9 b2 fd 3d 36 92 95 3d df 8a be 3d aa 4d 8c 3d
       0.12387616 0.07303278 0.09303831 0.06850751
000030 0e a1 f7 3c 1a 35 10 bd 4d 95 0a be 67 68 d5 bd
       0.030228164 -0.03520689 -0.13533516 -0.10420304
000040 ba 26 e7 bd 2a 09 d5 bd cb 0e 72 3d 60 39 d6 3c
       -0.112866834 -0.104021385 0.05909614 0.026150405
000050 fb bd 7c bd 24 bd b6 bd d5 e9 30 3e 62 a5 ae 3d
       -0.061704617 -0.089227945 0.172767 0.08527638
000060 a6 cc 5e 3d d2 3c 2d 3e c5 36 de bd a8 37 f8 bd
       0.054394387 0.16917732 -0.1085029 -0.121199906
000070 5e 74 0c bd 38 54 ac bc 16 66 cf bd 27 22 e0 3d
       -0.034290664 -0.021036252 -0.10126893 0.10944014
000080 65 22 d4 3c f3 5d 0c 3d 09 9e a8 bd 22 0f 66 3c
       0.025895307 0.034269284 -0.08233268 0.014041694
000090 fd d6 3d 3d 28 ed 8f bd 86 ee 29 3e 98 91 aa bd
       0.046347607 -0.07027656 0.16594896 -0.08328551
0000a0 92 9d 21 3d d1 4f 58 bd 63 ef 51 bb 51 a1 44 bd
       0.03945691 -0.052810494 -0.0032033555 -0.048005406
0000b0 ad a8 c7 3d bb 32 96 3d e1 a5 b8 3c 0f a7 b4 bc
       0.09748969 0.07333895 0.022540035 -0.022052316
0000c0 bf d4 33 bc c9 e5 97 3d fa 33 da bc 21 00 dd 3d
       -0.010976016 0.07416875 -0.026636112 0.1079104
0000d0 d5 74 4d bd 5c 4c 09 3e 41 80 15 3e c2 eb b8 3d
       -0.050160248 0.13408035 0.14599706 0.09029342
0000e0 31 a0 71 3d f8 93 4d 3d f9 d8 98 bd fc 71 d4 bb
       0.05899066 0.050189942 -0.07463259 -0.0064833146
0000f0 b1 50 50 3d 47 82 0f bd ce b1 79 3c dd 4d b1 3d
       0.050858203 -0.03503635 0.015240146 0.08657429
000100 0e fd ed bd f8 e3 fd bd 64 48 b5 bd 32 71 44 3c
       -0.11620532 -0.12396997 -0.08851698 0.0119898785
000110 89 9f 00 bd 76 b7 9b 3c dd 80 c0 bc ec 54 cc bd
       -0.031402145 0.01900838 -0.023498947 -0.09977135
000120 a1 f4 a5 3c ef 0f dc 3d 23 1a ce bd 1d 3d cb 3d
       0.02025825 0.107452266 -0.10063579 0.09923766
000130 96 40 ef 3c 21 68 0a 3e d5 33 01 be 13 0b 06 be
       0.029205602 0.13516285 -0.12617429 -0.13090162
000140 91 bf 25 3d b9 21 01 be 8b e2 df bd 65 0b 8c 3d
       0.040465895 -0.1261052 -0.109318815 0.06838111
000150 19 64 a4 3d ce 84 fe bd 25 c8 ed 3d 71 0a f6 bc
       0.080269046 -0.12427674 0.1161044 -0.030034276
000160 20 2d e5 3d d1 25 8b bd 29 e0 11 be 48 4b b8 bd
       0.111902475 -0.06794322 -0.14245667 -0.08998734
000170 58 be ac bc 30 72 11 be db 62 cd bb 60 40 98 bd
       -0.021086857 -0.14203715 -0.006267888 -0.074341536
000180 b3 bc d9 bb e5 17 7f 3c 1d 20 96 3b af 2f 12 be
       -0.006644809 0.015569662 0.004581465 -0.14276002
000190 c5 aa 95 3d 36 12 9e bd 8d 25 e6 3d a2 d4 e6 3d
       0.07307962 -0.07718317 0.11237631 0.11271025
0001a0 94 82 ee bc fa 4c fa 3c 24 07 ad 3d 3e 26 ca bc
       -0.029114999 0.030554283 0.084486276 -0.024676438
0001b0 48 e9 0c be 81 c8 2d 3d 34 05 78 3d a6 bb b9 bd
       -0.13760865 0.042427544 0.060551837 -0.09068994
0001c0 ec 0f af bd 7a 50 15 bd 51 b8 49 3d 7d 28 59 bd
       -0.08547959 -0.0364537 0.049248043 -0.05301713
0001d0 ad 8b 95 bc f1 62 9c bd d5 e6 26 bd fa 47 81 bd
       -0.01825508 -0.07636059 -0.040747482 -0.063125566
0001e0 c9 d3 70 bd 9a e3 f3 3d ab 65 4a 3d e8 e3 f9 3d
       -0.058795724 0.11908646 0.049413364 0.12201673
0001f0 68 bb 07 3e 08 59 f3 3c 20 73 91 bd 0a d1 9b 3d
       0.13255084 0.02970554 -0.071020365 0.076082304
000200 9a 25 81 3b 77 36 bb 3d bf 75 b6 bc 39 52 f2 3d
       0.00394125 0.09141248 -0.022272943 0.11832089
000210 cd 93 f9 3c 9a b4 2b bd 65 30 d8 bd 08 3a f4 3d
       0.030465985 -0.041920282 -0.105561055 0.11925131
000220 01 80 49 3d 1a b5 12 3d a7 8c 88 3d 9a 32 1b 3c
       0.04919434 0.035817243 0.06667452 0.009472514
000230 87 52 b8 bd 12 e8 fc bc 66 81 99 3b d5 fb 92 3d
       -0.09000116 -0.030872378 0.004684615 0.071769394
000240 9e 8f a1 3a f1 95 54 bd 61 b9 36 bd 13 cd 2c 3d
       0.0012326126 -0.051900808 -0.044610385 0.04218776
000250 ad 63 f9 3d dc 0c c6 3d d8 fa 67 ba f2 a3 56 3c
       0.12177215 0.096704215 -0.00088493293 0.013100611
000260 67 70 0a 3e 6a 26 c7 3d 09 bd 1c bd cc f3 63 3d
       0.1351944 0.09724124 -0.038266215 0.055652425
000270 c3 2d 1a 3d 6e 76 93 bc cb 4f a9 3d 21 1e 18 3d
       0.037641298 -0.018000808 0.082671724 0.03713811
000280 0f ed 40 bd ff 30 38 3c d4 18 ea 3d 9e fb 6b 3d
       -0.047101077 0.01124215 0.11430517 0.057613008
000290 3f dd 0e be 13 17 87 3d 0c f0 17 3d d3 58 ab 3d
       -0.13951586 0.06596198 0.03709416 0.08366551
0002a0 39 22 e2 bc 5f 87 a7 3d 0a 8d 6d 3d f6 1e db 3d
       -0.02760421 0.08180117 0.057995833 0.10699265
0002b0 13 38 72 3d 8b 45 3c bd 9d 07 6e 3d 35 29 0c bd
       0.059135508 -0.04596476 0.05811273 -0.034218986
0002c0 57 0c db 3d 8a 44 21 bd 1f f2 4d bd 25 30 1a 3e
       0.10695713 -0.039372005 -0.050279733 0.15057428
0002d0 13 d5 29 3c 07 d0 ab 3c 8c 3b fe 3b f4 e7 98 3c
       0.010365742 0.020973219 0.0077585634 0.018665291
0002e0 1a c0 fd 3c 34 8d 0d be 02 bb f9 3d be bc 11 3e
       0.03097539 -0.13823396 0.12193872 0.14232156
0002f0 58 64 c9 bd 72 56 8c 3c b9 4d 0f 3e 19 bb 8a 3c
       -0.09833592 0.017131064 0.13994493 0.016934918
000300 42 49 79 3d 55 94 e7 3d b3 ed 54 3d c9 dd b8 bb
       0.06086088 0.11307589 0.0519845 -0.005641673
000310 ae cd 96 bd d3 4e af bd 48 a6 c0 bd 47 e8 11 3c
       -0.07363449 -0.085599564 -0.09406716 0.008905477
000320 f2 8d be bd f6 2d ba 3d a6 15 a4 3c de 82 6d bd
       -0.09304418 0.090907976 0.020029854 -0.057986133
000330 b0 fe b3 bd 73 53 44 3d d6 9e c8 bc 5e ec f6 3c
       -0.08788812 0.047931146 -0.024489801 0.030142006
000340 44 be a8 3c 88 0f e0 3c 81 3b 81 bc 51 a8 d4 bc
       0.020598538 0.027351156 -0.015775444 -0.025959166
000350 2b 68 38 bd 6c 16 59 3d c6 69 d9 bd 57 4b db ba
       -0.045021217 0.0529999 -0.10615878 -0.0016730827
000360 c5 6c 52 bd 80 1d 09 be 6c 09 17 3d 85 07 88 3d
       -0.051373262 -0.1339016 0.03687422 0.06642059
000370 5c 8a f6 3d 4f 32 c0 3d 5e 3c 0d 3e 91 92 ef bd
       0.12038109 0.093845956 0.1379256 -0.11697877
000380 fd fc 02 be 6f 9a 56 3d 06 44 86 3d 81 73 7e 3d
       -0.1279182 0.052393373 0.06555943 0.06212187
000390 bc 6d b0 bd 7f b4 e2 3d 5e 48 f7 bd dd e6 1f 3d
       -0.0861468 0.11069583 -0.1207435 0.039038528
0003a0 5a a7 6d bd a2 ac 48 bd 15 4a e0 3d 1e 4b fb 3d
       -0.058020927 -0.04899276 0.1095163 0.12270187
0003b0 83 d6 0e 3d 5c 0a 90 3d 2b 60 59 3b 60 7f cd bd
       0.034872543 0.07033226 0.0033168893 -0.100340605
0003c0 39 12 39 3d 7e 17 fc 3d 2a 87 56 3d 2c fe ee bd
       0.045183394 0.12309168 0.052374996 -0.11669573
0003d0 fe 65 06 bd 0c d1 3c 3d 3f ad bb bc 5e 41 69 bd
       -0.03281211 0.0460978 -0.022909759 -0.056947105
0003e0 74 75 00 be ae 2d 91 3c 66 4a 2f 3d 5e 2a ec bd
       -0.12544805 0.017721977 0.04279556 -0.115315184
0003f0 3d 7c 4e 3d a6 08 21 3d 45 4f 82 3d a6 6c be 3d
       0.05041145 0.03931489 0.06362776 0.09298067

hidden_layers.0.bias f4 [50]
000000 71 35 d4 bd c7 76 bc bd 12 9e 18 3e 55 25 91 bc
       -0.10361756 -0.092023425 0.14904049 -0.017717997
000010 29 d6 2f bd 3c 96 2e bd 3a 23 a0 bc 11 5f c2 bb
       -0.04292885 -0.042623743 -0.019548047 -0.005931743
000020 d6 28 f9 bd 2d d0 a0 3c 02 6c a6 bd 3f 13 04 3c
       -0.12165992 0.019630516 -0.081260696 0.008061229
000030 f3 c7 3e bc a7 f8 07 3e 47 c3 f3 3c da ad 00 be
       -0.011644351 0.13278447 0.029756201 -0.12566319
000040 3d fd fe 3d 43 90 22 be 02 49 e7 3d cc 88 d9 3d
       0.12450645 -0.15875344 0.11293222 0.10621795
000050 07 98 71 bd 5c 3a 16 bd d9 b3 05 3d 9e 35 86 3d
       -0.058982875 -0.03667675 0.03264222 0.065531954
000060 b7 5d 01 3e 86 5d 43 bd 0c a1 e4 3d ee 4d cb 3a
       0.12633406 -0.047696613 0.1116353 0.0015510896
000070 f2 f1 66 bd 3f 41 c8 3d 53 51 ee 3d 19 96 8f bd
       -0.05638308 0.0977807 0.11636605 -0.07011051
000080 51 fc aa bd a1 4f 11 bd 01 7d 8e bd fd 9d a4 bd
       -0.08348907 -0.03547633 -0.06957436 -0.080379464
000090 df 72 c0 3d a2 be f6 bd 47 00 95 bd a7 a9 1d 3d
       0.0939691 -0.12048079 -0.072754435 0.03849187
0000a0 39 81 61 3c 7e 9f 86 3d 96 1b 9a bc 09 dd 86 3d
       0.013763719 0.065733895 -0.018811982 0.06585128
0000b0 71 ff 38 bc 58 50 12 3e 08 ab 87 bc 49 8f c9 3d
       -0.011291371 0.14288461 -0.016561046 0.098417826
0000c0 5b e5 b1 3d 71 ca 96 3d
       0.08686324 0.073628314

hidden_layers.1.weight f4 [50, 50]
000000 5c 55 ac bd c1 f5 88 3d 86 b7 ae 3b 43 91 a9 bc
       -0.084147185 0.06687499 0.0053319363 -0.020699149
000010 79 b7 c1 bd 1c d6 f6 3d f0 21 4d 3d 3d 7d bb bd
       -0.09458823 0.12052557 0.050081193 -0.09154747
000020 32 40 9b bd 9a ec 6a 3d 2b a3 cc bc 5f 0f f9 3c
       -0.07580604 0.057354547 -0.024980148 0.030402837
000030 d8 ee 81 3d 9e 0f 14 be f1 09 9d bc e0 b9 e5 3d
       0.06344384 -0.14459082 -0.01916978 0.112170935
000040 16 a4 b5 3d 0d e0 f2 3d 4a be 55 bc 2c b2 d0 3d
       0.088691875 0.118591405 -0.013045857 0.101902336
000050 6e 22 44 bd d5 0c 1a 3d b3 3e 79 bd d7 d4 e3 bd
       -0.047884397 0.037609894 -0.06085081 -0.1112458
000060 44 45 d7 bc 38 c0 f9 bd 9b 1d 24 be 7c d0 a6 3b
       -0.026278146 -0.12194866 -0.16026919 0.0050907712
000070 a5 8d 7b 3b 55 db 82 3d 5c ed e8 3d be f7 15 bd
       0.0038383987 0.063894905 0.11373398 -0.03661322
000080 2e d4 95 3d fc 26 b0 3d 3f 24 d6 bd 16 26 00 3e
       0.07315861 0.08601186 -0.10456132 0.12514529
000090 96 dd f8 3d 43 7a 1b bc dd 80 41 bd 21 9f a5 3d
       0.12151639 -0.009489599 -0.047242034 0.08086992
0000a0 ee a2 98 3d e7 91 8e 3d 8c 2a c1 3c cb ed e9 ba
       0.07452951 0.069614224 0.023579858 -0.0017847357
0000b0 58 1f 84 bc 49 9e 92 3d 40 8c 0e 3b 30 27 6c bd
       -0.016128227 0.07159097 0.0021751076 -0.05765456
0000c0 7b e6 d4 bd 97 24 39 3d 11 1a 0c 3d 26 b8 07 3e
       -0.10395523 0.04520091 0.034204546 0.13253841
0000d0 5b 02 30 3d 3d 29 18 3e f6 94 88 bd 88 f5 d9 bd
       0.042970996 0.14859481 -0.06669037 -0.106425345
0000e0 cb f5 12 bd d1 42 60 bd 59 8a de bc 27 7b 59 bd
       -0.035878938 -0.05475122 -0.027165579 -0.053095963
0000f0 26 d0 0b 3e a9 b6 97 3d 66 f7 17 3b 96 0d 52 3c
       0.13653621 0.074078865 0.0023188232 0.012820622
000100 c1 1c 14 3e 9f e0 09 3d 7b 6e fa bc 94 8c 1e be
       0.14464094 0.03366148 -0.03057026 -0.15483314
000110 8b d2 07 be 3e 65 43 bd 6b 1c 59 3d 58 a8 59 3d
       -0.1326391 -0.047703974 0.053005617 0.05313906
000120 c0 21 c7 3d eb 5c 2b 3d a2 ee 72 bd 1e 8e 74 3d
       0.09723234 0.04183666 -0.05930961 0.059705846
000130 f7 82 98 3d b6 fe 67 3d 57 f9 03 3e c4 ca a9 bd
       0.074468546 0.056639396 0.12888084 -0.082906276
000140 38 85 03 3d f9 12 16 bd dc 3c 11 3e 0d 93 ba bd
       0.03210947 -0.036639187 0.14183372 -0.09110079
000150 34 16 01 3d b6 d5 ca bd 85 3b c6 bd 69 82 f3 bd
       0.031515315 -0.099040434 -0.09679321 -0.11890108
000160 85 6d 23 3c c1 bd cd 3d 0d b3 76 bd 0f 25 c3 3c
       0.009974842 0.10045958 -0.06022935 0.023821382
000170 af 6b 0e be 54 52 fc bd ae 5e a6 3d 43 d3 44 bc
       -0.13908266 -0.1232039 0.081235275 -0.012013259
000180 21 0b 22 bc fe 9a a8 bd c1 73 b7 3d 6d 47 03 be
       -0.009890349 -0.082326874 0.08957625 -0.12820216
000190 e5 b7 a7 bd 50 db a1 3d fd ec 92 3d 2e b1 0f be
       -0.08189372 0.07903159 0.07174108 -0.14032432
0001a0 cc 4b 18 be 77 17 a9 bd 0a ed 13 be 24 c1 bd 3d
       -0.14872664 -0.08256429 -0.14445892 0.09265354
0001b0 88 3a a1 bd 46 03 48 3d ca 37 fe bd 90 f1 b9 3c
       -0.07872492 0.048831247 -0.12412985 0.022698194
0001c0 2f 56 00 3e 7a cd bd 3d 14 78 06 3e 20 11 f8 bc
       0.12532876 0.09267707 0.13131744 -0.030281603
0001d0 2c 87 a9 bc 96 b3 ff bd b6 e2 82 bd 59 f6 96 bd
       -0.020694338 -0.12485425 -0.06390898 -0.07371206
0001e0 a1 10 db 3a 8c 7b 6e 3c 4f b5 07 bd 48 14 88 bd
       0.001671333 0.014555823 -0.033131894 -0.06644493
0001f0 2f 67 05 3e 94 d6 5c 3c fa 53 ef bd 8d 56 0d bd
       0.13027643 0.013478894 -0.11685939 -0.03450637
000200 95 11 87 3d 5b 31 fe bd 0b 1d 13 3e e5 ee d7 bc
       0.065951504 -0.124117576 0.14366548 -0.026359031
000210 74 3c 86 3d c0 5b de bc c5 79 c6 bd a6 44 83 3d
       0.06554499 -0.02714336 -0.096911944 0.06409578
000220 15 5f 4f 3d a4 3b 8c bd 0d 74 4d 3d 64 f1 9f bd
       0.050627787 -0.06847313 0.050159503 -0.078097135
000230 d8 06 c0 bd d1 ca 02 be d9 cb ba 3d e5 9d eb 3d
       -0.09376305 -0.12772681 0.09120912 0.11504725
000240 c4 1e ae 3d 87 81 e2 3d 77 02 11 3e b7 d1 37 bc
       0.08501962 0.11059862 0.14161097 -0.0112194335
000250 32 41 06 be 7b 1f ce bd ba a6 a6 3d c8 39 f3 bd
       -0.13110808 -0.10064598 0.08137269 -0.11876255
000260 4e 61 4d 3b 82 61 80 bc 79 a4 80 bc 5b 33 06 be
       0.0031338516 -0.015671495 -0.015703427 -0.13105528
000270 9c c1 c1 3d 1e 5e 0e bd 1f 71 50 bd a2 5e 8f bd
       0.09460756 -0.034757726 -0.05088913 -0.07000472
000280 12 cd d6 bc 06 16 b3 bc 33 95 d9 bd 95 e3 0a 3e
       -0.026220832 -0.021861088 -0.106241606 0.13563378
000290 c4 2a 08 3d 9c d7 bd 3b ee 4c d9 bd 8f 54 fc 3d
       0.03324391 0.005793525 -0.10610376 0.12320816
0002a0 8c d3 2a bd a5 ce db 3d cb 6b 64 bd 26 5a 07 3b
       -0.041705653 0.10732774 -0.055766862 0.0020653098
0002b0 50 4e df 3c 00 65 4a bc 0a fb ee bc 53 52 1b bd
       0.027259022 -0.012353182 -0.02917244 -0.037920307
0002c0 7b ab 91 bd 11 fb b8 bc 2b 4d db bd 89 83 03 3e
       -0.071127854 -0.022580655 -0.10708078 0.12843145
0002d0 5b 71 21 bd 7d e3 78 bc 0d 3d d8 bd 12 89 b4 bd
       -0.039414745 -0.015190956 -0.105585195 -0.088152066
0002e0 2f e3 e8 bd af d6 22 3d 9b c6 11 3e b1 af 37 3c
       -0.11371457 0.03975552 0.14235918 0.011211322
0002f0 f1 40 bf 3d 43 3c 19 be ce 5a f5 bd 02 fd 96 3d
       0.093385585 -0.14964394 -0.1198021 0.07372476
000300 f3 c7 be bd ec ba a2 bd 1a c2 e0 3d a9 32 35 3c
       -0.09315481 -0.07945809 0.10974522 0.011059442
000310 ac 0d d6 3d 1b d1 80 bd fc db 84 3c dd 44 f9 3d
       0.104518265 -0.06289884 0.016218178 0.12171338
000320 72 f5 72 3c 92 1a 99 3d 8e 32 12 3e 01 93 ea 3d
       0.014829027 0.07475771 0.14277098 0.1145382
000330 1c 90 de 3d cf 12 aa bd 56 24 36 3d 62 26 05 bb
       0.108673304 -0.08304369 0.044468246 -0.0020317067
000340 3f 79 6a bd 83 ce 9e bd 30 3b 95 3d e5 6b 8d 3d
       -0.057244536 -0.07754233 0.0728668 0.06905345
000350 bc 8b 2e 3c cd 09 00 3e 4b 3d 60 3d c2 e1 c4 3d
       0.010653432 0.12503739 0.054745954 0.096133724
000360 29 85 95 3d 31 51 0e bd 49 fb 2c bd a3 a7 ee bd
       0.07300789 -0.0347454 -0.04223183 -0.11653068
000370 bf 0c 1b 3e 1f 9b 15 bd 94 4e 91 3d f2 93 8e 3d
       0.15141581 -0.036524888 0.07095066 0.06961812
000380 b8 af bd bd d9 89 91 3d 01 93 9e 3d 89 ac 90 bd
       -0.09262031 0.071063705 0.077428825 -0.070641585
000390 25 f1 3e bd f1 de 27 3d f3 4f ff 3d 97 ce 08 3e
       -0.046616692 0.040984098 0.12466421 0.13360058
0003a0 3e 0b cb bc ad d2 82 bd 1a 3e 7a 3d bd 44 ab bc
       -0.024785634 -0.063878395 0.06109438 -0.0209068
0003b0 b8 e2 ba 3c f0 75 e1 bd 6b 7e cd 3b 8d 3d a9 3c
       0.022813186 -0.11008823 0.0062711737 0.020659233
0003c0 34 37 59 bd b4 07 f5 3c 13 53 da 3d 63 21 18 be
       -0.05303116 0.0299109 0.106603764 -0.14856486
0003d0 bf 12 11 3e 7e 9f a9 bd ea a5 e8 bd fc b3 c4 3c
       0.14167307 -0.08282374 -0.113597706 0.024011604
0003e0 55 ed 10 3e 0b 16 d2 bd ff 7a 0d be a4 ec d8 3d
       0.14153035 -0.102581106 -0.1381645 0.105920106
0003f0 b1 ce 72 bd 14 c1 06 be 5c 02 0b be 69 b5 4c bd
       -0.059279148 -0.13159591 -0.13575119 -0.049977694

hidden_layers.1.bias f4 [50]
000000 a2 7f cf 3d 64 9b 7b 3c cc f3 31 bd 20 4c ac 3d
       0.10131766 0.015356872 -0.043445393 0.08412957
000010 de f3 08 3e af 0f 60 bc 4d e0 09 3e 6b c2 fc bc
       0.13374278 -0.013675614 0.1346447 -0.030854424
000020 2e 09 37 bd e8 25 cb 3d 13 82 98 3d 7c 7d 06 be
       -0.04468649 0.099193394 0.07446685 -0.13133806
000030 f3 13 4a bc b8 26 3f 3d e4 9f 39 bc 99 0e ac bd
       -0.012333858 0.046667784 -0.011329625 -0.08401222
000040 df a0 3a 3d 61 a0 a0 bd 6c c2 1c 3d 00 65 1a 3a
       0.045563575 -0.0784309 0.038271353 0.0005889684
000050 52 7d e3 bb f8 97 b6 3a 0c c4 d0 bc c6 8a f9 bd
       -0.0069424296 0.0013930788 -0.025484107 -0.12184672
000060 2d 23 84 bc 31 f4 87 bd 80 82 be bd 0d 1f 6b bd
       -0.016130054 -0.06638373 -0.09302235 -0.05740266
000070 9b 97 36 bd 3e 07 f3 3c 96 67 fc bd 91 e6 f2 3d
       -0.044578176 0.02966654 -0.12324445 0.11860383
000080 f8 73 e5 bc 32 a7 24 bd 06 41 33 bd 5e a0 75 3d
       -0.0280094 -0.040198512 -0.043763183 0.05996739
000090 84 5c a1 3c 53 47 fd bd 75 9e 34 bd 98 02 04 be
       0.019697435 -0.1236712 -0.04409643 -0.12891614
0000a0 ae 6e 02 be 3c 90 22 be f4 4a 65 bd 9b 48 b4 bc
       -0.12737533 -0.15875334 -0.055979684 -0.022007277
0000b0 02 06 7c 3d b5 9d e2 bc 08 3d 8b bd e3 73 8f 3d
       0.061529167 -0.027663091 -0.0679875 0.070045255
0000c0 80 38 d7 bd be 30 20 3a
       -0.105088234 0.0006110779

output_layer.weight f4 [2, 50]
000000 2d 31 23 bc 65 f7 15 be 14 36 70 3d e2 61 66 bd
       -0.009960455 -0.14645155 0.058645323 -0.056245692
000010 23 30 b4 bd 3e 03 e0 bb 9b 08 97 3d e9 69 8c bc
       -0.08798244 -0.006836324 0.07374688 -0.017140346
000020 9a 7b f5 3d f1 85 8c 3d bb 43 63 3d 67 75 32 bd
       0.11986466 0.06861485 0.055484515 -0.043568995
000030 9e cf f8 bd 14 0b bb bc 9e 2a 31 bc ff 1d eb 3d
       -0.12148975 -0.02283243 -0.010813383 0.11480331
000040 79 1b b8 3d f6 be 1b 3d 11 a8 61 3d 13 a4 62 bd
       0.08989615 0.03802391 0.05509192 -0.055332255
000050 55 1b 61 3d 15 8b 70 bd 44 a2 83 3d 42 23 a6 3c
       0.054957706 -0.05872639 0.06427434 0.020280484
000060 46 9f b0 3c bf 28 5e bd ae 03 47 bd 04 f2 e6 bd
       0.021560322 -0.054238077 -0.048587494 -0.112766296
000070 cc 7d 5b 3d 2b 81 06 3e d0 6b f0 3d 23 71 85 bd
       0.053586766 0.13135211 0.117393136 -0.0651572
000080 1d 69 29 3d 79 4f 4b 3e a0 c1 79 bd b6 c8 84 bd
       0.04136001 0.19854535 -0.06097567 -0.06483595
000090 c3 35 4a 3c f4 48 bd 3d 28 35 91 bc d3 36 a7 bd
       0.012341919 0.0924243 -0.017725542 -0.08164754
0000a0 b6 3b 58 3d ae ac db 3d 3a df 0a be 9a a7 2b be
       0.05279132 0.107262954 -0.13561717 -0.16763154
0000b0 fe cc 98 3d 69 9d 66 bd b2 5b 23 3d 27 de 97 bd
       0.07460974 -0.05630246 0.03988237 -0.07415419
0000c0 5f f6 31 3d 39 bb bb bd 21 65 ea 3c d6 34 fe bd
       0.04344785 -0.09166569 0.028612675 -0.124124214
0000d0 72 2d be bc 12 a9 08 be 53 e9 dc bc 43 e3 95 3d
       -0.02321503 -0.13345745 -0.026966726 0.07318737
0000e0 07 a8 25 be 47 00 3c 3c 56 6c 02 be b5 14 bf bd
       -0.16177379 0.0114746755 -0.1273664 -0.093301214
0000f0 ee e2 51 bd 0d 61 c7 3d 98 86 2c 3e 88 87 67 3d
       -0.051241808 0.09735308 0.16848218 0.056525737
000100 ac d3 d1 3d d0 c3 e4 bd fc 9f 32 bd 6b 07 0e 3e
       0.10245451 -0.11170161 -0.043609604 0.13870017
000110 82 ef 1f 3e 43 04 a0 bd 84 23 ce bd 0c 24 45 bd
       0.15618709 -0.07813313 -0.10065368 -0.04813008
000120 52 4f 8e 3d 43 14 d3 bc 29 90 b3 bd fd a2 78 3d
       0.06948723 -0.025766497 -0.08767731 0.060702313
000130 4d c4 b9 3d eb 9e ed bd bb fd be 3d 63 bd c8 bd
       0.090706445 -0.11602577 0.09325739 -0.09801748
000140 ee f7 e0 3d 64 fe f7 3d 09 cf c3 bd 8c 5d d2 3b
       0.10984789 0.12109068 -0.09560973 0.006419843
000150 3d 74 2e 3e 6d 6d e4 bc 08 9e 03 3e 7f 5b 34 3e
       0.17036529 -0.02788421 0.12853253 0.17613028
000160 80 bb 86 3b 33 00 8e 3d 46 48 eb 3d b9 21 37 3e
       0.004111707 0.06933632 0.114883944 0.17883958
000170 c5 eb c9 3c 2e 56 ab 3d d2 45 e6 3d 36 72 b8 bc
       0.024648556 0.08366047 0.11243786 -0.022515398
000180 89 5b e7 3d 17 b0 c8 bc f0 f0 e3 3d 5e 9c ff 3d
       0.11296756 -0.024498029 0.111299396 0.124809965

output_layer.bias f4 [2]
000000 36 19 4f 3d bb 00 8c 3a
       0.050561152 0.001068137

exp_avg f4 [5]
000000 42 eb a4 c3 ce 97 e6 c3 4e 15 13 c4 00 00 00 00
       -329.83795 -461.18597 -588.3329 0.0
000010 c1 1d 1c c4
       -624.4649

exp_avg_sq f4 [5]
000000 65 3f 58 45 b1 d0 d2 45 09 a0 29 46 00 00 00 00
       3459.9622 6746.0864 10856.009 0.0
000010 c0 06 3f 46
       12225.6875

exp_avg f4 [50, 2]
000000 31 cb d0 be 32 bd 1b c0 8b 08 22 3f 7a 41 d4 3f
       -0.40780023 -2.4334226 0.63294286 1.6582482
000010 bd bd 83 3f 98 6c 10 38 3d 47 d3 3d 1c fe 49 be
       1.0292279 3.443341e-05 0.10316322 -0.19725841
000020 ac fa 5a 3f f4 b0 00 c0 54 df c5 3f 82 3a aa bf
       0.85538745 -2.0108004 1.5458779 -1.3299105
000030 c6 a3 f0 3f 0c 24 9e bf c3 70 06 40 93 2d 38 c0
       1.879998 -1.2354751 2.1006324 -2.8777816
000040 e4 fe 97 3e fa 1f 52 bf a2 64 03 c0 7a 5f 3c 40
       0.29686654 -0.8208004 -2.0530171 2.9433274
000050 34 75 8f 3f 62 5a 07 c0 b6 5f 0e 3f ae ca f6 3e
       1.1207643 -2.1148915 0.55614793 0.48201507
000060 93 0b 14 3e 73 67 a3 40 e3 b0 29 bf 4e 08 24 3f
       0.1445754 5.106378 -0.6628553 0.6407517
000070 fc c0 9c 3f 07 3a 69 c0 a3 a9 26 40 98 e4 cc c0
       1.2246394 -3.6441667 2.6041038 -6.4029045
000080 88 9d b4 3e d6 8f 84 3f a2 15 f3 3e 42 a1 53 40
       0.35276437 1.0356395 0.47477442 3.3067174
000090 6e 5f 3e bf b8 fb 91 3d 0b 90 be be 93 2d fd be
       -0.74364364 0.0712809 -0.3721927 -0.49448833
0000a0 91 b9 9f be f6 4c c3 3e 97 c9 e1 3d 13 e4 de bf
       -0.31196263 0.38144654 0.11024778 -1.7413353
0000b0 6b 9b 10 bf b9 97 a3 bf bd 03 67 3f 6e ab 35 be
       -0.5648715 -1.2780677 0.9024008 -0.17741176
0000c0 57 b0 ba 3e 04 f5 95 40 78 82 d5 bf 0e 13 3e 3f
       0.36462662 4.686159 -1.6680441 0.74247825
0000d0 44 c3 70 3d 82 ac 7c 40 f2 0c 80 3f a3 5f 89 3f
       0.05877997 3.948029 1.000395 1.0732311
0000e0 19 47 a6 bf 03 ea 39 c0 54 8a 94 3f 11 e0 dd bd
       -1.2990447 -2.904908 1.1604714 -0.10833753
0000f0 fb 07 90 3f 30 74 38 bf 14 6a 66 3e 76 56 f0 bf
       1.1252435 -0.7205229 0.22501403 -1.8776386
000100 9d 57 48 bd 5b cc f1 3f fd 0d 6b 3f 55 f9 16 3f
       -0.04891168 1.8890489 0.9181822 0.589742
000110 54 e8 a2 bf 63 04 85 40 83 94 dc be 15 7a 80 3f
       -1.2727151 4.1567855 -0.43082055 1.0037256
000120 56 45 85 3f 74 a8 38 3f 9f 5c ac 3e 1f ef 08 40
       1.0411785 0.7213204 0.33664414 2.1395948
000130 7f b1 f0 3e fe 2c d2 c0 39 4f c7 bf 26 dd 71 40
       0.4701042 -6.567992 -1.5571052 3.7791228
000140 0c d4 2f 3f 83 64 09 c0 0f 5a 3f be a4 8e 07 c0
       0.6868293 -2.1467597 -0.18686698 -2.118081
000150 e4 04 fe be 39 18 94 40 9b bb c1 3c fa df 41 bc
       -0.49613106 4.627957 0.023649028 -0.011833185
000160 94 6f 86 3e 65 f5 b2 be a5 c0 57 be fc 08 01 41
       0.26257002 -0.34952846 -0.21069582 8.064693
000170 31 8d 39 40 8b d3 32 c0 99 b3 75 3f 87 41 71 c0
       2.8992426 -2.7941616 0.9597717 -3.7696245
000180 c9 b7 8d 3f 09 3f c1 3d 6c d3 16 3e 87 d0 9b 3e
       1.1071712 0.09435851 0.14729089 0.3043253

exp_avg_sq f4 [50, 2]
000000 a3 ae ca 3b 90 74 3c 3e 7f eb 4a 3c dc a4 e0 3d
       0.006185369 0.1840384 0.012385248 0.109689444
000010 8e d1 e2 3c d1 cc 0e 3c 0b 5f 16 3b da dd c4 3b
       0.027687814 0.008715824 0.0022944834 0.006007892
000020 d2 0e a2 3c 23 78 21 3e a9 b7 80 3d 01 e9 57 3d
       0.019782458 0.15768485 0.062850304 0.052712444
000030 1d da 9f 3d 8a c1 0d 3d a8 87 17 3e 96 7d 85 3e
       0.07805274 0.0346084 0.14797843 0.26072377
000040 d0 67 96 3c 2b b5 0d 3d 51 16 f6 3d fd 23 83 3e
       0.018360049 0.034596603 0.12015975 0.25613394
000050 af e3 24 3d a9 62 08 3e e5 0c ab 3c a6 12 31 3d
       0.0402562 0.13318886 0.020880172 0.043230675
000060 65 9a fb 3b 4e c1 4f 3f 68 36 6e 3c a6 22 9e 3c
       0.0076783174 0.81154335 0.014539339 0.019303631
000070 ee 46 2b 3d aa 17 f8 3e 98 a7 46 3e 84 2d 9c 3f
       0.04181569 0.48455554 0.1939987 1.220139
000080 bd fa e8 3b e0 cb 43 3d 44 20 16 3c aa 97 b0 3e
       0.0071099685 0.047801852 0.009162966 0.3449071
000090 f0 51 81 3d 20 b7 3d 3d 84 22 a4 3b f3 13 9a 3c
       0.063144565 0.04631722 0.0050089974 0.01880834
0000a0 83 28 c0 3b e4 8c 0c 3c 6c 28 f6 3a f3 23 d3 3d
       0.0058642044 0.008578513 0.0018780357 0.10309591
0000b0 e1 0b 3f 3c cc 10 4a 3d ef 45 cd 3c b8 77 87 3c
       0.011660547 0.049332425 0.025057761 0.016536579
0000c0 dd 32 20 3c 9d ce 31 3f a8 8a c1 3d bf 27 88 3d
       0.009777752 0.6945589 0.09450275 0.06648206
0000d0 52 7d a1 3b 9e 7d e6 3e fa a5 0b 3d 4c 9e 01 3d
       0.0049282694 0.45017713 0.034093834 0.031645104
0000e0 86 86 59 3d bb 7b be 3e c1 5c 7b 3d ad be cb 3c
       0.053106807 0.37203774 0.061367754 0.024871195
0000f0 66 ff 38 3d 38 be e9 3c e3 f8 e1 3b 5c d6 e8 3d
       0.045165442 0.028533086 0.0068961247 0.11369011
000100 a1 91 7e 3b b9 4d 01 3e 26 d3 cc 3c 9d a3 9a 3c
       0.0038844126 0.12627305 0.025003027 0.018876845
000110 fd 7c 36 3d 89 59 09 3f 60 3b d9 3b e1 bf 20 3d
       0.044552792 0.53652245 0.0066293925 0.03924549
000120 63 88 20 3d 7f 30 17 3d f8 01 ce 3b 71 9c 20 3e
       0.03919257 0.036911484 0.006286856 0.15684678
000130 d7 29 85 3c b8 1e a4 3f f0 9f c7 3d a9 0a d9 3e
       0.016255302 1.2821875 0.097473025 0.42390946
000140 f3 14 a1 3c 43 dd 13 3e df 44 24 3c 03 e6 1d 3e
       0.01966331 0.14439873 0.010026186 0.15419774
000150 50 76 e9 3c d0 08 31 3f d1 6b 35 3b 09 39 a3 3b
       0.028498799 0.6915407 0.0027682672 0.0049811644
000160 9d a1 40 3b 7d 02 5a 3c 49 f7 77 3c 3d 95 ff 3f
       0.0029393204 0.013306257 0.015134641 1.9967419
000170 cd cd 9d 3e b3 09 c4 3e d5 8e d6 3c 62 d6 d7 3e
       0.30821076 0.3828865 0.026191154 0.4215575
000180 01 27 40 3d e6 ad 4e 3c 22 06 df 3a 68 53 e6 3b
       0.046912197 0.012614703 0.0017015378 0.007028986

exp_avg f4 [50]
000000 e6 b0 02 c1 a1 9b 1c 41 cd 03 13 40 bb 78 45 bf
       -8.168188 9.787995 2.297107 -0.77137345
000010 d3 15 0a c1 a6 90 90 c0 e7 87 c7 c0 66 97 39 c1
       -8.630328 -4.5176573 -6.2353396 -11.5994625
000020 d8 53 8c c0 ce 04 19 41 4e 2e ee c0 be 77 84 40
       -4.385235 9.563673 -7.4431524 4.139617
000030 1c 1f 8d 41 02 fc 26 40 9d b6 39 c1 d7 df b4 c1
       17.64019 2.6091313 -11.607083 -22.609297
000040 07 66 c7 40 0c 24 6a 41 ba 40 c6 bf 81 05 a3 c0
       6.2312045 14.6338005 -1.5488503 -5.094422
000050 f0 ec c4 be c3 a4 21 c1 b0 1b cb c0 b4 f4 e7 c0
       -0.3846202 -10.102725 -6.34713 -7.248621
000060 2d ea a1 41 6e e8 fd 3d bf ad 3d 41 45 1f 94 40
       20.239344 0.12397848 11.8549185 4.628817
000070 be 14 02 c1 5a 1e 18 40 84 26 2a 40 60 a8 fa c0
       -8.130064 2.3768525 2.6586008 -7.8330536
000080 17 c0 39 41 58 53 9b 40 17 86 af 41 f6 aa 9f 40
       11.609397 4.853924 21.940474 4.9896193
000090 f7 ad 00 41 4c 82 55 41 95 fa d1 c1 fc 72 59 41
       8.042472 13.344311 -26.247355 13.590572
0000a0 59 c1 14 c1 08 37 c9 c0 86 e9 9b 41 f8 70 ab bf
       -9.297204 -6.2879677 19.489025 -1.339385
0000b0 21 11 f4 3f db 9e fd 41 85 a9 5c c1 1c e0 1c c1
       1.9067727 31.702566 -13.791387 -9.804714
0000c0 02 f6 89 40 5f 2e 98 3f
       4.3112803 1.1889151

exp_avg_sq f4 [50]
000000 71 26 fc 3f 38 68 31 40 71 f4 59 3e 12 f4 2f 3e
       1.9699231 2.771986 0.21284653 0.17182949
000010 55 47 0a 40 f7 24 44 3f 80 85 8c 3f 33 cc 94 40
       2.1606038 0.76618904 1.0978241 4.6499267
000020 31 4f 93 3f c3 1a 22 40 c0 30 c4 3f 27 16 64 3f
       1.1508542 2.5328834 1.5327377 0.890963
000030 ad 6a 08 41 ac d8 aa 3e 2f 12 7b 40 3a 46 5e 41
       8.526044 0.33368433 3.9229848 13.892145
000040 77 33 91 3f a5 59 bb 40 53 21 31 3f b1 5a 90 3f
       1.1343831 5.854693 0.69191474 1.1277677
000050 0c ee 03 3e 79 90 33 40 5a 08 95 3f 97 b8 ee 3f
       0.12883776 2.805693 1.1643174 1.8650082
000060 af 4d 38 41 11 c9 52 3e 98 5a 79 40 3d f6 21 3f
       11.518966 0.20584513 3.8961544 0.63266355
000070 bf a8 41 40 ae 32 07 3f 8f 36 25 3f 1a 30 e0 3f
       3.0259244 0.52811706 0.64536375 1.751468
000080 33 77 91 40 2a 71 32 3f 7b fd 4f 41 28 5d 75 3f
       4.5458007 0.69703925 12.999385 0.9584527
000090 da ad e1 3f a7 49 9f 40 b9 18 98 41 bd 39 b8 40
       1.763118 4.977741 19.012072 5.757048
0000a0 ad 02 22 40 0b 67 b8 3f d8 4f 29 41 84 4b 4d 3e
       2.5314133 1.4406446 10.581993 0.20048338
0000b0 cf b6 5a 3f ab cd da 41 c4 ca cf 40 af 18 2b 40
       0.85435194 27.350424 6.4935017 2.6733816
0000c0 41 ad 31 3f f4 1a 34 3e
       0.6940499 0.17588407

exp_avg f4 [50, 50]
000000 11 92 90 bf 18 2d 39 c0 52 3d bb 3f db df 44 40
       -1.1294576 -2.8933773 1.4628088 3.076163
000010 d0 0c c7 c0 dc 32 f9 c0 89 17 96 c0 e4 ce 6f 40
       -6.220314 -7.7874584 -4.690373 3.7470026
000020 d1 1f db 40 61 e6 ef 40 21 0b f8 bb 4e 12 60 40
       6.847634 7.4968724 -0.007569686 3.5011172
000030 f0 ff 03 3f b7 5c ad 3f 19 bc dd c0 5f 31 ec c0
       0.51562405 1.3543919 -6.929211 -7.3810267
000040 fb 9b 0e 3f ca d6 15 40 8c d7 8e c0 42 1b 43 3e
       0.5570676 2.3412347 -4.463812 0.19053367
000050 ca ee e9 40 4b 7e 4e c0 16 f6 e4 c0 e1 38 cf 40
       7.310399 -3.2264583 -7.15504 6.475693
000060 cc 29 99 3e ff d7 3f c0 43 3b b6 40 27 14 ba 40
       0.299147 -2.9975584 5.694734 5.81496
000070 b6 59 90 c0 aa 01 52 40 7d 8c a2 c0 83 f3 14 bf
       -4.510951 3.2813516 -5.0796494 -0.5818407
000080 c5 9c bc bf 84 5e 9f 40 17 9b 20 40 e9 fe 9d c0
       -1.4735342 4.9802876 2.509466 -4.937367
000090 b9 d6 36 c0 73 02 14 40 88 34 fd be fa 89 b5 c0
       -2.8568556 2.3126495 -0.4945414 -5.673093
0000a0 59 07 d8 40 3b 36 8c c0 e3 93 1b 40 58 d1 cc 3f
       6.750897 -4.38162 2.4309013 1.6001387
0000b0 3f 32 63 c0 4e 71 cf 40 ed 44 25 40 78 63 dc c0
       -3.5499418 6.482581 2.582332 -6.887142
0000c0 73 c6 48 c0 1c 2d 1e 40 85 76 69 3f a4 17 fe 3f
       -3.1371124 2.4715033 0.9119647 1.9850965
0000d0 4d c4 f5 be 9e aa f6 bf 40 16 85 40 ef 75 b0 40
       -0.48001328 -1.9270818 4.158966 5.514396
0000e0 91 d4 68 40 de 43 10 c0 2d c0 92 c0 a8 40 a0 c0
       3.637974 -2.2541423 -4.585959 -5.0078926
0000f0 ce 7d 9f be 06 e0 08 c0 0b 88 ad be 0e 18 78 bf
       -0.3115067 -2.1386733 -0.33892855 -0.96911705
000100 48 3c 8f 40 92 be a0 40 67 c5 53 bf 53 08 be bf
       4.4761086 5.023263 -0.8272309 -1.484629
000110 4e 72 35 40 f3 bc 81 bf 79 64 b7 c0 63 bf 20 40
       2.8351016 -1.0135788 -5.7310147 2.5116813
000120 68 9e ac 40 89 ad a3 c0 62 c7 a4 bd 87 04 18 40
       5.3943367 -5.1149335 -0.08045842 2.3752763
000130 af 7c 74 c0 8f 0b 8d c0 f3 8e 42 40 f2 50 17 c0
       -3.82011 -4.407661 3.039975 -2.3643155
000140 20 b8 80 40 b4 5d 78 be e9 6b 7b 3f 43 cf 79 c0
       4.022476 -0.24254495 0.9821153 -3.9032753
000150 f7 0a e5 bf 59 a9 59 40 05 7c 35 40 02 ba 08 c0
       -1.7893971 3.4009612 2.8356946 -2.136353
000160 5a 18 0f 3f 5d 90 5e 40 a5 22 8f c0 f2 ca 4b 40
       0.5589653 3.4775612 -4.472979 3.1842618
000170 98 cb 4e bf 71 45 ff bf 62 25 38 40 77 72 8f c0
       -0.8077941 -1.9943067 2.8772817 -4.4827228
000180 d8 bb ea bf 68 3b 8e 40 1b bb 26 40 03 3b eb bf
       -1.8338575 4.4447517 2.60517 -1.8377384
000190 06 24 ba c0 7a af 00 c1 4a 97 ad bf d7 e3 6e 40
       -5.8168974 -8.042841 -1.3561795 3.7326562
0001a0 4f 76 4c c1 94 03 89 c1 c2 ba 2c c1 e5 65 c0 40
       -12.778884 -17.126747 -10.795595 6.0124383
0001b0 50 21 62 41 de 08 76 41 a4 fb f8 3f 14 98 ae 40
       14.133133 15.377165 1.9451795 5.456064
0001c0 29 5b 73 40 59 6f 3c 40 a9 fa 55 c1 d3 e0 7d c1
       3.802439 2.9442961 -13.373696 -15.867389
0001d0 fd ce 96 40 62 fe 9a 40 50 3e eb c0 07 77 d2 40
       4.712767 4.8435526 -7.3513565 6.5770297
0001e0 3e 4b 98 41 57 6d 02 c1 1e fb 97 c1 1b ab 87 41
       19.03674 -8.151694 -18.997616 16.958548
0001f0 a9 0d 19 40 f9 4d d8 c0 f8 3e 58 41 51 b3 85 41
       2.3914587 -6.759518 13.515373 16.712557
000200 f5 2b 41 c1 c2 40 ef 40 7a 47 5a c1 0d e9 0c 40
       -12.073232 7.476655 -13.64245 2.2017243
000210 47 cc 84 c0 c6 70 6b 41 b1 c7 94 40 3a ee 3f c1
       -4.149936 14.715033 4.6493764 -11.995661
000220 89 bf 49 c1 6b 86 0e 41 5c 1c 76 c0 c3 02 1e c1
       -12.6092615 8.907817 -3.845481 -9.875674
000230 9a fe 5d 41 60 25 46 c1 8f 06 32 3d a6 4d 0b 41
       13.874659 -12.384125 0.043463286 8.706457
000240 1e 58 36 c1 0f 74 6f 41 e7 f0 75 40 6e b2 58 c1
       -11.396513 14.965835 3.8428285 -13.543562
000250 c4 92 18 c1 ec 72 f6 40 65 91 af 40 04 1b 0b 41
       -9.535831 7.7015285 5.4864984 8.694096
000260 b9 6e 08 bd 9e bd b6 c0 9c 42 74 41 31 a4 a2 41
       -0.03330872 -5.7106466 15.266262 20.330172
000270 c5 c4 50 41 73 4d f8 c0 39 22 87 c1 23 0d 93 c1
       13.048039 -7.7594543 -16.89171 -18.381414
000280 f3 47 e0 bf 68 a7 e5 c0 87 dd 52 c0 04 89 61 c0
       -1.7521957 -7.1766853 -3.294771 -3.5239878
000290 95 93 81 41 75 ec 95 41 6a de 8a c0 b0 45 b4 c0
       16.197062 18.740458 -4.33965 -5.633507
0002a0 cd 45 19 41 42 fe ba c0 d0 1a af c1 06 8f 16 41
       9.579541 -5.8435373 -21.888092 9.409918
0002b0 40 7b ab 41 92 11 9c c1 4c 6a f5 bf 7a 8a 04 41
       21.43518 -19.50858 -1.9173064 8.283808
0002c0 5a 5a 75 c1 d0 2c 93 c1 bb 14 53 41 e3 e4 0c c1
       -15.3345585 -18.396881 13.192561 -8.805881
0002d0 24 0f 78 41 46 2b dd bf 5f 28 8d 40 5c 2a 81 c1
       15.503696 -1.7278831 4.411178 -16.145683
0002e0 ed 99 bf c0 4f a5 59 41 6f bf 4d 41 75 06 14 c1
       -5.98754 13.602859 12.859237 -9.251576
0002f0 82 82 5a 40 0b 93 44 41 21 6c 84 c1 3b a1 58 41
       3.4142156 12.285899 -16.552797 13.539363
000300 25 1f c3 bf e3 1b 0d c1 4d df 43 41 a5 5d 8a c1
       -1.524388 -8.819308 12.242017 -17.295725
000310 28 50 ae c0 b9 1b 82 41 94 7d 27 41 b1 ac 02 c1
       -5.4472847 16.263536 10.468159 -8.167161
000320 4f 2c a4 3f 41 52 85 3f 9f da 9b 3f b0 fe 02 3f
       1.2826022 1.0415727 1.2176093 0.5116987
000330 12 8c 44 3f dd 7e a1 3f 13 2e 53 3f 06 70 88 3d
       0.7677623 1.2616841 0.8249218 0.06661992
000340 58 0a 59 bf ac 70 68 bf 82 09 14 bf 32 52 f7 3d
       -0.8478141 -0.90796924 -0.5782701 0.120762244
000350 ba d9 78 bf 2b c5 52 be bc 98 17 3f dc 2a 8f 3f
       -0.97207224 -0.20583026 0.5921743 1.1184955
000360 30 5e 9a bf af eb ad be ee 80 70 bd c7 c3 f6 bf
       -1.2059994 -0.33968875 -0.058716707 -1.9278497
000370 08 b3 03 c0 e3 dd 57 3f 0d 43 0b 40 51 c0 ea bf
       -2.0578022 0.8432295 2.1759675 -1.833994
000380 53 40 26 bf 4f d6 ec 3e a2 03 a6 bf 08 ba 0b c0
       -0.649419 0.46257254 -1.2969859 -2.1832294
000390 e3 4c bc 3f 55 77 1b bf bb fa c8 3f 6c 36 6d bf
       1.4710964 -0.6072896 1.5701517 -0.92661166
0003a0 be 28 10 3f 24 71 ff bf a6 f4 d1 bd 6f fb 98 3f
       0.5631217 -1.9956403 -0.10251741 1.1951731
0003b0 e4 ce 1a 40 01 05 cb bf 08 bb 7f 3f c4 3f 22 3e
       2.4188776 -1.5860902 0.9989476 0.15844637
0003c0 16 2e 53 bf 4e 0f ce 3f 1e cd 99 3f 6a 1c ea bf
       -0.82492197 1.6098421 1.2015722 -1.8289921
0003d0 22 2a db 3f 89 1a a8 bf 5c 79 5f 3e f5 ca 2c 3f
       1.7122233 -1.3133098 0.21823639 0.6749719
0003e0 0a c7 a9 3f 79 51 93 bf 68 b3 48 c0 9c 0a 7e c0
       1.3263867 -1.1509238 -3.13595 -3.9693975
0003f0 96 07 89 bf 18 11 af 3f da 58 b9 c0 d0 cf fa c0
       -1.070544 1.3677092 -5.792096 -7.8378677

exp_avg_sq f4 [50, 50]
000000 3c b9 3c 3d 07 6e 7e 3e ac 04 a4 3d 41 68 8c 3e
       0.04607509 0.2484666 0.080087036 0.2742329
000010 b9 8d 8c 3f f4 1f db 3f 7d 88 22 3f d5 ed d0 3e
       1.098075 1.7119126 0.63489515 0.4080645
000020 45 5b aa 3f 97 ab cb 3f 1e 19 cf 3b 74 d4 b3 3e
       1.3309103 1.591174 0.006320133 0.35123026
000030 5c 5c eb 3c eb 18 52 3d 7b 84 b0 3f ad 67 c5 3f
       0.028730564 0.051293295 1.379043 1.5422264
000040 90 81 76 3c 86 ec 27 3e 48 ff 0f 3f 32 fc e5 3c
       0.015045539 0.1639882 0.56248903 0.028074358
000050 79 5a c4 3f 07 39 95 3e c0 d6 b9 3f 32 e9 9a 3f
       1.534011 0.2914507 1.4518661 1.2102416
000060 72 c2 e5 3c e0 7e 7d 3e be 1c 6f 3f 1a 9c 75 3f
       0.02804682 0.2475543 0.9340323 0.9594132
000070 f2 a6 17 3f d2 d0 9a 3e ee 08 3b 3f f0 81 fa 3c
       0.59239113 0.30237442 0.730605 0.030579537
000080 b7 a8 90 3d 0c 54 32 3f 42 5f 36 3e ce 5d 33 3f
       0.0706343 0.69659495 0.17809775 0.7006501
000090 5c f9 75 3e c3 99 18 3e 3e ea 21 3c 0f dd 70 3f
       0.24020904 0.14902405 0.009882508 0.9408731
0000a0 b5 75 a6 3f 6f 59 0c 3f 6a f0 47 3e 48 7b c6 3d
       1.3004671 0.54823965 0.19525304 0.09691483
0000b0 7c b8 b2 3e 06 cf 98 3f 4f 6a 38 3e fc ef ae 3f
       0.34906375 1.1938179 0.18009304 1.3666987
0000c0 26 30 8c 3e ef c2 32 3e 17 8d 31 3d b4 96 0d 3e
       0.27380484 0.17457174 0.043347444 0.1382702
0000d0 5c 4a 58 3c 87 54 f7 3d 6d 7d 0c 3f c4 37 80 3f
       0.013201322 0.12076669 0.54878885 1.0017018
0000e0 87 61 ee 3e 06 87 1c 3e 75 3a 2c 3f bc 98 4c 3f
       0.46558782 0.15285882 0.672767 0.79920554
0000f0 60 ee 0d 3c 2c 1a 0e 3e 63 42 3a 3c ac 4b fd 3c
       0.00866279 0.13877171 0.011368367 0.030919872
000100 3d ed 1e 3f a5 20 51 3f c1 62 1b 3d 66 cb 86 3d
       0.62080747 0.81690437 0.037935976 0.06581764
000110 e4 74 81 3e 56 b2 96 3d 24 ca 92 3f 5d 0e 5f 3e
       0.25284493 0.07358234 1.1467938 0.21782823
000120 78 57 83 3f cd 88 6b 3f 56 59 93 3b ca 86 5c 3e
       1.0261068 0.92005616 0.0044967337 0.21535793
000130 d6 b4 f8 3e 56 7d 36 3f cf 5f a7 3e 1e 9d 3f 3e
       0.48575467 0.71285 0.32690284 0.18712279
000140 99 94 11 3f 1e 92 56 3c ce c9 04 3d c8 86 0f 3f
       0.5686737 0.0130963605 0.03241902 0.56065035
000150 d8 c3 da 3d 41 93 c6 3e 01 7e b1 3e 59 a2 3c 3e
       0.106818855 0.3878422 0.34666446 0.18421306
000160 fa 51 98 3c 5d 25 b9 3e 8c fe 22 3f c9 36 bb 3e
       0.018593777 0.36161318 0.6366966 0.36565235
000170 db 90 bd 3c fc 74 37 3e 3a d8 a0 3e 85 42 2a 3f
       0.023140362 0.1791572 0.31414968 0.6650775
000180 a9 79 f2 3d 0a c4 1c 3f 1e f3 7e 3e ee 26 00 3e
       0.11839611 0.6123663 0.2489743 0.1251485
000190 53 ee 6e 3f 02 93 e2 3f a4 d9 27 3d 1a c5 da 3e
       0.93332404 1.7701113 0.040979043 0.42728502
0001a0 f3 13 8e 40 4f 61 ff 40 8c 3c 4f 40 50 e5 81 3f
       4.439935 7.9806285 3.2380705 1.0148106
0001b0 0a 4a ae 40 92 0d ce 40 94 d1 d7 3d f5 0b 56 3f
       5.446538 6.4391565 0.10538021 0.83611995
0001c0 03 66 df 3e b9 34 71 3e 9b 1a 9c 40 e0 0f db 40
       0.43632516 0.23555268 4.8782477 6.845688
0001d0 cc e7 12 3f ec 93 22 3f 7c d7 c2 3f 57 c9 8f 3f
       0.57384944 0.6350696 1.5222011 1.1233319
0001e0 d9 21 1d 41 a2 cf e5 3f bf 9b 1c 41 3c 79 f9 40
       9.820764 1.795399 9.788024 7.796049
0001f0 cc d4 52 3e 31 01 a9 3f fd 2e 9f 40 41 4f f3 40
       0.20588988 1.3203489 4.974486 7.6034245
000200 85 b2 7f 40 2e 78 c2 3f f4 a9 a0 40 9a 67 16 3e
       3.995271 1.5192926 5.020746 0.14687958
000210 a6 2f f2 3e 12 9d bb 40 8a 80 1c 3f cd 50 7a 40
       0.47301978 5.8629236 0.61133635 3.9111817
000220 1f 50 87 40 e2 d8 06 40 ed 20 c6 3e d0 f1 2b 40
       4.2285304 2.1069875 0.38696995 2.686634
000230 39 05 a8 40 80 7a 85 40 56 6d e5 3c b6 82 00 40
       5.2506375 4.1712036 0.028006237 2.007978
000240 e0 3c 60 40 8e 90 c2 40 86 4a ea 3e af de 9f 40
       3.5037155 6.080146 0.45759982 4.995933
000250 87 f6 1b 40 1f 7e cd 3f ac ab 58 3f 88 e3 05 40
       2.4369218 1.6054114 0.8463695 2.0920124
000260 0d 85 bc 3b 61 a4 68 3f c5 81 cb 40 93 98 34 41
       0.0057531656 0.9087582 6.359591 11.28725
000270 2c 28 97 40 e8 14 d4 3f 3d a9 f9 40 79 b5 13 41
       4.723654 1.656888 7.801909 9.231805
000280 2d 9c ca 3d 22 73 b4 3f ff f6 b2 3e fa 44 ad 3e
       0.098930694 1.4097636 0.34954068 0.33841687
000290 a3 85 e5 40 5e 7a 19 41 38 af 05 3f c4 a6 5e 3f
       7.172563 9.592375 0.5222049 0.86973214
0002a0 0c 39 21 40 82 b7 77 3f 78 eb 51 41 a9 37 1b 40
       2.5191069 0.96764386 13.1199875 2.4252722
0002b0 9b d1 48 41 6d 02 27 41 97 01 2d 3e fb 35 ff 3f
       12.551173 10.438092 0.16895138 1.9938349
0002c0 1f 85 ce 40 58 34 14 41 57 e5 99 40 ed 8b 07 40
       6.45375 9.262779 4.8092456 2.1179154
0002d0 10 a7 d2 40 de 9f 06 3e 23 8b 0b 3f bc 29 e4 40
       6.5828934 0.13146922 0.5450918 7.1300945
0002e0 25 a4 7d 3f 75 2d a2 40 e2 c9 91 40 c6 cf 16 40
       0.9907859 5.068049 4.555894 2.3564315
0002f0 db 6d a4 3e 08 d7 84 40 5d ec ef 40 cd ae a0 40
       0.32115063 4.151249 7.497603 5.021338
000300 c8 51 f4 3d 80 71 0b 40 14 8d 83 40 cb b8 02 41
       0.11929661 2.1788025 4.1109715 8.170115
000310 fb 01 62 3f c4 a4 e7 40 e8 a3 40 40 d5 50 ea 3f
       0.8828427 7.238863 3.010004 1.8305918
000320 32 06 2a 3d 89 ff fe 3c 32 e6 24 3d 88 43 79 3c
       0.041509815 0.031127708 0.040258594 0.015213855
000330 6f 25 37 3d aa cc b2 3d bd 7b 1f 3d 8c f4 4a 3c
       0.044713434 0.08730443 0.038936365 0.012387406
000340 cc 5c 5c 3d 86 f4 84 3d 16 e1 21 3c 37 88 38 3c
       0.053799435 0.06491952 0.009880325 0.011262945
000350 7f 1e b9 3c 7a c0 2b 3b 5a da 43 3d 65 87 95 3d
       0.02259755 0.0026207254 0.04781566 0.07301215
000360 c7 47 18 3d bf 77 df 3b 57 2f 8e 3c 57 af c1 3d
       0.037177827 0.006819695 0.017356558 0.094572715
000370 a9 d2 16 3e 1a 4e d6 3c 2a 59 1f 3e 6e b5 ef 3d
       0.14728798 0.026160289 0.15561357 0.11704527
000380 e0 86 1f 3c 36 97 99 3c b8 52 82 3d 63 ee 12 3e
       0.009736747 0.01874886 0.063634336 0.1434875
000390 da 02 87 3d e0 e7 8e 3c c4 66 a6 3d 81 b4 c7 3c
       0.06592341 0.017444551 0.0812507 0.024378063
0003a0 e7 6e 08 3c c9 7c f0 3d 23 43 d3 3b 73 ee 51 3d
       0.008327222 0.11742551 0.0064472123 0.051252794
0003b0 1d c0 1e 3e 55 48 8a 3d 21 bf cc 3c 81 03 e8 3c
       0.15502973 0.067520775 0.024993481 0.028321983
0003c0 b7 6b 53 3d c3 93 9d 3d d0 25 32 3d 8d 94 b0 3d
       0.051616397 0.07694199 0.043493092 0.08622084
0003d0 cf b7 a9 3d 2b ff 95 3d 8a 9b 02 3c 31 79 4a 3d
       0.08287012 0.0732406 0.007971654 0.049431983
0003e0 4e a3 52 3d f5 e3 12 3d 8c 2c a2 3e 58 f1 00 3f
       0.05142527 0.035861928 0.31674612 0.5036826
0003f0 32 f8 05 3d 76 5e 70 3d 1d bc 84 3f de 1a ee 3f
       0.0327074 0.058683835 1.0369908 1.8601949

exp_avg f4 [50]
000000 28 ce 49 c1 17 3c 0e 41 23 1e ef c1 26 57 0a 42
       -12.612831 8.88967 -29.889715 34.585106
000010 93 6a 2c 40 fc 8c 60 c1 a4 9e f3 41 0d 80 c7 c1
       2.6940048 -14.03442 30.452461 -24.937525
000020 01 5e 50 40 8d a1 aa 41 f4 9f ab 40 be e2 19 40
       3.2557375 21.328882 5.3632755 2.4044642
000030 68 d1 cd c0 a9 ae 9b c1 e7 3f 0e c2 4b 61 0e c2
       -6.4318123 -19.460283 -35.562405 -35.595013
000040 3c 45 14 42 d9 1d d8 41 ae e0 3c c2 b1 3c 49 41
       37.06761 27.014574 -47.219414 12.577317
000050 ac b1 07 c2 7e 8c 04 c1 2b e9 8d c1 2e d9 38 41
       -33.923508 -8.2843 -17.738852 11.553022
000060 ad 09 e9 c0 f8 a2 32 c1 ea 13 f9 bf fe 05 66 41
       -7.282431 -11.164787 -1.9459202 14.376463
000070 dd b4 0e c2 09 73 cb c0 f1 58 c9 41 74 5b 07 42
       -35.676624 -6.3577924 25.168428 33.83931
000080 19 1b 2e 40 ee c7 4e 40 82 f8 df bd 53 66 07 c1
       2.720404 3.2309527 -0.10936071 -8.4624815
000090 ec f2 24 c2 4d 74 8a 41 af bc c0 40 68 78 0d 42
       -41.23723 17.306787 6.0230327 35.367584
0000a0 3e b7 27 42 9a 60 c9 c1 8c 88 94 bf 6a 69 58 c1
       41.928947 -25.172169 -1.1604171 -13.525736
0000b0 94 6e 81 c1 b0 33 07 c2 93 c2 4d 40 4b 4c 62 41
       -16.178993 -33.800476 3.2150009 14.143626
0000c0 0f b3 7a c1 91 41 3e 41
       -15.6687155 11.891007

exp_avg_sq f4 [50]
000000 37 4f 91 40 f3 0a 2d 40 e6 7d c3 41 be 28 03 42
       4.54092 2.7037933 24.436474 32.789787
000010 66 e2 9a 3e e4 33 c1 40 c3 6a cd 41 c7 71 96 41
       0.30250853 6.0375843 25.67713 18.805555
000020 7c 58 9e 3e 71 ba 4c 41 3d 39 55 3f 75 d4 c4 3f
       0.30926883 12.795518 0.83290464 1.5377337
000030 7f 35 fa 3f 66 ed 31 41 f0 d3 0d 42 41 9a 0e 42
       1.9547576 11.120459 35.45697 35.65064
000040 c7 51 1a 42 fd 29 9e 41 f0 02 76 42 3c 5b b7 40
       38.57986 19.770502 61.50287 5.729887
000050 bd 4a 01 42 0b e5 18 40 ad b2 09 41 7b 7b 84 40
       32.322987 2.3889797 8.606122 4.1400733
000060 60 05 1a 40 39 a2 63 40 78 94 fb 3d ed ca d1 40
       2.406578 3.5567763 0.122841775 6.556021
000070 5c a3 17 42 a9 1d 8c 3f cd 0c 95 41 57 21 01 42
       37.90953 1.0946552 18.63125 32.28256
000080 47 54 0e 3f a9 cc 99 3e 28 e0 8c 3e 8b 19 27 40
       0.5559735 0.30038956 0.27514768 2.610934
000090 35 28 3b 42 3a 80 11 41 e5 c8 87 3f 79 b6 07 42
       46.789265 9.093805 1.0608183 33.928196
0000a0 78 b4 49 42 89 f4 8b 41 83 21 37 3f 52 26 f3 40
       50.42624 17.494402 0.7153551 7.598428
0000b0 fe ba eb 40 83 df fb 41 dd 20 fe 3e a9 4d b5 40
       7.366576 31.484137 0.49634448 5.66573
0000c0 15 b6 d3 40 19 48 87 40
       6.615977 4.227551
