weights/checkpoint/example0006_warm_adam.pth (torch, 79323 bytes, 35 tensors)

a f4 [4]
000000 cd cc 4c 3e cd cc 4c 3e cd cc 4c 3e cd cc 4c 3e
       0.2 0.2 0.2 0.2

input_layer.weight f4 [50, 2]
000000 6d 5e 84 bc 77 12 5d 3c 04 24 63 3d 4b 4d 9f be
       -0.016158307 0.013493172 0.05545427 -0.31113657
000010 db b9 fe bd 4b e7 3e be f0 af bd be 87 a9 23 bd
       -0.12437793 -0.18642919 -0.37048292 -0.039956596
000020 10 cb 1f be 85 30 a3 be f4 07 02 3e 76 ca 92 3e
       -0.15604806 -0.31872955 0.12698346 0.2867009
000030 ca ae 44 3d 36 67 87 3d 18 7b 85 3e cf ed 7c 3d
       0.048018254 0.06611483 0.26070476 0.06175023
000040 8b 3b 26 3e 2c 53 f1 bd b5 27 e1 bd f5 8c ed bd
       0.16233651 -0.11783442 -0.10993902 -0.11599151
000050 b9 da 06 3d e8 d9 a8 3c 99 95 57 3e c7 28 73 3e
       0.032923434 0.020611718 0.2105316 0.23746024
000060 6b cd de bd 9f 88 3a 3e 3f fe 00 be 28 0a 55 3c
       -0.10879024 0.1821618 -0.12596987 0.01300291
000070 79 1e 83 bc 52 e0 f7 bd fc f9 8d bd 1c e9 46 3e
       -0.016005741 -0.121033326 -0.06932446 0.19424862
000080 63 7d 5a be 67 f1 a3 bd e2 1a 6a 3e e9 67 e1 bc
       -0.21336894 -0.08005028 0.22861817 -0.027515369
000090 97 bd 13 bc 72 fc 26 3e 90 13 62 3e 02 fe 22 3e
       -0.00901737 0.16307238 0.22077775 0.15917209
0000a0 0f c5 10 3e 96 0f dd 3d 44 c4 9d bc e0 29 80 3e
       0.14137672 0.107939884 -0.019258626 0.25031948
0000b0 fc f3 1c be 36 49 ca bd ea f2 0e be e7 9b ae bd
       -0.15327448 -0.09877245 -0.13959852 -0.0852583
0000c0 05 e7 bd bd 69 d6 e1 3c 7f c2 5e 3c 9d cc e0 3d
       -0.09272579 0.027568059 0.013596176 0.10976527
0000d0 92 d8 8b 3d ea 7f 7a 3c 2d 9d 86 bd 25 7c 9c 3e
       0.06828417 0.015289286 -0.06572948 0.30563465
0000e0 37 88 26 3d 61 0e 19 3d 5d 50 4c 3e 17 7f 83 3e
       0.04065725 0.03736723 0.19952531 0.256829
0000f0 11 c8 bd be f6 36 3c be 4a 48 0a 3e af 26 5a be
       -0.370667 -0.18380341 0.13504139 -0.21303819
000100 46 cf 2c bd 2f 73 8a 3d 91 9d f7 3d 0b 07 19 bd
       -0.04218986 0.06760251 0.120906 -0.037360232
000110 81 c5 8a bd c2 a7 9e be 08 b0 71 3d ad d1 1c 3e
       -0.06775952 -0.30987364 0.059005767 0.1531436
000120 d3 4c 2c bc b5 29 b8 bd cc c3 07 3e 1b 70 50 3e
       -0.010516363 -0.0899233 0.13258284 0.20355265
000130 6f 78 da 3d 6b 72 44 3e 5e 68 82 3d 36 4e fc 3d
       0.10667502 0.19184272 0.06367563 0.12319605
000140 63 7a 57 bd e2 ce 10 be 6a d0 ad be 4a de 1c be
       -0.05260695 -0.1414142 -0.3394807 -0.15319172
000150 52 e8 70 be b0 f9 cf 3d b1 72 d9 bd 64 f9 08 3e
       -0.23526123 0.10155046 -0.10617579 0.13376385
000160 ee 42 43 3e 74 6d ff 3d 9c a9 7a be ac b1 25 bb
       0.190685 0.124720484 -0.24478763 -0.0025282903
000170 b1 79 94 be ab 13 6b 3e 82 9c 0c bd 71 83 c2 bd
       -0.28999093 0.22956721 -0.034328945 -0.09497727
000180 00 f6 6d be 84 9d 6b 3e 5a e5 2d 3e 0b 14 12 be
       -0.23238373 0.23009306 0.16982022 -0.14265458

input_layer.bias f4 [50]
000000 89 24 1f bb 14 18 8d bb 00 78 a1 bb 39 9e a1 bc
       -0.0024283251 -0.004305849 -0.004927635 -0.019728767
000010 bf 53 a3 3b 61 de d5 3b 10 15 f5 bc 75 09 c9 3c
       0.0049843485 0.006526754 -0.02991727 0.024540642
000020 25 0d 31 bc f2 8c 0a bd b6 e2 59 3c b8 34 8b bb
       -0.010806357 -0.033825822 0.013298681 -0.004248228
000030 66 e7 04 3d ab 70 3d bc 13 5e 75 3b 51 fa a3 bc
       0.03244724 -0.011562507 0.0037440106 -0.020016821
000040 3f 0b 5e 3d 09 eb fe bc 50 6d 5b bd ce 21 70 bc
       0.054209944 -0.031117933 -0.053571045 -0.014656497
000050 83 fc 04 3d ec 7d 1e bc 93 93 23 3c ab 1e 79 3d
       0.032467376 -0.009673577 0.009983915 0.060820263
000060 95 ee 12 bd 58 14 f8 bc 6f 71 18 3c 35 92 93 3c
       -0.03587206 -0.030283138 0.009304388 0.018014053
000070 ba d5 05 3c 54 4c 76 bc 94 13 3b 3c 87 bd f2 bb
       0.008168632 -0.0150328465 0.011418242 -0.0074078473
000080 ab 36 08 3d fd c2 3d 3b f8 4e 56 3b 53 b3 68 3c
       0.03325526 0.0028955333 0.0032700878 0.0142029105
000090 0c 83 89 bc 1b f9 f1 3b f4 93 96 bc 87 4d 63 bb
       -0.01678612 0.007384432 -0.018381096 -0.003468366
0000a0 18 5d 70 bc 0b bd aa bc 84 d5 8a 3c 73 20 b9 3c
       -0.014670633 -0.020842096 0.016947515 0.02259848
0000b0 91 ae 99 bb 7a c5 16 bd 9a c3 bc bb 0b 97 33 3b
       -0.0046899994 -0.036809422 -0.005760622 0.002740326
0000c0 e6 89 e9 3c 3f 31 2e ba
       0.028508138 -0.00066449115

input_ln.weight f4 [50]
000000 ec 2b a2 3f 51 f4 92 3f 6b d2 99 3f c7 d3 84 3f
       1.2669654 1.148081 1.201734 1.0377129
000010 3d 66 89 3f 6d 28 81 3f c1 0c 89 3f fa 0c 78 3f
       1.0734326 1.0090462 1.0707017 0.968948
000020 28 e3 8e 3f 74 cd 69 3f 20 a3 71 3f a0 8f 7a 3f
       1.1163073 0.9132912 0.94389534 0.97875404
000030 e9 3d 9b 3f e0 ed 44 3f 61 e6 77 3f 87 f9 94 3f
       1.2128268 0.7692547 0.96835905 1.163865
000040 e3 2d 89 3f b7 65 52 3f 6b eb 8c 3f 7a 4d 82 3f
       1.0717129 0.82186455 1.1009344 1.0179894
000050 1e 95 7e 3f f9 c1 7b 3f c6 d8 61 3f e7 af 8d 3f
       0.99446285 0.98342854 0.88221395 1.1069306
000060 ae 19 81 3f 94 3a 81 3f d9 15 54 3f c6 7d 73 3f
       1.0085962 1.0096002 0.82845837 0.9511379
000070 76 5b 76 3f 7e cf 79 3f 16 61 75 3f 11 1d 7c 3f
       0.9623331 0.9758223 0.95851266 0.9848185
000080 76 11 86 3f f8 24 6d 3f 09 c1 6c 3f fe ad a1 3f
       1.0474079 0.92634535 0.9248205 1.2631223
000090 15 33 83 3f 44 93 a6 3f 92 38 9c 3f 55 02 92 3f
       1.0249964 1.3013692 1.2204764 1.1406962
0000a0 2c a7 9e 3f 7d 24 98 3f 30 21 6c 3f b5 ab 90 3f
       1.2394767 1.1886135 0.9223814 1.1302401
0000b0 91 4f 81 3f 74 61 83 3f dd ef 78 3f 0e 72 7b 3f
       1.0102407 1.0264115 0.97241 0.9822091
0000c0 03 d9 68 3f 37 66 96 3f
       0.90956134 1.1749943

input_ln.bias f4 [50]
000000 10 04 a1 3d d8 7b f9 be d3 40 28 3e bf 9c 5d bf
       0.07862103 -0.48727298 0.16430978 -0.865673
000010 2b 54 58 bf 98 86 90 bf b7 a3 cc bc 6b ab 4a 3f
       -0.8450343 -1.1291075 -0.02498041 0.79167813
000020 4d 8a 47 3d 20 f6 cd 3d b7 d2 f0 bc 15 76 39 3f
       0.04871588 0.1005671 -0.029397352 0.72445804
000030 0c 51 4e bf 43 9e bc bf ce c9 f2 3c 1e cd 03 3c
       -0.8059242 -1.4735798 0.029637244 0.008044509
000040 0f 37 84 be 1c 8a 72 3f 29 c3 4e 3f 35 c2 ce 3e
       -0.25823256 0.9474199 0.8076654 0.40382543
000050 15 90 93 3c e6 46 92 bd bb 01 20 3f 16 66 95 bd
       0.01801304 -0.07142429 0.6250264 -0.07294862
000060 dc 56 40 3f 37 a7 18 3f 64 14 88 be 59 9c cf be
       0.75132537 0.5963015 -0.26578057 -0.4054897
000070 53 32 92 3f 8f 0b 83 be 08 80 3a 3f 29 5a 0f bf
       1.1421608 -0.25594756 0.7285161 -0.5599695
000080 a4 98 9f 3e b9 9e 49 3f e8 dc 17 bf f9 f8 20 bf
       0.31171143 0.78757817 -0.5932145 -0.628799
000090 c7 9d 0d 3e 72 88 98 be ad 26 28 3f c8 9f fa be
       0.13829719 -0.297916 0.65684015 -0.48950028
0000a0 d9 d6 6b 3e d4 ab 0e bf 18 4c cb 3e 1a d8 18 3e
       0.23031177 -0.5573094 0.39706492 0.14926186
0000b0 19 ae ac 3f 16 b3 c4 be 69 3a c8 bd ad ee 5d 3f
       1.349063 -0.38417882 -0.09776766 0.86692315
0000c0 30 94 1c bf fb ac b4 3e
       -0.61163616 0.35288224

hidden_layers.0.weight f4 [50, 50]
000000 35 f3 55 bd 77 cb 29 3e b0 75 73 3d 25 bc 9b bc
       -0.052233893 0.16581522 0.059438407 -0.019010613
000010 eb 35 16 3e 32 ed c4 bc ab 69 7c bc 31 df 2e bc
       0.14669006 -0.024038885 -0.015406053 -0.01067333
000020 17 22 11 bd 17 ef 06 3e 6d 90 b8 bd 5f 07 8a bd
       -0.0354329 0.13177143 -0.09011922 -0.06739687
000030 e9 0c 30 bd 03 f2 72 3d 1f 71 b7 3d 22 86 1c 3e
       -0.042981062 0.05931283 0.08957123 0.15285543
000040 f9 93 d5 bd a8 33 8d be eb 79 1e be 0b 9f 08 3d
       -0.10428614 -0.27578473 -0.15476196 0.0333548
000050 ba e1 16 3e 38 9c bb 3c 97 e5 01 be bf da 1a 3e
       0.14734545 0.02290164 -0.12685238 0.15122508
000060 bb e1 48 bd 78 b7 5c be 98 35 af 3b 1b 3d 74 be
       -0.0490434 -0.21554363 0.005346965 -0.23851435
000070 32 15 30 bd a8 17 19 3e fe 2c a3 bd 48 ef 53 bc
       -0.042988963 0.1495043 -0.07967566 -0.012935467
000080 8f 55 29 be 96 03 22 3e bc fd c9 3c e0 42 20 bd
       -0.16536544 0.1582168 0.024657123 -0.039126277
000090 01 1b 76 3e 18 58 c9 3d d7 c8 2a 3e 90 b6 4d 3b
       0.24033739 0.09831256 0.16678177 0.0031389333
0000a0 c5 90 66 bd 46 97 82 3e fb 95 51 3c 39 f8 85 bd
       -0.056290407 0.25506037 0.012792106 -0.06541485
0000b0 f9 a2 46 bd a6 dd f1 3c 52 9f f5 3d 02 48 ee 3d
       -0.048495267 0.029524636 0.119932786 0.11634828
0000c0 01 4b 39 3c 00 60 90 bd 88 ac 45 bb 73 e2 65 3d
       0.011309386 -0.070495605 -0.003016265 0.056124162
0000d0 8f 95 ee 3d dd ca ee bc d5 0b d5 3d d6 37 da bd
       0.1164962 -0.029149467 0.104026474 -0.10655181
0000e0 56 4e d2 bc 8a 0e e4 bd 2f f7 87 bd e7 a6 14 be
       -0.02567212 -0.111355856 -0.066389434 -0.14516793
0000f0 3a 64 1f 3e 6e ec ca bd 0b 5c 60 be b9 10 06 be
       0.15565577 -0.09908377 -0.21910112 -0.13092317
000100 b8 99 b9 3d 26 4b 82 be 1a bd 95 bd 35 55 5c 3d
       0.09062523 -0.2544796 -0.07311459 0.053792197
000110 dd d2 98 3e 1f b9 3a bd f8 ab 3d 3e 55 48 e8 3a
       0.29848376 -0.0455867 0.18522632 0.0017721752
000120 61 2d 43 be a2 ae 84 bc 37 4f 83 3b 23 5e 33 bd
       -0.1906028 -0.016196553 0.004007246 -0.043790948
000130 9a e4 23 be cc ad 75 3c 2c f4 44 bc f7 b1 0a be
       -0.16005173 0.01499505 -0.012021106 -0.1354445
000140 95 a1 99 3d 4a dc a7 bd b2 fb 0c be 36 3e ec 3d
       0.075015225 -0.08196314 -0.13767889 0.11535303
000150 8f 1c 64 3b ba 24 ce bb 24 95 17 bd 0b d4 4f 3e
       0.0034807061 -0.0062909992 -0.037007466 0.20295732
000160 6e b0 06 be 81 65 1b 3e 44 dd 38 3e ca 06 fe 3d
       -0.1315324 0.1517544 0.18053156 0.12403639
000170 1c 12 4e be c5 1c a9 3d ca 44 c3 3d 97 59 96 be
       -0.20124096 0.082574405 0.09534605 -0.29365227
000180 3a db 72 3d 11 e7 02 be 4c 8e 0f 3e 6c 72 f8 bd
       0.059291102 -0.12783457 0.14019126 -0.12131199
000190 71 76 fe 3c 87 cc 41 3e 40 14 8a bd 44 30 7d bc
       0.031062337 0.18925677 -0.06742144 -0.015453402
0001a0 93 7e 19 3e 88 93 43 3e 0f 7f 18 be f1 06 02 be
       0.1498969 0.19099247 -0.14892219 -0.1269796
0001b0 43 ef 85 bd 36 24 b2 3d 5a bb b4 bc bd e2 25 3e
       -0.06539776 0.08698313 -0.022061992 0.16199775
0001c0 1d 26 df bc 07 c4 86 bd 61 61 57 3e 18 60 05 3e
       -0.027239854 -0.06580358 0.21033241 0.13024938
0001d0 2e ab 69 bd 29 73 09 3e 43 b9 7b be 20 77 08 bd
       -0.057048015 0.13422836 -0.2458239 -0.03331673
0001e0 a1 3a 29 be 0d 0e 39 be cf b8 e6 bc 76 b5 cd 3c
       -0.16526271 -0.18071766 -0.028164295 0.025110941
0001f0 d6 8c 8d bb 27 14 4a be 1c 94 7d bd 31 dc 50 3e
       -0.0043197675 -0.1973425 -0.061908826 0.20396496
000200 5c 55 bd bd fd ba 0d 3e 0b 29 10 bb 59 43 0b be
       -0.09244797 0.13840862 -0.002199712 -0.1359991
000210 92 9e e8 3d f8 64 7d be cf 39 54 be 8f 3a 1a 3e
       0.1135837 -0.24745548 -0.20725177 0.15061401
000220 85 85 15 3e ab 45 80 3c 57 ae 34 be 69 6d 81 bd
       0.14601715 0.01565822 -0.1764463 -0.063196965
000230 c8 c3 d6 3d a8 6b 3b 3d 2a 4e 82 3d ae 1c 97 3d
       0.10486561 0.045756966 0.06362565 0.07378517
000240 e7 e8 7e 3e 71 14 86 be e8 bc 12 be 88 89 70 be
       0.24893533 -0.2618747 -0.14329875 -0.23489964
000250 4b 25 1e bc 12 06 79 3c ec 2a 9f 3d 95 45 04 be
       -0.009652446 0.015199201 0.077718586 -0.12917168
000260 f8 5d 1b bd 8e 3f b8 bd ee 91 72 3e 31 be b2 3a
       -0.037931412 -0.08996497 0.2368848 0.0013637004
000270 dd b1 89 3d 23 da 8f bb 56 22 b0 3d aa 9d bb bd
       0.06723378 -0.0043900176 0.08600299 -0.091609314
000280 ea a4 1b be 97 eb 86 3d 29 e9 3c bd 1c 64 a7 bd
       -0.15199628 0.06587904 -0.046120796 -0.08173391
000290 e2 d9 be 3c 39 d6 a4 3d 7f 55 0e 3e 0a 39 0c be
       0.023297254 0.08048672 0.13899802 -0.13693634
0002a0 e1 5b ea bc ff 0c b4 3c 3f c3 f4 3d 5a 24 50 bd
       -0.028608264 0.021978853 0.11951303 -0.050815918
0002b0 1a b0 6e bd 89 6c 3d 3e 37 05 20 be e4 0c b7 3d
       -0.058273412 0.18498434 -0.1562699 0.089380056
0002c0 44 48 53 3b 6d 7f d4 3d 01 45 e1 3c 7e 3b 44 3e
       0.0032239119 0.10375867 0.027498724 0.1916332
0002d0 7f 4f 67 3d b9 ca 69 be b0 c4 29 3e 45 48 79 3d
       0.056472298 -0.22831239 0.16578937 0.060859937
0002e0 31 91 0a 3d 9b 01 7a 3e f0 60 27 bd b2 cb aa 3c
       0.03382987 0.24414675 -0.04086393 0.020849083
0002f0 d2 f4 10 be 71 40 52 3e c7 05 87 bd 45 34 09 be
       -0.14155892 0.20532395 -0.06592899 -0.13398845
000300 88 eb a7 3d 80 b6 8a bd 3c ea c8 bd a5 7f 6f 3d
       0.08199221 -0.0677309 -0.09810302 0.05847134
000310 03 72 54 bb dc 6b d6 bd 6b 08 ff bd d7 c0 fe 3d
       -0.003241659 -0.10469791 -0.124527775 0.12439125
000320 b6 89 ca bd e1 d4 00 3e 16 b7 a7 3d b8 1e 41 bd
       -0.098895475 0.12581207 0.08189218 -0.047148436
000330 30 da f7 3c ab aa 60 3d 43 62 23 bd ce 73 11 3e
       0.030255407 0.05485026 -0.03988863 0.14204332
000340 71 a0 6a 3d af 46 bf 3d bf 72 89 be 86 9d 4c 3d
       0.057281915 0.09339654 -0.26845357 0.049954914
000350 d1 35 be 3d 05 f6 ae bd 26 08 c6 bd 41 75 1d be
       0.092876084 -0.08543018 -0.09669523 -0.1537676
000360 0b 1a 32 3d d5 4d 8d 3e 8f 3f 2c 3c 96 9e 9c be
       0.043481868 0.27598444 0.0105132 -0.3058974
000370 a5 4e b9 3e bb f9 c5 be 1d 81 03 be 68 34 43 bc
       0.36192814 -0.38667092 -0.12842222 -0.01191435
000380 e4 ef 22 bd 95 6a 04 be 04 96 3f 3e 41 c4 da 3d
       -0.03977956 -0.12931283 0.1870957 0.10681964
000390 f3 67 2b 3e 4c fc 07 3e 6d 55 8a bb 7c d8 86 bc
       0.16738872 0.13279837 -0.0042216093 -0.01646065
0003a0 61 cc 4a 3e 3e f9 d0 bc 35 a1 0b bc 94 9d f2 3d
       0.19804527 -0.025509473 -0.0085223215 0.11846462
0003b0 8e b7 12 be 09 cd 62 3e b4 b2 d2 3b c1 ee 32 be
       -0.14327833 0.22148527 0.0064299945 -0.1747389
0003c0 5c 80 14 3e af 5a 15 be 73 70 07 3e 79 c9 f3 3c
       0.1450209 -0.14585374 0.1322649 0.029759156
0003d0 67 99 c6 bb 9c 01 00 be ed ff 9a bd 51 4f b9 bd
       -0.0060607675 -0.12500614 -0.07568345 -0.090483315
0003e0 74 5e f1 3d e9 1a 16 3e 66 f4 10 bd 8a 0e 0c 3e
       0.11785594 0.14658703 -0.035389327 0.13677421
0003f0 de bc 28 be 6e f9 08 be ff 91 80 3d 1e 6b 9a be
       -0.16478297 -0.133764 0.062778465 -0.3015985

hidden_layers.0.bias f4 [50]
000000 6d 38 23 bb 69 a2 12 bb b3 84 06 ba 67 21 90 bc
       -0.0024905459 -0.0022374636 -0.0005131468 -0.017594052
000010 6d 9a 14 3b de 29 e6 bb 9b 18 0f bc a4 93 12 bb
       0.0022675053 -0.007024034 -0.008733894 -0.0022365833
000020 92 cb 02 bc ee 2b 0f bb 6e 2c 3e 3b 1c 59 ac 3a
       -0.007983105 -0.0021846252 0.0029018181 0.0013149115
000030 eb c4 c5 3b d6 3e 5a 3b 67 1c 41 bb 69 d3 5d 3b
       0.0060354373 0.0033301613 -0.0029466392 0.0033847934
000040 1c d3 71 bb a9 e6 7a bb f4 61 22 bc 3e 7f 99 3b
       -0.0036899513 -0.0038284457 -0.009911049 0.004684358
000050 ce 4a a8 3a 1b d5 e1 bb 7b 54 07 3c dc a3 86 b9
       0.0012839676 -0.006891859 0.008259888 -0.00025680556
000060 64 08 39 bc cc 8c d3 bc 90 c6 25 bc eb d3 97 3b
       -0.011293504 -0.025823973 -0.010118142 0.004633417
000070 d7 8c de bb b5 a2 67 bc 42 0b 93 3c b3 aa 8b 3b
       -0.0067916918 -0.0141379135 0.017949704 0.0042622923
000080 93 c3 30 3c 6a 13 46 3b 79 15 a4 3c 45 f3 e0 bb
       0.010788816 0.0030223974 0.02002977 -0.0068649375
000090 ad 22 81 bc dc fe ac 3a 31 27 f3 3c 91 4a 85 3b
       -0.015763605 0.0013198513 0.029681774 0.004067727
0000a0 85 d7 20 3c 10 72 52 3b f9 46 d3 3b 21 d1 89 3b
       0.009817009 0.0032111444 0.0064476696 0.0042058383
0000b0 a0 d8 56 bc ae 2c 7c 3c fb ac 59 ba 2a 61 ee bc
       -0.013113171 0.015391512 -0.0008303669 -0.029099066
0000c0 b7 19 a2 b9 dc 35 3b 3b
       -0.00030918207 0.0028566038

hidden_layers.1.weight f4 [50, 50]
000000 a6 67 00 bd ac 63 aa bd 2b 8e 2b be 43 41 41 be
       -0.031348847 -0.08319792 -0.16753452 -0.18872552
000010 1f b7 c4 bd e6 66 e3 bd 40 b1 13 3e 75 c6 19 3e
       -0.0960524 -0.11103611 0.14423084 0.15017112
000020 23 91 ab 3d fb 85 5f 3c ae 6c 56 3e 78 4f e1 3d
       0.08377292 0.013642783 0.20939896 0.110014856
000030 5c 5d 34 3b f5 7d 63 bd df a8 59 3c aa d8 56 3d
       0.0027521467 -0.055540044 0.013284891 0.05245272
000040 9e e4 bc bd d5 51 d0 bd 42 c9 61 be 24 f7 05 be
       -0.09223293 -0.10171858 -0.2204943 -0.13082558
000050 fe 94 84 bb e5 ba bf bc 43 32 0f 3d f4 07 89 3b
       -0.0040460816 -0.023404548 0.034960043 0.0041818563
000060 68 65 03 3e 66 fd be bc cc 11 3b bd db e4 a3 3d
       0.12831652 -0.02331419 -0.04567127 0.08002635
000070 e9 0e 71 3e 95 75 71 be 04 db 93 be 54 b9 50 3d
       0.23540844 -0.2358001 -0.28878033 0.050957993
000080 ce 0f 82 3e 63 1e 9a bd 96 7d 0a 3c 97 c1 29 bd
       0.25402683 -0.07525327 0.008452794 -0.041444387
000090 c2 ac 10 3e 35 3e 1c 3d a0 39 50 bd 43 62 f7 bd
       0.14128402 0.038145263 -0.050836205 -0.12079289
0000a0 a6 1f d0 3d e2 4a b7 be 60 c7 3a bd f0 53 26 be
       0.101622865 -0.3579932 -0.045600295 -0.16242957
0000b0 8c bf bf 3d 5f da de bc 70 3c a1 3c a2 28 0b be
       0.093627065 -0.027203737 0.01968214 -0.13589719
0000c0 00 b4 a6 3e dd c2 24 3d ce c9 ba bd 72 84 7f 3b
       0.32559204 0.0402249 -0.091205224 0.0038988856
0000d0 11 86 e6 3d 0e b7 7d 3d 18 e7 86 bd b6 fb c6 3d
       0.1125604 0.061942153 -0.065870464 0.09715979
0000e0 53 42 88 be 42 3f bf bd 7d 2c 2b 3e af a8 de 3d
       -0.266131 -0.09338237 0.1671619 0.108720176
0000f0 54 5a cb 3c 0a 66 29 be 52 c1 b2 bd 48 38 92 bd
       0.024823345 -0.16542831 -0.08728279 -0.07139641
000100 b5 da a9 be b2 8c 3b bd 12 7b 28 bd d2 7b 04 3e
       -0.33174673 -0.045788474 -0.041132994 0.12937859
000110 00 72 39 be 33 4b 53 bc 98 ff fa bc 54 68 1f 3d
       -0.18109894 -0.012896347 -0.030639455 0.038917854
000120 0e db dd 3d d7 b9 98 3d b4 33 26 3e 17 c4 ff bd
       0.10832797 0.07457321 0.1623066 -0.12488573
000130 7e 43 b0 3d c6 e3 b3 3d d3 70 e6 bb df 6b ba bd
       0.08606623 0.08783679 -0.0070324927 -0.09102606
000140 32 ba db 3d db 9e 0e 3e 9c 80 0c be e1 90 09 bd
       0.10728873 0.13927786 -0.13720936 -0.033585433
000150 89 eb 5b be 04 94 1e 3e 6c 12 d8 bd 5c 27 0a be
       -0.21476568 0.15486151 -0.10550389 -0.13491577
000160 ff 2e 3a be b2 26 1d 3e 64 6f c2 bd 1a a4 15 3e
       -0.1818199 0.15346792 -0.09493902 0.14613381
000170 89 91 fa bb da 67 20 be d6 cd 3a bd 7c 7e ea 3d
       -0.0076467437 -0.15664616 -0.045606457 0.11449906
000180 4d 72 d8 bd 15 8a 45 3e 83 f0 8d be 27 ec e9 3d
       -0.10568676 0.19290955 -0.27722558 0.114219956
000190 65 4a 15 be e9 bb 4b 3c c7 3b 3b 3d 70 2a 4d bc
       -0.1457916 0.012434938 0.045711305 -0.012522325
0001a0 ac 1b 5e 3e 28 88 9b 3d e5 16 e6 3d d3 aa 30 3d
       0.21690243 0.07594329 0.112348355 0.04313166
0001b0 48 e6 4b 3e 59 5c 21 be 09 ab dd 3c a7 f4 b6 bd
       0.19912064 -0.15757884 0.027059095 -0.089333825
0001c0 31 c6 65 bd ed 30 70 bd f4 04 13 be 83 2f fd 3d
       -0.056097213 -0.05864041 -0.14357358 0.12362578
0001d0 7b 89 46 3e a2 33 02 bd f4 aa d6 bd a9 a8 23 3d
       0.19388382 -0.031787522 -0.104818255 0.03995577
0001e0 f2 97 66 3e ba 96 30 3d 04 39 06 3a 4b 39 3e bd
       0.225189 0.043112494 0.00051201903 -0.046441358
0001f0 d8 e5 fc bd d5 8e af 3d 8d 1a c7 3d 58 cb ed bd
       -0.12348527 0.08572165 0.09721861 -0.1161105
000200 c9 67 5d 3c 32 58 02 3e 1e f2 1c 3e 1c 60 f6 bd
       0.013513514 0.12728956 0.15326735 -0.1203005
000210 90 1e fe bc e6 a9 3e bd c2 2d ec bd 69 72 81 be
       -0.031020433 -0.046548747 -0.11532165 -0.252826
000220 87 4d 4f be 4e d3 93 bd 97 4b 8a 3d 5c c4 0c be
       -0.20244418 -0.072180375 0.06752699 -0.1374678
000230 a2 87 01 bd 38 37 23 3e 71 b1 a1 bd e3 6b ad 3d
       -0.03162349 0.15939033 -0.078951724 0.084678434
000240 07 66 7a be bf b8 14 3e 12 68 52 3d dc 26 87 3d
       -0.24452983 0.145236 0.05136878 0.06599209
000250 12 43 56 bd 85 59 e2 3d 9c 89 29 3c 27 dc b8 3d
       -0.052310057 0.11052231 0.01034775 0.09026366
000260 11 d9 46 bd ab 6d 44 bc 7d 2f 09 bc 4b 16 4c bc
       -0.048546854 -0.0119890375 -0.0083731385 -0.012456487
000270 b2 e5 ff 3d 49 47 9d be 0d 93 db bd 99 54 66 3e
       0.12494983 -0.3071845 -0.10721407 0.22493209
000280 3b ac 1c be ae c7 29 3c 69 cd 1e 3e 40 bc de bc
       -0.15300076 0.010362549 0.15508045 -0.027189374
000290 76 6e a2 3d db e5 66 bd c9 46 97 3b 88 4e 4a 3d
       0.07931225 -0.05637155 0.0046165925 0.0493913
0002a0 0e a9 8d 3d 52 43 03 3d 44 6f 42 bc 0e 7b 5e ba
       0.0691701 0.032046624 -0.011867348 -0.00084869645
0002b0 43 a4 ed bc 0a 9c b9 3d af be 13 be 4b 51 ed bd
       -0.02900899 0.09062965 -0.14428209 -0.11587771
0002c0 14 d6 91 3d ee 30 6c bd ee a6 45 bd b9 dd 76 3e
       0.0712091 -0.05766385 -0.0482549 0.24108018
0002d0 70 86 8d bd 1e 2c 2a 3e 82 3c d8 3d 66 dc ec 3d
       -0.069104075 0.16618392 0.10558416 0.11565475
0002e0 3f 19 f5 3d 77 4d 93 3d ce ea 3c be 61 7f 4d bd
       0.11967706 0.071925096 -0.18448946 -0.050170306
0002f0 a5 15 c1 3d 9c 0c 0e 3e cf d0 5d 3e 53 af 84 3c
       0.094279565 0.13871998 0.21661685 0.016196882
000300 4a b2 96 bc 68 3c 5d 3e a3 e3 ed bc 78 2a ec bd
       -0.018395562 0.21605074 -0.02903921 -0.11531538
000310 e9 b9 b6 bb 04 7b e8 bd 69 69 18 3e 62 22 dc bd
       -0.0055763614 -0.11351588 0.14883961 -0.107487455
000320 d8 c6 04 3e 17 98 4b 3a 45 e3 13 be ee 34 f8 3c
       0.12966478 0.00077664986 -0.14442165 0.030298676
000330 4b 28 a5 bd 41 10 e5 bc fd 69 57 b9 4a 0d fd bc
       -0.08064326 -0.027961852 -0.00020543482 -0.030890126
000340 6c 54 52 bd 84 67 cc bb c7 40 c6 bc 91 9d 4a be
       -0.051350042 -0.006237926 -0.02420081 -0.1978667
000350 13 d5 3c 3d f5 e0 33 be e3 7f 81 3c 41 0a b9 3d
       0.04610164 -0.17566283 0.015808051 0.09035159
000360 15 c5 80 3e 1f 7c 07 3e b5 1d 47 be 29 f8 35 3e
       0.25150362 0.13230942 -0.19444926 0.17770447
000370 17 99 47 be a1 34 83 bc f8 f6 9d 3e 3a 11 5e bc
       -0.19491993 -0.016016306 0.30852485 -0.013553912
000380 02 13 74 bd 10 ac ba 3d b7 2b 9d 3d cc db 5e be
       -0.05958844 0.091148496 0.076743536 -0.21763533
000390 d5 9f 83 be 31 5e 9b bc c6 91 c2 bd bd 0c 79 bd
       -0.2570788 -0.018965812 -0.0950046 -0.060803164
0003a0 f0 09 27 3e b3 ce 55 3d 07 46 82 3d d4 d3 6c bd
       0.16312385 0.052199077 0.06361013 -0.057819203
0003b0 55 dd a8 3d f8 9e 26 3e 7f e5 f7 bd bc e5 ef 3d
       0.08245341 0.1627158 -0.1210432 0.1171374
0003c0 19 48 3c 3d ce 94 93 bc 92 fa e3 3d b1 cd 9a 3c
       0.045967195 -0.018015292 0.11131777 0.01889691
0003d0 f2 60 23 3e f7 ea cc 3d 18 25 9f bc 55 eb 7b be
       0.1595495 0.100057535 -0.019426867 -0.24601491
0003e0 61 9e 7c 3e 4d 35 f0 bb d2 2c a3 3b 0c 84 fc bb
       0.24669792 -0.0073305727 0.004979708 -0.007706171
0003f0 35 07 27 3d 35 de 27 bc 35 eb 9e 3d 65 ad 9e 3d
       0.040778358 -0.010245849 0.07759706 0.07747916

hidden_layers.1.bias f4 [50]
000000 bb bc 76 3c 23 a1 a0 bc 8e a3 dd ba e7 f7 71 3c
       0.015059645 -0.019608086 -0.0016909705 0.014768577
000010 fb 06 2f 3c e1 3a ab 3a 8a 97 0c 3c 14 23 31 ba
       0.010682817 0.0013063812 0.008581052 -0.0006757241
000020 d6 71 9c 3c 34 83 75 3c ef ce 4e bb b0 76 18 3c
       0.01909725 0.014984895 -0.0031556448 0.009305641
000030 15 2f 76 3b d6 cc a6 bb 31 2c bf 3b a7 4a 85 3c
       0.0037564684 -0.0050903363 0.0058341254 0.016270949
000040 8f df 85 3b f2 6b 8b 3c 04 1d b7 bb 0a ce 63 bb
       0.004085488 0.017019246 -0.0055881757 -0.003476026
000050 75 e1 fd 3a 43 b8 33 3c 95 2a b1 bb f6 64 30 39
       0.001936956 0.010969224 -0.0054066875 0.00016822279
000060 3b 84 7c 3b 54 60 07 bb c6 42 12 3c 83 de 6f bc
       0.0038530964 -0.0020656781 0.008927053 -0.014640453
000070 38 63 dc bb 6b c8 81 3b 4e d2 b3 bb ec 5e 1d 3b
       -0.006725695 0.0039606593 -0.0054877168 0.0024012877
000080 69 39 84 bc 96 2e 9a 3a c9 f3 02 3b 28 71 d0 39
       -0.016140657 0.0011763151 0.0019981733 0.0003975716
000090 9b ec 8e bb bc c9 5a ba 44 13 96 bc 85 da 29 3c
       -0.0043617017 -0.0008346101 -0.018319733 0.0103670405
0000a0 91 36 d8 3a d7 6c ae 3b 76 86 cd 3c 9b f2 f9 3b
       0.0016495754 0.0053230333 0.02508853 0.007627798
0000b0 02 b7 b1 ba 8f 0b d2 bb 01 d2 94 bb f7 bd a1 3c
       -0.0013558569 -0.0064100693 -0.004541636 0.019743903
0000c0 0a b7 7a bb da 09 b8 3b
       -0.0038256072 0.005616409

hidden_lns.0.weight f4 [50]
000000 00 00 80 3f 00 00 80 3f 00 00 80 3f 00 00 80 3f
       1.0 1.0 1.0 1.0
000010 00 00 80 3f 00 00 80 3f 00 00 80 3f 00 00 80 3f
       1.0 1.0 1.0 1.0
000020 00 00 80 3f 00 00 80 3f 00 00 80 3f 00 00 80 3f
       1.0 1.0 1.0 1.0
000030 00 00 80 3f 00 00 80 3f 00 00 80 3f 00 00 80 3f
       1.0 1.0 1.0 1.0
000040 00 00 80 3f 00 00 80 3f 00 00 80 3f 00 00 80 3f
       1.0 1.0 1.0 1.0
000050 00 00 80 3f 00 00 80 3f 00 00 80 3f 00 00 80 3f
       1.0 1.0 1.0 1.0
000060 00 00 80 3f 00 00 80 3f 00 00 80 3f 00 00 80 3f
       1.0 1.0 1.0 1.0
000070 00 00 80 3f 00 00 80 3f 00 00 80 3f 00 00 80 3f
       1.0 1.0 1.0 1.0
000080 00 00 80 3f 00 00 80 3f 00 00 80 3f 00 00 80 3f
       1.0 1.0 1.0 1.0
000090 00 00 80 3f 00 00 80 3f 00 00 80 3f 00 00 80 3f
       1.0 1.0 1.0 1.0
0000a0 00 00 80 3f 00 00 80 3f 00 00 80 3f 00 00 80 3f
       1.0 1.0 1.0 1.0
0000b0 00 00 80 3f 00 00 80 3f 00 00 80 3f 00 00 80 3f
       1.0 1.0 1.0 1.0
0000c0 00 00 80 3f 00 00 80 3f
       1.0 1.0

hidden_lns.0.bias f4 [50]
000000 00 00 00 00 00 00 00 00 00 00 00 00 00 00 00 00
       0.0 0.0 0.0 0.0
000010 00 00 00 00 00 00 00 00 00 00 00 00 00 00 00 00
       0.0 0.0 0.0 0.0
000020 00 00 00 00 00 00 00 00 00 00 00 00 00 00 00 00
       0.0 0.0 0.0 0.0
000030 00 00 00 00 00 00 00 00 00 00 00 00 00 00 00 00
       0.0 0.0 0.0 0.0
000040 00 00 00 00 00 00 00 00 00 00 00 00 00 00 00 00
       0.0 0.0 0.0 0.0
000050 00 00 00 00 00 00 00 00 00 00 00 00 00 00 00 00
       0.0 0.0 0.0 0.0
000060 00 00 00 00 00 00 00 00 00 00 00 00 00 00 00 00
       0.0 0.0 0.0 0.0
000070 00 00 00 00 00 00 00 00 00 00 00 00 00 00 00 00
       0.0 0.0 0.0 0.0
000080 00 00 00 00 00 00 00 00 00 00 00 00 00 00 00 00
       0.0 0.0 0.0 0.0
000090 00 00 00 00 00 00 00 00 00 00 00 00 00 00 00 00
       0.0 0.0 0.0 0.0
0000a0 00 00 00 00 00 00 00 00 00 00 00 00 00 00 00 00
       0.0 0.0 0.0 0.0
0000b0 00 00 00 00 00 00 00 00 00 00 00 00 00 00 00 00
       0.0 0.0 0.0 0.0
0000c0 00 00 00 00 00 00 00 00
       0.0 0.0

hidden_lns.1.weight f4 [50]
000000 00 00 80 3f 00 00 80 3f 00 00 80 3f 00 00 80 3f
       1.0 1.0 1.0 1.0
000010 00 00 80 3f 00 00 80 3f 00 00 80 3f 00 00 80 3f
       1.0 1.0 1.0 1.0
000020 00 00 80 3f 00 00 80 3f 00 00 80 3f 00 00 80 3f
       1.0 1.0 1.0 1.0
000030 00 00 80 3f 00 00 80 3f 00 00 80 3f 00 00 80 3f
       1.0 1.0 1.0 1.0
000040 00 00 80 3f 00 00 80 3f 00 00 80 3f 00 00 80 3f
       1.0 1.0 1.0 1.0
000050 00 00 80 3f 00 00 80 3f 00 00 80 3f 00 00 80 3f
       1.0 1.0 1.0 1.0
000060 00 00 80 3f 00 00 80 3f 00 00 80 3f 00 00 80 3f
       1.0 1.0 1.0 1.0
000070 00 00 80 3f 00 00 80 3f 00 00 80 3f 00 00 80 3f
       1.0 1.0 1.0 1.0
000080 00 00 80 3f 00 00 80 3f 00 00 80 3f 00 00 80 3f
       1.0 1.0 1.0 1.0
000090 00 00 80 3f 00 00 80 3f 00 00 80 3f 00 00 80 3f
       1.0 1.0 1.0 1.0
0000a0 00 00 80 3f 00 00 80 3f 00 00 80 3f 00 00 80 3f
       1.0 1.0 1.0 1.0
0000b0 00 00 80 3f 00 00 80 3f 00 00 80 3f 00 00 80 3f
       1.0 1.0 1.0 1.0
0000c0 00 00 80 3f 00 00 80 3f
       1.0 1.0

hidden_lns.1.bias f4 [50]
000000 00 00 00 00 00 00 00 00 00 00 00 00 00 00 00 00
       0.0 0.0 0.0 0.0
000010 00 00 00 00 00 00 00 00 00 00 00 00 00 00 00 00
       0.0 0.0 0.0 0.0
000020 00 00 00 00 00 00 00 00 00 00 00 00 00 00 00 00
       0.0 0.0 0.0 0.0
000030 00 00 00 00 00 00 00 00 00 00 00 00 00 00 00 00
       0.0 0.0 0.0 0.0
000040 00 00 00 00 00 00 00 00 00 00 00 00 00 00 00 00
       0.0 0.0 0.0 0.0
000050 00 00 00 00 00 00 00 00 00 00 00 00 00 00 00 00
       0.0 0.0 0.0 0.0
000060 00 00 00 00 00 00 00 00 00 00 00 00 00 00 00 00
       0.0 0.0 0.0 0.0
000070 00 00 00 00 00 00 00 00 00 00 00 00 00 00 00 00
       0.0 0.0 0.0 0.0
000080 00 00 00 00 00 00 00 00 00 00 00 00 00 00 00 00
       0.0 0.0 0.0 0.0
000090 00 00 00 00 00 00 00 00 00 00 00 00 00 00 00 00
       0.0 0.0 0.0 0.0
0000a0 00 00 00 00 00 00 00 00 00 00 00 00 00 00 00 00
       0.0 0.0 0.0 0.0
0000b0 00 00 00 00 00 00 00 00 00 00 00 00 00 00 00 00
       0.0 0.0 0.0 0.0
0000c0 00 00 00 00 00 00 00 00
       0.0 0.0

output_layer.weight f4 [2, 50]
000000 1f 02 8d be 5b bf e9 3e b0 59 a8 3e 5a 43 b4 3e
       -0.2754068 0.45653805 0.32880926 0.35207635
000010 12 31 a7 3e a8 0c 80 be 2a 4b aa 3d 0a 5a 93 be
       0.32654625 -0.25009656 0.08315118 -0.28779632
000020 10 d8 ba bc d0 1e 2a 3d 82 de 1f be 88 da 51 3e
       -0.022808105 0.04153329 -0.15612224 0.2049352
000030 b9 56 a2 bd fa d2 7c be 95 f8 2a be dc c7 d3 bd
       -0.07926697 -0.24689856 -0.16696389 -0.103408545
000040 3a 7b 35 3e 38 32 68 3e 37 9e 34 3e 41 27 9b be
       0.17722788 0.22675407 0.17638479 -0.30303386
000050 85 8f 83 be 9f 2a 9c 3d f2 c8 16 be 60 40 55 3e
       -0.25695434 0.07625317 -0.14725092 0.20825338
000060 a0 9d 6b 3e fc 15 8c 3d 1e f1 13 3d b9 50 a4 3e
       0.23009348 0.06840131 0.03611862 0.32092836
000070 8f 96 53 3d b4 cd df 3d c3 f5 c1 3e f9 37 10 3c
       0.051657256 0.10927907 0.37882814 0.008802407
000080 50 e5 86 3e b4 51 fa bc cc 1f 45 be da 7e 84 3e
       0.26346827 -0.030556537 -0.19250411 0.2587803
000090 fe 8a 27 3d 1a 89 f1 3d 1a 56 28 3e 9a a7 fa 3d
       0.040904038 0.11793728 0.16439095 0.12238999
0000a0 93 23 bc bd 9a 0c 33 bd 9f e5 63 be a4 71 12 3c
       -0.09186473 -0.04371319 -0.22255562 0.008938227
0000b0 0a b8 a9 bd 56 d7 7a be 65 dc ee bc 44 46 e8 bd
       -0.08287056 -0.24496207 -0.029157827 -0.11341527
0000c0 f0 d9 51 3d 50 cf 1f 3d b6 fe 0f bf 70 48 14 3e
       0.051233232 0.039016068 -0.56248033 0.14480758
0000d0 ae cb 3b 3d d5 e2 09 be 0e cb e2 bd 6f d8 84 3b
       0.04584854 -0.13465436 -0.11073886 0.004054121
0000e0 6b 78 1a be ad 2f de 3d c3 67 7d be 29 2e a0 be
       -0.15084998 0.10848937 -0.24746613 -0.31285217
0000f0 fe 0e 80 3d 50 34 9a be c2 92 85 be 2e cc 02 3e
       0.062528595 -0.30118036 -0.2608853 0.12773201
000100 4d 12 c2 bd e9 00 7f be 0b 55 0e be 50 56 08 be
       -0.09476147 -0.24902691 -0.13899629 -0.13314176
000110 75 91 8d 3d 63 44 9d 3d 9c 03 48 bc d6 04 35 be
       0.06912509 0.07679059 -0.012207892 -0.17677626
000120 fd d7 1f 3e c3 62 b6 bc 92 f5 62 be 46 34 fe bd
       0.15609737 -0.02226389 -0.2216399 -0.12412314
000130 05 d4 f1 bd 8e 1a 9b 3e 73 7b f9 3d 7c a3 01 be
       -0.11808018 0.30293697 0.12181749 -0.1266002
000140 e9 07 fc 3d 1a ca 14 be 50 9c ba 3e d7 02 02 bd
       0.12306196 -0.1453022 0.36447382 -0.03174099
000150 6e 50 8e bc 76 4c f7 3d f4 27 10 3e 38 a9 ae bc
       -0.017372336 0.12075131 0.14077741 -0.021320924
000160 2a 17 a4 3e 8d ed 64 bd d5 0d da bd d5 44 c9 bd
       0.32048923 -0.05589061 -0.106471695 -0.09827582
000170 9f a9 76 be 73 0f c9 bd 9c ca 4e 3d 5b ae eb 3c
       -0.24088143 -0.098174 0.050486192 0.028769663
000180 0f 6e 0b 3e 93 0f 87 be 04 a6 3f 3e 2d 2d 21 be
       0.13616203 -0.2637907 0.18715674 -0.1573989

output_layer.bias f4 [2]
000000 f6 a5 b5 ba 5a 55 20 bc
       -0.0013858664 -0.009785974

exp_avg f4 [50, 2]
000000 74 3b fb 3f 4a 06 c0 3f ac 43 6b c0 23 f1 de bf
       1.9627519 1.5001919 -3.6760054 -1.7417339
000010 d9 e6 2c bf 09 f6 a5 be ea 33 a2 3f ce 9b 60 c0
       -0.67539746 -0.32414272 1.2672093 -3.5095096
000020 be 07 71 40 ef 1c 9c c0 48 b1 9b bf fa 0d b7 3f
       3.7660975 -4.878532 -1.2163477 1.430114
000030 f4 3a 84 3f 3e 09 b2 bf d6 12 6e be 1f 8f 7e 40
       1.0330491 -1.390907 -0.23249373 3.9774854
000040 7f 82 df 3d 35 71 b8 3d ac c2 04 c0 62 58 52 3e
       0.10913562 0.090059675 -2.0743818 0.20541528
000050 e4 7e 11 c0 f9 bb 1f 3f ca bd ab bd 54 2c a3 3f
       -2.2733698 0.623962 -0.08385809 1.2747903
000060 2d af 20 bf 1a c2 77 c0 b2 1d 42 3f b3 04 15 3c
       -0.627673 -3.871222 0.7582656 0.009095359
000070 ef 68 ce bf 2f d2 e6 be f9 91 1f 40 76 e1 ba 3f
       -1.6125773 -0.45082232 2.4932845 1.4600055
000080 ac c0 38 c0 f5 88 81 3e fd a0 a3 3f 4c 31 b1 3f
       -2.8867598 0.25299802 1.2783505 1.3843169
000090 96 30 e2 3f 47 d5 de 3f 10 3e 37 bd d5 5e 8b 3f
       1.7671077 1.7408837 -0.04473692 1.0888315
0000a0 1c 13 12 40 75 ab 18 3f db b0 07 bf 5d aa 9a 3f
       2.2824163 0.5963662 -0.53004235 1.2083241
0000b0 ab 7d 9b 3d 3e 63 49 bf e3 18 88 c0 22 af 09 c0
       0.07592329 -0.78667057 -4.253038 -2.1513143
0000c0 67 1c f7 be 5a b1 c0 3e 14 f9 59 bf 6c 9f b4 3f
       -0.48263857 0.37635309 -0.8514569 1.4111152
0000d0 be 4b a9 3f ec 2d ba 3f 83 c4 23 3f cd 7f 18 be
       1.322624 1.4545264 0.6397173 -0.14892502
0000e0 6d 15 e2 bd db 01 11 3f 9a 2f b9 3d 0c 3b fc 3f
       -0.11039243 0.56643456 0.090422824 1.970552
0000f0 75 64 20 40 46 65 93 c0 52 e0 b5 bf be 72 f3 3f
       2.5061314 -4.6061125 -1.4209082 1.9019392
000100 27 35 de be c5 92 e1 3e 77 57 03 bf 3a e2 4e 3c
       -0.43399927 0.4405729 -0.51305336 0.012627179
000110 c2 dc 27 3e bd 94 0b bf 02 3d 08 40 c5 1e b1 3f
       0.16392806 -0.5452383 2.1287236 1.3837515
000120 af e9 76 3e 04 35 3c be 03 d4 01 3f c6 58 39 3f
       0.2411258 -0.18379599 0.5071413 0.7240108
000130 22 81 0c bf b9 e9 17 40 0a ac 89 bd 59 d4 ff 3f
       -0.5488454 2.3736403 -0.06722267 1.9986678
000140 4c 9e 8f 3f 23 4f 6e 3f f1 cc ad 3f 80 96 3d c0
       1.1220183 0.93089503 1.3578168 -2.9623108
000150 0f 3d 92 3f e1 fc 5c 3d 6b 07 8a bf 26 bf 80 3f
       1.1424884 0.0539521 -1.0783514 1.0058334
000160 fa a4 2f bf b9 e5 a3 3f 15 0e 83 3e 9d c5 70 c0
       -0.6861111 1.2804481 0.2559668 -3.7620614
000170 48 b5 98 3f 1a 2c 39 3f 9f df b0 3e 7c 56 d5 bd
       1.1930323 0.7233292 0.3454561 -0.10416886
000180 79 2c 05 c0 6b cc 13 c0 7c c2 ac bf 03 c2 dc bf
       -2.0808394 -2.3093517 -1.3496852 -1.7246708

exp_avg_sq f4 [50, 2]
000000 da 21 f7 40 9a 3b 6f 40 42 d9 af 41 bd 45 15 40
       7.7228823 3.7380128 21.981083 2.3323815
000010 a9 64 7b 40 df d6 99 40 51 3f d6 40 12 88 00 41
       3.9280188 4.8074794 6.695229 8.03322
000020 f0 93 b2 40 34 11 b3 40 ca 15 94 41 92 4b a0 40
       5.580559 5.59585 18.51064 5.009225
000030 b5 bc 5a 40 22 0a c8 40 6a 8a 76 40 d6 50 25 41
       3.4177678 6.251237 3.8521981 10.332235
000040 ad 1a 61 40 19 ad 05 41 f0 00 e8 40 39 70 62 40
       3.5172532 8.35476 7.2501144 3.5380995
000050 fd e1 1d 41 1c 94 38 41 1e 43 76 40 48 53 06 41
       9.867673 11.5361595 3.8478465 8.395332
000060 fb 62 08 41 f3 2b a3 40 6e 37 2d 41 a5 99 3a 40
       8.524165 5.099115 10.826033 2.9156277
000070 c3 37 ef 3f bd 10 46 40 64 42 17 41 38 b0 99 40
       1.8688892 3.0947716 9.453709 4.802761
000080 4b 3d 77 40 08 ad 1a 41 f8 01 97 40 4e 5a b9 40
       3.863116 9.667244 4.7189903 5.7922735
000090 63 7c 53 40 77 cb d7 40 99 07 07 40 b2 fb aa 3f
       3.304467 6.743587 2.1098387 1.3358061
0000a0 2e 7c c3 40 8f d0 a3 41 4b 84 66 41 5b 5e 28 41
       6.1089087 20.476835 14.407298 10.523036
0000b0 3d 7a 42 41 ef b5 a5 40 93 91 7f 40 87 f2 05 41
       12.154843 5.1784587 3.9932601 8.371711
0000c0 3b de cc 40 5d 69 4a 40 4b ff ce 40 00 4f 9d 41
       6.4021277 3.1626809 6.4686637 19.663574
0000d0 8d 07 bd 3f 38 10 eb 3f 40 6d 1d 41 75 01 91 40
       1.4767929 1.8364325 9.839172 4.531428
0000e0 e8 77 31 41 88 c3 93 40 0b ad 3e 40 ee 15 da 3f
       11.091774 4.6176186 2.9793117 1.7037942
0000f0 0a d4 c5 40 b7 25 16 41 99 8b c1 40 61 6a 87 40
       6.1821337 9.384208 6.0482907 4.2317357
000100 61 d2 6a 40 01 19 f6 40 f1 3c 48 41 0b 91 93 40
       3.6690905 7.690552 12.514878 4.6114554
000110 b7 04 09 41 d0 5e ab 40 8a 26 08 41 e8 16 2c 40
       8.563651 5.355324 8.509409 2.688898
000120 ef d3 a9 41 7e fb bc 40 33 6e f9 40 1f 15 c9 40
       21.228483 5.9056997 7.794702 6.2838283
000130 7a 54 99 40 d8 a8 d1 3f 22 05 f0 40 74 b5 b3 40
       4.791562 1.6379652 7.5006266 5.6159
000140 f3 f1 32 41 7d 8d d3 41 b7 99 0e 41 0a bf a1 40
       11.18407 26.444086 8.912528 5.05457
000150 4e 35 81 41 27 e2 89 41 65 7e 82 41 a1 48 3c 41
       16.151028 17.235426 16.311716 11.767732
000160 fe 5c 0b 40 54 e2 d3 40 2e e0 1a 41 85 3a 3d 41
       2.1775508 6.621378 9.679731 11.826787
000170 2b 22 06 41 05 25 ce 3f d6 29 fd 3f 41 ae 62 40
       8.383342 1.6105047 1.9778392 3.5418856
000180 02 fa 2f 40 75 a9 26 40 a1 f0 af 40 53 1e 72 40
       2.7496343 2.6040928 5.4981236 3.7831008

exp_avg f4 [50]
000000 0d 79 6a 40 99 cc 3e 40 b4 df 30 3e 09 75 92 40
       3.6636384 2.9812376 0.17272836 4.5767865
000010 1b 4b 01 c0 33 b3 d6 c0 6e 32 4c 40 c2 ec 62 c1
       -2.020209 -6.709375 3.190578 -14.182802
000020 d7 7d 3b 40 28 58 76 41 bf 88 3f c1 a1 a6 2b 40
       2.9295557 15.3965225 -11.970885 2.6820452
000030 34 6a ae c1 63 4e 43 40 60 f4 35 c0 dc 6d 59 41
       -21.801857 3.0516593 -2.8430405 13.589321
000040 61 60 8b c1 d6 a6 2a 41 56 81 07 42 87 47 cf 40
       -17.42206 10.665731 33.876305 6.4774814
000050 84 c2 22 c1 8e f9 cb 40 d6 62 e3 bf 8a 89 d2 c1
       -10.172489 6.374213 -1.7764537 -26.317158
000060 d1 b8 63 41 e7 92 98 41 e6 8a 0a c0 5a c7 3e c1
       14.232621 19.07173 -2.1647277 -11.92367
000070 b2 4d b2 bf 31 17 b6 40 a6 28 94 bf e3 a0 46 c0
       -1.3929961 5.690331 -1.1574905 -3.1035697
000080 6e 1f 35 c1 31 03 99 3f 10 e1 59 bf fd 0f 23 c0
       -11.320173 1.1954099 -0.85109043 -2.5478508
000090 05 17 87 40 86 47 2b 3d 5b 02 b8 40 3c 54 ce 3e
       4.22156 0.041816257 5.7502875 0.4029864
0000a0 75 78 14 41 af 99 f4 40 25 11 d8 c0 fc 1b 7c c1
       9.279408 7.64376 -6.752093 -15.756832
0000b0 5d 39 88 c0 dc 1e 64 41 a1 5f 75 c0 3d 53 49 3e
       -4.2570024 14.257534 -3.8339617 0.19660659
0000c0 3d 34 c1 c0 66 7c a9 c0
       -6.0376267 -5.2964354

exp_avg_sq f4 [50]
000000 7c 77 8b 42 44 9a 65 42 50 fe b8 42 a0 25 51 42
       69.73337 57.40065 92.496704 52.286743
000010 8c 04 6a 42 6e 15 b8 42 ed 2a ff 41 7d e7 ce 42
       58.50444 92.041855 31.89596 103.452126
000020 5e 8a fb 42 76 a4 b1 42 ab f5 15 43 e9 08 28 42
       125.77025 88.82121 149.95964 42.0087
000030 5b 48 b0 42 de 61 37 42 27 72 01 42 9f 35 64 42
       88.14132 45.845573 32.361477 57.052364
000040 63 13 eb 42 e8 0f 96 42 ef d1 d0 42 17 db 86 41
       117.537865 75.03107 104.41003 16.856977
000050 16 f6 ac 42 f0 6c fc 42 80 d9 5a 42 37 a9 ad 42
       86.48064 126.21277 54.712402 86.8305
000060 cf 31 5a 42 ce 24 52 43 23 c8 99 41 ae f5 c3 42
       54.54864 210.14377 19.222723 97.97984
000070 23 23 9b 42 ca 5f 93 41 a1 1a dd 42 5e 6f 9f 42
       77.56863 18.421772 110.55201 79.717514
000080 9a a6 b0 42 9a 63 8f 42 3f d1 3e 42 f1 f9 5a 42
       88.32539 71.694534 47.70434 54.744083
000090 c9 fd 32 42 db ea e3 42 f0 68 26 42 cc 7d b3 42
       44.747837 113.9587 41.602478 89.7457
0000a0 38 92 19 43 bc a2 b6 42 55 f5 0e 43 e0 3b 01 43
       153.57117 91.31784 142.95833 129.23389
0000b0 2e 82 01 42 cc aa a4 42 c1 53 cf 41 dd 8c 35 42
       32.37713 82.33359 25.915895 45.38756
0000c0 66 aa 35 42 cc c6 b9 42
       45.416405 92.888275

exp_avg f4 [50]
000000 0a 2d 7e 3c d8 ed a7 3e 66 36 2e 3e 7d 2c a1 bc
       0.015513668 0.32798648 0.17012939 -0.019674534
000010 71 e7 96 3f d4 53 98 3c e0 3b 6e 3d 27 1e 3d be
       1.178938 0.01859466 0.05816257 -0.18468533
000020 da 1e a5 3c c3 c4 8b bd 47 c8 71 be 64 aa b8 3d
       0.020156313 -0.06824639 -0.23611556 0.090168744
000030 e2 16 50 bf 00 16 65 bd 97 d9 af 3d f8 d7 81 bc
       -0.81284916 -0.055929184 0.08586424 -0.015850052
000040 90 64 73 3e 2d 50 05 3e 58 25 30 bf ae fd d3 bc
       0.2376883 0.13018866 -0.6880698 -0.0258778
000050 a8 19 51 3e 6c 17 4c 3e 8e 8d 3e 3e 14 22 57 bd
       0.20419943 0.1993081 0.18608686 -0.052522734
000060 39 c2 0f be b7 22 f8 bd b3 fa c3 3d 06 2e 92 be
       -0.14038934 -0.12115996 0.095693015 -0.28550738
000070 dd 85 0f bd 09 2c 92 3e 00 b4 94 3e 36 9d 14 bf
       -0.03503977 0.2854922 0.2904358 -0.58052385
000080 f5 80 14 be 80 53 c5 bd 87 14 85 3e f7 67 60 3e
       -0.14502318 -0.09635067 0.25992224 0.2191466
000090 98 09 6f 3d 5d cd 8d 3d 03 77 2f 3e 5f 95 10 3e
       0.05835876 0.069239356 0.17135243 0.1411948
0000a0 f4 28 2d be 58 1b 20 3e 00 c0 62 be 4b f7 cf 3a
       -0.16910154 0.15635431 -0.22143555 0.0015866546
0000b0 0b fb f5 bc ee fb 19 bd 8f 7e 7e 39 b3 4c 3f 3d
       -0.030026933 -0.037593774 0.00024270474 0.046704005
0000c0 23 b9 b3 3c 98 83 6c 3d
       0.021938866 0.057742685

exp_avg_sq f4 [50]
000000 df 1a 87 3d 90 b6 d5 3d 75 2f db 3d f3 95 b6 3e
       0.06596922 0.10435212 0.10702411 0.35661277
000010 38 b3 da 3e 6f 3e 30 3f 15 d8 9b 3d 11 d1 0d 3e
       0.42714858 0.68845266 0.07609574 0.13849284
000020 c6 9e 81 3d 55 30 3d 3e 5b cd 62 3e 60 4b 52 3e
       0.06329112 0.18475468 0.2214865 0.20536566
000030 7f 82 24 3e 6e 35 f9 3d e0 e0 48 3d 79 06 57 3e
       0.16065405 0.12168394 0.049042583 0.20998563
000040 44 e7 cc 3d 55 c4 39 3e e6 90 0c 3e 85 fa 65 3d
       0.10005048 0.18141301 0.1372715 0.056147117
000050 61 f3 a7 3d 1c 8f 47 3e 7d 80 82 3e 47 6c c4 3d
       0.08200718 0.19488186 0.25488654 0.09590965
000060 3f b2 09 3e e6 a3 07 3f 74 1c 2f 3d 6f 7a 7a 3e
       0.13446902 0.52984464 0.042751744 0.24460767
000070 09 64 1b 3f 35 2c 82 3d f1 f1 84 3e 19 61 3d 3e
       0.60699517 0.06356088 0.25965837 0.18494071
000080 8c 97 32 3e fd d2 a0 3e e0 1e 9c 3e 7b 12 8d 3d
       0.17440623 0.3141097 0.30492306 0.068882905
000090 53 56 32 3e 98 8a 01 3e c4 87 60 3d 99 a3 b1 3d
       0.17415743 0.12650526 0.054816976 0.08673782
0000a0 3f 44 60 3e d9 48 2e 3d c4 9f cf 3d 44 a6 1d 3e
       0.21901034 0.04254994 0.10137895 0.15395457
0000b0 be 27 04 3e 3b c8 93 3d d3 8d 24 3e f7 14 96 3e
       0.12905785 0.07215925 0.16069727 0.2931287
0000c0 41 f0 2d 3d 21 14 3b 3e
       0.042465452 0.18269397

exp_avg f4 [50]
000000 f9 4e c0 3e 06 4e 42 3f 29 bb b5 be e4 65 a7 bc
       0.3756025 0.75900304 -0.35494354 -0.020434327
000010 3c e0 4f 3f b2 e8 ae 3d 0b 5d 15 3d 50 38 d5 be
       0.8120153 0.08540477 0.036465686 -0.41644526
000020 c4 1a 10 bd 95 ed 8d 3e b0 c3 8f bf 87 8b 10 be
       -0.035181776 0.27720323 -1.1231594 -0.14115725
000030 93 0f b8 be fd cf 93 bd f0 b1 38 be 9e 8e f0 be
       -0.35949382 -0.07217405 -0.18036628 -0.46983808
000040 3d 96 92 be 2f 9b 99 3e e9 a2 5b 3e 24 2d 1b 3e
       -0.28630248 0.30001208 0.21448864 0.15153939
000050 18 56 00 3f 08 73 f2 bd 2d 56 1b 3e 07 28 89 3e
       0.5013137 -0.11838347 0.15169592 0.2678835
000060 0d 20 82 3e 58 ff cc be 92 e4 62 3e f7 b7 a2 3e
       0.25415078 -0.40038562 0.22157505 0.3178098
000070 8b 2e 4b bb fe 63 4f 3e 94 1d 80 bd 33 c9 82 be
       -0.0031003084 0.20252988 -0.062556416 -0.25544128
000080 6f 73 94 3e 4b 81 e7 3d 09 6d 96 3c 4a 2a e6 3e
       0.2899432 0.113039576 0.018362539 0.4495414
000090 62 c7 c2 3e 50 64 80 3e ef 80 4f be ac ec f9 3e
       0.38042742 0.25076532 -0.20264028 0.4881338
0000a0 d6 55 a3 be 5e 43 30 3e 5b 6c 17 be 3c 95 98 be
       -0.31901425 0.17213199 -0.14787428 -0.29801357
0000b0 2f 24 73 be 07 7e 19 3e f8 7c ca 3c 34 de 34 be
       -0.23744272 0.14989482 0.024717793 -0.17662889
0000c0 06 65 92 3d ea 2c b0 3e
       0.07148175 0.34409267

exp_avg_sq f4 [50]
000000 8d da e6 3e c6 f0 db 3e 37 47 67 3f 2f b6 f2 3e
       0.45088616 0.42957133 0.9034304 0.4740462
000010 f5 22 10 3f 17 8c 84 40 cd e3 52 3e e7 d0 6a 3f
       0.5630334 4.142101 0.20594712 0.9172501
000020 26 d1 9b 3f 63 d5 3e 3f dc 51 a9 3f d2 34 25 40
       1.2173202 0.7454435 1.3228106 2.581349
000030 f8 67 e8 3f 54 9e 0c 40 b6 34 b2 3e 0b d3 32 3f
       1.8156729 2.1971636 0.3480584 0.69853276
000040 86 f4 41 3f f8 03 05 40 03 38 2d 3f 58 ef ab 3e
       0.7576374 2.0783672 0.6766359 0.33581042
000050 bc 6d 0b 3f 8b 67 84 3f 5c 87 1b 40 18 e6 a4 3e
       0.54464316 1.0344099 2.4301367 0.32206798
000060 11 b0 48 3f 98 c3 cc 3f 99 88 54 3e b2 94 6d 3f
       0.78393656 1.599719 0.20755233 0.92805016
000070 4b f6 5d 40 0d 1f 2a 3e b7 70 c9 3f 78 75 d4 3f
       3.4681575 0.16613407 1.5737523 1.6598349
000080 83 8b 4e 3f d5 83 27 40 32 13 f3 3f cc bf a7 3f
       0.8068163 2.6174214 1.8990233 1.3105407
000090 fa f6 7f 3f 8a d9 3b 3f bc 4d 92 3e f7 ce 60 3f
       0.9998623 0.73378813 0.28574932 0.87815803
0000a0 d5 33 88 3f 1b 79 e4 3f 4d 08 b9 3f fb c5 87 3f
       1.0640818 1.7849458 1.4455658 1.0607294
0000b0 5b e8 3b 3f ea f9 86 3f d7 5d 2f 3f b1 4d 2d 3f
       0.7340142 1.0545018 0.68502563 0.6769667
0000c0 2d 72 42 3f 82 e7 cc 3f
       0.7595547 1.600815
