weights/checkpoint/example0002_train_adam.pth (torch, 79323 bytes, 35 tensors)

a f4 [4]
00000000: cdcc 4c3e cdcc 4c3e cdcc 4c3e cdcc 4c3e
0.2 0.2 0.2 0.2

input_layer.weight f4 [50, 2]
00000000: 30e7 163e 2167 4d3e fc33 b33e fe4f c73c
00000010: 31cc 25bd 75c7 b73d e923 dbbd f548 24be
00000020: 3079 73bd 273f 2f3e c236 f0be df11 d7bc
00000030: 0875 0fbe f7ab 2d3e 61ee c73e 16d7 6ebe
00000040: 9645 5dbd a895 a63c fa55 21be 1526 013e
00000050: e873 0a3f 7cef 603c e663 69bd 7b21 743e
00000060: 1305 9dbe 2367 b4bd d7d0 fcbd a324 f43d
00000070: 96fc ac3b 11c8 28be 0951 2c3e 36ca ee3d
00000080: 01bc 133e 89b1 36be 25a1 95be 65a5 9cbe
00000090: f667 fcbd 6cd9 743e 1406 473e 86a1 05be
000000a0: 83d6 12bd 0d69 573e 4464 113e 221f 5c3c
000000b0: 34d2 ea3c d5a9 4a3e 91a0 5c3e fc95 38bd
000000c0: 4aa2 8b3d 44ce 173d 75e6 e0bc c233 f03c
000000d0: 6760 9cbe 4d91 eb3d 1c38 6cbe 226e 6b3d
000000e0: d41c 8fbd da4d e13d d4d8 d53d ab91 833e
000000f0: 5116 223e e21e 68be 4c06 d53d 1351 fcbd
00000100: e4b6 0abe 5273 6abd d388 d0bb 9df6 393e
00000110: 0fe2 c8bd 7512 9d3d 8e41 eebd 2b64 1c3c
00000120: c05c 383e ae84 02be 751a 5a3e 805f b0bd
00000130: 7e7a 443d fc03 413e a031 c8bd b288 b5bd
00000140: be65 09be 804e 2a3e e304 b83d 5b96 44be
00000150: c87b 223e f564 be3d b3e3 19be 1e4a 7d3d
00000160: 74f5 65bc 96b1 afbe 3a46 b13c c1a7 fd3d
00000170: 6bcb 6bbe 72c2 03be d87d 2c3e d4be fd3d
00000180: 62a4 693e 3683 89be eadd 85bd 6c07 eabc
0.14736629 0.20058872 0.35000598 0.024330135 -0.040477935 0.0897359 -0.10700209 -0.16043456
-0.059441745 0.17113934 -0.46916777 -0.026253639 -0.14009488 0.1696013 0.39049056 -0.23324236
-0.05402144 0.020335034 -0.15755454 0.12612183 0.5408311 0.0137289725 -0.056980036 0.23840897
-0.30667934 -0.08808734 -0.123445205 0.119210504 0.005279134 -0.1648257 0.16827787 0.116596624
0.14427187 -0.17841162 -0.29224506 -0.30594936 -0.123245165 0.23911065 0.19435912 -0.13049898
-0.035849106 0.21036167 0.14198405 0.013435157 0.028664686 0.19791348 0.21545626 -0.04506491
0.068180636 0.037061945 -0.02745364 0.029321555 -0.305423 0.11502323 -0.23068279 0.057478078
-0.069879204 0.11001177 0.10441747 0.25697073 0.15828826 -0.22668031 0.10401592 -0.12320151
-0.1354633 -0.057238884 -0.006363967 0.18160482 -0.09808742 0.07669536 -0.11633597 0.009545366
0.18004131 -0.12745926 0.21299155 -0.08611965 0.04796838 0.18849176 -0.0977509 -0.08863963
-0.13417718 0.16631508 0.08985307 -0.19197981 0.15867531 0.092966 -0.15028267 0.06183826
-0.014035571 -0.34315175 0.021639932 0.12385512 -0.23026817 -0.12867144 0.1684488 0.12389913
0.22816613 -0.26857919 -0.065364674 -0.028567992

input_layer.bias f4 [50]
00000000: 36bc 05bc 711d 933b 1584 d33d aeac 913d
00000010: 228f ea3d 8a84 b93d 0243 c4bd ef72 ee3c
00000020: ddcf ac3d 230f b9bc 9b94 213d 5e5a 40bd
00000030: 65ee 80bd d653 0ebc 5145 9a3c f1e8 fe3c
00000040: aae7 763c efce 853c b802 a1bc 85cb 683d
00000050: 3a1d 01be b156 a43d 7e62 dbbd 8a7e 04be
00000060: 80f4 393d e4e4 2d3d c0c9 4a3c 975b a9bc
00000070: 6bed babc 8bbe 72bd eb54 2dbc 9ecb f83d
00000080: 187f c9bd e32c ecbd 3511 ae3c efb9 003e
00000090: fef6 233d 9762 70bd 687d 5d3d 2d82 f2bd
000000a0: 48b7 cf3d 85d0 f6bc 4488 f73c ff6f e33c
000000b0: daed 2bbd 5375 0fbd 9163 fd3c c33b b6bd
000000c0: 7ba1 3c3d 05d5 66bd
-0.008162549 0.0044895937 0.10327927 0.07113014 0.11453082 0.09058483 -0.09583093 0.029107539
0.08438084 -0.022590226 0.03944836 -0.04696118 -0.0629547 -0.00868698 0.01883188 0.031116934
0.015069881 0.016334025 -0.019654617 0.056834716 -0.12608805 0.080243476 -0.10712145 -0.12938896
0.04539919 0.042454615 0.0123772025 -0.020673556 -0.022818288 -0.059263747 -0.010579328 0.12148212
-0.09838694 -0.11531999 0.02124844 0.12570928 0.040030472 -0.058687773 0.054074675 -0.11841235
0.1014238 -0.030128727 0.030216344 0.027763365 -0.04197488 -0.035024 0.030931266 -0.088981174
0.046052437 -0.056355495

input_ln.weight f4 [50]
00000000: 6c6c 893f aaf3 923f ea6a 923f ae07 913f
00000010: 3299 823f fdee 883f 7ccc 783f 5751 723f
00000020: fc1e 813f 8f61 753f a1fd 743f d7cf 7e3f
00000030: 344a 783f ef1b 743f cb1b 763f 5e64 8c3f
00000040: 7347 833f fd01 7e3f 89a2 763f 3a64 6a3f
00000050: 0e8c 823f e652 7b3f 0942 803f fd49 7a3f
00000060: b1ae 863f 2d7e 813f bbbd 6a3f 897e 843f
00000070: badf 6a3f 5f3c 803f c29e 6d3f 4807 693f
00000080: c01a 8a3f d589 793f db4c 7a3f 1f98 8e3f
00000090: 2c0f 843f 89d8 883f 5841 8a3f 011d 8d3f
000000a0: 4676 863f 273d 7e3f b6de 6d3f 26e0 913f
000000b0: a600 633f 7767 823f cb52 773f 1d98 8b3f
000000c0: 53a5 5d3f 8957 803f
1.0736213 1.148061 1.1438878 1.1330469 1.0203001 1.0697933 0.9718702 0.94655365
1.0087581 0.9585199 0.95699507 0.9953589 0.96988225 0.95355123 0.9613616 1.096813
1.025618 0.99221784 0.9634176 0.91559184 1.0198991 0.9817337 1.0020152 0.9776915
1.0522062 1.0116631 0.91695756 1.0351115 0.9174763 1.0018424 0.9282037 0.91026735
1.0789413 0.9747594 0.9777352 1.1140174 1.031713 1.0691081 1.0801191 1.1024476
1.0504844 0.9931206 0.92917955 1.139653 0.88672864 1.0187825 0.9661071 1.0905796
0.8658039 1.0026714

input_ln.bias f4 [50]
00000000: a53a 5a3e 94de b7be 8a24 ea3d 33eb dcbe
00000010: 6bbb e9be 883d 60bf 43b7 bdbc 1cbf 023f
00000020: 7981 213e 1bcc 1dbc 0e2f ce3a ed41 163f
00000030: c10e 1dbf 9df0 83bf a0d9 15bd 6c5d 2bbc
00000040: 7615 98be bf6a 193f 008b 1b3f e897 973e
00000050: fc7f 963d 5635 f3bd c555 f73e 91d4 5fbd
00000060: 1021 0d3f 2244 ab3e 6843 16be 957e 3cbe
00000070: 1df6 703f 4b3a 51be 8788 d33e f301 0bbf
00000080: b6c9 b53d 0dbc 1e3f 601c f3be 604a c8be
00000090: 7374 2c3e 6b28 1bbe df0c b03e 2800 aabe
000000a0: 3bbe 233e 0bbc dbbe 5564 893e c259 933e
000000b0: cc4f 7c3f 32f9 0ebe d0ac ddbd 054b 1c3f
000000c0: 1d63 a6be 81ae 803e
0.21311434 -0.35912 0.114327505 -0.43148193 -0.456508 -0.8759389 -0.023158675 0.5107286
0.15772046 -0.009631182 0.0015730576 0.58694345 -0.6135064 -1.0307804 -0.036584496 -0.010459285
-0.29703873 0.59928507 0.6075897 0.29608083 0.0734863 -0.118754074 0.48307624 -0.05464608
0.55128574 0.3345042 -0.14674151 -0.18407662 0.9412554 -0.20432393 0.413151 -0.5429985
0.08876364 0.6200569 -0.47482586 -0.39119244 0.16841297 -0.15152137 0.3438482 -0.33203244
0.15990536 -0.42916903 0.2683436 0.28779417 0.9855926 -0.13962248 -0.10823977 0.6105197
-0.32497492 0.25133136

hidden_layers.0.weight f4 [50, 50]
00000000: 7fa9 203e 1457 42be 5fe3 35be 37db 3fbd
00000010: 613d a53d 1b2e f83d 1d25 be3c cfdc c8bc
00000020: 9fe1 e4bd 0ff3 5b3e 7f6b 85be 0fc5 5fbd
00000030: 6f71 2ebe d68d c63d 1bd3 e73d f718 a1bd
00000040: 1d94 bb3d 7c9b 23be 7a12 423d bcad 913d
00000050: 13e8 92bd d5b0 16bd 0593 57bd 9c10 07be
00000060: 3086 27be 74a6 89bd aa47 1a3e a866 673e
00000070: 2ec3 573d 22cf 233e 9a19 3bbe 0cec 4ebe
00000080: 1df1 27be a542 e9bc 447b e83d d2bd 1bbe
00000090: f7d7 96bd 028b 58be 4864 2c3b 0e1c 20be
000000a0: 73d8 03bd 24a5 47bd 187f 123e c668 53be
000000b0: 1b06 b13d 9d0a c53d 1ade a03d 930f fc3d
000000c0: 6a75 0bbe 9f64 5cbe 49a4 23bd fa6d 913e
000000d0: 114e aeb9 181a 193e bf78 b13e 4983 12be
000000e0: 8752 883d ae71 d33d 2c5b 813e b331 4f3e
000000f0: cc53 023d 760a 28bd 23c7 64be 9823 f3bd
00000100: a3a9 033e d4a2 343e 7e10 913b 9680 09be
00000110: 3c71 23bd 7ead 1bbd 8c49 143e 2431 7f3e
00000120: e4fe 7dbd 4461 373e ca65 843e c73e bc3d
00000130: ed69 e5bd 9fb7 993d 5360 3fbb b7f4 32bd
00000140: 3c68 073c 7b78 0ebd 0169 45be dcab 02be
00000150: f727 45bd 3e7c 293e 62ca 45be ccce 46bd
00000160: 6150 783c 4933 70be d64c 68bd 9d64 25be
00000170: 93e6 933e 5bf5 efbd bba4 e33d 1f9a 75bd
00000180: 9a6e 72be a857 eebd 1b7c 4a3e 9fe4 0f3d
00000190: 8a9f 37bc 5aec 20bc f7f1 54be c838 b4bd
000001a0: 0309 863d fe0d b0bd 7e44 6f3d 0030 753d
000001b0: 73c4 f6bd 3d15 8b3e b905 29be 7275 313e
000001c0: abd1 243e 0b04 94bd a656 8cbe 26da 97be
000001d0: 425e f03b 95ed 93bc ebf6 d23c 8a78 44bd
000001e0: e61e bb3c c103 8b3e 0f48 5ebd 05d0 643e
000001f0: 4627 1dbd f9ad fd3d 4cb9 033e 814a ccbd
00000200: faca 2f3c f0f6 2ebe 272b c73e 7fa4 70be
00000210: 5a66 98bc 2ee8 9b3d 6b86 013e 7ebf f0bd
00000220: ee88 8c3e 105e 53be afbb fa3d 9cfb 553c
00000230: 97f7 1cbd 73e9 be3d de75 23be 8aaa c83d
00000240: 6832 823c 224e 22be a680 08be 7219 bb3d
00000250: 8280 32be 4c01 80bb d906 bf3d 2da9 253d
00000260: 8129 05bd 2dcf 893e 67db c93d c9d1 373e
00000270: 099e 8cbb 53ac fb3d d7a4 d4ba e6a3 033d
00000280: fc05 d33d 8154 fc3c 685a c03d 6af1 593d
00000290: e06a b0be 64c4 a3be 5cfe 6a3d e36c 1dbd
000002a0: e58b 41be 57c9 2ebe 0106 debd 94e6 15bc
000002b0: 1a28 12be bdb6 903e 08e1 043e 5bcb 233e
000002c0: d464 063b 4533 2d3d 4b10 4fbe 749b dcbd
000002d0: d0db 783d 0b44 003d a852 1fbe b6e0 debd
000002e0: 85cb 1f3e a833 d7bd e7a9 36bd 31ff ef3c
000002f0: 41cc 963d e99c 06be 83e4 073d b43c 1f3e
00000300: d62d 08be 39a4 22be 37c1 40be 2371 223e
00000310: a67d 79bd 45be b9bd 0e77 ec3d 439f 7e3e
00000320: 3d86 ec3e 0c65 553e d5a1 263d e4ae 103d
00000330: 4670 a03d 54e8 fc3d eb18 1b3d 41f5 b63d
00000340: 8133 0e3e 859f 023d 3cc3 23be 6f6b 35bd
00000350: 2dbf 133b 626b 16be 70e1 0bbe 7b42 d43d
00000360: eae8 2cbc c795 a3bd 87e0 b73c b1c8 803d
00000370: e4f0 02bc ede6 1f3e 6957 44be 6ec5 e4bd
00000380: ed30 1c3e adb4 5ebd d577 22be 50ba 5dbe
00000390: 8f5c da3c fe45 c33c fb26 ca3b 6563 62be
000003a0: 25b1 3dbe 1818 373d f1a6 3ebe ea56 92bc
000003b0: b568 823c 582d bebd 1e92 42bd 9284 c73d
000003c0: c888 f53d afaf 873d a43b e1bd ab8b 56bd
000003d0: 3bb9 90bd e4cf a33e 6810 72be 45ea df3c
000003e0: 9af9 39be b6ec f83d 8f12 2cbb eab6 903e
000003f0: 79e9 373e f4c9 b13d f301 b03d bcb1 11bd
0.15689658 -0.1897853 -0.17762516 -0.04683992 0.08068348 0.12118169 0.023211056 -0.024519352
-0.11175846 0.21479438 -0.26058576 -0.05463129 -0.17035459 0.09695022 0.11319562 -0.0786609
0.0915911 -0.15977281 0.047380902 0.07113215 -0.07173171 -0.036789734 -0.052630443 -0.1318993
-0.16359782 -0.067212015 0.150664 0.22597754 0.052676372 0.15996984 -0.18271485 -0.20207232
-0.16400571 -0.028474161 0.11351636 -0.1520913 -0.07365411 -0.21146777 0.002630489 -0.15635702
-0.032188844 -0.048741475 0.14306295 -0.20645437 0.08643743 0.09621165 0.078548625 0.12307658
-0.13619009 -0.21522759 -0.039951596 0.28404218 -0.0003324603 0.1495136 0.34662434 -0.14307894
0.06656366 0.10324417 0.2526487 0.20233802 0.031818196 -0.0410256 -0.2234159 -0.11872023
0.1285768 0.17640239 0.004427015 -0.13427958 -0.03990291 -0.038007252 0.14481181 0.2492109
-0.06201066 0.17908198 0.2585891 0.09191661 -0.11201844 0.07505726 -0.00292017 -0.04369041
0.0082645975 -0.034782868 -0.19278337 -0.12760872 -0.048133817 0.16551301 -0.19315484 -0.04853706
0.015155883 -0.23457064 -0.0567139 -0.16151662 0.28886852 -0.1171672 0.11115404 -0.059961434
-0.23675004 -0.11637813 0.19773905 0.03513014 -0.011207471 -0.009821976 -0.20795427 -0.08799893
0.065446876 -0.08596419 0.05841493 0.05986023 -0.120491885 0.2716464 -0.1650609 0.17329958
0.16095607 -0.07227334 -0.27409858 -0.29658622 0.007335455 -0.018057624 0.025752505 -0.047966518
0.022841882 0.27151302 -0.05426794 0.22344978 -0.038367532 0.12386698 0.12863654 -0.09975148
0.010729546 -0.17086387 0.3890011 -0.2350025 -0.018603493 0.07612644 0.12648933 -0.11755274
0.2744822 -0.20641351 0.12242829 0.013060477 -0.038322058 0.09321871 -0.15962932 0.09798153
0.015893176 -0.15850118 -0.13330325 0.09135713 -0.17431834 -0.0039064046 0.09327478 0.04044454
-0.032510284 0.26915875 0.09856301 0.1795112 -0.0042913 0.122887276 -0.0016223443 0.032138728
0.10303876 0.030802013 0.093922436 0.053208746 -0.3445654 -0.31985772 0.057371482 -0.03843392
-0.18901022 -0.17068993 -0.10840989 -0.009149212 -0.1427311 0.28264418 0.12976468 0.15995543
0.0020506876 0.042285223 -0.20221059 -0.10771838 0.060756505 0.03131489 -0.15558875 -0.10882704
0.1560498 -0.105078995 -0.044595625 0.02929649 0.07363177 -0.13145794 0.03317691 0.155505
-0.13298735 -0.15882958 -0.18823706 0.1586347 -0.060910843 -0.09069494 0.115461454 0.24865441
0.46196166 0.20839328 0.04068168 0.03532304 0.078339145 0.123490006 0.03786556 0.08933497
0.13886835 0.03189041 -0.15992445 -0.04429191 0.002254437 -0.14689401 -0.13660216 0.10364243
-0.010553578 -0.07987552 0.02244593 0.06288279 -0.007992003 0.15615435 -0.1917397 -0.11170469
0.15253039 -0.054371525 -0.15866025 -0.21653104 0.026655464 0.023837086 0.0061691976 -0.22108229
-0.18524607 0.044700712 -0.1861837 -0.01786371 0.015919069 -0.092859924 -0.04750263 0.09742083
0.119889796 0.06625306 -0.10997704 -0.05237929 -0.0706658 0.31994545 -0.23639071 0.027333388
-0.18161622 0.12154524 -0.002625618 0.28264552 0.17960157 0.086810976 0.08594122 -0.03556989

hidden_layers.0.bias f4 [50]
00000000: cc82 22bd e86d ab3c 9a3e a43c 5ea4 73bc
00000010: 100f 1f3c 58b9 3c3d e06a 8abc 9d38 a53c
00000020: 080e 683c e7b0 d23c e140 f23c d791 10bd
00000030: ecc3 cdbb 13f5 ee3b f07b a83b 4c98 8e3b
00000040: 29ec c6bb 51a2 cc3c f724 0c3d fb57 1fbc
00000050: cb67 90bc 0e16 4b3d 8119 33bd 3e56 68bd
00000060: 837f 273c 87cd 4d3a 0501 17bc 0ed8 963b
00000070: d2bf 00bd a441 b03c d110 e9bc 5418 9abc
00000080: 631d 05bd bb72 2b3c 639a 0e3c f9d3 14bd
00000090: dc41 1dbd db37 c03c 8414 1bbd 40c1 8e3c
000000a0: 67c8 08bd 836e 4fbc 1c14 253d 083c 0d3c
000000b0: 3e1a 4f3b 6e0b 09bd 8969 c3bb 91c7 85bc
000000c0: 448b c8bc 4077 f5bc
-0.03967552 0.02092643 0.020049382 -0.014870731 0.009708181 0.046075195 -0.016896665 0.020168597
0.014163502 0.02571912 0.029571952 -0.035295334 -0.006279459 0.0072923987 0.0051417276 0.0043516513
-0.006070633 0.024979742 0.03421494 -0.009725566 -0.017627617 0.04958158 -0.043725494 -0.056722872
0.010223272 0.00078507554 -0.009216552 0.0046033924 -0.031432934 0.021515675 -0.028450401 -0.018810429
-0.03249873 0.010464366 0.008703801 -0.036334965 -0.038392887 0.023464134 -0.037861362 0.017426133
-0.033394244 -0.012660625 0.04030238 0.00862027 0.0031601335 -0.033458166 -0.0059635085 -0.016330512
-0.02448047 -0.02996409

hidden_layers.1.weight f4 [50, 50]
00000000: b4f6 b4be a6ca b7bd bc1b a93d 8bfd 3ebe
00000010: d475 7dbd dee5 0cbe e554 1f3d 8402 17be
00000020: 602a 2e3c a4b8 26bd de36 87be 4f62 9abe
00000030: abbf 553e 83b0 f4bd bc9e 543e 3a08 fbbd
00000040: 900d 02be b142 123d e61d 6dbe 7d21 5e3e
00000050: acd7 64bd b31a 41bd bf42 923d b5fc 853d
00000060: c946 1ebd 591f d7bc 9233 7dbe 782d d43d
00000070: de98 98be 8d37 8038 bf8b 5fbe f8e1 d6bd
00000080: f28f 15be b4dd 23bd bd52 f73d aff3 ea3d
00000090: f821 a6bd 3442 8a3c 4dd7 6f3c 7099 1e3e
000000a0: 25e3 07bd cf32 893e 4139 9c3e 6c05 95be
000000b0: 8727 14bc 5324 313d 99e1 18be 97a3 26bd
000000c0: b6cf 373e ff8c b33d 7b7f 88be 52b6 de3d
000000d0: d321 3f3d b20a 2c3d 786c 10be a817 aebd
000000e0: c441 92bd 3a65 a4bc 9a78 bebd 220f 423e
000000f0: 005e a13d 0694 3b3e cc95 f43d 51d4 07bd
00000100: 75a5 b73d 3c91 22bd 3d6f af3d 2a78 4abe
00000110: b25f 15bc 640f d5bd 849c 0ebd 58af 86be
00000120: 0752 7f3c 0239 c93d 8038 c43e 1b97 a3be
00000130: 365d 113e 6098 89be 7313 ce3e 0929 983d
00000140: 632f 803e e2ce 0a3e ddeb cdbd c4f4 653e
00000150: 0138 083e 5234 3b3a 0f7d 133e e37a 93be
00000160: 9837 3bbc 73e7 043d d575 ce3d d659 1f3e
00000170: 1977 25be 9026 cb3d d4d5 14bd cf3f 5cbe
00000180: 9bae 133d 7b0f 7fbe 7a8f 3a3a 711e 4b3e
00000190: 8544 bcbd 1333 cd3c d7e5 bdbe 566c d7be
000001a0: f423 093d 0ed7 8a3d ab12 17bc abf4 003e
000001b0: 5b21 01be 480e 6abe 6e3c c0bc 96b1 edbd
000001c0: 1d03 da3d 527e a2bd 299c 593e 34f5 0a3d
000001d0: 053d 67bd e7f9 85bd eb28 b13d 2f2b 2ebe
000001e0: a356 01be 00a5 6fbd 7c66 f43d cc38 233e
000001f0: c694 bf3d 15db c63d 89cf 30be 2c06 e7bd
00000200: 6ffe 17be a4e3 acbe 83d5 3d3e a86e 053e
00000210: acdf 81be 748e 9cbd 3e08 083e 9a61 8dbc
00000220: 889f c63d 48aa a4bc f499 f93d b3fb b73d
00000230: e861 0fbd 83c9 383e 9580 053e b6ff 993d
00000240: 921b 52be 41b4 1f3e 0685 463e 2520 553e
00000250: 98fc 4c3e dab9 64bd 9ff1 0c3d 7fa2 883c
00000260: 77f5 313e caec 353d d67b 1dbe 64e4 efbd
00000270: c762 38bc 4d37 eabd 570c 703d e019 bf3b
00000280: ddc4 4a3e 05b3 7f3d 60f4 363e 769e 773d
00000290: 5263 ac3e 4963 1b3e 58b2 4a3d 7ded d7bb
000002a0: 4a9c e6bd 856b 0e3e c18a dbbd 4a03 fd3d
000002b0: 25b8 78bc 49e3 d53b 9058 56bd 5d8e 8a3e
000002c0: 9cda a1bb 0f67 d23c 1a5d 333d ee71 d1bd
000002d0: 8473 11bd 9c77 3d3e be3d c8bb 0dab 4cbe
000002e0: ec03 c2bd 4bbb 9b3d ca5a 2fbe 2ffc 1e3d
000002f0: 3d1f 46be a65b 97bd 2814 b33d 6a6c b53e
00000300: 6100 223e 6124 233e dd2d b1bd 7856 09be
00000310: e1fa 0ebc bcf9 26be fbe0 31be 3ff2 64be
00000320: d0dc 8e3c a4d4 333e 6151 0ebd 8b75 393c
00000330: c2dc f53d c23c a83c d2a1 193e 7840 fd3d
00000340: 2007 e6bb 0795 16be 7adb 69be 8982 38be
00000350: 6a0a 543d f377 06bc 6e4f 41bd 0aa4 b6bd
00000360: 2b1c 073b 50e5 c23d d663 d23d 8299 9bbd
00000370: d434 033e e21c 743e 40e9 733e ec4b 3fbe
00000380: 7265 fa3d 10e6 5d3d f01d 29be d989 14be
00000390: 6fad c23e d57f 7fbe 7146 ad3e 9e07 cfbd
000003a0: 8308 3abd f0e9 57bd 8806 f93d 7716 8dbd
000003b0: 3d94 a43d 93d9 c73c 3f30 993e 8e44 67be
000003c0: 0bba 0ebe 07f0 ecbd c41a a3bd ce95 a2bd
000003d0: e90d 8e3d 5c2e 513e 3e50 2f3d 4567 183e
000003e0: ed0e bcbd 910b a2bd beef 2dbe 3233 f2bc
000003f0: c5d3 e23d 9a20 1c3e 4c27 063e e095 193d
-0.3534447 -0.08974199 0.08257243 -0.18651406 -0.061879948 -0.13759562 0.03889932 -0.14747053
0.01063022 -0.04070343 -0.26409048 -0.30153129 0.20873897 -0.119477294 0.20763677 -0.122574285
-0.12700486 0.035708133 -0.23155937 0.21692462 -0.055869743 -0.047144603 0.07141637 0.06542341
-0.038641725 -0.026260065 -0.24726704 0.10360235 -0.29804128 6.113863e-05 -0.21830653 -0.10492319
-0.14605692 -0.040006354 0.12076328 0.1147226 -0.08111948 0.016877271 0.014638734 0.1548822
-0.033175606 0.26796576 0.3051243 -0.291057 -0.009042627 0.043247532 -0.14929809 -0.040683355
0.17950329 0.08767127 -0.2665976 0.108746186 0.046663117 0.042002387 -0.14103878 -0.08500606
-0.0714145 -0.0200678 -0.09300347 0.18951085 0.07879257 0.18318185 0.11942634 -0.033161465
0.08967105 -0.039689288 0.08566139 -0.19772401 -0.009117054 -0.10403326 -0.034817234 -0.26305652
0.015583522 0.098253265 0.38324356 -0.31951222 0.14195713 -0.26874065 0.40249214 0.07429702
0.25036153 0.13555482 -0.10054753 0.22456652 0.13302614 0.000714128 0.14403175 -0.28804693
-0.011426829 0.03244729 0.100810684 0.15561613 -0.16158713 0.099194646 -0.036336735 -0.21508716
0.03605519 -0.24908249 0.00071167166 0.19835831 -0.091927566 0.025048768 -0.37089416 -0.4207484
0.033481553 0.067793 -0.009220759 0.12593333 -0.1261038 -0.2285701 -0.023466315 -0.116061375
0.10645125 -0.0793425 0.21250977 0.03392525 -0.056454677 -0.06541806 0.086503826 -0.1700866
-0.12630706 -0.058506966 0.1193361 0.15939635 0.09354548 0.09709755 -0.17266668 -0.11280474
-0.14843152 -0.33767426 0.1853848 0.13030493 -0.2536596 -0.07644358 0.13284394 -0.017258454
0.09698397 -0.020100728 0.12187567 0.08983555 -0.03500548 0.1804562 0.13037331 0.07519476
-0.2051833 0.15596105 0.19386682 0.20813043 0.20018232 -0.055841304 0.034410115 0.016679047
0.17378794 0.044415273 -0.15379271 -0.11713484 -0.011254019 -0.11436329 0.05860552 0.005831942
0.1980166 0.062426586 0.17866659 0.060453855 0.33669525 0.15174593 0.049486488 -0.00658959
-0.112602785 0.13908203 -0.107198246 0.12354143 -0.015180622 0.0065273386 -0.052330554 0.2706174
-0.0049393903 0.025683908 0.04378996 -0.102268085 -0.035510555 0.18502659 -0.006110876 -0.19987126
-0.09473404 0.07604083 -0.17124477 0.03881472 -0.19347854 -0.073905274 0.08744079 0.35434276
0.15820457 0.15931846 -0.08651326 -0.13411891 -0.008726806 -0.16306204 -0.1737098 -0.22358035
0.017439276 0.17561585 -0.034745578 0.011319528 0.12004997 0.020536784 0.15003136 0.12365812
-0.0070198923 -0.14705287 -0.2283763 -0.18018545 0.051767744 -0.008207309 -0.04719489 -0.08918007
0.0020616155 0.09516394 0.102729484 -0.07597639 0.12813121 0.23839143 0.23819447 -0.18681306
0.122263804 0.054174483 -0.16515326 -0.1450571 0.38022944 -0.24951108 0.33842805 -0.10108875
-0.045418274 -0.052713335 0.12159449 -0.068890505 0.08036087 0.02439574 0.2991962 -0.22584745
-0.13938157 -0.11569219 -0.079640895 -0.07938729 0.06936247 0.20427841 0.042801134 0.14883144
-0.09182534 -0.07912362 -0.16985986 -0.029565427 0.11075548 0.15246812 0.13100928 0.037496448

hidden_layers.1.bias f4 [50]
00000000: 4323 96bb 4dee 89bc 5cb2 a1bc 7758 0b3d
00000010: 83e9 c03c a86c c6bb 8aca d33c 5208 98bc
00000020: 2bf4 373c fff9 35bc 5b28 afbc 8413 233c
00000030: 361c 30ba 3eda 743c 73dc ac3c 0c50 2f3d
00000040: e1bf 303c c6c7 b23b 5e3a 4c3c 6a87 233d
00000050: 637b 163d 58c8 18bc 4b91 d7bc a5a2 c8bc
00000060: cb21 2e3c 07fd 8c3b 7f0a e6b9 a467 62bc
00000070: fa86 82bb 4441 ca39 f694 d3bc 7761 bebb
00000080: 0c6a 753c 1f53 2b3d a61b f83b dc49 e53c
00000090: 6f92 1abd 750f 163c b2ca 823b 39bf a03c
000000a0: bc33 9a3b 7eb3 38bd 5f7d b23c 3421 00bc
000000b0: 75a8 843c 4347 b93c 927e b2bc 48a8 54bb
000000c0: 7be7 f13b 7b06 ea3b
-0.0045818402 -0.016837263 -0.019738369 0.034019914 0.023548847 -0.0060554333 0.025853414 -0.018558655
0.011227648 -0.011106967 -0.021381548 0.009953383 -0.0006718071 0.014944611 0.021101212 0.042800948
0.010787935 0.0054559438 0.012465088 0.039924063 0.036738764 -0.009325109 -0.026314398 -0.024491617
0.010628174 0.004302624 -0.0004387684 -0.013818655 -0.0039833756 0.0003857707 -0.025827866 -0.0058099586
0.014978897 0.041827317 0.0075716553 0.02798932 -0.037737306 0.009158959 0.0039914483 0.019622432
0.0047058742 -0.045093052 0.021788297 -0.007820416 0.016193608 0.022616988 -0.021788869 -0.0032448936
0.007382331 0.007141886

hidden_lns.0.weight f4 [50]
00000000: 0000 803f 0000 803f 0000 803f 0000 803f
00000010: 0000 803f 0000 803f 0000 803f 0000 803f
00000020: 0000 803f 0000 803f 0000 803f 0000 803f
00000030: 0000 803f 0000 803f 0000 803f 0000 803f
00000040: 0000 803f 0000 803f 0000 803f 0000 803f
00000050: 0000 803f 0000 803f 0000 803f 0000 803f
00000060: 0000 803f 0000 803f 0000 803f 0000 803f
00000070: 0000 803f 0000 803f 0000 803f 0000 803f
00000080: 0000 803f 0000 803f 0000 803f 0000 803f
00000090: 0000 803f 0000 803f 0000 803f 0000 803f
000000a0: 0000 803f 0000 803f 0000 803f 0000 803f
000000b0: 0000 803f 0000 803f 0000 803f 0000 803f
000000c0: 0000 803f 0000 803f
1.0 1.0 1.0 1.0 1.0 1.0 1.0 1.0
1.0 1.0 1.0 1.0 1.0 1.0 1.0 1.0
1.0 1.0 1.0 1.0 1.0 1.0 1.0 1.0
1.0 1.0 1.0 1.0 1.0 1.0 1.0 1.0
1.0 1.0 1.0 1.0 1.0 1.0 1.0 1.0
1.0 1.0 1.0 1.0 1.0 1.0 1.0 1.0
1.0 1.0

hidden_lns.0.bias f4 [50]
00000000: 0000 0000 0000 0000 0000 0000 0000 0000
00000010: 0000 0000 0000 0000 0000 0000 0000 0000
00000020: 0000 0000 0000 0000 0000 0000 0000 0000
00000030: 0000 0000 0000 0000 0000 0000 0000 0000
00000040: 0000 0000 0000 0000 0000 0000 0000 0000
00000050: 0000 0000 0000 0000 0000 0000 0000 0000
00000060: 0000 0000 0000 0000 0000 0000 0000 0000
00000070: 0000 0000 0000 0000 0000 0000 0000 0000
00000080: 0000 0000 0000 0000 0000 0000 0000 0000
00000090: 0000 0000 0000 0000 0000 0000 0000 0000
000000a0: 0000 0000 0000 0000 0000 0000 0000 0000
000000b0: 0000 0000 0000 0000 0000 0000 0000 0000
000000c0: 0000 0000 0000 0000
0.0 0.0 0.0 0.0 0.0 0.0 0.0 0.0
0.0 0.0 0.0 0.0 0.0 0.0 0.0 0.0
0.0 0.0 0.0 0.0 0.0 0.0 0.0 0.0
0.0 0.0 0.0 0.0 0.0 0.0 0.0 0.0
0.0 0.0 0.0 0.0 0.0 0.0 0.0 0.0
0.0 0.0 0.0 0.0 0.0 0.0 0.0 0.0
0.0 0.0

hidden_lns.1.weight f4 [50]
00000000: 0000 803f 0000 803f 0000 803f 0000 803f
00000010: 0000 803f 0000 803f 0000 803f 0000 803f
00000020: 0000 803f 0000 803f 0000 803f 0000 803f
00000030: 0000 803f 0000 803f 0000 803f 0000 803f
00000040: 0000 803f 0000 803f 0000 803f 0000 803f
00000050: 0000 803f 0000 803f 0000 803f 0000 803f
00000060: 0000 803f 0000 803f 0000 803f 0000 803f
00000070: 0000 803f 0000 803f 0000 803f 0000 803f
00000080: 0000 803f 0000 803f 0000 803f 0000 803f
00000090: 0000 803f 0000 803f 0000 803f 0000 803f
000000a0: 0000 803f 0000 803f 0000 803f 0000 803f
000000b0: 0000 803f 0000 803f 0000 803f 0000 803f
000000c0: 0000 803f 0000 803f
1.0 1.0 1.0 1.0 1.0 1.0 1.0 1.0
1.0 1.0 1.0 1.0 1.0 1.0 1.0 1.0
1.0 1.0 1.0 1.0 1.0 1.0 1.0 1.0
1.0 1.0 1.0 1.0 1.0 1.0 1.0 1.0
1.0 1.0 1.0 1.0 1.0 1.0 1.0 1.0
1.0 1.0 1.0 1.0 1.0 1.0 1.0 1.0
1.0 1.0

hidden_lns.1.bias f4 [50]
00000000: 0000 0000 0000 0000 0000 0000 0000 0000
00000010: 0000 0000 0000 0000 0000 0000 0000 0000
00000020: 0000 0000 0000 0000 0000 0000 0000 0000
00000030: 0000 0000 0000 0000 0000 0000 0000 0000
00000040: 0000 0000 0000 0000 0000 0000 0000 0000
00000050: 0000 0000 0000 0000 0000 0000 0000 0000
00000060: 0000 0000 0000 0000 0000 0000 0000 0000
00000070: 0000 0000 0000 0000 0000 0000 0000 0000
00000080: 0000 0000 0000 0000 0000 0000 0000 0000
00000090: 0000 0000 0000 0000 0000 0000 0000 0000
000000a0: 0000 0000 0000 0000 0000 0000 0000 0000
000000b0: 0000 0000 0000 0000 0000 0000 0000 0000
000000c0: 0000 0000 0000 0000
0.0 0.0 0.0 0.0 0.0 0.0 0.0 0.0
0.0 0.0 0.0 0.0 0.0 0.0 0.0 0.0
0.0 0.0 0.0 0.0 0.0 0.0 0.0 0.0
0.0 0.0 0.0 0.0 0.0 0.0 0.0 0.0
0.0 0.0 0.0 0.0 0.0 0.0 0.0 0.0
0.0 0.0 0.0 0.0 0.0 0.0 0.0 0.0
0.0 0.0

output_layer.weight f4 [2, 50]
00000000: 6e95 563e 7bce 1d3c 9964 9bbd 1d2e 9f3d
00000010: 76f9 6dbc c363 43bd 68d9 973d e5e4 80bd
00000020: df6e 6a3e 9796 24be 0e49 49bd b186 233c
00000030: 1d9e 863d a7a2 d93c b337 21bd 05d5 1a3e
00000040: 761d f7bc f42a 7e3c 438d 0dbe 1dea 34be
00000050: bc61 db3d 566d 3c3e ad04 81be 359d e3bc
00000060: dd3c 0fbe 30c9 0b3e b833 983e e970 733e
00000070: a5f0 7b3d b8ca b1bc fbd7 a4be 3128 dd3e
00000080: 00b8 103e 2b8c ce3d 188e 02bd ac78 0f3e
00000090: e1aa 27be 4dc8 13be 038d 6a3e 31e2 1b3e
000000a0: 592e 0fbe a60e dfbd 8835 643c bb6d 163e
000000b0: e7aa 5abc 9e07 ae3e 3c62 7dbd d8ef 003e
000000c0: ec4c 053e 29bf 533e 14f3 d1be 2408 e83d
000000d0: 4b04 393e 9b67 18be bfe3 21be b5a8 363d
000000e0: bac1 8cbe 34c5 a2bd f63b f6bd c93c 9abd
000000f0: 654b 023e ca3e 00be a414 6abe 9c92 b4be
00000100: a81e 12be 0ee4 a6be 5d70 d2bc 83b0 c03d
00000110: 7e34 e43d b816 eabe 8e16 403e 1914 d43c
00000120: fa50 ac3e 7a5a 0f3e 9b0f f9bd 72e5 963d
00000130: 2b3c 15be 9fb4 b1be 763c 8b3b 3c0b ffbd
00000140: 6cef 1dbd 5c87 8ebe 16a1 373d c827 c4be
00000150: 9788 d1bd 7b0c c1bc 57b3 a33e cb6f f9bd
00000160: 26d4 6c3c 783b ddbd 4e07 2dbe c0c7 963e
00000170: 809d 08be eb0e 413d 25c2 aebe 3733 c9bb
00000180: 9c93 3b3e 0a1f 113e 826a 6b3e d7f5 c3ba
0.2095544 0.009631748 -0.07587547 0.07772467 -0.014524808 -0.047702562 0.07414514 -0.06293658
0.22893856 -0.1607307 -0.049141936 0.009980843 0.065731265 0.026566816 -0.03935976 0.15120323
-0.030165415 0.0155131705 -0.13823418 -0.17667432 0.10712001 0.18401083 -0.2519888 -0.027784923
-0.13988061 0.13650966 0.29726958 0.2377354 0.061508793 -0.02170311 -0.3219603 0.43194726
0.1413269 0.10085329 -0.031873792 0.14010876 -0.16373779 -0.14431877 0.22905354 0.15223004
-0.13982524 -0.10891466 0.0139287785 0.14690296 -0.01334641 0.33990186 -0.06186126 0.12591493
0.13017625 0.2067839 -0.41005766 0.11329678 0.18068044 -0.14883272 -0.15809534 0.044594485
-0.27491552 -0.0794777 -0.120231554 -0.07531125 0.12724073 -0.12523952 -0.22859436 -0.35268104
-0.14269507 -0.32595867 -0.025688345 0.09408667 0.111428246 -0.45720458 0.18758604 0.02588849
0.3365553 0.13999358 -0.1216118 0.07367982 -0.14573734 -0.34708115 0.004249151 -0.12453315
-0.03855841 -0.27837646 0.044831358 -0.383116 -0.102311306 -0.023565521 0.31972763 -0.12179526
0.014454877 -0.108023584 -0.16897318 0.29449272 -0.13341331 0.047133368 -0.34132496 -0.0061401385
0.18318027 0.14171997 0.22989848 -0.0014950585

output_layer.bias f4 [2]
00000000: 3fb9 22bc 35f3 fabc
-0.009931861 -0.030633548

exp_avg f4 [50, 2]
00000000: e262 043f 0cff 95be a999 3dbc d3e9 bfbc
00000010: b811 383f 75da a13e 5d2d c63e f98e 26bf
00000020: 14b2 fdbe bfb3 aa3e 778f a9be 1ae5 4e3e
00000030: dd86 d2bd b1cc cc3e 1305 5d3e 19bc 563e
00000040: 167d e13e b3e6 fdbe 2aec bbbe a95e 3f3e
00000050: d301 683e 08ed 033e 0be5 52bf 1ca6 0dbf
00000060: f44d 7f3f bb49 a2bf 1c8e 983d f3d3 c33e
00000070: c77a 80be 3d0e 8bbe 0ba4 c83e fe71 633f
00000080: 1be4 0b3f 6398 e03e ae63 2abf b8fd c73e
00000090: 9825 c9bd af5d 643f 69e7 39be 2452 00bf
000000a0: 5d7e 523e ea72 1d3f a2dc 6c3e fe34 37bf
000000b0: ced1 88be a64b a1bc f4eb c33e a454 64be
000000c0: 96ff ef3e 9e96 ee3e 5ee6 3f3e 2583 94bc
000000d0: df99 0fbf cbe9 81be 38f0 88bf 52c5 f9be
000000e0: 2f34 e5be bb83 94bc 9658 343c f5c4 553f
000000f0: 8936 513f 8317 38bd 10c1 e83d 5ec4 ab3d
00000100: 27d7 0dbf 0cb3 083f 8e9c 53bf 1fee 053e
00000110: 2c06 783e 74cd 59bd b7c0 02c0 07a6 5cbf
00000120: 2e0b 1ebf 4895 25bf 1acc 593e cc1e 46be
00000130: 5c2e 8ebe 5404 be3e 4db7 503f ea0f ed3e
00000140: 7869 7bbf 571a 5dbe 451a 363c c226 c53e
00000150: d580 b73e aca1 c63d 1f07 213f 5181 563e
00000160: 4b59 883f 4987 afbf 431a 653f 6995 283f
00000170: a7f9 28bd 16d7 17be 0940 c03d 250a b33c
00000180: df69 aabe a42e 39bf c0f6 bc3d 8917 d33e
0.51713383 -0.29296148 -0.01157228 -0.023426926 0.71902037 0.31611982 0.38706484 -0.6506191
-0.49549925 0.3334026 -0.33117267 0.20204583 -0.102796294 0.39999917 0.21583967 0.20970191
0.44040745 -0.49590072 -0.36703616 0.18688454 0.22656946 0.12883389 -0.8238074 -0.5533159
0.9972832 -1.2678751 0.0744898 0.38247642 -0.25093672 -0.271593 0.39187655 0.88845813
0.54644936 0.43866262 -0.6655835 0.3906076 -0.098216236 0.8920545 -0.18154682 -0.50125337
0.20556016 0.6150347 0.2313104 -0.71565235 -0.26722568 -0.019689392 0.38265955 -0.22297913
0.46874684 0.46599287 0.18740222 -0.01812894 -0.56094164 -0.25373682 -1.0698309 -0.48783356
-0.44766375 -0.01812922 0.011007449 0.8350366 0.8172384 -0.044944298 0.11364949 0.083870634
-0.5540642 0.53398204 -0.8266076 0.13079117 0.24221104 -0.05317445 -2.0430124 -0.8619084
-0.6173581 -0.6468091 0.21269265 -0.19347686 -0.27769744 0.37112677 0.81529695 0.46301204
-0.9820781 -0.21592079 0.011114662 0.38506132 0.3584048 0.09698805 0.6290149 0.20947768
1.065225 -1.3713161 0.894932 0.6585298 -0.041253712 -0.14828143 0.09387214 0.021855423
-0.33283898 -0.7233679 0.09226751 0.41228893

exp_avg_sq f4 [50, 2]
00000000: 722c a940 4a0a 943f 5764 c641 5e7a 953f
00000010: 83f5 1540 eb02 dc3f 84f7 5e3f 8bdd b03f
00000020: f64d 4340 b9ab 5a40 8135 a341 a90e 3540
00000030: 37b8 fb3d 6a63 bd3f 6785 d33e 0862 1a40
00000040: 5ae9 f53f 305b 6e3f dfe7 8f40 2518 743f
00000050: 2551 7240 cdf4 d33f 4041 6840 85bb fb40
00000060: 6332 e540 e9b0 0440 efdd 4641 551c 0d40
00000070: 3f61 1b3f be04 1240 29bd 0c41 3d5a 953f
00000080: 3d29 3d40 0d5b 903f c11c d53f 867b 143f
00000090: d462 3d40 e9a9 903f 34e7 253f 6ca3 fd3e
000000a0: 43de b440 3cc1 e840 c950 6f3f 92ad 573f
000000b0: 59ff 3f41 2805 833f 83ba 4140 1620 793f
000000c0: 401e 9540 3fcb 433f af39 5f40 7d57 883f
000000d0: ee10 833f df9d 9f3f 2f7a 0c41 9e75 5c40
000000e0: d9c7 f140 2a43 673f 52bb b33f e834 5a3f
000000f0: 7543 1240 2583 3e3f 81ce 8240 2023 343f
00000100: 27cf 0040 c052 be3f 8612 2341 7ae9 0a40
00000110: 72dd 9040 6e67 3040 7560 0b41 ce21 973f
00000120: c406 b441 8ac3 ae40 36dd 853f 9f73 913f
00000130: d02c af3f d316 be3e 6ed5 db40 7a9d 7540
00000140: 3b14 b83f 68d1 e83e c08c 0241 8fc5 e53f
00000150: e2e3 1a41 6dc9 3441 0377 4e41 ebfd 8140
00000160: ae36 0540 ca7c 793f 8015 f040 357f 5540
00000170: 86f9 0b41 2566 583f 47e9 993f 5274 1240
00000180: 1965 153f 9f3f 053f 671f 8b40 8ff4 1840
5.2866755 1.156564 24.798994 1.1677969 2.3431098 1.718839 0.8709643 1.381761
3.0516334 3.416731 20.401125 2.8290198 0.122909956 1.4795964 0.41312715 2.4122334
1.9211838 0.9310789 4.4970546 0.9534934 3.7862027 1.6559082 3.6289825 7.8666406
7.1624007 2.0732977 12.429183 2.2048542 0.6069526 2.2815394 8.796182 1.1668164
2.955642 1.1277786 1.66494 0.5800098 2.959157 1.1301852 0.6480591 0.49538743
5.6521316 7.273588 0.93482643 0.8424922 11.999841 1.0235949 3.0270088 0.97314584
4.6599426 0.76482004 3.4878957 1.0651699 1.0239542 1.2470053 8.77983 3.4446788
7.5556455 0.9033686 1.4041541 0.8523698 2.2853673 0.7441886 4.087708 0.70366096
2.0126436 1.4869003 10.192022 2.1705003 4.527032 2.7563128 8.711049 1.1807191
22.503304 5.4613695 1.0458133 1.136341 1.3685551 0.37126788 6.8698034 3.8377366
1.4381174 0.45472264 8.159363 1.7950915 9.680635 11.299176 12.904056 4.062246
2.0814624 0.9745604 7.5026245 3.335889 8.748419 0.8453086 1.2024316 2.2883496
0.5835739 0.52050203 4.3475833 2.3899267

exp_avg f4 [50]
00000000: 0ec8 9abe 22b2 14c0 306d ccc0 15cc 2bc0
00000010: 6c38 58c0 16ef d5be 0c20 1240 ec65 0a40
00000020: 3908 9ac0 3bb5 1240 ee1e 8340 789f a5bf
00000030: 0a24 e740 a74a 543f 2789 5a3f d611 3c40
00000040: a64e 673f e6e3 843e aa2d 6640 8b48 31c0
00000050: 811b fe3f 4d06 8cbe a6a5 cbbd 34f0 ca40
00000060: f1d8 2e3f a485 60c0 d73f c5bc a8af 0b3f
00000070: a687 0abf 567d 0040 2de5 bd3f 0898 53bf
00000080: 4e0c 6440 a635 85be d3a4 753f 56de 0dc1
00000090: 0ad5 22c0 3259 ce3f 06f3 5f3e 6ad2 8d40
000000a0: 7e6f 69c0 bad5 59be a2c9 10c0 eee3 b03f
000000b0: 6d7f eebe 5034 ccc0 502e 263f 3f8a 0740
000000c0: c0e7 ccbf 3356 ee3e
-0.30230755 -2.3233724 -6.3883286 -2.6843312 -3.3784437 -0.4178397 2.283206 2.1624708
-4.8135037 2.2923114 4.0975256 -1.2939291 7.2231493 0.8292641 0.8536553 2.9385886
0.90354383 0.25955123 3.596537 -2.7700527 1.9852144 -0.27348557 -0.09943704 6.3418217
0.68299776 -3.5081568 -0.024078293 0.54564905 -0.54113233 2.00765 1.4835564 -0.82653856
3.563251 -0.26017493 0.95954627 -8.866781 -2.5442529 1.612097 0.2187005 4.4319353
-3.64743 -0.21272936 -2.2623067 1.3819559 -0.46581593 -6.381386 0.6491442 2.1178129
-1.6008224 0.4655014

exp_avg_sq f4 [50]
00000000: a2ec 0b41 a7f8 1f42 86b4 a041 f907 a741
00000010: a2df 0642 6348 8342 06da db40 0eae 8341
00000020: 4168 b641 1240 ea41 58f5 4542 3b18 0d42
00000030: 1b09 1f42 d0e6 2442 2ab7 1341 8695 3642
00000040: 5c89 3642 495f 0442 2d4d 3e41 c382 7040
00000050: 57d0 6e41 7d8f 1142 7096 6641 aabe b141
00000060: 35f6 af41 ee75 eb41 9586 2c41 bb95 fd40
00000070: c832 9e41 eef5 5440 d685 a340 fa3a 5842
00000080: 16b8 5542 1fce 3b42 6231 3341 9ce7 2f42
00000090: 5252 c141 18bf 4c42 dc89 2f41 37a9 0342
000000a0: 5aec 4c41 7e6b 9842 04b6 b242 8a1c 3542
000000b0: 301e af41 3886 fe41 d209 2841 7c2c a541
000000c0: e3a9 8f40 e4d1 9e42
8.745272 39.992825 20.088146 20.878893 33.71839 65.64138 6.870364 16.459988
22.800905 29.281284 49.489594 35.273663 39.758892 41.225403 9.232218 45.64602
45.63414 33.093052 11.893842 3.757981 14.925864 36.390125 14.411728 22.218098
21.995218 29.432583 10.782857 7.9245276 19.774796 3.3275104 5.1100874 54.057594
53.42977 46.95129 11.199556 43.97618 24.165195 51.186615 10.971157 32.91525
12.807703 76.209946 89.3555 45.27787 21.88974 31.815536 10.502398 20.64672
4.489488 79.40994

exp_avg f4 [50]
00000000: 0203 5ebd 7c80 0abc 7490 2fbe ea1c 66bc
00000010: 642a 20bd 478a e53d 00d6 e0bc 3537 4f3c
00000020: 5202 53be 95ee 993c 6258 813d a584 66bd
00000030: 742e 0cbf 5f30 bf3c 01f1 b7bb f7ab 9f3c
00000040: 62c7 723c 9c86 f0bd a166 423d c9b3 5abd
00000050: 5bb6 d23c 64a0 cdbc 85b7 8e3b 5da3 7bbe
00000060: 5602 193d 6e96 dfbd c716 183e a601 0c3e
00000070: c95f 00bd 498f df3d 2fb4 6f3d 9d08 e5bc
00000080: eaf7 05bd 352b 023d 669c 80bd 110d 55be
00000090: 3eed 8dbd 065a 2b3d cdc6 07bc b0fc 6fbe
000000a0: 3756 0bbb e9c6 9cbd 11de 833d 476b 88bd
000000b0: 14c4 9b3e 139d dfbd 54a4 a7bc 1feb 70bd
000000c0: 9a7e 3f3d b792 56bd
-0.054202087 -0.008453485 -0.17144948 -0.01404498 -0.039102927 0.11208015 -0.027445793 0.01264744
-0.20606354 0.018790523 0.06315686 -0.056278843 -0.5475838 0.023338495 -0.0056134467 0.019491179
0.014818044 -0.11744425 0.047461156 -0.053394113 0.02572172 -0.025100894 0.0043553733 -0.24574037
0.037355743 -0.10917364 0.14852439 0.13672504 -0.031341348 0.10916001 0.058521446 -0.027958209
-0.032707132 0.031779487 -0.06279831 -0.20805766 -0.06930016 0.0418339 -0.008287144 -0.23436236
-0.0021261105 -0.076551266 0.0643884 -0.066610865 0.30423033 -0.109186314 -0.0204641 -0.05881798
0.046751596 -0.052386012

exp_avg_sq f4 [50]
00000000: 85df 333d 1da0 5f3d e2c4 b93d 4b43 4c3e
00000010: 9104 923d 2586 073f 4095 693c 4f56 9f3c
00000020: 1ed8 6b3c 21a5 fd3d 41e7 483e 715b 843d
00000030: 2bad e13d d0e1 3a3d da9d 143d 8793 533e
00000040: 2d65 653d b28b 003d 538e 323d 5857 bf3c
00000050: 5b80 d33c 1dca ce3c 2aab 573e 3307 793d
00000060: 7cff c23c 6fc2 e93c cc1a 023d 2db6 a33d
00000070: 6e7d 7e3e 00ef 0a3c 6aa7 8b3d 916d 163d
00000080: 415b 2b3e 9bca 373d 801f 203e 4756 173d
00000090: 0013 463e f62a 3c3c 6b21 1b3c 5058 883d
000000a0: b8f7 083c b051 153d 0810 603d b720 d13d
000000b0: 6cea 6f3d 6b8a 163d 22c9 183e eb62 ca3d
000000c0: 2307 8f3c 5d4f 223e
0.043914337 0.054596055 0.090707555 0.19947545 0.07129777 0.52939063 0.014256775 0.019450335
0.014394788 0.123850115 0.19619466 0.064627536 0.11019357 0.045625508 0.03628335 0.20661746
0.056004692 0.031383224 0.043592762 0.023357078 0.02581804 0.02524286 0.21061388 0.06079788
0.023803465 0.028535096 0.031763837 0.07993732 0.24852535 0.008479834 0.06819041 0.036725584
0.1673403 0.044870954 0.15637016 0.036947515 0.19343185 0.011484852 0.009468417 0.06657469
0.008359842 0.036454856 0.05470279 0.10211318 0.05857317 0.0367531 0.14920476 0.09882148
0.017459458 0.15850587

exp_avg f4 [50]
00000000: 6110 d1be 880b 123d 7fd1 893e 4d06 d53e
00000010: 1ecd 093f baa3 493e f9f1 173d 420a 983d
00000020: 3935 843e 53dd 0e3d cc9a f83d 57cf 5bbe
00000030: 7dce 13bd 9f9f 163e d78d dbbd 8fae 26be
00000040: fb3f bd3d 9e87 80be 61d9 c2be 10d3 12bd
00000050: 3800 3e3d 8355 28be e5b6 b3bd 1c1b 7f3d
00000060: 10fc 8bbe 91e4 4f3e b3e3 46bd 49bc 1b3e
00000070: 0605 8fbc ca7b 863e a755 1bbf edd3 b53d
00000080: fef8 03bd 462c acbe fcc6 fbbb bd24 d13e
00000090: aaa7 e5bd 7093 81bc 1e38 acbe a135 1dbf
000000a0: 01e8 1cbe 616e 663d 4970 a1bc cb2d a4be
000000b0: 8492 d0be aff9 883e 7ef4 7a3d 5c74 f9bd
000000c0: 469f 733e 58fa c6be
-0.4083281 0.03565553 0.26917645 0.4160637 0.5382861 0.19691363 0.037095997 0.074238315
0.25821856 0.03487904 0.121389 -0.21465813 -0.036085594 0.14709328 -0.10720413 -0.16277526
0.09240719 -0.25103468 -0.38056472 -0.035845816 0.046386927 -0.1643887 -0.08775119 0.062281713
-0.27340746 0.20302035 -0.048556995 0.15208544 -0.01745845 0.2626632 -0.6067757 0.08878312
-0.03221988 -0.33627528 -0.007683633 0.40848342 -0.1121362 -0.015817374 -0.33636564 -0.61409956
-0.15322877 0.05625761 -0.019706862 -0.32066187 -0.40736783 0.26752993 0.061268322 -0.12180397
0.23791227 -0.38862872

exp_avg_sq f4 [50]
00000000: 55ee 9b3e 8597 5e3e 6a35 693e 9bf0 8e3e
00000010: 37e6 a43e 9d1b 9540 7aeb 153d 1c33 c33e
00000020: be13 753e 8299 673e 5056 0d3e 24a0 3140
00000030: 1f59 eb3f d680 2240 dbc0 fa3d d755 143f
00000040: 9e10 1e3f f2b1 0a40 ef07 f23e edb8 863e
00000050: 06d8 a53e afc9 d43e 6044 f33f 36d7 043e
00000060: 932d 293f aba6 9d3e 918a 9d3d 5b2d a53d
00000070: 0e0f 6040 f22b 413d 19c2 763f 1688 b43f
00000080: 486d 033f 5ced 2b40 d1b2 ea3f 465f bb3f
00000090: 8f10 253f 3cbe c13e 3125 c33d 8de5 eb3e
000000a0: 9897 c13d 5c3b fb3f 7ab7 433f c674 1e3f
000000b0: a54b 453f 2c57 6a3f 70af d03e 0f79 063f
000000c0: c10c ba3e 99e5 c73f
0.3045527 0.21737488 0.22774282 0.27917942 0.3220689 4.659621 0.03660152 0.3812493
0.23933312 0.22617152 0.13802457 2.7753992 1.8386573 2.5391135 0.122438155 0.5794348
0.61744106 2.167111 0.47271678 0.26312962 0.32391375 0.41560122 1.9005241 0.12972721
0.66085166 0.3079122 0.07692445 0.080652915 3.5009189 0.04716105 0.9638992 1.410403
0.51338625 2.6863623 1.833582 1.463845 0.6447839 0.3784045 0.09528578 0.4607357
0.09452742 1.962749 0.7645184 0.6189693 0.7706855 0.91539264 0.40758848 0.5252847
0.36337855 1.5616943

exp_avg f4 [50, 50]
00000000: 33d2 c6bd 6762 83bd b666 f1bd 8004 c63d
00000010: c755 59be d08e 9f3d 5913 963d 9603 4dbc
00000020: 6c91 fdbc 1812 eb3d a47f 74bd 01b9 1e3e
00000030: 533d 3e3e 5511 60be 5ebb a53d 225f 47bd
00000040: a420 e6bd 9eb3 7a3d 3152 3a3e 6cf8 c2bc
00000050: dd2f eebc af95 a7bd 49cb fb3d 3926 fe3c
00000060: 55dc a83d 6639 033d ab85 503d 1514 0abc
00000070: 2a40 163e 23b0 a9bd 45cf 3f3e 4d34 36be
00000080: e161 8e3d 7f18 143e 247e 90bc fba2 05be
00000090: 0cb5 42bd c790 90bd 40a6 81bd 843d 1b3d
000000a0: 5442 be3c 681f dcbd c41e 06bd df6e 9f3d
000000b0: 9810 103e 78e2 0ebe eaff a93d 8f6e 9abd
000000c0: b51c c6bd 16a6 ee3d 6ddd 3e3d c88e 193e
000000d0: 962d bebd b874 30bd 0151 c0bd 25cf 8dbd
000000e0: 4201 e2bd f426 0e3e 9f6e e3bd 00c1 e0bd
000000f0: 59fb fa3d 1501 abbd 584e bc3d 29d8 c83c
00000100: b71d 3b3d babd a53d 507a dd3d c9ec cf3c
00000110: 21ad d5bd 47c1 b33d e179 d2bc 5824 f13c
00000120: a7d2 93bd d89c 033e 8889 21bc edd2 babd
00000130: 6a78 d6bd 0839 d7bd 4fb7 70bd 4e75 d7bb
00000140: 7202 f53d c56d b33d c12f 35bd d790 86bd
00000150: 2ec5 af3b f7d1 f6bd 38a8 bd3d cc8f e93d
00000160: 89b4 fb3a 49fa 013e 6112 d8bd 3c30 9f3d
00000170: 9f30 d93c 8b18 ccbd ad54 683d c297 94bd
00000180: 8b24 33bd 0200 373d c54e e13d f102 cdbb
00000190: c0fe bdbd c39f bfbd 4455 fa3d 3b1d 373e
000001a0: 92a6 ea3d 9c16 a5bd 5272 8ebd 6fac 2c3c
000001b0: 9242 0f3e 984e bcbb 1c26 53bc 711c 12be
000001c0: 00d2 00be ab95 083e 1861 503d bc2a 69bc
000001d0: 9237 8a3d 1564 f5bd b4ce 4ebe 55a0 ec3b
000001e0: 0ee3 90bd 0ab2 2ebc f5f9 bbbd b182 06be
000001f0: e307 debd f249 613d c608 a2bd c669 22bd
00000200: 55d9 29be 2120 b43a 5b97 5ebd dbe2 153e
00000210: 4073 be3d 2b2f 27be 00cb 6cba 3738 393e
00000220: 7c2b a53c f6cb 303d 3441 0bbe f136 12be
00000230: ac53 2d3c 8c61 f33d 7421 64bd 9fa7 cdbd
00000240: 584e 11be 4872 8e3d bcad 203d 3abe 26be
00000250: 1ce6 133e 643a 70bc 4200 9a3d 7548 6f3d
00000260: df8d 45bb 2c44 01be f505 f4bc 49e2 3c3d
00000270: 5606 5e3d cc8b cfbc a706 58bd 0819 9a3b
00000280: 3eda 92bc 73cb 3e3e 9b43 633d 90d2 04be
00000290: d276 5dbd 336f 98bb 23a9 0bbe 62eb 323d
000002a0: 5742 323e 6609 83bb a58a 5a3d ba0e f83c
000002b0: eb8f fc3d e6b0 59bd 444b ab3d f266 273c
000002c0: 210f 133e 730f df3d 8b2d 493e 81d6 a93c
000002d0: 2ab9 3ebb eea1 11be d2af 05be 9434 2c3e
000002e0: 1518 c6bc a1b5 81bd 9463 6cbc 2aa9 06be
000002f0: fe01 d13d 8511 5c3d 4b0a 043e b057 16be
00000300: dff0 223d e908 003e 4dc6 de3d b1a2 443d
00000310: de54 16bd 1c48 d23d 59b3 f3bd c774 31bd
00000320: f9d4 26bd 3409 3b3d e45b 8ebd 313d d53d
00000330: 96aa 2e3d ac84 8a3c 7b3b d83c a459 c1bc
00000340: ff6a a7bd 0033 a53c fb30 7e3d acea 01be
00000350: cb88 d53d 009d 5f3e 2d41 553c 7dba 3a3d
00000360: 59b9 a33d 8389 3cbe aab4 c2bc 7875 1fbd
00000370: 66db f0bb 4eea 193d 6c6a 0cbe bf53 b23d
00000380: 2fbe 04be 3e87 01be f326 abbd e9c7 40bd
00000390: 1e46 72be 7258 8e3d 6b37 fd3b 97c5 b93d
000003a0: 0fa3 bf3b be3e 11be 60c9 ba3d 7c6a 3c3d
000003b0: 2fae 13bd eca1 a43d 9916 95bd 6c43 da3d
000003c0: af9a c7bd 5e36 d03d 1976 40bd f1c8 34bd
000003d0: ca77 42be 3768 22bc 3993 47bb 3b0c 0abe
000003e0: e313 91ba a6f9 24bd 7028 e5bd b7d3 5cbd
000003f0: 03c1 75bd bad1 a03d d1a5 abbd e84d 433d
-0.09708061 -0.06415253 -0.11787169 0.09668827 -0.21224128 0.07790911 0.07327909 -0.012513062
-0.030953132 0.114780605 -0.05969204 0.15500261 0.18578081 -0.21881612 0.08092378 -0.04867471
-0.112366945 0.061206453 0.18195416 -0.023800097 -0.029075557 -0.08182847 0.12294633 0.031024085
0.0824515 0.03203716 0.050908726 -0.0084276395 0.14672914 -0.082855485 0.18731411 -0.17793389
0.06952263 0.1446247 -0.017638274 -0.13050453 -0.04753594 -0.07058864 -0.06330538 0.037900463
0.023224987 -0.10748178 -0.032744184 0.07784819 0.1406883 -0.13953578 0.08300765 -0.07540619
-0.09673444 0.11652772 0.046597887 0.14995873 -0.092860386 -0.04308006 -0.0939045 -0.06924275
-0.11035396 0.13882047 -0.11105084 -0.10974312 0.12254972 -0.08349816 0.091946304 0.024517136
0.045682635 0.08092828 0.10814345 0.025381463 -0.10433412 0.08777099 -0.025692882 0.029436275
-0.07217913 0.128528 -0.00985945 -0.09122262 -0.10472186 -0.10508925 -0.058768567 -0.006575263
0.11963357 0.08761171 -0.044234995 -0.06570595 0.005364082 -0.12051766 0.09260601 0.1140438
0.0019203584 0.12693132 -0.105503805 0.07772872 0.026512442 -0.09965619 0.056721378 -0.07255508
-0.043736022 0.04467774 0.11001352 -0.006256454 -0.09277105 -0.09356644 0.122232944 0.17882244
0.11457552 -0.08060953 -0.069553986 0.010539158 0.13990238 -0.005746674 -0.012887504 -0.14268662
-0.12580109 0.13338344 0.050873846 -0.01423138 0.067488804 -0.1198198 -0.20196038 0.0072212615
-0.07074557 -0.010662565 -0.09178535 -0.13135792 -0.10841348 0.05500216 -0.0791183 -0.039651655
-0.16586812 0.0013742485 -0.054343563 0.1463732 0.09299326 -0.16326587 -0.0009032935 0.1808785
0.020162337 0.043163262 -0.13599092 -0.14278771 0.010579031 0.1188384 -0.055695966 -0.10041737
-0.14190042 0.06955391 0.039228186 -0.16283503 0.14443249 -0.014662359 0.075195804 0.05841871
-0.0030144376 -0.12623662 -0.029787997 0.04611424 0.05420526 -0.025335215 -0.05274072 0.004702691
-0.017926332 0.18632297 0.055484395 -0.12970948 -0.054068394 -0.004651928 -0.1363874 0.04368151
0.17408119 -0.003998923 0.053354878 0.03028046 0.12332138 -0.05314722 0.08363965 0.010217415
0.1436124 0.108916186 0.1964628 0.020732166 -0.0029102066 -0.14221928 -0.13055351 0.16816932
-0.024181405 -0.06333471 -0.014428038 -0.13150468 0.10205458 0.053727645 0.12894551 -0.14681888
0.039780494 0.12503399 0.108776666 0.048006717 -0.03670203 0.1026766 -0.11899442 -0.04332426
-0.04073045 0.045663074 -0.069511205 0.10412062 0.042643152 0.016908966 0.02639555 -0.023602314
-0.08174705 0.02016592 0.06205843 -0.12687176 0.10426482 0.21837234 0.013016027 0.045588005
0.07994337 -0.18411832 -0.023767788 -0.038930386 -0.007350373 0.037576966 -0.13712472 0.087073795
-0.12963174 -0.12649247 -0.08357038 -0.04706565 -0.2365956 0.06950463 0.0077275536 0.090708904
0.0058482955 -0.1418409 0.091204405 0.04599999 -0.036054786 0.08038697 -0.07279701 0.10657391
-0.097463004 0.1016662 -0.046987627 -0.044136945 -0.18991008 -0.009912542 -0.0030452742 -0.13481228
-0.0011068549 -0.040277146 -0.111893535 -0.053912845 -0.059998523 0.07852502 -0.08381236 0.04768172
