weights/checkpoint/example0001_warm_adam.pth (torch, 73855 bytes, 25 tensors)

a f4 [5]
000000 cd cc 4c 3e cd cc 4c 3e cd cc 4c 3e cd cc 4c 3e
       0.2 0.2 0.2 0.2
000010 cd cc 4c 3e
       0.2

input_layer.weight f4 [50, 2]
000000 dd 96 cc bf aa 84 1e 3f 89 e9 12 bf 9a 2f 56 bf
       -1.598354 0.6192118 -0.57387596 -0.83666384
000010 3b 5d 86 bf a3 75 82 be f2 5b ab bf 29 03 7a 3f
       -1.0497202 -0.25480375 -1.3387434 0.9766107
000020 d5 ee 2a bf 67 c9 e9 be 49 03 d0 3d 7b f8 5f bf
       -0.6677068 -0.4566147 0.101568766 -0.87488526
000030 97 8b 3d 3f 5a b1 23 be 95 e1 2c 3e 36 ba 45 bc
       0.7404112 -0.15985623 0.16882928 -0.012068322
000040 62 8d 3b bf 3d 81 cf bf 8d e6 14 40 b0 df e2 3e
       -0.7326261 -1.6211315 2.3265717 0.44311285
000050 79 25 09 40 82 58 00 be 46 53 9f be 33 e8 f9 bd
       2.1429121 -0.12533763 -0.3111822 -0.122024916
000060 72 df b3 3e da c6 91 be 61 7b 96 be 64 e3 03 3e
       0.35131413 -0.28472024 -0.29391006 0.12879711
000070 87 4f c9 bf e9 5a 76 be 06 b2 96 bf ac 83 6d be
       -1.5727395 -0.24058117 -1.1773078 -0.2319476
000080 f3 c4 9c be 98 ad b3 3f 37 5d c5 be d9 71 3c 3e
       -0.3061901 1.4037352 -0.3854768 0.18402804
000090 29 8b f2 3e 30 fc b0 3f 41 d3 6f bf b1 98 cd 3f
       0.47371796 1.3826962 -0.9368172 1.6062223
0000a0 83 be 81 bf 40 24 4b be 58 1f 99 3f 2b 37 a7 be
       -1.0136265 -0.19838047 1.196269 -0.32659277
0000b0 03 dc 5e bf bd dd 48 3f 41 76 42 40 ba 22 5e be
       -0.8705446 0.78463346 3.0384676 -0.21692935
0000c0 bc 6d 3d 3f e0 d3 a1 3f 48 a1 f9 bf 1b a1 b4 3f
       0.73995566 1.2642784 -1.9502344 1.4111665
0000d0 fa 95 96 bf ed 5c d1 3d 4b eb d1 3f 4a 2b 4f be
       -1.1764519 0.10222802 1.6399931 -0.20231357
0000e0 23 08 41 be 4f 67 a0 bf 91 05 24 c0 ae 5f dd 3e
       -0.1885076 -1.2531527 -2.5628397 0.4323706
0000f0 93 cf c1 3f 10 d5 8d bf f1 af 2f 3f 82 58 64 bf
       1.5141472 -1.1080647 0.6862784 -0.8919755
000100 a4 f6 4b 3f 1a 36 08 bf b5 6e 8c 3e e2 40 14 3f
       0.7967322 -0.5320755 0.27428213 0.57911503
000110 60 99 e5 3e 4a 6c aa 3e 65 bb 5d 3f 1e 4c 84 bf
       0.44843578 0.33285743 0.86614066 -1.0335729
000120 3a 73 88 be 82 e4 d4 be e1 de da be c7 aa 1b 3f
       -0.2665041 -0.41580588 -0.42748168 0.6080746
000130 63 fd f1 bf 45 64 1a 3f 0a 6f 8f 3e 5a 72 41 3f
       -1.8905452 0.6030925 0.28014404 0.7556511
000140 d9 36 3b 3f a1 e9 98 be 81 94 fc 3e 49 5a fe be
       0.73130566 -0.29865745 0.4933205 -0.49678257
000150 4a c6 b3 3c da ae 5f be ce 35 92 3f 9c 03 5c 3f
       0.021945138 -0.21844044 1.142267 0.8594301
000160 d8 19 aa be 58 b9 9c be 58 a2 81 3f c9 39 51 bf
       -0.33222842 -0.30610156 1.0127668 -0.817288
000170 d5 06 5b bf bc 0a 25 bf 95 a1 1d 3f f5 04 16 bf
       -0.855573 -0.64469504 0.6157468 -0.58601314
000180 97 66 9d 3f 6c 9f 07 40 d5 8a d2 bd 2a 8b ed be
       1.2296933 2.1191053 -0.10280386 -0.46395236

input_layer.bias f4 [50]
000000 1d 09 b1 bd f2 09 51 bb 18 72 ec bc ff 2f 0f bd
       -0.08644316 -0.0031896797 -0.028862998 -0.034957882
000010 39 ca 63 bc ea cb fe 3c 94 19 7d bc d2 d2 7a 3c
       -0.013903194 0.031103093 -0.015447993 0.015309053
000020 0c e4 8f bd 70 18 a3 3d 75 0b a5 bd 04 f8 bb 3b
       -0.07025918 0.079636455 -0.08058826 0.005736353
000030 ef 5b 0d 3d 31 c2 8a 3d cb ee aa 3c f1 b0 6e bd
       0.034511503 0.0677532 0.020865818 -0.058274213
000040 48 0c 95 3d cc 04 82 3d 8a a0 29 bd ae e0 80 bd
       0.07277733 0.06348571 -0.041412868 -0.06292854
000050 94 5c 84 3c 11 3c cd bb 20 3e 96 3b 74 78 34 bd
       0.016157426 -0.006263264 0.0045850426 -0.044060186
000060 c7 41 d1 bc 70 7e a3 3d 7c 5f e0 bc 4a 2e e6 bc
       -0.02554406 0.079831004 -0.02738928 -0.028098244
000070 d7 34 81 bd ed 42 ec bc 87 43 1c 3e d4 78 b3 3d
       -0.063089065 -0.028840506 0.15260135 0.087632805
000080 27 85 a0 3d 14 3a c6 3c 79 7c 98 bd 5c 3b df 3c
       0.07837897 0.024197616 -0.07445616 0.027249984
000090 7c 9d 70 3d 0c 1b 0b 3e 54 f8 2d 3d a4 2d af bd
       0.05874394 0.13584536 0.042473152 -0.08553627
0000a0 c0 ee 67 bd fe b7 19 bd 27 ca ac bd 30 79 e7 bc
       -0.056624174 -0.037528984 -0.08436995 -0.028256029
0000b0 69 5a 68 3c ec cd 0b 3c 0f 3a 9c bd 27 45 0b 3d
       0.014181712 0.008532982 -0.07628261 0.034001496
0000c0 e4 a2 ce bd ed 4f 8f 3d
       -0.10089663 0.069976665

hidden_layers.0.weight f4 [50, 50]
000000 83 be 22 3e a7 e4 aa 3e bf 4c 89 bd 78 5f 71 3e
       0.15892987 0.33377573 -0.06704091 0.23571575
000010 fe d2 ac bd 0a 83 8d 3e c3 5c 42 3e bf 5f ad be
       -0.08438681 0.27639037 0.18980698 -0.3386211
000020 89 aa 9a 3d 6b 60 ca 3e cd 4e e6 3d c6 b3 a4 be
       0.07552058 0.39526686 0.11245499 -0.32168406
000030 1a 27 50 3d 48 8f 09 3e f1 bd 10 3e fc 4b d8 be
       0.05081854 0.13433564 0.14134957 -0.4224547
000040 3e 3d 37 3e ce bc 9c 3c 07 18 08 bc ec 57 14 3e
       0.17894456 0.019132998 -0.00830651 0.14486665
000050 99 da 15 3e 0c 40 3b be 1b 00 3c bd 42 0f 33 3e
       0.1463417 -0.1828615 -0.045898538 0.17486289
000060 2d 1c 01 be 82 9f 1e be b6 a8 ad be 13 72 28 3c
       -0.12608404 -0.15490535 -0.3391778 0.010281104
000070 98 4b ae bd c1 29 f3 3d 2d c4 96 bd 4e cf 4e 3e
       -0.08510512 0.11873198 -0.07361636 0.20196268
000080 9f 89 b7 3d f9 1f 8b be d6 af c7 bd 6e de 4b 3e
       0.08961796 -0.2717283 -0.09750335 0.19909069
000090 69 61 82 be e5 2b bf 3e 01 e5 41 3e d8 8f b6 3e
       -0.25464943 0.37338176 0.18935014 0.3565662
0000a0 da 3b 49 bd 89 2f 96 be cf c6 76 bd 32 cc 73 be
       -0.049129345 -0.2933314 -0.060248192 -0.23808363
0000b0 15 51 68 be d3 bd c0 3d 28 b3 43 3c ae 71 8f bd
       -0.2268718 0.09411206 0.01194457 -0.070041046
0000c0 ac 82 31 be dd 76 3a be b2 e6 78 be a8 3c 46 3d
       -0.17335004 -0.18209405 -0.24306753 0.04839769
0000d0 29 7e b2 3d 5b 7d b4 3e 5a 7e 1e 3e 86 e8 d2 3c
       0.087154694 0.3525189 0.15477887 0.025745641
0000e0 1b 9e c3 be 2e 15 b7 3e 49 c1 d6 be cb 66 b9 3d
       -0.38206562 0.35758346 -0.4194434 0.09052809
0000f0 f2 d7 bf be 54 33 f3 3d 7c 6d 70 3e ca c2 2d be
       -0.3746944 0.118750244 0.23479265 -0.16968837
000100 c7 53 31 bd 34 9a 4d 3d c7 da 55 3d 77 9a 31 3e
       -0.043292787 0.050195888 0.052210595 0.1734408
000110 04 ff 85 3e 20 1e 1d 3d 4d fe 71 3d 61 ab 7f 3e
       0.26171124 0.038358808 0.05908041 0.2496772
000120 6f e2 7b be 58 76 88 be 69 6f 12 3e a4 95 96 bd
       -0.24598096 -0.2665279 0.14300312 -0.073527604
000130 2c 07 1f bd 14 d3 a8 3e 76 a7 3d be ab 39 bf 3e
       -0.0388252 0.3297354 -0.18520913 0.37348685
000140 f7 f4 ee 3e 4b f7 f7 3d f7 ee e3 be ab 34 aa be
       0.46671268 0.12107714 -0.44518253 -0.33243307
000150 d3 18 c0 3d df 4c e1 bd 8c 79 2e 3e 65 33 8e bd
       0.09379735 -0.1100099 0.17038554 -0.069433965
000160 fe ac ec 3d 41 f3 50 3e fc e9 13 be b2 c0 da bd
       0.11556433 0.20405294 -0.14444727 -0.10681285
000170 ed c5 00 3e f5 4c 90 3e 6c fa 41 be 05 30 12 be
       0.12575503 0.28183714 -0.18943185 -0.1427613
000180 48 f6 18 3e b0 2b 2a 3d 15 dc b4 be 7c 6d 79 3e
       0.14937699 0.04154557 -0.3532416 0.24358171
000190 fd 41 8d bc 83 10 b1 3d 09 d2 02 bc 59 00 97 be
       -0.01724338 0.086457275 -0.007984647 -0.29492453
0001a0 08 22 5e bd 67 16 46 be 00 ff 7e bc a0 7e 15 be
       -0.054231673 -0.19344483 -0.015563726 -0.14599085
0001b0 d0 f3 0e 3e 6b 36 7b 3e 09 51 9c be 97 b5 93 3e
       0.13960195 0.24532478 -0.30530575 0.2884948
0001c0 47 d8 6d be 9e b3 03 bf 0f 14 3e 3e 30 84 23 bb
       -0.23227035 -0.5144595 0.18562339 -0.0024950616
0001d0 cd 7c 04 3e 05 2c b9 3e 5c e9 01 bf b3 95 9d 3e
       0.12938233 0.36166397 -0.50746703 0.30778274
0001e0 7a 93 af 3e 2e f2 a9 3e 2f 03 b6 3e 6d e9 ab bd
       0.34292203 0.3319258 0.35549304 -0.08394132
0001f0 1a 3c 8e 3e a7 a5 ca bc b6 d3 8d 3b 7a 3e 84 3b
       0.2778023 -0.024737192 0.0043282164 0.004035768
000200 1c 9e dc 3d b6 b3 4e 3e 5f db 10 3f db d8 2d be
       0.107723445 0.20185742 0.56584734 -0.16977255
000210 55 6b b1 3d 41 0a 83 bd da d1 bc bd 5a dc 26 be
       0.0866305 -0.0639844 -0.092197135 -0.16294995
000220 f5 f1 c7 be 51 ac 78 3d 86 4b 0c 3e 49 1b 2f be
       -0.39051786 0.06071121 0.13700685 -0.17100252
000230 57 99 3f bc 83 82 df 3d e6 b9 9b 3c 4b f1 ec 3d
       -0.011694274 0.10913565 0.019009542 0.115694605
000240 94 52 96 be 33 e4 6a 3d c2 fe 7c be 39 35 0f be
       -0.29359877 0.057346534 -0.24706557 -0.13985147
000250 a3 3b 3e be 29 b3 c9 3d c1 2d 8f 3c da 44 28 bd
       -0.18577437 0.09848625 0.017477872 -0.041081287
000260 c8 2e 83 be 8a e9 df be 0d 57 90 be 67 cf e4 3d
       -0.2562163 -0.43732864 -0.28191414 0.11172371
000270 c4 a7 51 3e c9 45 cf bb cd 97 b4 be 36 45 25 3d
       0.20474154 -0.0063254577 -0.35272065 0.040349208
000280 11 6a 1e 3e 24 11 67 3e 45 d8 67 3e 3a 87 0e be
       0.15470149 0.22565132 0.22641094 -0.13918772
000290 47 72 94 bd e1 7f 5c 3e 5b f7 12 bc 6e 0e 18 3e
       -0.07248359 0.21533157 -0.008970107 0.14849254
0002a0 1e e6 19 be a3 2c 73 3c 64 66 13 be 04 32 26 3d
       -0.15029189 0.014842185 -0.14394528 0.040575042
0002b0 3f 77 5e bc 5c a2 8e be 0e 3e c3 be a2 c6 4c bc
       -0.013578235 -0.27858245 -0.3813328 -0.01249853
0002c0 89 2e 42 3d f0 2b 8c be 2f 7d ae 3d cb c6 aa 3d
       0.04740766 -0.27377272 0.085199706 0.08338698
0002d0 71 64 a6 3e 50 1c 96 3e 36 f9 36 be b1 88 b0 3e
       0.32498506 0.29318476 -0.17868504 0.34479287
0002e0 22 f0 6c be 7a 1b ed bc 79 7d 7a 3d 60 a4 33 3c
       -0.23138478 -0.028943766 0.061154816 0.010964483
0002f0 a1 91 53 3e da 10 8d bd da 9b 45 3d 40 f9 16 be
       0.20661022 -0.0688798 0.048244335 -0.14743519
000300 9d a1 ba 3d 3c 09 ed bd 3f 3f a7 bd c3 67 11 be
       0.091128565 -0.11574027 -0.0816636 -0.14199738
000310 68 4d af 3d 03 43 ab 3e f0 13 cf 3d 25 65 18 3c
       0.08559686 0.33449563 0.10111225 0.0093014585
000320 8d 16 63 3e 1a 12 8e bd f7 91 d6 be 50 ed 59 be
       0.22176571 -0.06937046 -0.41908237 -0.21281934
000330 85 14 91 bd 26 4e 06 3e 8e c3 67 be 50 f4 87 3e
       -0.07083992 0.13115749 -0.22633192 0.26553583
000340 8c 30 1f bd 84 c6 dd 3d 1f d7 9c 3e de a3 bf 3d
       -0.038864657 0.108288795 0.30632874 0.09357427
000350 e5 25 ed bd 89 ba 96 3e 13 51 1c be e8 00 68 3e
       -0.115794934 0.2943919 -0.15265302 0.22656596
000360 a7 d9 1f be 09 02 b4 3d e2 0c c5 3d e6 44 4d be
       -0.15610372 0.08789451 0.09621598 -0.20045814
000370 aa c8 6a bd 34 8d a5 bc d5 da c6 bd 8b 47 ee 3d
       -0.057320274 -0.020208932 -0.09709708 0.116347395
000380 88 f2 5c bd e9 03 2f be a1 66 97 be 9c 4c 1f be
       -0.053942233 -0.17091335 -0.29570487 -0.15556568
000390 12 f8 83 bd 01 34 8d 3b 49 2a 4b 3d 88 45 8e bd
       -0.064438 0.004309178 0.049600873 -0.06946856
0003a0 a3 e9 b5 3d 49 9b 37 3e 6d 9d 99 3d a0 f2 d6 bc
       0.08882453 0.1793033 0.0750073 -0.02623874
0003b0 1f a1 9c 3d e6 3b 20 3e d0 5c 9a be 5f 8f ac be
       0.07647919 0.1564785 -0.30148935 -0.33703133
0003c0 0b 2d 70 be 60 4a 3d 3d 47 49 37 be a7 4d f6 3d
       -0.23454683 0.046213508 -0.17899047 0.1202653
0003d0 51 61 07 be c1 1f 35 be 6c 2f 77 3c 15 07 f8 3d
       -0.13220717 -0.17687894 0.01508699 0.12110726
0003e0 1d f7 99 bd 33 6d 31 3e 4e 15 cf 3e 3a 06 64 be
       -0.07517836 0.17326812 0.40445942 -0.22268
0003f0 14 7c 81 3d 98 7e 5c be 93 da b1 be 21 32 41 be
       0.06322494 -0.21532667 -0.3473707 -0.18866779

hidden_layers.0.bias f4 [50]
000000 15 42 3e bc 91 31 38 3d 6e 0c 71 bb d0 7f 49 bd
       -0.011612435 0.044969145 -0.003678109 -0.049194157
000010 5c 33 39 3d f7 89 c2 bd 3a 58 81 3d 2b 9b d7 bb
       0.045214996 -0.09498971 0.06315656 -0.0065797768
000020 81 c1 67 bd bc e3 b7 bc 95 23 c5 bc 23 df f2 bc
       -0.056581024 -0.02244746 -0.024064818 -0.029647416
000030 bf 10 e2 3c c0 f4 7b 3d c8 fc 1e 3e ae eb af bd
       0.027595876 0.06151271 0.15526116 -0.08589874
000040 1c ec 87 bd 33 1c b9 bc c5 55 39 3c 65 ea 28 bd
       -0.06636831 -0.022596454 0.011311953 -0.04123916
000050 ad 08 28 bd cf 3b 2d bd 38 89 12 3d 91 4a 25 3d
       -0.0410239 -0.042293366 0.035775393 0.040354315
000060 3c d3 ee 3b 0c 28 68 bd 7b bf cb bc 60 69 38 3d
       0.0072883647 -0.056678817 -0.024871578 0.04502237
000070 cf c9 b6 3c ec 37 2d 3d 90 60 a6 3c 8d bd 87 3c
       0.022313027 0.04228966 0.020309716 0.016569877
000080 52 96 73 bd bc ba d0 3c a6 de a7 bc 1b 1a 17 bd
       -0.05946953 0.025479667 -0.02049191 -0.03689013
000090 32 91 b7 bc aa 56 80 bd 52 f8 c3 3d 16 ed 7b bc
       -0.022408102 -0.0626653 0.09568848 -0.01537635
0000a0 35 b9 8b bc ec fa 39 3d 6a d8 49 3c 5e e6 11 3c
       -0.017056087 0.045405313 0.012319664 0.0089050215
0000b0 9a 6c 0f 3d cc eb e0 3c 5a 14 e3 bc f0 7e 8e bc
       0.03501568 0.027456187 -0.027719665 -0.017394513
0000c0 6c 28 8e bd da c9 a6 bd
       -0.069413036 -0.08143969

hidden_layers.1.weight f4 [50, 50]
000000 b0 f5 d5 bc e2 2f ad 3e 8d 84 58 be 9c 65 8a 3e
       -0.02611813 0.33825594 -0.21144314 0.27030647
000010 19 58 c5 3d dd 7d 9b be 02 46 c6 be 18 51 95 3d
       0.09635944 -0.30369464 -0.38725287 0.07290858
000020 76 76 36 be 6e 5c 3d 3e 1a 6c 45 bd 53 c7 0d 3f
       -0.17818627 0.1849229 -0.048198797 0.5538227
000030 af 8f 45 3e 37 df 1a be 82 7b ac 3d 05 ca 0b 3e
       0.19293092 -0.15124212 0.08421995 0.13651283
000040 94 4e 0f 3e 77 b9 fe bc 06 d5 ec be 6f 51 f1 3d
       0.13994819 -0.031094296 -0.46256274 0.1178311
000050 10 eb 82 3e 5a 92 be be f8 fd b5 3e e8 bd 95 be
       0.25569963 -0.37221032 0.35545325 -0.2924645
000060 c0 b7 37 be cc 1e e8 bd 7a 24 46 3e 69 b4 56 3e
       -0.17941189 -0.11333999 0.19349852 0.20967259
000070 02 b0 ea 3d 91 a6 b4 bd 19 e4 1e 3d 37 75 66 be
       0.11459352 -0.088208325 0.03879175 -0.22505651
000080 4e b1 c6 be cc a5 8c bc 29 ff 89 3e ee 7a cc be
       -0.38807148 -0.017168902 0.26952484 -0.39937538
000090 94 e2 7c 3d 7c 07 91 bd b4 c1 01 3e 5d 2c 79 ba
       0.06173952 -0.07081506 0.12671548 -0.0009505207
0000a0 29 43 2a 3e 37 c0 37 bd 7c bf 90 be fb 73 3a bd
       0.16627182 -0.044861045 -0.2827109 -0.045520764
0000b0 1a a3 21 be 42 af e2 3d 6f e4 d7 3d 9a d0 5e be
       -0.15784875 0.11068584 0.10541617 -0.21759263
0000c0 c4 6f e3 bd c1 bb 73 3c d1 aa b3 3c 2e be bb 3d
       -0.11105302 0.014876307 0.021932038 0.09167133
0000d0 83 48 b9 be 10 fb b8 be d3 88 ff 3e 4c ef ac bd
       -0.36188135 -0.36129045 0.49909076 -0.0844408
0000e0 f0 52 88 3e 44 cb dc bd 63 14 06 be cf ce 04 be
       0.26625776 -0.10780957 -0.13093714 -0.12969516
0000f0 ef 58 76 be 7d 25 c6 bd b5 4f 8c 3e bc 80 84 3e
       -0.24057363 -0.09675119 0.27404562 0.25879467
000100 24 01 a5 3c 95 7f de bd 47 1c 07 3d 90 fb 07 3d
       0.020142145 -0.10864178 0.03298595 0.033198893
000110 b6 bc c2 3e d1 16 4e 3d ff a9 74 3d 5b 2e 89 be
       0.380346 0.05031473 0.059732433 -0.2679318
000120 e3 e3 fe 3c d8 38 77 3e 3e 55 d4 bd 91 82 98 be
       0.031114524 0.24142778 -0.10367821 -0.29787114
000130 ec 40 e2 bd 9f 3e 3a 3e 96 19 ce 3e a4 2e 1e be
       -0.11047539 0.1818795 0.40253896 -0.1544748
000140 bc 83 95 3e 33 f2 8c 3d 9e 14 95 be 82 20 37 be
       0.29202068 0.06882133 -0.29117292 -0.17883494
000150 fa 8a ee be f3 ce 7d 3e 61 77 81 be 0c 3c 12 be
       -0.46590406 0.24785976 -0.2528639 -0.14280719
000160 d7 a3 42 be 15 7c 9f 3e 37 b9 26 3e 29 5d 99 bd
       -0.19007812 0.31149355 0.16281591 -0.07488472
000170 e3 02 29 3e 24 4d b4 be 9a b1 86 3e e8 c5 66 3e
       0.16505007 -0.35215104 0.26307374 0.22536433
000180 4e 17 6d be 26 4a b4 3d 13 48 b7 3e 9a fe 08 bd
       -0.23153421 0.08803205 0.35797176 -0.033445932
000190 2e 1f 80 be 4b 74 c2 bc 18 f8 33 3e 8b d0 6d bd
       -0.25023788 -0.023737093 0.17575109 -0.05806021
0001a0 49 52 91 bd e1 82 c5 bd 07 f0 2b be 6d c6 09 be
       -0.07095773 -0.09644104 -0.16790782 -0.134546
0001b0 bc 8f ae 3e 69 82 9d bd 9d 9a 3a be 57 98 8b 3c
       0.34094036 -0.076908894 -0.18223043 0.017040415
0001c0 e5 54 a1 be de d7 ea 3e f2 8f 1e be 42 71 56 be
       -0.31510082 0.4586782 -0.15484598 -0.20941642
0001d0 0f 2b 82 3d fe 0a f2 bd 93 89 51 bd 9b ec dc bd
       0.06355869 -0.11818503 -0.05115659 -0.107873164
0001e0 f5 9d 87 be b7 d2 82 3e e5 80 a0 bd 38 68 09 3f
       -0.264877 0.25551388 -0.07837085 0.5367465
0001f0 58 c8 35 be d5 bb 45 3d dd 66 d2 bd fb f5 1b be
       -0.17752206 0.048274834 -0.10273526 -0.15230553
000200 74 c9 56 3d 47 e3 9b 3e a2 c2 18 bd 3f d5 3b 3e
       0.052438214 0.30446836 -0.03729499 0.18343066
000210 f7 c9 63 be 29 a5 01 3e 1b 8c 70 bd ba 94 c4 bd
       -0.22245012 0.1266066 -0.058727365 -0.0959868
000220 c8 52 d2 bd 76 85 77 be ce 97 7a be 98 da 86 3e
       -0.102696955 -0.24172005 -0.24471971 0.2633865
000230 fa 71 b2 3c 0a be 59 3c 9e 87 63 bd 33 81 49 be
       0.021782864 0.013289938 -0.055549257 -0.19678192
000240 ed c0 b3 3c 55 48 6c be ef 6d a8 3d 0c 06 b8 3d
       0.02194258 -0.23074467 0.08224093 0.08985528
000250 03 9e b6 3c 0e 7c a9 3d 8a e5 3f be e3 67 22 3e
       0.022292143 0.08275615 -0.18739906 0.15859942
000260 bd 1c ae be 83 2f 43 3e 28 bb 76 3d 94 8a d8 3c
       -0.340063 0.19061093 0.06023708 0.026433267
000270 d4 96 9b bd 89 2c 83 be 0e de 41 3e 2b 4d 3f 3e
       -0.075971276 -0.25619915 0.18932363 0.18681781
000280 fc f0 a3 3e 2c 58 a5 bd aa b9 90 3e 2f cf dd bd
       0.32019794 -0.08073458 0.2826665 -0.10830533
000290 23 74 43 3d 3f 81 6a 3b f8 e7 ad bc 38 66 69 3d
       0.04771818 0.0035782603 -0.021228775 0.05698225
0002a0 c4 eb 64 be 5b d9 92 bd b9 cd 18 3e b7 e5 b0 bc
       -0.22355562 -0.071703635 0.14922227 -0.021593912
0002b0 bc bb 11 be 56 fa 52 3c 52 37 db bd 7b 73 82 3d
       -0.14231771 0.012877068 -0.10703911 0.063696824
0002c0 e5 e1 2e bd b2 fc d7 3d d9 b6 4c be 3a f2 8a 3d
       -0.0426959 0.10546245 -0.19991626 0.06784482
0002d0 44 b6 a3 be a6 f0 98 3e 59 10 16 3e 38 59 0a 3d
       -0.31974995 0.298711 0.14654674 0.033776492
0002e0 0a b0 09 3d 13 6f 88 bd 8d 17 e9 3d 49 65 d3 3d
       0.03361515 -0.06661811 0.11381445 0.10322053
0002f0 f3 3f a2 bb 4e 0c 48 3e 90 40 be 3d aa 32 24 3e
       -0.004951471 0.19535944 0.09289658 0.16034952
000300 a5 a9 4a be ab 60 bb bc 75 af 64 bd 0c 60 06 3f
       -0.19791277 -0.022873243 -0.05583139 0.52490306
000310 9a 9c 33 be 95 09 57 bc 6d d3 fb 3c 14 42 0e be
       -0.17540208 -0.013124843 0.030740464 -0.13892394
000320 67 cd 21 bd f2 48 1f 3e 90 50 ed bd 19 d1 a7 3d
       -0.039502528 0.1555517 -0.11587632 0.08194179
000330 61 15 32 be aa aa c6 bc 76 8d 69 3e 5b 65 19 3e
       -0.17390968 -0.0242513 0.2280787 0.1498007
000340 64 20 99 3e d6 f2 b6 bd 32 02 d8 3d ce 79 a5 3e
       0.29907525 -0.08933036 0.10547294 0.32319492
000350 23 4f 7e 3d 92 aa a1 bd 71 cf 8e be b1 b7 94 bb
       0.06208719 -0.07893862 -0.2789264 -0.0045384993
000360 d0 7a ab 3e da 19 34 be 77 e2 53 be 4c ef 38 be
       0.33492136 -0.17587987 -0.20691858 -0.18060035
000370 91 e3 97 3c 3f a6 69 be c1 b9 d2 bd 0e e0 73 bd
       0.01854113 -0.22817324 -0.10289336 -0.059539847
000380 b3 ea 08 be 5c 71 43 3d 4f 6a 96 3e db 86 37 3e
       -0.1337078 0.04771553 0.29377982 0.17922537
000390 16 94 42 3e 5c 48 88 be 08 b7 bd 3d b0 e9 88 be
       0.19001803 -0.26617706 0.09263426 -0.2674079
0003a0 f0 3b 0f be 30 90 fe bd 29 53 1b 3d 84 72 57 3e
       -0.13987708 -0.12429845 0.037921105 0.21039778
0003b0 a0 d7 76 bd 93 95 5b 3e 9d 38 79 3e 0e 90 cd 3d
       -0.06026423 0.21443777 0.24338003 0.10037242
0003c0 9b 7a c9 3b e3 a4 5e 3d 47 6a 4b 3e 54 d2 8b 3d
       0.006148649 0.054356467 0.1986476 0.06827226
0003d0 45 42 76 be 79 de 47 3e 27 e8 ce 3c 26 3a 95 3e
       -0.24048717 0.1951846 0.025257183 0.29145926
0003e0 f8 94 92 bc fa 95 92 bd 22 50 05 bd 0b 5d 44 be
       -0.0178933 -0.07157512 -0.032547124 -0.19176118
0003f0 ea 00 e7 3d 95 bc 22 be 8f c9 eb 3d bd 42 f5 3d
       0.11279471 -0.15892251 0.115130536 0.1197562

hidden_layers.1.bias f4 [50]
000000 6a 46 0d bd 74 ab a7 3d 00 7b 2a 3d 58 da 21 bd
       -0.03449098 0.08186999 0.04162121 -0.03951487
000010 51 ed 9f 3c 4c 25 8c bd 5a 2b 8e bd dd d4 34 3d
       0.019522341 -0.06843051 -0.069418624 0.044148315
000020 cf 41 28 bd 12 31 33 3d 4e 09 93 3c 26 40 59 3d
       -0.041078385 0.04374797 0.017948773 0.053039692
000030 ce e1 9f bd 86 85 42 3c 70 52 7c 3d 8e 47 2a 3d
       -0.07806741 0.011872655 0.061602056 0.041572146
000040 9f 5d 1c 3d 1b 72 21 3d 8e e8 14 3d 07 ac b1 bd
       0.03817522 0.03941546 0.036354594 -0.0867539
000050 05 3a 0a bd 5a b9 1c bd 6c 80 16 bd 4b 7d 68 bc
       -0.033746738 -0.038262703 -0.036743566 -0.014190028
000060 aa 2f 6f bd fb 2e f7 3c 01 fd e2 bc 60 4b 1e bd
       -0.058395065 0.03017377 -0.027708532 -0.038646102
000070 eb 0e 18 bd 14 fb 80 bd 97 f5 c9 3d bd c7 87 bd
       -0.037123602 -0.06297889 0.09861296 -0.06629894
000080 2b ad 5d 3d a7 19 8e 3d 23 88 75 3d 77 f2 50 bd
       0.054120224 0.069384865 0.059944283 -0.051012482
000090 a9 9a 07 3d ce 4a 16 bb cb b9 9b 3d c6 f0 08 bd
       0.03310648 -0.002293277 0.076037966 -0.033432744
0000a0 0b ba 20 3d df 93 ec 3b 33 99 06 bd ba a0 45 3d
       0.039239924 0.007219776 -0.032860946 0.048248984
0000b0 dc 49 47 3d e6 0e ba bd 43 bb 85 bd 87 53 71 bd
       0.048654422 -0.09084873 -0.06529858 -0.05891755
0000c0 ca 37 7b 3c 92 54 1e 3d
       0.015333125 0.03865487

output_layer.weight f4 [2, 50]
000000 81 3f 87 be 1d 4d eb be ce 77 b2 bd e4 37 2f 3d
       -0.26415637 -0.4595727 -0.08714257 0.04277791
000010 a0 5c 8e 3e 8b 04 6a bd 06 cd d6 be 9f 01 59 3d
       0.27805042 -0.05713324 -0.41953295 0.05298006
000020 57 2a af be 8a 7d 89 be 7f 65 fc 3d a9 2d 41 be
       -0.3421199 -0.2685359 0.12324046 -0.18865074
000030 65 b5 39 3f 20 7a 5a be 4d 98 57 3e 49 ff 11 be
       0.7254241 -0.2133565 0.21054192 -0.1425754
000040 11 52 70 bd 10 a4 b1 be bf df 0a 3e 7b 07 f6 3d
       -0.058672015 -0.34695482 0.13561915 0.120131455
000050 47 af 89 be cd 83 f7 bc 90 61 d5 be 36 e0 ce 3d
       -0.26891539 -0.030214215 -0.41675997 0.101013586
000060 52 a5 3c bc 41 54 4a 3e 69 ce 92 3c 12 08 23 be
       -0.011514025 0.19758703 0.01792069 -0.15921047
000070 ae eb ce 3e 15 64 af bc 92 9d 80 be 76 59 35 3e
       0.40414184 -0.021410028 -0.25120217 0.17709908
000080 bf cd 39 be 24 28 82 3d 00 dc 0d 3e bd c5 2a be
       -0.18144892 0.063553125 0.13853455 -0.16676994
000090 02 af d4 bd 8d 5f 9c bd 72 98 0d be 16 e6 a7 3e
       -0.103849426 -0.07635412 -0.13827685 0.3279273
0000a0 3d 87 97 be 8f bc b9 be 68 75 25 3e 65 22 84 bd
       -0.29595366 -0.3627667 0.16158068 -0.06451873
0000b0 3b c5 56 be e4 f3 7d 3e 45 60 19 be d7 c8 d3 3d
       -0.20973675 0.24800068 -0.1497813 0.103410415
0000c0 4e cd 06 be 0b ec c6 be 72 5f a7 bd 4b fb 97 3e
       -0.13164255 -0.38851961 -0.081725016 0.2968391
0000d0 a6 20 52 3c 74 55 08 3e 02 c4 1b be 52 d4 22 be
       0.012825167 0.13313848 -0.1521149 -0.15901306
0000e0 4c af 14 be 7b fb c6 bd 0f 62 70 3e 19 8c 93 3e
       -0.14519995 -0.09715935 0.23474906 0.28817824
0000f0 11 43 4a 3e fc b2 2c 3e 58 b6 b5 3d 91 0f 34 bd
       0.19752146 0.16865152 0.0887267 -0.043960158
000100 8f 11 a6 be 28 44 4f bc 06 52 b0 3d 8d 70 b9 bb
       -0.3243527 -0.012650527 0.08609395 -0.005659169
000110 e9 98 96 3e dd 5f cf 3b b2 d6 60 bd 64 4d a0 3e
       0.29413536 0.0063285665 -0.05489225 0.31309044
000120 9f 9a 13 3e 04 5b 37 3e 57 37 dc bc cb 4c 68 bc
       0.14414452 0.17905813 -0.026881857 -0.014178465
000130 d4 f6 ef 3c 0b ab 4f 3e b9 33 b9 bd 1a f0 e4 3c
       0.029292502 0.20280091 -0.090430684 0.02794652
000140 98 f9 70 be 57 b9 84 be 65 3e 3f bd 17 48 24 bc
       -0.23532712 -0.25922653 -0.046690363 -0.010026953
000150 00 02 a3 bd e3 18 9a be 92 bd 4f 3e d5 98 68 3e
       -0.07959366 -0.30097112 0.20287159 0.22714551
000160 49 de 0b bd af 71 a4 3e 5b 3b 23 3e 9f f7 46 be
       -0.034147535 0.32117984 0.15940611 -0.19430397
000170 10 44 d3 3d b2 8b 18 be 63 cf ac be 67 33 eb bc
       0.10315716 -0.1489704 -0.33751974 -0.028711034
000180 eb f1 84 bc 40 21 a2 3c 3c ee 04 3f 8f 61 b7 bd
       -0.016228637 0.019791245 0.51926017 -0.08954155

output_layer.bias f4 [2]
000000 b0 70 f0 bc 37 07 50 bd
       -0.029350609 -0.05078813

exp_avg f4 [50, 2]
000000 a1 7b 98 c1 12 fb 2a c1 71 9c 05 40 ae 7f 82 bf
       -19.060366 -10.686296 2.0876734 -1.0195215
000010 d2 40 13 c2 5d c1 cf be 1f 7a 0d 41 e5 11 8b 40
       -36.8133 -0.40577212 8.842315 4.3459344
000020 37 5f bf 40 03 87 25 41 97 98 e1 41 42 38 49 c0
       5.980373 10.345462 28.199507 -3.1440587
000030 80 db ad c0 56 56 3c c1 e9 04 98 41 c9 a1 b7 41
       -5.4330444 -11.771078 19.002398 22.953997
000040 af c3 94 c0 3e b6 3e 40 ae 98 73 c0 3d e8 32 40
       -4.648887 2.9798732 -3.8061938 2.7954247
000050 ce d7 b0 c0 aa 7a 2f c0 9d bc 26 41 d8 bc 89 c0
       -5.5263433 -2.7418618 10.421048 -4.304302
000060 27 30 bd c1 fb 0f 29 c1 88 4e b5 41 ae 24 55 bf
       -23.648512 -10.5664015 22.663345 -0.83259094
000070 7f 88 09 c1 7b db 4e c0 aa 34 40 c2 bd 81 f8 c0
       -8.595824 -3.232146 -48.05143 -7.765837
000080 48 72 81 bd c0 77 b4 bd 80 0f dc 41 1b 8b 82 40
       -0.063206255 -0.08811903 27.507568 4.0794806
000090 4e ef 90 41 09 21 b5 3f 37 6f 93 40 68 64 a0 40
       18.116848 1.4150707 4.607326 5.0122566
0000a0 2b bb 86 42 2c 30 67 40 1d e3 c8 c0 12 85 d1 c0
       67.36556 3.6123152 -6.277724 -6.547494
0000b0 92 29 ee 41 91 5b 95 41 de 99 a8 be 47 e8 f9 c0
       29.770298 18.66971 -0.3292989 -7.809604
0000c0 6e 9a ae 41 1c 72 e8 c0 93 03 36 c2 ec 46 de c1
       21.825405 -7.2639294 -45.50349 -27.78463
0000d0 d5 7b 9b 3f 98 0b d1 40 8c eb 72 40 8a fb d0 3f
       1.2147166 6.5326653 3.7956266 1.6326764
0000e0 98 78 73 c1 a4 13 06 c1 07 0d be bf e5 44 ee c0
       -15.216942 -8.379795 -1.4847726 -7.44591
0000f0 6a e3 10 42 07 59 cc 41 9e ef 04 c2 08 4c 9c c1
       36.222084 25.54347 -33.234 -19.537125
000100 b1 d3 47 42 56 82 0a 42 28 c0 bc c0 cc d7 17 c0
       49.95673 34.62728 -5.8984566 -2.3725462
000110 b3 82 5a c2 85 fe 63 c1 8c 7f 96 c1 80 34 40 c1
       -54.627636 -14.249639 -18.812279 -12.012817
000120 65 dd 00 42 6d a7 7c 41 26 66 db 41 4d 0f 93 41
       32.216206 15.790875 27.424877 18.382471
000130 7a e2 3b 41 de 32 58 41 bc 63 27 c2 1d 73 16 41
       11.742792 13.512419 -41.847397 9.403104
000140 b1 80 35 c2 8e 96 de c1 05 2b c4 40 cc 0e 25 41
       -45.375675 -27.823513 6.1302514 10.3161125
000150 6c b6 99 c2 eb 23 19 c2 22 82 dd 40 bf 56 3b c0
       -76.85629 -38.285076 6.9221354 -2.9271696
000160 bd d7 3c 41 65 62 75 c0 d1 63 fa c0 45 6d 1e c1
       11.8026705 -3.8341305 -7.8246846 -9.901677
000170 da 2d 70 c2 ab b0 52 40 31 00 43 42 58 20 bb 41
       -60.044777 3.292033 48.750187 23.390793
000180 cc 5a 4d c1 8d 92 d9 40 d0 86 c7 41 c2 e5 bc 40
       -12.834667 6.7991395 24.940826 5.9030466

exp_avg_sq f4 [50, 2]
000000 1b 05 52 42 48 da a5 41 2b c5 3f 3f 6c ed 29 40
       52.504986 20.731583 0.7491023 2.655116
000010 d1 ed 1d 43 0a 91 ae 41 90 1b 0c 41 b7 17 7f 41
       157.92897 21.82082 8.756729 15.94329
000020 38 41 7b 41 9c 52 7e 42 11 80 07 43 5f 6a 94 40
       15.703423 63.580673 135.50026 4.6379848
000030 13 6b 0b 40 a2 ab b9 41 4d c5 3d 42 70 59 15 42
       2.1784103 23.208805 47.442677 37.33734
000040 3b 3a 85 41 34 f6 dd 40 54 da 65 40 17 23 e0 3f
       16.653433 6.936304 3.5914507 1.7510709
000050 cc 45 e5 40 f2 47 af 40 fc 1f f0 41 5d b8 3e 41
       7.16477 5.4775324 30.015617 11.920011
000060 46 a4 28 42 3f e6 bd 40 aa 9a e9 42 20 11 12 42
       42.160423 5.934356 116.80208 36.516724
000070 f2 74 8b 41 1d 78 d1 40 5a 0f 94 43 38 3a d8 40
       17.432102 6.5459123 296.11993 6.757107
000080 bc 31 39 40 74 1f 06 40 76 b6 81 42 4a b1 96 40
       2.8936605 2.0956697 64.85637 4.7091417
000090 14 cd 4e 42 21 37 03 40 ba 9d 34 40 00 bc bd 40
       51.70027 2.0502398 2.8221269 5.929199
0000a0 39 b5 2d 44 1f ce af 42 db e1 36 41 ce 45 6b 40
       694.8316 87.90258 11.4301405 3.6761355
0000b0 3c 85 ad 42 0a e8 28 42 49 63 d2 3f 3f 1d eb 3f
       86.76022 42.2266 1.643655 1.83683
0000c0 77 9c 90 42 f1 00 8a 41 ad 36 50 43 fc 5c 13 43
       72.305595 17.25046 208.21358 147.36322
0000d0 bc a6 fd 40 26 9b 77 40 d4 4d aa 40 62 95 ac 3f
       7.9266033 3.8688445 5.3220005 1.3483088
0000e0 8c a8 46 42 27 5b 83 40 f6 b4 d8 3f f8 b5 40 40
       49.664597 4.104877 1.6930225 3.0111065
0000f0 af 24 00 43 dc 45 1e 42 78 db ec 42 d8 a9 fb 41
       128.1433 39.568222 118.42865 31.457932
000100 9a be 61 43 0c 67 7b 42 f3 93 cf 41 e9 87 7a 40
       225.74454 62.85063 25.94724 3.9145453
000110 1f 32 d2 43 0e fc 46 41 90 55 8c 42 08 1f bd 40
       420.39157 12.436537 70.167114 5.910038
000120 2f 50 1b 43 fb da 64 41 d0 24 82 42 9b 23 3c 41
       155.31322 14.303462 65.0719 11.758693
000130 02 cd f5 41 b3 92 33 41 d2 cd 7e 43 f8 2b 24 42
       30.725101 11.223315 254.80399 41.04294
000140 68 73 91 43 0d 84 a9 41 81 b1 36 41 92 c8 e5 41
       290.9016 21.189478 11.418336 28.722935
000150 b7 79 2f 44 e7 7d d9 42 57 98 c7 40 77 82 0a 40
       701.9018 108.7459 6.237346 2.164213
000160 bd 7e dd 41 0c c9 e4 41 22 e7 1f 41 c8 90 6f 40
       27.686884 28.598167 9.993929 3.7432117
000170 b2 b9 f9 43 83 eb 68 42 57 60 8d 43 95 8e d5 41
       499.45074 58.229992 282.75266 26.69462
000180 bb 1e e9 41 f3 09 fa 40 7b ad a2 42 d2 85 11 40
       29.140005 7.8137145 81.33883 2.2737927

exp_avg f4 [50]
000000 ca a0 39 3f d6 49 39 c1 ab 2f a6 42 d6 e2 62 42
       0.7251097 -11.580526 83.0931 56.72152
000010 2e 0b 12 43 f1 b1 0d 40 ef 73 92 c1 9e 5c f3 41
       146.04367 2.2139857 -18.306608 30.420223
000020 91 32 3c 42 0f 4c ed c1 d2 55 d4 41 1a 67 4d c2
       47.04938 -29.662138 26.541904 -51.350685
000030 17 53 84 c1 39 42 1d c3 c4 17 01 c2 77 b2 39 42
       -16.540571 -157.25868 -32.27321 46.424282
000040 e5 cf ed c1 43 ed 67 c2 7d 45 f7 bf 9d 64 1e 42
       -29.726511 -57.9817 -1.9318081 39.598255
000050 76 66 97 c3 09 89 c3 41 ca 91 14 42 ed 40 c5 41
       -302.80048 24.441912 37.142372 24.656702
000060 ea 9b ad c2 45 c2 89 c2 60 e6 1e c2 a2 3a 93 c1
       -86.80452 -68.87943 -39.724976 -18.40363
000070 f6 90 00 42 1f 81 41 42 ed f8 1e c2 6e 89 81 c1
       32.141563 48.376095 -39.74309 -16.192104
000080 cd 43 6f c2 71 10 de c1 51 4e 09 43 87 79 79 42
       -59.81621 -27.758028 137.30592 62.36868
000090 66 b6 9c c2 f5 65 bf c2 e4 d9 fb c1 c9 59 37 43
       -78.35625 -95.699135 -31.481392 183.35072
0000a0 c5 dd 25 43 1f 53 db 41 bb 3a 94 42 56 91 ed c1
       165.86629 27.415586 74.11471 -29.695965
0000b0 20 b8 b9 c2 01 c5 0f 42 72 a1 5b 43 0a ca 35 c3
       -92.85962 35.942387 219.63065 -181.78922
0000c0 bb 5b d8 41 26 36 84 c2
       27.04479 -66.10576

exp_avg_sq f4 [50]
000000 18 89 47 41 8c cd 32 42 00 89 d4 44 f3 32 03 45
       12.47097 44.70073 1700.2812 2099.1843
000010 00 a1 54 45 81 75 5e 44 d3 ad 92 43 84 f0 1c 43
       3402.0625 889.836 293.358 156.93951
000020 48 fb 2e 44 f0 45 02 43 05 8c b1 43 45 9b c7 44
       699.9263 130.2732 355.0939 1596.8522
000030 f8 eb 9c 42 a2 14 49 45 f1 fc 00 44 a9 eb 13 44
       78.46088 3217.2896 515.9522 591.6822
000040 9b 74 21 43 c3 6c af 43 23 83 5a 42 47 00 a8 43
       161.45549 350.8497 54.628063 336.00217
000050 9f 51 2c 46 ce 85 18 43 90 4b 2f 43 70 64 05 43
       11028.405 152.52267 175.29517 133.39233
000060 67 c8 64 44 73 80 2d 44 92 21 27 44 b4 82 92 43
       915.1313 694.007 668.52454 293.02112
000070 3c 9d 30 43 da 26 b5 43 05 37 db 43 be 23 a0 41
       176.6142 362.30353 438.42984 20.017452
000080 43 46 c2 43 33 d7 aa 43 5a 83 f4 44 26 3f 16 44
       388.54892 341.68124 1956.1047 600.9867
000090 d4 41 7a 44 fa 03 7c 44 95 63 00 43 71 e1 53 45
       1001.02856 1008.06213 128.38899 3390.09
0000a0 22 71 43 45 93 50 87 43 0d 6d 82 45 50 01 22 44
       3127.0708 270.6295 4173.6313 648.0205
0000b0 ac 81 86 44 54 8d 33 43 33 34 9a 45 0f 2d 90 45
       1076.0522 179.55206 4934.525 4613.6323
0000c0 d9 5c 4e 43 f2 81 10 44
       206.36269 578.0304

exp_avg f4 [50, 50]
000000 2b 71 ee 3b ec b7 02 ba 40 5f bf 3a 62 09 81 3b
       0.0072766743 -0.0004986513 0.001460053 0.003937886
000010 cf 10 96 ba fb c9 5d bb b8 4b 2e 39 5b 4f 83 ba
       -0.0011449101 -0.0033842314 0.0001662214 -0.0010018157
000020 ba aa e5 3a f0 3a ee bb ba 77 f4 ba 2b ad f0 3a
       0.0017522194 -0.0072702095 -0.0018651404 0.0018362155
000030 53 f6 30 ba 09 77 71 3a 8e ca 2e 3b 78 94 47 3b
       -0.00067505724 0.0009211158 0.0026671025 0.0030453485
000040 ca de 04 ba 19 78 20 bb f4 dd 72 3b 73 2b 36 3b
       -0.00050685985 -0.0024485646 0.0037058564 0.0027796894
000050 de 94 4d 3b 7c 44 6a bb 72 cb 3f bb b4 fb 29 bc
       0.003136925 -0.0035746386 -0.002926555 -0.010374952
000060 c4 9e 4a 3b fc 7f 95 3b 3f 10 90 3b 13 6f 99 ba
       0.0030917386 0.004562376 0.004396468 -0.0011706076
000070 8d d3 83 b7 a4 ed 10 3c 9f a6 2c bc 85 12 5d bb
       -1.5714928e-05 0.00884572 -0.010537772 -0.0033732962
000080 4b 71 fc ba 1e 91 a5 3a 34 47 c5 3a 11 bf 89 bb
       -0.0019259838 0.0012631749 0.0015051127 -0.004203685
000090 4b 06 86 bb 47 51 4f bb 39 50 c5 3b 46 70 83 3b
       -0.0040901056 -0.0031634138 0.006021526 0.004011187
0000a0 e6 52 4e 3a 84 87 9b ba eb 7d 00 3b 19 90 ca b9
       0.0007870629 -0.0011865948 0.0019606303 -0.00038635804
0000b0 fc 3c 9b b9 b6 be 8e bb db a0 e7 3a 46 6d 16 bb
       -0.0002960934 -0.0043562306 0.001767184 -0.0022953316
0000c0 36 22 c1 3a 6b 64 25 bb 8c ad ff bb 5a 54 85 3a
       0.0014734927 -0.0025236856 -0.007802671 0.0010172233
0000d0 26 73 d8 ba ce 35 b5 bb 9d 26 60 3a c0 c2 73 3b
       -0.0016513809 -0.0055300957 0.00085506757 0.0037194937
0000e0 e1 3a fe 3a 96 f9 08 3b 37 78 3f 3b b0 bb 89 3b
       0.0019396209 0.0020900718 0.002921594 0.0042032823
0000f0 54 b0 55 3b cf a1 3f ba 1c d2 3f 3b 8e 72 4e ba
       0.003260632 -0.0007310183 0.0029269522 -0.00078753463
000100 8a 9e 4b bb b2 2a 13 bb 85 d8 3d bb c4 df 5d ba
       -0.0031069838 -0.0022455868 -0.0028968167 -0.00084638246
000110 64 92 aa bb 63 cc 96 bb 1b db 11 bb 85 0d 9d 3b
       -0.0052054394 -0.0046020015 -0.0022255841 0.0047928714
000120 fb a1 0e bb 59 f0 b0 3b 82 cf 5d bb d4 1b c3 bb
       -0.0021764028 0.0053997454 -0.0033845608 -0.005954245
000130 8c 63 90 bb 57 41 7c 3b 35 a4 11 3b 49 09 ba bb
       -0.004406398 0.0038491094 0.002222312 -0.0056773764
000140 60 69 15 3c 15 d2 a6 3b e0 85 93 3b c6 eb 9c b9
       0.009119362 0.0050909617 0.004502043 -0.00029930304
000150 cc 7e 89 ba d6 69 bf 3b 30 c8 be 3a 06 7d a7 b8
       -0.0010490059 0.005841474 0.001455551 -7.986468e-05
000160 66 48 c7 bb 77 97 5b bb 11 a8 31 3b 57 80 34 3b
       -0.0060816286 -0.0033507028 0.0027108232 0.0027542317
000170 24 7b da ba 29 79 19 39 f9 9b 34 ba dc 11 c0 3b
       -0.0016668779 0.00014636353 -0.0006889697 0.005861504
000180 40 77 d7 ba 58 76 64 3b 59 20 b3 bb 29 76 18 3b
       -0.0016438738 0.0034860577 -0.0054665026 0.0023263788
000190 92 5b e4 b9 1b 99 3f bb 15 91 48 bb 16 1d 72 b9
       -0.00043555774 -0.0029235545 -0.0030604054 -0.00023089754
0001a0 31 3c cc ba 51 05 27 3a 9d b9 fa 39 be 70 1b 3a
       -0.0015581903 0.00063713366 0.00047822008 0.00059295807
0001b0 fa 5a 1c bc c0 e2 e4 3b 5e a4 95 3b be 61 a2 3a
       -0.009543175 0.0069850385 0.0045667132 0.0012388749
0001c0 63 b2 c6 3a 00 f7 33 39 4a 6d 9c bb 94 27 81 bb
       0.0015159365 0.00017162785 -0.0047737705 -0.0039414857
0001d0 2f ea 5d 3b 78 bf 6b ba 9f c4 cf 3b 81 fb a0 3b
       0.0033861508 -0.00089930696 0.0063405777 0.004912794
0001e0 e7 01 10 bb 96 04 d3 3a c7 15 05 39 1c 20 2d 3c
       -0.002197379 0.0016099389 0.00012691981 0.0105667375
0001f0 0d c8 f2 3b e5 53 04 3b 3a 59 08 bb 83 5d 0e 3b
       0.007409102 0.0020191607 -0.0020805136 0.0021723218
000200 07 37 38 bb a3 e7 13 bc a0 33 61 3a 74 f9 2c 39
       -0.002810897 -0.0090273945 0.00085907616 0.00016496127
000210 c6 f9 c2 b8 8d de 9b 38 4f 69 5b ba 57 47 3c ba
       -9.297165e-05 7.432429e-05 -0.0008369879 -0.00071822613
000220 f6 1f 54 39 56 d3 69 ba 8a 6a 80 bb 86 0f fe 39
       0.00020229802 -0.0008919736 -0.0039189504 0.0004845822
000230 71 7c 89 39 0c b7 8d 3a a2 99 cc b8 84 b9 e8 3b
       0.00026223392 0.0010811999 -9.7560944e-05 0.0071021933
000240 4c ab 11 38 27 52 5c ba d2 21 86 bb 83 57 4e 3a
       3.4730227e-05 -0.00084045756 -0.004093387 0.00078713166
000250 b1 64 83 3c 49 f2 ba 3a c3 26 3d 3c 38 32 2d 3c
       0.016039224 0.001426288 0.011544886 0.010571055
000260 a7 55 54 3c 70 4f 6a b9 87 ed 59 3c ca e7 13 3c
       0.012959874 -0.00022345572 0.01330126 0.009027431
000270 08 8d c2 bb 93 23 83 bb 8f e9 a3 3a f7 46 61 bc
       -0.0059372224 -0.0040020435 0.0012505519 -0.0137498295
000280 99 fe a5 bb 73 79 7a 3c 9c f4 26 3b 59 6e f6 3a
       -0.005065751 0.015287745 0.0025475388 0.0018801197
000290 83 da 28 3c 5e 6e 6a 3c 3d ea 87 bc 56 18 9f bb
       0.0103060035 0.01430854 -0.016591186 -0.004855196
0002a0 64 ea 0c ba 38 6e 62 bc 38 48 8b 3c 5e 9c 22 bc
       -0.0005375503 -0.0138202235 0.01700221 -0.009924976
0002b0 74 4c 61 bc ab f9 bb bb 9a 3c 40 39 65 19 1f ba
       -0.013751138 -0.00573655 0.00018333123 -0.0006069153
0002c0 32 1e 78 3c cb c2 b8 bb e6 ba 33 3c 90 86 a3 3b
       0.015143918 -0.0056384555 0.010969853 0.0049904063
0002d0 96 3c 13 bc f7 57 1f 3c c2 fb 89 3a b7 d5 26 bc
       -0.008986613 0.009725562 0.00105273 -0.0101827895
0002e0 a0 26 59 bc b6 9a 0e 3c 8f 46 75 3b fc ba 52 bc
       -0.013253838 0.008703878 0.003742609 -0.012861963
0002f0 a8 9d 03 3c 06 c6 22 bc 63 9d 3b 3b 0c 75 f3 39
       0.008033194 -0.009934908 0.0028627745 0.00046435778
000300 f3 7c 15 3c d6 fc d1 bb c9 62 10 3c 82 fa f1 3a
       0.0091240285 -0.006408314 0.008812615 0.0018461498
000310 1d 8e 46 3c 3d 24 05 3b f6 8d 90 3c 13 b3 28 3c
       0.012118843 0.002031579 0.017645817 0.010296601
000320 8f ba bc 39 3b 7e c5 3a 4e 45 af b9 b3 70 21 ba
       0.0003599715 0.0015067527 -0.00033430237 -0.0006158456
000330 6f d9 0c b9 43 f1 8b 3a 69 cf 0b 3a 25 98 11 ba
       -0.00013432441 0.001067676 0.0005333336 -0.00055539823
000340 8b 61 6b 3b a0 a0 3c 3a 06 4e 9e 3a bc 67 2c 39
       0.0035916294 0.0007195566 0.0012077696 0.00016441842
000350 d7 00 9a b7 a0 92 de b9 90 6e dd b9 aa 05 46 b9
       -1.8358622e-05 -0.00042452384 -0.0004223478 -0.00018884861
000360 ac 58 62 bb f2 60 b7 b9 2b c4 0e bb fc cd 66 bb
       -0.0034537716 -0.0003497671 -0.0021784406 -0.003521799
000370 ae 85 ce 38 0d 8b 4e b9 a0 9b c8 ba 30 4a 01 3a
       9.847745e-05 -0.00019697491 -0.0015305169 0.0004932014
000380 d3 2b d8 ba f9 e1 13 bb 1b 23 82 39 35 cc 30 3a
       -0.0016492553 -0.002256511 0.00024821688 0.00067442964
000390 0f c6 25 3b 82 95 79 b9 50 5e 12 ba 4b 5f 6a 3a
       0.0025295054 -0.00023802186 -0.00055835117 0.00089405914
0003a0 89 a9 5a 39 5c 0d 59 ba d6 4b 9c 38 e4 e5 82 3a
       0.00020853257 -0.0008279884 7.452785e-05 0.0009986726
0003b0 fc 64 09 39 a7 11 d5 ba 11 21 48 b8 63 52 6e ba
       0.00013102958 -0.0016255871 -4.771451e-05 -0.0009091256
0003c0 3f 6d ff 39 1a 46 ec 39 fe c4 98 3a d0 87 ea b9
       0.00048718785 0.00045065657 0.0011655388 -0.00044733146
0003d0 84 9b 3d 3a aa 02 2e 3a fc 85 44 3a d5 ca 00 3a
       0.00072329515 0.000663797 0.0007496772 0.0004913037
0003e0 d2 54 8f bb 08 10 ba 39 8f 8d 29 3b ea ed e2 bb
       -0.004374125 0.0003548863 0.002587173 -0.006925334
0003f0 ca 7a 3d 3a c6 6e 92 3b 56 f5 2a ba ac ad ad bb
       0.0007228075 0.0044687716 -0.0006521543 -0.0053002443

exp_avg_sq f4 [50, 50]
000000 b0 52 32 40 73 4d 83 3f 6c 2f df 3f 4d d9 0c 40
       2.7862968 1.0258011 1.7436347 2.200763
000010 92 7c 76 3f d5 46 77 3f 1e 8a 72 3f 72 d6 66 3e
       0.9628383 0.96592456 0.94742 0.22542742
000020 7a 0c 01 40 73 f7 75 40 e9 d0 63 40 9b 33 4b 3e
       2.0163865 3.843228 3.5596259 0.19843905
000030 fe 9f be 3e b7 42 70 3e cd 31 2d 40 e4 e4 f9 3f
       0.3723144 0.2346295 2.7061646 1.9522977
000040 14 1d c7 3f a8 2e a6 3e 8c 53 d0 3f 41 9e 06 40
       1.5555749 0.3245747 1.6275496 2.103409
000050 98 d3 af 3f c3 84 ed 3f 3f 01 c4 3f 9f c8 91 40
       1.3736448 1.8556141 1.531288 4.55574
000060 bf cc c6 3f 6c e0 59 40 51 db e0 3f ec 86 38 40
       1.5531234 3.4043226 1.756693 2.883235
000070 80 f1 9d 3f 13 5b 85 40 7a aa 25 40 21 12 a1 3f
       1.2339325 4.1673675 2.58853 1.2583658
000080 81 50 9b 3f 91 af 01 3f 42 a1 ca 3e d7 6d d0 3f
       1.2133943 0.5065852 0.39576155 1.628352
000090 0b 17 b7 3e 83 05 38 3f 76 64 4b 40 e7 76 33 3f
       0.35759768 0.7188341 3.1780066 0.70103306
0000a0 68 40 77 3f 5f 8d 4e 3f 22 2b 4f 3e 2c a5 f1 3f
       0.9658265 0.80684465 0.20231298 1.8878531
0000b0 9d c3 b9 3e 84 7a d3 3f f2 e0 b2 3f d1 c4 7f 3f
       0.36282054 1.6521764 1.3974898 0.99909693
0000c0 a2 96 2d 40 f0 69 8e 3e 57 c1 4e 3f ff 83 f6 3d
       2.712319 0.278152 0.80763763 0.12036895
0000d0 19 91 02 3f 6c ae 29 3f 69 2d 62 3e cd ed 17 3e
       0.5100265 0.6628177 0.22087635 0.14836808
0000e0 3a 40 a3 3e be 5e 0c 3d 94 88 78 3e 33 00 77 3f
       0.31884938 0.03427004 0.2427085 0.9648468
0000f0 af da 7b 3f e8 fb 32 3d 7b 54 a9 3d 9e 2e 86 3d
       0.9838056 0.043697268 0.082680665 0.0655186
000100 9e 1a 33 3f 09 27 0e 3f ac d5 43 3e c7 61 93 3d
       0.6996249 0.5552831 0.19124478 0.07196384
000110 ab a0 3e 3e a5 c9 b7 3e 3d 97 c7 3e 30 c4 1b 3f
       0.18615977 0.3589603 0.38982573 0.60846233
000120 1f a8 c7 3e 81 8b a8 3f 78 b1 41 3e 35 9d 77 3f
       0.38995454 1.3167573 0.18915355 0.96724254
000130 1d 8c 0f 3f 9f 86 51 3f a9 1e 04 3e 71 52 a1 3f
       0.5607317 0.8184604 0.12902321 1.2603284
000140 80 14 4a 3f 9c 2a 87 3e 2d 5e a0 3e e9 f7 68 3d
       0.7893753 0.26399696 0.3132185 0.05687705
000150 44 31 a6 3d 42 d6 b5 3e 90 d4 21 3d 6d e9 30 3e
       0.081148654 0.35515028 0.039509356 0.17276545
000160 3e 90 81 3f 3b 89 9d 3d b0 23 82 3e ea 01 79 3e
       1.0122144 0.0769219 0.25417852 0.24317136
000170 3a e2 9a 3c e5 c1 c1 3e 59 db 3a 3d e1 1a de 3e
       0.018906701 0.37843242 0.045619342 0.43379882
000180 36 6c 8f 3e 07 71 91 3e 75 31 a6 3e d5 20 eb 3c
       0.28012246 0.28406546 0.32459608 0.028702179
000190 b5 f2 34 40 58 8d c3 3f f6 6c 23 40 a0 e7 b9 3f
       2.8273137 1.527751 2.5535254 1.4523811
0001a0 80 ee d2 3f 33 7b 03 3f bc d6 6b 3f 5a ba 62 3e
       1.6479034 0.5135986 0.92124534 0.221414
0001b0 5a 88 37 40 32 ab b6 40 8a cb 95 40 7e 85 98 3e
       2.8676972 5.708398 4.681096 0.29789346
0001c0 07 97 80 3e ab a0 c7 3d 43 d6 77 40 8e fd 3a 40
       0.25115225 0.09747442 3.8724525 2.9217257
0001d0 4a 6b 81 3f 61 ad 84 3e 0a 76 0b 40 7e 76 80 3f
       1.0110867 0.25913528 2.1790795 1.0036161
0001e0 f8 80 07 40 0c 74 ee 3f cc 46 69 3f 5b 82 c6 40
       2.1172466 1.8629165 0.9112365 6.2034125
0001f0 59 cb 1c 40 ed 7b 2e 40 87 9d 0b 40 d7 50 5b 40
       2.4499114 2.7263138 2.1814897 3.426809
000200 a6 3f a5 3f 85 60 a9 40 e5 df eb 3f e5 ed 16 3f
       1.2910049 5.293032 1.8427702 0.5895675
000210 53 79 5f 3f 7c b6 2c 3f 0c c6 2f 3f e4 43 4e 3f
       0.872945 0.6746595 0.6866157 0.8057234
000220 69 62 e5 3e 9f 5c 8e 3e 85 1b 5b 40 15 d4 71 3f
       0.44801643 0.2780504 3.4235547 0.94464236
000230 9d e5 45 3f c5 76 e3 3e ca 4c 18 3e 53 b1 4e 40
       0.7730349 0.4442655 0.14873043 3.229573
000240 5a d0 f5 3e e9 2c 77 3f 82 9b 13 40 20 1e fb 3e
       0.48010522 0.965529 2.3063664 0.4904642
000250 95 84 7d 40 0a 0e 88 3e 76 70 83 40 d0 72 4d 41
       3.9612172 0.2657321 4.107478 12.84053
000260 ca 77 05 41 8e 6f 3a 3f 56 19 1a 41 59 13 cc 40
       8.341745 0.7282647 9.631186 6.377362
000270 29 86 a8 3f 91 06 a9 3f e3 c4 c3 41 67 46 88 41
       1.3165942 1.3205129 24.471136 17.034376
000280 01 8c 2a 41 14 a3 1d 40 91 2a 40 3f 73 6a c5 3e
       10.659181 2.4630785 0.7506495 0.38557777
000290 de 35 41 41 72 6a 1d 41 e9 a4 53 41 34 3b 4a 3f
       12.075651 9.838488 13.227761 0.78996587
0002a0 f5 58 a3 41 0d 91 1b 41 9c ba 03 41 47 f1 06 40
       20.418436 9.722913 8.233059 2.1084764
0002b0 46 69 cb 3f 70 36 30 41 1d f0 9c 41 d6 cc 3e 40
       1.5891502 11.01329 19.617243 2.9812522
0002c0 33 71 95 40 3c 7f dc 40 c6 37 63 41 e9 74 02 41
       4.6700683 6.8905315 14.201117 8.1535425
0002d0 0c 54 5c 3f 4b 71 53 40 cb c1 b3 3f ae da b6 40
       0.86065745 3.3037899 1.4043516 5.7141943
0002e0 06 0f a1 40 59 32 65 40 90 06 6f 40 99 6b b9 3f
       5.033084 3.581198 3.7347755 1.4485961
0002f0 5d a7 77 40 36 79 16 41 59 5a 9b 3f aa e7 c7 3e
       3.86959 9.4045925 1.2136947 0.39043933
000300 78 61 dd 3f 69 22 85 41 e2 47 66 40 5a e7 ad 3f
       1.729537 16.641802 3.5981374 1.3586228
000310 72 33 41 41 71 9b 36 3f 91 80 fb 41 7a 1f 53 40
       12.07506 0.71330935 31.437777 3.2987962
000320 a4 c6 01 3e d5 df 9a 3d 70 a8 e5 3c 0f cd 2d 3e
       0.12673432 0.07562224 0.028034419 0.16972755
000330 7a c0 d5 3c 52 91 d2 3d 6d 68 11 3d 76 c2 ae 3b
       0.026092757 0.10281624 0.03549998 0.00533324
000340 3e 79 11 3e 2a c7 75 3d 2e 72 ae 3d 11 f9 bc 3b
       0.14206406 0.06000439 0.08517872 0.0057669957
000350 8e 87 6d 3c 80 88 68 3c 8c 92 35 3d a9 b8 f8 3c
       0.014497651 0.0141927 0.04432921 0.03036149
000360 99 1a 1c 3e 41 d8 1e 3c dc 8c fc 3d 39 18 51 3e
       0.15244521 0.009695114 0.12331554 0.20419396
000370 22 1c b6 3c 62 f1 9f 3d a8 a9 e0 3d a8 d6 04 3e
       0.022230212 0.07809712 0.10969859 0.1297251
000380 c2 33 ec 3d a8 a2 81 3e c4 fc 32 3d 18 54 b3 3d
       0.115333095 0.2531941 0.043698087 0.08756274
000390 5c bc fc 3d eb 60 1c 3e 9b f3 4b 3e 06 e2 da 3d
       0.12340614 0.15271346 0.19917147 0.10687642
0003a0 f8 c0 7b 3d fe ca 09 3d a5 0b 7d 3c f4 e1 08 3e
       0.061463326 0.033640854 0.015444671 0.13367444
0003b0 e0 12 af 3c 44 b0 82 3d f7 49 1d 3e f6 ed 75 3d
       0.021371305 0.06381276 0.15360247 0.06004139
0003c0 e4 55 25 3d f8 c3 5e 3d 31 c8 6b 3c 9a 64 6c 3d
       0.040365115 0.05438611 0.014390991 0.05771313
0003d0 c1 3d 92 3c 50 fd f9 3d e9 4b 25 3d 0b 5f 9f 3d
       0.017851712 0.12206519 0.040355597 0.077818
0003e0 bd 87 45 3e 06 65 e4 3c c9 f9 4e 3f ca e4 92 3f
       0.19290061 0.027880203 0.8084989 1.1476071
0003f0 78 56 3c 3f 27 90 73 3f ec c1 20 3f c5 71 79 3f
       0.7356944 0.95141834 0.627959 0.97439224

exp_avg f4 [50]
000000 17 0f 6f 3d 25 a6 a0 3b 10 14 77 3d 8c 40 99 3e
       0.058364 0.0049026185 0.060321867 0.29932058
000010 d7 fb d6 bc e6 7d fb 3d 4d 4c 20 be a9 75 ec 3d
       -0.026243133 0.122798726 -0.15654106 0.115458794
000020 be 98 92 3b 3b 16 4d ba 56 93 95 3c c1 73 d5 3d
       0.0044737747 -0.0007823442 0.018258732 0.10422469
000030 83 d8 5b bd e6 44 e6 bd f7 22 97 be da d5 4c 3e
       -0.05367328 -0.1124361 -0.29518864 0.20003453
000040 87 bc 03 3e de a6 49 3d 78 7b bd bc 4d 2d f1 3d
       0.12864886 0.049231403 -0.023130164 0.117762186
000050 8e 5d 30 3d 24 6f cc 3d f8 b2 94 bd 2a aa c5 bd
       0.04305797 0.09982136 -0.07260698 -0.09651597
000060 71 53 6e bc 2e eb c5 3c 48 69 59 3b 2d 82 cd bc
       -0.014546261 0.024159994 0.0033174325 -0.025086487
000070 9b f4 8c bc 69 19 11 bd d8 47 3c bd 16 53 d1 bc
       -0.01720648 -0.035424624 -0.045966953 -0.025552314
000080 88 8f bb 3d af b6 0c 3c 3a 74 76 3d 9c ea c8 ba
       0.09158236 0.008588477 0.060169436 -0.0015328708
000090 42 8e a9 3d d3 3a d7 bc a3 0c 5a be 07 f2 9e bd
       0.08279087 -0.026273167 -0.21293883 -0.07761007
0000a0 4d ad ec bc 61 9d 8e bd 8e d7 63 bd 67 0d 12 be
       -0.02889123 -0.069636114 -0.05562549 -0.14262925
0000b0 a0 ad 18 3c 4c 10 a7 bc 3d 21 f6 bd 23 7b 9b 3c
       0.009318739 -0.020393513 -0.120180584 0.018979615
0000c0 6c 94 1c 3e e3 e2 a6 3d
       0.15290993 0.08148744

exp_avg_sq f4 [50]
000000 cf f6 85 43 fc 98 aa 41 d6 a1 be 42 5f ac 20 45
       267.9282 21.3247 95.316086 2570.7732
000010 4f 6c cf 40 cd 11 11 43 42 19 be 43 6b 07 af 43
       6.4819713 145.06953 380.19733 350.05795
000020 4b c7 9d 41 a8 7a f1 42 78 0e 8e 41 82 80 9b 43
       19.722311 120.73956 17.757065 311.00397
000030 c1 3f 50 43 dd 12 85 43 23 10 0c 45 09 40 8f 44
       208.24904 266.14737 2241.0085 1146.0011
000040 e2 6f 1e 44 45 6a 74 41 bd 20 3a 41 3a 41 b4 43
       633.74817 15.275945 11.632993 360.50958
000050 15 ff 79 42 b1 55 a4 43 56 9f 4f 41 fe ec b1 42
       62.499104 328.66946 12.9764 88.962875
000060 46 d9 93 42 cc ae 2d 42 d8 e6 54 42 14 01 58 42
       73.92436 43.4207 53.225433 54.001053
000070 62 50 48 42 13 9a f9 42 06 9d 93 42 c5 11 e0 41
       50.0785 124.80093 73.80669 28.008677
000080 91 f7 0d 44 00 4a 69 43 c4 fb cb 42 9a 82 c5 42
       567.8682 233.28906 101.99173 98.75508
000090 e3 9c 0d 43 a5 a4 81 41 81 88 a2 44 2b 9b 3d 43
       141.61284 16.205393 1300.2657 189.60612
0000a0 fb ce 53 42 79 33 a6 42 ab 2b 12 43 59 c9 44 44
       52.95213 83.10053 146.17058 787.14606
0000b0 18 c1 42 40 be ad 78 42 a9 a6 1f 44 85 be 96 41
       3.0430355 62.16967 638.60406 18.843027
0000c0 6c 30 87 44 c4 a2 a4 42
       1081.5132 82.3179
