weights/checkpoint/example0001_warm_adam.pth (torch, 79323 bytes, 35 tensors)

a f4 [5]
000000 cd cc 4c 3e cd cc 4c 3e cd cc 4c 3e cd cc 4c 3e
       0.2 0.2 0.2 0.2
000010 cd cc 4c 3e
       0.2

input_layer.weight f4 [50, 2]
000000 e8 b2 cf bf c9 ce 12 3f 6f 14 0b bf e9 55 5f bf
       -1.6226473 0.5734678 -0.54328054 -0.87240463
000010 c9 3e 91 bf 7f 91 7a be b9 6d a1 bf 17 43 88 3f
       -1.1347286 -0.24469565 -1.261161 1.0645474
000020 44 45 35 bf 08 f7 0a bf 2a fc 4c 3e f4 52 78 bf
       -0.70808816 -0.5428319 0.20018068 -0.97001576
000030 d0 65 3c 3f 9c b1 5b be d5 ef 8a 3e c3 1f 06 3e
       0.73592854 -0.21454471 0.27136102 0.13098054
000040 5e 69 4f bf 5a 32 cf bf 65 9f 11 40 02 7e d4 3e
       -0.8102015 -1.6187241 2.2753537 0.41502386
000050 f4 0a 04 40 e2 a3 90 bd e7 97 72 be 88 e3 6b be
       2.0631685 -0.07062508 -0.23690759 -0.23036015
000060 1f d8 bb 3e 6f 13 64 be 0e 25 67 be 19 29 5b 3e
       0.36688325 -0.22273038 -0.22572729 0.21402396
000070 93 71 cc bf a9 c6 87 be 60 d3 9d bf f1 2b b0 be
       -1.597216 -0.26518753 -1.2330132 -0.34408525
000080 71 d7 6e be 91 b2 b2 3f 3b 02 b8 be 8e b7 c5 3d
       -0.23324372 1.3960744 -0.35939202 0.09654151
000090 0b ea 16 3f ac 62 af 3f 87 35 5e bf c7 24 d7 3f
       0.5895087 1.3701987 -0.86800426 1.6808099
0000a0 22 e5 6f bf 22 a2 9e be 08 d5 94 3f 0b 86 d0 be
       -0.93709004 -0.30983073 1.1627512 -0.40727267
0000b0 87 fb 61 bf 27 d8 4f 3f 8f 01 3d 40 b8 35 7c be
       -0.88274425 0.811892 2.9532201 -0.24629867
0000c0 fb cf 40 3f c8 30 9e 3f 37 fb 02 c0 e4 38 b1 3f
       0.75317353 1.2358637 -2.046583 1.3845487
0000d0 fc 2e 90 bf bd f1 8e 3d 14 f9 ce 3f 2c 3d 76 be
       -1.1264338 0.06979702 1.6169763 -0.24046773
0000e0 a8 62 58 be f0 b3 96 bf 83 d3 2a c0 69 e1 bf 3e
       -0.21131384 -1.1773663 -2.6691597 0.37476662
0000f0 65 db c3 3f e9 47 96 bf b8 81 1f 3f 78 6b 6b bf
       1.5301329 -1.1740695 0.6230731 -0.9196086
000100 97 9f 4b 3f 52 5c ec be 25 82 a1 3e 2c 3e 05 3f
       0.7954039 -0.46164185 0.31544605 0.5204799
000110 cb fc c1 3e 63 3c d1 3e ce 65 5a 3f 95 77 83 bf
       0.37888178 0.40866384 0.8531159 -1.0270869
000120 17 43 91 be 78 73 c1 be e3 db c6 be ff ba 12 3f
       -0.28371498 -0.37783408 -0.38839635 0.57316583
000130 e7 af f3 bf f3 96 21 3f 35 0b 89 3e 60 df 4f 3f
       -1.9038056 0.63120955 0.26766363 0.8120022
000140 d4 e8 30 3f 02 07 b9 be 8a 00 11 3f ce 1d fe be
       0.6910527 -0.3613816 0.5664145 -0.49632114
000150 5e 74 db bd 98 ef 93 be be aa 94 3f ed 95 4e 3f
       -0.10715555 -0.28893733 1.1614606 0.8069752
000160 cb d9 90 be 59 bd af be 7c 2f 71 3f 02 7e 61 bf
       -0.28291163 -0.34324148 0.9421308 -0.880829
000170 5d 70 69 bf 20 69 1e bf 8d 02 21 3f 60 f1 29 bf
       -0.9118708 -0.6187916 0.6289452 -0.66383934
000180 60 35 97 3f 86 5e 0d 40 3c 5e 45 bd 98 9c 00 bf
       1.1813164 2.2088943 -0.048185572 -0.50238943

input_layer.bias f4 [50]
000000 a3 4e 96 3b ec e2 23 bd 7f c2 cc bd 3c 86 6b 3d
       0.004587011 -0.04001133 -0.09998035 0.057501063
000010 c6 ed 85 3b b6 61 ac 3c 66 75 12 3e 68 a6 0d be
       0.0040871827 0.021042686 0.14302596 -0.1383301
000020 20 6f 8c 3d b3 0d f9 3d 8d 96 fa 3c 63 e8 93 3d
       0.06857133 0.12160816 0.030589366 0.072220586
000030 6f 1f aa 3d 6e 53 da 3d 24 31 15 bc 33 42 af 3d
       0.08306777 0.10660444 -0.009105954 0.085575484
000040 40 42 e9 3d 46 52 b9 bd 6e a7 e8 bd 4e 02 98 bd
       0.11389589 -0.090488955 -0.1136006 -0.074223146
000050 03 d6 08 bd a4 e4 93 3b c2 96 d8 bd 27 6e 66 3c
       -0.033407222 0.00451334 -0.1057563 0.014064348
000060 72 a3 8a bc 3a 70 21 3d b8 92 06 3d 7b a3 b5 bd
       -0.01692364 0.03941367 0.032854766 -0.08869072
000070 ea fa e7 bc 21 df c9 bd 57 5a 41 bd 94 ce af 3d
       -0.028317887 -0.098570116 -0.047205295 0.085843235
000080 46 3d 27 be e0 26 3f 3d 25 e7 9c bb 31 57 12 3e
       -0.16331968 0.046667933 -0.0047882968 0.14291073
000090 7a 22 b2 bd 8c 46 99 3d 37 a7 09 3d f7 72 cd bc
       -0.08697982 0.07484159 0.033606734 -0.025079234
0000a0 1b d6 d7 3d da 83 60 bd 18 d3 37 bd 88 ca 6b 3d
       0.10538884 -0.054813243 -0.04487905 0.057566196
0000b0 d8 70 c6 bd 21 8a 97 bd bd 5c 26 3e e4 87 7f bd
       -0.09689492 -0.07399393 0.16246314 -0.062385455
0000c0 fd f8 cf 3c db c8 ea bd
       0.025387282 -0.114640914

input_ln.weight f4 [50]
000000 29 af 7b 3f 0e 2b 76 3f 59 31 7c 3f ae 9f 7d 3f
       0.9831415 0.96159446 0.985128 0.99071777
000010 61 04 7f 3f a8 c9 7d 3f 93 38 87 3f 21 a5 92 3f
       0.99616057 0.9913583 1.056414 1.1456643
000020 75 63 74 3f 27 77 7f 3f ba 1d 7d 3f 4f 09 84 3f
       0.9546426 0.9979119 0.98873484 1.0315341
000030 7c 47 81 3f f5 e2 86 3f b3 30 80 3f 56 ba 7d 3f
       1.009994 1.0538012 1.0014862 0.9911245
000040 34 73 68 3f 0d 78 80 3f f4 37 80 3f c2 86 80 3f
       0.90800786 1.0036637 1.0017076 1.0041125
000050 02 9a 79 3f 46 90 7e 3f 18 89 7b 3f 16 da 78 3f
       0.9750062 0.99438894 0.98256063 0.9720777
000060 3a 6a 80 3f 4b 9b 83 3f c0 ee 76 3f d6 a7 74 3f
       1.0032418 1.0281767 0.96458054 0.955686
000070 0c 8d 73 3f e5 6a 88 3f 5d 0f 7f 3f da f1 77 3f
       0.95137095 1.0657622 0.9963282 0.9685341
000080 f9 b3 86 3f 81 af 7d 3f 04 43 83 3f fc 5f 82 3f
       1.0523673 0.9909592 1.0254827 1.0185542
000090 2e df 81 3f f5 e4 78 3f 81 85 76 3f c2 66 81 3f
       1.0146234 0.9722436 0.9629746 1.0109484
0000a0 b0 a3 80 3f 95 c8 7e 3f 4e 45 7e 3f 9d 91 81 3f
       1.0049953 0.99524814 0.993245 1.0122563
0000b0 49 8d 81 3f 70 e7 7d 3f 8c 44 84 3f a5 a8 7f 3f
       1.0121242 0.9918127 1.0333419 0.99866706
0000c0 b5 92 6f 3f a6 27 86 3f
       0.9358323 1.048085

input_ln.bias f4 [50]
000000 56 d4 97 bd d2 01 80 bd 15 c8 82 3d bf ed f1 bd
       -0.07413547 -0.06250347 0.06385819 -0.118129246
000010 a1 f6 b5 bd d6 7f 8e bd cd 8c c4 3d dd da 81 bd
       -0.08884931 -0.069579765 0.09597168 -0.06340573
000020 f5 2e 98 3d 2d 03 af 3d b2 49 b8 3d b5 05 95 3d
       0.07430831 0.085455276 0.08998431 0.07276479
000030 f8 d1 87 bd 41 35 3a bd ee 81 6d bd c0 68 a4 3a
       -0.06631845 -0.045460943 -0.05798524 0.0012543425
000040 e2 9d f3 3c da 43 90 3d 8b c6 cb 3d 30 55 ca 3d
       0.02973837 0.07044192 0.099499784 0.098795295
000050 24 2c 94 3d 3e 3e 8b bc 68 b5 9b 3d 75 cd 9b 3d
       0.07234982 -0.016997453 0.0760296 0.07607547
000060 95 6f aa 3d bb 1e c7 3d f5 67 79 bb 66 0a cf bd
       0.08322064 0.09722658 -0.0038056348 -0.10109405
000070 de a4 95 3d ac 98 95 3d ae 65 91 3d 50 0c 95 bd
       0.073068365 0.073045105 0.07099472 -0.07277739
000080 5f 85 4a 3c 79 c9 97 3d 56 e0 94 bd 54 c1 ab bd
       0.0123609 0.07411475 -0.07269351 -0.08386484
000090 f3 f7 b9 bd 73 e2 c9 3d 24 a7 c9 3d 26 90 8b bd
       -0.09080496 0.09857645 0.09846333 -0.068146035
0000a0 4f 60 b3 bd 8b c2 90 bd 85 68 4e bd 22 d1 86 3d
       -0.08758604 -0.07068356 -0.050392646 0.06582858
0000b0 ff f0 9e 3d fa 16 4a bc 10 6e a1 bd 2b 9d e6 3d
       0.0776081 -0.01233458 -0.07882321 0.11260446
0000c0 b8 53 cb bd 2c 47 8f 3d
       -0.099280775 0.06995997

hidden_layers.0.weight f4 [50, 50]
000000 58 a8 06 3e a9 9e a2 3e b1 88 78 bd be ca 57 3e
       0.13150156 0.31761673 -0.060677234 0.21073434
000010 a6 95 9d bd bd 86 8e 3e 72 1c 3f 3e 67 a6 ae be
       -0.07694559 0.27837172 0.18663195 -0.3411133
000020 99 5b a8 3d d6 db cb 3e f8 ca 08 3e bc 5b a5 be
       0.08220596 0.3981616 0.13358676 -0.3229655
000030 c1 cc 70 3d 1b ee 25 3e 41 c9 0b 3e 3d 0c d6 be
       0.05878902 0.16204111 0.13650991 -0.41806212
000040 5f 04 30 3e 29 7d 20 3c 62 28 65 bc 8c 8c 0a 3e
       0.17189167 0.0097954655 -0.013986679 0.13530177
000050 20 21 1e 3e 59 18 2d be c1 d2 8f bd 1b 83 42 3e
       0.15442324 -0.16903819 -0.0702262 0.18995325
000060 97 af f8 bd 9b 7f 2d be c2 d4 b0 be f4 e7 0c 3d
       -0.12142866 -0.16943209 -0.3453732 0.034400895
000070 0e e4 bb bd 03 fc d2 3d 57 a7 4f bd 5b 6a 63 3e
       -0.09174357 0.10301974 -0.050696697 0.2220854
000080 0d 78 d7 3d 81 aa 7f be cc a6 aa bd 75 29 65 3e
       0.10520945 -0.24967386 -0.08332595 0.22379096
000090 26 d0 91 be 90 cb be 3e f7 6b 28 3e 2d 99 c0 3e
       -0.28479117 0.3726468 0.16447435 0.37616864
0000a0 39 ae 28 bd d1 8c 95 be a2 91 b9 bd bd 3a 71 be
       -0.041181777 -0.29208997 -0.090609804 -0.23557563
0000b0 ce 05 8c be ec 27 f0 3d 66 02 90 3c 7f 1a 87 bd
       -0.2734818 0.117263645 0.017579269 -0.065968506
0000c0 46 0e 4d be 78 d3 4c be cf 79 81 be 8b d7 cd 3d
       -0.20024976 -0.20002544 -0.25288245 0.10050877
0000d0 0b 47 ab 3d 86 17 af 3e b1 04 20 3e 92 4a 4f 3d
       0.0836316 0.34197634 0.1562679 0.050608225
0000e0 15 6e c1 be 87 ad d1 3e f8 78 ca be 3c 4b a0 3d
       -0.37779298 0.40952703 -0.39545417 0.0782685
0000f0 23 ea c0 be ef 67 a5 3d 84 7a 70 3e b9 2d 60 be
       -0.37678632 0.080764644 0.23484236 -0.21892442
000100 f9 26 1b bd e8 4b 22 3d 84 43 f2 3c 4b 63 32 3e
       -0.037878964 0.03962317 0.02957321 0.1742069
000110 d3 6f 7d 3e d8 21 e6 3c cf c7 55 3d 07 0d 88 3e
       0.24749689 0.02809231 0.052192505 0.2657244
000120 33 9e 81 be bf 9c 86 be 3a db d4 3d f1 fd be bd
       -0.2531601 -0.26291463 0.10393377 -0.09325779
000130 8f 17 61 bd 6f 97 ae 3e aa fc 0b be de 50 ba 3e
       -0.054954108 0.3409991 -0.13670602 0.36389822
000140 07 c5 f5 3e 37 0a 03 3e c3 64 d9 be 1b 17 c6 be
       0.48001882 0.12796865 -0.42459688 -0.38689503
000150 9b e3 c4 3d cd cc d6 bd f9 78 7a 3e ee ee cb bd
       0.09613725 -0.104882814 0.2446021 -0.099576816
000160 83 88 c9 3d 91 8c 37 3e 32 bf 05 be c1 b1 a6 bd
       0.09840491 0.17924716 -0.13061216 -0.081393726
000170 60 f6 6f 3e 4d 53 85 3e cd ed 08 be 40 aa 04 be
       0.23433828 0.26040116 -0.13371964 -0.1295557
000180 21 db 17 3e 7a e4 78 3d 08 1a c1 be a5 95 93 3e
       0.14829685 0.060764767 -0.37715173 0.28825107
000190 8d 44 3d bd 07 99 ce 3d ec ac 9a bc b8 1e b0 be
       -0.046207953 0.100877814 -0.018881284 -0.34398437
0001a0 2d a6 53 bd 11 e3 13 be d5 5e 86 3b 45 30 08 be
       -0.05167215 -0.14442088 0.0041006603 -0.13299663
0001b0 fc 40 28 3e ac 1a 7c 3e eb 43 90 be 61 7b a6 3e
       0.1643104 0.2461955 -0.28176817 0.32516006
0001c0 1a ec 5b be 7c 22 0e bf 46 30 30 3e 98 d3 51 bc
       -0.21476784 -0.5552137 0.17205915 -0.012806796
0001d0 63 b5 b4 3d bd 41 b4 3e 0c f7 03 bf 6a 45 90 3e
       0.08823659 0.35206404 -0.5154884 0.2817796
0001e0 09 b4 ae 3e 61 ae b6 3e 25 7f a2 3e 40 0c 61 bd
       0.3412173 0.35679916 0.3173763 -0.054943323
0001f0 30 46 8c 3e 05 c7 8e bd da 9e 29 bc 6b f7 c1 3c
       0.273973 -0.06971554 -0.010352815 0.023677548
000200 a4 01 1e 3e ce bf 22 3e ef 35 1d 3f 76 71 00 be
       0.15430313 0.1589348 0.6141042 -0.12543282
000210 c0 ba f2 3d 74 fc a7 bd c2 c4 04 be f6 3f f9 bd
       0.11852026 -0.082024485 -0.12965682 -0.12170403
000220 4a c0 be be 1b 12 8f 3c d9 06 d8 3d 33 39 65 be
       -0.3725608 0.017464688 0.10548181 -0.22385101
000230 f9 21 07 3c a3 93 0f 3e c7 23 13 3d db fa 00 3e
       0.008247846 0.14021163 0.03592279 0.12595694
000240 2c 98 7a be 14 09 ca 3d e8 9c 7e be f4 cd af bd
       -0.24472111 0.09865013 -0.24864542 -0.08584204
000250 bd a8 64 be ae c4 33 3e bf 1a 32 3c ea ed 35 bd
       -0.22329994 0.17555496 0.010870635 -0.044416346
000260 aa dc 76 be 62 4c ee be 52 5d 85 be e7 83 10 3e
       -0.24107614 -0.4654265 -0.2604776 0.14112817
000270 9d ff 38 3e 4f 60 d3 bc 66 e7 ca be 0f 09 19 3d
       0.18066259 -0.02580276 -0.39629668 0.037362155
000280 19 e1 2b 3e d5 42 8e 3e 6e b6 79 3e 2d 93 f2 bd
       0.16785087 0.27785364 0.24385998 -0.11844478
000290 ba ed 91 bd 11 16 6c 3e 10 76 9b bc 90 d6 13 3e
       -0.07125421 0.23055293 -0.018977195 0.14437318
0002a0 f2 9f ee bd 40 10 c7 3a 24 26 f2 bd 4f 67 e2 3c
       -0.11651601 0.0015187338 -0.11823681 0.027637152
0002b0 e2 eb 80 bd eb 05 85 be e9 12 b5 be 22 8f 84 bc
       -0.06294991 -0.25981078 -0.3536599 -0.016181532
0002c0 d8 c3 88 3d 60 c1 89 be b6 36 aa 3d b3 e4 7d 3d
       0.06677979 -0.26905346 0.083112165 0.061985683
0002d0 3e 84 af 3e 52 8b af 3e 8d 8b 1b be 05 d9 a7 3e
       0.3428058 0.3428598 -0.15189953 0.3278276
0002e0 35 fa 89 be b0 54 b5 3c 87 0f 9a 3d 10 09 74 bc
       -0.26948705 0.022135109 0.07522493 -0.014894739
0002f0 e9 52 52 3e cf da ab bd 8d 65 64 3d 37 2f 1c be
       0.2053944 -0.08391344 0.05576091 -0.15252386
000300 d7 47 cb 3d bd 9e ce bd c8 de 6b bd 29 f7 c2 bd
       0.09925812 -0.10088871 -0.057585508 -0.09519798
000310 9a 85 dd 3d a8 4b b9 3e 9e 75 12 3e 31 e8 40 3d
       0.10816498 0.36190534 0.1430268 0.047096435
000320 3c 3a 6e 3e 21 07 8d bd 6f 24 c3 be f9 66 54 be
       0.23264402 -0.06886125 -0.38113734 -0.20742406
000330 33 03 ba bd c9 96 01 3e 33 b2 6f be 12 d2 95 3e
       -0.090826415 0.12655176 -0.23407821 0.29261833
000340 39 be 2b bd 73 69 ce 3d d5 1c 98 3e a5 0f a7 3d
       -0.041929457 0.100787066 0.29709497 0.08157281
000350 30 40 1d be 7c 19 86 3e 40 12 1a be ec cc 4a 3e
       -0.15356517 0.26191318 -0.15046024 0.19804734
000360 24 cc 22 be 46 20 08 3e de 27 d8 3d d0 f8 4c be
       -0.15898186 0.13293561 0.10554479 -0.2001679
000370 05 f2 6d bc 81 45 f2 bc 71 8a ab bd 02 88 d7 3d
       -0.014523034 -0.029574158 -0.08376015 0.10523988
000380 8c c2 53 bd a3 9a 2a be 85 97 98 be 6f 84 28 be
       -0.051699206 -0.16660552 -0.298031 -0.1645677
000390 2e 28 79 bd dd dc b7 3c 4d 91 30 3d 1a b6 a6 bd
       -0.060829334 0.022444183 0.04310732 -0.08140202
0003a0 b3 e3 b6 3d f1 b0 37 3e 95 50 8e 3d 09 be 1b bd
       0.08930149 0.17938592 0.069489636 -0.03802303
0003b0 a6 ca a8 3d b6 1d 20 3e 40 41 95 be 4b 28 ab be
       0.08241777 0.15636334 -0.29151344 -0.3342918
0003c0 ff 96 82 be c9 c4 31 3d 55 bb 2d be d4 c9 f9 3d
       -0.25505826 0.04340056 -0.16965993 0.12196699
0003d0 be 55 c1 bd bd 31 38 be 26 0a 78 bc 6e 0c fc 3d
       -0.09440182 -0.17987724 -0.015139138 0.12307058
0003e0 28 d7 93 bd f2 38 40 3e 4e 54 df 3e aa 0a 6e be
       -0.07218772 0.18771723 0.43619007 -0.23246256
0003f0 3c 67 a4 3d 67 e7 3b be ca 8f ac be 2a 2a 52 be
       0.08027503 -0.18349992 -0.33703452 -0.20523897

hidden_layers.0.bias f4 [50]
000000 36 8f 35 bd 6e 6c 80 3c 9f 31 a4 3d 92 78 27 3d
       -0.04432603 0.015676703 0.08017277 0.04088647
000010 65 42 9b 3d bb 48 60 bd 69 e5 5d bd ed 1b 8c bd
       0.07581023 -0.05475686 -0.05417386 -0.06841264
000020 2a 45 a7 3d 9b 84 f5 bc cb 63 5d 3d 53 98 ba 3d
       0.08167489 -0.029970458 0.054050248 0.09111085
000030 7f 8f 94 bb 0b 0a 85 3d 4c d3 41 3d 8b 71 66 bd
       -0.0045337076 0.06496056 0.04732065 -0.056260627
000040 0d 9b 06 bd 16 07 3e 3d c8 e6 49 3d ea c2 7f bd
       -0.03286271 0.046393476 0.049292356 -0.062441744
000050 c9 3d 68 bd 02 02 3d bd 7c 16 99 bd cb 84 98 bd
       -0.056699548 -0.046144493 -0.07474992 -0.07447203
000060 cd 44 53 3d 02 33 0b bd 72 84 9b 3d 18 5e 5f 3d
       0.051579285 -0.03398419 0.07593621 0.054533094
000070 ac c2 b6 3d ce 39 8c 3d ca 9b 4a bb 8d 08 aa bd
       0.089238495 0.06846963 -0.0030915611 -0.08302412
000080 e1 38 9f bd 40 17 95 bd d1 e1 f0 3d 43 ec 74 bd
       -0.07774521 -0.07279825 0.11761821 -0.05979563
000090 49 fb a8 3d 2a c7 c1 3d 45 70 34 3d 1d f7 8e 3d
       0.08251054 0.09461816 0.04405238 0.06980727
0000a0 dd 64 4b bc 19 ec 9e bd ca f6 8f 3d 54 49 5f 3d
       -0.012414184 -0.07759876 0.07029493 0.05451329
0000b0 86 85 6b bd fe 07 b9 bd 20 56 68 3d 1e 87 95 bd
       -0.057500385 -0.090347275 0.05672276 -0.07301162
0000c0 3a cc e3 bc 6b 1b 02 bd
       -0.027807344 -0.03176443

hidden_layers.1.weight f4 [50, 50]
000000 22 57 62 bd e9 5e ca 3e 60 9e 58 be 57 01 86 3e
       -0.055258878 0.39525536 -0.21154165 0.26172897
000010 12 40 af 3d 06 9e 9b be e2 f7 d7 be 2c e5 93 3d
       0.08557142 -0.30394 -0.42181307 0.072214454
000020 27 a2 15 be 55 e2 47 3e f8 c4 3f bd 95 86 0d 3f
       -0.14612637 0.19519933 -0.046818703 0.5528348
000030 fd 28 5d 3e 57 c4 13 be 4e b9 ce 3d 2f 72 0e 3e
       0.21597667 -0.14430366 0.10093938 0.13910745
000040 19 c0 07 3e 5b 7b 91 bd 91 5c e6 be c1 03 04 3e
       0.13256873 -0.07103606 -0.44992498 0.12892057
000050 48 6f 89 3e 94 7d bc be e0 91 b7 3e a7 91 8d be
       0.26842713 -0.36814559 0.3585348 -0.27650186
000060 57 ba 1f be fa e8 ec bd 48 49 39 3e 37 d5 44 3e
       -0.15598427 -0.11567874 0.18094361 0.1922196
000070 90 1b dd 3d a7 c5 a9 bd 70 f2 74 3d d9 c2 67 be
       0.10796273 -0.08289652 0.05980152 -0.22632922
000080 d1 68 d2 be 29 58 1e bd cc ea 87 3e c1 4f cd be
       -0.41095594 -0.038658295 0.26546323 -0.4009991
000090 ec 58 2a 3d 0e 84 f9 bd 74 f1 0e 3e 6b 84 3f bb
       0.04158871 -0.121833906 0.13959295 -0.0029223214
0000a0 3e 84 05 3e 77 d8 11 bd 9f 5b 8d be 27 9d 2c bd
       0.13038728 -0.035606828 -0.27608964 -0.04214206
0000b0 df e8 22 be 9a f7 dd 3d 8a cb ba 3d ee b7 3a be
       -0.15909146 0.10838242 0.09120853 -0.18234226
0000c0 fc aa 1d be fe 1b 62 3c 4f 39 5d 3d 8a c0 be 3d
       -0.15397257 0.013800619 0.05400973 0.09314068
0000d0 ad 78 b2 be c6 b9 bf be 09 f1 fc 3e 45 cf 6a bd
       -0.34857693 -0.3744642 0.49402645 -0.057326574
0000e0 14 34 69 3e 3b ed f0 bd 1f 7f dd bd 23 c2 f3 bd
       0.22773772 -0.11763998 -0.10815262 -0.11902263
0000f0 48 b1 6c be 89 7a d5 bd 35 40 8c 3e e1 6e 75 3e
       -0.23114502 -0.10423762 0.27392736 0.23968078
000100 7c 06 69 3c e0 27 e1 bd 34 c7 1c 3d 75 f7 2c 3d
       0.014222737 -0.10993934 0.038275912 0.04222818
000110 2e 62 c6 3e 9c 3f 8f 3d ab 2f 8e 3d 08 e7 8c be
       0.3874678 0.069945544 0.06942686 -0.27520013
000120 35 2a 35 3d e2 c6 6b 3e 21 4e e5 bd 8d 4b 9e be
       0.044229705 0.23025087 -0.111965425 -0.30917016
000130 88 43 c4 bd dd dd 26 3e 4d a3 d2 3e d3 18 15 be
       -0.09583193 0.16295572 0.41140214 -0.14560251
000140 1f de 93 3e 55 53 8e 3d 73 5c 9e be 22 4d 54 be
       0.28880402 0.06949488 -0.30929908 -0.20732549
000150 9b c5 f6 be e6 21 82 3e d9 3b 8f be 7e c5 09 be
       -0.48197636 0.25416487 -0.27975348 -0.13454244
000160 a7 66 48 be e7 6a 9e 3e 04 e7 23 3e 45 ff 89 bd
       -0.19570409 0.30940935 0.16006094 -0.06738142
000170 03 a4 2b 3e d6 4e a7 be 28 9f 6e 3e d5 09 64 3e
       0.16761784 -0.32677335 0.23302901 0.22269376
000180 cc 3a 6f be 9b f0 e6 3d 6c 69 c4 3e 8a 06 fe bc
       -0.23362273 0.112763606 0.3836168 -0.031008977
000190 7a 31 60 be dd a6 35 bc f9 5c 0f 3e e5 ec 79 bd
       -0.21893874 -0.011087147 0.1400031 -0.061016936
0001a0 32 2e 7b bd 6f d3 8b bd e8 dc 2b be 2e 02 23 be
       -0.061323352 -0.06827437 -0.16783488 -0.159188
0001b0 34 c6 ab 3e 78 51 af bd ce 93 4b be 7a a5 f2 b8
       0.33549654 -0.08560461 -0.19880602 -0.00011570282
0001c0 cc 2b a3 be 48 ac cd 3e f6 d4 0d be 3e 3f 55 be
       -0.31869352 0.40170503 -0.1385077 -0.20824906
0001d0 a6 f4 ba 3c df c5 14 be 59 e4 9f bd c1 e0 ab bd
       0.022821736 -0.14528607 -0.07807226 -0.08392478
0001e0 d2 a8 7c be fa e4 70 3e df ec 93 bd dd e4 13 3f
       -0.24673775 0.23524848 -0.07222914 0.5777109
0001f0 e9 8f 4f be df 14 39 3d 19 ca f3 bd ea 81 25 be
       -0.20269741 0.04518592 -0.119037814 -0.1616284
000200 d0 39 4a 3d 49 af 8d 3e 4f 63 3c bd 5f 81 56 3e
       0.04937154 0.27672794 -0.045993146 0.20947789
000210 5d 2c 68 be f2 83 fe 3d f4 3e b6 bd e8 cd b0 bd
       -0.22673173 0.1242751 -0.08898726 -0.086330235
000220 1f 1c 01 be 59 af 99 be 5b bb 65 be 0e be 85 3e
       -0.12608384 -0.30016592 -0.22434752 0.26121563
000230 28 e2 c5 3c 6e 82 db 3c 9e c1 87 bd 47 0a 2d be
       0.024155691 0.026795592 -0.066287264 -0.16898452
000240 b5 77 7d 3b 51 bf 5d be db 50 9c 3d 6f a4 0d 3e
       0.0038676087 -0.21655013 0.076326095 0.13832258
000250 e1 d5 e2 3c 73 1a 96 3d 2e df 22 be 73 ed 0d 3e
       0.027689876 0.073292635 -0.15905449 0.13860111
000260 49 8b b8 be 6d 23 49 3e d0 ca 75 3d 2d 16 88 3c
       -0.36043766 0.1964242 0.06000787 0.016612137
000270 81 42 00 bd 09 f5 87 be 01 6e 21 3e 5c 3c 3b 3e
       -0.031313423 -0.26554134 0.1576462 0.18284744
000280 56 3c 9e 3e 4c d0 9e bd 0c 9e 90 3e 3c 84 de bd
       0.30905408 -0.07754573 0.2824558 -0.108650655
000290 e8 fb 54 3d b4 a1 97 3d 25 3d ec bc 47 c5 5d 3d
       0.05199805 0.07403889 -0.02883775 0.054143216
0002a0 be 4f 87 be af a0 b8 bd 24 fb 21 3e 2b 01 01 bd
       -0.26428026 -0.09015023 0.15818459 -0.031495254
0002b0 dc 99 11 be 7a 46 9b 3c ab 88 fd bd db da bc 3d
       -0.14218849 0.018954504 -0.12379583 0.09221431
0002c0 cc 91 3c bd b5 97 ed 3d 7c e9 6d be 7e 72 71 3d
       -0.04603748 0.116012014 -0.23233598 0.05894708
0002d0 8a c7 a5 be 6f 3d 98 3e d0 c2 45 3e 14 ca 61 3d
       -0.323788 0.2973437 0.19312596 0.055124357
0002e0 a0 de 2f 3d f5 13 91 ba c4 3e e0 3d 88 b8 a8 3c
       0.04293692 -0.001106857 0.109494716 0.020595804
0002f0 ab fb 6a bc c0 00 45 3e 69 01 b2 3d b9 2b 29 3e
       -0.014342229 0.19238567 0.08691675 0.16520585
000300 a5 59 58 be e8 88 db bc 6c 1c 7e bc ce 05 06 3f
       -0.21127947 -0.02679868 -0.015509706 0.5235261
000310 ae 72 27 be c9 ec 5d bc c6 a9 15 3d dd a5 09 be
       -0.1635234 -0.0135452235 0.03653886 -0.13442178
000320 b8 60 30 bc 1f 0c dd 3d db 8e a5 bd 5e 9c bc 3d
       -0.010765247 0.107933275 -0.08083888 0.09209512
000330 35 b4 13 be 07 d9 e4 bc 5d 0a 51 3e d9 35 e5 3d
       -0.14424212 -0.027935518 0.2041411 0.11191911
000340 5b 9e a1 3e c1 ba fd bd a5 1f 11 3e ca 04 9c 3e
       0.31566128 -0.12389136 0.14172228 0.30472404
000350 43 04 fe 3c 9f ce 9b bd cc fd 98 be b8 50 17 bc
       0.031007892 -0.07607769 -0.29881132 -0.009235553
000360 fc 64 b6 3e 2d 1d 2b be 3d 81 46 be 2a ff 2e be
       0.3562392 -0.16710348 -0.19385238 -0.17089525
000370 cf ea 2a 3d e9 48 5e be c3 7d c4 bd b2 88 8e bd
       0.041727837 -0.217075 -0.095943 -0.06959666
000380 5f 29 13 be 74 a3 95 3d c2 1f 93 3e aa cf 5d 3e
       -0.1437125 0.07306567 0.28735167 0.21661249
000390 37 93 23 3e 81 48 85 be b8 f2 d4 3d 2a 2a 7f be
       0.15974127 -0.2603188 0.103978574 -0.24918428
0003a0 09 60 f3 bd 8b 66 bb bd 85 e2 0f 3c a7 98 69 3e
       -0.118835516 -0.09150418 0.008782034 0.22812138
0003b0 75 b9 21 bd 1f 8e 86 3e a8 d7 5e 3e 54 c2 fd 3d
       -0.039483506 0.26280305 0.21761954 0.12390581
0003c0 ae 2a cc 3c 53 89 11 3d d3 bb 44 3e b1 e0 80 3d
       0.024922695 0.035531353 0.19212274 0.062928565
0003d0 01 93 8c be 7d c0 55 3e c2 86 62 3c ca 75 94 3e
       -0.27455905 0.2087421 0.013826074 0.28996116
0003e0 71 e7 b9 bc ce 99 ba bd a2 44 da bd 70 66 15 be
       -0.022693368 -0.09111367 -0.10657622 -0.14589858
0003f0 cf 33 e4 3d a3 8f 27 be b4 6e ce 3d f9 61 eb 3d
       0.11142694 -0.16363387 0.10079709 0.11493296

hidden_layers.1.bias f4 [50]
000000 51 a9 57 bc 15 12 d9 3c d1 8a 4f bd d6 c7 93 bd
       -0.013162927 0.02649788 -0.050669495 -0.0721585
000010 c4 57 46 3d dc b6 7a bb f6 e2 ae 3d 9b cf 3f bd
       0.048423544 -0.0038255965 0.08539383 -0.046828847
000020 dd 94 98 bb 9e 15 45 3d 64 b4 87 bd fe 88 5f 3d
       -0.0046564178 0.04811632 -0.06626204 0.054574005
000030 7b 64 3e bd 23 73 3f 3d 27 5a 25 3d 71 64 0e 3d
       -0.046482544 0.046740662 0.04036918 0.034763757
000040 9c 89 38 3d 84 a0 b2 3c 9b cd 27 3d 70 5f 18 3d
       0.04505311 0.021805055 0.040967565 0.03720039
000050 a3 86 86 3d 47 88 45 bd 58 63 1f bd 9b 98 69 bd
       0.06568649 -0.048225667 -0.0389131 -0.0570303
000060 bb 2d 3e bd 9b d0 4b bd 3f 54 86 bd 27 46 75 bd
       -0.04643033 -0.04975949 -0.065590374 -0.059881356
000070 85 92 3e bd 5d 13 2f bd ad 4e ff bc 41 d9 4e bd
       -0.04652645 -0.042743076 -0.031165445 -0.05050016
000080 97 bf 40 3d 29 fe 87 bc af fb 47 3d 21 bc 5b bc
       0.047057714 -0.016600685 0.04882401 -0.013411553
000090 61 9c 5f 3d 0a 57 4e bd 00 8e 80 3d 3a be b4 3d
       0.054592494 -0.050375976 0.06277084 0.08825345
0000a0 0c 94 54 3d e2 dd 52 bd 28 c5 8e 3d 45 37 68 bd
       0.051899 -0.051481135 0.06971198 -0.056693334
0000b0 6e 99 4a 3d 41 d8 a9 3c 28 d3 08 bd b0 46 34 bd
       0.04946273 0.020733 -0.0334045 -0.044012725
0000c0 9e 26 65 3d cb cb 55 3d
       0.05594503 0.052196305

hidden_lns.0.weight f4 [50]
000000 00 00 80 3f 00 00 80 3f 00 00 80 3f 00 00 80 3f
       1.0 1.0 1.0 1.0
000010 00 00 80 3f 00 00 80 3f 00 00 80 3f 00 00 80 3f
       1.0 1.0 1.0 1.0
000020 00 00 80 3f 00 00 80 3f 00 00 80 3f 00 00 80 3f
       1.0 1.0 1.0 1.0
000030 00 00 80 3f 00 00 80 3f 00 00 80 3f 00 00 80 3f
       1.0 1.0 1.0 1.0
000040 00 00 80 3f 00 00 80 3f 00 00 80 3f 00 00 80 3f
       1.0 1.0 1.0 1.0
000050 00 00 80 3f 00 00 80 3f 00 00 80 3f 00 00 80 3f
       1.0 1.0 1.0 1.0
000060 00 00 80 3f 00 00 80 3f 00 00 80 3f 00 00 80 3f
       1.0 1.0 1.0 1.0
000070 00 00 80 3f 00 00 80 3f 00 00 80 3f 00 00 80 3f
       1.0 1.0 1.0 1.0
000080 00 00 80 3f 00 00 80 3f 00 00 80 3f 00 00 80 3f
       1.0 1.0 1.0 1.0
000090 00 00 80 3f 00 00 80 3f 00 00 80 3f 00 00 80 3f
       1.0 1.0 1.0 1.0
0000a0 00 00 80 3f 00 00 80 3f 00 00 80 3f 00 00 80 3f
       1.0 1.0 1.0 1.0
0000b0 00 00 80 3f 00 00 80 3f 00 00 80 3f 00 00 80 3f
       1.0 1.0 1.0 1.0
0000c0 00 00 80 3f 00 00 80 3f
       1.0 1.0

hidden_lns.0.bias f4 [50]
000000 00 00 00 00 00 00 00 00 00 00 00 00 00 00 00 00
       0.0 0.0 0.0 0.0
000010 00 00 00 00 00 00 00 00 00 00 00 00 00 00 00 00
       0.0 0.0 0.0 0.0
000020 00 00 00 00 00 00 00 00 00 00 00 00 00 00 00 00
       0.0 0.0 0.0 0.0
000030 00 00 00 00 00 00 00 00 00 00 00 00 00 00 00 00
       0.0 0.0 0.0 0.0
000040 00 00 00 00 00 00 00 00 00 00 00 00 00 00 00 00
       0.0 0.0 0.0 0.0
000050 00 00 00 00 00 00 00 00 00 00 00 00 00 00 00 00
       0.0 0.0 0.0 0.0
000060 00 00 00 00 00 00 00 00 00 00 00 00 00 00 00 00
       0.0 0.0 0.0 0.0
000070 00 00 00 00 00 00 00 00 00 00 00 00 00 00 00 00
       0.0 0.0 0.0 0.0
000080 00 00 00 00 00 00 00 00 00 00 00 00 00 00 00 00
       0.0 0.0 0.0 0.0
000090 00 00 00 00 00 00 00 00 00 00 00 00 00 00 00 00
       0.0 0.0 0.0 0.0
0000a0 00 00 00 00 00 00 00 00 00 00 00 00 00 00 00 00
       0.0 0.0 0.0 0.0
0000b0 00 00 00 00 00 00 00 00 00 00 00 00 00 00 00 00
       0.0 0.0 0.0 0.0
0000c0 00 00 00 00 00 00 00 00
       0.0 0.0

hidden_lns.1.weight f4 [50]
000000 00 00 80 3f 00 00 80 3f 00 00 80 3f 00 00 80 3f
       1.0 1.0 1.0 1.0
000010 00 00 80 3f 00 00 80 3f 00 00 80 3f 00 00 80 3f
       1.0 1.0 1.0 1.0
000020 00 00 80 3f 00 00 80 3f 00 00 80 3f 00 00 80 3f
       1.0 1.0 1.0 1.0
000030 00 00 80 3f 00 00 80 3f 00 00 80 3f 00 00 80 3f
       1.0 1.0 1.0 1.0
000040 00 00 80 3f 00 00 80 3f 00 00 80 3f 00 00 80 3f
       1.0 1.0 1.0 1.0
000050 00 00 80 3f 00 00 80 3f 00 00 80 3f 00 00 80 3f
       1.0 1.0 1.0 1.0
000060 00 00 80 3f 00 00 80 3f 00 00 80 3f 00 00 80 3f
       1.0 1.0 1.0 1.0
000070 00 00 80 3f 00 00 80 3f 00 00 80 3f 00 00 80 3f
       1.0 1.0 1.0 1.0
000080 00 00 80 3f 00 00 80 3f 00 00 80 3f 00 00 80 3f
       1.0 1.0 1.0 1.0
000090 00 00 80 3f 00 00 80 3f 00 00 80 3f 00 00 80 3f
       1.0 1.0 1.0 1.0
0000a0 00 00 80 3f 00 00 80 3f 00 00 80 3f 00 00 80 3f
       1.0 1.0 1.0 1.0
0000b0 00 00 80 3f 00 00 80 3f 00 00 80 3f 00 00 80 3f
       1.0 1.0 1.0 1.0
0000c0 00 00 80 3f 00 00 80 3f
       1.0 1.0

hidden_lns.1.bias f4 [50]
000000 00 00 00 00 00 00 00 00 00 00 00 00 00 00 00 00
       0.0 0.0 0.0 0.0
000010 00 00 00 00 00 00 00 00 00 00 00 00 00 00 00 00
       0.0 0.0 0.0 0.0
000020 00 00 00 00 00 00 00 00 00 00 00 00 00 00 00 00
       0.0 0.0 0.0 0.0
000030 00 00 00 00 00 00 00 00 00 00 00 00 00 00 00 00
       0.0 0.0 0.0 0.0
000040 00 00 00 00 00 00 00 00 00 00 00 00 00 00 00 00
       0.0 0.0 0.0 0.0
000050 00 00 00 00 00 00 00 00 00 00 00 00 00 00 00 00
       0.0 0.0 0.0 0.0
000060 00 00 00 00 00 00 00 00 00 00 00 00 00 00 00 00
       0.0 0.0 0.0 0.0
000070 00 00 00 00 00 00 00 00 00 00 00 00 00 00 00 00
       0.0 0.0 0.0 0.0
000080 00 00 00 00 00 00 00 00 00 00 00 00 00 00 00 00
       0.0 0.0 0.0 0.0
000090 00 00 00 00 00 00 00 00 00 00 00 00 00 00 00 00
       0.0 0.0 0.0 0.0
0000a0 00 00 00 00 00 00 00 00 00 00 00 00 00 00 00 00
       0.0 0.0 0.0 0.0
0000b0 00 00 00 00 00 00 00 00 00 00 00 00 00 00 00 00
       0.0 0.0 0.0 0.0
0000c0 00 00 00 00 00 00 00 00
       0.0 0.0

output_layer.weight f4 [2, 50]
000000 f7 68 07 3e 88 be 72 be 95 19 cf ba 2b 56 a1 3d
       0.13223635 -0.23705494 -0.0015800471 0.07877763
000010 01 6a 7f be 32 8b f8 3d 20 93 4e 3e 6e da bf bd
       -0.24942781 0.121359244 0.20173311 -0.09367834
000020 31 bf a8 3d 51 f6 b2 bd c2 61 8a 3e 87 48 e1 bd
       0.08239592 -0.087383874 0.27027708 -0.110001616
000030 39 48 03 3f 0f 01 81 bc 4e eb cc bd e4 28 20 bd
       0.5128208 -0.015747575 -0.10005818 -0.039101496
000040 27 a2 d8 bd f1 0d 23 be 6c f6 1f be f1 0f af 3d
       -0.10577803 -0.15923287 -0.15621346 0.085479625
000050 87 dc c4 3b cd e2 fb 3d 2b 74 f4 3c 72 b4 e6 3d
       0.006007734 0.12299118 0.02984055 0.11264886
000060 9e 9d 98 3e 5f c5 7d bd ef ce de 3d a9 2d 44 3e
       0.29807752 -0.061955806 0.10879313 0.19158043
000070 fc c9 22 3d 9d c8 97 3e fe a1 39 be 7e 71 95 3e
       0.03974341 0.29645243 -0.18128201 0.2918815
000080 1a d2 84 be 37 73 c5 be e6 57 44 be 8e b4 60 3e
       -0.25941545 -0.38564464 -0.19174156 0.21943876
000090 1e 59 86 bd b0 42 78 3e 6e dc 4f be fb 10 5a 3e
       -0.065599665 0.2424419 -0.20298931 0.2129554
0000a0 2d a2 56 be 9f b7 41 3e e5 ad 56 3c 72 98 13 bd
       -0.20960303 0.18917702 0.013102983 -0.036034055
0000b0 d2 e7 27 be d3 15 1e 3e d9 ab fa 3d d5 8b 32 3e
       -0.16397026 0.15438013 0.122398086 0.17436154
0000c0 32 4b 32 be 34 bc f4 bc 2c fb a2 3e 2b 4c a6 3e
       -0.17411497 -0.029874898 0.31832254 0.32479987
0000d0 07 9a a1 3e 9b 1b 0f be 0a 8d 3f be 45 27 8d be
       0.31562826 -0.13975374 -0.18706146 -0.27569023
0000e0 d4 38 03 bf 43 7f 87 3e c0 bd 91 bc ca 51 82 bc
       -0.5125859 0.2646428 -0.017790675 -0.01590814
0000f0 35 cc 44 3b 87 f5 9b be 04 45 b0 3e e5 f1 44 be
       0.0030028943 -0.3046076 0.34427655 -0.192329
000100 52 f2 90 3c 9b 59 38 bc ee 2d 8f be b6 a8 06 be
       0.017693672 -0.011251832 -0.2796473 -0.13150296
000110 e9 3f bb be 33 60 0c bf 87 06 fb bd b6 05 92 3e
       -0.36572197 -0.5483429 -0.12257104 0.28519982
000120 0a 91 38 3e 88 fa 38 3e b2 c5 ad 3e 24 f1 c3 3c
       0.18024078 0.1806432 0.33939892 0.023918696
000130 48 2e 69 3d 43 e4 04 3e f2 d5 cd 3d ae c2 59 3d
       0.056928903 0.129777 0.100505725 0.053164177
000140 3d e0 cb 3e e9 46 82 3e ed 86 76 3b 5d 05 eb 3d
       0.39819518 0.25444725 0.0037617043 0.11475632
000150 37 be 37 3e 6d b3 42 be 25 5d df bd 64 10 26 bb
       0.17943655 -0.19013758 -0.10906438 -0.002533936
000160 a0 0e 63 3e 88 28 36 be 66 87 14 be 6b 85 02 3f
       0.22173548 -0.17788899 -0.14504775 0.5098483
000170 15 b3 9e bd 1e aa 04 3e 42 10 80 be 84 7a b2 be
       -0.07749001 0.1295552 -0.25012404 -0.34859097
000180 8d aa 5a bd 05 2a 2e 3d da 9d c5 be 93 c8 89 be
       -0.053385306 0.04252054 -0.38596994 -0.26910838

output_layer.bias f4 [2]
000000 39 be 2d bd c4 63 36 bd
       -0.04241774 -0.044528738

exp_avg f4 [50, 2]
000000 ed 2f 00 bc a0 df 9b 39 e1 67 fa 3c c9 4d 8d bd
       -0.007823926 0.00029730517 0.030567111 -0.06899602
000010 69 1f 9a bd 3e 8d f9 3c 77 e1 8a bd a8 8e 89 bc
       -0.07525522 0.030462857 -0.06781285 -0.016791657
000020 be d4 34 bd 41 4e 3c bd 0d 41 e6 3c 80 8f 4c bd
       -0.0441482 -0.045973066 0.02810719 -0.04994154
000030 9e 3e 8e 3d c9 a5 a1 bd bd 37 74 3c 33 e9 19 be
       0.06945537 -0.07892949 0.014905867 -0.15030365
000040 f5 7b 2b bd 0a d5 c9 bc 2b 2e 41 3d 83 16 23 3c
       -0.04186626 -0.024637718 0.04716317 0.009954098
000050 ea a2 3f 3d 97 81 68 bd 7b a2 89 bc 7a 4e 04 bd
       0.046786226 -0.05676421 -0.01680111 -0.032301404
000060 87 59 b9 3d ed b5 32 3b ed 7d f9 bd 44 24 f5 3d
       0.09050279 0.002726908 -0.121822216 0.11969808
000070 15 74 4b 3b f0 e1 39 3b 4e 45 83 bd d6 1d b5 3c
       0.0031044532 0.002836343 -0.06409703 0.022108953
000080 25 32 a9 bc cb e3 b8 3d a8 e8 a9 bd 11 df ab bc
       -0.020653794 0.09027823 -0.08296329 -0.02098039
000090 99 17 b8 bd 4f 5e f8 3d 18 72 5e ba 24 e7 60 3d
       -0.08988876 0.12127363 -0.0008485629 0.054907933
0000a0 0c ee 0a bd fc 9e 01 3d 55 42 1c bd 09 21 b3 3b
       -0.033918425 0.03164576 -0.038149197 0.0054665846
0000b0 45 28 ea bd 82 f1 0f 3c a9 8d 1e 3d df f0 37 3d
       -0.11433462 0.008785607 0.038709316 0.044907447
0000c0 6b 9e c1 bc 04 f4 40 3d aa 1d 33 bb cf 7d e0 3c
       -0.02363511 0.04710771 -0.0027330914 0.02740374
0000d0 af d0 60 bc 91 ec 88 3d 22 4b 5e 3d ca ab 89 bc
       -0.013721629 0.066857465 0.05427087 -0.016805548
0000e0 a2 f1 b6 3c 71 44 ab bd 7e c9 44 bc df b0 7f 3d
       0.022332016 -0.083626635 -0.01201093 0.062424537
0000f0 01 1e f8 3c 63 31 53 bd a2 79 78 3c 67 40 83 bd
       0.030287744 -0.05156077 0.015165718 -0.06408768
000100 f6 0c 09 3e 7d 77 9e bd 75 51 03 bd 0f 36 e6 3c
       0.1338385 -0.07737634 -0.032060105 0.028101949
000110 94 0f 44 3d 88 a4 49 bd f2 5d 0e 3d ce 75 b6 bd
       0.04786642 -0.049229175 0.034757562 -0.08909188
000120 39 16 dd 3c 57 fc 8d bc 0b 4e 8b bc 8e 1d b2 3d
       0.026988136 -0.01733224 -0.017004987 0.08697043
000130 78 ee 2c bd 91 f8 8a ba 5d 87 90 3d 04 6e 61 3d
       -0.04221961 -0.0010602643 0.070570685 0.05503656
000140 25 7d 79 3d 69 30 e4 ba ea 9b 3f 3d aa 82 eb 3c
       0.060910363 -0.0017409447 0.04677955 0.028748829
000150 b0 73 e4 3c 78 87 19 bd 03 b0 05 3d 1a 45 2f 3d
       0.027887195 -0.03748271 0.03263856 0.04279051
000160 a6 ac 3b bd 8e e0 aa 3b f8 bd 91 3d a7 06 ae bc
       -0.045818947 0.0052147573 0.07116312 -0.021243406
000170 c1 79 dd bd 1e 4d e5 3c b9 61 bc 3c b3 52 d0 3c
       -0.10814238 0.027990874 0.022995817 0.025430059
000180 e3 17 1e 3d a0 36 5c 3d a4 70 3a 3c 07 3d 40 bd
       0.038597 0.053763032 0.011379395 -0.0469332

exp_avg_sq f4 [50, 2]
000000 a4 5e 1a 3c e8 82 92 3d e5 0b 58 3d 36 53 56 3d
       0.009421978 0.07153875 0.05274572 0.05232545
000010 82 db 89 3d 33 a5 8c 3e 35 38 4c 3c f1 3a 88 3e
       0.06731321 0.27469787 0.012464573 0.2660747
000020 9f ee 1d 3e 96 62 ed 3e ba 24 6b 3f 96 bb c1 3e
       0.15423058 0.46364278 0.91852915 0.3783843
000030 44 2b c4 3b 96 0d 5a 3e cb 95 01 3d 3f 2d be 3d
       0.005986603 0.21294245 0.031636994 0.09285974
000040 94 85 ed 3d 17 fb 72 3d 7b 21 3c 3d 9e 76 c9 3d
       0.11597744 0.05932149 0.045930367 0.098370776
000050 f1 de 71 3c e5 3e 1c 3e 55 e6 6e 3f d3 5d f7 3f
       0.014762626 0.15258367 0.9332021 1.9325508
000060 8b 1f 75 3e c8 00 d1 3d 05 5e d8 3e 9e ce f4 3e
       0.23937814 0.10205227 0.4225923 0.47813886
000070 9a 58 bb 3d 4c 20 ee 3e 10 24 8f 3d b9 2a c9 3c
       0.09147759 0.46509016 0.069893 0.024556505
000080 21 6d a2 3a d6 89 6e 3c 1b cb 48 3e 8a e9 bd 3c
       0.0012392142 0.01455923 0.19608729 0.02318265
000090 1d 9e ae 3d b0 76 14 3d 34 64 48 3d 24 8e 4f 3d
       0.085262515 0.036246 0.048923686 0.050672665
0000a0 1c e0 b8 3c f1 0f 4c 3f 6b 0c 14 3c 75 3b 3c 3d
       0.022567801 0.79711825 0.009036164 0.04595514
0000b0 96 9b 1b 3e 87 75 75 3d 07 91 92 3a 7f 04 49 3d
       0.1519607 0.059926536 0.0011182138 0.049076553
0000c0 15 9c 59 3e a3 f5 bd 3d 31 aa 5c 3b 5a b8 ea 3d
       0.21250947 0.09275367 0.0033670778 0.114609435
0000d0 95 08 1e 3d e9 3e d7 3d a4 37 69 3b 9c c3 0e 3e
       0.038582403 0.10510046 0.0035586143 0.13941807
0000e0 d3 38 9a 3e aa 18 ed 3c fe d9 0c 3c e2 77 43 3b
       0.30121478 0.028942425 0.008596895 0.0029826094
0000f0 80 54 10 3e 36 be 2e 3e 73 a1 90 3d 01 5d 17 3d
       0.14094734 0.17064747 0.07062044 0.03695393
000100 64 2a ad 3c 1d 80 55 3c 76 3d 24 3f 0a f3 1e 3f
       0.021138377 0.013031033 0.6415628 0.620896
000110 8b 36 a4 3e 56 d5 02 3f a9 7a b0 3d c5 20 27 3d
       0.32072863 0.51106775 0.086171456 0.040802736
000120 c8 23 52 3e 18 5a be 3e f1 dc f7 3d cb d7 8f 3d
       0.20521462 0.3717811 0.12102688 0.07023581
000130 49 11 e2 3c 34 9a 03 3d 14 71 8a 3d 41 4e 83 3e
       0.027596133 0.03212948 0.06759849 0.2564564
000140 29 12 cc 3c 05 bc e7 3c 41 39 5c 3e e5 55 14 3e
       0.024911003 0.028287897 0.21506216 0.14485891
000150 23 9b 51 3f 75 78 41 40 95 a1 ac 3d 18 08 ec 3d
       0.81877345 3.022977 0.08429257 0.11524981
000160 33 25 ba 3d 6f a5 b2 3d e7 df c2 3c 12 f4 13 3d
       0.090891264 0.0872296 0.023788406 0.036121435
000170 29 1a 98 3c 56 52 d7 3c c5 81 34 3d ac 09 8d 3e
       0.018567162 0.026284378 0.04406907 0.27546442
000180 b5 bf fd 3c 16 ab 4c 3d 1d f1 0b 3e f1 07 bc 3d
       0.030975202 0.049967848 0.13666196 0.09181202

exp_avg f4 [50]
000000 cc 4d 3b 3e 5c e6 79 3e 09 d3 30 3f 06 95 43 bf
       0.18291396 0.24404281 0.69072014 -0.76399267
000010 ed da 3d 3d dc ce ad be 9f f5 85 bf 1a 6b 17 40
       0.046351362 -0.33946884 -1.0465583 2.365912
000020 5b f2 93 be 8d 6a b1 be 91 38 26 be 78 1a 9a bf
       -0.2889584 -0.34651604 -0.16232516 -1.2039328
000030 af 01 59 bf f7 a4 1d c0 8e 95 af bc 74 38 2e bf
       -0.84768194 -2.4631937 -0.021433618 -0.6805489
000040 53 57 19 bf b3 1d 8d 3f 60 d4 89 3f 05 3c 05 3f
       -0.5989887 1.1024688 1.0767937 0.5204471
000050 e6 e0 e3 3e 09 ec 9b be e5 a6 8a 3f 2c 86 6b 3c
       0.4450752 -0.30453518 1.0832182 0.014375251
000060 f4 61 93 3e 6a 86 89 bd af aa af be 98 4f 9e 3e
       0.2878567 -0.067150906 -0.3430991 0.309201
000070 3d bd 44 3e 42 7f 44 3d 8f 7b 07 3f 0d 67 20 bf
       0.19212814 0.047972925 0.5292291 -0.62657243
000080 b6 71 85 3f 21 dd 28 bf e4 c4 96 be 33 9d 9b bf
       1.0425327 -0.65962416 -0.2944709 -1.2157348
000090 57 ea 84 3f c0 af 65 bf c6 7a 82 be 06 5a 3f 3e
       1.0384015 -0.897213 -0.25484294 0.18686685
0000a0 b9 14 ef be 20 4c 44 3e 47 bd 45 3f 28 52 01 bf
       -0.46695498 0.19169664 0.7724194 -0.50515985
0000b0 63 b2 8b 3f d6 3a 03 3f 51 ad a2 bf 4b 04 0f 3f
       1.0913814 0.5126165 -1.2709142 0.55865926
0000c0 eb bd bb be 46 6b c0 3f
       -0.36668333 1.5032737

exp_avg_sq f4 [50]
000000 86 3f 17 3f a2 bf 85 3f bf c5 0c 3f 37 ca 47 3f
       0.59081304 1.0449107 0.54989237 0.7804293
000010 9b fc de 3f c0 2c 79 40 b3 17 87 3f 91 30 a2 40
       1.7420839 3.8933563 1.0554107 5.0684285
000020 a9 b4 41 3f 12 0b 3c 3e 0e 54 3c 40 b6 77 91 40
       0.7566629 0.18363598 2.9426303 4.545863
000030 dd f6 d9 3f f5 4d 94 41 1c 41 50 3f 16 b7 19 40
       1.7028462 18.538065 0.8134935 2.4017997
000040 29 b4 b0 3e 31 0c 93 3f 56 8c b6 3f fd 3c e2 3e
       0.3451245 1.1488096 1.4261577 0.44187155
000050 a6 69 87 3f 04 9c 23 3e 59 30 1d 40 d0 d5 8e 3e
       1.0579116 0.15977484 2.456076 0.278975
000060 3d 3a 57 3f d7 a8 80 3e be ff 4e 3f 7e 13 83 3e
       0.8407324 0.25128815 0.8085898 0.2560081
000070 ad f0 9d 3f 98 e7 d1 3c f5 7c bc 3e e7 f7 10 3f
       1.2339073 0.025623128 0.36814085 0.5662827
000080 49 35 4e 3f 90 14 cd 3f 16 a1 84 3f d5 0a 46 3f
       0.80550057 1.60219 1.036166 0.7736028
000090 fa fc 5b 40 77 35 84 40 ea c7 92 3f 30 73 b3 3f
       3.4373155 4.1315265 1.1467259 1.4019527
0000a0 b5 2e 8b 3e fd 08 74 3f b7 9f 57 41 c5 f6 46 3f
       0.27184072 0.95326215 13.476493 0.7772029
0000b0 24 d1 17 40 16 cb 16 3f 25 1f 0b 3f f6 da 13 3f
       2.37214 0.58903635 0.543444 0.5775598
0000c0 97 30 3d 3e 58 64 db 3f
       0.18475567 1.7139997

exp_avg f4 [50]
000000 b0 71 09 bb 62 ba 00 3d e4 69 14 3c c7 34 f9 3b
       -0.0020972304 0.03142775 0.009058449 0.0076051685
000010 e9 56 73 3d e9 6a 24 3d 6d da 92 bd dd ae 96 be
       0.059409056 0.04014102 -0.07170568 -0.29430285
000020 38 fb 25 3d cb 33 cd 3b ac c5 29 3d 29 88 7d bd
       0.040522784 0.0062622777 0.04144828 -0.06189743
000030 94 78 09 bd 65 a4 3d be 0c 4e 52 bc 9f 68 b0 3c
       -0.033562258 -0.18519743 -0.012835991 0.021534262
000040 48 1b 31 3d 5f 2b 87 bd c9 47 34 bd 6e 2c 13 3c
       0.043238908 -0.06600069 -0.044013772 0.008982761
000050 40 c9 06 3c 8a 98 8f bd c2 27 7c bc 77 95 b4 ba
       0.008226693 -0.070115164 -0.015390338 -0.0013777454
000060 1e 08 1f bb 99 5a 1f bc 99 10 21 3c 8f 2d e2 3c
       -0.0024266313 -0.00972619 0.009830617 0.027609615
000070 38 f7 a6 3d 15 60 82 3b 3a 80 0e 3d dd b2 12 3c
       0.08152622 0.003978739 0.034790255 0.008953777
000080 7d 18 0a bd 09 f4 05 bd bb 4b 0a bc f6 93 54 bd
       -0.03371476 -0.032703433 -0.008440907 -0.05189892
000090 f7 23 b5 bd 20 fc 2d bc 6d 6e 54 3d ed ae 27 3d
       -0.088447504 -0.010619193 0.051863123 0.040938307
0000a0 fe b3 ef bb 85 5e 1a bc 8e f2 d8 bc 8d 6e 3a 3c
       -0.007315158 -0.009421949 -0.026482847 0.011378896
0000b0 ad 8a b8 bd be 61 c8 3c 18 5a bf bd 1e ef 4b bd
       -0.09010825 0.02446067 -0.09343356 -0.049788587
0000c0 c4 6a 80 3d 6a f1 0c be
       0.06270364 -0.13763967

exp_avg_sq f4 [50]
000000 dc 39 f8 3c 3f 71 2d 3c b6 7e 3a 3d 0c 02 ef 3e
       0.030301027 0.010586082 0.045530997 0.4668125
000010 4b a2 6c 3d ef 38 25 3f 9c 13 0c 3c 66 2d bf 3c
       0.057771962 0.6454 0.008549597 0.023337077
000020 f2 ed 4b 3c 99 7a 96 3d 83 c6 c2 3d 2a f3 a9 3c
       0.012446867 0.073476024 0.09510519 0.020745832
000030 62 f6 f9 3c 3f 99 a9 3d 78 bf 56 3d cd d3 bc 3d
       0.030512992 0.082811825 0.052428693 0.09220085
000040 e8 b3 4a 3b ef 2a d7 3c 90 7d 53 3c 6e ba d5 3d
       0.0030929986 0.02626559 0.012908354 0.10435949
000050 b4 de 09 3d 38 7d 0d 3d fd f9 e3 3d 29 e2 ab 3c
       0.033659652 0.034543246 0.11131666 0.020981865
000060 c6 dd bf 3c 87 3d 8e 3c 3f 12 a6 3d af e7 fa 3b
       0.02342118 0.017363323 0.08108949 0.0076570134
000070 84 73 ee 3c db 86 18 3a 63 d9 e1 3d b4 19 89 3c
       0.029107817 0.0005818435 0.11027791 0.016735889
000080 ca 43 b3 3c 66 22 5b 3d 43 a3 b4 3c 35 5b 03 3d
       0.02188291 0.0534996 0.022050506 0.032069404
000090 27 9f 96 3c e9 fb b8 3d 6f c2 c2 3c 6c f6 b1 3d
       0.018386437 0.09032423 0.023774354 0.08689579
0000a0 ca d4 ad 3c 36 7e 33 3e 27 02 54 3e bb 58 86 3b
       0.02121963 0.17528614 0.20703946 0.004099933
0000b0 f1 42 e7 3c 63 e2 4d 3c d9 00 b5 3c 84 aa 23 3e
       0.028230162 0.012566182 0.02209513 0.15983015
0000c0 3e 06 0b 3c fa 31 d1 3c
       0.008485375 0.025536526

exp_avg f4 [50]
000000 38 97 ce 3c 88 ae 36 bd 21 1c e4 bd ce 95 2c 3f
       0.025218591 -0.04460004 -0.11138178 0.67416084
000010 e7 e8 51 3e 6b e9 2a 3f 10 32 db 3c 8e 1f 22 bf
       0.20499001 0.6676242 0.02675727 -0.633294
000020 ba 87 1c be e0 1d 11 be e6 99 fd bd 5b c6 39 bf
       -0.1528615 -0.14171553 -0.123828694 -0.7256829
000030 c4 5f b7 3e b2 3d 5c 3f 42 bd e7 3d 7d 9b 3e 3d
       0.3581525 0.8603164 0.11315395 0.046535004
000040 96 0e 9a 3d 15 a0 2a bf e8 3b ac be 1f 74 bf be
       0.07522313 -0.66650516 -0.33639455 -0.3739328
000050 3a 48 07 bf 53 3a 8d bd 13 79 48 bf 79 34 dd 3c
       -0.52844584 -0.0689589 -0.78309745 0.02700256
000060 3d 82 f1 be 71 15 74 be c2 b1 c4 bc 95 99 35 3e
       -0.47169676 -0.23836304 -0.024010543 0.17734368
000070 5c e6 24 bf 43 a2 ff 3c d1 2c 11 bf 99 52 b0 3e
       -0.64414 0.031205302 -0.5670901 0.34438017
000080 57 36 11 be 30 17 24 bf 4f b8 16 3f b6 38 4c 3f
       -0.14180885 -0.6409788 0.5887498 0.79774034
000090 89 6a 42 3e f6 81 3e be b1 1e 49 be 8b 20 b7 3e
       0.18985952 -0.18604264 -0.19640614 0.35767016
0000a0 f4 85 de 3e 8b 5a dc 3e 75 b7 56 bc 84 41 50 be
       0.43461573 0.4303783 -0.013105263 -0.20337492
0000b0 64 89 ef be 21 50 f1 ba 58 8e d9 3e ed 74 3f bf
       -0.46784508 -0.0018410721 0.42491412 -0.7478779
0000c0 cf f8 bf 3e d5 b7 40 bf
       0.37494513 -0.75280505

exp_avg_sq f4 [50]
000000 31 9d 28 3d 5f 24 8c 3e dc 93 b0 3e c3 9f 1d 3f
       0.041165534 0.273715 0.34487808 0.615719
000010 b1 ef dc 3e 53 17 0f 41 bd 38 0a 3e 77 35 9e 3e
       0.4315162 8.943194 0.13498206 0.30900165
000020 07 68 7d 3e 00 b9 0d 3e 39 be b4 3e ec 46 0a 41
       0.24746715 0.13840103 0.35301378 8.642315
000030 53 5a 3f 40 06 4f 9a 3f c4 41 a1 3e bd 3c 19 3e
       2.989888 1.2055366 0.31495488 0.14964576
000040 ff 84 55 3d a7 a0 50 40 3f 66 a7 3e 10 77 d3 3d
       0.052128788 3.2598054 0.32695195 0.10325444
000050 51 85 db 3e 1f db c2 3d b4 2b e7 3f 38 5a 4e 3d
       0.4287515 0.0951445 1.8060212 0.050379008
000060 53 61 9d 3f 2b a8 5f 3e 5f 4b f8 3c d1 e4 23 3e
       1.2295326 0.21841495 0.030309377 0.16005255
000070 4a a0 e3 40 ba 11 53 3c 09 a2 0f 40 61 fd 7d 3f
       7.1133165 0.012882644 2.2442648 0.9921475
000080 48 94 c9 3c 51 79 da 40 c6 5a 85 40 8d c1 02 40
       0.024606839 6.827309 4.1673307 2.0430634
000090 11 a6 f6 3e ef 65 42 3f cd 3a a7 3e a9 c2 d5 3f
       0.48173574 0.7593679 0.3266205 1.670003
0000a0 ef 7f 4b 3e 1d ab 69 40 26 b0 06 40 c0 15 01 3f
       0.19873022 3.651069 2.1045012 0.5042381
0000b0 45 ce c8 3e 6b 42 f8 3d 8b bf a3 3e 9e 1b 92 3f
       0.3921987 0.12122043 0.31982073 1.1414678
0000c0 e6 cd 28 3f d2 8c 43 40
       0.65939176 3.05547
