weights/checkpoint/example0003_train_adam.pth (torch, 73855 bytes, 25 tensors)

a f4 [5]
00000000: cdcc 4c3e cdcc 4c3e cdcc 4c3e cdcc 4c3e
00000010: cdcc 4c3e
0.2 0.2 0.2 0.2 0.2

input_layer.weight f4 [50, 2]
00000000: 2cbd d3bf 95c2 143f 6a90 09bf 1747 64bf
00000010: 064f 8cbf e003 6bbe 6b73 a8bf 95da 803f
00000020: 73cf 21bf 14ee d6be 45ab 113e 8466 5fbf
00000030: 57d9 373f 3975 49be 4b14 603e 8985 ef3c
00000040: 993c 44bf 36e4 cbbf 47c2 1240 f298 d23e
00000050: d9e9 0640 46cc e9bd 93db 88be 2618 22be
00000060: 5be7 9b3e 2558 a5be a33b 7dbe cdaf af3d
00000070: c3c2 cfbf 7e06 8cbe e9d8 9bbf 8a37 75be
00000080: 9180 91be ffb5 b03f 3830 a9be 7b76 2b3e
00000090: a65a 013f 6665 af3f 2bf9 6abf 4eeb d23f
000000a0: 2aa2 75bf 6f1b 70be 0f4d 923f 9d85 c0be
000000b0: 3aab 53bf 8da9 533f 59c4 4040 e9d8 75be
000000c0: 924a 4c3f e07b 9a3f a6ee 00c0 b9ed ae3f
000000d0: a6fd 90bf 3551 fc3d 3b60 d73f 49b2 49be
000000e0: fe47 6bbe 677c a5bf ea88 26c0 7e6a e53e
000000f0: cd1f c83f d0c3 87bf eaf7 233f 105b 73bf
00000100: 7de7 5b3f 1b2f f7be 266d 713e 9cec 153f
00000110: 6ce7 c93e 0732 ab3e 980d 563f 4b32 87bf
00000120: 9849 60be f8a7 bebe a8b0 bcbe 7017 1a3f
00000130: 7439 ebbf 4875 263f 3e70 663e 731f 4f3f
00000140: 0d65 2b3f d897 a8be 4c11 053f 3ca5 e4be
00000150: c7b1 f9bc 4ada 81be cf4c 993f 5901 553f
00000160: 32eb 9dbe 4524 aebe ef84 7f3f c21a 5cbf
00000170: db8b 6cbf aba5 13bf d9f7 263f 635c 15bf
00000180: efba 983f 5f99 0a40 75d9 41bd eb41 f1be
-1.6542106 0.5810941 -0.53735983 -0.89170974 -1.0961616 -0.22950697 -1.3160223 1.0066706
-0.6320717 -0.41978514 0.1422549 -0.872658 0.7181601 -0.19673623 0.21882741 0.02923848
-0.76654965 -1.592902 2.2931077 0.41132313 2.108023 -0.11415915 -0.26730022 -0.15829524
0.30449948 -0.3229381 -0.24729781 0.08578453 -1.6231312 -0.27348703 -1.2175571 -0.23946968
-0.284184 1.3805541 -0.330446 0.16744415 0.50528944 1.3702819 -0.9178645 1.6478059
-0.9595057 -0.23447965 1.1429766 -0.3760194 -0.82683146 0.8268059 3.011984 -0.24008526
0.79801285 1.2069054 -2.014566 1.3666297 -1.1327407 0.123201765 1.6826242 -0.19696917
-0.22976682 -1.292859 -2.6021066 0.4480781 1.5634705 -1.0606632 0.6405016 -0.95060825
0.859001 -0.48278126 0.23576793 0.5856416 0.39434373 0.33436605 0.8361449 -1.0562223
-0.21903074 -0.37237525 -0.36853528 0.6019201 -1.8376908 0.65022707 0.22503754 0.8090736
0.66951066 -0.32928348 0.5197952 -0.44657314 -0.030480279 -0.25361854 1.1976565 0.8320518
-0.30843502 -0.34012046 0.99812216 -0.8597833 -0.924009 -0.57674664 0.65221936 -0.58344096
1.1932048 2.165611 -0.047326524 -0.47120604

input_layer.bias f4 [50]
00000000: 8de5 5abd 4c0c 8fbb 3404 2ebc 928e c0bc
00000010: 6038 963b b1f8 2b3d 0f40 3abc ecbd 853c
00000020: 45f8 66bd 6caa 4a3d b185 a9bd b532 19bd
00000030: e0ee 2f3b 5c42 673b f77d ae3c 6ade 1dbd
00000040: cb74 933d 0fe2 c73c a496 8cbd b866 c5bc
00000050: 9980 76bd 5333 023d e94b 993d 3b26 8b3b
00000060: e320 c4bd 33fb 593d c04c 82bd 51a4 81bd
00000070: 5b8f 03bd 7036 0c3d 1d2b 123e 167f 293d
00000080: 2169 533c 2a61 393b b4c5 adba 80db 6b3d
00000090: 93db d03c 6a37 b33d 727b 1fbd cc3d 63bc
000000a0: 5852 ad3c 5024 29bb 6e90 44bd a3b0 64bd
000000b0: 7eac 3bbc 7a73 633d 1548 f93b 6947 023c
000000c0: b26f 84bd 96ba 5039
-0.053441573 -0.0043654796 -0.010621119 -0.023505483 0.004584357 0.041985217 -0.011367812 0.016325913
-0.056389112 0.049478933 -0.08277453 -0.037401874 0.0026845261 0.0035287356 0.0213003 -0.03854219
0.07200011 0.024399785 -0.0686467 -0.024096832 -0.060181234 0.031787228 0.07485182 0.004246501
-0.09576585 0.053218078 -0.06362295 -0.06330169 -0.032119136 0.034231603 0.14274259 0.041380964
0.012903483 0.0028286674 -0.0013257773 0.05758238 0.025495326 0.08750804 -0.038936086 -0.013869714
0.021157429 -0.0025808997 -0.0479893 -0.055832516 -0.0114547 0.05553005 0.00760747 0.007951596
-0.06466617 0.00019905934

hidden_layers.0.weight f4 [50, 50]
00000000: 4139 203e 8967 ab3e 1672 8cbd dfa1 6e3e
00000010: 494a aebd b750 8e3e 92fc 443e 3680 adbe
00000020: 6c18 9c3d 32ab ca3e ac3f e93d bcaa a4be
00000030: 4e83 563d f32d 083e b513 0f3e 2c10 d9be
00000040: 3c4a 353e 4c65 8c3c 9fc5 14bc d675 113e
00000050: 7486 143e e6a8 38be de37 48bd df45 343e
00000060: 4e7c 01be 8413 23be 92b1 aebe a029 4c3c
00000070: db7e abbd fb83 ef3d 7e2e 91bd 1ce2 503e
00000080: 03f9 bb3d 21ba 8bbe e1f1 c6bd c8e7 4d3e
00000090: 7f5d 82be fba9 bd3e 66f5 3e3e 4113 b63e
000000a0: 7961 3fbd 8fff 94be 6af9 6dbd ec02 73be
000000b0: eac2 67be 8a32 c53d 8e65 403c 4640 8bbd
000000c0: 5b4f 30be 707c 39be f7cf 77be f67d 413d
000000d0: e188 b23d 6e2c b53e 9e70 1e3e 4019 ce3c
000000e0: 2f27 c4be 5783 b73e 34af d7be 5745 bb3d
000000f0: a2fa bfbe 99d5 f23d 5d47 703e f2f5 2cbe
00000100: bd58 32bd 7ff8 4c3d 2e62 5b3d 6579 323e
00000110: 567f 863e 9526 233d 6842 713d 59a9 7e3e
00000120: df53 7abe ecaa 88be 2373 133e d196 91bd
00000130: 982a 1dbd 206f a83e bc17 3fbe 7ca7 bf3e
00000140: 4e54 ee3e a5ca f63d 4d48 e4be eed5 a9be
00000150: b87b bf3d 7d7d e2bd 99eb 2e3e f7bc 8abd
00000160: 4aa1 ef3d 8820 513e 59d6 14be adb2 dcbd
00000170: 3176 fc3d 46b4 903e 759f 42be 0902 13be
00000180: 271c 183e 92f0 263d 3251 b4be 1bab 793e
00000190: b748 8abc 83e1 af3d aebf 06bc e60a 97be
000001a0: e82a 61bd bafa 45be 690c 82bc cb77 15be
000001b0: 5c34 0f3e 256d 7c3e 715c 9cbe a67f 933e
000001c0: e00f 6ebe 718e 03bf 5249 3d3e dfc6 36bb
000001d0: 7585 013e 9632 b93e 21db 01bf 8296 9a3e
000001e0: af4a af3e 03db a93e 4a01 b63e d74b abbd
000001f0: 018c 8e3e 6efb c0bc 1276 8c3b 6721 653b
00000200: 47a0 dc3d 1b88 4f3e 03e2 103f 1fef 2cbe
00000210: 4c53 b13d 6f37 82bd 6216 bbbd d7bb 25be
00000220: 1143 c8be c0d2 793d 0a80 0d3e 2051 2ebe
00000230: 031c 43bc 221f de3d 8b09 9c3c e631 ef3d
00000240: d095 96be 762c 6c3d 4d78 7dbe e863 0fbe
00000250: 306d 3dbe 19b7 c83d 4cab 903c 498b 28bd
00000260: 0831 83be 4491 dfbe 6fcc 90be 1eea e23d
00000270: 116e 523e 05b4 cebb 13f9 b3be 5a25 233d
00000280: 0282 1d3e 7528 663e fac2 673e d7f1 0ebe
00000290: c90b 95bd 5b81 5c3e 259e 21bc 55ea 163e
000002a0: bf77 1abe 6cda 483c 13df 13be a6fa 263d
000002b0: 843a 63bc 13fb 8ebe db4f c3be 9e99 5fbc
000002c0: 42c9 413d e15c 8cbe 1e20 ae3d 9a86 ac3d
000002d0: b9b0 a53e 62c5 953e 6b3e 37be 84a2 b03e
000002e0: 5ea5 6bbe 0f27 f6bc 1906 763d ad93 273c
000002f0: d7bb 533e e960 8bbd 6484 473d b31c 17be
00000300: ae59 bc3d 04d7 ebbd 81ac a8bd a18d 12be
00000310: ce5f af3d 27f1 aa3e 97d8 cf3d ab23 0b3c
00000320: a039 633e ace3 8cbd fe68 d6be 3dfe 59be
00000330: 1153 90bd cb7f 063e 6032 67be 0e6d 873e
00000340: f388 1ebd cd34 db3d a4ee 9c3e 0fba c03d
00000350: 2e9f edbd b269 963e 799c 1bbe c2a9 683e
00000360: 2eae 1fbe 6e10 b33d f911 c53d df45 4cbe
00000370: 3397 67bd 3aa0 a4bc b9db c7bd 6d21 ee3d
00000380: 70ae 5dbd 082b 2fbe 2541 97be e8f0 1ebe
00000390: 764a 83bd d76b 833b 496c 493d b0ac 8ebd
000003a0: ffeb b53d 890a 373e 5464 993d 8ec9 d9bc
000003b0: 85db 9c3d 7139 1f3e 108f 9abe 1aab acbe
000003c0: 0cdd 6fbe 4f3b 3f3d 39ed 35be 9dbd f43d
000003d0: 319e 06be 5037 35be 4f91 823c 10ab f83d
000003e0: 0aa2 99bd 479d 313e 72bc ce3e e4c9 66be
000003f0: 97fe 7c3d 1f6b 5cbe 5cfd b2be 0265 43be
0.1564684 0.3347743 -0.06857698 0.23303936 -0.085102625 0.27795956 0.19236973 -0.3388688
0.076218456 0.39583737 0.113890976 -0.3216151 0.052371316 0.13298778 0.13972361 -0.4239515
0.177041 0.017138146 -0.00908032 0.14205107 0.14504415 -0.1803318 -0.048881404 0.17604779
-0.12645075 -0.15925413 -0.3411985 0.012461096 -0.08373805 0.11695095 -0.07088946 0.20398754
0.091783546 -0.27290443 -0.097141035 0.20107949 -0.25461957 0.37043747 0.186483 0.35561565
-0.046723817 -0.29101226 -0.058099188 -0.23731583 -0.22632948 0.0962878 0.0117429625 -0.067993686
-0.17217772 -0.18113875 -0.24200426 0.047239266 0.08717514 0.3538546 0.15472648 0.025158525
-0.38311145 0.35842392 -0.42125857 0.09144085 -0.37495905 0.11857147 0.23464723 -0.16890696
-0.04354166 0.05004167 0.05356043 0.17429121 0.26269025 0.039831717 0.05890122 0.24869289
-0.24446057 -0.26692903 0.1439939 -0.07108844 -0.0383707 0.32897282 -0.18661398 0.37432468
0.46548694 0.1205037 -0.4458641 -0.33171028 0.09349769 -0.11059091 0.17082061 -0.067743234
0.11700685 0.20422566 -0.14534892 -0.10776267 0.12327231 0.28262538 -0.1900614 -0.14356245
0.1485449 0.04075677 -0.35218197 0.24381678 -0.016880376 0.08587935 -0.008224411 -0.29500502
-0.05497256 -0.19333926 -0.015875058 -0.14596479 0.13984817 0.2465101 -0.30539277 0.28808326
-0.23248243 -0.51389223 0.18485 -0.0027889533 0.12648566 0.36171407 -0.5072499 0.30192953
0.34236667 0.33174905 0.35547858 -0.08364075 0.2784119 -0.023557391 0.004286536 0.0034962536
0.10772758 0.20266764 0.56594867 -0.16888092 0.08658466 -0.06358229 -0.091351286 -0.16184936
-0.39113668 0.060992002 0.13818374 -0.17023134 -0.011908534 0.10845782 0.01904752 0.11679439
-0.29411173 0.05765959 -0.24752922 -0.14002955 -0.18498683 0.09800548 0.017659806 -0.041148458
-0.25623345 -0.43665516 -0.2828097 0.110798106 0.205498 -0.006308081 -0.35150966 0.039830543
0.15381625 0.2247637 0.22632971 -0.13959442 -0.072776385 0.2153372 -0.009864365 0.14737828
-0.15084742 0.012259107 -0.14440565 0.04076638 -0.013868932 -0.2792593 -0.38146862 -0.013647465
0.047311075 -0.2741461 0.085022196 0.08424111 0.3236139 0.29252154 -0.17894904 0.3449899
-0.23012301 -0.030047921 0.06006441 0.01022808 0.20677124 -0.068055935 0.048710242 -0.14757042
0.091967925 -0.1151562 -0.082360275 -0.1431184 0.08563195 0.3338711 0.10148733 0.008492391
0.22189951 -0.068793625 -0.41876978 -0.2128839 -0.07047094 0.13134687 -0.2257781 0.2645039
-0.038704824 0.1070343 0.30650818 0.09410488 -0.11602627 0.29377514 -0.15196408 0.22721007
-0.15593788 0.08743368 0.09622569 -0.19948529 -0.05654068 -0.020095933 -0.09758706 0.11627469
-0.054121435 -0.17106259 -0.2954189 -0.15521586 -0.06410687 0.0040106582 0.049175534 -0.06966531
0.08882903 0.17875113 0.07489839 -0.026585367 0.076590575 0.15549256 -0.30187273 -0.3372429
-0.23424166 0.04668742 -0.17766275 0.11950228 -0.13146283 -0.17696881 0.01593843 0.121420026
-0.075016096 0.17345153 0.40378147 -0.22537953 0.061766233 -0.21525238 -0.34958923 -0.190815

hidden_layers.0.bias f4 [50]
00000000: 4848 6bbc 3266 403d 1627 6cbb bc93 5cbd
00000010: ffcb 2d3d bd8c b9bd 234c 843d aed1 79bb
00000020: f527 6fbd 8bbc c8bc c6ad e2bc ae7f fcbc
00000030: d8da eb3c e3d3 6a3d c89d 213e 06e0 acbd
00000040: 8a4b 86bd 9476 bdbc 4c66 0c3c bf66 32bd
00000050: 266c 27bd f5ad 30bd 4d15 063d 609b 1b3d
00000060: 45b4 133c 7fef 6cbd 70be a6bc e955 2f3d
00000070: d8d5 b53c c5ae 2b3d 8f42 8e3c 97e4 483c
00000080: 01a0 65bd 08c4 c03c b896 bebc 4fdc 16bd
00000090: ca73 babc 50fc 84bd 5739 c83d 20a9 8cbc
000000a0: ddb4 8dbc c033 353d f00b 303c cb77 683c
000000b0: c4e8 0b3d 7513 d23c 363b ebbc f1f9 8ebc
000000c0: c254 93bd 5761 aabd
-0.014360495 0.04697246 -0.003603404 -0.053851828 0.042430874 -0.09060047 0.064598344 -0.0038119364
-0.058387715 -0.024503967 -0.027670752 -0.030822601 0.028790876 0.057330977 0.15782845 -0.084411666
-0.06557377 -0.023127832 0.008569311 -0.043555018 -0.040874623 -0.04313465 0.032735158 0.037989974
0.009015148 -0.05784559 -0.02035448 0.04280654 0.022196695 0.04191472 0.017365722 0.012261531
-0.056060795 0.023530975 -0.023265228 -0.036831196 -0.02276029 -0.06493437 0.09776562 -0.017170489
-0.017298156 0.044238806 0.010745034 0.014188717 0.03415753 0.025644043 -0.028714757 -0.017453166
-0.07193901 -0.08319347

hidden_layers.1.weight f4 [50, 50]
00000000: dbb4 cfbc ebdb ac3e 4867 58be 5e90 893e
00000010: f5ca c23d fd26 9bbe f6cb c6be 8f69 963d
00000020: 2c8b 34be 87a4 3d3e 0e73 4fbd 6560 0d3f
00000030: 8bea 423e 9363 1bbe a220 a93d 08a7 0d3e
00000040: 7aeb 123e 9d68 ffbc 2a47 ecbe 7680 ee3d
00000050: 17bd 833e 6ab3 bebe 65e5 b53e 5253 96be
00000060: 4519 37be 5760 e5bd de2e 473e da74 543e
00000070: 56e3 e93d b8a1 b4bd b663 1a3d 0065 67be
00000080: 1718 c6be 59ff 87bc b772 8b3e 5929 ccbe
00000090: 90f2 763d 66b2 96bd 9e5b ff3d bee7 0bba
000000a0: 3800 2b3e 5820 30bd 93cc 90be aae7 42bd
000000b0: f951 21be ed3f de3d 277d d73d 2ad5 61be
000000c0: f6d4 debd f31b 863c 031a c93c ec77 b83d
000000d0: 55ac b7be 561e b9be 1554 ff3e 4a1e b1bd
000000e0: 891f 883e cbf0 d9bd cc50 06be 305e 05be
000000f0: 41ff 76be 8383 cabd c364 8b3e 36c1 843e
00000100: 3cbc a93c 8f0d dcbd e3ab 0a3d b8b1 ff3c
00000110: 109d c33e 89e4 4f3d 4166 7b3d 7337 88be
00000120: f230 013d 43b2 793e 41b6 d4bd 73c8 97be
00000130: c248 e3bd 6234 383e 7b33 cd3e c5eb 1abe
00000140: 015a 963e dea9 8d3d 7b27 95be 5a1d 33be
00000150: 6a76 edbe 5a76 7d3e 7090 81be 64ee 14be
00000160: 8df6 43be 090f 9f3e b0bc 253e 75f4 98bd
00000170: 1681 293e 9b76 b7be 5254 873e cec9 663e
00000180: 5fe0 70be c603 b23d 55fa b73e c4a3 0abd
00000190: e4f0 7ebe f64c d6bc 7ef8 353e dc7c 6cbd
000001a0: d1c0 92bd 76f3 c5bd 4604 2dbe fb42 08be
000001b0: 5221 ae3e 8d58 9fbd df5e 39be d529 4a3c
000001c0: c383 a2be cfd8 e93e 5c90 20be daf9 54be
000001d0: 789e 843d f775 f6bd b63f 52bd 84dd dcbd
000001e0: 685e 86be 9c54 843e 4352 99bd 30ba 093f
000001f0: 8c1e 35be 820e 473d 8f77 d2bd 37b7 1ebe
00000200: 339a 573d abfd 9c3e d51b 0fbd 0911 3c3e
00000210: 64a1 63be 12ea 023e 4b2a 6fbd 3fe7 c4bd
00000220: fbce d1bd 74b0 79be 56f0 7bbe 90ce 853e
00000230: 33bb a53c a5ae 593c a07b 5bbd ac15 4dbe
00000240: 1672 b53c 0735 6cbe 9e7e a13d 3d6e b63d
00000250: b529 bb3c 3ed0 a73d 8b79 3fbe 9e6a 223e
00000260: b05a aebe 1e4d 423e 331f 783d 316b dd3c
00000270: 69ec 9bbd 85e6 82be 55ca 413e a6cf 3f3e
00000280: df0a a43e c856 a6bd 6531 913e d99d debd
00000290: f239 423d 361b 3a3b 6409 acbc 114b 6b3d
000002a0: 037a 65be b532 92bd c79d 173e fcf6 afbc
000002b0: 2931 11be 9383 3f3c 3c85 dbbd 213a 803d
000002c0: ac62 2cbd 7337 d93d 028e 4cbe c97e 893d
000002d0: b009 a4be 6c7b 983e 9024 173e 7266 063d
000002e0: b82c 083d 6374 88bd 9697 e83d dcc9 d63d
000002f0: 1cd8 86bb cb9b 473e 2084 c03d afb3 243e
00000300: f2b4 4abe a01e aabc 5160 69bd b77e 063f
00000310: 61df 32be d9a2 52bc e1d8 fb3c eef2 0dbe
00000320: c01b 25bd a03d 213e ebb5 eabd a7db a53d
00000330: 52c4 33be ce1d cfbc 475e 6a3e fee8 193e
00000340: 17d8 983e cc5b b1bd 1fbf d63d 2d77 a73e
00000350: ac09 863d 30cb 9ebd 49d6 8dbe cf55 cabb
00000360: 8619 ab3e 55a6 33be 8fe0 51be 4f37 38be
00000370: 9639 873c 0b19 6abe d2aa d7bd 01c4 6ebd
00000380: e191 08be f271 3d3d 7ae9 963e de66 373e
00000390: e724 443e f22f 87be 9064 bd3d ffc3 89be
000003a0: 78d9 11be 344a 00be 1514 1f3d aa11 563e
000003b0: 697a 7abd 50ef 5b3e dcc8 793e 0d04 cd3d
000003c0: e906 9d3b c950 5e3d b524 4c3e 71df 883d
000003d0: cc60 74be 907a 473e 9718 c93c 3b85 953e
000003e0: b978 8bbc ad75 90bd c7e6 09bd 92ac 43be
000003f0: 36b5 e33d 7db2 23be 3280 ea3d 349f f73d
-0.025354793 0.33761534 -0.21133149 0.26867956 0.09511367 -0.30303183 -0.38827485 0.073443525
-0.17631215 0.18519793 -0.050646834 0.5522521 0.19034784 -0.15174703 0.08258177 0.13833249
0.1434764 -0.031177813 -0.46148044 0.11645596 0.25730202 -0.37246257 0.35526577 -0.29360443
-0.17880733 -0.11200016 0.19451472 0.207477 0.11420314 -0.08819908 0.037692748 -0.22597122
-0.38690254 -0.016601251 0.27235958 -0.39875296 0.06028992 -0.073582456 0.124686465 -0.00053369615
0.16699302 -0.042999595 -0.28281078 -0.047584213 -0.15753926 0.108520366 0.10521918 -0.22053972
-0.10880463 0.01637075 0.024548536 0.09007248 -0.35873666 -0.36155957 0.49868837 -0.08648355
0.2658656 -0.10641631 -0.13116759 -0.13024211 -0.24120809 -0.09888365 0.27225313 0.25928658
0.02071964 -0.107447736 0.03385533 0.031212673 0.38205767 0.050755057 0.061376814 -0.26604804
0.03154082 0.24384408 -0.10386325 -0.29645118 -0.11097862 0.17988732 0.4007834 -0.15129001
0.29365543 0.06917165 -0.29131684 -0.17491665 -0.46379405 0.24752179 -0.2530551 -0.14544064
-0.1913702 0.31066158 0.1618526 -0.074685015 0.16553149 -0.35832676 0.2643152 0.2253792
-0.23523091 0.08692126 0.35933176 -0.033847585 -0.2489658 -0.026159745 0.17770573 -0.057736263
-0.07165683 -0.09665577 -0.16896161 -0.13306801 0.34009796 -0.077805616 -0.18102597 0.012339075
-0.3174115 0.45673224 -0.15680069 -0.20798436 0.06475538 -0.12034219 -0.05133029 -0.10784438
-0.262439 0.25845802 -0.07486393 0.53799725 -0.17687434 0.04859782 -0.1027671 -0.15499578
0.05263729 0.30662283 -0.034938652 0.18365873 -0.22229534 0.12784603 -0.058389943 -0.09614419
-0.102445565 -0.24383718 -0.246034 0.26134157 0.020230865 0.013286267 -0.053584695 -0.20027798
0.022149127 -0.23067103 0.078854784 0.08907745 0.022847036 0.08194016 -0.18698709 0.15860984
-0.34053564 0.1897473 0.06057663 0.027028652 -0.07613451 -0.25566497 0.1892484 0.18731555
0.32039544 -0.08122021 0.28357998 -0.10869951 0.047418542 0.0028397567 -0.021000572 0.057444636
-0.22409825 -0.07138578 0.14806281 -0.021480076 -0.1417891 0.011689085 -0.10718772 0.06261087
-0.04208629 0.10606279 -0.19976047 0.067136355 -0.3203864 0.29781663 0.14760041 0.032812543
0.033245772 -0.06662824 0.11357038 0.1048772 -0.0041151177 0.19493024 0.09400201 0.16084169
-0.19795588 -0.020766556 -0.05697662 0.525371 -0.17468025 -0.012856209 0.030743064 -0.13862202
-0.040309668 0.15746164 -0.11460479 0.08098536 -0.17555359 -0.025282767 0.22887526 0.15030286
0.29852363 -0.08660087 0.10485672 0.3270811 0.065448135 -0.07753599 -0.2770255 -0.00617478
0.3341791 -0.1754392 -0.20495819 -0.17989849 0.016506951 -0.22861116 -0.10530628 -0.058292393
-0.13336898 0.046251245 0.29475003 0.17910334 0.19154702 -0.26403767 0.092476964 -0.26907346
-0.14243114 -0.12528306 0.03883751 0.20905176 -0.061151896 0.21478009 0.24393028 0.10010538
0.0047920835 0.05427626 0.19935878 0.06683243 -0.2386505 0.19480348 0.024547858 0.2920321
-0.017025338 -0.07053695 -0.033667352 -0.19108799 0.111185476 -0.15986057 0.114502326 0.120909125

hidden_layers.1.bias f4 [50]
00000000: c2f2 13bd 79e0 a43d b20d 223d f675 1abd
00000010: 66e5 923c d936 8cbd a9a5 8fbd 0f55 2d3d
00000020: cf2a 2abd a8f0 353d 84b0 823c fa56 5f3d
00000030: 2119 a1bd c22c 6c3c f252 7e3d 4cf2 273d
00000040: 826f 1c3d 6069 213d 38de 1f3d 19bb b8bd
00000050: 2b9e 0abd 380b 1ebd 2799 1ebd 08e4 48bc
00000060: 5996 69bd a356 013d 94b4 e4bc 206b 28bd
00000070: ea67 18bd 94b2 83bd 9165 cc3d c66f 87bd
00000080: a109 5f3d 4441 913d 5ffa 7a3d be1a 48bd
00000090: 559b 0a3d fd02 8bbb b975 9b3d 1a59 0ebd
000000a0: c178 1e3d 1f7f 113c 49d4 f9bc b5c6 443d
000000b0: b756 463d 7c6a b9bd 83f8 8abd a178 73bd
000000c0: babd 573c bfcd 253d
-0.036120184 0.08050627 0.039563842 -0.037710153 0.017931651 -0.06846399 -0.07014019 0.042317446
-0.04154473 0.04441896 0.01595331 0.054526307 -0.07866121 0.014414968 0.06209082 0.041002557
0.03819228 0.039407134 0.039030284 -0.09020061 -0.033842247 -0.038584918 -0.038720276 -0.012261398
-0.05702815 0.031576764 -0.027918138 -0.041117787 -0.037208475 -0.064305454 0.0998031 -0.06613116
0.054452542 0.070925266 0.06127393 -0.04885363 0.033839542 -0.0042422996 0.07590813 -0.034752943
0.03868938 0.008880406 -0.030496733 0.048041064 0.04842254 -0.090535134 -0.06785681 -0.059441213
0.013167793 0.040479418

output_layer.weight f4 [2, 50]
00000000: b3d5 243d ea9b 44be 73fb f03b 2c03 fd3d
00000010: 3abc 85be 85bc e13d 0a59 203e 48ec 7bbd
00000020: 28e0 7f3d 7282 9dbd 5827 443e 3980 eabd
00000030: d3bb 093f 4a09 02bd db53 97bd e7f1 95bc
00000040: 79bb 9dbd 5b14 28be 4925 33be 336c 823d
00000050: 19cb b3bb 5468 e23d dd50 363d fc1b 833d
00000060: 1a47 733e 37d5 5abd 2a3d ba3d dbb8 0f3e
00000070: eb88 623c a193 ac3e 2334 71be fa40 663e
00000080: 2f17 55be f1ac e6be 72ff 2cbe 548f 383e
00000090: be69 56bd 8525 673e 3729 4dbe 9034 823e
000000a0: acd3 27be 3a99 273e 61e2 003d 89e8 3dbd
000000b0: e8ab 4cbe 9425 ff3d c7fb 0b3e fb4e 083e
000000c0: 383a e1bd 0dfe 893d b883 913e 8c2b 963e
000000d0: 26fc aa3e eae5 2fbe d642 2dbe abb7 acbd
000000e0: dfb4 e3be 8a1a 4e3e 1a52 2f3d 3edc 11bd
000000f0: 1b12 99bc 0b7e 69be 0e9a c03e e2d9 48be
00000100: 04bb 143d 468f 8a3c 89f5 9ebe b392 0bbe
00000110: b69a 9cbe 034b d9be cead 3dbc dbb7 583e
00000120: 73b5 8f3e d1b3 fa3d 6c9a bf3e d553 0d3d
00000130: 9258 c23d 5688 ac3d a72a fb3c 89c8 4abd
00000140: 85d1 a33e 9be8 943e 5a53 2abc 3551 f13c
00000150: 7a99 2f3e 7d13 92bd 2b44 6cbd 5e33 b03c
00000160: 702a 323e 9769 14be 7eee dcbc ba1c 063f
00000170: 089e 19be bc12 af3d ac0a 28be d179 9abe
00000180: 60e0 5c3d 8b75 c53d ec2f 9fbe 4e20 8cbe
0.040242862 -0.19200101 0.007354194 0.123541206 -0.26120168 0.11022285 0.15658966 -0.061504632
0.06246963 -0.07690896 0.19155633 -0.11450238 0.5380222 -0.03174714 -0.07389041 -0.018303825
-0.07701773 -0.16414015 -0.17494692 0.063682936 -0.0054868576 0.11055055 0.04451071 0.06401822
0.23757592 -0.053425994 0.09093697 0.1403536 0.013826589 0.33706382 -0.23555045 0.22485724
-0.20809625 -0.4505382 -0.1689432 0.18023425 -0.052346937 0.22572906 -0.20035253 0.25430727
-0.1638934 0.16367045 0.03146589 -0.04636434 -0.19987452 0.12458339 0.13670264 0.13311379
-0.109974325 0.067379095 0.28420806 0.293301 0.333955 -0.17177549 -0.16920027 -0.084334694
-0.4447393 0.20127311 0.042802908 -0.03561043 -0.018685391 -0.22801988 0.37617534 -0.19614366
0.036311164 0.016914021 -0.31046703 -0.1363018 -0.30586785 -0.42440042 -0.011577083 0.21163885
0.28068122 0.122413285 0.37422502 0.034503777 0.0948955 0.084244415 0.030659987 -0.04950765
0.31995788 0.29083714 -0.010395849 0.029457668 0.1714839 -0.07132623 -0.057682198 0.021508869
0.17399001 -0.14493404 -0.02696919 0.52387583 -0.1500169 0.08548495 -0.16410321 -0.30171064
0.05392492 0.0964156 -0.3109125 -0.27368397

output_layer.bias f4 [2]
00000000: 13e0 41be d3e8 8d3d
-0.18933134 0.06929173

exp_avg f4 [50, 2]
00000000: ffbe aebe aa43 ab3e 9f05 6ebe e786 b33e
00000010: 20be c93f 0d1b 8dbf fe12 553f 20cd 6ebe
00000020: d1e5 0240 38eb b1bf f052 f1bf 23aa 433f
00000030: 4f3c a5bf 9c97 323f 56a2 f03f 6e0e b7bf
00000040: 7c47 a43e f086 3abe 9d17 9f3d 6833 96be
00000050: 5a86 4a3f 3dd2 dfbe 9184 ca3f 3ef3 a5bf
00000060: 8f54 d43f a179 81bf f005 6c3f 1849 50bf
00000070: 0f40 7dbf 2f0a 3f3f c2b6 a83f 5891 97bf
00000080: e02c 98bf fe33 173f 18d4 34be 2436 ca3e
00000090: 3c35 173f 6cf1 1abd fa08 dfbe 6d66 dd3c
000000a0: 63b6 3440 b961 40c0 06f2 01be 7796 71bd
000000b0: 5361 96bf 4afc 193f da0b f03c eb84 813c
000000c0: aaa5 d13f 63fd 34bf fb8b 56bc 0e7e 1abd
000000d0: ea4f 463f b9ab 77bf 9f5a 783f d12b e0be
000000e0: 8316 57bf 1350 d13e 23f8 4ebe aeb6 9d3e
000000f0: b0a6 44bf 2f2e cfbd 459a 943f b291 a4be
00000100: 7a90 3f3f ff8f 10bf 1a88 013f bd2a 26bf
00000110: f43b 45bf 60f9 933e 1ed5 273f 1acb d4be
00000120: 29bb efbd 4527 bcbe df0c f63e c166 4ebe
00000130: c04b 823e d948 93bd bf6c 26bf 9311 053e
00000140: fd5e 643e 4fc8 3f3f 86e6 83bf 9308 323f
00000150: d1cb bebf 4181 ab3f 29ee e83f 2e65 74bf
00000160: 7914 783e 154b 4c3c 24bf a63d 0e73 2a3e
00000170: 4d15 29bf 9c11 053f 23a6 6ebf 7464 503f
00000180: d155 80be 762e 3e3e 6713 da3e b6a0 43bf
-0.34130093 0.3345006 -0.23244332 0.3506386 1.5761147 -1.102388 0.83232105 -0.23320436
2.0452769 -1.3899908 -1.8853436 0.76431483 -1.290903 0.6976259 1.8799541 -1.4301279
0.32085788 -0.18215537 0.07768176 -0.29336095 0.79111254 -0.43715087 1.5821706 -1.2964857
1.6588305 -1.0115243 0.9219656 -0.8136153 -0.9892587 0.74624914 1.3180773 -1.184123
-1.1888695 0.5906371 -0.17659032 0.3949443 0.59065604 -0.037827894 -0.43561536 0.02702638
2.823632 -3.0059645 -0.12689981 -0.058981385 -1.1748451 0.6015059 0.029302526 0.01581045
1.6378682 -0.7069914 -0.013094897 -0.03771787 0.7746569 -0.967464 0.97013277 -0.4378343
-0.84018725 0.40881404 -0.20211844 0.30803436 -0.76816845 -0.10116231 1.1609579 -0.32142407
0.7482983 -0.5646972 0.505983 -0.64908963 -0.77044606 0.28901196 0.65559566 -0.41561204
-0.1170562 -0.3674871 0.48056695 -0.20156385 0.25448418 -0.07191629 -0.65009683 0.12994985
0.2230186 0.7491502 -1.0304725 0.69544333 -1.490595 1.339882 1.8197681 -0.9546689
0.2422656 0.012469073 0.08141926 0.16645452 -0.6604813 0.51979995 -0.93222255 0.8140328
-0.25065473 0.18572411 0.42592928 -0.764171

exp_avg_sq f4 [50, 2]
00000000: 5862 bd40 a5a6 8a3f fc31 ca40 4f1b 973f
00000010: 2da8 c141 f4da 9641 1ced 9941 1dd1 6641
00000020: 3d8b 4742 b623 0242 f16a 3542 72c1 da42
00000030: 4f4e ae41 5e34 df40 b23b e041 9c5c 5842
00000040: cee6 f340 7247 0e41 4e46 5240 2004 f941
00000050: 23ef a540 f8bb 9241 036a 8b42 4ba6 4342
00000060: 2b7c da41 2e76 d942 d4f2 2342 16f9 9041
00000070: 957d a540 09de 8a40 23bf 4941 a759 b141
00000080: 7917 cb40 0fea fc40 82c3 e040 b0a6 3942
00000090: e824 0d41 10c4 9f41 2d37 5940 6b9f b13f
000000a0: 7c8b 2743 5495 d242 ce60 3340 0f4f 9440
000000b0: 6182 7941 2342 2141 fbed ea3d d1ec 8540
000000c0: 2d95 f341 6165 3f41 24e5 f43f 5bfe bb3f
000000d0: 1728 2e41 95b6 0241 5c2b 6e40 85df 0b40
000000e0: bf41 4b41 4cce 3b42 e1e0 6f3e 0bae a93f
000000f0: 7da3 6441 cba6 1042 e616 f841 6efe 8141
00000100: ad44 de40 7f92 f540 e7ff 7b42 514d 3243
00000110: 7efb e841 8a9d 8c41 2906 8741 d66c 8940
00000120: 51ac 2340 7eea f441 a343 0e40 b523 a141
00000130: 0541 6640 d75e 4841 f7dc 1b41 3333 9d40
00000140: 2faa 4540 5c8d 1641 84bf 5641 4fa0 df42
00000150: 1219 cc42 6656 2342 8ef2 9f41 8322 fa40
00000160: 0df8 5241 c8a1 8f40 8a99 eb3f a4b4 6141
00000170: fd0f a440 8831 0340 642e dc41 774a 1c41
00000180: c075 fe40 6b22 5941 53a9 1a41 8797 5a41
5.918255 1.0832106 6.3186016 1.1805209 24.207117 18.85691 19.240776 14.426053
49.885975 32.534874 45.354435 109.37782 21.788237 6.9751425 28.029148 54.09044
7.6219244 8.892443 3.285541 31.127014 5.1854415 18.341782 69.707054 48.912395
27.310629 108.73082 40.987137 18.121624 5.17158 4.339604 12.609164 22.168776
6.3466153 7.9035716 7.0238657 46.41278 8.82151 19.970734 3.3939927 1.3876776
167.54486 105.29166 2.8027835 4.6346507 15.594331 10.078647 0.114711724 4.1851583
30.44784 11.962251 1.9132428 1.4686998 10.884788 8.169576 3.7213964 2.1855175
12.703551 46.95146 0.23425628 1.3256239 14.289914 36.162884 31.01118 16.249233
6.9458833 7.674133 62.999905 178.30202 29.122799 17.576923 16.878008 4.2945356
2.5573924 30.614498 2.2228782 20.142435 3.5977185 12.523154 9.7414465 4.9125
3.0885122 9.409512 13.421757 111.8131 102.048965 40.834373 19.993435 7.816713
13.185559 4.4884987 1.8406231 14.106602 5.1269517 2.0498981 27.522652 9.76818
7.951874 13.570903 9.666339 13.661994

exp_avg f4 [50]
00000000: 864c 52c0 2859 19c0 f776 1041 32ce e940
00000010: 1d35 4d41 b3cb 1fc1 fa51 0ac1 12b1 2e41
00000020: 5d13 2040 7518 f53f dd41 7140 b177 6d41
00000030: aec6 0541 f602 fa40 d36e 9bc0 05ba bf40
00000040: 3131 d0c0 6bf1 b53e 9501 0d40 fc4f 02c0
00000050: 6c60 b441 c960 20c0 2db4 c6c0 666f 25bf
00000060: ae30 0741 ac2e 42c0 61aa cb40 b77d a340
00000070: e726 3cc0 4ef1 e1be 1896 10c0 e2fb 0841
00000080: 2267 8740 f93e 0541 a4b1 06c1 92c5 a040
00000090: 1dc1 e6be cbb4 7e3f 703c 0540 292c 6fc0
000000a0: 2cae 07c0 336e f5c0 81de 6bc1 59f8 0e41
000000b0: 4e3f 49c0 87fd 2440 88da 8bc0 0bb9 19c1
000000c0: 6f70 fcbf cd10 8340
-3.2859206 -2.3960667 9.029044 7.3064203 12.825467 -9.987231 -8.645014 10.91823
2.5011818 1.9148089 3.769645 14.841722 8.361006 7.8128614 -4.8572783 5.9914575
-6.506005 0.3553575 2.2032216 -2.0361319 22.547081 -2.5059073 -6.209494 -0.64623106
8.449385 -3.0340986 6.364548 5.109096 -2.9398744 -0.44129413 -2.259161 8.561495
4.2313395 8.327874 -8.418369 5.0241175 -0.4506921 0.9949462 2.0818138 -3.7370703
-2.1200056 -7.669702 -14.741822 8.935632 -3.1444888 2.577974 -4.370426 -9.6076765
-1.9721812 4.095801

exp_avg_sq f4 [50]
00000000: 0678 a242 1e5f 9942 1abb 6144 db77 dc44
00000010: af26 1445 710c 0d45 daf3 1a44 d451 6f44
00000020: 8ae1 0344 c677 b243 d695 f743 b48e 2d45
00000030: 7bf6 c044 d9a5 8c44 a98e 0d44 2a41 2b44
00000040: 25fc b543 cf53 fe43 8684 9743 6eef f642
00000050: 5bb7 a745 9662 2b43 db21 ae43 7669 6142
00000060: 7252 3c44 341d 8643 b7e1 6a44 b958 ce43
00000070: d1c1 4344 52f9 1a42 1176 2444 ddf5 2644
00000080: 6491 3e43 19ed 0b45 a554 4244 6826 4d43
00000090: 9d83 0b44 374b 1e43 df30 0a43 ab9e 6243
000000a0: da14 b742 13ef b044 3a2e 9345 d11f 8c44
000000b0: 1013 8043 218b 3843 8cf5 5343 5b14 cd44
000000c0: 0d4a 6943 bef0 8643
81.23442 76.685776 902.92346 1763.7455 2370.4177 2256.7776 619.8102 957.27856
527.52405 356.93573 495.1706 2776.919 1543.7025 1125.1827 566.22906 685.0182
363.96988 508.65475 303.03534 123.467636 5366.9194 171.3851 348.2645 56.35299
753.2882 268.22815 939.5268 412.69315 783.0284 38.743477 657.8448 667.8416
190.56793 2238.8186 777.3226 205.15002 558.05646 158.29381 138.1909 226.6198
91.540726 1415.4711 4709.7783 1120.9943 256.14893 184.54347 211.95917 1640.6361
233.28926 269.8808

exp_avg f4 [50, 50]
00000000: f17e 3534 b82e 81b5 5e2a 00b5 5c53 c134
00000010: 0598 1db5 db9c 03b5 7e32 8432 f824 e034
00000020: 562d a3b5 cd55 2835 b36d aa33 3969 75b3
00000030: 8047 8f34 f395 9034 ca97 34b5 1745 13b5
00000040: 2803 b734 cd43 bfb4 a461 8a35 1c61 1134
00000050: 0ede 03b5 0436 b1b2 a494 20b4 071c 7db5
00000060: 660f 9d35 1d75 8935 f00f 57b4 c0d9 0534
00000070: abc3 58b5 4ba2 8635 5372 1eb5 ec7f 7032
00000080: f5a6 8634 32e6 3b35 76b4 be34 c66e 1f33
00000090: ed88 2db5 41a9 9b34 6249 2b35 715f 4835
000000a0: 59e7 9e34 1d99 39b4 fbf0 04b5 768c 9035
000000b0: 5d4a 29b5 75cd c2b3 2269 77b5 d685 65b4
000000c0: 9c10 d335 5ba3 bab4 fa4c 7eb5 c9c9 7634
000000d0: 67a2 90b4 694e 59b5 4d2c 8632 1263 b934
000000e0: f455 0435 e445 fe33 703f 4c35 5dc0 7634
000000f0: df2c 3535 720d afb3 7cf6 8e34 6f3d 8bb4
00000100: 6c2f c2b4 651a 6ab4 099f dab4 99b1 6db4
00000110: 30e3 26b5 1269 cdb4 f487 54b4 be4f 3935
00000120: c443 0cb5 cf7e 5c35 f7ba e4b4 ed0c a6b5
00000130: 55d7 0bb5 084d 4f35 7568 d434 15cf 84b5
00000140: f80e 8035 0d75 e034 ae00 1035 04e7 55b3
00000150: a31d a132 5d43 fc34 4a54 ea32 af24 ccb4
00000160: 065d 8ab5 4434 97b4 5854 fb34 16a8 fa34
00000170: 3e4d 9b33 a7f7 9bb3 2773 9eb2 951f 2a35
00000180: 9e1c 8eb3 fa53 0835 cb46 8db5 7c42 3534
00000190: 2b27 70b5 4a25 71b5 9380 75b5 dca5 3db5
000001a0: de77 19b5 3676 c3b3 d6ea db34 0962 3a34
000001b0: d00b 17b6 debe f135 dcd0 dc35 f04e 4533
000001c0: 1fbc 8f34 cd2e a6b3 4bd0 b1b5 373b 91b5
000001d0: f295 3f35 4a97 8cb4 4544 d835 180b 1c35
000001e0: 8fd2 43b5 171f 5a35 7d5f bbb4 ba19 4436
000001f0: d9f4 eb35 0856 5bb5 86dc 5cb5 0fa9 9935
00000200: 26ca 75b5 a288 34b6 e9ba 6335 e0c4 0a34
00000210: bae2 b334 52a7 9534 bb70 0434 bdd6 bf33
00000220: a3ab 46b4 149c 81b4 d731 dcb5 f8bb df34
00000230: b5eb b134 3598 ba34 8ad9 8fb3 24d2 d435
00000240: a675 5bb4 7a69 8534 b0b4 8cb5 fd82 c334
00000250: d456 6b36 d37e 4033 636c 3835 f7de 2335
00000260: 9098 b635 b18f b0b4 e460 ed35 c101 d835
00000270: 2d85 99b5 42bf 0534 aba4 eeb5 4ecf b2b3
00000280: e081 25b5 4bc4 0836 5bb5 7135 f79f 1435
00000290: ff70 f334 0003 9835 c729 15b6 2ee9 2ab5
000002a0: 4754 bf34 6d8c 3eb6 7fd2 d335 504c 89b5
000002b0: 1f9b e3b5 519e 90b4 abda 5335 5d99 e134
000002c0: 2e2b bc35 1777 4db5 1d47 4f35 5c50 0e35
000002d0: 95f5 7fb2 144b 1f36 fe4a 5c35 75e4 8ab5
000002e0: 59c6 0db6 6b1d 2336 e595 4135 6a6d 6eb5
000002f0: 6aba 8e35 4665 d4b5 b756 1435 ce68 7832
00000300: e22b aa34 b7ef 9f34 67a1 3935 55b5 9235
00000310: 20d6 0035 fec6 f734 23d0 9a36 577f f135
00000320: 30e1 ac33 84b6 b832 cedf 10b4 cfa4 0334
00000330: 66f3 d9b3 e7c7 5333 004d 77b2 b915 c431
00000340: 5fee 7a34 c91b cc34 e28f d633 8f5a 1bb3
00000350: 3617 f6b1 39de 05b2 4cc6 5ab4 e554 34b4
00000360: 0901 8fb4 3e12 fa31 394c 46b4 2cb2 aab4
00000370: bc72 08b4 c852 b2b3 73d9 ec32 99b9 8a31
00000380: 661d beb3 a12e bb33 14c2 c3b2 80fe b131
00000390: 9d09 0f34 de73 1434 4633 1fb4 8641 7233
000003a0: 527c 16b2 0e26 a432 039e 3f33 f0cf 9d33
000003b0: afc4 43b2 0eff ae32 ccd3 4b34 d77c 41b3
000003c0: 02a8 63b1 7df7 3ab3 b1ef c2b0 8a48 1c34
000003d0: 4116 88b2 80fa 0832 e664 ebb3 dd56 3ab3
000003e0: 03c7 e4b4 f3ab f331 1034 2335 dcd6 8ab5
000003f0: eb9c 1035 825b 4335 1833 2834 e6e9 7bb5
1.690312e-07 -9.624846e-07 -4.774537e-07 3.6009703e-07 -5.8708275e-07 -4.902956e-07 1.5389784e-08 4.175015e-07
-1.2157641e-06 6.2709734e-07 7.936196e-08 -5.7139207e-08 2.668785e-07 2.6931193e-07 -6.727611e-07 -5.4862306e-07
3.4088703e-07 -3.5625854e-07 1.0310218e-06 1.3539506e-07 -4.9124435e-07 -2.0630075e-08 -1.4955236e-07 -9.429063e-07
1.1701893e-06 1.024138e-06 -2.0029233e-07 1.2465807e-07 -8.0751005e-07 1.0031011e-06 -5.902595e-07 1.3998925e-08
2.5080922e-07 6.9997907e-07 3.552156e-07 3.712082e-08 -6.4646775e-07 2.8994148e-07 6.380925e-07 7.464469e-07
2.959812e-07 -1.728517e-07 -4.9524505e-07 1.0769716e-06 -6.306562e-07 -9.0712014e-08 -9.216766e-07 -2.1375976e-07
1.5725559e-06 -3.4764057e-07 -9.473439e-07 2.2983944e-07 -2.6940253e-07 -8.09529e-07 1.5619799e-08 3.4531018e-07
4.929891e-07 1.184051e-07 7.6088236e-07 2.2980517e-07 6.749305e-07 -8.151518e-08 2.6628902e-07 -2.5935466e-07
-3.616982e-07 -2.180255e-07 -4.0721378e-07 -2.2136955e-07 -6.217042e-07 -3.8260674e-07 -1.9793498e-07 6.903391e-07
-5.2252676e-07 8.214092e-07 -4.2604344e-07 -1.2371726e-06 -5.2094884e-07 7.7225604e-07 3.956408e-07 -9.895035e-07
9.5411e-07 4.1808417e-07 5.364517e-07 -4.9803035e-08 1.8756344e-08 4.698767e-07 2.7279516e-08 -3.8024652e-07
-1.0308875e-06 -2.816397e-07 4.681376e-07 4.6688427e-07 7.2318e-08 -7.262798e-08 -1.8445986e-08 6.3375893e-07
-6.617596e-08 5.078615e-07 -1.0525922e-06 1.6881125e-07 -8.9463964e-07 -8.983376e-07 -9.145671e-07 -7.0649344e-07
-5.717137e-07 -9.1018975e-08 4.0962794e-07 1.7358265e-07 -2.250763e-06 1.8011449e-06 1.6452063e-06 4.593943e-08
2.6772702e-07 -7.7384904e-08 -1.3248149e-06 -1.0820576e-06 7.1371244e-07 -2.618711e-07 1.6113123e-06 5.813067e-07
-7.2949564e-07 8.125657e-07 -3.490094e-07 2.922125e-06 1.7580124e-06 -8.170905e-07 -8.227729e-07 1.1448591e-06
-9.1563777e-07 -2.690162e-06 8.483608e-07 1.2923874e-07 3.3506313e-07 2.7875154e-07 1.2334469e-07 8.933191e-08
-1.8502628e-07 -2.4141684e-07 -1.6405783e-06 4.1673752e-07 3.3140319e-07 3.4755945e-07 -6.6985265e-08 1.585639e-06
-2.0438765e-07 2.4849925e-07 -1.04834e-06 3.6416887e-07 3.506827e-06 4.481883e-08 6.8703065e-07 6.104669e-07
1.3604458e-06 -3.2887104e-07 1.7686075e-06 1.6093765e-06 -1.1438148e-06 1.245617e-07 -1.7780307e-06 -8.3264794e-08
-6.1656283e-07 2.0379837e-06 9.0043403e-07 5.5367076e-07 4.5344493e-07 1.1325756e-06 -2.2227048e-06 -6.3669256e-07
3.5637842e-07 -2.8393945e-06 1.5781987e-06 -1.0229505e-06 -1.6957964e-06 -2.693728e-07 7.892183e-07 4.2021102e-07
1.4019658e-06 -7.654175e-07 7.721699e-07 5.301606e-07 -1.4898792e-08 2.3736548e-06 8.2065515e-07 -1.0348291e-06
-2.112609e-06 2.4306016e-06 7.211623e-07 -8.882113e-07 1.0634078e-06 -1.5824705e-06 5.5260483e-07 1.445933e-08
3.1696896e-07 2.9790473e-07 6.915274e-07 1.0930622e-06 4.799531e-07 4.615212e-07 4.613788e-06 1.799296e-06
8.0503355e-08 2.1503418e-08 -1.3492465e-07 1.2260283e-07 -1.0149124e-07 4.9309076e-08 -1.43948e-08 5.7068203e-09
2.3369783e-07 3.8018177e-07 9.991324e-08 -3.6171112e-08 -7.162181e-09 -7.7921465e-09 -2.0374972e-07 -1.6794691e-07
-2.663658e-07 7.2780315e-09 -1.8467917e-07 -3.1794605e-07 -1.2707727e-07 -8.303829e-08 2.75729e-08 4.0374286e-09
-8.852912e-08 8.716348e-08 -2.2789244e-08 5.1803113e-09 1.332141e-07 1.3825726e-07 -1.4826682e-07 5.640461e-08
-8.759416e-09 1.9109418e-08 4.4614364e-08 7.348706e-08 -1.13952145e-08 2.0372251e-08 1.89829e-07 -4.5049855e-08
-3.312835e-09 -4.353159e-08 -1.4183482e-09 1.4555022e-07 -1.5842604e-08 7.973199e-09 -1.09613936e-07 -4.33855e-08
-4.261311e-07 7.091779e-09 6.079799e-07 -1.0344334e-06 5.3872526e-07 7.277632e-07 1.5664807e-07 -9.3845154e-07

exp_avg_sq f4 [50, 50]
00000000: 29f9 2340 6633 703f c31d cd3f 8589 0140
00000010: 565c 623f e6ce 623f 1d30 5f3f edb4 533e
00000020: 6fd1 eb3f f0c8 6140 b195 5140 f779 3a3e
00000030: b326 af3e 7b11 5d3e 591f 1f40 1688 e53f
00000040: 2976 b63f 4de8 983e 14c0 be3f d51f f73f
00000050: 4a6b a13f 7d7d da3f 3429 b43f 5519 8640
00000060: ae01 b63f 8268 4840 d3af ce3f 8dc6 2940
00000070: 1c5c 903f 7065 7540 2c44 1840 15e4 933f
00000080: 0fd2 8e3f 1665 ed3e a100 ba3e 976a bf3f
00000090: f507 a83e 32b2 283f fa25 3b40 de57 243f
000000a0: 9a7d 633f 31f7 3d3f 36e8 3c3e 6c7e dd3f
000000b0: 3b20 aa3e 0163 c23f 2de0 a33f d62f 6b3f
000000c0: e7cc 1e40 037e 823e 7f32 3e3f 853c e03d
000000d0: 5004 f03e 6921 1c3f d488 4f3e 7c01 0b3e
000000e0: d42f 963e b4ab 003d dfe5 613e 94da 623f
000000f0: b49c 673f 9942 243d 229c 9b3d 36d3 763d
00000100: 5d94 243f 5da2 023f a5d9 323e 6299 873d
00000110: 2e4d 2d3e 2c84 a83e 805f b73e 8d53 0f3f
00000120: 3b9c b73e 3d02 9b3f d63c 303e 98cf 633f
00000130: b905 043f 91b7 403f e7a5 ef3d 6e66 943f
00000140: 05d8 393f f821 783e 728b 933e d0fe 533d
00000150: 8a29 983d daf7 a63e 087d 133d bd4b 223e
00000160: 2470 6e3f 8af7 8e3d 7484 6f3e 5a1c 653e
00000170: 6cc6 8b3c 457e b13e 5f9b 2a3d 1f42 cc3e
00000180: f463 833e 5ecf 853e 7a39 973e c96c d53c
00000190: c93c 2640 86a2 af3f 0c5c 1540 76c8 aa3f
000001a0: d115 c03f 9595 e83e 0cb8 583f 58b6 4f3e
000001b0: fdb1 2440 1af1 a640 664a 8940 b1d6 8a3e
000001c0: d2c7 6b3e 4885 b73d e67a 6240 14e3 2a40
000001d0: 8081 653f d425 743e 44df f93f d507 663f
000001e0: 7c7e f73f 781b db3f 3084 553f c6f4 b540
000001f0: b1f9 0c40 6f5c 2040 6605 0040 5d1d 4940
00000200: 0e61 923f 7a63 9b40 9fe1 d83f 247f 083f
00000210: d690 4d3f 40e6 1a3f 8274 1f3f 178d 3b3f
00000220: 2e1b cf3e af18 803e b552 4940 3f7f 583f
00000230: c20a 363f 54cd d03e 092d 093e cd8a 3b40
00000240: cbe3 dd3e 6fc5 623f c9fb 0540 9543 e63e
00000250: 85df 6340 4a43 723e 01bf 7140 38b6 3c41
00000260: f46f f540 fe86 2a3f bcb0 0d41 ae60 bb40
00000270: 2011 9b3f 6b5d 9b3f 38c3 b341 9177 7a41
00000280: 3de4 1c41 41f7 1040 d072 303f bd9b b53e
00000290: 409f 3141 a6b7 1041 9b5c 4241 0c12 3a3f
000002a0: 310d 9641 72d2 0e41 ef31 f240 8b44 f83f
000002b0: 9363 ba3f 3415 2241 4c2b 9041 9b49 2f40
000002c0: 466b 8940 9ddb ca40 4d98 5041 b50c f040
000002d0: 8632 493f 6ef1 4140 643c a53f edf1 a740
000002e0: 4914 9440 a739 5240 bcb0 5b40 e794 a93f
000002f0: ade2 6340 923d 0a41 20ee 8e3f a511 b73e
00000300: c426 cb3f 65a4 7441 6f90 5340 5b5b 9f3f
00000310: a87f 3141 575f 273f 71f7 e641 b2f5 4140
00000320: 24c7 ee3d 9d51 8b3d 77d9 ce3c 6695 1f3e
00000330: f684 bf3c 02c8 bf3d caad 053d 8c61 9f3b
00000340: 31ae 023e 9b7d 5c3d a2af 9f3d b01c aa3b
00000350: a35d 593c d1df 553c 4990 233d da8c df3c
00000360: b7c1 0d3e 5af8 113c 665b e33d c2ca 3e3e
00000370: 5c32 a33c a020 933d 53bc cd3d 4c87 f33d
00000380: 3d88 d43d eff3 6d3e 110d 243d e28a a43d
00000390: 561d e43d a9a0 0f3e fc7a 3b3e 7717 c83d
000003a0: 4a7f 673d 0078 f73c ecf1 623c 618f fa3d
000003b0: 564c 9e3c 488f 6e3d 6aa3 103e bdc5 5d3d
000003c0: 800c 183d 947c 4c3d e8be 553c c208 523d
000003d0: d678 833c 406d e53d 66f0 123d 7747 923d
000003e0: 8dc4 313e 3602 cf3c 5056 3e3f f54f 853f
000003f0: b4f9 2b3f 4b8e 5f3f b569 123f 1d2e 633f
2.5620825 0.9382843 1.6024708 2.0240185 0.88422143 0.8859695 0.8718279 0.20674486
1.8423289 3.5278893 3.2747614 0.18210588 0.34209213 0.215887 2.4862883 1.7932155
1.425481 0.2986473 1.4902368 1.9306589 1.2610867 1.7069546 1.4075074 4.1905923
1.4219263 3.1313787 1.6147407 2.6527436 1.127811 3.8343163 2.379161 1.155398
1.1157855 0.46366185 0.36328605 1.4954404 0.3281857 0.65896904 2.924193 0.64196575
0.8886353 0.7420531 0.18447956 1.7304206 0.33227715 1.5186464 1.2802788 0.91869867
2.4812562 0.25486764 0.742958 0.10949043 0.4687829 0.6098848 0.2026704 0.13574785
0.29333365 0.03141375 0.22060345 0.88614774 0.90473485 0.040102575 0.07598139 0.06026002
0.64288884 0.51028997 0.17465837 0.06621052 0.16923973 0.3291334 0.35815048 0.55986863
0.35861382 1.2110058 0.17210707 0.8898864 0.5157123 0.752801 0.11701565 1.1593759
0.72595245 0.24231708 0.28817326 0.05175668 0.07429798 0.3261097 0.03600791 0.15849204
0.93139863 0.06980808 0.2339037 0.22374097 0.017062388 0.34666649 0.04165208 0.39894196
0.25662196 0.2613477 0.2953604 0.02605285 2.59746 1.3721473 2.333743 1.3342426
1.5006658 0.45426622 0.84655833 0.20284402 2.5733635 5.2169313 4.290332 0.27116922
0.23025444 0.08960968 3.5387511 2.6701097 0.89650726 0.23842555 1.952126 0.898557
1.9335475 1.7117758 0.8340483 5.6861296 2.20274 2.5056417 2.0003295 3.1424172
1.1435869 4.855893 1.6943854 0.53319 0.8029913 0.60507584 0.6228715 0.7326216
0.40450424 0.25018832 3.145673 0.8456916 0.71110165 0.40781653 0.13396086 2.9303467
0.43337855 0.8858251 2.0934927 0.44973436 3.5605175 0.23658481 3.777283 11.794487
7.669916 0.6661223 8.855648 5.8555517 1.2114601 1.2137884 22.470322 15.654191
9.805722 2.2650912 0.6892519 0.3547038 11.101379 9.044836 12.147609 0.7268379
18.756441 8.926378 7.5685954 1.9395918 1.4561638 10.130177 18.021141 2.7388675
4.294345 6.3393083 13.037183 7.501551 0.7859272 3.0303607 1.2909055 5.248282
4.627476 3.2847688 3.432662 1.3248566 3.5607102 8.640032 1.116642 0.3575565
1.5871205 15.290135 3.3056905 1.2449754 11.093666 0.6537985 28.870821 3.030621
0.11659077 0.06802676 0.02525018 0.15584335 0.02337883 0.0936432 0.03263644 0.0048639234
0.12761761 0.053830724 0.07797171 0.005191408 0.013266954 0.01305385 0.039932523 0.027288843
0.13843428 0.008909309 0.11101417 0.18632033 0.019921474 0.07183957 0.100456856 0.1189104
0.10377548 0.23237585 0.040051524 0.08034302 0.11138408 0.1402613 0.18308634 0.097701006
0.056517877 0.030208588 0.013851624 0.122343786 0.01932351 0.058242112 0.14124838 0.054143656
0.037121296 0.049923494 0.013046004 0.051277883 0.01604883 0.112024784 0.035873793 0.07142537
0.17360134 0.025269609 0.7435045 1.0415026 0.6717789 0.87326497 0.57192546 0.8874224

exp_avg f4 [50]
00000000: b87b a237 861a 9bb6 abb4 1637 09c8 8238
00000010: 8c3e 19b6 187c a537 5027 d4b7 e37c d937
00000020: 32ff 5136 933b feb6 43e6 9a35 e044 ae37
00000030: 8033 6fb7 0ac7 d2b7 a607 93b8 9104 3938
00000040: 3bba 0b38 071f 9a36 b9bd 14b7 9eba cd37
00000050: 1dc1 4c37 323e b237 e130 c4b6 5f95 0cb7
00000060: 27b4 3eb7 f2fb 1a37 1bd3 9d36 5dc4 1db7
00000070: 8628 e6b6 9618 6bb7 5116 26b7 b9ed c835
00000080: 916b d337 2307 74b7 c807 3637 47bc 4437
00000090: 44cb 7437 0800 cb35 b5e6 40b8 0849 8fb7
000000a0: 3906 ee36 9696 1cb7 75d1 77b7 8cd2 24b8
000000b0: 59da 4634 00fb 09b7 6e1f eeb7 6739 0236
000000c0: fad1 2b38 b2d1 a437
1.9369516e-05 -4.6224477e-06 8.982762e-06 6.2361425e-05 -2.2835184e-06 1.9727318e-05 -2.5290676e-05 2.592657e-05
3.129197e-06 -7.5767252e-06 1.1540909e-06 2.0774489e-05 -1.4257501e-05 -2.5126636e-05 -7.010931e-05 4.411169e-05
3.3313623e-05 4.5931697e-06 -8.865661e-06 2.4524805e-05 1.220431e-05 2.1248215e-05 -5.8469454e-06 -8.379428e-06
-1.13668275e-05 9.237776e-06 4.7035405e-06 -9.403649e-06 -6.8592517e-06 -1.4012816e-05 -9.899567e-06 1.4970348e-06
2.520325e-05 -1.4545195e-05 1.0849857e-05 1.1726347e-05 1.459086e-05 1.5124688e-06 -4.599123e-05 -1.7080936e-05
7.093677e-06 -9.333386e-06 -1.4771115e-05 -3.9296734e-05 1.8519621e-07 -8.224277e-06 -2.8386447e-05 1.9404922e-06
4.0965133e-05 1.964797e-05

exp_avg_sq f4 [50]
00000000: fd61 7643 d08e 9c41 5f6f af42 01d8 1345
00000010: f0ad be40 0282 0543 a2f2 ae43 df06 a143
00000020: 741c 9141 4606 de42 73b0 8241 1518 8f43
00000030: a096 3f43 bcd6 7443 92d6 0045 7acc 8344
00000040: b3bb 1144 fb95 6041 8b78 2a41 18dc a543
00000050: ecda 6542 1736 9743 c318 3e41 338f a342
00000060: 55c0 8742 ff9c 1f42 8fcc 4342 d490 4642
00000070: 3737 3842 e170 e542 fad2 8742 20be cd41
00000080: 0e99 0244 eb36 5643 0ab9 bb42 4d39 b542
00000090: 1253 0243 729d 6d41 b88b 9544 6074 2e43
000000a0: afe1 4142 00f2 9842 b874 0643 a0f9 3444
000000b0: b2c7 3240 0eac 6442 4be3 1244 80b2 8a41
000000c0: c6b3 7844 2059 9742
246.38277 19.569733 87.71752 2365.5002 5.9587326 133.50784 349.89557 322.05368
18.138893 111.01225 16.336157 286.18814 191.58838 244.8388 2061.4106 1054.3899
582.9328 14.036616 10.654429 331.71948 57.46379 302.42258 11.881045 81.779686
67.87565 39.903316 48.949764 49.641434 46.05392 114.72047 67.91206 25.717834
522.3915 214.21452 93.861404 90.611916 130.3245 14.850939 1196.3662 174.45459
48.470394 76.47266 134.45593 723.9004 2.7934384 57.168022 587.55145 17.337158
994.80896 75.67407

exp_avg f4 [50, 50]
00000000: 6895 9eb5 bf76 bb35 a2e3 8635 c554 0b34
00000010: a292 20b6 db80 c0b5 7481 1e35 040c 2b35
00000020: 83e0 cfb5 8d09 5536 3932 4b35 d07c 4db5
00000030: 9514 1136 f930 db34 d6ab c235 a537 f6b5
00000040: 8f0c 2b34 5468 8ab5 d558 e134 ccdd 8934
00000050: 1f18 3ab5 d3e8 a835 430a 1836 de7e 5c35
00000060: b071 bc35 135e 11b6 3407 5835 bc5d 8cb5
00000070: 71be 3036 1cc1 db35 2137 e135 316c 84b5
00000080: a72d 3eb6 effd 8fb6 8700 eab5 719f 0bb5
00000090: c3de 85b4 ed4c 6934 b049 c335 6fee f1b5
000000a0: 1614 05b6 4f1f d233 d555 2d36 54b2 a8b4
000000b0: f742 6b34 02d5 72b4 3006 c4b5 ca0b a635
000000c0: 6afb 5eb4 bb0b 3835 fcfd a235 0f7d 9134
000000d0: f9c7 9535 18e1 c4b5 f808 a9b5 c891 6e35
000000e0: 3cc0 29b5 1b5a 2635 57e0 91b4 a686 0436
000000f0: deec 4ab3 d13c 93b1 a835 9b35 62f8 12b5
00000100: 6431 c6b4 d651 c5b4 3250 5335 3aaf 6535
00000110: 5e60 a135 cb02 8135 81ac 21b4 7d29 8835
00000120: c2ec 4835 7cb0 dbb5 bbcd 65b5 d309 b4b5
00000130: 6ca3 a435 3303 d7b4 df1e c135 3be5 3834
00000140: e858 e332 fbf5 c5b5 ec85 b2b4 ecb9 38b6
00000150: ae07 ffb3 861e f733 2d72 dbb5 a8a1 1e35
00000160: 45e8 b7b5 a7e7 ddb5 05c0 e834 956d 7d35
00000170: 28e7 7935 c617 2131 7a7f 73b5 866c e7b4
00000180: 2b26 a6b5 a586 e534 34fc b835 ab5a ba35
00000190: edfa 8d35 4857 79b1 1e04 4b35 2119 3c35
000001a0: b7ab d834 2350 beb4 087a d9b4 e0cb 24b4
000001b0: 973e b4b4 514a 7232 e8fb a535 81ad 13b6
000001c0: 4949 4ab3 ac65 3332 7fdf cb34 9385 2bb5
000001d0: cd9b a9b4 7af0 11b5 e11d 41b5 93dc 5f35
000001e0: 891f 8334 ac9f cf34 3309 bb35 3f23 9d34
000001f0: 7ee9 c2b4 a33e e5b2 6cee 9bb5 3aec 9e34
00000200: 5903 b133 add8 1835 2619 df35 1f8e 7d35
00000210: 5661 1234 c6a1 6ab5 aedb 24b6 2732 5a35
00000220: d58e 2e35 f8d7 1635 93b1 a4b4 8a2a 5eb5
00000230: 411c 0cb5 fd39 f9b4 66a3 e534 9de7 4f34
00000240: 2e05 85b5 2cd7 ac35 b472 98b5 561e 0136
00000250: b474 4db5 45a6 38b5 e750 f8b4 97d4 dcb3
00000260: 35c0 43b3 af19 f434 0222 65b3 405c 8ab3
00000270: d0b9 d9b0 74e6 e432 6e62 a0b3 df8c afb4
00000280: ac2e f233 7370 7534 6cab bfb4 9823 76b4
00000290: af16 7db4 08ae 8a34 55a0 93b3 06e3 22b4
000002a0: 5ef8 c4b3 6e39 b1b3 0451 c934 1c3d c733
000002b0: b6d4 cd32 d3d8 ba34 069d 9034 3f5b 4234
000002c0: 671f 9233 0bd7 a8b4 607a 2a33 2e97 b033
000002d0: b724 3fb3 4fdb 4134 9219 09b4 4507 0e35
000002e0: 785c af34 7ae4 49b4 c7ce 9834 aaad 91b4
000002f0: 8d85 b0b3 012d c832 6b15 92b4 789f 99b4
00000300: 2029 7633 5f11 97b4 6bbf a134 9bc4 03b4
00000310: 2801 5d32 2077 a8b4 3075 cbb3 6bc0 56b4
00000320: 4e30 ac35 d1b4 8cb5 8c5a 5d35 0da4 29b5
00000330: f952 7135 a65d b135 2f6a 8eb5 a174 5633
00000340: 30c5 2335 7150 c6b5 e3f6 a9b3 d07c c734
00000350: b1e8 b8b5 620c 77b5 debf d7b5 3bda 9f35
00000360: 0885 bc34 37f0 4435 f7c6 3135 9dfa 1635
00000370: fdc1 9935 a99b cd34 3c76 1fb5 4ec7 92b5
00000380: 7aa4 9eb5 d7cb 1635 8213 b634 ccc8 44b4
00000390: d52e eab4 2409 aab4 36e7 70b5 6ba2 f7b2
000003a0: 353e be35 d45d 1336 bf86 ac35 59f8 7a34
000003b0: 9cf8 01b5 ad1f 41b4 32cb 16b6 6d33 ebb4
000003c0: a30c 9035 3647 8f34 0298 06b5 975f 04b5
000003d0: 951d 13b5 ed21 0fb4 3de3 86b4 569f 41b5
000003e0: c731 4235 7dc6 2734 03b5 d2b5 9791 c234
000003f0: 8843 94b5 9d21 0bb4 96ea edb4 2031 f4b4
-1.18154e-06 1.3967145e-06 1.0050028e-06 1.2976223e-07 -2.392721e-06 -1.4342617e-06 5.9047966e-07 6.371995e-07
-1.5488043e-06 3.1745033e-06 7.5696477e-07 -7.655008e-07 2.1618664e-06 4.082756e-07 1.4504137e-06 -1.8344623e-06
1.5930185e-07 -1.0312165e-06 4.197415e-07 2.5679617e-07 -6.93255e-07 1.2584736e-06 2.2655738e-06 8.2141e-07
1.4040179e-06 -2.1661442e-06 8.047675e-07 -1.0458093e-06 2.6336895e-06 1.6372974e-06 1.6779851e-06 -9.866254e-07
-2.833878e-06 -4.291294e-06 -1.7434512e-06 -5.2013553e-07 -2.493526e-07 2.1727801e-07 1.4550078e-06 -1.8025293e-06
-1.9830236e-06 9.784582e-08 2.582897e-06 -3.142219e-07 2.1910442e-07 -2.2615498e-07 -1.4604939e-06 1.2371395e-06
-2.0766825e-07 6.856241e-07 1.214386e-06 2.7099347e-07 1.1159565e-06 -1.4668649e-06 -1.2594091e-06 8.887405e-07
-6.3237144e-07 6.197094e-07 -2.7171583e-07 1.9747908e-06 -4.724722e-08 -4.285177e-09 1.1564016e-06 -5.4750683e-07
-3.691631e-07 -3.6753653e-07 7.8720325e-07 8.5564136e-07 1.2023481e-06 9.612062e-07 -1.505705e-07 1.0144864e-06
7.4850334e-07 -1.6368135e-06 -8.5608525e-07 -1.3413904e-06 1.2266514e-06 -4.0049198e-07 1.4388605e-06 1.7219729e-07
2.6466708e-08 -1.4749234e-06 -3.3252525e-07 -2.7526357e-06 -1.187576e-07 1.1507386e-07 -1.6350001e-06 5.909483e-07
-1.3702162e-06 -1.6533203e-06 4.335308e-07 9.440931e-07 9.3096105e-07 2.3442097e-09 -9.0710057e-07 -4.3106064e-07
-1.2379072e-06 4.275254e-07 1.3782469e-06 1.3884468e-06 1.0578348e-06 -3.6283883e-09 7.5629384e-07 7.0072025e-07
4.0358074e-07 -3.5448565e-07 -4.050819e-07 -1.534786e-07 -3.3573153e-07 1.41031515e-08 1.2366772e-06 -2.20057e-06
-4.7098442e-08 1.0442289e-08 3.797431e-07 -6.389684e-07 -3.1592063e-07 -5.436665e-07 -7.194158e-07 8.339495e-07
2.4423596e-07 3.867293e-07 1.3935263e-06 2.9269174e-07 -3.6305204e-07 -2.6687593e-08 -1.161779e-06 2.960167e-07
8.242814e-08 5.693972e-07 1.6622114e-06 9.445666e-07 1.363272e-07 -8.7407204e-07 -2.4565775e-06 8.128431e-07
6.50279e-07 5.619363e-07 -3.0676583e-07 -8.2763347e-07 -5.219518e-07 -4.6422056e-07 4.2773462e-07 1.9362638e-07
-9.91078e-07 1.2877622e-06 -1.1358266e-06 1.9240156e-06 -7.6538277e-07 -6.8787296e-07 -4.6252464e-07 -1.0283218e-07
-4.5576787e-08 4.546723e-07 -5.3349147e-08 -6.442906e-08 -1.5841639e-09 2.6647491e-08 -7.468485e-08 -3.2698787e-07
1.1277493e-07 2.2858312e-07 -3.5701248e-07 -2.2923484e-07 -2.3570713e-07 2.5831127e-07 -6.874385e-08 -1.5170016e-07
-9.172139e-08 -8.252651e-08 3.7498114e-07 9.277775e-08 2.396187e-08 3.480296e-07 2.693634e-07 1.8100853e-07
6.804367e-08 -3.1448903e-07 3.969251e-08 8.223138e-08 -4.4504045e-08 1.805431e-07 -1.2768422e-07 5.29097e-07
3.266357e-07 -1.8802703e-07 2.8462657e-07 -2.7134712e-07 -8.2199314e-08 2.330353e-08 -2.7210203e-07 -2.86145e-07
5.731374e-08 -2.813858e-07 3.0127862e-07 -1.227185e-07 1.2864156e-08 -3.1379113e-07 -9.4742404e-08 -2.0000304e-07
1.2829057e-06 -1.0483437e-06 8.246068e-07 -6.319613e-07 8.990024e-07 1.3214783e-06 -1.0610728e-06 4.993183e-08
6.100918e-07 -1.4775561e-06 -7.914584e-08 3.7157452e-07 -1.377679e-06 -9.203269e-07 -1.6074589e-06 1.1909937e-06
3.5114522e-07 7.336525e-07 6.622717e-07 5.6244045e-07 1.1455846e-06 3.8297483e-07 -5.940417e-07 -1.0935853e-06
-1.1819786e-06 5.617598e-07 3.3914336e-07 -1.8326972e-07 -4.361997e-07 -3.1671618e-07 -8.9743423e-07 -2.8828444e-08
1.4174208e-06 2.1959322e-06 1.2854215e-06 2.3373413e-07 -4.841802e-07 -1.7986049e-07 -2.2470017e-06 -4.3809578e-07
1.0732514e-06 2.6687638e-07 -5.014009e-07 -4.9312933e-07 -5.4804815e-07 -1.3330255e-07 -2.5124783e-07 -7.2129967e-07
7.234307e-07 1.5625297e-07 -1.5698901e-06 3.6241246e-07 -1.1046513e-06 -1.2957612e-07 -4.4315374e-07 -4.5484285e-07
