weights/checkpoint/example0003_warm_adam.pth (torch, 79323 bytes, 35 tensors)

a f4 [5]
0.2 0.2 0.2 0.2 0.2
00000000: cdcc 4c3e cdcc 4c3e cdcc 4c3e cdcc 4c3e
00000010: cdcc 4c3e

input_layer.weight f4 [50, 2]
1.0454535 1.1730125 1.8075898 0.29138443 0.23486218 0.37277693 -0.5111153 -1.2385952
-0.33973107 0.9588194 -2.0116594 0.4456837 -1.0632995 1.1796819 1.8131031 -1.0835736
-0.3871182 -0.15930696 -1.0268964 0.61229366 2.31096 -0.22634067 -0.39710206 0.97375476
-1.1471003 -0.62480754 -0.24071681 0.4278604 -0.05428253 -1.1413189 0.5598667 0.5321807
0.89281243 -0.65434235 -1.4194094 -1.6029654 -0.74574155 1.4960641 1.1351992 -0.98703873
-0.025387809 0.91849154 0.5035203 0.3128288 -0.28686005 0.5601926 0.9090834 -0.4089446
0.26674226 0.20136894 -0.23405832 -0.03360496 -1.7519665 0.64987403 -1.0772786 0.7352956
0.029486688 0.9456381 0.64744097 1.1379057 1.1339171 -1.2734838 0.59272754 -0.6598524
-1.0255833 -0.3014836 -0.2413815 0.88903517 -0.7316615 0.24446 -0.45489362 -0.04592946
0.89448726 -0.66366506 1.2386111 -0.61583483 0.31620026 1.0470989 -0.24282546 0.04943899
-0.63269687 0.95734906 0.36521396 -0.674669 0.6335394 0.51944995 -0.5375644 1.02649
-0.32557055 -2.0384572 0.39283204 0.7387887 -1.2426304 -0.8254104 0.97471875 0.85962486
0.80009294 -1.7951533 -0.43090904 -0.21913368
00000000: 6cd1 853f 4625 963f 1a5f e73f 5730 953e
00000010: b67f 703e 9edc be3e 74d8 02bf 4a8a 9ebf
00000020: 3bf1 adbe 3075 753f 07bf 00c0 a730 e43e
00000030: 331a 88bf d1ff 963f c313 e83f 8ab2 8abf
00000040: 5b34 c6be 5d21 23be 5771 83bf 47bf 1c3f
00000050: c5e6 1340 d9c5 67be f650 cbbe fe47 793f
00000060: 2fd4 92bf 63f3 1fbf 787e 76be 8510 db3e
00000070: 5c57 5ebd bd16 92bf 6d53 0f3f ff3c 083f
00000080: 5b8f 643f fb82 27bf 35af b5bf f82d cdbf
00000090: ebe8 3ebf 077f bf3f 354e 913f 92ae 7cbf
000000a0: 18fa cfbc 4322 6b3f b5e6 003f 192b a03e
000000b0: 52df 92be c868 0f3f b1b9 683f 3061 d1be
000000c0: 7192 883e a933 4e3e fcac 6fbe 5ba5 09bd
000000d0: 7040 e0bf 255e 263f 44e4 89bf 553c 3c3f
000000e0: 118e f13c 5715 723f b1be 253f e5a6 913f
000000f0: 3224 913f 8401 a3bf febc 173f 16ec 28bf
00000100: 5046 83bf 0f5c 9abe b62c 77be cf97 633f
00000110: 2b4e 3bbf b953 7a3e d1e7 e8be 8820 3cbd
00000120: 1efd 643f f4e5 29bf cf8a 9e3f 5aa7 1dbf
00000130: 00e5 a13e 5607 863f 3da7 78be 8a80 4a3d
00000140: 6cf8 21bf d414 753f 53fd ba3e 1cb7 2cbf
00000150: a32f 223f acfa 043f d29d 09bf 0664 833f
00000160: 2fb1 a6be 1576 02c0 4821 c93e 4221 3d3f
00000170: 830e 9fbf 194e 53bf 2b87 793f 6010 5c3f
00000180: e4d2 4c3f 95c7 e5bf 1ca0 dcbe 9464 60be

input_layer.bias f4 [50]
-0.053857353 0.001556892 0.20325877 0.14080302 0.15642841 -0.014556303 -0.10111058 -0.020988122
0.15158929 -0.06805647 -0.023032984 0.05325118 -0.107538424 -0.010203647 -0.050007604 -0.14202105
-0.09115451 0.01454269 -0.1441529 0.13167918 -0.1557163 0.06610577 0.032479685 -0.1034147
-0.076487266 0.12161062 0.00936675 0.058166876 0.057093617 -0.09222435 -0.16604823 0.07953353
-0.08784498 -0.011919653 -0.06718405 0.22650425 0.096829176 -0.06803958 0.040896133 -0.22819683
0.23613232 -0.011792944 0.026382755 -0.075304754 -0.0101658525 0.16005068 -0.019402338 -0.0621683
0.09443954 -0.019564023
00000000: 8799 5cbd a010 cc3a 1123 503e ab2e 103e
00000010: c52e 203e 8f7d 6ebc 1013 cfbd 48ef abbc
00000020: 393a 1b3e 3161 8bbd abaf bcbc e91d 5a3d
00000030: 1b3d dcbd 332d 27bc c6d4 4cbd f76d 11be
00000040: 37af babd 7644 6e3c d19c 13be e8d6 063e
00000050: 1874 1fbe 7662 873d 6b09 053d 16cb d3bd
00000060: 5ba5 9cbd fd0e f93d ff76 193c 6440 6e3d
00000070: ffda 693d 1fe0 bcbd 8c08 2abe 7ae2 a23d
00000080: 12e8 b3bd a64a 43bc cb97 89bd bbf0 673e
00000090: 604e c63d 5658 8bbd b482 273d 6eac 69be
000000a0: accc 713e 3137 41bc a620 d83c 6139 9abd
000000b0: ad8e 26bc 53e4 233e a7f1 9ebc 30a4 7ebd
000000c0: 8469 c13d bb44 a0bc

input_ln.weight f4 [50]
0.93474454 1.1527447 1.0403831 0.9286089 0.9862799 0.93553305 1.1093867 1.2429719
0.95457536 0.9947947 0.93162596 0.9717292 1.0174649 1.1281357 1.0577389 0.9299628
0.9408471 1.0020357 0.9330294 0.9109347 0.9789417 1.0011256 1.0633236 0.8967261
0.8947958 0.9779649 0.9606703 0.85437614 0.9172495 0.89715075 0.89268684 0.97406995
0.9853268 0.93643075 0.9928457 1.2372091 1.012954 1.0290308 0.8927594 1.195219
1.1149362 1.0519818 0.9761615 1.0553727 0.9728367 1.0051377 1.0354401 0.9931011
0.7448364 1.1408962
00000000: 6b4b 6f3f 238d 933f 462b 853f 50b9 6d3f
00000010: d77c 7c3f 187f 6f3f 6200 8e3f b419 9f3f
00000020: 0d5f 743f deaa 7e3f 0a7f 6e3f 3fc3 783f
00000030: 4a3c 823f c066 903f fd63 873f 0b12 6e3f
00000040: 5bdb 703f b542 803f 04db 6e3f 0433 693f
00000050: ec9b 7a3f e224 803f fd1a 883f d78f 653f
00000060: 5611 653f e85b 7a3f 7dee 753f 65b8 5a3f
00000070: ddd0 6a3f acab 653f 2087 643f a65c 793f
00000080: 613e 7c3f edb9 6f3f 232b 7e3f de5c 9e3f
00000090: 7aa8 813f 48b7 833f e18b 643f f0fc 983f
000000a0: 3bb6 8e3f 57a7 863f b8e5 793f 7416 873f
000000b0: d30b 793f 5aa8 803f 4d89 843f e03b 7e3f
000000c0: 99ad 3e3f e308 923f

input_ln.bias f4 [50]
-0.05146485 -0.09225459 0.17057078 -0.7494894 -0.23621836 -0.5506988 0.0715871 0.59479964
0.12371568 0.06956995 -0.020651389 0.51909953 -0.3941919 -0.79705197 -0.038219955 0.15440507
-0.15582313 0.674247 0.58302355 0.4808729 0.41231063 0.15846178 0.45663208 -0.12378605
0.689812 0.2366729 0.07582061 -0.28689897 0.5693916 -0.1386954 0.4960968 -0.22029433
-0.04824437 0.5745682 -0.46728277 -0.49512327 -0.1491021 0.04568184 0.42830262 -0.20871902
-0.29502386 -0.32478592 0.10600354 0.3596131 0.37590683 -0.22871864 -0.48967057 0.605386
-0.5732608 0.5364786
00000000: cecc 52bd f9ef bcbd 1baa 2e3e 8ade 3fbf
00000010: 3ae3 71be 99fa 0cbf 429c 923d ca44 183f
00000020: a55e fd3d b17a 8e3d 1a2d a9bc b5e3 043f
00000030: 85d3 c9be 990b 4cbf 878c 1cbd 5d1c 1e3e
00000040: 1990 1fbe 749b 2c3f 0841 153f f934 f63e
00000050: 611a d33e ce43 223e aecb e93e 8a83 fdbd
00000060: 8597 303f 615a 723e d647 9b3d 6ce4 92be
00000070: a6c3 113f 2b06 0ebe 6600 fe3e d694 61be
00000080: e39b 45bd e716 133f b03f efbe cc80 fdbe
00000090: 39ae 18be e21c 3b3d 7b4a db3e 70ba 55be
000000a0: 5e0d 97be 574a a6be 6218 d93d 351f b83e
000000b0: dc76 c03e 3835 6abe 1ab6 fabe 94fa 1a3f
000000c0: 38c1 12bf a956 093f

hidden_layers.0.weight f4 [50, 50]
0.22258162 -0.25829488 -0.24392581 -0.05942199 0.10114381 0.15750074 0.024249358 -0.0061634397
-0.15120588 0.29627764 -0.34370044 -0.050194856 -0.2543181 0.09206205 0.14667338 -0.118974134
0.09848783 -0.24605632 0.08461545 0.111046 -0.11823079 -0.042606123 -0.051776692 -0.1888325
-0.22116219 -0.08193653 0.19022395 0.32323918 0.12756388 0.22805539 -0.24533282 -0.31360972
-0.22494273 -0.0025609185 0.13303751 -0.21079154 -0.040214654 -0.31242606 -0.00033335085 -0.27378488
0.026348269 -0.100098446 0.2418866 -0.28049833 0.121119365 0.15979566 0.101707615 0.17510834
-0.2009187 -0.3028201 -0.029645074 0.41705203 -0.014306367 0.20642136 0.4792909 -0.18379937
0.0920185 0.15001297 0.3605117 0.30771106 0.03428592 -0.06505345 -0.32707915 -0.19197133
0.1639801 0.2331542 -0.0016974083 -0.20316413 -0.051361755 -0.059983447 0.20633164 0.36881465
-0.0877607 0.25337985 0.38410008 0.12156297 -0.16414173 0.10249229 -0.0074367025 -0.051991016
0.018339632 -0.045645807 -0.25594595 -0.14625263 -0.062892124 0.22368293 -0.2875611 -0.07477231
0.009634598 -0.33596262 -0.07550572 -0.23226126 0.42202568 -0.17353113 0.1736434 -0.07214069
-0.3447442 -0.16405787 0.27838418 0.06652952 -0.02044952 -0.042749614 -0.29015025 -0.10601042
0.116794325 -0.13533178 0.10971176 0.0661318 -0.15323845 0.3901524 -0.23489344 0.21383698
0.20442817 -0.06262959 -0.3936396 -0.42343557 0.006053262 -0.047849488 0.036514193 -0.089169435
0.03826778 0.37627527 -0.09391413 0.2915302 -0.07689716 0.16542527 0.18124637 -0.13482612
-0.020927805 -0.21775253 0.5235959 -0.33381942 -0.027689684 0.082784705 0.19715135 -0.13723907
0.36539692 -0.31617546 0.1723452 0.05236018 -0.050472543 0.13696618 -0.22416097 0.15160108
-0.0669752 -0.21326134 -0.18640418 0.1121862 -0.26089284 -0.028913174 0.11907242 0.060807656
-0.054844737 0.40132433 0.12668912 0.28783736 0.032486577 0.17595309 -0.004851047 0.05156457
0.15197402 0.06030304 0.17272426 0.08098118 -0.43361846 -0.4479392 0.08008398 -0.039982688
-0.23982133 -0.2436944 -0.1474933 -0.035569973 -0.20558527 0.39552432 0.19129701 0.23271649
0.011367911 0.070042245 -0.28110638 -0.18072146 0.07763703 0.019970896 -0.22269438 -0.14367096
0.21840343 -0.16688652 -0.074697725 0.03491728 0.0935928 -0.19980268 0.043756638 0.21095514
-0.19868024 -0.22319318 -0.22427925 0.23519208 -0.064969905 -0.13705362 0.18034506 0.339036
0.63270545 0.28183883 0.08488037 0.019339599 0.11925571 0.16340806 0.04281553 0.11479867
0.19209339 0.037720706 -0.2522515 -0.052804727 0.019180631 -0.20354502 -0.19445343 0.16477741
-0.040159505 -0.12307887 0.050883606 0.09133171 -0.0018730566 0.2168029 -0.26153228 -0.15513913
0.21124317 -0.06228787 -0.19802536 -0.30012155 0.020034393 0.044723492 -0.013054048 -0.31472456
-0.284167 0.05224459 -0.2694174 -0.016425323 0.011982362 -0.13638392 -0.04444701 0.14353265
0.18637167 0.076588996 -0.17710428 -0.04413914 -0.12681991 0.442146 -0.33372268 0.042205557
-0.28630623 0.16538148 0.046938602 0.43941066 0.26072255 0.122644536 0.12864353 -0.03636479
00000000: 70ec 633e 3a3f 84be b0c7 79be 7964 73bd
00000010: 7c24 cf3d e047 213e 97a6 c63c aef6 c9bb
00000020: b7d5 1abe b4b1 973e 81f9 afbe 1f99 4dbd
00000030: fb35 82be 078b bc3d 8c31 163e b6a8 f3bd
00000040: fdb3 c93d 30f6 7bbe dd4a ad3d 166c e33d
00000050: fc22 f2bd c283 2ebd cc13 54bd 4f5d 41be
00000060: 5778 62be 57ce a7bd 11ca 423e 9b7f a53e
00000070: 1ba0 023e 5a87 693e 8738 7bbe 7491 a0be
00000080: 6357 66be 15d5 27bb fc3a 083e bdd9 57be
00000090: 1fb8 24bd 4ff6 9fbe 98c5 aeb9 882d 8cbe
000000a0: 53d8 d73c 6a00 cdbd 1fb1 773e 7a9d 8fbe
000000b0: 6e0d f83d 79a1 233e 154c d03d 9a4f 333e
000000c0: a2bd 4dbe 3c0b 9bbe 3ada f2bc d887 d53e
000000d0: 4165 6abc 1f60 533e 9e65 f53e e735 3cbe
000000e0: 3274 bc3d 009d 193e fd94 b83e 4e8c 9d3e
000000f0: 656f 0c3d be3a 85bd eb76 a7be 2294 44be
00000100: 66ea 273e f9bf 6e3e 927b deba 420a 50be
00000110: b460 52bd 34b1 75bd 9a48 533e 46d5 bc3e
00000120: e2bb b3bd 01bb 813e c4a8 c43e 02f6 f83d
00000130: c514 28be 7ae7 d13d 95af f3bb 88f4 54bd
00000140: ff3c 963c 19f7 3abd 590b 83be 40c3 15be
00000150: 96cd 80bd 230d 653e 353b 93be 3a22 99bd
00000160: 6fda 1d3c 4b03 acbe bea2 9abd e5d5 6dbe
00000170: c013 d83e 25b2 31be 93cf 313e 80be 93bd
00000180: 5082 b0be c9fe 27be 5f88 8e3e a140 883d
00000190: c085 a7bc 381a 2fbd 938e 94be fe1b d9bd
000001a0: dd31 ef3d 6a94 0abe 8fb0 e03d 1c70 873d
000001b0: 8aea 1cbe 0ec2 c73e e887 70be 15f8 5a3e
000001c0: 9e55 513e f143 80bd 218b c9be 8ccc d8be
000001d0: 715a c63b d3fd 43bd e88f 153d 779e b6bd
000001e0: adbe 1c3d 27a7 c03e 0d56 c0bd 7243 953e
000001f0: 427c 9dbd 3e65 293e a698 393e dc0f 0abe
00000200: ca70 abbc 85fa 5ebe 620a 063f 61ea aabe
00000210: 7ad5 e2bc 078b a93d 0be2 493e 6688 0cbe
00000220: 4e15 bb3e c0e1 a1be 437b 303e a177 563d
00000230: 4cbc 4ebd dd40 0c3e 748a 65be 503d 1b3e
00000240: 4b2a 89bd 2e61 5abe bde0 3ebe e1c1 e53d
00000250: bf93 85be 52db ecbc 3edc f33d 7311 793d
00000260: e0a4 60bd 627a cd3e cbba 013e 6b5f 933e
00000270: a510 053d 0c2d 343e 88f5 9ebb 5f35 533d
00000280: 149f 1b3e 5200 773d a1de 303e 76d9 a53d
00000290: 3d03 debe 4958 e5be 1203 a43d e3c4 23bd
000002a0: b993 75be 068b 79be 7c08 17be d2b1 11bd
000002b0: f284 52be 2a82 ca3e 5de3 433e 3b4d 6e3e
000002c0: 7940 3a3c 4f72 8f3d 2ded 8fbe 0c0f 39be
000002d0: 2a00 9f3d 019a a33c ff09 64be 7b1e 13be
000002e0: 26a5 5f3e 4de4 2abe 1ffb 98bd 6c05 0f3d
000002f0: 95ad bf3d 1399 4cbe 293a 333d a004 583e
00000300: d572 4bbe c18c 64be 76a9 65be 31d6 703e
00000310: f10e 85bd c957 0cbe 60ac 383e 2096 ad3e
00000320: fcf8 213f 2e4d 903e c2d5 ad3d 146e 9e3c
00000330: 563c f43d 7154 273e 565f 2f3d 911b eb3d
00000340: 21b4 443e 0781 1a3d 1c27 81be c549 58bd
00000350: b320 9d3c 1b6e 50be cd1e 47be 69bb 283e
00000360: 4b7e 24bd c610 fcbd 546b 503d 1f0c bb3d
00000370: 5a81 f5ba 9401 5e3e 8fe7 85be cbdc 1ebe
00000380: 2150 583e 9121 7fbd 29c7 4abe 88a9 99be
00000390: 2b1f a43c fb2f 373d a5e0 55bc 9423 a1be
000003a0: 567e 91be 6cfe 553d 14f1 89be 668e 86bc
000003b0: ab51 443c 3aa8 0bbe 110e 36bd 39fa 123e
000003c0: 37d8 3e3e b1da 9c3d d35a 35be 3ecb 34bd
000003d0: 14dd 01be f660 e23e b3dd aabe bcdf 2c3d
000003e0: bb96 92be c359 293e b142 403d 6ffa e03e
000003f0: 6d7d 853e 0f2d fb3d 21bb 033e 3ff3 14bd

hidden_layers.0.bias f4 [50]
-0.017027551 0.038786665 -0.01566429 -0.01476883 0.011712551 0.02907243 0.0022597276 0.024639228
0.03580013 0.008376222 0.013371226 -0.037948363 0.051406525 -0.0069834483 0.006408432 -0.01754313
-0.0012904392 0.0024038113 -0.018515939 0.016375242 -0.021513995 0.042115055 0.006047471 -0.013665498
-0.032050528 0.017497418 -0.03172692 0.0036003191 0.004694503 0.019993983 0.011474673 -0.023157591
-0.003937974 0.0068923277 0.0015297803 0.021950392 -0.022837356 0.0014551128 -0.0129127735 -0.0026597753
-0.020312488 -0.01019895 -0.0072642085 0.013731259 -0.007145331 -0.039117634 0.004346327 -0.0016157356
-0.005565335 -0.010383975
00000000: 5d7d 8bbc c4de 1e3d 6652 80bc f6f8 71bc
00000010: 00e6 3f3c 4e29 ee3c f017 143b 35d8 c93c
00000020: 28a3 123d 6c3c 093c fd12 5b3c be6f 1bbd
00000030: a68f 523d 69d5 e4bb d3fd d13b 9cb6 8fbc
00000040: f423 a9ba 4389 1d3b bdae 97bc 5f25 863c
00000050: 1e3e b0bc d680 2c3d dd29 c63b 41e5 5fbc
00000060: 6a47 03bd bf56 8f3c 16f4 01bd 55f3 6b3b
00000070: 58d4 993b 6cca a33c 4400 3c3c fdb4 bdbc
00000080: 1f0a 81bb 09d9 e13b e982 c83a 4fd1 b33c
00000090: 6815 bbbc 7cb9 be3a 1990 53bc a04f 2ebb
000000a0: 6066 a6bc 7f19 27bc 9908 eebb 13f9 603c
000000b0: 6123 eabb d039 20bd a26b 8e3b 17c7 d3ba
000000c0: 6a5d b6bb 8c21 2abc

hidden_layers.1.weight f4 [50, 50]
-0.4983492 -0.13184662 0.08611337 -0.22833924 -0.07814507 -0.2187858 0.05090279 -0.24621412
0.054651923 -0.11302647 -0.34213275 -0.3621829 0.33592373 -0.16414659 0.29082334 -0.20582226
-0.1609074 0.03184538 -0.37063345 0.2278528 -0.13411975 -0.09675114 0.12723891 0.1399641
-0.09748997 -0.03916637 -0.3613139 0.115025006 -0.4199423 -0.0894747 -0.29841936 -0.11938184
-0.15056482 -0.044223372 0.1708554 0.13768724 -0.09149017 -0.046656493 0.05772408 0.29928362
-0.07135432 0.2853338 0.38967428 -0.41660365 -0.010066729 0.05605291 -0.17035797 -0.06985477
0.2739488 0.09653688 -0.38968533 0.11297892 0.08115853 0.050935674 -0.21070017 -0.112264946
-0.08830259 -0.0152127575 -0.1447111 0.26884142 0.13566841 0.247961 0.15619701 -0.037775956
0.13015215 -0.07208115 0.12613535 -0.27389583 0.0034345642 -0.120629765 -0.027269004 -0.3846741
0.0017661201 0.13568166 0.5450122 -0.39482796 0.20151843 -0.35313264 0.56087023 0.12433593
0.35223398 0.16961385 -0.14821912 0.3063893 0.16333215 0.00026835204 0.20194812 -0.3881843
-0.047616657 0.03655523 0.108053826 0.22247808 -0.20581605 0.14677724 -0.05117815 -0.2818417
0.05900189 -0.35724968 -0.0319861 0.26847368 -0.11644389 0.0510295 -0.5062154 -0.6021812
0.052003324 0.12609023 0.0044332547 0.1893954 -0.20932467 -0.3085643 -0.035430863 -0.1990707
0.1279764 -0.13690035 0.3084685 0.036963332 -0.07965385 -0.046029445 0.13717434 -0.18585245
-0.1489653 -0.08304666 0.16560209 0.22221595 0.16656892 0.14296436 -0.21442854 -0.15567389
-0.22889832 -0.4746573 0.24107108 0.18508926 -0.3855769 -0.11326853 0.19339827 -0.012037486
0.11755188 -0.034371007 0.17930067 0.12961604 -0.057646193 0.2716552 0.20718254 0.116511606
-0.26013193 0.21900699 0.24095729 0.32706335 0.24707974 -0.1100432 0.027763737 0.025634238
0.23833841 0.076801546 -0.21987914 -0.1895289 -0.040481813 -0.18173932 0.08259809 -0.0035485832
0.27001944 0.116236344 0.28328806 0.10676474 0.4730349 0.22605461 0.08574252 -0.041964848
-0.17023723 0.17057194 -0.1964348 0.19372685 -0.006412858 0.01815791 -0.06999291 0.37849835
-0.024305338 0.030523613 0.058109514 -0.13712744 -0.06291228 0.26254028 0.018270243 -0.27957723
-0.114811964 0.07167625 -0.23451272 0.050654855 -0.2817117 -0.07703097 0.11425912 0.48658386
0.20662284 0.20999466 -0.15353249 -0.19655445 -0.022574252 -0.2722699 -0.22648577 -0.29773065
0.009652351 0.24247514 -0.042604987 0.038631137 0.17252845 0.008223377 0.20668384 0.16889122
-0.019732168 -0.20861651 -0.32590252 -0.234622 0.09379834 -0.0051738285 -0.062130682 -0.13330697
0.014943746 0.12768228 0.13063596 -0.112934425 0.1574557 0.35993785 0.34059674 -0.26481485
0.17295094 0.081226096 -0.23849674 -0.21925063 0.5300989 -0.33784324 0.48461246 -0.13789956
-0.054071367 -0.08451965 0.19091061 -0.13688928 0.122169815 0.025702737 0.4205221 -0.31725702
-0.20449892 -0.1683995 -0.12833436 -0.11538598 0.0671426 0.2981309 0.04119636 0.18835872
-0.123273164 -0.10958015 -0.21835789 -0.05854222 0.167781 0.22272485 0.18138707 0.05741578
00000000: a027 ffbe cd02 07be 355c b03d c3d1 69be
00000010: 860a a0bd 6209 60be 727f 503d 8e1f 7cbe
00000020: b2da 5f3d 6c7a e7bd 062c afbe 0970 b9be
00000030: 32fe ab3e 0b16 28be cce6 943e 12c3 52be
00000040: e9c4 24be 4d70 023d abc3 bdbe 3f52 693e
00000050: b056 09be 7625 c6bd eb4a 023e c052 0f3e
00000060: d2a8 c7bd ea6c 20bd 23fe b8be 3b92 eb3d
00000070: ad02 d7be 833e b7bd 6cca 98be 777e f4bd
00000080: aa2d 1abe 9123 35bd b8f4 2e3e e2fd 0c3e
00000090: 335f bbbd e11a 3fbd 1670 6c3d b43b 993e
000000a0: 3722 92bd 4617 923e 6383 c73e 134d d5be
000000b0: ecee 24bc bc97 653d 5272 2ebe 0510 8fbd
000000c0: 0443 8c3e 21b5 c53d d684 c7be 7e61 e73d
000000d0: 7236 a63d eda1 503d c9c1 57be 2aeb e5bd
000000e0: fdd7 b4bd ee3e 79bc 262f 14be 95a5 893e
000000f0: a9ec 0a3e 7de9 7d3e 1cf2 1f3e f6ba 1abd
00000100: 9b46 053e 489f 93bd a029 013e 133c 8cbe
00000110: 6d16 613b bd0c f7bd 3f63 dfbc 01f4 c4be
00000120: 287d e73a 22f0 0a3e eb85 0b3f e426 cabe
00000130: d95a 4e3e cdcd b4be 3195 0f3f d6a3 fe3d
00000140: 0358 b43e 41af 2d3e c1c6 17be 0fdf 9c3e
00000150: 8b40 273e 9ab1 8c39 7dcb 4e3e 18c0 c6be
00000160: af09 43bd f0ba 153d 534b dd3d 4bd1 633e
00000170: 71c1 52be c64c 163e 2ea0 51bd 8e4d 90be
00000180: f7ab 713d 6ee9 b6be db03 03bd 6275 893e
00000190: 227a eebd 4f04 513d 5597 01bf 8c28 1abf
000001a0: 7001 553d cc1d 013e d644 913b def0 413e
000001b0: 3559 56be 24fc 9dbe f41f 11bd 31d9 4bbe
000001c0: 3f0c 033e 9b2f 0cbe 95ef 9d3e dd66 173d
000001d0: 8f21 a3bd 5f89 3cbd 6e77 0c3e 1b50 3ebe
000001e0: 5c8a 18be 5e14 aabd 9893 293e 948c 633e
000001f0: 0b91 2a3e 4065 123e 2893 5bbe fa68 1fbe
00000200: 5264 6abe 4806 f3be 56db 763e 0a88 3d3e
00000210: 566a c5be 55f9 e7bd 320a 463e e038 45bc
00000220: 0abf f03d 9dc8 0cbd 989a 373e 11ba 043e
00000230: 6a1e 6cbd 6416 8b3e a927 543e a39d ee3d
00000240: 0330 85be 5e43 603e 82bd 763e d974 a73e
00000250: 7902 7d3e 545e e1bd c770 e33c e5fe d13c
00000260: fc0e 743e 214a 9d3d ff27 61be dd13 42be
00000270: 42d0 25bd df19 3abe 3029 a93d 598f 68bb
00000280: fd3f 8a3e 520d ee3d 220b 913e 79a7 da3d
00000290: a131 f23e dc7a 673e c699 af3d 55e3 2bbd
000002a0: ab52 2ebe 69aa 2e3e 3426 49be 5560 463e
000002b0: f422 d2bb e6bf 943c 7158 8fbd 89ca c13e
000002c0: fd1b c7bc a80c fa3c 3e04 6e3d 236b 0cbe
000002d0: 27d8 80bd ae6b 863e 7aab 953c bf24 8fbe
000002e0: 8922 ebbd ffca 923d 1a24 70be 777b 4f3d
000002f0: 843c 90be 6ac2 9dbd af00 ea3d 8521 f93e
00000300: f094 533e d708 573e 9f37 1dbe 9245 49be
00000310: a3ed b8bc f666 8bbe e3eb 67be 2770 98be
00000320: e524 1e3c 674b 783e 9182 2ebd af3b 1e3d
00000330: 4cab 303e 58bb 063c eea4 533e d2f1 2c3e
00000340: 5ba5 a1bc 919f 55be b2dc a6be c040 70be
00000350: 5819 c03d 3889 a9bb be7c 7ebd 9f81 08be
00000360: 9dd6 743c 25bf 023e 6fc5 053e 2a4a e7bd
00000370: 113c 213e c649 b83e b262 ae3e d095 87be
00000380: 0d1a 313e de59 a63d 7d38 74be 3d83 60be
00000390: 90b4 073f caf9 acbe 201f f83e 8b35 0dbe
000003a0: f079 5dbd a318 adbd 127e 433e b42c 0cbe
000003b0: 2b34 fa3d 8c8e d23c ac4e d73e 836f a2be
000003c0: 2a68 51be eb70 2cbe 156a 03be 7c4f ecbd
000003d0: 0f82 893d 9da4 983e 84bd 283d 1ce1 403e
000003e0: a476 fcbd 8f6b e0bd 3699 5fbe f8c9 6fbd
000003f0: c8ce 2b3e fc11 643e 88bd 393e cf2c 6b3d

hidden_layers.1.bias f4 [50]
-0.036693566 -0.022248564 -0.010393472 0.040292785 0.015551253 -0.013487583 0.002175131 0.016698666
0.03494343 0.0041249334 -0.009241647 -0.0077657406 0.015079855 0.0033417584 0.0035220417 0.03136737
-0.0014688297 0.013340332 0.0057541765 -0.008242665 0.009151843 0.005174081 0.01462166 -0.006133698
0.015606171 0.017096082 0.008678611 -0.0113703525 0.006984167 -0.0051189316 -0.018392606 -0.004205249
0.0046103885 0.047750566 0.004517245 0.0021135155 -0.014963099 0.010511917 0.01958381 0.031086033
0.0044453987 0.0019759887 0.044600286 0.013581234 -0.014891049 -0.0005558832 -0.019720325 0.0070507405
0.0057897135 0.015299217
00000000: fe4b 16bd 9f42 b6bc 6249 2abc 0c0a 253d
00000010: afca 7e3c 06fb 5cbc a58c 0e3b a4cb 883c
00000020: d820 0f3d 732a 873b 476a 17bc c177 febb
00000030: 7f11 773c 6701 5b3b 0ed2 663b 127b 003d
00000040: bf85 c0ba 6891 5a3c 888d bc3b 3e0c 07bc
00000050: 9df1 153c 568b a93b b08f 6f3c 30fd c8bb
00000060: 07b1 7f3c 150d 8c3c bc30 0e3c b74a 3abc
00000070: 70db e43b b6bc a7bb 17ac 96bc 2fcc 89bb
00000080: be12 973b 1996 433d 6605 943b e882 0a3b
00000090: c927 75bc 2d3a 2c3c 3a6e a03c 23a8 fe3c
000000a0: b5aa 913b 977f 013b caae 363d d383 5e3c
000000b0: 96f9 73bc b1b8 11ba 858c a1bc e609 e73b
000000c0: a3b7 bd3b 91a9 7a3c

hidden_lns.0.weight f4 [50]
1.0 1.0 1.0 1.0 1.0 1.0 1.0 1.0
1.0 1.0 1.0 1.0 1.0 1.0 1.0 1.0
1.0 1.0 1.0 1.0 1.0 1.0 1.0 1.0
1.0 1.0 1.0 1.0 1.0 1.0 1.0 1.0
1.0 1.0 1.0 1.0 1.0 1.0 1.0 1.0
1.0 1.0 1.0 1.0 1.0 1.0 1.0 1.0
1.0 1.0
00000000: 0000 803f 0000 803f 0000 803f 0000 803f
00000010: 0000 803f 0000 803f 0000 803f 0000 803f
00000020: 0000 803f 0000 803f 0000 803f 0000 803f
00000030: 0000 803f 0000 803f 0000 803f 0000 803f
00000040: 0000 803f 0000 803f 0000 803f 0000 803f
00000050: 0000 803f 0000 803f 0000 803f 0000 803f
00000060: 0000 803f 0000 803f 0000 803f 0000 803f
00000070: 0000 803f 0000 803f 0000 803f 0000 803f
00000080: 0000 803f 0000 803f 0000 803f 0000 803f
00000090: 0000 803f 0000 803f 0000 803f 0000 803f
000000a0: 0000 803f 0000 803f 0000 803f 0000 803f
000000b0: 0000 803f 0000 803f 0000 803f 0000 803f
000000c0: 0000 803f 0000 803f

hidden_lns.0.bias f4 [50]
0.0 0.0 0.0 0.0 0.0 0.0 0.0 0.0
0.0 0.0 0.0 0.0 0.0 0.0 0.0 0.0
0.0 0.0 0.0 0.0 0.0 0.0 0.0 0.0
0.0 0.0 0.0 0.0 0.0 0.0 0.0 0.0
0.0 0.0 0.0 0.0 0.0 0.0 0.0 0.0
0.0 0.0 0.0 0.0 0.0 0.0 0.0 0.0
0.0 0.0
00000000: 0000 0000 0000 0000 0000 0000 0000 0000
00000010: 0000 0000 0000 0000 0000 0000 0000 0000
00000020: 0000 0000 0000 0000 0000 0000 0000 0000
00000030: 0000 0000 0000 0000 0000 0000 0000 0000
00000040: 0000 0000 0000 0000 0000 0000 0000 0000
00000050: 0000 0000 0000 0000 0000 0000 0000 0000
00000060: 0000 0000 0000 0000 0000 0000 0000 0000
00000070: 0000 0000 0000 0000 0000 0000 0000 0000
00000080: 0000 0000 0000 0000 0000 0000 0000 0000
00000090: 0000 0000 0000 0000 0000 0000 0000 0000
000000a0: 0000 0000 0000 0000 0000 0000 0000 0000
000000b0: 0000 0000 0000 0000 0000 0000 0000 0000
000000c0: 0000 0000 0000 0000

hidden_lns.1.weight f4 [50]
1.0 1.0 1.0 1.0 1.0 1.0 1.0 1.0
1.0 1.0 1.0 1.0 1.0 1.0 1.0 1.0
1.0 1.0 1.0 1.0 1.0 1.0 1.0 1.0
1.0 1.0 1.0 1.0 1.0 1.0 1.0 1.0
1.0 1.0 1.0 1.0 1.0 1.0 1.0 1.0
1.0 1.0 1.0 1.0 1.0 1.0 1.0 1.0
1.0 1.0
00000000: 0000 803f 0000 803f 0000 803f 0000 803f
00000010: 0000 803f 0000 803f 0000 803f 0000 803f
00000020: 0000 803f 0000 803f 0000 803f 0000 803f
00000030: 0000 803f 0000 803f 0000 803f 0000 803f
00000040: 0000 803f 0000 803f 0000 803f 0000 803f
00000050: 0000 803f 0000 803f 0000 803f 0000 803f
00000060: 0000 803f 0000 803f 0000 803f 0000 803f
00000070: 0000 803f 0000 803f 0000 803f 0000 803f
00000080: 0000 803f 0000 803f 0000 803f 0000 803f
00000090: 0000 803f 0000 803f 0000 803f 0000 803f
000000a0: 0000 803f 0000 803f 0000 803f 0000 803f
000000b0: 0000 803f 0000 803f 0000 803f 0000 803f
000000c0: 0000 803f 0000 803f

hidden_lns.1.bias f4 [50]
0.0 0.0 0.0 0.0 0.0 0.0 0.0 0.0
0.0 0.0 0.0 0.0 0.0 0.0 0.0 0.0
0.0 0.0 0.0 0.0 0.0 0.0 0.0 0.0
0.0 0.0 0.0 0.0 0.0 0.0 0.0 0.0
0.0 0.0 0.0 0.0 0.0 0.0 0.0 0.0
0.0 0.0 0.0 0.0 0.0 0.0 0.0 0.0
0.0 0.0
00000000: 0000 0000 0000 0000 0000 0000 0000 0000
00000010: 0000 0000 0000 0000 0000 0000 0000 0000
00000020: 0000 0000 0000 0000 0000 0000 0000 0000
00000030: 0000 0000 0000 0000 0000 0000 0000 0000
00000040: 0000 0000 0000 0000 0000 0000 0000 0000
00000050: 0000 0000 0000 0000 0000 0000 0000 0000
00000060: 0000 0000 0000 0000 0000 0000 0000 0000
00000070: 0000 0000 0000 0000 0000 0000 0000 0000
00000080: 0000 0000 0000 0000 0000 0000 0000 0000
00000090: 0000 0000 0000 0000 0000 0000 0000 0000
000000a0: 0000 0000 0000 0000 0000 0000 0000 0000
000000b0: 0000 0000 0000 0000 0000 0000 0000 0000
000000c0: 0000 0000 0000 0000

output_layer.weight f4 [2, 50]
0.18945487 0.030365983 -0.032265443 0.073536046 -0.020467777 -0.086464785 0.028514072 -0.050461948
0.23351589 -0.1649635 -0.036164578 0.000965322 0.053945497 0.03781279 -0.018734973 0.19234289
-0.011846598 0.004597437 -0.16180244 -0.20476867 0.08737688 0.16325073 -0.2476236 -0.04196281
-0.17428511 0.14629908 0.28153142 0.20940833 0.06671752 -0.06024764 -0.30431345 0.4211636
0.13930246 0.116623856 -0.024573507 0.13690646 -0.15671262 -0.19443977 0.21888383 0.09458451
-0.15623656 -0.09616653 -0.010735423 0.11004797 -0.024562936 0.30909666 -0.09770025 0.12568432
0.09480278 0.23862554 -0.4121317 0.08552974 0.18169746 -0.13781433 -0.12892541 0.051926836
-0.18870202 -0.08254459 -0.1005036 -0.051245455 0.13038349 -0.098508194 -0.22474173 -0.35192832
-0.11317603 -0.3086008 -0.0034817779 0.11146123 0.16243684 -0.45035332 0.18660189 0.008294657
0.32515186 0.11565873 -0.10863088 0.0883161 -0.14479591 -0.37120757 -0.007829622 -0.09810408
-0.052260634 -0.3191354 -0.0010234476 -0.35582262 -0.08800676 0.005623142 0.28030184 -0.08415328
-0.054514047 -0.11541377 -0.17886655 0.20900863 -0.1255425 0.09353428 -0.30197042 -0.043337893
0.15564023 0.09902826 0.24157718 -0.013651398
00000000: 7500 423e 15c2 f83c c528 04bd 119a 963d
00000010: 0aac a7bc 7314 b1bd 5896 e93c 30b1 4ebd
00000020: ca1e 6f3e 31ec 28be 4f21 14bd aa0d 7d3a
00000030: f4f5 5c3d 96e1 1a3d 167a 99bc 89f5 443e
00000040: 3c18 42bc 19a6 963b 8aaf 25be e1ae 51be
00000050: a6f2 b23d 332b 273e 0a91 7dbe 32e1 2bbd
00000060: cc77 32be 6dcf 153e e324 903e 236f 563e
00000070: 32a3 883d 3bc6 76bd f9ce 9bbe c1a2 d73e
00000080: 4ea5 0e3e 7dd8 ee3d 614e c9bc 3531 0c3e
00000090: 4679 20be 381b 47be 1523 603e 86b5 c13d
000000a0: 7afc 1fbe f5f2 c4bd a1e3 2fbc d560 e13d
000000b0: 3638 c9bc eb41 9e3e 1217 c8bd 64b3 003e
000000c0: f627 c23d 415a 743e ed02 d3be 372a af3d
000000d0: e60e 3a3e 331f 0dbe 0605 04be 3cb1 543d
000000e0: 1a3b 41be 230d a9bd d5d4 cdbd c1e6 51bd
000000f0: 4083 053e aabe c9bd b222 66be f32f b4be
00000100: d6c8 e7bd ed00 9ebe 8a2e 64bb c945 e43d
00000110: d855 263e b694 e6be 9114 3f3e 50e6 073c
00000120: 4e7a a63e 7cde ec3d de79 debd 12df b43d
00000130: 6145 14be eb0e bebe d147 00bc cbea c8bd
00000140: 3f0f 56bd b765 a3be 3425 86ba 622e b6be
00000150: e33c b4bd 5542 b83b b983 8f3e 8e58 acbd
00000160: 1f4a 5fbd 0e5e ecbd cb28 37be 5c06 563e
00000170: 378e 00be e78e bf3d de9b 9abe 1383 31bd
00000180: 2760 1f3e 54cf ca3d 0260 773e 1daa 5fbc

output_layer.bias f4 [2]
0.0014548897 -0.015578341
00000000: ffb1 be3a 4c3c 7fbc

exp_avg f4 [50, 2]
0.072706796 -0.044511765 0.037230954 -0.027526645 0.09185841 0.025762418 0.038986865 -0.046568953
-0.104426734 0.035725366 -0.009363441 0.01614072 -0.043789398 -0.009534332 0.016063016 0.007803094
0.040227316 -0.042743616 -0.0666038 0.0235983 0.030208774 0.02451544 -0.0074512074 0.077138655
0.08142367 -0.18895441 0.00953234 0.060720243 -0.016789678 -0.05809851 0.14695305 0.09897875
0.022469977 -0.047647893 -0.040901776 -0.047536016 -0.03165794 0.14086498 0.057828028 -0.035388313
-0.044131376 0.12507455 0.097548656 -0.066670656 -0.021484045 0.11184475 -0.0014791128 0.009820039
0.016040023 0.016251521 -0.049701948 -0.027246958 -0.051778283 -0.04576611 -0.057027787 -0.020186352
0.014495197 -0.017429551 0.039354865 0.081303544 0.06487633 -0.05684779 0.02696605 -0.08019141
-0.07503357 0.036117904 -0.08637604 0.04619467 0.08692428 -0.01062609 -0.38563243 0.0124108195
0.05243721 -0.10121639 0.061597887 -0.04426214 -0.008724543 0.019552875 -0.009674582 -0.018662589
-0.20792367 0.09170245 -0.020778365 -0.0684708 0.05851059 -0.014838585 0.08867013 0.17036603
-0.15057284 -0.07915836 0.14799075 0.08033283 -0.046444394 0.0028624304 0.0135240145 -0.015850687
0.030427305 -0.095934495 0.092894435 -0.0032128484
00000000: 4de7 943d f851 36bd 7c7f 183d 8f7f e1bc
00000010: 4320 bc3d b50b d33c b1b0 1f3d 16bf 3ebd
00000020: afdd d5bd c354 123d 1e69 19bc 8b39 843c
00000030: 835c 33bd e335 1cbc 9696 833c 19b1 ff3b
00000040: 66c5 243d ee13 2fbd 9367 88bd 3951 c13c
00000050: 6478 f73c 9bd4 c83c 4229 f4bb dffa 9d3d
00000060: 74c1 a63d 447d 41be 882d 1c3c cab5 783d
00000070: 828a 89bc b4f8 6dbd dc7a 163e 5fb5 ca3d
00000080: f512 b83c 702a 43bd 9f88 27bd 20b5 42bd
00000090: c2ab 01bd e93e 103e 15dd 6c3d 56f3 10bd
000000a0: 1ac3 34bd 8b13 003e 97c7 c73d a08a 88bd
000000b0: 4fff afbc dc0e e53d cade c1ba 3be4 203c
000000c0: 5e66 833c e921 853c 4594 4bbd 0335 dfbc
000000d0: 7715 54bd 3f75 3bbd f895 69bd d95d a5bc
000000e0: 437d 6d3c 6bc8 8ebc 9132 213d 7982 a63d
000000f0: e2dd 843d 3ad9 68bd e8e7 dc3c 653b a4bd
00000100: 33ab 99bd 5ef0 133d ece5 b0bd 9f36 3d3d
00000110: 5b05 b23d 0d19 2ebc 9d71 c5be c056 4b3c
00000120: 66c8 563d 8a4a cfbd 114e 7c3d 384c 35bd
00000130: 63f1 0ebc 5a2d a03c 2382 1ebc 49e2 98bc
00000140: f1e9 54be 7ece bb3d 6437 aabc 6b3a 8cbd
00000150: cda8 6f3d 891d 73bc af98 b53d 6f74 2e3e
00000160: c42f 1abe c71d a2bd e38a 173e 8a85 a43d
00000170: 7a3c 3ebd 9d97 3b3b d493 5d3c 4dd9 81bc
00000180: af42 f93c 4e79 c4bd 703f be3d a78e 52bb

exp_avg_sq f4 [50, 2]
0.43529743 0.08125954 1.1416754 0.07070554 0.18975835 0.2145979 0.13644168 0.22790632
0.44658688 0.39929354 2.1358476 0.32579553 0.026607038 0.16191526 0.050724957 0.13495915
0.16642767 0.05773954 0.87851685 0.15485945 0.27344152 0.15708154 0.7515419 1.3121275
0.5453177 0.21613283 1.5474669 0.42146552 0.11076338 0.3172025 1.183473 0.17269142
0.1427077 0.106494166 0.4564525 0.0706441 0.36796942 0.2860187 0.06456522 0.06269293
0.47422472 0.740733 0.18437366 0.25788403 1.2177478 0.19827276 0.17378792 0.14419217
0.27412271 0.10213328 0.85630107 0.12966968 0.18328586 0.14839876 1.1357943 0.47998267
0.57304204 0.10158167 0.12704557 0.106751956 0.1859381 0.17112762 0.3299759 0.09760069
0.15635473 0.28548273 0.6919065 0.50259197 0.64713544 0.45373333 0.7111546 0.10394736
1.8351322 0.4688235 0.19584446 0.13851705 0.16178465 0.056935236 0.9332599 0.6765976
0.16101697 0.05568345 1.2907808 0.20863342 1.6597006 2.0047271 1.513089 0.33043012
0.33857688 0.076916866 1.0327896 0.5647866 1.0343869 0.09790311 0.095055856 0.28169227
0.2244364 0.0906839 0.8096701 0.42141256
00000000: 4edf de3e 676b a63d 6b22 923f 11ce 903d
00000010: 0350 423e 8dbf 5b3e 5eb7 0b3e 4660 693e
00000020: 09a7 e43e 3470 cc3e bab1 0840 acce a63e
00000030: 01f7 d93c 1dcd 253e f9c4 4f3d bb32 0a3e
00000040: 046c 2a3e 4c80 6c3d 7be6 603f 7a93 1e3e
00000050: 8700 8c3e fcd9 203e 0d65 403f cbf3 a73f
00000060: f199 0b3f ed51 5d3e 6513 c63f 54ca d73e
00000070: e9d7 e23d 5e68 a23e 0b7c 973f 05d6 303e
00000080: f821 123e 9d19 da3d 24b4 e93e dbad 903d
00000090: 7d66 bc3e 0b71 923e c53a 843d 2765 803d
000000a0: 95cd f23e aea0 3d3f 73cc 3c3e 6009 843e
000000b0: 29df 9b3f 0408 4b3e 76f5 313e 1da7 133e
000000c0: d059 8c3e 412b d13d 8c36 5b3f 21c8 043e
000000d0: 4aaf 3b3e d8f5 173e b561 913f 4ac0 f53e
000000e0: e2b2 123f 0d0a d03d 3c18 023e c5a0 da3d
000000f0: 8f66 3e3e 143c 2f3e 9af2 a83e dfe2 c73d
00000100: 741b 203e cb2a 923e c920 313f dea9 003f
00000110: abaa 253f bc4f e83e 3a0e 363f 5ae2 d43d
00000120: 9de5 ea3f a209 f03e 738b 483e 6ad7 0d3e
00000130: e0aa 253e ec34 693d 1fea 6e3f 8035 2d3f
00000140: a2e1 243e 5414 643d 4e38 a53f 00a4 553e
00000150: 1271 d43f 734d 0040 e6ac c13f 232e a93e
00000160: f359 ad3e 9786 9d3d 7332 843f db95 103f
00000170: ca66 843f 6d81 c83d a5ac c23d f839 903e
00000180: a8d2 653e 7bb8 b93d 8a46 4f3f 63c3 d73e

exp_avg f4 [50]
0.2482729 0.022417137 -1.0921874 -0.7972032 -0.96419054 0.21384893 0.6260791 0.05396359
-0.99281096 0.24600318 0.03741179 -0.39985603 0.7305333 0.5822884 0.15497316 1.3465278
0.4488015 0.08499105 0.7123304 -0.3004518 1.0388377 -0.45449194 -0.5601254 0.20242432
0.5738396 -0.36689833 0.024163716 -0.22404115 -0.19583054 0.57780683 0.9258295 -0.3936995
0.45650697 0.13579239 0.4452324 -2.2642987 -0.98327106 0.64031464 -0.17274174 2.005229
-1.2321737 -0.06772965 -0.023258144 0.32456636 -0.14201793 -1.0585287 0.015239229 0.07029206
-0.0981252 -0.16058542
00000000: 403b 7e3e 25a4 b73c cccc 8bbf 8215 4cbf
00000010: 31d5 76bf 37fb 5a3e b846 203f ed08 5d3d
00000020: dc28 7ebf 42e8 7b3e 1b3d 193d eeb9 ccbe
00000030: 3b04 3b3f da10 153f 49b1 1e3e 065b ac3f
00000040: 4fc9 e53e ca0f ae3d 495b 363f d1d4 99be
00000050: a2f8 843f 2bb3 e8be 6164 0fbf 5248 4f3e
00000060: 27e7 123f 19da bbbe fcf2 c53c 0b6b 65be
00000070: cd87 48be 26eb 133f 2a03 6d3f fb92 c9be
00000080: 48bb e93e 290d 0b3e 80f5 e33e 45ea 10c0
00000090: a7b7 7bbf a9eb 233f 36e3 30be ac55 0040
000000a0: deb7 9dbf d8b5 8abd dd87 bebc 902d a63e
000000b0: 266d 11be de7d 87bf f6ad 793c 49f5 8f3d
000000c0: ddf5 c8bd 8170 24be

exp_avg_sq f4 [50]
1.3867258 5.1580005 2.8148932 2.2570555 6.485545 5.340699 1.172221 3.9167624
2.7833505 3.180809 4.255938 4.6296134 4.776159 13.8073 0.9981138 5.9527683
2.8479044 3.7170184 2.6378853 0.96589595 1.9516987 6.3448887 3.947743 2.9801018
3.1048167 4.81995 1.9701084 1.1934434 2.2051213 0.9050978 1.7800761 4.816929
6.057618 4.157278 1.5856762 6.58928 5.4387264 4.350269 2.0145628 10.878305
1.435915 6.1295223 10.796839 5.558734 1.924923 4.6033387 1.4797044 2.0477898
1.3074979 11.288682
00000000: 3b80 b13f 570e a540 3627 3440 9973 1040
00000010: 9689 cf40 02e7 aa40 560b 963f 3cac 7a40
00000020: 6a22 3240 6092 4b40 a530 8840 cb25 9440
00000030: 4bd6 9840 b3ea 5c41 6384 7f3f 147d be40
00000040: 1144 3640 a1e3 6d40 1dd3 2840 f544 773f
00000050: 43d1 f93f 5409 cb40 d2a7 7c40 fdb9 3e40
00000060: 51b5 4640 083d 9a40 832c fc3f c1c2 983f
00000070: b520 0d40 7db4 673f 89d9 e33f 4824 9a40
00000080: 02d8 c140 6c08 8540 70f7 ca3f 62db d240
00000090: 0c0a ae40 6735 8b40 99ee 0040 8a0d 2e41
000000a0: 10cc b73f 0c25 c440 dabf 2c41 26e1 b140
000000b0: e063 f63f 8d4e 9340 f466 bd3f fd0e 0340
000000c0: 175c a73f 719e 3441

exp_avg f4 [50]
-0.0136646265 0.03013976 -0.18376423 -0.13730323 -0.10026797 -0.003488864 -0.033622548 -0.04574923
-0.16987713 0.06619591 0.01228318 0.038396217 -0.05994411 0.013570602 0.013380873 -0.058712874
-0.015745165 0.037148174 0.11484931 0.019850055 -0.041742034 -0.001274239 0.040789302 -0.048680536
-0.036155242 -0.035345335 0.042088732 0.022237703 -0.043481722 0.052542984 -0.08514567 0.019074645
0.020158468 0.05544508 -0.09277902 -0.26067165 0.001987948 0.027874347 -0.007884626 -0.35847798
-0.08073171 0.019553617 0.024380947 0.081143364 0.08630336 -0.06417898 0.01740227 -0.01623041
0.11084424 -0.036614925
00000000: 99e1 5fbc a8e7 f63c b12c 3cbe 3899 0cbe
00000010: 4b59 cdbd 6da5 64bb ccb7 09bd 8b63 3bbd
00000020: 45f4 2dbe b991 873d 643f 493c 5a45 1d3d
00000030: f587 75bd 3b57 5e3c 733b 5b3c e97c 70bd
00000040: 01fc 80bc af28 183d 1d36 eb3d 959c a23c
00000050: b2f9 2abd 5e04 a7ba af12 273d 3e65 47bd
00000060: 8517 14bd 45c6 10bd 3c65 2c3d d82b b63c
00000070: e419 32bd 5037 573d da60 aebd 6e42 9c3c
00000080: 5f23 a53c 611a 633d ed02 bebd c176 85be
00000090: 3c48 023b be58 e43c 852e 01bc 6d8a b7be
000000a0: ab56 a5bd e82e a03c 8dba c73c 7e2e a63d
000000b0: d1bf b03d 4570 83bd 358f 8e3c a3f5 84bc
000000c0: 4e02 e33d 88f9 15bd

exp_avg_sq f4 [50]
0.27427828 0.107087255 0.2583812 0.9100319 0.33177373 1.4151791 0.033493716 0.067699224
0.036222033 0.6253429 0.4285438 0.15822583 0.22302729 0.09442085 0.13441531 0.86835366
0.092923 0.21852754 0.0991667 0.11884049 0.18921085 0.109294474 0.49024525 0.11831
0.06909376 0.12303593 0.12420293 0.29427773 0.36724812 0.03941185 0.2078871 0.07651774
0.3275453 0.0852823 0.42180005 0.087137304 0.48152217 0.08304643 0.034471456 0.31041846
0.023931772 0.15885566 0.21193269 0.54686046 0.035300203 0.1028428 0.34293735 0.27090275
0.30303162 0.45069516
00000000: 346e 8c3e 9050 db3d 8a4a 843e daf7 683f
00000010: 3fde a93e 9724 b53f b530 093d e4a5 8a3d
00000020: 8e5d 143d 7916 203f 186a db3e f405 223e
00000030: 4461 643e b85f c13d 2ba4 093e 6d4c 5e3f
00000040: 6a4e be3d afc5 5f3e e917 cb3d a562 f33d
00000050: 7dc0 413e c8d5 df3d 6d01 fb3e 834c f23d
00000060: 0781 8d3d 43fa fb3d 1b5e fe3d 92ab 963e
00000070: f207 bc3e 526e 213d 5be0 543e 55b5 9c3d
00000080: 04b4 a73e 7da8 ae3d 2df6 d73e 0b75 b23d
00000090: 138a f63e 3f14 aa3d f131 0d3d 2bef 9e3e
000000a0: 900c c43c 0fab 223e e204 593e 0cff 0b3f
000000b0: f296 103d 3f9f d23d 7c95 af3e c4b3 8a3e
000000c0: f626 9b3e 84c1 e63e

exp_avg f4 [50]
-0.018264567 -0.007896323 0.18885148 0.0015671664 0.24994223 0.050793875 -0.050500426 0.0065856217
0.14217103 -0.023114149 0.028504366 -0.08736225 0.0051594763 0.072151706 -0.103897646 -0.15671764
-0.022052115 -0.17033942 -0.10684771 0.008704779 -0.006665725 -0.14754662 -0.07186534 -0.077081606
-0.02448962 0.04392497 -0.035387047 0.039873444 0.026925722 0.08966928 -0.09612486 0.12954068
-0.07114969 -0.18310717 -0.16043986 -0.04982523 -0.054290194 0.056781236 -0.07926552 -0.6462242
0.13200837 0.031954724 0.0830429 -0.043270335 -0.20555197 0.2051018 0.02445571 -0.02290275
0.108350575 0.0073002647
00000000: 939f 95bc 945f 01bc 4862 413e 6169 cd3a
00000010: dbf0 7f3e 3d0d 503d 89d9 4ebd 33cc d73b
00000020: 4895 113e e259 bdbc fd81 e93c fbea b2bd
00000030: d310 a93b 46c4 933d 4ac8 d4bd 977a 20be
00000040: a3a6 b4bc 756d 2ebe f9d2 dabd 7d9e 0e3c
00000050: 276c dabb 7616 17be 232e 93bd f6dc 9dbd
00000060: 759e c8bc abea 333d 02f2 10bd 5652 233d
00000070: 5593 dc3c 87a4 b73d 1cdd c4bd 50a6 043e
00000080: eeb6 91bd 7280 3bbe 594a 24be 8a15 4cbd
00000090: 655f 5ebd 7193 683d f655 a2bd f36e 25bf
000000a0: 342d 073e f5e2 023d 6512 aa3d 3c3c 31bd
000000b0: 377c 52be 3506 523e 5757 c83c 8c9e bbbc
000000c0: e8e6 dd3d 0f37 ef3b

exp_avg_sq f4 [50]
0.5418295 0.52648824 0.51387686 0.62210256 1.0811071 6.2576556 0.17124021 0.30585244
0.64333665 0.79243106 0.5092626 6.089796 2.4240875 0.99371034 0.309981 1.1326439
0.86806864 3.1908903 0.47642955 0.23137707 0.54290146 1.5826486 1.8056895 0.5645802
1.166797 1.1229954 0.23018776 0.33409098 4.8545394 0.2582472 1.6337687 1.8126109
1.0892557 5.1912546 3.1076798 2.0489714 1.5027194 0.84022975 0.4458477 1.5255592
0.23889554 3.8208494 2.376427 1.4352657 0.4355237 1.5102682 0.43969733 1.0183557
0.755715 3.5978873
00000000: 57b5 0a3f efc7 063f 6f8d 033f 1d42 1f3f
00000010: b861 8a3f b73e c840 9859 2f3e b198 9c3e
00000020: b6b1 243f c3dc 4a3f 095f 023f 9cdf c240
00000030: 4024 1b40 cd63 7e3f d4b5 9e3e 7afa 903f
00000040: bf39 5e3f 8c37 4c40 93ee f33e 1cee 6c3e
00000050: 97fb 0a3f 3b94 ca3f d520 e73f 5488 103f
00000060: 9b59 953f 50be 8f3f 57b6 6b3e f90d ab3e
00000070: 6358 9b40 fa38 843e 551f d13f a203 e83f
00000080: bb6c 8b3f c21e a640 3ae4 4640 5922 0340
00000090: 1c59 c03f 4c19 573f 2646 e43e 8645 c33f
000000a0: 08a1 743e cc88 7440 6117 1840 c9b6 b73f
000000b0: f6fc de3e 7850 c13f 0220 e13e 7b59 823f
000000c0: 8a76 413f c943 6640

exp_avg f4 [50, 50]
-0.0060480186 -0.0077391756 -0.078898296 -0.014009428 -0.0635166 -0.007351527 0.10604219 -0.0025144224
-0.015041667 0.056795616 -0.017710712 -0.0030240475 0.008574967 -0.018576903 0.033125155 0.0031751364
-0.02327868 0.010731907 0.019364761 -0.041980445 0.023759663 -0.021456033 0.014788746 -0.021407535
0.035575073 -0.017683683 0.04357273 0.00900319 -0.012397209 -0.014125718 0.0179076 -0.053400178
0.015949218 0.01143246 0.0089705475 -0.037840236 -0.07748626 -0.04467415 -0.014763808 0.10848751
-0.100492835 -0.006014214 -0.011260696 0.03453399 0.025023788 -0.052203774 -0.0029671865 0.012271333
0.010016943 0.037843082 0.006552514 0.040415112 -0.024101071 -0.026369417 0.012408657 0.02082464
0.022567444 -0.033648636 -0.032220807 0.0015522889 0.040633082 0.0048503457 0.0037195964 0.03230353
-0.02289927 0.022613501 0.0062225536 0.022376178 0.02155691 -0.028116984 0.016336283 -0.0037422206
-0.008706207 0.016632458 -0.018553752 -0.030527491 -0.021115573 0.014334937 0.009037704 0.015679412
-0.023786172 -0.008633522 -0.004321887 0.004371714 0.030891245 -0.02937786 -0.008159843 0.0021872523
0.017934939 0.053409368 0.009271689 -0.007777601 0.0061821244 0.015864493 -0.014359184 0.002843764
-0.004419464 0.013177617 -0.024639625 -0.025403982 -0.047369186 -0.046828162 0.00882326 0.06659632
0.05458602 0.061391674 0.018280681 -0.09267934 0.00081785955 0.03532761 -0.050192203 -0.019366786
0.03271828 0.07202776 0.0014773078 -0.024540631 -0.017633952 0.042648494 -0.0053332443 -0.06645814
-0.0272426 -0.026409488 -0.02546539 -0.016623028 -0.06711408 -0.008998241 0.04876102 0.05575331
-0.035736635 -0.018340586 -0.07058897 -0.0016315244 0.031629782 -0.035105675 0.053308554 0.029938458
-0.017908365 -0.038360503 -0.03527318 -0.016281867 0.086311154 0.008531547 -0.031869795 -0.0038587367
-0.0009860095 0.01128406 0.04805727 -0.06373926 0.0041861315 -0.016703734 0.053169746 0.0111572975
-0.004553183 -0.078203015 -0.018183293 0.01900467 0.009161341 -0.002191631 0.001391843 0.009113396
-0.008324165 0.03928286 -0.01173097 -0.038413987 -0.031497955 0.018242257 -0.0068290057 -0.05439164
0.017447758 0.00994435 0.035852704 0.0133209955 0.03181847 -0.006921326 0.04100466 0.007568474
0.011192059 -0.008650014 0.04997788 0.026892645 0.033882536 -0.013564576 -0.0074145817 0.046141244
-0.008628991 0.00029322895 -0.01163606 -0.0038989212 0.050911784 0.02968665 -0.03038125 -0.024782825
0.023826541 0.015876984 -0.019696368 0.010508118 -0.03048887 0.04854027 -0.025270749 0.0069031324
0.004194283 0.029888231 -0.025863934 0.02991025 -0.02537613 -0.033169664 -0.03192881 0.036775284
-0.02034086 -0.028513728 0.030674333 -0.04230707 0.004393179 0.01961528 0.026790863 0.0066203233
0.034814034 -0.022355102 -0.03645314 0.016032884 -0.022994302 -0.0051256046 -0.036031332 0.033663638
-0.021146249 -0.023160595 -0.03223503 -0.023182305 -0.041543476 0.0012793472 0.023441268 0.026585236
-0.011838469 -0.037811015 -0.0013398256 -0.0194567 0.02846258 0.031066103 -0.033378147 0.014547151
-0.037059702 0.03372699 -0.0009813801 -0.03231249 0.01609475 -0.009846921 0.0034363985 -0.011419291
0.038200337 -0.024161387 -0.044050917 -0.00027453693 -0.09668189 -0.034429733 -0.09323304 -0.0049721687
00000000: 752e c6bb e998 fdbb 6e95 a1bd cd87 65bc
00000010: fe14 82bd 14e5 f0bb a62c d93d 02c9 24bb
00000020: 5371 76bc 85a2 683d 0e16 91bc 192f 46bb
00000030: 057e 0c3c 972e 98bc 3eae 073d f315 503b
00000040: eeb2 bebc e1d4 2f3c d9a2 9e3c b0f3 2bbd
00000050: a0a3 c23c 90c4 afbc 7f4c 723c db5e afbc
00000060: 2bb7 113d 5fdd 90bc 5279 323d 1e82 133c
00000070: aa1d 4bbc 8e6f 67bc f6b2 923c 25ba 5abd
00000080: efa7 823c 364f 3b3c 34f9 123c 5dfe 1abd
00000090: 1eb1 9ebd 3efc 36bd e6e3 71bc b32e de3d
000000a0: 30cf cdbd e212 c5bb c87e 38bc 8373 0d3d
000000b0: b0fe cc3c a0d3 55bd 2175 42bb b30d 493c
000000c0: 1b1e 243c 5901 1b3d 79b6 d63b 518a 253d
000000d0: 9c6f c5bc ad04 d8bc ae4d 4b3c 6f98 aa3c
000000e0: 5cdf b83c 27d3 09bd f7f9 03bd 2c76 cb3a
000000f0: e06e 263d a6ef 9e3b 79c4 733b b550 043d
00000100: 4097 bbbc f33f b93c 90e6 cb3b 3f4e b73c
00000110: 1e98 b03c 9755 e6bc abd3 853c 0b40 75bb
00000120: 7ba4 0ebc cb40 883c 0afe 97bc ca14 fabc
00000130: 91fa acbc 15dd 6a3c e112 143c 1c72 803c
00000140: 38db c2bc 9e73 0dbc 9e9e 8dbb 9840 8f3b
00000150: a30f fd3c d6a9 f0bc ddb0 05bc 0158 0f3b
00000160: 4bec 923c c8c3 5a3d 48e8 173c 3fdb febb
00000170: 6b93 ca3b 41f6 813c c842 6bbc 715e 3a3b
00000180: 27d1 90bb efe6 573c 0ad9 c9bc 031c d0bc
00000190: 3106 42bd e3ce 3fbd 6f8f 103c a763 883d
000001a0: 9795 5f3d d675 7b3d 5ec1 953c aace bdbd
000001b0: a065 563a afb3 103d 5796 4dbd 18a7 9ebc
000001c0: 9a03 063d 4a83 933d 39a2 c13a 6f09 c9bc
000001d0: 1475 90bc 30b0 2e3d 7fc2 aebb 351b 88bd
000001e0: e02b dfbc b658 d8bc cb9c d0bc 042d 88bc
000001f0: 1b73 89bd 5c6d 13bc a3b9 473d 955d 643d
00000200: 9460 12bd ff3e 96bc f390 90bd e0d8 d5ba
00000210: 3b8e 013d f8ca 0fbd 125a 5a3d 7f41 f53c
00000220: 90b4 92bc e71f 1dbd 9c7a 10bd 8d61 85bc
00000230: e7c3 b03d e7c7 0b3c e789 02bd dce2 7cbb
00000240: fd3c 81ba c7e0 383c b3d7 443d bb89 82bd
00000250: d12b 893b 45d6 88bc 85c8 593d 19cd 363c
00000260: de32 95bb e728 a0bd 21f5 94bc afaf 9b3c
00000270: 7319 163c 77a1 0fbb 806e b63a 5a50 153c
00000280: 1462 08bc 10e7 203d 4133 40bc fc57 1dbd
00000290: 0004 01bd c970 953c dac5 dfbb c5c9 5ebd
000002a0: 9aee 8e3c a1ed 223c 49da 123d 4e40 5a3c
000002b0: 1654 023d 4acc e2bb 81f4 273d f600 f83b
000002c0: e65e 373c cab8 0dbc 9bb5 4c3d f74d dc3c
000002d0: 6ac8 0a3d f53d 5ebc 05f6 f2bb 9afe 3c3d
000002e0: 9d60 0dbc 86bc 9939 2ca5 3ebc 0b85 7fbb
000002f0: e088 503d 6b31 f33c 19e2 f8bc 5a05 cbbc
00000300: e12f c33c 7310 823c 475a a1bc 3e2a 2c3c
00000310: cbc3 f9bc 2ad2 463d 9a04 cfbc ac33 e23b
00000320: 3270 893b 2ad8 f43c 9ae0 d3bc 5706 f53c
00000330: 9ae1 cfbc eadc 07bd c9c7 02bd aea1 163d
00000340: e0a1 a6bc 9f95 e9bc bd48 fb3c 2e4a 2dbd
00000350: a8f4 8f3b 39b0 a03c 8378 db3c 4cef d83b
00000360: 2999 0e3d 0c22 b7bc e34f 15bd 6557 833c
00000370: 8c5e bcbc b0f4 a7bb 9795 13bd e2e2 093d
00000380: e63a adbc 4abb bdbc e108 04bd d1e8 bdbc
00000390: 7e29 2abd c5af a73a e707 c03c 48c9 d93c
000003a0: 23f6 41bc b9df 1abd 169d afba a863 9fbc
000003b0: 5b2a e93c 577e fe3c 86b7 08bd 2c57 6e3c
000003c0: eacb 17bd 5025 0a3d a7a1 80ba 1a5a 04bd
000003d0: 23d9 833c fb54 21bc 3335 613b fa17 3bbc
000003e0: f577 1c3d 1aee c5bc bc6e 34bd b9ef 8fb9
000003f0: 2801 c6bd 3106 0dbd f7f0 bebd 93ed a2bb
