weights/checkpoint/example0005_warm_adam.pth (torch, 73855 bytes, 25 tensors)

a f4 [5]
00000000: cdcc 4c3e cdcc 4c3e cdcc 4c3e cdcc 4c3e
00000010: cdcc 4c3e
0.2 0.2 0.2 0.2 0.2

input_layer.weight f4 [50, 2]
00000000: 7e9c e0bf 58be 0c3f 95a2 0fbf 1343 5fbf
00000010: b423 8dbf 824e 54be f04e a8bf 0258 733f
00000020: a4c9 29bf d8ca f5be ee5f 1d3e 3d41 6bbf
00000030: 696c 333f 4d0e 88be 6fdb a03e 7e4d d63d
00000040: 09ae 42bf 1ad5 cdbf 4bd7 1840 8cee c93e
00000050: 321d 0740 c75d 9abd 28c1 6fbe c99d 61be
00000060: dd5c c03e 627d 5ebe 2e3e 9abe 5cf9 013e
00000070: cdbb cdbf 74fe 9fbe d1c9 9abf 70a3 81be
00000080: 0537 8dbe 5459 b63f 495b afbe bddb fe3d
00000090: e215 073f 9718 b03f 248a 60bf abd3 da3f
000000a0: 147e 6dbf 5488 92be 5b1c 9c3f 9e5d 9ebe
000000b0: 0071 5cbf f285 523f 17f0 3d40 9a02 84be
000000c0: 0d17 433f 4d73 9f3f d9ae f9bf 3085 b53f
000000d0: 5b6a 95bf da62 fa3d 3746 d63f a281 2abe
000000e0: 8ed7 7dbe ca80 a2bf 0cb1 2cc0 59c9 a83e
000000f0: a7f4 c53f 77e3 8fbf 581e 293f de0a 6bbf
00000100: 03bc 4b3f 01b1 fdbe 2a7f 973e 5465 0a3f
00000110: 2455 ce3e aa6f c83e be6a 4b3f 4c75 8bbf
00000120: 5498 74be dcd3 a0be 1343 c0be cfc7 173f
00000130: 8065 e5bf 1875 243f 0608 5f3e fcad 573f
00000140: acc1 2e3f 9466 d7be b77d fb3e 0663 f4be
00000150: f981 94bd f480 6dbe 6b48 943f d635 513f
00000160: c2dd 90be 1de1 9dbe 0b3f 7e3f 8f72 62bf
00000170: e626 58bf 92cd 1abf 321f 2e3f cbe3 15bf
00000180: 253e 993f 3608 0c40 e6dd 6bbd 7904 eebe
-1.7547758 0.5497794 -0.56107455 -0.8721172 -1.1026521 -0.20733073 -1.314909 0.95056164
-0.66323304 -0.4800632 0.15368626 -0.9189642 0.70087296 -0.2657341 0.31417415 0.10463999
-0.76046807 -1.6080658 2.3881404 0.3943981 2.111157 -0.07537418 -0.23413527 -0.22032847
0.3757085 -0.21727517 -0.30125564 0.1269278 -1.6072937 -0.3124882 -1.209284 -0.25320005
-0.2758104 1.4246011 -0.34249333 0.124442555 0.52767766 1.3757504 -0.87710786 1.7095846
-0.92770505 -0.28619635 1.2196153 -0.309308 -0.86109924 0.82235634 2.967779 -0.25783235
0.7620705 1.2457062 -1.9506484 1.4181271 -1.1673082 0.12225886 1.6740178 -0.16651013
-0.24789259 -1.2695553 -2.698306 0.32966116 1.5465287 -1.1241292 0.66061926 -0.91813457
0.7958376 -0.49549106 0.29589206 0.54060864 0.40299332 0.39147693 0.7945975 -1.0895171
-0.23886234 -0.31411636 -0.37551174 0.5928926 -1.79216 0.6424117 0.21780404 0.84249854
0.6826427 -0.42070448 0.4911935 -0.477318 -0.07251353 -0.23193723 1.15846 0.8172277
-0.28294188 -0.3083581 0.99314946 -0.8845605 -0.84434354 -0.60469925 0.6801635 -0.5855071
1.197209 2.1880012 -0.057584666 -0.46487787

input_layer.bias f4 [50]
00000000: 0811 433c 1cd3 053c b83e a3bd ef7c 00bd
00000010: 6aa5 b9bd c9ec 5b3c 35fc 533d 6dd2 e9bd
00000020: 11c6 5dbd 89fc 16bd 2dab e9bc 7184 8dbd
00000030: f73f e7bb 3b1e f53c dbb2 083e cbdd 88bd
00000040: 1018 8a3d a49d 8d3b 6982 adbc 346d 843d
00000050: 9ec9 79be 0c7d 23bb 8976 073d c4d6 ee3b
00000060: 976c 27bd 85d4 74bd b610 83bd fbee 3cbd
00000070: e200 733d a372 443d 74b7 d8bb 284f 44bc
00000080: 90e3 41bd 45e7 343d b1ee 6d3b 9f92 4f3d
00000090: 74e5 673b 126d 053d a1a4 bb3d ce44 613c
000000a0: 44d8 5c3d ca44 e23c edd8 9dbd 85ed 0abe
000000b0: 4918 28bd 50f0 c33b c23e 873d f946 3fbd
000000c0: 113d 62bc 6ab0 08bd
0.011905916 0.008168008 -0.07970947 -0.031369146 -0.09064753 0.013423153 0.051754195 -0.11417089
-0.05414397 -0.03686193 -0.028524006 -0.06910027 -0.0070571858 0.029921642 0.13349478 -0.06682929
0.06742871 0.0043217707 -0.021180348 0.06466141 -0.24393317 -0.002494636 0.03307203 0.0072887857
-0.040875044 -0.059772987 -0.06399672 -0.046126347 0.059327014 0.04796089 -0.006613666 -0.011981763
-0.04733616 0.04416587 0.0036305601 0.05067694 0.0035384567 0.03257472 0.0916226 0.0137493145
0.053917184 0.027620692 -0.07707391 -0.13567169 -0.041038785 0.005979575 0.06603767 -0.046698544
-0.013808505 -0.033371367

hidden_layers.0.weight f4 [50, 50]
00000000: 3261 283e 950b ad3e 4a07 3bbd b01f 763e
00000010: 0026 8dbd 7b66 8c3e d3e1 2c3e e8ff a8be
00000020: 55ba cd3d 50b1 bf3e 5c40 e23d 84c3 9abe
00000030: 645f 5e3d 385f 1a3e 8b64 243e fe6a cbbe
00000040: f327 353e 5e65 8b3c 6705 c4bc 3d85 1a3e
00000050: 59cc 2c3e 0e6f 4bbe 007c 3bbd bf06 283e
00000060: 20a2 0fbe 4a5b 15be 6caf a3be f9fa 673b
00000070: 1073 9dbd 003c 033e 0b29 a8bd a358 513e
00000080: 8adf a53d 2777 8cbe 5c9d ccbd d109 503e
00000090: 9864 81be 452d c63e 845b 4b3e 85ca b43e
000000a0: b61e 6bbd 0b5c 9bbe c6ff 90bd d3d2 80be
000000b0: b389 64be c377 bc3d 2f9f be3c 328f a4bd
000000c0: f214 63be be31 39be 506c 7bbe c680 993d
000000d0: a31a b03d ab40 b23e 7e9e 233e 9991 433d
000000e0: 04ff c0be d2c2 b13e 0424 d0be fc21 bd3d
000000f0: c44f c1be e097 013e d66d 653e 376c 35be
00000100: cacb 35bd 6dd0 443d 1628 0a3d bc73 393e
00000110: 5000 7d3e d60c c03c ed57 843d 7877 813e
00000120: 0623 7bbe 3e98 87be 4b4f fa3d de69 aabd
00000130: 7cd7 27bd 3e76 a83e 24c6 22be 1082 be3e
00000140: 6a37 f33e 3307 fe3d bb96 e1be 5631 bcbe
00000150: 25e8 b43d cd04 d8bd 3165 533e 02a4 99bd
00000160: b8c6 e03d ebb7 3e3e c0b5 13be fcb3 c9bd
00000170: 23dd 1a3e d120 903e 24e2 29be 695c 0abe
00000180: e330 1c3e 5a36 453d 36b8 b6be 5b12 8a3e
00000190: d257 f8bc 8a8c d13d 96ab 55bc e4c5 a6be
000001a0: a4f5 2cbd 6bea 1ebe 6df2 43bc 75ee 0cbe
000001b0: 2250 213e 0559 7e3e 5135 95be 1eeb 993e
000001c0: 6382 55be b7b6 05bf 36d8 383e e92b 0dbc
000001d0: aee3 cd3d cfa2 b43e b32a 06bf b9b6 913e
000001e0: 1f2b b13e 7f4b af3e 24ec a53e 3ace 86bd
000001f0: 45cb 873e a8c7 72bd 5b7e c1ba 6314 753c
00000200: f2a2 063e 85d9 383e c40a 193f c8ac 07be
00000210: dd2a ce3d f334 b1bd 59ae d7bd a809 06be
00000220: 54cf babe a494 a83c 5656 f53d 0fa7 43be
00000230: ccb5 81b9 9e56 023e dde0 303d d0d1 f33d
00000240: 4135 91be cc71 a73d 0d73 7bbe 10d7 e2bd
00000250: 7a71 61be 2a5a ed3d e8ac 1ebc 6b63 86bd
00000260: 92d6 89be fdf1 eebe 9840 93be 1dc8 f53d
00000270: 2d22 423e 57a1 0d3c 2e49 c4be 2e91 893d
00000280: bbf1 4d3e 95d9 633e ba2d 863e 8e41 dfbd
00000290: c297 c6bd 6c2d 4d3e 5b3f 00bc f6ec 023e
000002a0: 4631 f9bd 2741 133b 7b72 19be 32a2 343d
000002b0: 219b 83bd 7573 68be e3c9 b3be 81b7 54bd
000002c0: 84ab 303d cd88 79be 877a 923d ce40 0c3d
000002d0: b38d b33e f415 aa3e 757f 23be cea1 b43e
000002e0: 6e31 69be 1445 673c 6f6b 873d c911 a3bb
000002f0: 632f 383e ebfe 5dbd a924 843d 6dc0 1dbe
00000300: 6afa c43d 115e b9bd d6f0 cbbd ca4b dcbd
00000310: 75bd 8e3d 2d52 b23e b3b0 e53d f822 32bc
00000320: c1db 633e dbc9 21bd ccb0 ccbe abb5 60be
00000330: c999 1abd 7dcc 143e 7469 66be f519 713e
00000340: c4c6 bcbb fa0d a33d 2cb8 953e 8dfc e43d
00000350: d5ea 03be 2686 943e e7b4 01be 8bcc 7b3e
00000360: 2c7b 32be 0c50 d53d 971f 893d db20 5ebe
00000370: b6f1 31bd 95ad abbc 8122 d1bd c8cb e03d
00000380: afff b3bd 570b 39be 1c03 94be 8e15 27be
00000390: f052 1cbd 61b7 f53b a397 643d 728d 7dbd
000003a0: 6167 b33d a702 203e 6c73 2b3d 36f9 97bc
000003b0: c933 b93d 7b1d 193e 0165 9bbe 1c45 babe
000003c0: 581e 73be fe93 553d c24d 30be 68a0 913d
000003d0: c28a c7bd a305 2fbe 6ffe 7d3d 2bcf 003e
000003e0: c6ce dcbd 13a2 423e 8a73 d83e fa6e 73be
000003f0: 65d9 663d b244 43be cfe3 bcbe 4c93 45be
0.16443327 0.337979 -0.04566125 0.24035525 -0.068920135 0.27421936 0.1688302 -0.3300774
0.10045306 0.37439966 0.11047432 -0.30227292 0.05429019 0.15075386 0.16053979 -0.39730066
0.1769102 0.01701611 -0.023928357 0.15089889 0.16874827 -0.19866583 -0.045772552 0.16408823
-0.1402669 -0.14585605 -0.31969774 0.0035397394 -0.07687962 0.12815857 -0.08210953 0.20443968
0.08099277 -0.27434656 -0.099909514 0.20316245 -0.2527206 0.38706413 0.19859129 0.3531076
-0.057402335 -0.3034366 -0.07080035 -0.25160846 -0.22318153 0.0920253 0.023269264 -0.08035125
-0.22175959 -0.18085381 -0.24553037 0.07495265 0.085988306 0.34814963 0.15978429 0.047746275
-0.3769456 0.3471895 -0.40652478 0.09234998 -0.3775617 0.12655592 0.2240518 -0.17717062
-0.0443838 0.048050333 0.033729635 0.18110555 0.2470715 0.02344362 0.06462083 0.2528646
-0.24525079 -0.2648334 0.12222155 -0.08320974 -0.040976986 0.32902712 -0.15895897 0.37208605
0.47503215 0.12403717 -0.4406031 -0.3675639 0.088333406 -0.10547791 0.2064407 -0.07501985
0.109754026 0.18624847 -0.14424801 -0.098487824 0.1512342 0.28150037 -0.16590172 -0.13511814
0.15253024 0.048147537 -0.35687417 0.2696713 -0.030315313 0.10231884 -0.013041398 -0.32572854
-0.04222645 -0.15519111 -0.011959654 -0.13762839 0.15753224 0.24838646 -0.2914224 0.30062193
-0.2085052 -0.52231926 0.18051228 -0.008616426 0.10053192 0.35280463 -0.52408904 0.2845972
0.3460321 0.34237286 0.32406723 -0.06582303 0.2652227 -0.05927244 -0.0014762388 0.014958474
0.13148096 0.18051727 0.5978205 -0.13249505 0.10066769 -0.086526774 -0.10531301 -0.13089621
-0.36486304 0.02057869 0.11979358 -0.19106697 -0.00024740247 0.12728354 0.043183196 0.11905253
-0.28360942 0.08176002 -0.24555607 -0.11076176 -0.22015944 0.11589463 -0.009684779 -0.06561931
-0.26921517 -0.46668997 -0.2876022 0.12001059 0.1895835 0.008644423 -0.38337082 0.06717144
0.20111744 0.2225097 0.26206762 -0.109011754 -0.09696914 0.20036858 -0.007827605 0.12785706
-0.12167601 0.0022469254 -0.14985077 0.044099994 -0.06426073 -0.22700293 -0.35114965 -0.051932815
0.04313232 -0.24368592 0.071522765 0.03424149 0.35069045 0.33219874 -0.1596659 0.35279697
-0.22772762 0.014115591 0.06612288 -0.0049764854 0.17986827 -0.054198187 0.06452305 -0.15405436
0.09618075 -0.09051145 -0.09958045 -0.10756643 0.0696973 0.3482832 0.11215343 -0.010872595
0.22251798 -0.039499145 -0.39978635 -0.21944301 -0.037744317 0.14531131 -0.22501165 0.23545058
-0.0057609994 0.0796165 0.29242074 0.11180983 -0.1288255 0.29008597 -0.12666665 0.24589746
-0.17429799 0.10415658 0.066954784 -0.21692221 -0.043443404 -0.020956794 -0.10211659 0.10976368
-0.08789002 -0.18070732 -0.28908622 -0.16316816 -0.038165033 0.007498667 0.055808675 -0.06190247
0.08759952 0.15626012 0.04185812 -0.01855145 0.0904308 0.14952652 -0.30350497 -0.3638085
-0.23742044 0.05214309 -0.17217162 0.07110673 -0.09743263 -0.17091994 0.062010225 0.12579028
-0.107816264 0.19007139 0.4227565 -0.23772803 0.056359667 -0.19069174 -0.36892554 -0.1929447

hidden_layers.0.bias f4 [50]
00000000: 4462 9c3c d940 423d 95f7 c7bc 196a a6bd
00000010: e116 6b3d 3dcb 0bbe be6e 9e3d ce6e a3bd
00000020: 80f2 44bc ca9d 3a3c d98f 253d 4ae7 a1bd
00000030: 6ea6 833c bbea 913d b2c1 ca3d b7fa b7bd
00000040: 4521 8abd cf8f d7bc e20e 60bc beb0 98bd
00000050: b834 59bd 2ff2 9dbd 29ba 0d3d cc7a fc3c
00000060: 6dbe 3cbc 3a33 59bd e049 ddbc 7865 033d
00000070: 68ae e13b cf5c 9b3d 6638 533d b0fa 763d
00000080: 4ad6 c43c 7ede 76bd 34c0 3fbd 1784 b4bc
00000090: c8b0 afbc 0eac c23d a8a8 0a3e 1adb 13bc
000000a0: b421 933c f387 9c3d 9502 90bc 9234 923d
000000b0: 2eeb a8bc c67a fa3c da24 063d 2e0f 54bd
000000c0: 494c aabd 4191 babd
0.019089825 0.047425125 -0.024410048 -0.08125705 0.057394866 -0.13651748 0.07735966 -0.07980119
-0.012020707 0.011390159 0.040420387 -0.07905443 0.01607057 0.071248494 0.09900226 -0.08983367
-0.06744627 -0.02631369 -0.013675423 -0.07455586 -0.053028792 -0.077122085 0.034601364 0.030820273
-0.01152001 -0.05302737 -0.027012765 0.03207919 0.006887246 0.07586061 0.051567458 0.060297668
0.024027962 -0.06027078 -0.04681416 -0.022035642 -0.0214466 0.09505473 0.135409 -0.009024406
0.017960407 0.07643118 -0.017579356 0.07138933 -0.020619955 0.030576121 0.03274999 -0.05177229
-0.083153315 -0.09109736

hidden_layers.1.weight f4 [50, 50]
00000000: 2371 33bd 79bc b63e ea7a 60be 0e10 853e
00000010: c7a1 ba3d 65a2 96be 7738 b6be 01dc 8e3d
00000020: ede3 3dbe db2b 433e cee8 7abd ba78 0b3f
00000030: 853f 4f3e c39f 05be c6bd ab3d 3c14 173e
00000040: b6de 033e f9a1 69bd 4e96 fdbe efdb f13d
00000050: 9e66 873e 463a bfbe 4e74 b63e acf8 8ebe
00000060: 3149 2abe b994 d5bd 7747 443e df91 533e
00000070: c311 ff3d 8e03 a1bd 729b 443d d8c2 68be
00000080: 178f d2be e2ea d83b d414 8d3e a28a d9be
00000090: a10e 473d 2d59 10be d70a fe3d 1a71 c8bb
000000a0: fd68 1b3e 2056 06bd 028c 89be e232 0ebd
000000b0: 28d1 02be c1d3 ea3d 7113 d73d a7fb 49be
000000c0: 8af4 f7bd d377 0a3d cc41 173d 88df a93d
000000d0: 36a1 aabe 593c bbbe f7c9 f63e 11b4 a0bd
000000e0: ec6e 783e fde6 03be f892 1cbe 2aeb edbd
000000f0: 6634 70be 95af bfbd 5094 8c3e 64b1 7f3e
00000100: 80d9 babc bb15 0abe 47b3 2c3d 1966 6a3d
00000110: e194 cf3e 09d3 7a3d e56d 933d de8c 8bbe
00000120: 9633 373d 1731 613e a424 d1bd a749 a5be
00000130: 2624 a0bd 24f3 133e 0aa9 dc3e c17b 03be
00000140: 0797 923e ca20 5d3d ddd2 9abe 3a3e 4abe
00000150: d059 ecbe 36c9 693e c860 8dbe eb56 dfbd
00000160: e7da 48be 91d7 923e d328 193e 6648 8ebd
00000170: ccd8 353e ffb1 a8be 404c 6c3e 7c0b 5e3e
00000180: 82e5 69be d373 b83d b5c2 c43e 7942 1dbd
00000190: 0c7f 85be 61f5 dcbc 1f1f 2a3e 35d4 30bd
000001a0: aa89 6abd f97d a5bd 8425 0abe 7635 34be
000001b0: 7d79 b43e 579a bbbd 96cd 41be 553a 723c
000001c0: 20a6 abbe 6de6 ef3e 87e3 40be 7a19 50be
000001d0: 689b 713d 99bd d4bd c9f5 7bbd 810b dabd
000001e0: 7d14 74be 4424 6a3e bb1b ccbd 1a60 073f
000001f0: 09de 43be ada1 9e3d 9aef e7bd 1fd1 13be
00000200: 4b96 213d 96a5 963e 3075 2ebd 6098 4c3e
00000210: e3f6 60be 38a5 203e 006a 83bd 411a a9bd
00000220: 680d c5bd 8b05 5dbe 5e1e 81be 479c 903e
00000230: b5bb ce3c 23be 5c3b 6621 adbd 552a 2abe
00000240: 9a15 0abb b870 64be b441 d63d 861a ed3d
00000250: c8fd 2d3c 5860 8a3d 246b 58be ff39 3c3e
00000260: a2a1 b4be f95d 453e e155 3a3d 14c3 1a3d
00000270: 6d40 87bd 0f21 75be e9ab 4c3e 8bb7 4e3e
00000280: 99b3 a23e d793 a7bd f3a2 983e 330a d7bd
00000290: 132e cb3d 1973 783c 0d01 8fbc 12f8 113d
000002a0: e180 77be 13da 9abd 8c51 173e fee9 c9bb
000002b0: bd65 0dbe 7aaa 993c 819c d2bd f184 873d
000002c0: 1640 42bd b5b8 e73d f380 4bbe 5693 783d
000002d0: acd1 a1be 9c55 973e 48c0 003e 73d7 fb3c
000002e0: 93a7 093d 4f8c 4abd 73b0 e13d 4516 343d
000002f0: b1ee 2bbc 638c 4b3e 2457 9e3d 547e 253e
00000300: 9e26 29be ec27 1bbd 5c00 3cbc 2d95 033f
00000310: 66bc 39be 1fd5 67bb 2723 f33c f8a6 f0bd
00000320: 44ba 09bd 1d3b ff3d 7402 8fbd 19a4 cd3d
00000330: 849b 2abe 96cf 3dbd 315b 413e 9063 1b3e
00000340: b1e1 8f3e 1eab dabd 05fe 0f3e 6868 a43e
00000350: e17d 3e3d ee24 c4bd 5ad0 97be d7b0 e0bc
00000360: 8b44 ac3e 8485 25be 90b6 2fbe caa7 28be
00000370: cdc9 063d 73c4 54be 7456 8dbd 8079 6fbd
00000380: c0c3 06be ef64 383d 1486 9b3e 6e1d 303e
00000390: aab0 413e 5127 82be 0bd2 de3d 5a18 88be
000003a0: 62ca 0cbe 5208 09be 6eb3 873c 430e 493e
000003b0: 13e4 55bd 3779 8a3e 4a74 7d3e c687 ac3d
000003c0: 4fbe 9b3b 2bee 283d 52eb 553e 387f 5a3d
000003d0: 61f5 8cbe 6e22 483e 14fa 4f39 91b1 8b3e
000003e0: d0af 51bc 6181 c7bd 996f 59bd 8a42 2ebe
000003f0: 7f23 ba3d 52fe 29be ebb7 e93d fde2 fd3d
-0.043809067 0.35690668 -0.21921888 0.2598881 0.09112888 -0.29420772 -0.35589954 0.06975556
-0.18543978 0.19059698 -0.061257176 0.5448109 0.20239075 -0.13049226 0.08385806 0.14753813
0.12877926 -0.057039235 -0.49528736 0.11809527 0.26445478 -0.37349147 0.35635608 -0.27924097
-0.16629483 -0.10428757 0.19167887 0.20661114 0.1245456 -0.07862006 0.047999807 -0.22730577
-0.41124794 0.006619797 0.27554953 -0.4248858 0.048597936 -0.14096518 0.12404411 -0.0061169984
0.15176769 -0.03279698 -0.2686463 -0.034716494 -0.127751 0.1146617 0.10501755 -0.19724904
-0.12107189 0.03380568 0.036927983 0.08294588 -0.3332612 -0.3656948 0.48200962 -0.07846845
0.24261063 -0.12881084 -0.15290439 -0.116171196 -0.23457488 -0.093596615 0.27456903 0.24970013
-0.02280879 -0.13484852 0.04216316 0.057226274 0.40543273 0.061236415 0.07198695 -0.2725591
0.04472693 0.21991383 -0.10212067 -0.32282755 -0.07819395 0.1444822 0.43097717 -0.12840177
0.2863085 0.05398635 -0.30239 -0.197503 -0.46162271 0.22830662 -0.276129 -0.1090525
-0.19614755 0.2868009 0.1495698 -0.06947403 0.17758483 -0.329483 0.23075962 0.21684068
-0.22841457 0.09006467 0.384298 -0.03839347 -0.26073492 -0.026972475 0.16613434 -0.043171126
-0.057260193 -0.08080668 -0.13490874 -0.17598519 0.35248938 -0.09160297 -0.18926081 0.014784415
-0.3352518 0.46855488 -0.18836795 -0.20322219 0.058986098 -0.103877254 -0.061513696 -0.106467254
-0.2383594 0.22865397 -0.09966227 0.52881014 -0.19127668 0.07745681 -0.11324997 -0.14435242
0.03944997 0.29423207 -0.042592227 0.19980001 -0.2196918 0.15688026 -0.06416702 -0.08256961
-0.09621698 -0.21584146 -0.2521848 0.2824423 0.02523599 0.0033682666 -0.08453636 -0.16617711
-0.0021070004 -0.22308624 0.104617506 0.115773246 0.010619588 0.06756657 -0.21134621 0.18381499
-0.35279566 0.19274129 0.045492057 0.037783697 -0.06604085 -0.23938392 0.19987454 0.20187204
0.31777647 -0.08182495 0.2981182 -0.10499992 0.09920897 0.01516416 -0.017456556 0.03563697
-0.24170257 -0.075611256 0.14777201 -0.0061619272 -0.13808341 0.018758047 -0.10283757 0.066171534
-0.0474244 0.11314527 -0.19873409 0.060687385 -0.3160528 0.29557502 0.1257335 0.030742383
0.033607077 -0.049450215 0.11019983 0.04396655 -0.01049392 0.19877772 0.077314645 0.16161472
-0.16518638 -0.03787987 -0.011474695 0.513995 -0.18138275 -0.0035374833 0.029679848 -0.11750597
-0.033624902 0.12462447 -0.0698289 0.10041065 -0.16660887 -0.046340548 0.18882443 0.15174699
0.28101876 -0.10677169 0.14061745 0.32110906 0.046506766 -0.09577356 -0.29651147 -0.027428074
0.33646044 -0.16164213 -0.17159486 -0.16470256 0.032907296 -0.20778064 -0.06901255 -0.05846548
-0.1316061 0.045018133 0.3037573 0.17198727 0.18915048 -0.2542062 0.10879906 -0.2658108
-0.13749078 -0.1338208 0.01656505 0.19634347 -0.05221946 0.27045605 0.24751392 0.08424334
0.004752911 0.04124276 0.20890549 0.05334398 -0.2753096 0.19544384 0.0001983422 0.2728391
-0.012798265 -0.09741474 -0.053084943 -0.1701757 0.090888016 -0.16600922 0.11412033 0.1239681

hidden_layers.1.bias f4 [50]
00000000: 481c 31bd 180e 8b3d 0731 943c 6351 45bd
00000010: ff30 c03d 0c19 b2bd 9ff4 f2bd b3b1 3d3d
00000020: 7a67 53bd 686b 623d 5e41 8abc 6373 503d
00000030: 4ae7 3dbd 290b b7ba ea4d 983d 5ebf 683d
00000040: 4380 353d 8771 4a3d 4687 283d 8d86 a8bd
00000050: ed02 933c a2b6 54bd 453d c8bc 0587 d2bc
00000060: 5028 efbd 26f7 593d 45ae 2cbd 4bda 58bd
00000070: 3eb3 32bd e166 37bd b40d b33d f190 e6bd
00000080: fcda 683d 4055 ce3d def2 733d 1d2d dabd
00000090: 5e9d 013d 3a59 d9bc ca7a af3d 92cb 8ebd
000000a0: 9d39 b53d 25ee 90bb 5e70 aebc bcfa 5d3d
000000b0: de97 9e3d 6f1a c2bd 2b64 87bd 4c2a a5bd
000000c0: 6049 b23c 5aa5 973c
-0.04323986 0.067897975 0.018089784 -0.04817332 0.09384345 -0.086961836 -0.11863064 0.046312045
-0.051612355 0.05527821 -0.016876873 0.05089129 -0.046363153 -0.0013965118 0.07436736 0.056823127
0.044311773 0.049424674 0.04114463 -0.082287885 0.017945731 -0.051931985 -0.024443278 -0.025699148
-0.11677611 0.053214215 -0.042158384 -0.052942555 -0.04362797 -0.044775847 0.08742848 -0.11258114
0.056849465 0.10074854 0.059557788 -0.10653136 0.031644218 -0.026531804 0.08568342 -0.06972422
0.088488795 -0.0044229203 -0.021293815 0.054194197 0.0774381 -0.09477698 -0.066109024 -0.08064708
0.021763504 0.018511463

output_layer.weight f4 [2, 50]
00000000: 8c48 b73d 7afe 2fbe e64a 353b ecc9 eb3d
00000010: 7525 70be 8e35 033d d5f2 053c 8fa0 3cbd
00000020: 2522 653d 5e83 8cbd cfcd 523e 0f8a cfbd
00000030: 58e2 093f 21cc 8e3d 2458 bdbd 6b68 9fba
00000040: 3e34 4dbd 85f5 07be bf74 50be ad78 723d
00000050: a711 a3bc 0e40 613d 4f05 f13b e031 093e
00000060: 57ea 773e d922 543c 28fd 913d 9a46 023e
00000070: 4fba b13d d080 e53e 60d3 22be abbd 833e
00000080: d68a 63be 785a c4be 1856 0dbe 9e5c 0b3e
00000090: bd81 a1bd 5235 593e 3fa2 f6bd 91ae 713e
000000a0: b29e e1bd 35ab 8e3d 9a98 0d3d 5682 563d
000000b0: 7505 ddbd f235 d03d 3926 133e bf4f 0a3d
000000c0: 2bb7 febd f279 133d b843 9d3e 5e8c 713e
000000d0: 6de5 b73e 8860 11be c381 1cbe bc29 25be
000000e0: 9669 edbe 4537 7e3e 51f7 7a3b 1a82 aabd
000000f0: cc9c 48bd 4f1b 72be a9c7 b23e 247d 2fbe
00000100: fcbe 203b 3f57 68bd 4a9a a6be c683 b7bd
00000110: 46ab 8cbe ca29 b9be 1761 84bc 42b0 503e
00000120: 7c60 9b3e 7fc5 293e 0d03 bb3e 76a0 dd3c
00000130: 917c ad3d f1bc 9f3d bb3a c33d c102 933d
00000140: f3f7 af3e d07b 783e 1c22 d13c 6a18 ba3d
00000150: b8bf 1f3e 9b8d 9ebd dbb0 b7bd 6fc7 bdbc
00000160: ae8b 1a3e 437b 2bbe c06c 80bd cd66 c93e
00000170: add3 71bd 94b1 ed3d 0ea0 30be e9f5 7dbe
00000180: e9ac 213d eac2 933d 77f1 b3be 4c5d 76be
0.08949384 -0.17186919 0.002766305 0.11513123 -0.23451789 0.032033496 0.008175571 -0.046051558
0.055940766 -0.06860994 0.20586322 -0.101337545 0.53861 0.06972528 -0.09245327 -0.0012161856
-0.05009865 -0.13277252 -0.20357035 0.059197117 -0.019905878 0.054992728 0.007355369 0.13397932
0.24210487 0.012947761 0.07128364 0.12722245 0.08678114 0.4482484 -0.15900946 0.25730643
-0.2222093 -0.38350272 -0.13802373 0.1360955 -0.07886074 0.21211746 -0.12042665 0.23601748
-0.11016597 0.06966249 0.03456936 0.05237039 -0.107920565 0.10166539 0.1437005 0.033767458
-0.1243728 0.036004968 0.30715728 0.23588702 0.35917225 -0.1419698 -0.15283875 -0.16129202
-0.46369618 0.24825771 0.0038294385 -0.08325596 -0.04897766 -0.2364323 0.34917954 -0.17137581
0.0024527898 -0.05672383 -0.32539588 -0.08960681 -0.2747442 -0.36164695 -0.016159577 0.20379737
0.3034705 0.16579245 0.36525765 0.027054053 0.08471025 0.077997096 0.09532686 0.0717826
0.34368858 0.2426598 0.02552896 0.09086688 0.15600479 -0.07741853 -0.089692794 -0.023166386
0.15092346 -0.1674624 -0.062707424 0.39336243 -0.05903976 0.11606136 -0.17248556 -0.24800839
0.03947154 0.07214911 -0.3514516 -0.24059027

output_layer.bias f4 [2]
00000000: e235 14be 993d 453c
-0.1447368 0.012038612

exp_avg f4 [50, 2]
00000000: 8611 42be 9313 b4be 3a2d c23f 8bcd 9cbf
00000010: e9d2 83bf 0b3e 80bf cbc6 bfbf 491a fabf
00000020: a951 1ac0 afd5 6bbf cd1c 1abe 9bf0 b3be
00000030: 10b4 d33f 07bd 993f 078d d7bf f50e e6bf
00000040: d272 b0be 3f7c 56be 4085 573e 936d 853d
00000050: a45a 90be 2398 e5bf d79b e7bf 32d7 43bf
00000060: 9ac9 05bf 1a3e 093e de9d c73e e0dc 8e3e
00000070: cf52 093f c107 6d3f 5f8b 2abf 20a7 e63a
00000080: a850 97bd 8c03 cd3e 680a d2bd 5c30 253f
00000090: 11d9 a3be b5e1 47be 551e a23e 61b2 3fbf
000000a0: 9d0c 88c0 6c5c c9bf 1d29 3c3f 1640 fb3f
000000b0: 39f6 1d3f c92f 54be f30b 6f3e 7610 093f
000000c0: db6c 89bf 5cdb ab3e 51ab 323f 486a a93f
000000d0: d601 35bf 707b e7bf ff3b 2bbe e476 acbe
000000e0: 3f9b 9c3e 2f5b d1be 8234 ab3c 6abd 1f3e
000000f0: 1158 153f 6c06 93bf 6ee8 95bf d1bb 06be
00000100: a898 28bd 6ba2 81bf 8ae9 11bf 9279 a83f
00000110: c4ff 153e 004d 053e e53b ab3c 1f17 943c
00000120: 648f 0c3f ba50 6bbe 6735 123f f45a 043f
00000130: 9a78 f33e 2392 183f 5404 903f 1a75 d7bf
00000140: 5426 423f 0820 133f 0a3d ee3e c377 34bf
00000150: a0b9 fd3f 48f5 0b3f 0b8a fcbe 07f9 ae39
00000160: 38be 763e 84c6 e83d be0b 03bf 7021 98bf
00000170: 3130 213e d1ea cf3e 037f e03f 09ea ae3f
00000180: 8c00 653e 472f 763f 820b c2bf afa6 88bf
-0.18951997 -0.35171184 1.5170052 -1.2250227 -1.029874 -1.0018934 -1.4982542 -1.9539272
-2.4112341 -0.9212293 -0.15050049 -0.35144505 1.6539326 1.2010812 -1.6839913 -1.7973315
-0.344626 -0.20945834 0.21046925 0.0651504 -0.28194153 -1.7937053 -1.8094434 -0.76500237
-0.52260745 0.13402596 0.3898763 0.2790289 0.5364198 0.92589957 -0.66618913 0.0017597415
-0.07388431 0.4004177 -0.10255891 0.64526916 -0.32001546 -0.19519694 0.31663767 -0.7488156
-4.2515397 -1.573133 0.73500234 1.9628932 0.6170383 -0.20721354 0.23344402 0.5354074
-1.0736345 0.33565795 0.6979266 1.323556 -0.70705926 -1.8084545 -0.16722105 -0.33684456
0.30587193 -0.4088988 0.020899061 0.155996 0.58337504 -1.1486335 -1.1711557 -0.13157584
-0.04116121 -1.0127691 -0.5699698 1.31621 0.14648348 0.13017654 0.020902583 0.018077431
0.54906297 -0.22980013 0.57112736 0.51701283 0.4755295 0.59597987 1.1251321 -1.6832612
0.75839734 0.5747075 0.46530944 -0.7049524 1.9822273 0.54671144 -0.49324068 0.00033373406
0.24096 0.11365989 -0.5118979 -1.1885204 0.1574104 0.40608838 1.7538761 1.3665172
0.2236349 0.9616589 -1.5159762 -1.0675868

exp_avg_sq f4 [50, 2]
00000000: ea21 743f d923 c83f 75e0 8f40 b6e7 1340
00000010: 2ba2 ab40 1507 3f40 d6cc 4941 6e97 7040
00000020: a2b7 ea41 1e59 f440 f655 8441 d032 a341
00000030: 1d74 9240 e8da c43f 9752 0241 2867 4c41
00000040: 4540 9840 00da 3d40 1efb b13f 494c 3441
00000050: c831 483f c5af 1041 28a4 3a42 d7f6 0642
00000060: 58c3 df40 5f69 1f42 1b94 7241 ee01 f841
00000070: 5013 8840 42fe 4e40 ad43 5840 42d1 9241
00000080: 6c65 2f40 ecb7 803f 52ac b240 11d0 d841
00000090: 6e32 0840 180e ff3f f27a be40 f2de de3f
000000a0: 7a97 d142 13e2 3e42 4e10 2740 e591 ec3f
000000b0: 0df0 b340 d152 7741 39b0 843e f047 3540
000000c0: ceb7 8941 4191 f740 cb55 da3f 3373 ef3f
000000d0: 21fa 2c41 8bc6 aa40 505c 333f 62c0 4e3f
000000e0: 2096 b240 2daf 4041 ae9b ce3d 31b3 983e
000000f0: dae5 b240 de62 9341 d86f a740 aa3a aa40
00000100: 26a1 5940 8ff3 6040 2ebd b141 3d0c 2d42
00000110: 2877 0341 eeee 6341 e72f 9740 516b d740
00000120: 0652 1a41 81d2 1740 f8ed a740 3fd9 f040
00000130: f00a 233f 5444 1d40 9fa9 1f41 8570 fd40
00000140: 09c3 6a3f bc7b c13f cdc4 d040 c071 fb41
00000150: 6e37 9d42 6285 b041 0628 dd40 ea87 7240
00000160: 8787 933f 0895 0141 18fb 0440 ef3e b640
00000170: 59f2 1540 4899 1441 83ae c540 8d43 d540
00000180: b1e8 1c40 13c9 0f40 c016 1241 21c5 9840
0.9536425 1.563594 4.4961495 2.3110175 5.363546 2.9848073 12.612509 3.7592425
29.339664 7.6358786 16.541973 20.39981 4.576674 1.5379305 8.145164 12.775185
4.7578454 2.9664307 1.390476 11.268624 0.7820096 9.0429125 46.66031 33.741055
6.9925957 39.8529 15.161159 31.000942 4.2523575 3.2342687 3.3791306 18.352177
2.7405653 1.0056129 5.583535 27.101595 2.128078 1.9926176 5.952508 1.7411788
104.79585 47.720776 2.6103702 1.8482023 5.623053 15.457719 0.25915697 2.8325157
17.214748 7.736481 1.7057432 1.8707031 10.811067 5.336736 0.7006273 0.807623
5.580826 12.042768 0.10088287 0.29824212 5.590558 18.423275 5.232403 5.319661
3.4004607 3.5148656 22.217373 43.26195 8.216591 14.245832 4.7245975 6.73185
9.645025 2.3722231 5.247799 7.5265193 0.63688564 2.4572954 9.978911 7.9199853
0.9170385 1.5115886 6.5240235 31.430542 78.60826 22.065128 6.9111357 3.7895455
1.1525735 8.098885 2.0778255 5.6951823 2.3429167 9.287422 6.1775527 6.664496
2.4517024 2.2466476 9.130554 4.7740636

exp_avg f4 [50]
00000000: 6d3e 563f fdea 433f abb6 f1c0 36cb f1c0
00000010: dc0b 19c1 78cf 0240 9943 b040 bc7c c2c0
00000020: 20cc 6bbf c15c 7240 39fb 89c0 1d75 46c1
00000030: 4853 f23f af95 5abf dc51 1141 1b43 e6bf
00000040: 935f 9b40 c3b5 92be 00c2 14c0 8dfe 7b40
00000050: a624 99c1 27af 3940 b404 f8be 8626 3d40
00000060: 7fa6 c8c0 5156 8040 25ce 1ac1 bc2b 79c0
00000070: 9f16 b83f 92ca 0540 a575 a43d 4e1e e8bf
00000080: cd6f 80c0 22c9 a8bf 3b8a c240 98f8 2d40
00000090: d5e3 1940 5b40 58bf 2db1 ab40 2873 653e
000000a0: 944c 3740 df7e 9040 3d6e 2b41 7381 09c1
000000b0: 71b7 f2bf 735e 37c0 0c06 c240 6579 a040
000000c0: 01fe 493f 5a49 d2c0
0.83689004 0.7653044 -7.5535483 -7.556056 -9.565395 2.043913 5.5082517 -6.0777264
-0.92108345 3.7869112 -4.311917 -12.403592 1.8931665 -0.8538465 9.082485 -1.7989229
4.855417 -0.28654298 -2.3243408 3.9374115 -19.142895 2.9013155 -0.48441088 2.9554763
-6.270324 4.0105367 -9.675328 -3.8932943 1.4381903 2.090489 0.080302514 -1.8134248
-4.0136476 -1.3186381 6.079374 2.718298 2.4045308 -0.844732 5.365378 0.2240721
2.864049 4.515487 10.714414 -8.594104 -1.8962232 -2.8651397 6.063238 5.0148187
0.78903204 -6.571454

exp_avg_sq f4 [50]
00000000: 1a08 6341 0134 f741 0517 2d43 a1cb 8d43
00000010: 3934 d943 e4a8 f443 9286 d642 3110 1a43
00000020: e0f6 6842 dcb8 de42 6f93 f042 2a91 6644
00000030: 4964 d443 914f c243 2c71 0e43 f835 6343
00000040: 18d9 a042 6f0e 9a43 a351 1c42 f36b a942
00000050: 3189 df44 aaca 6042 b6a0 6d43 22c4 4042
00000060: 1bbb 7b43 dcdf 7642 b5af a543 ca93 1642
00000070: 2e5f 5543 b074 1741 7950 6a43 4252 d242
00000080: 5b86 d442 5d0c 0544 5542 8543 0e6c 8242
00000090: 77c9 8342 c3b2 9a42 9bb0 4642 d37d c442
000000a0: 0940 8241 e798 be43 bf3a 8a44 b8c1 3443
000000b0: 23a1 8d42 89f4 b742 33f6 0243 64c1 f442
000000c0: 5438 5042 b505 4943
14.189478 30.900393 173.08992 283.59085 434.408 489.31946 107.26283 154.06325
58.24109 111.36105 120.28796 922.2682 424.78348 388.6216 142.44208 227.21082
80.42401 308.11276 39.079723 84.71084 1788.2872 56.197914 237.62778 48.191536
251.73088 61.718613 331.3727 37.644325 213.3718 9.465988 234.31435 105.16066
106.26241 532.1932 266.51822 65.211044 65.893486 77.349144 49.672466 98.24575
16.281267 381.19455 1105.8358 180.75671 70.81472 91.97761 130.96172 122.377716
52.055008 201.0223

exp_avg f4 [50, 50]
00000000: 506a 45a0 b6ab af1f 1bed 7d1f 7a6f 55a0
00000010: a69e a31f 452c d41f 6732 0e9f 86c5 ba1e
00000020: c435 871f 8821 0120 eefe 4020 a9df ee1e
00000030: ec99 759e d91b 371d 09d6 e99e fe65 721f
00000040: 321f 38a0 8c9e 081f 9da6 f89e 0d49 77a0
00000050: ee6f 1420 ae86 b91f ef23 07a0 4c46 9820
00000060: 0973 b09f 0851 69a0 496b 019e b4ac 0e20
00000070: 2680 361f 8b16 8fa0 a412 6e20 58f3 fe1f
00000080: a466 321f a53d 9c9f fc4e b69e 7b44 1420
00000090: 1157 9b1f 803a 9b9f c577 6aa0 7b19 ac1e
000000a0: f989 5a9e d1e2 9f1e d887 941f ccb4 b79e
000000b0: b32c 1a1f 14b9 0a20 1fce 7f1f 29dc 941f
000000c0: d5f3 16a0 2983 a39c 0fba bf9f 30fd bc9f
000000d0: 0144 ea9f 19e1 b79f c18c c89f d95c e59d
000000e0: cd78 d31f 3f8e db9d 0ea5 cd9f fc57 061f
000000f0: b8dd 141f 103f 199f 345e 281f a400 8b9e
00000100: e2c6 2d9f 6cec f89f f9b4 201e f336 4b9f
00000110: aa08 921f 2fad 379f 2136 34a0 d723 a31f
00000120: 9fb3 a19f 6369 9d1d 7956 d51f 9919 0ba0
00000130: d3f4 e09f 82c2 a21f 282a 249f c0ba 769e
00000140: 7b47 ca1f 10a5 781f c7ce ba1f 6eba 9d1f
00000150: 5ab8 321f bad3 b21f 66e7 9a9f 88e3 3e9e
00000160: 4a98 8f9f 31b7 ae1e 27e0 d41f cd85 8d1f
00000170: 89ce 839f ab53 9b1f 5808 499f 5eb9 cd1f
00000180: 0b13 b99f 65d7 5a1f 22c0 0e20 3299 319d
00000190: 0da1 309f 8fd5 8b1f a214 149f 48b4 a19e
000001a0: 96f9 8f1d 32bf ad1f 6e3a 951e 6e79 3d1f
000001b0: 131d 461f d7aa 1d9f aed1 771f 0ef2 de1e
000001c0: c318 431f e016 4d9f 52a9 b99f 7e21 009f
000001d0: 598e 779f 4b6c ea9e c72b ce9e 0073 969d
000001e0: 0168 0e1f eeb1 341f 00ce cb9e 994f 991f
000001f0: 6461 6e9f 8a9b 529e 244b e79e 7629 4e1f
00000200: 1387 3d1f f7e6 06a0 e9df ab1e 8645 081f
00000210: dbd1 d51e 6205 9e9f ceb8 689e 120e 4f9d
00000220: 9f76 8f1f 5bda b89f 6f55 a49f cca9 f39e
00000230: 2701 851e 5c9b 301f 4ee1 a61f ca72 d31f
00000240: 74b7 0c1f 83ac 1d9d d34c 379f 75dd 6b1f
00000250: 2e52 14a0 161a 6d1f 1de8 91a0 79a1 819f
00000260: 4fef ed9f 0d39 94a0 1d51 4a9f 4216 d81f
00000270: a2e4 6a1f 64c7 9e9e 1e95 91a0 2c05 6120
00000280: aeae a720 55f5 231f 3d59 361f d18c fe9e
00000290: 5efc 4fa0 43d3 0fa0 8e33 119f 477f 999e
000002a0: a060 7e20 dfca 24a0 9550 829f 14e4 2e20
000002b0: bed1 54a0 3de1 db20 2624 4220 ce3b 92a0
000002c0: eac9 01a0 07b1 8820 a977 00a0 b1a9 e9a0
000002d0: bab0 a420 7a3b 4320 98ed 0020 0993 229f
000002e0: 4c9c c09e aca7 4c20 de7e 4b1f d23c 11a0
000002f0: 417f b2a0 df20 121f a092 a51f d8d4 e61f
00000300: 5a22 551f ea17 6520 33c8 261f 3cb7 4f20
00000310: 51b9 f49f 5ba0 1c20 7410 8620 3a28 931f
00000320: 7b3d 751f da57 039f 3d5c d69d 48a0 7c1f
00000330: 946f 809e aba5 e99e 5a81 a89e 652e 451d
00000340: 0736 9c9f 8da0 8c1f 4001 619d e655 f09c
00000350: 66d8 359e d9b3 cf1d 6c83 f89e 5ac8 2f9e
00000360: 3c99 461f 0629 111e dd9b 611f 7b32 6f1f
00000370: e9c2 819b e073 0c9f 10e7 241f 2743 829e
00000380: 98f8 721f 0c97 cb1f 36df 991e e834 de9e
00000390: dd7e 289f 1612 2d1f a863 989f 1b46 0b9f
000003a0: 2ffb fd9e e39c 2e1e 1f6c 011e 4540 229f
000003b0: f872 2b9d bb59 a41e 01c6 841f 0d5b b51e
000003c0: a50c d19e 3d51 c09e 4559 b198 6e7a 421f
000003d0: 9bbb 889d 6d81 339f e23c d99e 5f46 df9e
000003e0: 5315 0320 96ff 439e 4ced bd9d f821 6ea0
000003f0: 7bd9 c39f b136 391f b98f 1fa0 8e80 12a0
-1.6721725e-19 7.4399455e-20 5.3770963e-20 -1.8078686e-19 6.929565e-20 8.985873e-20 -3.011136e-20 1.977521e-20
5.726367e-20 1.093782e-19 1.6347382e-19 2.5291734e-20 -1.3002022e-20 2.4234245e-21 -2.4758357e-20 5.132986e-20
-1.5595728e-19 2.8930267e-20 -2.6326931e-20 -2.0945884e-19 1.2573122e-19 7.8573356e-20 -1.1446834e-19 2.579632e-19
-7.472921e-20 -1.9762679e-19 -6.851389e-21 1.208501e-19 3.8646e-20 -2.424006e-19 2.0165552e-19 1.0797576e-19
3.777787e-20 -6.617055e-20 -1.9302667e-20 1.2558746e-19 6.578909e-20 -6.5741834e-20 -1.98602e-19 1.8221747e-20
-1.1569356e-20 1.6928589e-20 6.290517e-20 -1.9450655e-20 3.2647743e-20 1.1750292e-19 5.416885e-20 6.304466e-20
-1.2786171e-19 -1.0820339e-21 -8.1199455e-20 -8.003996e-20 -9.921536e-20 -7.787591e-20 -8.493615e-20 -6.0711798e-21
8.9561824e-20 -5.8115896e-21 -8.709394e-20 2.8448383e-20 3.152362e-20 -3.2451174e-20 3.5653307e-20 -1.4717462e-20
-3.6798687e-20 -1.0542321e-19 8.507754e-21 -4.3032375e-20 6.184774e-20 -3.889501e-20 -1.5264503e-19 6.909248e-20
-6.848331e-20 4.166652e-21 9.0352066e-20 -1.1782228e-19 -9.527272e-20 6.8931455e-20 -3.4763222e-20 -1.30617506e-20
8.566858e-20 5.265258e-20 7.911615e-20 6.680051e-20 3.7845458e-20 7.5736205e-20 -6.5604354e-20 -1.0105569e-20
-6.08148e-20 1.8498733e-20 9.015632e-20 5.993718e-20 -5.582234e-20 6.578347e-20 -4.2570307e-20 8.712754e-20
-7.838205e-20 4.6341466e-20 1.2091439e-19 -2.3504955e-21 -3.7402668e-20 5.922209e-20 -3.1357286e-20 -1.71211e-20
3.810985e-21 7.3584656e-20 1.5800155e-20 4.012275e-20 4.195218e-20 -3.338736e-20 5.2477727e-20 2.3605276e-20
4.131334e-20 -4.342936e-20 -7.8630665e-20 -2.713276e-20 -5.2422032e-20 -2.4820503e-20 -2.1829204e-20 -3.9823577e-21
3.01557e-20 3.8263663e-20 -2.157866e-20 6.4929704e-20 -5.047902e-20 -1.1149472e-20 -2.4489154e-20 4.3656492e-20
4.0134038e-20 -1.1426661e-19 1.8197936e-20 2.885663e-20 2.2639046e-20 -6.692451e-20 -1.23201944e-20 -2.7403496e-21
6.07591e-20 -7.828827e-20 -6.959804e-20 -2.5798852e-20 1.40824e-20 3.739796e-20 7.067647e-20 8.955188e-20
2.9797902e-20 -2.0867963e-21 -3.8815305e-20 4.994637e-20 -1.2563279e-19 5.020828e-20 -2.4717555e-19 -5.490076e-20
-1.0076931e-19 -2.5109928e-19 -4.284226e-20 9.151638e-20 4.9740548e-20 -1.6811367e-20 -2.4662633e-19 1.9059953e-19
2.8406494e-19 3.4719527e-20 3.8613815e-20 -2.6951536e-20 -1.7617083e-19 -1.2182472e-19 -3.074759e-20 -1.6252146e-20
2.1546607e-19 -1.3958465e-19 -5.5190453e-20 1.4813838e-19 -1.8026496e-19 3.7249093e-19 1.64444e-19 -2.4772937e-19
-1.0993533e-19 2.3156443e-19 -1.0881614e-19 -3.9584028e-19 2.7899628e-19 1.6536822e-19 1.0920635e-19 -3.442646e-20
-2.0393434e-20 1.733495e-19 4.3091864e-20 -1.2302101e-19 -3.0238582e-19 3.0943893e-20 7.012279e-20 9.776091e-20
4.513292e-20 1.9404967e-19 3.5317468e-20 1.7594209e-19 -1.036446e-19 1.3266771e-19 2.271137e-19 6.232347e-20
5.1931623e-20 -2.7812998e-20 -5.67407e-21 5.3495657e-20 -1.3598675e-20 -2.4738353e-20 -1.784119e-20 2.6096718e-21
-6.615795e-20 5.9557915e-20 -2.9779148e-21 -1.5904072e-21 -9.62681e-21 5.49784e-21 -2.6312376e-20 -9.3058546e-21
4.2054883e-20 7.6847195e-21 4.777453e-20 5.0651975e-20 -2.1467218e-22 -2.9742003e-20 3.491948e-20 -1.3792059e-20
5.1451125e-20 8.622373e-20 1.6291823e-20 -2.3527046e-20 -3.5680323e-20 3.6649135e-20 -6.453937e-20 -2.9492385e-20
-2.6891304e-20 9.243927e-21 6.851562e-21 -3.4357997e-20 -2.26911e-21 1.7401287e-20 5.6231745e-20 1.9201778e-20
-2.2133965e-20 -2.036239e-20 -4.5843567e-24 4.118237e-20 -3.619288e-21 -3.8011783e-20 -2.300095e-20 -2.3640148e-20
1.1103187e-19 -1.0376068e-20 -5.0273243e-21 -2.0170623e-19 -8.2945504e-20 3.9220513e-20 -1.3515378e-19 -1.2409216e-19

exp_avg_sq f4 [50, 50]
00000000: 9015 5f41 6d34 783f b07b 9240 e0f7 6a41
00000010: 700c 533f 3f24 a540 47f9 8340 e472 3040
00000020: b18f 1240 9797 2a41 3926 5a41 603c cb3d
00000030: b9b2 4740 11f8 f53f 0012 1041 bb46 8940
00000040: 19ec ff40 81c7 aa3f ab26 0740 c941 5241
00000050: 483c d43f 9442 3541 5dd8 2f41 2c51 8741
00000060: dbcd be3f ee56 8a41 f7ea e440 3995 3b41
00000070: f42e 2d40 e80b 8d41 2ce8 7941 00a9 0a41
00000080: bde0 d740 3809 f53e 13b4 e23e 69f2 1541
00000090: 5d06 083f 6d0c e940 818c 7441 708b 863f
000000a0: 025f 9540 e1ae 9240 575c 903f 6bc6 4940
000000b0: 908a 1f3e a7ac 1641 99bb f63f 4b67 f940
000000c0: 8da2 4140 de26 623f 94e4 5b3f d34f 183e
000000d0: 0543 de3e 87ef 323f 2558 403e 0eb7 093e
000000e0: cba7 603e 1e89 aa3e 1d98 af3e 392c 6f3f
000000f0: 4155 843f 8ec8 eb3c e930 433e a745 df3d
00000100: 3eaa 563f ba2a d03e 4026 653e 4a99 993d
00000110: eb52 b03e 18fb d13e 6d5b 1f3e 91be 3d3f
00000120: 944f fd3e fec2 9b3f eefa 813e 59c6 5b3f
00000130: c157 023f 3f2b 4f3f 95e8 803e 8afa 9d3f
00000140: 70a6 3f3f 0022 993e 74ea a23e fdc8 3d3d
00000150: cc09 093e 4050 a63e 5a06 893c bda2 a33e
00000160: 00c2 723f f766 383e b870 6e3e 44f9 2e3e
00000170: 6f5c 343d 574a 183f b427 453d 7ab6 bb3e
00000180: 4ada bf3e f11b a73e d133 e43e 35ef 323d
00000190: 64d1 813f bb00 873f 0d74 4f3f b587 7f3f
000001a0: 233f 2f3f fc9a 5f3f d08a a13e c40a 733e
000001b0: 446c fe3f a18a d93f 3042 b33f 252f e73d
000001c0: 7d29 303e 2c8f d93d 03b6 9a3f 3e3e 6d3f
000001d0: e6e2 b93f 4fdc b43d 6708 d53f 149f ce3f
000001e0: 0a65 4a3f 2dc0 3a3f e504 403f f789 e13f
000001f0: b0a7 d03f a4c6 ae3f 134a 2d3f 0568 883f
00000200: 3833 a93f 692e ca3f 5643 903f 63c8 443f
00000210: 11c9 e43e f519 fd3e 388b a03e 6017 5d3f
00000220: c818 9f3e 6ef2 133f d16a 963f 256b 3d3f
00000230: 5a0d a63e eb73 a63e 6ab4 743e 33fa a83f
00000240: 7385 603e 3a90 3d3f 99dc 6c3f 25b2 023f
00000250: 4194 2a40 edb9 8c3e e776 6041 ef89 b93f
00000260: 0ac9 d740 102f 3141 e3b3 1d40 ac91 e33f
00000270: 1e7a 8740 1b7b 4740 47ff 1640 6231 6941
00000280: 3f7a 8241 f477 9f3e 79f5 0240 cbb8 943f
00000290: b5a5 3141 eeae e740 8f42 3240 0d92 933f
000002a0: aa07 0c40 e641 cd40 d843 9f40 27fa 1d41
000002b0: 63d8 e240 54c8 ac41 a3fb 0940 10bc 8d41
000002c0: c8cc 0041 a9c5 5641 01c0 e23f ac93 a741
000002d0: a72a 5341 c981 9440 228e ad40 e0dd 473f
000002e0: 4e9d 8c3f eb49 cb40 be9a 513f e70a 6a40
000002f0: be1c 8341 b4de 973f 9dac 8540 af2b 4840
00000300: e864 8e3f 73ef b940 0e10 0a3f 8d6e e740
00000310: d725 8340 e50d 8f40 b283 4040 7571 c93e
00000320: 2316 c73d d7ee 873d 2f6a a23c 529e 0e3e
00000330: 215f aa3c ab0a db3d 6201 d33c a5dd 313c
00000340: 5964 113e c415 573d 1413 993d c7fd 903b
00000350: 5b49 ae3c 9e55 6d3c 6120 2e3d 2cea 9d3c
00000360: 7340 2f3e 9289 033c 2588 ff3d a390 533e
00000370: ca7b 693c ff1f 953d 27bf dd3d 7c37 d73d
00000380: 5f18 d53d 2024 2c3e 276a 123d 7a6f 893d
00000390: 31ec ee3d d31d ed3d a45f 193e dbd0 e53d
000003a0: c88e 643d d2ef ef3c bd1a 403c 3a10 fb3d
000003b0: ffba 953c 532f a13d ce01 dd3d 6a6c 633d
000003c0: a73f 0b3d 669a 443d 00a1 8e3c dcea 243d
000003d0: 78fb 203c 42a1 d33d 1a2f d23c 99ed 9f3d
000003e0: 779f 443e 1f94 e43c fc0e 9a40 e6ac f23e
000003f0: 2630 e23f 6898 9940 e785 ca3e 8e08 dd3f
13.942764 0.96954995 4.5775986 14.685516 0.82440853 5.1606746 4.1241794 2.7570124
2.2900202 10.662009 13.634332 0.09923625 3.1202834 1.9216329 9.004395 4.289884
7.9975705 1.3342134 2.111735 13.141061 1.6580896 11.328754 10.990323 16.914635
1.4906572 17.292446 7.153682 11.723931 2.7059908 17.630814 15.619183 8.66626
6.746184 0.47858596 0.4427801 9.371682 0.5313471 7.282767 15.284303 1.0511303
4.6678476 4.5838475 1.127818 3.1527355 0.15580201 9.417151 1.9276 7.793859
3.0255463 0.88340557 0.8589566 0.148742 0.43410507 0.6989674 0.18783624 0.13448736
0.21939008 0.33307737 0.3429574 0.93426853 1.0338517 0.028782155 0.19061626 0.10901957
0.8385352 0.40657598 0.22377872 0.07499941 0.3443826 0.41011882 0.1556222 0.74118906
0.49474776 1.2168882 0.25386757 0.8584953 0.5091515 0.80925363 0.25177446 1.2342083
0.7486334 0.29908752 0.318195 0.046334255 0.13382643 0.324831 0.016726661 0.31960097
0.9482727 0.18008028 0.23285186 0.17087275 0.044033464 0.59488434 0.048133567 0.36662656
0.3747123 0.32638505 0.44570783 0.043685157 1.0142026 1.0547098 0.81036454 0.9981645
0.68455714 0.8734586 0.31551218 0.23734576 1.987679 1.6995431 1.4004574 0.11288289
0.17203327 0.10623011 1.2086796 0.926731 1.4522369 0.08831083 1.6643189 1.6142297
0.79060423 0.72949487 0.7500747 1.7620229 1.6301174 1.365437 0.67691153 1.0656744
1.3218756 1.5795413 1.1270549 0.76868266 0.44684651 0.49433866 0.31356215 0.8636379
0.31073594 0.57791793 1.1751348 0.73991615 0.3243206 0.32510313 0.23896948 1.3201355
0.21925907 0.740482 0.92524105 0.51053077 2.6652987 0.274856 14.029029 1.4495219
6.743291 11.07399 2.4641044 1.777883 4.233657 3.1168888 2.359331 14.574556
16.30969 0.31146204 2.0462325 1.1618894 11.102956 7.2401037 2.7853124 1.1528946
2.1879678 6.4142942 4.9770317 9.873572 7.0889144 21.597816 2.1559837 17.716827
8.049995 13.423257 1.7714845 20.947105 13.197913 4.640843 5.4236 0.7807293
1.0985506 6.352773 0.8187674 3.6569154 16.389034 1.1864839 4.177321 3.1276662
1.1124544 5.8104796 0.5393075 7.232245 4.098369 4.470446 3.008038 0.39344373
0.09721019 0.06637352 0.019826023 0.13927582 0.020797314 0.10695394 0.025757495 0.010856067
0.14198436 0.05251099 0.07474342 0.004424784 0.021275213 0.014485745 0.042511348 0.0192767
0.17114429 0.008028405 0.124771394 0.20660643 0.014250705 0.072814934 0.10827475 0.1050863
0.10405039 0.16810656 0.035745766 0.067107156 0.11666144 0.11577954 0.1497789 0.11221477
0.05580023 0.02928916 0.011725125 0.12258954 0.018277643 0.078703545 0.1079136 0.055523314
0.03399625 0.04799881 0.017410755 0.04026304 0.00982558 0.10333492 0.025657225 0.0780899
0.19201456 0.02790266 4.814329 0.47397536 1.7670944 4.7998543 0.39555284 1.7268236

exp_avg f4 [50]
00000000: b3bf e4a0 3ffb bf20 67d3 b2a0 add1 e71e
00000010: bc01 2f9f b2dd 1721 ed15 0ba1 aa3e 2520
00000020: a27a 931f 0706 cc20 31ce 17a0 5b69 039f
00000030: 439f b61f ec4a 11a0 4d40 859e 210d 8a1f
00000040: e6a9 eda0 2034 2b20 8f05 201e 7909 33a0
00000050: 9fe8 8e9f b327 ef20 1fc3 7020 48c3 469f
00000060: 5d2c c020 5436 b320 452d 0e20 8534 ae1f
00000070: 806f 6aa0 063c 8aa0 098e 17a0 e837 6d9e
00000080: c00d 0721 d910 10a1 2d77 30a0 be33 2ba0
00000090: 84f8 7a1e 200c 93a0 893b 4ba0 d9fe 8f20
000000a0: 5be7 a91f 6cfd ec1f d078 93a0 22b3 4920
000000b0: 1fbf 141f 1f78 471f 7fc0 0921 2687 f49f
000000c0: 3a90 d49f eeb6 541f
-3.8751558e-19 3.252292e-19 -3.0294267e-19 2.4544796e-20 -3.7059126e-20 5.14542e-19 -4.712405e-19 1.3996777e-19
6.24598e-20 3.4562933e-19 -1.285842e-19 -2.7827477e-20 7.7343475e-20 -1.2306767e-19 -1.4108517e-20 5.8466993e-20
-4.026179e-19 1.450151e-19 8.471479e-21 -1.5165024e-19 -6.052418e-20 4.0514446e-19 2.0393351e-19 -4.2089664e-20
3.2555422e-19 3.035973e-19 1.2042846e-19 7.377875e-20 -1.9857463e-19 -2.341783e-19 -1.2837193e-19 -1.2558237e-20
4.5757977e-19 -4.8811395e-19 -1.4947212e-19 -1.4501383e-19 1.3286282e-20 -2.4910792e-19 -1.7214467e-19 2.4393786e-19
7.195703e-20 1.0036914e-19 -2.4982716e-19 1.7084632e-19 3.149831e-20 4.223925e-20 4.667217e-19 -1.03561604e-19
-9.0024095e-20 4.5044062e-20

exp_avg_sq f4 [50]
00000000: 4f68 8542 edfc e940 32ac f940 eeac da42
00000010: 90ad b83e c7a9 d540 d211 8041 339f f940
00000020: dbe8 0b40 0994 3a41 629c e740 a5e7 8241
00000030: 7ccb 3541 f1f0 c941 5163 8343 bd55 ac42
00000040: 3dbc 4f42 e022 7840 c5f2 cb41 7957 3e41
00000050: 1856 ea3f 998c b041 6fb8 ee40 fd14 8041
00000060: 5e6f 2242 c45d 5a40 b619 7b40 fb00 2741
00000070: 3b8f 9740 ad8b e040 590b 7840 d3d8 f940
00000080: 85f2 9d42 5bbc b941 ca1a a740 d967 8641
00000090: 7aac 6541 09fb 1141 6f16 5c42 b9a0 9241
000000a0: 2304 4e42 b9cb 6740 695a c341 4c2a 2442
000000b0: c170 fb40 486a ce3f cabb 3042 b5a3 0441
000000c0: 1b9d 1b43 9258 1941
66.70373 7.3121247 7.80227 109.33775 0.36069918 6.676975 16.008701 7.8006835
2.1860874 11.661141 7.2378397 16.363108 11.362179 25.242647 262.7759 86.16746
51.933826 3.8771286 25.49354 11.896356 1.8307524 22.068651 7.460014 16.010248
40.608757 3.411973 3.9234443 10.437739 4.736234 7.0170503 3.8756926 7.807718
78.97367 23.21697 5.22202 16.800707 14.354609 9.123788 55.021908 18.328478
51.50404 3.6218092 24.419146 41.041306 7.857514 1.6126184 44.183388 8.289968
155.6137 9.584124

exp_avg f4 [50, 50]
00000000: a046 431f b329 121f 337e b21f fee5 551f
00000010: c8c8 ef9f 922f 929f 91a0 1b1e c39f 9c1f
00000020: 39af 669f 1ac3 3320 4117 aa1f 0500 3b9f
00000030: 33e3 ad1f fc33 d09e 5746 b91e d6fa 939f
00000040: 4925 eb1e 6686 069f 986d 7a9e b495 071f
00000050: 1892 5f9f 558a 8e1f 6703 b61f e324 201e
00000060: 9c9c e51e c5bb d29f 2eea 231e 25d1 369f
00000070: 3d3d 8e9f ba71 5a1f b82f c71f 409e 551f
00000080: af69 ce9f e504 6da0 a39a c29e 6bb5 5b1f
00000090: e5d4 099d a25e 3d1f b610 4f1f a531 899f
000000a0: 1739 c49f f32a 109f e05d 941f e74b 2a1e
000000b0: 3bf3 039e a17c 169f bc41 d69f 4713 c11f
000000c0: e6cc 359e c2d1 919f 917e 1c20 c2fa 39a0
000000d0: 2beb 271f 130c cb1f 5a27 0220 eaec 0a1e
000000e0: 67fc aa9f 8aa7 e31d 026d 409f 6a38 b19f
000000f0: e60c fa1f d3c9 af9f 210a a69f 8e4d 0f9d
00000100: e68a ae1f c736 231f 84d1 8d9f 0a8c 839f
00000110: 3c0f 1aa0 9438 d71f cdb3 829f 3ec0 651f
00000120: 08e6 4e1f 0347 b11f cda3 e39f 1684 599c
00000130: cc80 11a0 fbb0 f21e bde6 c1a0 8499 619e
00000140: 6dee de1e 5f9b 1120 49fe 2120 e6a8 e520
00000150: 39e9 9b9f 9093 301f 6b44 fa1f 4795 cf9e
00000160: 1793 201d 5bc2 3e1d 62fb 3a1d 253c c89f
00000170: b711 0b9f f19a ba1e cb65 0ca0 c373 1a20
00000180: 9a9a cb9e afed 0420 f580 059f da77 15a0
00000190: 5669 1a20 23c8 d09e 2448 af1f cd12 2e1d
000001a0: a213 2b9f b067 011f 23d3 1ea0 7234 069f
000001b0: 86ab c99f e2d6 c51f 6544 9d1f 5127 569f
000001c0: d483 a01f b307 469f 1cdf 851f 08a7 599f
000001d0: 8618 119f 4585 569e d2a1 2f9f 4ec0 9c1f
000001e0: c4a5 ea9f 59e3 569e fd57 841f d02e 161e
000001f0: e1a9 c59e 27c2 53a0 10f6 821e 219c 069f
00000200: c6c0 cf9f fcd1 e01f 4548 2c9c 5195 fd1e
00000210: 4160 139f ddeb a21f f089 509e 0826 5c9f
00000220: 5658 009e 889d 799f e88b b81f db9f dc9f
00000230: 6908 a69f 4c28 ca9e c032 a31f 538f a91f
00000240: f32c 8d9c 1ea7 c61e df18 0c9f 23df fc1e
00000250: ed0b 831f 5c46 3d9f bf03 8d9f 4708 701f
00000260: 9811 f91e c090 8a9d a782 7d9d 02ee 849f
00000270: 0fd8 471f 0807 169f 85ee 189f 97d1 339f
00000280: 34ef 561e 5965 b59e ae6d a69e 93f3 1b9d
00000290: cc26 9a9f e4e5 829f 00a5 629e 4190 561d
000002a0: f5c1 411f 805e 1f9e 9b12 6f1f de2f d49e
000002b0: 199d 5d1f 5ef5 be9d 2a95 9b1f 04c6 919f
000002c0: 024a 691f b0ac 099f 91e3 8c20 12e1 241f
000002d0: bc56 0b1f 6778 579c c1e4 869f 1269 87a0
000002e0: 5d41 359f d860 039f df2e 6b1b bd73 e11d
000002f0: 2a21 311f 3d84 969f 5bf4 2c9f 9d4a 201f
00000300: d680 931f a617 479d 9645 261e 07dd 1f9e
00000310: 7270 189f 40dc 789f b9fb ea9e f044 711e
00000320: fae9 fb1e ee16 c59f e831 639f 2da0 3c9f
00000330: f9ab 121e be61 c09c 3563 b41f a4ea ec1e
00000340: 70dd c21f ed0b 011e e017 c39e 543f d01e
00000350: 40a4 6a9f 3642 c81f 117c 421f 3dc0 8c1f
00000360: 00db 8d1f fb82 e29d a0fc 491d 68af 679f
00000370: bdc3 b51e 613e 811f 572d 309f 98b5 989f
00000380: 50a1 ab9f ebdf 3020 b2e7 869f 65a4 4e1f
00000390: 5e0f 81a0 139d ee9f 3384 719f 530a 441e
000003a0: 519e ff1f add4 6620 6354 ad1f 2a8a 0720
000003b0: ac46 429e 9969 e51e 545c a99f e4a9 1120
000003c0: 7bec 1620 1dac 259e c38b c89f 3bfc 999e
000003d0: 5fed 889f 8b67 4e1e 7066 401f 3f84 f81f
000003e0: e22b 199e 0064 1e1e 37ee c59f b3ac 3e1e
000003f0: 4976 639f 22f3 1f1e 2ee8 9b1f f3ab 979f
4.1351276e-20 3.0951195e-20 7.559471e-20 4.529475e-20 -1.015526e-19 -6.1912104e-20 8.238836e-21 6.6332873e-20
-4.8849335e-20 1.5226443e-19 7.203627e-20 -3.9598806e-20 7.364422e-20 -2.2044357e-20 1.9616729e-20 -6.2671895e-20
2.4897014e-20 -2.8486776e-20 -1.3257553e-20 2.8711193e-20 -4.7342933e-20 6.036819e-20 7.708563e-20 8.4779575e-21
2.431109e-20 -8.92491e-20 8.677575e-21 -3.8713e-20 -6.024065e-20 4.6257368e-20 8.435872e-20 4.5235406e-20
-8.741923e-20 -2.00763e-19 -2.0604505e-20 4.652512e-20 -1.8241863e-21 4.0100585e-20 4.3847778e-20 -5.810389e-20
-8.3103676e-20 -3.0528713e-20 6.283574e-20 9.015421e-21 -6.985381e-21 -3.1866826e-20 -9.0741274e-20 8.177057e-20
-9.624432e-21 -6.1756904e-20 1.3255591e-19 -1.5753078e-19 3.5558152e-20 8.599382e-20 1.1024449e-19 7.354652e-21
-7.2415365e-20 6.025963e-21 -4.074775e-20 -7.5055745e-20 1.0590046e-19 -7.444927e-20 -7.032049e-20 -1.8965987e-21
7.3921655e-20 3.4561903e-20 -6.006244e-20 -5.5712333e-20 -1.3049348e-19 9.114964e-20 -5.53546e-20 4.8651655e-20
4.3812474e-20 7.5079895e-20 -9.6409225e-20 -7.1969994e-22 -1.2324593e-19 2.5695944e-20 -3.2848162e-19 -1.1943147e-20
2.3603775e-20 1.2333386e-19 1.3721366e-19 3.8905877e-19 -6.603089e-20 3.739151e-20 1.05992306e-19 -2.1978717e-20
2.1251867e-21 2.524677e-21 2.4746857e-21 -8.4802796e-20 -2.9449048e-20 1.9757598e-20 -1.1892142e-19 1.308261e-19
-2.1557403e-20 1.1259478e-19 -2.8270516e-20 -1.2660446e-19 1.307916e-19 -2.2105631e-20 7.423473e-20 2.3038428e-21
-3.6226898e-20 2.740258e-20 -1.345298e-19 -2.8418985e-20 -8.541057e-20 8.378824e-20 6.6605236e-20 -4.5348784e-20
6.798073e-20 -4.19345e-20 5.6696794e-20 -4.6089702e-20 -3.072523e-20 -1.1356625e-20 -3.7191546e-20 6.638671e-20
-9.937709e-20 -1.137608e-20 5.604974e-20 7.9506145e-21 -2.0928447e-20 -1.7936635e-19 1.3866054e-20 -2.850475e-20
-8.798683e-20 9.521508e-20 -5.700343e-22 2.6849173e-20 -3.120808e-20 6.899987e-20 -1.1039953e-20 -4.661827e-20
-6.794531e-21 -5.2858108e-20 7.8158487e-20 -9.343808e-20 -7.031765e-20 -2.1404248e-20 6.9117144e-20 7.1811394e-20
-9.342216e-22 2.1033183e-20 -2.9666726e-20 2.6773825e-20 5.550039e-20 -4.0080507e-20 -5.972202e-20 5.0828824e-20
2.6371177e-20 -3.6677964e-21 -3.3551817e-21 -5.6297925e-20 4.231861e-20 -3.1769552e-20 -3.238455e-20 -3.8078093e-20
1.1378532e-20 -1.9206037e-20 -1.7621296e-20 -2.0640004e-21 -6.528572e-20 -5.5437464e-20 -1.19984616e-20 2.8397242e-21
4.1029777e-20 -8.436932e-21 5.062561e-20 -2.246617e-20 4.692852e-20 -5.0546285e-21 6.5891825e-20 -6.173748e-20
4.9400887e-20 -2.9153722e-20 2.3867513e-19 3.4914525e-20 2.950614e-20 -7.129315e-22 -5.712965e-20 -2.293942e-19
-3.8382308e-20 -2.7820436e-20 1.9453889e-22 5.9676675e-21 3.750864e-20 -6.374624e-20 -3.6624543e-20 3.3943037e-20
6.247006e-20 -2.6349657e-21 8.802357e-21 -8.463097e-21 -3.2280265e-20 -5.269823e-20 -2.4879824e-20 1.277269e-20
2.6672429e-20 -8.347068e-20 -4.81104e-20 -3.9943043e-20 7.764739e-21 -1.273076e-21 7.639709e-20 2.5084517e-20
8.2528533e-20 6.831669e-21 -2.0656303e-20 2.2049049e-20 -4.9687292e-20 8.481283e-20 4.1183723e-20 5.961034e-20
6.007813e-20 -5.9957133e-21 2.6732733e-21 -4.9061245e-20 1.9245076e-20 5.473682e-20 -3.7306954e-20 -6.4674926e-20
-7.2688186e-20 1.4981868e-19 -5.7134515e-20 4.375818e-20 -2.186362e-19 -1.0105678e-19 -5.1143088e-20 1.0378289e-20
1.08258613e-19 1.9552126e-19 7.3407956e-20 1.148066e-19 -1.0284889e-20 2.4289992e-20 -7.172703e-20 1.233819e-19
1.2783739e-19 -8.7706195e-21 -8.493451e-20 -1.6303825e-20 -5.799094e-20 1.0926961e-20 4.0742316e-20 1.0525087e-19
-8.108827e-21 8.38513e-21 -8.382684e-20 1.009423e-20 -4.8166963e-20 8.467669e-21 6.602916e-20 -6.4235454e-20
