weights/checkpoint/example0001_train_adam.pth (torch, 73855 bytes, 25 tensors)

a f4 [5]
00000000: cdcc 4c3e cdcc 4c3e cdcc 4c3e cdcc 4c3e
00000010: cdcc 4c3e
0.2 0.2 0.2 0.2 0.2

input_layer.weight f4 [50, 2]
00000000: 818d c8bf 2b31 2c3f 7f9a d7be 2170 6ebf
00000010: bc65 8cbf 060f 72be b1b1 b1bf 2354 853f
00000020: 46a6 4ebf a5b5 4bbf 5c88 8a3e fd5b 7cbf
00000030: 043a 723f b8cc 44be 126a a63e 3e15 90bb
00000040: 785f 5ebf af42 d3bf c4ff 1740 aa0e 243e
00000050: dac2 1040 e917 d53d fe01 13be 70fc b6be
00000060: 892c ff3e db52 7cbe 4667 b0be 11b3 b13e
00000070: 6682 d2bf bcbb bfbe d39a 95bf a533 83be
00000080: 074e 01be 8719 b43f a316 bdbe 612a 93bc
00000090: 6413 ea3e f1de ce3f 3296 5fbf f44a d53f
000000a0: 2016 5bbf c055 03bf 9640 933f eece adbe
000000b0: 8f8a 88bf 4d70 473f 2202 4240 55d2 3fbe
000000c0: 004b 413f bfb6 a93f 1579 02c0 5692 ab3f
000000d0: 3921 8abf b8a0 5cbe ea40 d03f d17c 53be
000000e0: 5d4b 8bbe 7979 83bf 4d5c 27c0 0fc0 0a3f
000000f0: 2aa3 c23f 9fba b3bf e2db 343f 92bb 75bf
00000100: a91b 2d3f 77ae 06bf b6ad d03e 26e1 d53e
00000110: 17f7 a73e 49dd 2d3f 5e40 483f 7179 91bf
00000120: 9a04 babe be4f d7be 68a7 bcbe 146e bb3e
00000130: 32dd f1bf 7b18 033f 7d93 b33e fcba 303f
00000140: 083a 2e3f 7034 91bd b82e ea3e 9481 debe
00000150: 6e71 59bd e8dd 3bbd cb7a ad3f 9ecf 443f
00000160: 89cd a0be d5f6 83be f3aa 813f 4cde 48bf
00000170: fd47 7abf b556 2dbf cf5d 2c3f ace0 40bf
00000180: 9adb ac3f 1a6d 1040 f8fc b7bd db8c e6be
-1.5668184 0.67262524 -0.4211006 -0.93139845 -1.0968547 -0.23638543 -1.3882352 1.0416301
-0.80722463 -0.7957404 0.2705716 -0.9857786 0.94619775 -0.19218719 0.325028 -0.0043970635
-0.86864424 -1.6504725 2.3749857 0.16021219 2.2618928 0.10404951 -0.14356229 -0.3573947
0.49838665 -0.24640982 -0.3445379 0.3470693 -1.6446044 -0.37447917 -1.1687874 -0.2562534
-0.12627421 1.407029 -0.36931333 -0.017964544 0.4571792 1.6161786 -0.87338555 1.6663499
-0.85580635 -0.5130272 1.1504085 -0.33946937 -1.0667285 0.7790573 3.0313802 -0.18732579
0.75505066 1.3258895 -2.0386403 1.3404033 -1.0791389 -0.21545684 1.626981 -0.20653082
-0.27205935 -1.0271446 -2.6150086 0.5419931 1.5206044 -1.4041327 0.70648015 -0.95989335
0.6762033 -0.5260996 0.4075753 0.41773337 0.32805702 0.6791578 0.78223217 -1.1365186
-0.36331636 -0.42053026 -0.3684647 0.3660742 -1.8895628 0.5120923 0.35073462 0.69035316
0.680573 -0.0709008 0.4573877 -0.43458235 -0.05308669 -0.045865923 1.3553098 0.768793
-0.3140681 -0.25774255 1.0130295 -0.784642 -0.97766095 -0.6771043 0.6733064 -0.7534282
1.3504517 2.256659 -0.08983797 -0.4502934

input_layer.bias f4 [50]
00000000: 2c77 1f3e a666 bdbe 28cd 5cbe 200a d8bd
00000010: d76b c63d 96d1 67bd e6e8 453e 62a6 05bf
00000020: 4918 efbd 3990 10bf 765a 00bf b7ac 563d
00000030: 4354 5b3e 8971 513d 262a fe3e 3514 8b3c
00000040: 8fdf febc a0d6 50bc f325 2abe b56f 1cbe
00000050: 5ab8 6cbf e992 af3c fab7 71be bc2d 123d
00000060: 7cb8 213f c23b 833e 1bd9 aebd 5ef3 6bbe
00000070: 8a0f 6fbf 7217 2e3e 298f aebd 7854 4dbe
00000080: 0907 2b3c 0d86 58be f700 913e 3c9c b83d
00000090: 814f 46be 937a 093e ef7c 6cbe fde4 e8be
000000a0: 9e6c e53e c0c2 6b3e e99b cabe 7a97 8abd
000000b0: a46a a53d cda7 9139 0b68 7c3e 1968 d13d
000000c0: dcbe 163f 0c82 1fbe
0.15572804 -0.36992377 -0.21562636 -0.10548806 0.096885376 -0.05659636 0.19327125 -0.52207005
-0.11674554 -0.56470066 -0.5013803 0.052410807 0.21418862 0.051133666 0.49641532 0.016977409
-0.03111246 -0.012746483 -0.16616039 -0.15276988 -0.924688 0.021432357 -0.23605338 0.035688147
0.63172126 0.2563153 -0.08537503 -0.23042056 -0.93383086 0.17001131 -0.085233994 -0.20051754
0.010438689 -0.21144886 0.2832105 0.09014174 -0.19366266 0.13425665 -0.23094533 -0.45487204
0.4480943 0.2302351 -0.39572075 -0.06767173 0.08076981 0.00027781577 0.24649064 0.10224933
0.5888498 -0.15576953

hidden_layers.0.weight f4 [50, 50]
00000000: bc3e 803d 7401 cc3e f320 52bd 48e1 f83d
00000010: af98 60bd 4817 b63e caea 583e ddad b3be
00000020: 7be6 8a3e 8ce0 ab3e f9ac 1b3e 698c a1be
00000030: 5fba 6f3d c794 003e e739 223e 687e d1be
00000040: 7f8b 8b3d d432 2c3c e883 edbd 80b3 183c
00000050: f2c5 293e f91b f0bd e09d 13be 5f62 3a3e
00000060: 0dc2 78be e35b 87be 3d3c c1be 3b3e 963d
00000070: de96 3a3c 5744 8e3d 7adc 143d c138 9a3e
00000080: 0df8 153e 3878 9ebe 5426 e6bd c7c2 9c3e
00000090: 2f34 72be e513 9d3e 550a cc3d ea46 aa3e
000000a0: 9511 88bc d3d3 7ebe 6be2 e5bc 810b a0be
000000b0: 722c 54be bcdd 473e 5d2b 903d 4f0f dabb
000000c0: 601c e7be 5708 26be 8c09 82be d68b a43d
000000d0: 9c2a c33d ff51 b63e c573 303e 9138 2b3d
000000e0: 111a bfbe eeb1 b93e 29ed d5be d9c1 c73d
000000f0: 6112 c1be 6883 fc3d 42b3 813e f816 32be
00000100: 4fd3 f8bc 0675 793d 0787 183d 06a9 283e
00000110: 0571 6e3e 040f 7d3d 6cf1 893d 3a2a 833e
00000120: f9f8 7abe 8d70 6fbe 8b5a fb3d 96fd a0bd
00000130: 2721 21bd 76d7 a63e 1af7 1bbe ee16 b23e
00000140: 26c0 ef3e ed11 f63d 1647 debe 8203 b5be
00000150: d7c9 a33d f522 edbd e963 3e3e 6d8a 9cbd
00000160: 3139 cc3d ba0f 2a3e acfc 07be dff2 c1bd
00000170: 6ec4 023e 9623 863e 044a 35be 357f 12be
00000180: af19 2d3e c435 4a3d fcd5 9bbe 7291 863e
00000190: d5e0 b1bd 2e70 283e 8222 05bc b8b6 d3be
000001a0: c5f3 c4bc 3260 e4bd bd36 a63c 4775 23be
000001b0: 22f9 913e 90da 023e 0fa6 8ebe da8d a23e
000001c0: 6d30 46be 1613 0dbf 9348 4d3e 5f75 2a3b
000001d0: 3918 9b3d a46b ad3e 2551 0cbf 3fb5 813e
000001e0: afa1 b73e f202 c83e cf4f 833e 24ed febd
000001f0: e152 523e 451d 2dbe 613f a8bc 5b13 6b3d
00000200: 8483 3c3e be8d 2c3e 4196 303f b532 a6bd
00000210: 1e12 143e d708 0dbe 4797 09be 177c 98bd
00000220: f5ba a8be a009 3abd d81f 633d 0a4b 67be
00000230: 94a2 093d 9c86 3a3e eccb 9f3d aa6e 9f3d
00000240: faed 77be 9f00 1b3e f38a 51be ffca 64bd
00000250: 917b d5be 0303 2e3e d090 11be 6c36 e5bd
00000260: 1484 b3be 81fa 17bf 993b b3be 50ab 193e
00000270: fd15 8d3e 7488 6139 0805 d5be c71f 673d
00000280: e0d2 883e 44c2 5a3e 5860 8a3e c78d 32be
00000290: d988 36be 48f1 d53d 718e c43c c1ed dc3d
000002a0: 2a2c 92bc cfa3 e6bc b1d5 6ebe fc3c 2b3e
000002b0: b909 12be b522 87be 848f 90be 9e65 15be
000002c0: f752 95bd 2a38 0abe 89aa 423b 2a8e 21bb
000002d0: 5305 fa3e 064e d23e 6d08 8abd 4f29 b33e
000002e0: 25dd 52be 0ba8 c43d d903 7b3d 8f61 a5bd
000002f0: 8b02 913d 9bc2 3dbc 7179 053e 1208 7dbd
00000300: 2067 fd3d 012d da3b b292 bcbd 4b8b 413b
00000310: 4863 62bb 2b29 e33e c2d0 dd3d e567 e83c
00000320: b482 7c3e c98d acbd 0aef dabe 2b89 4cbe
00000330: f7de aebd e2fb f03d c3e1 67be 8d88 853e
00000340: 264f 38bd 1301 043e 5b77 a03e 6b7f af3d
00000350: 7278 09be 1b06 953e 53c3 32be e68f 603e
00000360: 2629 1fbe 91a1 ba3d 956c d13d d690 5bbe
00000370: ff14 82bd 6565 01bd fe50 acbd 9ce9 fa3d
00000380: c35f 2abd 4d82 3dbe b367 93be 1161 21be
00000390: 3514 95bd d4ec c73b 4b8f 083d 00a2 b1bd
000003a0: c437 8d3d 8363 443e ae07 b93d 67b1 35bd
000003b0: 6f3a 803d 52c3 253e 1a7a 94be 523a a2be
000003c0: 43a3 7bbe ae80 0c3d d36b 32be bde1 1a3e
000003d0: 4d9f 10be 4cbf 4abe 4fe7 a13a 7878 d93d
000003e0: fbd5 85bd 60c8 1f3e eadc bb3e 78fa 83be
000003f0: 34f3 673d 5e97 60be 6f4d bbbe 9057 75be
0.06261966 0.3984486 -0.051300954 0.12152344 -0.05483311 0.35564637 0.21183315 -0.35093585
0.27128968 0.33569753 0.15202703 -0.31552437 0.058527347 0.12556754 0.158424 -0.40916753
0.06813716 0.010510165 -0.11597425 0.00932014 0.16579416 -0.11724085 -0.14415693 0.18201588
-0.24292774 -0.26437292 -0.3774127 0.07336088 0.011388509 0.069466285 0.036343075 0.30121425
0.14645405 -0.30951095 -0.11237779 0.30617353 -0.23652719 0.3067924 0.09962908 0.33257228
-0.016609946 -0.24885492 -0.028062066 -0.31258777 -0.2072008 0.19518179 0.07039521 -0.006654657
-0.45138836 -0.16214119 -0.2539791 0.08034484 0.095296115 0.35609433 0.17231663 0.041801993
-0.37324575 0.36268562 -0.417825 0.097537704 -0.37709334 0.12329751 0.25332075 -0.17391574
-0.030374197 0.060902618 0.037238147 0.16470727 0.23285301 0.0617819 0.06735501 0.25618154
-0.24509038 -0.23382778 0.12273129 -0.07860868 -0.039338257 0.3258626 -0.1523098 0.3478312
0.46826285 0.12015138 -0.4341361 -0.3535424 0.07997482 -0.11578933 0.185928 -0.0764359
0.09971846 0.16607562 -0.1327998 -0.09470152 0.12770244 0.26199025 -0.17704016 -0.14306338
0.16904329 0.04936768 -0.30436695 0.2628284 -0.086854614 0.16449043 -0.008125903 -0.4135034
-0.02404202 -0.1115116 0.020289773 -0.15962707 0.28510386 0.12778687 -0.27861068 0.3174885
-0.1935441 -0.5510725 0.20047216 0.00260099 0.075729795 0.33871186 -0.54811317 0.25333592
0.35865542 0.39064747 0.25646827 -0.12447575 0.20539428 -0.16905697 -0.020538034 0.057391506
0.18409544 0.16850945 0.6897927 -0.0811514 0.14460036 -0.13772903 -0.13436614 -0.07445543
-0.32955137 -0.045419335 0.05545029 -0.22587219 0.033602312 0.18215412 0.07802567 0.07784779
-0.24211875 0.15136956 -0.20463161 -0.055857655 -0.41695836 0.16993336 -0.14215398 -0.11192021
-0.35061705 -0.59366614 -0.35006407 0.15006757 0.27555838 0.00021508505 -0.416054 0.05642679
0.26723385 0.21363169 0.2702663 -0.17436896 -0.1782564 0.10446411 0.023993703 0.107875355
-0.017843325 -0.028154282 -0.23323704 0.16722482 -0.14261521 -0.26393667 -0.28234494 -0.14589545
-0.07291215 -0.13497987 0.0029703698 -0.0024651387 0.48832187 0.41075152 -0.06739888 0.34992453
-0.20592172 0.09602364 0.061282966 -0.080752485 0.07080563 -0.011582042 0.13034607 -0.061775275
0.12373185 0.006658197 -0.092076674 0.0029532488 -0.003454404 0.44367346 0.10830833 0.028369853
0.24659234 -0.08425481 -0.42760497 -0.199742 -0.08538621 0.11766793 -0.22644715 0.26080742
-0.044997357 0.12891035 0.3134106 0.08569225 -0.13424852 0.2910622 -0.17457323 0.21929893
-0.1554304 0.091128476 0.102257885 -0.2144197 -0.06351661 -0.031590838 -0.084138855 0.12251589
-0.04159523 -0.18506737 -0.28790054 -0.15759684 -0.07279245 0.00610123 0.03333978 -0.08673477
0.06895402 0.19178586 0.09034668 -0.044358637 0.06261145 0.1618779 -0.28999406 -0.3168512
-0.24573998 0.034302406 -0.17423944 0.15125175 -0.14123268 -0.19799536 0.001235226 0.10618681
-0.06534954 0.15603781 0.36691982 -0.2577703 0.05662842 -0.21932742 -0.36582515 -0.23959184

hidden_layers.0.bias f4 [50]
00000000: 2829 40be 66d7 d53d 1e77 26be b20c 1dbe
00000010: 6a46 15be d203 e93b 90bd c53d bd12 87be
00000020: d341 f53d 7b56 f0bc a94f 5ebe 1683 07be
00000030: 4465 42bd 3bfb f03d 853a 573e 29aa 23bd
00000040: 04e9 cbbd 4d18 3fbe bbc5 a93d 243e 04be
00000050: bd37 23be d1a0 07be 2e16 ac3e 3445 adbd
00000060: 55a6 c53d d5b7 343e a415 333e 7979 00be
00000070: 4e88 26be 0b92 8fbc 0625 503d 1f96 6fbd
00000080: bf3d 183e 63b8 0dbf ed4b 04be 88cd f03d
00000090: 05b9 04be 8f1a 1f3e e603 13bd 61ca 8b3e
000000a0: bdd2 e2bc cdc9 b93c 1f40 cfbd c154 cf3e
000000b0: 2c23 76bd ef42 a43d a225 873e 032a b43c
000000c0: aabf 033e 6832 32be
-0.187657 0.104414746 -0.16256377 -0.15336874 -0.14577642 0.007111051 0.09655297 -0.26381484
0.119754456 -0.029338112 -0.21710075 -0.13233599 -0.047459856 0.117666684 0.21018417 -0.0399572
-0.099565536 -0.18661614 0.08289667 -0.1291433 -0.15939231 -0.1324494 0.33610672 -0.08460465
0.09650866 0.17648251 0.17488724 -0.12546338 -0.16262934 -0.017525693 0.05081656 -0.058492776
0.14867304 -0.55359477 -0.12919588 0.11757952 -0.12961204 0.15537475 -0.03589239 0.2730284
-0.027688378 0.022679234 -0.10119652 0.4049435 -0.060092136 0.08020579 0.263959 0.021992689
0.12866083 -0.17402041

hidden_layers.1.weight f4 [50, 50]
00000000: a5a7 3b3c 436c 9c3e 36bc 80be ee77 8e3e
00000010: bd98 de3d 857c 92be fece c2be c865 cb3d
00000020: 06e8 45be 08fe 623e adb6 64bd d774 1a3f
00000030: 14a1 723e 9fad 2fbe cc72 9a3d ca98 063e
00000040: 475c 033e 797e 6ebc d0c9 04bf 9899 113e
00000050: e7ad 613e 1c1d bbbe 6726 b23e dc58 98be
00000060: 728b 51be af87 e5bd 6009 6e3e 922e 713e
00000070: 8da3 743d 7f47 fbbd 9c69 1c3d 6990 6ebe
00000080: 50cb c7be 561f 35bd 51bd a93e da70 bebe
00000090: d265 4d3d 199a aebc c2fb 0a3e 3cb5 653d
000000a0: 4dca 513e f623 87bd be10 b2be 3fbc e1b9
000000b0: 02f6 36be f443 dd3d f44a 043e 679a 32be
000000c0: 3e45 95bd a49f d73c f748 563d ad0a 733d
000000d0: d62f b5be a4ca c4be 2652 f73e bb38 c3bd
000000e0: 23d5 8c3e 20cd c4bd baa7 2bbe d9b9 8ebd
000000f0: 5366 51be aac5 8dbd 3b13 ab3e 9a4b 973e
00000100: 7caa 873d 1dcd 3bbe 6d73 e73c 36fa 143d
00000110: bb1c c33e e8cf 333d 15ed 06bd 5eea 92be
00000120: 7330 e73d 67b6 863e 0abb c1bd 7817 b4be
00000130: bb43 a33b 75e2 033e d886 ba3e 84c5 d3bd
00000140: 759e 993e 4b4b e43c fa56 b8be 5950 84be
00000150: 71aa d9be c125 813e 6658 91be cd79 0cbe
00000160: 144f fcbd 3e2e ce3e cff6 1c3e 8fba bebd
00000170: 08ea 113e b1d3 a5be 4847 993e 2a31 333e
00000180: 455d 4abe ab26 c03d 26d5 ef3e 8d97 13bd
00000190: 1704 54be 4b65 e8bc 2042 1b3e b868 8dbd
000001a0: da6b 51bd 3473 73bd ffcb 3abe 1143 33be
000001b0: 27ab ac3e fd5d 47bd a96f 5bbe 3e87 973d
000001c0: d34e 94be 4f22 fc3e d22e efbd ce44 81be
000001d0: 4f7f 213d 6971 8cbd ede0 4bbd b90d d7bd
000001e0: 2086 a5be a461 373e d267 bcbd 841e 053f
000001f0: 53b5 49be 7ea1 013d 7ee4 46bd a99e 16be
00000200: 992b 393d 857c 983e a939 a4bd 7507 393e
00000210: 35f3 75be 6641 b63d e0ce 77bc 2280 aebd
00000220: d146 02be 94e7 6bbe e653 57be 47e0 ad3e
00000230: e181 233d cd91 223c b87f efbd 1ec4 0abe
00000240: 8a65 e33c 0d10 80be 81b6 1a3e 4ada d73d
00000250: b2dc b73d 6c6d c83d 3006 64be d4ad 393e
00000260: 36ae adbe d6b9 3c3e 3fe0 aabc d51c 1bbc
00000270: 06f5 3fbd 7f70 60be 99d1 2b3e c9b7 8a3e
00000280: c3ce 9b3e 20f7 aabd d620 9d3e 8de5 dcbd
00000290: 3140 2e3d e0d2 d1b9 1900 8d3c a3f3 b63c
000002a0: ed52 5cbe 0ac1 90bd e54c 163e 81b2 cf3c
000002b0: b44c 02be ebe5 96bc 1e96 69bd 7759 b93c
000002c0: 85e5 b8bc 5213 963d a9c9 e4bd fdd9 b93d
000002d0: 4240 9abe 41ab 753e cd75 e23d 5bd6 d63b
000002e0: c846 9a3d 155d acbd f6a9 863d 7c3c 9c3d
000002f0: 91b3 0cbc 4bfe 153e 5d46 0e3d 93f9 463e
00000300: 17d5 e9bd 9289 4bbd ea5a 1fbd 8bf2 013f
00000310: 2730 60be 4732 35bb ce92 713d 7350 e2bd
00000320: 7038 3abd 44a0 1e3e 6995 c8bd 6e89 2c3d
00000330: e937 44be 29c8 02be 4440 953e 5dc8 2a3e
00000340: 8978 a53e 5ca9 abbd 52e1 bc3d d416 b03e
00000350: d7a3 773d 74df a73c dc6e 60be fef6 fdbc
00000360: db71 c33e 52ae 5dbe 74ec 10be 8f03 78be
00000370: 4188 9dbc f715 74be 98d3 ecbd 1dcb 0dbd
00000380: 546b e2bd 7c0f 6d3d 94dc a53e c40a 243e
00000390: 6296 dc3d 861b 76be 3653 b33d e297 95be
000003a0: 93fb 35be d7f4 e0bd eaac c23d c1b9 5a3e
000003b0: 40b9 d3bd 91d9 243e e369 993e 5684 3c3e
000003c0: b9ed d43b 25c8 b33d cfb1 443e b594 0fbc
000003d0: a371 4abe e7c2 153e dac6 9c3c 9900 813e
000003e0: 01a6 ae3c 461d adbd 79d6 51bd f220 37be
000003f0: cf8e d53d 55ec fcbd b27c 0e3e a601 f93d
0.011453544 0.30551347 -0.25143594 0.27825874 0.10868976 -0.28610626 -0.38048548 0.099315226
-0.19326791 0.22167218 -0.055838276 0.60334533 0.23694259 -0.17156075 0.07541427 0.13144222
0.1282817 -0.014556521 -0.5187044 0.14218748 0.22038995 -0.36545646 0.34794924 -0.29755294
-0.2046335 -0.1120752 0.23245764 0.23552921 0.059726287 -0.12269496 0.038186654 -0.23297276
-0.39022303 -0.044219337 0.3315225 -0.37195474 0.05014593 -0.021313714 0.135726 0.05608104
0.20487328 -0.06598656 -0.34778398 -0.00043055599 -0.17867282 0.10803977 0.12919217 -0.17441712
-0.072885975 0.02632124 0.05231568 0.059336353 -0.35388058 -0.38435853 0.48304862 -0.09532305
0.2750636 -0.09609437 -0.16763201 -0.069690414 -0.2044919 -0.06922467 0.3341311 0.29549867
0.06624314 -0.18339963 0.028253281 0.036371432 0.38107857 0.043899447 -0.032940943 -0.28694433
0.11288538 0.26311037 -0.09459503 -0.35174155 0.0049824393 0.12879355 0.36431003 -0.103404075
0.30003706 0.027867934 -0.36003858 -0.2584255 -0.4251285 0.25224116 -0.28387755 -0.13718338
-0.123197705 0.40269655 0.15328525 -0.09312927 0.14249432 -0.3238807 0.29937196 0.17499223
-0.19762142 0.09382375 0.46842307 -0.036033202 -0.20704685 -0.028368613 0.15161943 -0.06904739
-0.051128246 -0.059436038 -0.18241881 -0.17506053 0.3372433 -0.04867362 -0.21429314 0.07398842
-0.28966388 0.49244925 -0.11678852 -0.25247806 0.03942805 -0.06857569 -0.049775053 -0.10500664
-0.32328892 0.1790834 -0.0919949 0.5199969 -0.19698076 0.03164815 -0.04855775 -0.14708962
0.045207594 0.297825 -0.0801881 0.18069251 -0.24018557 0.088991925 -0.015125006 -0.08520533
-0.12722327 -0.23037559 -0.21028098 0.33960173 0.039918784 0.009922457 -0.11694282 -0.13551375
0.027758379 -0.25012246 0.15108682 0.10539682 0.08977641 0.097864956 -0.22267985 0.18132716
-0.33921975 0.18430266 -0.020858882 -0.009467323 -0.046864532 -0.21917914 0.16779174 0.27093342
0.30431184 -0.083479166 0.30689114 -0.10785971 0.042541686 -0.000400207 0.01721196 0.022332972
-0.21516009 -0.07068069 0.1467777 0.025353672 -0.12724572 -0.01842018 -0.05702793 0.022625668
-0.022570381 0.07327904 -0.11171276 0.09074781 -0.3012715 0.2399111 0.11057625 0.006556315
0.07533032 -0.084161915 0.06575386 0.07628724 -0.008587734 0.14647786 0.034735072 0.19431143
-0.11417597 -0.049691744 -0.03890506 0.50760716 -0.21893369 -0.0027648376 0.058977894 -0.11050501
-0.04546398 0.15490824 -0.09794123 0.04212325 -0.19161953 -0.12771668 0.29150593 0.16677995
0.32318524 -0.08381912 0.09222664 0.34392416 0.060458984 0.020492293 -0.2191729 -0.031001564
0.38172802 -0.21648529 -0.141527 -0.24220107 -0.01923001 -0.23836504 -0.11563796 -0.034617532
-0.110556275 0.057876095 0.3239485 0.16019732 0.10770871 -0.24033937 0.087561056 -0.2921744
-0.17771749 -0.109841995 0.09505637 0.21359922 -0.10338068 0.1609862 0.29963598 0.18409857
0.0064980653 0.08778409 0.19208454 -0.008763482 -0.19769911 0.1462513 0.019137789 0.25195768
0.021319391 -0.08452849 -0.051229928 -0.17883661 0.10427629 -0.12349764 0.13914755 0.121585175

hidden_layers.1.bias f4 [50]
00000000: 4ee2 2bbe 11bf 963d 25f3 dd3c b8af ed3d
00000010: 502b c13e 1570 b4bc d7de 743e 326c 2bbe
00000020: 4701 82bd 8426 823d 8186 6fbe 98b0 9b3d
00000030: 3036 3abe 0f23 c33d 41d9 f73c 764f 363d
00000040: 4b2e d33d 2551 1f3d f2a1 943d 4763 593b
00000050: 4144 47bd ca79 cfbd 00c0 a2bd 18fa d8bd
00000060: e239 3ebe c725 953d 48a2 73bd 0bf2 d13c
00000070: 0330 84bd a36a 66bc 11e3 b9bc 09b7 85be
00000080: c1f5 943d 2da4 3f3e 4025 1f3d 0251 e6bd
00000090: c75b 053d 40a3 28be 7064 4f3d ffa9 5dbe
000000a0: ee87 9c3d 894b 80bd 2632 67bd 276f 853d
000000b0: d0fd 923d 772f 8fbb 91ac ccbd d1a8 b0bd
000000c0: 799c 243e 3b3a 103e
-0.16785547 0.07360662 0.02709348 0.11605781 0.37728357 -0.022026101 0.23913132 -0.16740492
-0.063479 0.063550025 -0.23391153 0.07602042 -0.18184733 0.09528171 0.030254962 0.044509374
0.10311564 0.038895745 0.07257451 0.0033170746 -0.048649076 -0.10130651 -0.07946777 -0.105945766
-0.18576768 0.07282596 -0.059480935 0.02562811 -0.0645447 -0.01406351 -0.022691282 -0.26116207
0.07273436 0.18714972 0.038853884 -0.1124592 0.03255823 -0.16468525 0.050632894 -0.2164688
0.07643114 -0.06264407 -0.05644431 0.06515341 0.07177317 -0.004369672 -0.09993852 -0.08625949
0.16075315 0.14084713

output_layer.weight f4 [2, 50]
00000000: c4f6 c33d fc67 d5bc c257 bfbe e066 dabd
00000010: 1d26 083d 0428 e33d 77c2 713d 5b24 e1bd
00000020: a4ef 87be 81c2 dd3d 357e 9a3d f3ec a03d
00000030: ffba dcbe f91d de3d 3597 e1be 41df 39be
00000040: c534 99be 9f9c 603c cf60 9fbe 178b efbd
00000050: 4be8 d6bd 9c2e 3abe 881d 8abe 4ace a83d
00000060: 91c8 40bc af43 94be edf0 543e 163e 12bd
00000070: d2c7 643d 5814 1dbe 7dfc 88be ac55 5f3d
00000080: c31b a0be 1747 3abe 314b a9be 5263 5e3e
00000090: 63d6 2abe 1fa2 4cbd ba9a 62be fa81 623b
000000a0: 2bf2 ddbe 73ef 5ebe d088 4a3e 6036 473e
000000b0: 8d47 0ebe 04ce 793e f02c 993e 78e3 183f
000000c0: f64d 2dbe 26d4 163e 3588 023e f7a9 a33e
000000d0: 0397 5ebe b9ac ef3e 0c8d 783c 0f2a 53be
000000e0: 2bd7 ff3d 870e 773e 57f1 5fbd a326 64bd
000000f0: 6039 f13d 41fa 42be ad8d ccbc 9e25 29be
00000100: 2c36 803e 3e4f 303d 4bcc a3bc c6e8 1fbe
00000110: 993f 0bbe 9d25 a3be 64cd 443c 3481 f3bd
00000120: a0af 2ebe 4ccf 7e3e cb23 85be f3fa 183e
00000130: 9387 c43c 3476 73be d8d6 bf3e b5cf d43e
00000140: 2fd2 8bbd e6d4 643d 5757 7cbe 1e9a be3e
00000150: 5b38 bd3e 66fd cfbd 68a9 a6be 3510 c3bd
00000160: 49b3 06be b77b 32bd f105 6b3e 7d8a a2bd
00000170: 621b c53e 0d28 803e 8879 e2be 5e6f 7ebe
00000180: 277a 8f3e 27e3 bc3e cc30 4b3e afac 6abe
0.09568551 -0.02605056 -0.3737164 -0.10664153 0.033239473 0.11091617 0.059023347 -0.109932624
-0.2655002 0.10828114 0.07543603 0.078576945 -0.43111417 0.108455606 -0.44060674 -0.18151571
-0.29923072 0.013709216 -0.31128547 -0.11696451 -0.10493525 -0.18181843 -0.26975656 0.082424715
-0.011766569 -0.28957888 0.20795031 -0.03570374 0.055854626 -0.15339792 -0.26755133 0.054525062
-0.3127118 -0.18191181 -0.3306518 0.21717575 -0.16683345 -0.0499593 -0.22129336 0.0034562335
-0.43348822 -0.2177103 0.19778752 0.19454336 -0.13894482 0.24394995 0.29917097 0.5972209
-0.16924271 0.14729366 0.12747271 0.3196561 -0.21737294 0.46811464 0.015170347 -0.20621513
0.12492212 0.24126635 -0.05467352 -0.05570091 0.117785215 -0.19040777 -0.0249699 -0.16518256
0.2504133 0.04304432 -0.019994875 -0.1561614 -0.1359848 -0.31864634 0.01201186 -0.11889878
-0.17059183 0.24883765 -0.2600387 0.1493948 0.023990428 -0.2377556 0.374686 0.41564718
-0.06827199 0.0558671 -0.24642693 0.37226957 0.36957058 -0.10155754 -0.32551122 -0.095245756
-0.1315433 -0.043575015 0.22951485 -0.07936571 0.38497454 0.25030556 -0.44233346 -0.2484717
0.28022882 0.36892053 0.19842833 -0.22917436

output_layer.bias f4 [2]
00000000: 1b22 f0be 57cc bebe
-0.4690102 -0.37265274

exp_avg f4 [50, 2]
00000000: 8995 9a3f 2611 edbe 1ea8 bc3e 3054 0ac0
00000010: 2dd9 44c0 e0c8 e2bd c07b 80c0 8d5b c6be
00000020: b72b 0c40 7ffb 2dc0 7be3 f1bf 2be1 8cc0
00000030: 9f13 853f bbca 8a3f ec64 8cc0 7ef7 4640
00000040: babf 0f40 83de 26c0 b337 2ac0 4c49 e83d
00000050: e492 a9bf 9072 e5bd 6261 a63e 53c4 5440
00000060: 044a 5f3f a679 2740 de6a 0240 e8b8 ddc0
00000070: 51ac 0840 d4b6 9abf f7aa b53d 69d6 cb3f
00000080: a094 83c0 cc34 9b3f bb02 153b d0a5 8b40
00000090: 47bd b3be 8558 5d40 64e2 8d3f cacd c33f
000000a0: 9dcb 653f ec36 14be 0c18 4340 1ce9 94bf
000000b0: 2785 bfbf 1976 f53f 4f9d 603f b9cb 57bf
000000c0: 8632 083e 57a9 0740 b3c7 3c3f ab57 02bf
000000d0: 28af dabf 5606 6240 08b8 963f 7b3f 81c0
000000e0: e10c 943f 2fb5 c83d 1d02 babf f098 d2be
000000f0: 3333 cf3e a73b 9dbe e3ac f63f 3849 ecbf
00000100: 0bfe 1e40 fa7d debf c8d6 aabf 9d13 6c40
00000110: aa8e bdbc 50c1 9fbf 8073 3140 6fbe a4bf
00000120: 560c d43f a8f7 653f eef2 d43f d94b edbe
00000130: b00e babf 3af4 2340 5a2f 04c1 5d7c a141
00000140: e632 1540 8526 96bc 3cdd 0abf 22db 08c1
00000150: 6a3f a3c0 065f 8140 75c5 acc0 a268 aa40
00000160: a7ca 503f 601c 8140 fd43 763e c866 0cc0
00000170: a17d 98c0 e7e9 ee40 dea4 0640 c876 3840
00000180: e257 96c0 e620 2d40 b26d 0e3f d0a9 02c1
1.2076885 -0.46302146 0.36847013 -2.1613884 -3.0757554 -0.1107347 -4.015106 -0.38741723
2.1901681 -2.718475 -1.8897547 -4.4024863 1.0396613 1.0843118 -4.3873196 3.1088557
2.246077 -2.607331 -2.6596496 0.11342105 -1.3247952 -0.11203492 0.32496172 3.3244827
0.87222314 2.6167998 2.0377727 -6.9288216 2.1355174 -1.2087045 0.088704996 1.5924808
-4.1118927 1.2125487 0.0022737223 4.363991 -0.35105345 3.4585278 1.1084714 1.5297177
0.89763814 -0.14474076 3.0483427 -1.1633639 -1.496251 1.9176666 0.87740034 -0.8429523
0.13300523 2.1197107 0.73742217 -0.5091502 -1.7084703 3.5316367 1.1774912 -4.038999
1.156643 0.09800183 -1.4531895 -0.41132307 0.4046875 -0.30709574 1.9271511 -1.8459845
2.4842556 -1.7382195 -1.3346796 3.688697 -0.023139317 -1.2480869 2.7726746 -1.2870616
1.6566265 0.8983102 1.6636636 -0.4634693 -1.4535732 2.5617814 -8.26156 20.185724
2.3312316 -0.018328914 -0.54243827 -8.553499 -5.101491 4.0428495 -5.3991036 5.3252726
0.8155922 4.0347137 0.24049373 -2.1937733 -4.7653356 7.4660525 2.1038127 2.8822498
-4.698228 2.705133 0.5563613 -8.166458

exp_avg_sq f4 [50, 2]
00000000: 0cc0 7942 7ebf 1442 5719 3141 bd8d f440
00000010: 292b d642 6a1d 8441 6e72 4c41 1c74 3e41
00000020: 767c 0142 8267 6e42 3545 b742 67aa fc40
00000030: 124a 1142 f3f8 f741 e300 4642 1049 1f42
00000040: ca53 6c41 115d fb40 6b9a 9e40 1402 5841
00000050: 4981 a040 f94e 9940 6395 cc41 141f 8641
00000060: bb7d 0b42 54a7 0e41 ebfe d742 ce49 5b42
00000070: 60bf 6841 75bf 1841 f281 4643 86e9 1641
00000080: 579e 6241 4bae 3240 2805 8342 dcd1 1142
00000090: c76f 1742 12dd ec40 a8b1 4a41 1af9 b640
000000a0: 95f7 eb43 b167 9d42 29b8 3142 f484 3842
000000b0: 092a 8d42 b980 f541 d4be 8040 e60c 7240
000000c0: 454f 4a42 07fd a841 61ee 1543 6ed3 c342
000000d0: e920 6441 a9a7 4d41 c1c4 b440 1398 0e41
000000e0: 00da 8242 1132 8e41 e9df 5c40 74ff b840
000000f0: 6ade b742 e24e 0942 7151 b642 6b77 d041
00000100: 504c 2843 719e 7a42 bd54 0e42 9f4b ef40
00000110: edd8 8d43 1c51 5d41 10db 6642 24c2 8841
00000120: acc4 1b43 0433 0b42 b636 8b42 efe0 1b42
00000130: 30c5 cc41 95a4 2741 6184 7143 f157 5e43
00000140: 5bc4 4e43 6ffe 1042 e961 9341 5c42 3242
00000150: 945a f643 12db f042 c3cd cf41 338b 9641
00000160: c9af 9541 134e c141 74d0 dc40 69b9 a340
00000170: fb07 ac43 e3be ac42 3965 4a43 80d9 1c42
00000180: f619 0242 6cbf 2041 2014 0143 a1a9 9942
62.437546 37.187004 11.0686865 7.642302 107.0843 16.514362 12.777937 11.903347
32.371544 59.60108 91.63517 7.895801 36.322334 30.996557 49.500866 39.82135
14.770456 7.8551106 4.95635 13.500507 5.015782 4.79089 25.572943 16.765175
34.872784 8.915852 107.99789 54.822075 14.546722 9.546742 198.5076 9.432013
14.163657 2.791888 65.51007 36.45494 37.859158 7.401986 12.668373 5.717908
471.93423 78.70252 44.429844 46.129837 70.5821 30.687853 4.0232944 3.7820373
50.57741 21.123549 149.93117 97.91295 14.258035 12.853433 5.649018 8.9121275
65.42578 17.774446 3.4511664 5.7811832 91.9344 34.327034 91.159065 26.05831
168.2981 62.654728 35.582752 7.477981 283.69473 13.832302 57.71393 17.094795
155.76825 34.79982 69.60686 38.96966 25.596283 10.477681 241.5171 222.34352
206.76701 36.24847 18.422808 44.564804 492.70764 120.42787 25.97547 18.817968
18.710833 24.163122 6.900446 5.116383 344.06235 86.372826 202.3954 39.212402
32.525352 10.046734 129.07861 76.83131

exp_avg f4 [50]
00000000: 4ccb 8640 bda0 1c40 54f5 0341 0211 c240
00000010: 790e c7c0 03c4 2b40 407f 113f c3a9 7f40
00000020: c368 01c1 f843 4340 e2f4 2cc0 6cfe 0bc0
00000030: b6d4 0fbf a2eb 5abf fd6e 98c0 ea97 b3c0
00000040: 4daa 913f 3a89 0d41 620b 89c0 c35c e9c0
00000050: 4e2d 623f eaa3 55bc a346 323f 8e14 bebf
00000060: f45b 4840 f1a3 08c0 ae34 1a40 7460 4cbd
00000070: 464b 6640 0051 2dc0 1dd9 09c0 9dc3 b140
00000080: ed7d 32c0 d125 e3bf e8ac 66bf f97e 9a40
00000090: d1b3 1b40 e419 e13f 2654 bc40 9794 8041
000000a0: a57a f3c0 1cca 00c1 8fff a240 3aef 0641
000000b0: 35ec 75c0 772f 44bf a69e 0140 daae 5cbf
000000c0: 2458 2141 324a 823f
4.2123165 2.4473107 8.247395 6.064576 -6.2205167 2.6838386 0.56834793 3.9947364
-8.088077 3.0510235 -2.7024465 -2.1874037 -0.56183946 -0.855158 -4.7635484 -5.612294
1.1380097 8.846003 -4.2826395 -7.2925735 0.8835038 -0.013039568 0.69639033 -1.4850023
3.1306124 -2.1350062 2.4094653 -0.049896672 3.5983443 -2.7080688 -2.1538765 5.5551286
-2.788936 -1.7745916 -0.90107584 4.8279996 2.4328501 1.7586026 5.885272 16.072554
-7.6087213 -8.049343 5.093696 8.433405 -3.842542 -0.76634926 2.0253081 -0.862043
10.084019 1.0178893

exp_avg_sq f4 [50]
00000000: a3cd 5242 08c9 8242 ac2f 9944 ef51 b544
00000010: 6d47 0f45 d0a6 1b44 b122 ca43 8a51 b943
00000020: 8eb9 3244 c82a d942 0f4d 7d43 795b 8444
00000030: 16ac 3e43 a55e 0745 1fa7 ac43 df72 0744
00000040: 0a3f 8643 6872 1544 39c7 e843 0d0c 9143
00000050: bf0e eb45 b697 d543 2af8 4944 e2da 0c43
00000060: 27f1 1b44 8213 3a44 be03 7e44 683e 4c43
00000070: 5fd2 4d43 acbb 0044 f529 bd43 73d8 2a42
00000080: cae9 9243 3796 d443 7ba6 1145 2639 0644
00000090: 0930 2c44 1f9f 5a44 b552 e642 352f 1945
000000a0: 31d3 3045 8864 9543 b2a6 3845 2c13 0e44
000000b0: 451a 4644 e9af 0043 06e8 5245 a160 4545
000000c0: 3b40 cf43 555a e643
52.700817 65.39264 1225.4897 1450.5604 2292.464 622.60645 404.27103 370.63702
714.8993 108.58356 253.30101 1058.8585 190.67221 2165.9153 345.30563 541.79486
268.4925 597.7876 465.55643 290.09415 7521.8433 427.18524 807.87756 140.85501
623.768 744.3048 1016.0585 204.24377 205.82176 514.9324 378.3278 42.711376
293.82648 425.17355 2330.405 536.89294 688.75055 874.48627 115.16154 2450.9504
2829.1995 298.7854 2954.4185 568.29956 792.41046 128.68715 3374.5015 3158.0393
414.5018 460.70572

exp_avg f4 [50, 50]
00000000: a6de 131c 4621 229a c65b ed1a 430b a01b
00000010: 4e20 ba9a d28a 899b d62d 5819 12dd a29a
00000020: 876d 0e1b 09bd 139c 509b 179b 5741 151b
00000030: 777c 5b9a 85be 951a 19cb 581b ef89 771b
00000040: 88cc 249a a907 479b 279d 961b dff1 611b
00000050: 94fb 7e1b e247 919b fee1 6d9b 83d4 529c
00000060: 364f 7b1b ba6c b91b 85ae b21b d34d be9a
00000070: 1381 a397 22c1 331c 8523 569c 1119 899b
00000080: 4f8d 1c9b 355a cd1a 16af f41a bad8 aa9b
00000090: 0b3b a69b 6291 809b 45ba f41b dc05 a31b
000000a0: 32e7 7f1a 31e7 c09a 485e 1f1b 0d3d fb99
000000b0: bf8a c099 ed0b b19b f5a4 0f1b 0b93 3a9b
000000c0: 278b ef1a c622 4d9b ff8e 1e9c 555e a51a
000000d0: 303b 069b 34c1 e09b c901 8b1a 0f2b 971b
000000e0: 17a9 1d1b cfe3 291b d17a 6d1b 88d4 aa1b
000000f0: e384 841b 59ae 6d9a 45ea 6d1b 4107 809a
00000100: 718c 7c9b e587 369b 3377 6b9b 5398 899a
00000110: 658f d39b ff08 bb9b ade7 349b dbca c21b
00000120: 38e8 309b 0675 db1b 448e 899b 3dfe f19b
00000130: dd15 b39b 9d6f 9c1b 98a3 341b 94bd e69b
00000140: a850 391c 4de8 ce1b fcf8 b61b 0ba1 c299
00000150: 0789 aa9a f768 ed1b 7fa0 ec1a 56bc cf98
00000160: 972b f79b 052e 889b e258 5c1b 2be0 5f1b
00000170: ac7d 079b 4c5a 3e19 6d02 609a 5b39 ee1b
00000180: 019f 059b 4aae 8d1b 9f2b de9b 0f19 3d1b
00000190: af9d 0d9a 93a3 6d9b 41c3 789b 8725 9699
000001a0: 0950 fd9a d627 4f1a b07c 1b1a e2ca 401a
000001b0: 6ded 419c 7df1 0d1c d499 b91b e866 c91a
000001c0: 8571 f61a d735 5f19 2204 c29b b730 a09b
000001d0: ca9e 891b ee32 929a ebd8 001c a7aa c71b
000001e0: c29c 329b dadc 021b bc10 2519 37ba 561c
000001f0: 8e8f 161c 3320 241b e91c 299b 5393 301b
00000200: 457b 649b 3672 379c 9fa8 8b1a 398a 5619
00000210: fad3 f198 1153 c118 5711 889a 9785 699a
00000220: 958c 8319 c701 919a 4146 9f9b 378e 1d1a
00000230: 1986 aa19 ddc4 af1a e2c3 fd98 f152 101c
00000240: 65ac 3418 c9a1 889a 355d a69b 0ced 7f1a
00000250: 91f7 a21c 8dde e71a a59a 6a1c a4d0 561c
00000260: e1ad 831c b74e 9199 d925 871c 6872 371c
00000270: 304d f19b d3a6 a29b e04c cb1a a6b4 8b9c
00000280: f0e1 cd9b de54 9b1c 2c13 4f1b f5d2 181b
00000290: d96d 511c e461 911c 4193 a89c 5d53 c59b
000002a0: 10c7 2e9a b76b 8c9c 6ac0 ac1c a6af 499c
000002b0: 04b8 8b9c 4c25 e99b 526e 6e19 a254 459a
000002c0: c6de 991c af28 e59b 45eb 5e1c 1fd2 ca1b
000002d0: 149e 369c 3fa2 451c 0a24 ab1a dfec 4e9c
000002e0: 87aa 869c 34df 301c 8d1b 981b 39af 829c
000002f0: 323e 231c 4be3 499c c6b2 681b e3fa 161a
00000300: f368 391c 4f39 029c e714 331c 0d10 161b
00000310: 9044 761c a422 251b 764a b31c d63c 511c
00000320: 7914 ea19 5af3 f41a 5e63 d999 ef3b 489a
00000330: f5b1 2e99 0592 ad1a 1668 2d1a a094 349a
00000340: b5f8 911b 5df4 691a 6558 c41a 80d5 5519
00000350: a202 bf97 4107 0a9a 3152 099a 529b 7599
00000360: 655e 8c9b cc71 e399 a512 319b 2622 8f9b
00000370: 1f13 0019 7116 8099 55d0 f89a a55b 201a
00000380: f30e 069b 3b6b 379b b468 a119 3848 5b1a
00000390: e09b 4d1b 84c7 9a99 6e8a 359a 7b58 911a
000003a0: 739a 8719 dd9a 869a a9da c118 4e5a a21a
000003b0: 0d69 2a19 7322 049b 5c38 7898 91cb 939a
000003c0: 1d67 1e1a 6986 121a df7a bd1a 9c71 119a
000003d0: 842b 6b1a 25d3 571a 7fbf 731a b6bd 1f1a
000003e0: 1ac6 b19b fbc5 e619 dc4b 521b e6ba 0c9c
000003f0: fb02 6b1a d29e b51b 160a 549a c869 d79b
4.8925986e-22 -3.3527693e-23 9.816917e-23 2.6477057e-22 -7.697999e-23 -2.275446e-22 1.1176195e-23 -6.735879e-23
1.1781355e-22 -4.888254e-22 -1.2540611e-22 1.2346104e-22 -4.538868e-23 6.1932757e-23 1.7932726e-22 2.047593e-22
-3.4079624e-23 -1.6463369e-22 2.4916976e-22 1.8689717e-22 2.1091677e-22 -2.403469e-22 -1.9677203e-22 -6.9757836e-22
2.0787828e-22 3.0675946e-22 2.956041e-22 -7.870789e-23 -1.0566211e-24 5.947575e-22 -7.085257e-22 -2.2680948e-22
-1.2949677e-22 8.493175e-23 1.011989e-22 -2.8264197e-22 -2.7500552e-22 -2.1269775e-22 4.0486788e-22 2.6969875e-22
5.2919522e-23 -7.978285e-23 1.3182636e-22 -2.597745e-23 -1.9908374e-23 -2.92899e-22 1.1881983e-22 -1.5433072e-22
9.9072896e-23 -1.6968438e-22 -5.2462633e-22 6.83948e-23 -1.1103345e-22 -3.7182546e-22 5.7491937e-23 2.500868e-22
1.3041371e-22 1.4052961e-22 1.9643865e-22 2.8261486e-22 2.1923444e-22 -4.9151288e-23 1.9679877e-22 -5.295128e-23
-2.089033e-22 -1.5098597e-22 -1.947726e-22 -5.6907965e-23 -3.4999688e-22 -3.0942368e-22 -1.496411e-22 3.22257e-22
-1.4633413e-22 3.6306135e-22 -2.2756686e-22 -4.0034403e-22 -2.9627195e-22 2.5880164e-22 1.4942111e-22 -3.817282e-22
6.131561e-22 3.4229962e-22 3.0270277e-22 -2.0124175e-23 -7.053173e-23 3.9276193e-22 9.786661e-23 -5.3698417e-24
-4.0890892e-22 -2.2529052e-22 1.8226693e-22 1.851856e-22 -1.1207545e-22 9.841005e-24 -4.6324074e-23 3.9410862e-22
-1.1052879e-22 2.3439125e-22 -3.6755009e-22 1.564181e-22 -2.9285492e-23 -1.9657034e-22 -2.0577169e-22 -1.5524794e-23
-1.0476765e-22 4.2838776e-23 3.215397e-23 3.9868557e-23 -6.416521e-22 4.6965103e-22 3.0705092e-22 8.3297906e-23
1.01926616e-22 1.1539703e-23 -3.2097279e-22 -2.650126e-22 2.2767364e-22 -6.0466466e-23 4.2632007e-22 3.303207e-22
-1.4774466e-22 1.0824709e-22 8.5336795e-24 7.104734e-22 4.9816377e-22 1.3576166e-22 -1.3988694e-22 1.4605982e-22
-1.8899548e-22 -6.0697235e-22 5.7761475e-23 1.10914545e-23 -6.251108e-24 4.9973206e-24 -5.6276296e-23 -4.8291184e-23
1.3601863e-23 -5.9973466e-23 -2.6349744e-22 3.258172e-23 1.763175e-23 7.2696353e-23 -6.559676e-24 4.7752803e-22
2.3351492e-24 -5.650966e-23 -2.752263e-22 5.292425e-23 1.0784255e-21 9.589891e-23 7.762398e-22 7.107632e-22
8.713799e-22 -1.5024441e-23 8.943334e-22 6.0697487e-22 -3.9919987e-22 -2.690846e-22 8.408303e-23 -9.244945e-22
-3.4060414e-22 1.0278977e-21 1.7128833e-22 1.2641309e-22 6.9294274e-22 9.620599e-22 -1.1155372e-21 -3.2644788e-22
-3.6143158e-23 -9.292266e-22 1.1431743e-21 -6.673234e-22 -9.245815e-22 -3.857072e-22 1.2326591e-23 -4.080701e-23
1.0182276e-21 -3.7911163e-22 7.3757717e-22 3.3553884e-22 -6.042306e-22 6.539153e-22 7.0782167e-23 -6.846583e-22
-8.911456e-22 5.8522e-22 2.5164095e-22 -8.647972e-22 5.401256e-22 -6.679909e-22 1.9248355e-22 3.1221938e-23
6.134701e-22 -4.308746e-22 5.925315e-22 1.2412895e-22 8.1483187e-22 1.3659673e-22 1.1864474e-21 6.923093e-22
2.4203302e-23 1.0130919e-22 -2.2477408e-23 -4.1407445e-23 -9.031527e-24 7.178703e-23 3.585964e-23 -3.7343186e-23
2.414896e-22 4.8380666e-23 8.120651e-23 1.1054958e-23 -1.234375e-24 -2.854359e-23 -2.839733e-23 -1.269757e-23
-2.3222058e-22 -2.3517212e-23 -1.4647121e-22 -2.3679433e-22 6.621306e-24 -1.3243954e-23 -1.02906975e-22 3.3161254e-23
-1.108905e-22 -1.5172053e-22 1.6689299e-23 4.5346476e-23 1.7007568e-22 -1.600381e-23 -3.7541745e-23 6.011354e-23
1.4021054e-23 -5.5671296e-23 5.011012e-24 6.7147525e-23 8.810009e-24 -1.0929915e-22 -3.2081703e-24 -6.1126654e-23
3.275693e-23 3.0300668e-23 7.8367077e-23 -3.007707e-23 4.8632013e-23 4.463152e-23 5.040591e-23 3.3033677e-23
-2.9410214e-22 2.3861406e-23 1.7395304e-22 -4.6563675e-22 4.859927e-23 3.0046573e-22 -4.384872e-23 -3.5637126e-22

exp_avg_sq f4 [50, 50]
00000000: fa84 ea3f 5bae 2c3f 81c2 923f 5c3c b93f
00000010: 0b15 223f 079a 223f 9c7c 1f3f bbca 173e
00000020: 9db7 a93f 78bd 2140 0fce 1540 829e 053e
00000030: c6b2 7a3e fafc 1d3e 72c6 e33f 9c52 a43f
00000040: 5fee 823f 8b8d 5a3e 33fd 883f a60a b13f
00000050: 843c 673f 5d2f 9c3f 0fe3 803f d4b9 3f40
00000060: 86b9 823f e644 0f40 e6db 933f baad f23f
00000070: b7b7 4f3f a461 2f40 b9df d93f 9fd4 533f
00000080: 9e42 4c3f 178e aa3e 4d3e 853e 7e0e 893f
00000090: fec9 703e 9203 f23e a8be 0540 5705 ec3e
000000a0: d295 223f 8ed2 073f 4f3a 083e 09e6 9e3f
000000b0: 484e 743e d40f 8b3f 0f40 6b3f 962f 283f
000000c0: fc4a e43f 4c4b 3b3e baf4 073f df19 a23d
000000d0: b2b6 ab3e 9c27 df3e 36ba 143e d1ce c73d
000000e0: 9eb2 563e 369b b83c 996d 233e 966b 223f
000000f0: 9b9c 253f 9f63 eb3c 52b1 5e3d da77 303d
00000100: fc8b eb3e 4df3 ba3e 67c6 003e f3d3 413d
00000110: b5b3 fa3d e3b4 713e b73e 833e c9da cc3e
00000120: d049 833e 00a9 5d3f d1bb fe3d d9d2 223f
00000130: ebc8 bc3e 2bc7 093f 85c1 ad3d 3829 543f
00000140: b4e1 043f 45c3 313e f2e7 523e 6831 193d
00000150: fc90 5a3d 1324 6f3e 4fd4 d43c fba9 e83d
00000160: df64 2a3f 922e 4f3d ca26 2b3e 62bd 233e
00000170: 97b1 4b3c 6fd1 7e3e 2bbe f53c a90c 923e
00000180: fc9e 3c3e a846 3f3e 3891 5a3e 079d 9a3c
00000190: d9f8 ed3f cb96 803f 6bed d63f a87d 743f
000001a0: ceb3 8a3f 8eea ac3e 9e14 1b3f eb16 153e
000001b0: fe5e f13f 303c 7040 5b00 4540 4896 483e
000001c0: 1e1d 293e e644 833d 55f8 2240 23eb f53f
000001d0: 4234 2a3f 337d 2e3e 2f69 b73f 52f2 283f
000001e0: d134 b23f b7cc 9c3f 4d65 193f 9588 8240
000001f0: d234 ce3f 9a78 e53f 199d b73f 2137 1040
00000200: 2f53 593f 26c1 5e40 a61a 9b3f 3c7e c63e
00000210: 14f3 123f 4024 e33e b92a e73e 42a2 073f
00000220: 11d6 963e c539 3b3e 1514 1040 ec04 1f3f
00000230: 8121 023f c892 953e b24b c83d 3bea 0740
00000240: c7a3 a13e 0089 223f da1f c23f a220 a53e
00000250: a3b4 2640 62ee 323e 73dc 2c40 c818 0741
00000260: 6b87 af40 6830 f53e 69a9 ca40 a331 8640
00000270: ffa1 5d3f d84a 5e3f 59bb 8041 7f38 3341
00000280: 054b e040 8750 cf3f beb9 fc3e 8ed0 813e
00000290: 4c19 fe40 1606 cf40 c22b 0b41 2afb 043f
000002a0: 24d3 5641 7897 cc40 f43d ad40 da77 b13f
000002b0: d5c1 853f 77be e740 2d65 4e41 c8ed fa3f
000002c0: 9089 4440 f7fd 9040 5769 1541 a291 ab40
000002d0: 9fe1 103f c709 0b40 cd67 6c3f 937a 7040
000002e0: 8fd0 5340 7eb6 1640 122d 1d40 7bda 733f
000002f0: 79d9 2240 cae4 c540 974f 4c3f 8773 833e
00000300: bf92 913f 2917 2f41 fe6c 1740 1fb5 643f
00000310: f415 fe40 6c27 f03e 5e61 a541 f9d3 0a40
00000320: 6bac aa3d 65ae 4b3d 2204 973c 9892 e43d
00000330: 8a8e 8c3c 8476 8a3d 573b bf3c 4dd5 653b
00000340: 7051 bf3d b79d 213d c16b 653d 9686 783b
00000350: 3c31 1c3c 29e8 183c 10cb ee3c 3f8d a33c
00000360: 504c cd3d 29e7 d03b c611 a63d 8c7e 093e
00000370: f27f 6f3c ea58 523d 3cbb 933d 7fb3 ae3d
00000380: cc51 9b3d 147d 2a3e ba64 eb3c 90d7 6b3d
00000390: 0931 a63d eaa8 cd3d ca1c 063e 49ee 8f3d
000003a0: b48b 253d 8d37 b53c 2765 263c 1105 b43d
000003b0: 193f 663c addf 2b3d 5adb ce3d 3fb7 213d
000003c0: 7670 d93c e37b 123d 0c0b 1b3c e071 1b3d
000003d0: db53 403c b862 a43d 5763 d93c 6d98 513d
000003e0: dbe3 013e 742f 963c e019 083f 872f 413f
000003f0: cab0 f73e e928 203f 2e6b d33e f706 243f
1.8321831 0.67453545 1.1465608 1.4471545 0.6331336 0.6351628 0.62299514 0.1482343
1.3259159 2.5271893 2.3407018 0.13048747 0.24482259 0.15428534 1.7794936 1.283771
1.0228995 0.21343057 1.070227 1.3831375 0.90326715 1.2201954 1.0069293 2.995717
1.0212867 2.2385802 1.1551483 1.8959267 0.811397 2.7403345 1.70214 0.8274631
0.7978915 0.3331153 0.26024094 1.0707548 0.23514554 0.4726835 2.0897617 0.46097824
0.6350986 0.53055656 0.13303493 1.2413951 0.23857987 1.0864205 0.9189462 0.6569761
1.7835383 0.18290442 0.531078 0.07915091 0.33537823 0.43584907 0.14524159 0.09756244
0.20966575 0.022534948 0.15959777 0.63445413 0.64692086 0.028734026 0.054368325 0.04308305
0.46005237 0.3651375 0.12575684 0.04732127 0.12241308 0.23604159 0.25633785 0.4001067
0.25642252 0.86586 0.12438167 0.6360298 0.36872038 0.5381953 0.084841765 0.82875395
0.51906896 0.17359646 0.20596293 0.037400633 0.053360924 0.23353605 0.025980143 0.11360546
0.6656017 0.050581522 0.16714016 0.15990213 0.012432477 0.2488458 0.029997906 0.28525284
0.18420023 0.18679297 0.21344459 0.018873705 1.8591567 1.0046018 1.6791204 0.95504236
1.0836122 0.337727 0.60578334 0.14559524 1.8857114 3.7536736 3.0781467 0.19588578
0.16515014 0.06409626 2.546407 1.9212383 0.6648599 0.17039947 1.4328974 0.6599475
1.3922368 1.2249974 0.599202 4.0791726 1.610987 1.792743 1.4344817 2.2533648
0.84892553 3.4805388 1.2117507 0.38768184 0.5740216 0.44363594 0.45149782 0.5298196
0.29460195 0.18283756 2.2512257 0.62116885 0.5083237 0.29213548 0.09780063 2.1236713
0.31570265 0.63490295 1.516597 0.3225146 2.6047752 0.17473748 2.7009552 8.44355
5.4852805 0.47888494 6.33318 4.193559 0.8657531 0.8683295 16.091478 11.201293
7.0091577 1.619645 0.4936046 0.25354427 7.940588 6.469493 8.698183 0.51945746
13.426548 6.39349 5.4138126 1.3864701 1.0449778 7.242 12.899701 1.9603815
3.0708961 4.5310016 9.338218 5.3615274 0.5659427 2.1724718 0.9234589 3.7574813
3.3096044 2.3548884 2.4558759 0.9525525 2.5445235 6.1841784 0.79808944 0.25674078
1.1372908 10.943154 2.3660274 0.8933887 7.94018 0.46905077 20.672543 2.1691878
0.08333667 0.049726862 0.018434588 0.11160773 0.017157812 0.06760886 0.023343725 0.0035069764
0.09341705 0.03945705 0.056010965 0.0037922016 0.009533223 0.009332695 0.029149562 0.019964812
0.10024321 0.0063752127 0.08108859 0.1342718 0.014617907 0.051354326 0.072134465 0.0853033
0.07583961 0.16649276 0.028734554 0.057578623 0.081148215 0.100419834 0.1309692 0.07027871
0.040416434 0.022121215 0.010155953 0.08790029 0.01405313 0.04196136 0.10100432 0.039481398
0.026542883 0.03576268 0.009463083 0.037950397 0.011738743 0.080266416 0.026536627 0.051170755
0.12684576 0.018333174 0.5316448 0.75463146 0.48377067 0.62562424 0.4129271 0.6407313

exp_avg f4 [50]
00000000: 9340 941d c240 c71b b839 991d 1714 be1e
00000010: 7a52 059d 6ff6 1b1e 49d1 469e e7a3 121e
00000020: e8d2 b51b 655e 7e9a b384 b91c 485f 041e
00000030: 5c56 889d 24cd 0e9e 6574 bb9e a70e 7e1e
00000040: 7a64 231e b11b 7a1d af03 eb9c de90 151e
00000050: f9be 5a1d 3a8f fd1d 6e6e b89d d129 f59d
00000060: 2fcc 939c 6a7a f51c d7d3 861b 53e4 fe9c
00000070: b3d3 ae9c 77f7 339d 3b86 699d f8cf 019d
00000080: aea1 e81d e086 2e1c 9cd6 981d 4132 f99a
00000090: c14c d21d 7c79 059d 2a39 879e cd23 c59d
000000a0: 5fc6 129d 8ee2 b09d cf4b 8d9d 0926 359e
000000b0: d65d 3d1c 7c35 cf9c 26a3 189e c9d7 c01c
000000c0: b434 421e 35fd ce1d
3.924204e-21 3.2963637e-22 4.0558443e-21 2.0125341e-20 -1.7645043e-21 8.256593e-21 -1.0525312e-20 7.76307e-21
3.0080233e-22 -5.260222e-23 1.2276575e-21 7.0077255e-21 -3.6088194e-21 -7.5598395e-21 -1.9847535e-20 1.3449678e-20
8.649926e-21 3.310154e-21 -1.5551948e-21 7.917952e-21 2.895079e-21 6.7116635e-21 -4.8818576e-21 -6.4894197e-21
-9.780424e-22 1.6244383e-21 2.2305339e-22 -1.686733e-21 -1.1569077e-21 -2.381839e-21 -3.0906689e-21 -1.7180525e-21
6.157706e-21 5.774609e-22 4.0455966e-21 -1.03065176e-22 5.56659e-21 -1.766521e-21 -1.4317323e-20 -5.2182483e-21
-1.9425495e-21 -4.6821064e-21 -3.7400773e-21 -9.589926e-21 6.2656134e-22 -1.3711936e-21 -8.080551e-21 1.2761273e-21
1.0281173e-20 5.4789556e-21

exp_avg_sq f4 [50]
00000000: 722e 3043 115c 6041 3eb5 7a42 dc4e d344
00000010: 2165 8840 69c9 be42 8e01 7a43 0230 6643
00000020: 3080 4f41 17ca 9e42 fad2 3a41 bc81 4c43
00000030: 3bf0 0843 b002 2f43 da33 b844 d464 3c44
00000040: f55d d043 53b8 2041 bac8 f440 6f0f 6d43
00000050: e063 2442 8f1f 5843 bd86 0841 4aff 6942
00000060: 1271 4242 ca6a e441 6fff 0b42 ae09 0e42
00000070: 6cb8 0342 7221 a442 d321 4242 6857 9341
00000080: d5b4 ba43 6467 1943 2922 8642 78e0 8142
00000090: a03d ba42 b27f 2a41 f9c0 5544 c85b f942
000000a0: 6547 0b42 e593 5a42 1b3c c042 9e66 0144
000000b0: 7810 0040 1186 2342 a2f6 d143 f43f 4641
000000c0: e8ca 3144 ec84 5842
176.18143 14.022477 62.676994 1690.4644 4.262345 95.39338 250.00607 230.18753
12.968796 79.39471 11.676508 204.50677 136.9384 175.0105 1473.6204 753.57544
416.73404 10.045001 7.6495028 237.06029 41.097534 216.12328 8.532895 58.499306
48.61042 28.552143 34.999447 35.509453 32.9301 82.06532 48.53303 18.417679
373.41275 153.40387 67.06672 64.938416 93.12036 10.656176 855.0152 124.67926
34.81972 54.64443 96.11739 517.6034 2.0010052 40.880924 419.92682 12.390614
711.1704 54.129807

exp_avg f4 [50, 50]
00000000: 9432 339c a8b1 d61b 9a8c c21b e018 939a
00000010: 3434 999c 68ac b99b 7a81 5e1a 7027 511b
00000020: 30aa ee9b 1968 c71c e7b0 a21b 109f 429b
00000030: 0014 8d1c faaa 3a9a dd4f 511b e6a4 139c
00000040: cc45 831b dc03 d79b 68ab c11a 7016 221b
00000050: 1d87 089b 0750 031c c726 761c 2f70 d31b
00000060: 5554 1a1c 503d 7c9c 6210 fc1b 9cd6 3e9c
00000070: c0f1 b01c 0eaa 501c aebb 401c f1c4 009c
00000080: 7611 879c f995 049d 09fb 749c 935b a09b
00000090: 1cbf 929a 8bb0 1799 d29d b51b f9e4 6d9c
000000a0: 774b 929c 1df1 3e1a 9ede b81c 8645 949a
000000b0: 8e68 521a fa69 659b 237b 3a9c 8253 cc1b
000000c0: d797 0899 5aab 041c e4e8 091c 125a 341b
000000d0: 0115 f61b ec75 449c a9fb d49b 45d1 d31b
000000e0: 35da b39b 90d7 da1a ba23 fe9a 4e2c 361c
000000f0: d142 969a 64b8 551b cb44 0b1c 9ccf 0e9b
00000100: 359e 821a 69ae 7f9b f784 3d1b f880 ff1b
00000110: caa6 241c 51fb bc1b fb85 8e9a 2f69 7a1b
00000120: b942 b31a eb89 299c 3386 df9b 0840 1f9c
00000130: a775 0d1c cbac c09a 0b4c 1c1c 88bb 5a1a
00000140: e035 479b cbb0 0d9c 2961 af9b 5eb0 b69c
00000150: 76c0 ff9a c84a 429a b985 3c9c d6be 061b
00000160: c70a da9b cb90 219c 4f63 7e1b ca9b d91b
00000170: c4f5 831b 20f8 241a 9f3b 9c9b a44c 4d9b
00000180: 0d5a d49b 2a08 e11a 1dd0 101c 0bac 1e1c
00000190: 9056 d41b b16e a79b 9bbe 5e1b 5e2a 821b
000001a0: 8141 911b 359a 471b 58e5 e39b 2574 5f9b
000001b0: 95b4 fd1a 4ee3 f49a 4707 1f1c d46a 6d9c
000001c0: 64fd 9f99 cc07 889b 826b ac9b 4656 321a
000001d0: e892 139a 1de8 269b ce27 079c e187 ea1b
000001e0: c9c8 c21b 0f4a a61a a53d 0d1c 504b 431b
000001f0: 114f a69b 900d 091b 3cdb 109c 2551 8b99
00000200: fb61 0f1a 1efb 771b a7ed 441c 616d 0c1c
00000210: f9fc dc1b 1f33 a09b cdb4 b29c f567 ba1b
00000220: 9bf2 e91b 038b 3c1b 0d7e 079c 1cb7 d39b
00000230: 9f9e c79b ffc1 949b 87ee a01b 3565 521b
00000240: 9e01 109c 47b1 181c 8734 0b9c a728 451c
00000250: 1241 bd9b 6312 739b 79d3 5c9b 2a5c 879a
00000260: 58fb 0c9a 331b 3b1b 21b4 189b 7a75 f516
00000270: 298e 1919 0b7f be1a 17f7 321a 86f6 041a
00000280: 9709 a819 eab5 0c1b 78f8 da9a 879a 1b9b
00000290: 76e8 6c9b a9dd 371b 0c8d c31a fd8f 909a
000002a0: a16c 459a af19 f499 911b 131b 8fb1 7a1a
000002b0: a35c 1819 9aa7 dd1a a834 051b 4f30 b61a
000002c0: e425 e61a 36d3 6d9b 96e5 ba19 90b8 161a
000002d0: 9ab7 db17 1403 419a ea72 051a d072 971b
000002e0: 925d 721b 357b 7d9a 2d20 9d1a 85a7 b79a
000002f0: eb54 119b 81a1 6f19 59d8 0a9b 1f3e c49a
00000300: f41e b21a 9c70 169b dad0 d61a 93f9 009b
00000310: e5c1 0f9a bf5e 269b 29ae 931a 5547 8699
00000320: 1687 3a1c 0989 d398 36b9 091c 54bf 249b
00000330: 84e8 0f1c 3062 571a 9354 1f9b f554 9d1a
00000340: 8ec8 139b a387 5b9c 7e2f 4f9a a1d1 0e1b
00000350: 64a0 369c 2a0a 5f1a a7b1 6e1b 5a9e 5519
00000360: c393 6e9b e063 871b eca5 151c 55ac dd1a
00000370: af79 461b 5492 071b 45dd b69b b624 db9b
00000380: 5996 cd9b cf17 171b a2b0 231a 14f0 9d1b
00000390: f9dc c19b 90c0 289b f5c2 019c cffa a01a
000003a0: 1ca3 469a b702 661c b954 511c 90ff be1a
000003b0: e6ae a69b d031 799a 4dec 989b 5f68 b518
000003c0: 62a8 451c 9625 0a1b 1bcb 249c e013 c09b
000003d0: a1e6 4a99 90ce 5f1a b450 361a 9adc 0e9b
000003e0: 2c77 3c1b 933f 559b 2028 469c 49d8 bb1a
000003f0: 4ffa 0c9c f895 809a 9ec0 9c9b efab 099b
-5.9291503e-22 3.5518138e-22 3.218547e-22 -6.083796e-23 -1.0138185e-21 -3.0717098e-22 4.6013114e-23 1.7300818e-22
-3.9483778e-22 1.3195624e-21 2.6914972e-22 -1.60987e-22 9.335767e-22 -3.8602012e-23 1.731388e-22 -4.8851346e-22
2.1717237e-22 -3.557126e-22 8.009985e-23 1.3407576e-22 -1.1293314e-22 4.3447697e-22 8.144469e-22 3.497952e-22
5.106332e-22 -8.345905e-22 4.170049e-22 -6.3143103e-22 1.1709194e-21 6.904122e-22 6.377004e-22 -4.260619e-22
-8.938064e-22 -1.7547589e-21 -8.1057283e-22 -2.6528958e-22 -6.069294e-23 -7.8421696e-24 3.0045927e-22 -7.871266e-22
-9.680977e-22 3.948585e-23 1.2233644e-21 -6.1323687e-23 4.351144e-23 -1.8976679e-22 -6.170139e-22 3.3802935e-22
-7.061699e-24 4.3896603e-22 4.56305e-22 1.4918354e-22 4.071086e-22 -6.500337e-22 -3.523509e-22 3.504226e-22
-2.975408e-22 9.0510947e-23 -1.0510966e-22 6.027601e-22 -6.2146494e-23 1.7678527e-22 4.6080155e-22 -1.1813047e-22
5.402234e-23 -2.114946e-22 1.5676677e-22 4.2269555e-22 5.447862e-22 3.12644e-22 -5.894628e-23 2.0713502e-22
7.414046e-23 -5.6095664e-22 -3.697898e-22 -5.2691445e-22 4.680505e-22 -7.96885e-23 5.1714353e-22 4.523283e-23
-1.6478302e-22 -4.6881486e-22 -2.901411e-22 -1.208934e-21 -1.05776466e-22 -4.0178668e-23 -6.2376815e-22 1.1145883e-22
-3.607204e-22 -5.345757e-22 2.1042476e-22 3.6000315e-22 2.1830954e-22 3.411484e-23 -2.5846564e-22 -1.6981966e-22
-3.5130652e-22 9.307101e-23 4.7914583e-22 5.2500175e-22 3.5128398e-22 -2.7699365e-22 1.8424998e-22 2.1534075e-22
2.4030569e-22 1.6510721e-22 -3.770221e-22 -1.8483656e-22 1.04930093e-22 -1.01283265e-22 5.2618093e-22 -7.8554794e-22
-1.6542558e-23 -2.2504351e-22 -2.8524488e-22 3.6879228e-23 -3.0517557e-23 -1.3806198e-22 -4.47192e-22 3.8799862e-22
3.2224362e-22 6.877564e-23 4.673266e-22 1.6154357e-22 -2.7513492e-22 1.1336757e-22 -4.7928957e-22 -1.4405037e-23
2.9650855e-23 2.0512501e-22 6.515812e-22 4.6463483e-22 3.6559427e-22 -2.6502816e-22 -1.1825788e-21 3.08383e-22
3.8703397e-22 1.5595913e-22 -4.483067e-22 -3.5025354e-22 -3.3024295e-22 -2.4609913e-22 2.6623924e-22 1.7403495e-22
-4.7647693e-22 5.0521707e-22 -4.605913e-22 6.5234374e-22 -3.1309478e-22 -2.010643e-22 -1.8266304e-22 -5.598359e-23
-2.9154355e-23 1.5477066e-22 -1.2631348e-22 3.9656023e-25 7.938624e-24 7.878741e-23 3.7009135e-23 2.74961e-23
1.7374666e-23 1.1639308e-22 -9.056411e-23 -1.287123e-22 -1.9596575e-22 1.5209027e-22 8.0877983e-23 -5.978963e-23
-4.0826395e-23 -2.5239382e-23 1.2168462e-22 5.184222e-23 7.876924e-24 9.167423e-23 1.1018516e-22 7.535148e-23
9.5186986e-23 -1.9672426e-22 1.9324678e-23 3.116836e-23 1.4198891e-24 -3.991395e-23 2.7596582e-23 2.505505e-22
2.0048005e-22 -5.24187e-23 6.498566e-23 -7.595767e-23 -1.2021557e-22 1.2388626e-23 -1.1484998e-22 -8.116406e-23
7.366908e-23 -1.2444095e-22 8.8845743e-23 -1.0668554e-22 -2.9728334e-23 -1.3761812e-22 6.1079146e-23 -1.3884086e-23
6.171683e-22 -5.468059e-24 4.5568877e-22 -1.3627583e-22 4.761525e-22 4.4540273e-23 -1.3179499e-22 6.5070934e-23
-1.2224358e-22 -7.263633e-22 -4.284496e-23 1.18137e-22 -6.042605e-22 4.612353e-23 1.9744301e-22 1.1043821e-23
-1.9734643e-22 2.239842e-22 4.9514414e-22 9.1681875e-23 1.6417494e-22 1.121422e-22 -3.0252366e-22 -3.6254235e-22
-3.4011565e-22 1.249812e-22 3.3850293e-23 2.6128618e-22 -3.2071972e-22 -1.3958855e-22 -4.2934496e-22 6.657965e-23
-4.10772e-23 7.6104125e-22 6.92618e-22 7.899504e-23 -2.7575422e-22 -5.153223e-23 -2.5298996e-22 4.689279e-24
6.539946e-22 1.1427237e-22 -5.4525556e-22 -3.177658e-22 -1.048973e-23 4.628218e-23 3.770191e-23 -1.1817245e-22
1.5589502e-22 -1.7639489e-22 -6.5564565e-22 7.7690815e-23 -4.664563e-22 -5.3181847e-23 -2.593251e-22 -1.1387929e-22
