weights/checkpoint/example0001_train_adam.pth (torch, 73855 bytes, 25 tensors)

a f4 [5]
00000000: cdcc 4c3e cdcc 4c3e cdcc 4c3e cdcc 4c3e
00000010: cdcc 4c3e
0.2 0.2 0.2 0.2 0.2

input_layer.weight f4 [50, 2]
00000000: 9e88 d1bf 8b7e 133f 3e6a 05bf 1f7c 66bf
00000010: 379d 8dbf a45a 5fbe e386 a9bf 7e56 803f
00000020: 81c8 24bf d89b d6be 03d0 193e b89c 61bf
00000030: 2810 3a3f 88b4 49be c9cc 593e 5208 a13c
00000040: 9779 47bf 9bbd cabf cb02 1240 0a4b d53e
00000050: f512 0740 e3e8 ecbd 07f5 8fbe 5208 19be
00000060: 36cd 993e 7e7a a8be 482f 85be 81ab bc3d
00000070: 51d5 cebf 988d 8dbe 0578 9cbf 62cc 76be
00000080: 47b2 8cbe ef1a b03f ce44 aabe 5c2a 313e
00000090: 5f30 013f f34e b03f 1680 6abf 85d0 d13f
000000a0: 2c96 79bf 7da7 65be 7136 943f 856e bcbe
000000b0: 9ef8 52bf 6e9f 553f 5fdb 4040 a6df 78be
000000c0: a3f6 483f a940 9d3f 9f2b ffbf 8b63 b03f
000000d0: 85f2 92bf 3ffc f23d 1932 d73f b2dd 49be
000000e0: bab8 6cbe 7b49 a4bf e9b0 26c0 4a72 e53e
000000f0: ac49 c83f 34e2 87bf b9e3 203f ab68 72bf
00000100: fed5 583f 11a9 f3be 4de8 603e 0e01 183f
00000110: 4fea d13e e9f2 a43e e4ce 523f 7b65 87bf
00000120: de6e 5cbe 5cc1 c3be 3553 babe b1bc 1c3f
00000130: 1568 ecbf 0571 253f 1988 713e 9888 4c3f
00000140: bf0f 333f 159f a1be 87b0 073f ee5f e8be
00000150: 5b6f 80bc 548e 84be efef 973f c42d 583f
00000160: b5e2 91be 1466 b1be 6338 7d3f ae06 5bbf
00000170: 83b9 68bf a07c 16bf 65bd 2a3f adc9 14bf
00000180: 50af 993f 8414 0a40 0d58 7dbd 20ad f3be
-1.6369817 0.57614964 -0.5211524 -0.90033144 -1.1063603 -0.2181192 -1.3244289 1.0026395
-0.64368445 -0.41915774 0.15020756 -0.8812976 0.726809 -0.19697773 0.21269526 0.019657288
-0.77919906 -1.5839113 2.2814205 0.41658813 2.110532 -0.11567857 -0.2811663 -0.1494458
0.30039376 -0.32905954 -0.26012635 0.09212399 -1.6158849 -0.2764709 -1.2224127 -0.24101403
-0.27479765 1.375822 -0.3325562 0.17301315 0.50464433 1.3774093 -0.91601694 1.639176
-0.9749477 -0.22427173 1.1579114 -0.3680307 -0.8241061 0.83446395 3.0133893 -0.24304065
0.7850134 1.2285358 -1.9935187 1.3780378 -1.1480261 0.118645184 1.6812164 -0.19713476
-0.23117343 -1.2834924 -2.6045477 0.44813758 1.5647483 -1.0615907 0.6284748 -0.9469096
0.84701526 -0.47589925 0.21963616 0.5937661 0.40999076 0.32216576 0.8234694 -1.0577844
-0.21526667 -0.3823346 -0.36391607 0.6122542 -1.8469263 0.6462558 0.23587073 0.79895926
0.699459 -0.31566682 0.53003734 -0.4538569 -0.015678098 -0.25889838 1.1870097 0.8444483
-0.28493276 -0.34648192 0.98914164 -0.8555707 -0.9090807 -0.5878391 0.66695243 -0.5812023
1.2006626 2.1575022 -0.06185155 -0.4759302

input_layer.bias f4 [50]
00000000: e0cb c4bd 533b 0fbd bcfd 9c3c 626b d0bb
00000010: c9d0 0d3d e512 e43c e860 47bd 49da 663d
00000020: b8db 48bd bde3 533d f1c3 65bd 9f17 28bc
00000030: de07 fc3c 820d 003d 49f4 19bb 76ba a8bb
00000040: bcf1 373d f4de 8a3c a5f1 86bd b9f1 33bd
00000050: a746 e2bc 73a4 0f3c 9f68 103d 5108 eb3a
00000060: 8efb 75bd 3b0c 1b3d a73e 1abd 352a 15bd
00000070: ec73 4fbd 7ca9 323c 69ac ff3d 16b5 a93d
00000080: 1e71 283d 01c6 5b3c 9efc f2bc 5bc4 c83d
00000090: 9a35 e33c e8e2 bb3d 0d7d 03bc 7ac1 3fbd
000000a0: a413 58bc 7616 6fbc be15 8cbd 0c89 d0bc
000000b0: bea1 10bd ebd5 7b3d 7f4d e7bc 7dee 80bc
000000c0: 9115 93bd fc8f 103d
-0.096091986 -0.034968685 0.019163959 -0.0063604573 0.03462294 0.02784104 -0.0486764 0.056360517
-0.049037665 0.05173086 -0.056095067 -0.010259538 0.03076547 0.031262882 -0.0023491553 -0.005149181
0.04490827 0.016952015 -0.06589059 -0.043931697 -0.02762158 0.008767235 0.035256024 0.0017931556
-0.060054354 0.03785346 -0.037657406 -0.036417205 -0.05064766 0.010904666 0.124840565 0.082864925
0.041123502 0.013413907 -0.029661473 0.09803077 0.02773552 0.09174138 -0.00802542 -0.046815373
-0.013188276 -0.014592757 -0.068400845 -0.025455974 -0.0353105 0.061483305 -0.028235195 -0.01573872
-0.07181848 0.035293564

hidden_layers.0.weight f4 [50, 50]
00000000: 4139 203e 7a67 ab3e 2b72 8cbd e1a1 6e3e
00000010: 6e4a aebd b450 8e3e 91fc 443e 2980 adbe
00000020: 3418 9c3d 32ab ca3e ac3f e93d bcaa a4be
00000030: 8783 563d 042e 083e a913 0f3e 2c10 d9be
00000040: 404a 353e a964 8c3c eac3 14bc d775 113e
00000050: 6886 143e e7a8 38be eb37 48bd d245 343e
00000060: 307c 01be 7213 23be 92b1 aebe c129 4c3c
00000070: 0b7f abbd 1984 ef3d 952e 91bd 1ce2 503e
00000080: 10f9 bb3d 12ba 8bbe bcf1 c6bd c8e7 4d3e
00000090: 905d 82be fba9 bd3e 6ff5 3e3e 4e13 b63e
000000a0: 5561 3fbd 8fff 94be 00fa 6dbd d402 73be
000000b0: 0cc3 67be 8932 c53d e963 403c 5440 8bbd
000000c0: 3e4f 30be 847c 39be 19d0 77be 527e 413d
000000d0: ca88 b23d 5f2c b53e 9e70 1e3e 371a ce3c
000000e0: 2227 c4be 5e83 b73e 1caf d7be 6645 bb3d
000000f0: 99fa bfbe 81d5 f23d 7a47 703e 12f6 2cbe
00000100: f858 32bd 59f8 4c3d ab61 5b3d 4c79 323e
00000110: 407f 863e 3c26 233d 3e42 713d 74a9 7e3e
00000120: f953 7abe e3aa 88be 0573 133e 2797 91bd
00000130: f72a 1dbd 2d6f a83e 9917 3fbe 6fa7 bf3e
00000140: 5f54 ee3e dcca f63d 3e48 e4be eed5 a9be
00000150: b87b bf3d 467d e2bd 99eb 2e3e 34bd 8abd
00000160: 05a1 ef3d 6720 513e 3cd6 14be 6db2 dcbd
00000170: 5376 fc3d 46b4 903e 759f 42be eb01 13be
00000180: 271c 183e 16f1 263d 4f51 b4be 3aab 793e
00000190: 4f49 8abc 54e1 af3d e6c0 06bc eb0a 97be
000001a0: 212b 61bd b9fa 45be f40b 82bc c177 15be
000001b0: 3234 0f3e 3c6d 7c3e 665c 9cbe a67f 933e
000001c0: cf0f 6ebe 718e 03bf 3d49 3d3e 57cc 36bb
000001d0: 8b85 013e 9332 b93e 1ddb 01bf 8896 9a3e
000001e0: ac4a af3e 08db a93e 4a01 b63e 864b abbd
000001f0: 138c 8e3e fffb c0bc a873 8c3b da26 653b
00000200: 12a0 dc3d f487 4f3e 03e2 103f 1fef 2cbe
00000210: 6353 b13d 5b37 82bd 5e16 bbbd d7bb 25be
00000220: 1143 c8be 81d2 793d ee7f 0d3e 1451 2ebe
00000230: 321b 43bc 451f de3d 6009 9c3c 2132 ef3d
00000240: d095 96be 982c 6c3d 6378 7dbe d763 0fbe
00000250: f66c 3dbe 1bb7 c83d a5ab 903c 358b 28bd
00000260: 0631 83be 4491 dfbe 6acc 90be 48ea e23d
00000270: f36d 523e 95b3 cebb 13f9 b3be 5d25 233d
00000280: 0382 1d3e 9f28 663e 1cc3 673e bcf1 0ebe
00000290: c70b 95bd 6481 5c3e 6e9f 21bc 3fea 163e
000002a0: bf77 1abe 84d8 483c 02df 13be 47fa 263d
000002b0: 6c3d 63bc 13fb 8ebe db4f c3be 1c99 5fbc
000002c0: 9bc9 413d e15c 8cbe 2a20 ae3d a286 ac3d
000002d0: b9b0 a53e 76c5 953e 553e 37be 83a2 b03e
000002e0: 7ca5 6bbe ae25 f6bc 4a06 763d 1292 273c
000002f0: e8bb 533e 0a61 8bbd a784 473d b31c 17be
00000300: bd59 bc3d 03d7 ebbd 6aac a8bd 838d 12be
00000310: d15f af3d 2bf1 aa3e cdd8 cf3d ce25 0b3c
00000320: a239 633e ace3 8cbd 0969 d6be 38fe 59be
00000330: 3b53 90bd cb7f 063e 6032 67be 0e6d 873e
00000340: 9d88 1ebd 3835 db3d a4ee 9c3e f1b9 c03d
00000350: 2e9f edbd b269 963e 979c 1bbe a4a9 683e
00000360: 43ae 1fbe 6e10 b33d d711 c53d f545 4cbe
00000370: ab97 67bd 8ba0 a4bc b9db c7bd 6d21 ee3d
00000380: 92ae 5dbd 082b 2fbe 2541 97be e8f0 1ebe
00000390: 5e4a 83bd 576d 833b 206c 493d a7ac 8ebd
000003a0: ffeb b53d 890a 373e 6a64 993d 57c9 d9bc
000003b0: 85db 9c3d 7139 1f3e 0e8f 9abe 1aab acbe
000003c0: 0cdd 6fbe 383b 3f3d 39ed 35be c5bd f43d
000003d0: 319e 06be 5037 35be b890 823c 09ab f83d
000003e0: 4ca2 99bd 479d 313e 7abc ce3e 01ca 66be
000003f0: effe 7c3d 086b 5cbe 5cfd b2be 1f65 43be
0.1564684 0.33477384 -0.06857713 0.2330394 -0.0851029 0.27795947 0.19236971 -0.3388684
0.07621804 0.39583737 0.113890976 -0.3216151 0.052371528 0.13298804 0.13972344 -0.4239515
0.17704105 0.017137842 -0.009079913 0.14205109 0.14504397 -0.18033181 -0.048881453 0.1760476
-0.1264503 -0.15925387 -0.3411985 0.012461127 -0.08373841 0.116951175 -0.07088963 0.20398754
0.09178364 -0.27290398 -0.09714076 0.20107949 -0.25462008 0.37043747 0.18648313 0.35561603
-0.046723682 -0.29101226 -0.058099747 -0.23731548 -0.22632998 0.096287794 0.01174257 -0.06799379
-0.17217728 -0.18113905 -0.24200477 0.04723961 0.08717497 0.35385415 0.15472648 0.025158985
-0.38311106 0.35842413 -0.42125785 0.09144096 -0.37495878 0.11857129 0.23464766 -0.16890743
-0.04354188 0.05004153 0.05355994 0.17429084 0.2626896 0.039831385 0.058901064 0.24869329
-0.24446096 -0.26692876 0.14399345 -0.07108908 -0.038371053 0.3289732 -0.18661346 0.3743243
0.46548745 0.12050411 -0.44586366 -0.33171028 0.09349769 -0.1105905 0.17082061 -0.06774369
0.11700634 0.20422517 -0.14534849 -0.107762195 0.12327256 0.28262538 -0.1900614 -0.143562
0.1485449 0.04075726 -0.35218284 0.24381724 -0.01688066 0.085879 -0.0082247015 -0.29500517
-0.05497277 -0.19333924 -0.01587484 -0.14596464 0.13984755 0.24651045 -0.30539244 0.28808326
-0.23248218 -0.51389223 0.1848497 -0.0027892792 0.12648599 0.36171398 -0.50724965 0.3019297
0.34236658 0.3317492 0.35547858 -0.08364014 0.27841243 -0.023557661 0.0042862482 0.0034965784
0.107727185 0.20266706 0.56594867 -0.16888092 0.08658483 -0.063582145 -0.091351256 -0.16184936
-0.39113668 0.060991768 0.13818333 -0.17023116 -0.011908339 0.10845808 0.01904744 0.11679483
-0.29411173 0.057659715 -0.24752955 -0.1400293 -0.18498597 0.098005496 0.017659971 -0.041148383
-0.2562334 -0.43665516 -0.28280956 0.11079842 0.20549755 -0.006308029 -0.35150966 0.039830554
0.15381627 0.22476433 0.22633022 -0.13959402 -0.07277637 0.21533734 -0.009864671 0.14737795
-0.15084742 0.012258653 -0.1444054 0.040766027 -0.013869625 -0.2792593 -0.38146862 -0.013647344
0.047311407 -0.2741461 0.085022286 0.08424117 0.3236139 0.29252213 -0.17894872 0.34498987
-0.23012346 -0.030047264 0.06006459 0.010227697 0.2067715 -0.06805618 0.04871049 -0.14757042
0.09196804 -0.115156196 -0.082360104 -0.14311795 0.085631974 0.33387122 0.10148773 0.0084929
0.22189954 -0.068793625 -0.4187701 -0.21288383 -0.07047125 0.13134687 -0.2257781 0.2645039
-0.038704503 0.1070351 0.30650818 0.094104655 -0.11602627 0.29377514 -0.15196453 0.22720963
-0.1559382 0.08743368 0.09622543 -0.19948561 -0.056541126 -0.020096084 -0.09758706 0.11627469
-0.05412156 -0.17106259 -0.2954189 -0.15521586 -0.06410669 0.004010837 0.04917538 -0.069665246
0.08882903 0.17875113 0.074898556 -0.026585264 0.076590575 0.15549256 -0.30187267 -0.3372429
-0.23424166 0.046687335 -0.17766275 0.11950258 -0.13146283 -0.17696881 0.015938148 0.12141997
-0.07501659 0.17345153 0.4037817 -0.22537996 0.06176656 -0.21525204 -0.34958923 -0.19081543

hidden_layers.0.bias f4 [50]
00000000: b745 6bbc a865 403d b11e 6cbb 1393 5cbd
00000010: 85cb 2d3d 528c b9bd c74b 843d e8c5 79bb
00000020: 9127 6fbd 3dbd c8bc 74ad e2bc 697e fcbc
00000030: c5d9 eb3c 1dd3 6a3d 989d 213e aedf acbd
00000040: 2f4b 86bd 5075 bdbc be60 0c3c 0b66 32bd
00000050: 566b 27bd 52ad 30bd 7814 063d e59a 1b3d
00000060: 60b1 133c c2ee 6cbd ccbd a6bc 4055 2f3d
00000070: d6d4 b53c 1eae 2b3d 5c41 8e3c 3de5 483c
00000080: 759f 65bd 1fc3 c03c 8295 bebc b0db 16bd
00000090: 7f72 babc 39fc 84bd fe38 c83d 70aa 8cbc
000000a0: d8b3 8dbc 3633 353d 6809 303c bd74 683c
000000b0: d2e8 0b3d 5e12 d23c 703c ebbc 6cf9 8ebc
000000c0: 6d54 93bd c660 aabd
-0.014359883 0.046971947 -0.0036029036 -0.0538512 0.04243042 -0.09059967 0.06459766 -0.0038112346
-0.058387343 -0.024504298 -0.0276706 -0.030821996 0.028790364 0.05733024 0.15782773 -0.08441101
-0.06557309 -0.023127228 0.008567987 -0.043554347 -0.040873848 -0.04313404 0.032734364 0.037989516
0.009014457 -0.057844885 -0.020354174 0.04280591 0.022196215 0.041914098 0.01736515 0.012261686
-0.056060273 0.023530541 -0.02326465 -0.036830604 -0.022759674 -0.0649342 0.097764954 -0.017171115
-0.01729767 0.04423829 0.01074443 0.014187989 0.03415758 0.025643524 -0.028715342 -0.017452918
-0.07193837 -0.08319239

hidden_layers.1.weight f4 [50, 50]
00000000: d9b6 cfbc 21dc ac3e 1867 58be 5e90 893e
00000010: 53ca c23d 2727 9bbe d0cb c6be e969 963d
00000020: 6b8b 34be d5a4 3d3e 7572 4fbd 6060 0d3f
00000030: d7ea 423e 7563 1bbe 4721 a93d bfa6 0d3e
00000040: 95eb 123e ca6a ffbc 2247 ecbe 9d80 ee3d
00000050: fbbc 833e 52b3 bebe 83e5 b53e 3b53 96be
00000060: ff18 37be dc60 e5bd fc2e 473e b174 543e
00000070: d1e3 e93d 37a1 b4bd b464 1a3d 2865 67be
00000080: 3818 c6be 4702 88bc 9572 8b3e 6829 ccbe
00000090: 4ff2 763d e7b1 96bd 345c ff3d 3e22 0cba
000000a0: f6ff 2a3e 3920 30bd 75cc 90be f7e7 42bd
000000b0: df51 21be d43f de3d b07c d73d cbd4 61be
000000c0: 12d5 debd 661d 863c 501b c93c 0578 b83d
000000d0: 4eac b7be 671e b9be 0c54 ff3e 131e b1bd
000000e0: 7c1f 883e 9cf0 d9bd cc50 06be 115e 05be
000000f0: 41ff 76be 8183 cabd d164 8b3e 33c1 843e
00000100: d9bb a93c a60d dcbd 8cac 0a3d 65b2 ff3c
00000110: 1f9d c33e e4e4 4f3d 2c66 7b3d 6f37 88be
00000120: 1631 013d 25b2 793e 75b6 d4bd 7fc8 97be
00000130: 9048 e3bd 6034 383e 8133 cd3e c6eb 1abe
00000140: 015a 963e 9ca9 8d3d 7b27 95be 801d 33be
00000150: 6a76 edbe 5a76 7d3e 8190 81be 2eee 14be
00000160: a8f6 43be 000f 9f3e b2bc 253e 43f4 98bd
00000170: 2381 293e 9a76 b7be 3a54 873e c8c9 663e
00000180: 70e0 70be e903 b23d 68fa b73e 3ca3 0abd
00000190: c9f0 7ebe f34c d6bc 9df8 353e 837c 6cbd
000001a0: c3c0 92bd a9f3 c5bd 6804 2dbe 0143 08be
000001b0: 5221 ae3e 8d58 9fbd b95e 39be 8c26 4a3c
000001c0: c383 a2be cfd8 e93e 4a90 20be eff9 54be
000001d0: 2f9e 843d 3576 f6bd ff3f 52bd 33dd dcbd
000001e0: 685e 86be 9d54 843e f751 99bd 30ba 093f
000001f0: 971e 35be 830e 473d bb77 d2bd 31b7 1ebe
00000200: 329a 573d b2fd 9c3e fb1a 0fbd 1a11 3c3e
00000210: 64a1 63be 09ea 023e 412b 6fbd 0be7 c4bd
00000220: dace d1bd 24b0 79be 63f0 7bbe 88ce 853e
00000230: bbba a53c 65ad 593c 857b 5bbd a415 4dbe
00000240: 6470 b53c e934 6cbe 437e a13d c46e b63d
00000250: e328 bb3c 1cd0 a73d c179 3fbe 916a 223e
00000260: b05a aebe 3a4d 423e 211f 783d fd6a dd3c
00000270: 69ec 9bbd 85e6 82be 55ca 413e 92cf 3f3e
00000280: df0a a43e b056 a6bd 5631 913e 099e debd
00000290: 8639 423d f222 3a3b ce09 acbc e64a 6b3d
000002a0: 0a7a 65be be32 92bd e89d 173e c5f6 afbc
000002b0: 2931 11be e684 3f3c 0185 dbbd 403a 803d
000002c0: 9762 2cbd 4537 d93d 028e 4cbe ce7e 893d
000002d0: b009 a4be 6d7b 983e 8d24 173e ed66 063d
000002e0: f02c 083d 9c74 88bd b897 e83d 33c9 d63d
000002f0: f0d8 86bb cb9b 473e 0284 c03d 9bb3 243e
00000300: f2b4 4abe 851f aabc 7e5f 69bd b77e 063f
00000310: 61df 32be bea5 52bc 8cd8 fb3c fbf2 0dbe
00000320: ff1a 25bd 6b3d 213e c2b5 eabd 82db a53d
00000330: 3ec4 33be 731c cfbc 0c5e 6a3e fee8 193e
00000340: 19d8 983e 075c b1bd 20bf d63d 2d77 a73e
00000350: 6a09 863d 69cb 9ebd 5bd6 8dbe b951 cabb
00000360: 8f19 ab3e 40a6 33be 79e0 51be 3e37 38be
00000370: ee3a 873c 0819 6abe e6aa d7bd 78c4 6ebd
00000380: 0792 08be 2572 3d3d 7ae9 963e de66 373e
00000390: e524 443e f22f 87be 6e64 bd3d ffc3 89be
000003a0: 60d9 11be 0d4a 00be 7d14 1f3d ae11 563e
000003b0: a37a 7abd 41ef 5b3e b3c8 793e fd03 cd3d
000003c0: 040a 9d3b ef50 5e3d b024 4c3e 4fdf 883d
000003d0: e860 74be 907a 473e 6d18 c93c 2c85 953e
000003e0: de77 8bbc a775 90bd a4e7 09bd 80ac 43be
000003f0: f7b4 e33d 7db2 23be 1e80 ea3d 109f f73d
-0.025355743 0.33761695 -0.21133077 0.26867956 0.095112465 -0.30303308 -0.38827372 0.073444195
-0.17631309 0.1851991 -0.050646264 0.5522518 0.19034897 -0.15174659 0.082583 0.1383314
0.1434768 -0.03117885 -0.4614802 0.11645625 0.25730118 -0.37246186 0.35526666 -0.29360375
-0.17880629 -0.11200115 0.19451517 0.20747639 0.11420406 -0.08819812 0.037693694 -0.22597182
-0.38690352 -0.016602648 0.27235857 -0.3987534 0.060289677 -0.07358151 0.12468758 -0.00053456787
0.16699204 -0.04299948 -0.28280988 -0.0475845 -0.15753888 0.10852018 0.10521829 -0.2205383
-0.10880484 0.01637144 0.024549156 0.09007267 -0.35873646 -0.36156008 0.4986881 -0.08648314
0.2658652 -0.10641596 -0.13116759 -0.13024165 -0.24120809 -0.09888364 0.27225354 0.2592865
0.020719456 -0.10744791 0.03385596 0.031212995 0.3820581 0.050755396 0.061376736 -0.26604792
0.031540953 0.24384363 -0.103863634 -0.29645154 -0.110978246 0.1798873 0.40078357 -0.15129003
0.29365543 0.06917116 -0.29131684 -0.17491722 -0.46379405 0.24752179 -0.2530556 -0.14543983
-0.1913706 0.31066132 0.16185263 -0.07468464 0.16553168 -0.35832673 0.26431447 0.22537911
-0.23523116 0.08692152 0.35933232 -0.03384708 -0.2489654 -0.02615974 0.1777062 -0.05773593
-0.07165673 -0.09665615 -0.16896212 -0.1330681 0.34009796 -0.077805616 -0.1810254 0.012338292
-0.3174115 0.45673224 -0.15680042 -0.20798467 0.064754836 -0.12034265 -0.051330563 -0.10784378
-0.262439 0.25845805 -0.07486337 0.53799725 -0.1768745 0.048597824 -0.10276743 -0.1549957
0.052637286 0.30662304 -0.03493784 0.18365899 -0.22229534 0.1278459 -0.05839086 -0.096143804
-0.10244532 -0.24383599 -0.24603419 0.26134133 0.020230642 0.013285969 -0.053584594 -0.20027786
0.022148319 -0.23067059 0.07885411 0.089078456 0.022846645 0.081939906 -0.18698789 0.15860964
-0.34053564 0.18974772 0.06057656 0.027028555 -0.07613451 -0.25566497 0.1892484 0.18731526
0.32039544 -0.08122003 0.28357953 -0.108699866 0.04741814 0.0028402177 -0.021000769 0.057444476
-0.22409835 -0.071385846 0.1480633 -0.021479974 -0.1417891 0.0116894 -0.10718728 0.0626111
-0.04208621 0.10606245 -0.19976047 0.06713639 -0.3203864 0.29781666 0.14760037 0.032813
0.03324598 -0.066628665 0.11357063 0.104875945 -0.0041152164 0.19493024 0.094001785 0.16084139
-0.19795588 -0.020766983 -0.056975834 0.525371 -0.17468025 -0.012856899 0.030742906 -0.13862221
-0.04030895 0.15746085 -0.11460449 0.080985084 -0.17555329 -0.02528212 0.22887439 0.15030286
0.2985237 -0.08660131 0.10485673 0.3270811 0.06544764 -0.07753641 -0.27702603 -0.006174293
0.33417937 -0.17543888 -0.20495786 -0.17989823 0.016507592 -0.22861111 -0.10530643 -0.058292836
-0.13336955 0.046251435 0.29475003 0.17910334 0.19154699 -0.26403767 0.09247671 -0.26907346
-0.14243078 -0.12528248 0.0388379 0.20905182 -0.06115211 0.21477987 0.24392967 0.10010526
0.0047924537 0.054276403 0.1993587 0.06683218 -0.23865092 0.19480348 0.02454778 0.29203165
-0.01702493 -0.070536904 -0.033668175 -0.19108772 0.11118501 -0.15986057 0.11450218 0.12090886

hidden_layers.1.bias f4 [50]
00000000: cdf1 13bd 17e0 a43d 2d0d 223d 7575 1abd
00000010: f3e3 923c 7f36 8cbd 62a5 8fbd b854 2d3d
00000020: 282a 2abd f0ef 353d dcb1 823c 2856 5f3d
00000030: c318 a1bd 7d28 6c3c 3852 7e3d 90f1 273d
00000040: bd6e 1c3d ad68 213d 77dd 1f3d b7ba b8bd
00000050: b99d 0abd 7e0a 1ebd 6e98 1ebd 75e1 48bc
00000060: a095 69bd 0b56 013d 40b3 e4bc 7a6a 28bd
00000070: 2067 18bd 40b2 83bd 3665 cc3d 666f 87bd
00000080: f508 5f3d e740 913d abf9 7a3d 0e1a 48bd
00000090: af9a 0a3d c1fd 8abb 5c75 9b3d 7158 0ebd
000000a0: 1578 1e3d 4e81 113c 97d2 f9bc f6c5 443d
000000b0: ff55 463d 1f6a b9bd 25f8 8abd e377 73bd
000000c0: 5fbb 573c 66cc 253d
-0.03611927 0.08050554 0.039563347 -0.037709672 0.01793096 -0.06846332 -0.07013966 0.042317122
-0.04154411 0.044418275 0.01595395 0.054525524 -0.07866051 0.01441395 0.06209013 0.041001856
0.038191546 0.039406467 0.039029565 -0.09019988 -0.033841822 -0.038584225 -0.038719587 -0.012260784
-0.05702746 0.031576198 -0.027917504 -0.04111717 -0.037207723 -0.06430483 0.09980242 -0.066130444
0.0544519 0.07092457 0.06127326 -0.048852973 0.033838924 -0.0042416756 0.07590744 -0.034752313
0.038688738 0.008880926 -0.030495925 0.048040353 0.048421856 -0.09053444 -0.06785611 -0.059440505
0.013167231 0.040478133

output_layer.weight f4 [2, 50]
00000000: 1a01 e53c f268 6dbe d3ed a2bc 2af0 0b3e
00000010: 0a4e 80be 5e5d d43d ecc4 423e 558f 63bd
00000020: ca14 c93d 9975 dabd 50cb 323e f00b 12be
00000030: 428c 143f 5da7 00bd aa0c efbd 975e 50bd
00000040: 4cec e9bd 8649 1ebe 75e4 3abe e2e6 9f3d
00000050: 0b73 82ba dbcf 123e 331c a53d 19ca bc3d
00000060: 5d82 8d3e 7fed 87bd 635e ce3d f5eb 233e
00000070: ca57 d43c 49b6 bb3e 38df 8ebe e572 863e
00000080: 8ec2 76be 6645 efbe 6b49 49be 60bd 5b3e
00000090: 4af5 a0bd 716c 573e 3874 65be 4ba0 893e
000000a0: 795e 4fbe eeab 143e e076 d63c 7648 89bd
000000b0: ea97 66be 26ec 263e 7e50 163e 13d1 313e
000000c0: 9338 07be 85b4 3b3d 5d1b 8f3e b719 983e
000000d0: fe2a a93e c158 29be 40b3 3abe f1b0 bfbd
000000e0: 63d0 e9be 402a 573e fb86 343d bcb8 fdbc
000000f0: 5896 8abc e371 6cbe 5d31 be3e 45b4 53be
00000100: 5ebf 273d 1df8 5d3c e197 9dbe e98f 04be
00000110: 0790 a0be 5281 d8be dd0b 97bc 4258 4f3e
00000120: 07b8 8b3e 0c96 e23d fe55 be3e f021 ec3c
00000130: 6a4d bc3d f1ef b23d 5ad8 a13c aaf6 53bd
00000140: bf6e a63e e020 913e a0be 42bc fcee 053d
00000150: 4a4a 363e c9d3 b0bd 9ed5 53bd fcf9 883c
00000160: 6f1b 313e 00c3 0dbe 44bd c0bc ac11 083f
00000170: 2d9c 20be ea13 b33d e510 26be 715d 9dbe
00000180: 169d 323d 3cd1 be3d 4971 9abe bba3 8abe
0.027954627 -0.23184565 -0.019888794 0.13665834 -0.2505954 0.10369371 0.19020432 -0.055556614
0.09818418 -0.10666961 0.1746037 -0.14262366 0.58026516 -0.03140961 -0.11672337 -0.050871458
-0.11422023 -0.15457734 -0.18251212 0.07807709 -0.0009952498 0.14337103 0.08062019 0.092182346
0.27638522 -0.06637096 0.100765966 0.16007979 0.025920767 0.3666251 -0.27904677 0.26259533
-0.24097654 -0.46732634 -0.19656913 0.2145896 -0.07859285 0.21037461 -0.22407615 0.26880106
-0.20250882 0.14518711 0.02617973 -0.06703274 -0.22518888 0.16301021 0.14679143 0.17364912
-0.13205175 0.045826454 0.27950564 0.2970712 0.33040613 -0.16537763 -0.18232441 -0.09359921
-0.456668 0.21012211 0.04407404 -0.030971877 -0.016917393 -0.2309032 0.37147036 -0.20674236
0.040953986 0.013547924 -0.30779937 -0.12945522 -0.31359884 -0.42286164 -0.018438274 0.20248511
0.2728884 0.110637754 0.37174982 0.028824776 0.09194453 0.087371714 0.019756485 -0.05174891
0.32506368 0.28345394 -0.011886269 0.032698616 0.17801777 -0.08634145 -0.051717393 0.016720764
0.17295621 -0.13843918 -0.023527749 0.53151965 -0.15684576 0.08744033 -0.16217382 -0.30735353
0.04360684 0.09317252 -0.30164555 -0.2707804

output_layer.bias f4 [2]
00000000: da62 57be c432 953d
-0.21033803 0.072850734

exp_avg f4 [50, 2]
00000000: f657 86bf a4fa 65be 6413 86bf 2342 af3e
00000010: aff2 4740 9f1a f3bf facd fa3f 2b2e cd3f
00000020: a174 bb3f 5888 7c40 63ec acc0 9bd7 d040
00000030: 8cd3 f8bf 074f cfbf c690 d33f 5097 ae40
00000040: b331 1540 90ab f9bf 82b1 b33f 01e9 48c0
00000050: 8522 bebd d1a0 2c40 5ae5 8440 6fe9 19c0
00000060: 0f5a 3b3f eb0c f540 4840 b83f 6121 1240
00000070: 63f8 48bf bee3 79bf d33a ae3e f7e2 5840
00000080: 9f9a b7bf 5c47 9e3f ee31 703f c727 9bc0
00000090: d685 2a40 0f32 41c0 fc0b cbbe f9af e9be
000000a0: b565 c840 937e 68c0 098e 683d bc72 c7bf
000000b0: ef64 94bf 7ec3 12c0 35ee f1bd a0f3 393f
000000c0: a1ee c43f f776 9f3c e7f0 73be 4ea1 fabc
000000d0: 9c53 d03e 6f2d d83f 665e 3c3f af4f 2f3f
000000e0: 7172 8e3f fe05 84c0 a4d4 c2bb 15e9 18bf
000000f0: 01f6 dfbf 8bed 66c0 510a 1a40 d144 4340
00000100: 3ea9 943f b995 c6bf c221 d840 5e25 16c1
00000110: f03c 57c0 8467 e73f 13c4 a53f aba1 6f3f
00000120: a0fa f4bf 0bcd 5a40 3d02 e23e 4774 20c0
00000130: 4b44 033f 2b41 f33f fd95 5fbe c011 d2bf
00000140: e396 bfbb 7ab2 c3bf 2e7c 37c0 6d22 d240
00000150: 17fe a1c0 667f 2540 d769 813f 57cc a43f
00000160: 8b39 e3bf 8d0e 91be 3901 f0be 2ae3 0ec0
00000170: 23c8 c3be 624f 4bbe 9d77 06c0 4d19 4cbf
00000180: e1e2 42c0 c22a 1d40 1dd9 883e 6e06 2d40
-1.0495594 -0.22458893 -1.0474668 0.34230146 3.1241872 -1.8992499 1.9594109 1.6029714
1.4644967 3.9458218 -5.403856 6.526319 -1.9439559 -1.6195992 1.6528556 5.455971
2.3311584 -1.9505482 1.4038546 -3.1392214 -0.09283928 2.6973155 4.152997 -2.4048727
0.73184294 7.657827 1.4394617 2.2832873 -0.7850401 -0.9761313 0.34029254 3.3888528
-1.4344062 1.2365527 0.93826187 -4.8486056 2.6644187 -3.0186803 -0.3965758 -0.4564207
6.2624154 -3.6327255 0.05677608 -1.5581889 -1.1593302 -2.293182 -0.118130125 0.7263737
1.5385324 0.019465907 -0.23822366 -0.030594494 0.4068879 1.6888865 0.7358154 0.6848096
1.1128675 -4.1257315 -0.005945759 -0.59730655 -1.749695 -3.6082485 2.4068797 3.0510752
1.1614149 -1.5514442 6.754121 -9.384123 -3.3630943 1.8078465 1.2950462 0.9360606
-1.9138985 3.4187648 0.44142333 -2.507097 0.5127608 1.9004263 -0.2183456 -1.6411667
-0.0058468445 -1.5288842 -2.8669543 6.5667024 -5.062267 2.5859008 1.0110425 1.287486
-1.7751936 -0.28331414 -0.46875933 -2.232615 -0.3823863 -0.19854501 -2.1010506 -0.79726106
-3.0450976 2.4557347 0.26728144 2.7035174

exp_avg_sq f4 [50, 2]
00000000: 796d 5740 e8db 483f ed8f 8540 7392 2f3f
00000010: 1598 5d41 55a0 3341 8adb 7341 0356 7041
00000020: e676 c641 3594 e541 bcdc 0842 a98a c642
00000030: 9a36 6841 f2e9 c640 8520 8241 ef6c 5642
00000040: a1ed bd40 0183 0241 69f5 3940 3e83 f841
00000050: 8ede 8a40 1552 9741 c1d6 2a42 89cb 1442
00000060: 7411 8a41 1f7d de42 8078 df41 06ce 7441
00000070: 6f53 1940 c0ed 4240 d7b7 e540 50d8 a241
00000080: 00db 3640 6c11 da40 5b91 de40 4265 3e42
00000090: 083d 0b41 6322 9e41 b31d 4940 151e ab3f
000000a0: f207 aa42 ed0d 6c42 ad81 ff3f 1b91 8e40
000000b0: bddf 4841 d92d 2241 ec91 f53d 8d20 8b40
000000c0: 2f28 5241 0d73 1540 4dcc 973f 9d8f ac3f
000000d0: 0a35 9040 1abf df40 c87a 0940 7453 ea3f
000000e0: 667c 2f41 b274 3842 35a2 223e f71b 9a3f
000000f0: c2de 5341 de4a 1842 7731 9741 bb21 8141
00000100: 3324 7a40 1627 c640 5fcf 3842 b655 2743
00000110: 0f24 8c41 48fe 5941 5708 3a41 68f9 8640
00000120: 1e10 2340 8eb4 ed41 ede7 0940 1303 8e41
00000130: 0a17 3a40 23aa 4f41 81c6 c040 04ef 8340
00000140: 2d6a 5d3f fdc2 0f41 4ae9 1a41 fcba d242
00000150: dfe7 8142 7d25 0942 9ac0 df40 4fcc 2e40
00000160: 739e df40 055c 8e40 92d7 e63f fbc8 6941
00000170: e3e9 ca3f 56b9 153f e915 8541 dee9 1241
00000180: 339c ee40 1e99 4e41 69d5 b040 0919 5841
3.3660567 0.7846055 4.173819 0.6858284 13.849629 11.226644 15.241098 15.020999
24.808056 28.697367 34.21556 99.27082 14.51333 6.216058 16.265879 53.60638
5.9352574 8.156983 2.9056036 31.064083 4.3396673 18.91508 42.70972 37.198765
17.258522 111.24438 27.933838 15.300299 2.3957174 3.045761 7.1786914 20.355621
2.8571167 6.8146267 6.9552436 47.598885 8.7024 19.76679 3.1424377 1.3368555
85.01552 59.0136 1.9961449 4.455213 12.554624 10.136193 0.11990723 4.3477235
13.13481 2.3351471 1.1859223 1.3481327 4.5064745 6.992078 2.148119 1.8306718
10.967871 46.11396 0.1588219 1.2039784 13.241884 38.073112 18.899153 16.14147
3.9084594 6.192271 46.20251 167.33481 17.517607 13.62458 11.627036 4.217945
2.5478587 29.713161 2.1547806 17.751501 2.9076562 12.979037 6.0242314 4.1229267
0.86490136 8.985105 9.681955 105.365204 64.95287 34.28661 6.992261 2.73122
6.988092 4.448733 1.8034537 14.6115675 1.5852627 0.58485925 16.635698 9.1820965
7.4565673 12.912382 5.526051 13.506112

exp_avg f4 [50]
00000000: 1cc3 edbf 5318 183e 8d6c bb40 11ae 8040
00000010: 662a 7840 af1c fec0 5ccd 65c0 2362 7d40
00000020: 94ab ef3f f7f1 1640 172b 5140 62f9 0341
00000030: c524 ae3e e79f 9e3f eab0 73c0 42e1 2e40
00000040: b580 9ec0 3c47 3240 d1f6 2940 3dfb 09bf
00000050: 567c 5341 f573 d13d b4fb e5bf 9fd8 8abf
00000060: c9e4 1140 bc33 0fc0 c4c9 6440 adb1 8b40
00000070: e139 0740 c67e 6cbf 31f6 b4bc d925 1b40
00000080: 5394 1040 6f7b e940 7507 b9c0 b390 913f
00000090: c787 20c0 abfe b93f a0e5 e13f 9b04 493f
000000a0: 1028 7bbf e7b7 01c1 bd61 bac0 7dc0 a240
000000b0: 19fa f9bf e28a f93f 97bc 2fc0 4c36 a1c0
000000c0: 8e75 41c0 d478 c23f
-1.8575168 0.14853029 5.857001 4.0212483 3.8775878 -7.9410014 -3.5906591 3.9591148
1.8724236 2.3585184 3.268255 8.248384 0.34012428 1.2392548 -3.807673 2.7324986
-4.9532113 2.7855978 2.6556895 -0.53898984 13.217855 0.10227195 -1.7967439 -1.0847358
2.279589 -2.2375326 3.5748148 4.365439 2.1129076 -0.9238094 -0.02209005 2.424185
2.259053 7.2963176 -5.7821603 1.1372284 -2.5082872 1.4530843 1.7648201 0.7852265
-0.98108006 -8.107398 -5.824431 5.085997 -1.9529449 1.9495509 -2.7458856 -5.037878
-3.0228 1.5193124

exp_avg_sq f4 [50]
00000000: 8071 8541 8a79 2b42 8f7f 0b44 94f9 c544
00000010: 1903 a744 fa6b 0845 93e0 6643 4395 8043
00000020: e2ce 0744 6bc8 ba43 29fa 9943 165d ed44
00000030: ae36 6444 3006 2f44 34ac d343 972d 8c43
00000040: 74ce 8443 a787 fb43 cb53 9c43 54fe ce42
00000050: 0101 2e45 e108 fe42 0cf8 c142 1b85 6c42
00000060: 4a16 8e43 9bb8 7b43 e50e 1c44 8dad 8c43
00000070: 2e32 1f44 3b0c ca41 a646 0944 4a01 fb42
00000080: 9cc8 fb42 63ed 0c45 1dce ff43 7191 4742
00000090: 19ad 1144 1a33 2543 3b82 8142 6c5f bb42
000000a0: 1f72 fe41 e215 b044 9f88 7645 3442 1d44
000000b0: dc57 3943 16a1 3e43 e1cf 9942 84ab 9c44
000000c0: 53fc 7043 4b18 bc42
16.68042 42.86869 557.9931 1583.7993 1336.0968 2182.7485 230.87724 257.1661
543.23254 373.56577 307.95438 1898.9089 912.8544 700.0967 423.34534 280.35617
265.6129 503.05978 312.65463 103.496735 2784.0627 127.01734 96.98447 59.129986
284.17413 251.72112 624.2327 281.35587 636.78406 25.255972 549.1039 125.50252
125.891815 2254.8367 511.61026 49.892033 582.70465 165.19962 64.75436 93.68637
31.805723 1408.6838 3944.5388 629.0344 185.3432 190.62924 76.90601 1253.3599
240.98564 94.04745

exp_avg f4 [50, 50]
00000000: b9d4 2938 76c2 71b9 39db efb8 80e6 b438
00000010: 1477 13b9 c94e f6b8 d066 7736 0bbd d138
00000020: 85b0 98b9 1b84 1d39 9479 9f37 61a3 65b7
00000030: 1212 8638 084b 8738 70fc 28b9 ffcd 09b9
00000040: fd3f ab38 dcf8 b2b8 ce7c 8139 2209 0838
00000050: c9c8 f6b8 4ed2 a5b6 8c42 16b8 86d7 6cb9
00000060: 3df7 9239 789f 8039 713d 49b8 ef7e fa37
00000070: 29d5 4ab9 3bf6 7b39 5743 14b9 e50a 6136
00000080: f0fe 7b38 9dd2 2f39 b972 b238 922f 1537
00000090: b361 22b9 1ba8 9138 2747 2039 a27e 3b39
000000a0: d9b0 9438 69ab 2db8 53cb f8b8 2542 8739
000000b0: f868 1eb9 5148 b6b7 6682 67b9 6dc5 56b8
000000c0: e37f c539 8ba4 aeb8 e3f4 6db9 4ded 6638
000000d0: ae56 87b8 fc56 4bb9 6719 7b36 d978 ad38
000000e0: 2ca9 f738 3eee ed37 df1e 3f39 7ae4 6638
000000f0: ed87 2939 42cd a3b7 46c6 8538 764a 82b8
00000100: 68b4 b5b8 9d0e 5bb8 fe91 ccb8 c06a 5eb8
00000110: 5329 1cb9 5b35 c0b8 1adf 46b8 c066 2d39
00000120: f13f 03b9 ed52 4e39 9307 d6b8 d560 9bb9
00000130: 7bda 02b9 3efa 4139 a1c1 c638 db8b 78b9
00000140: f2a7 6f39 f807 d238 5bbf 0639 9827 48b7
00000150: bcc2 9636 c70c ec38 ca44 db36 d905 bfb8
00000160: 7a78 81b9 747c 8db8 222d eb38 ec8b ea38
00000170: 0252 9137 73f1 91b7 2144 94b6 7b30 1f39
00000180: 68fa 84b7 d921 ff38 5032 84b9 269c 2938
00000190: dbb7 60b9 a0a5 61b9 38b9 65b9 8275 31b9
000001a0: ce9a 0fb9 36e6 b6b7 75c8 cd38 6967 2e38
000001b0: 9956 0dba 5635 e239 b89f ce39 8ca0 3837
000001c0: 327f 8638 8880 9bb7 a862 a6b9 ade5 87b9
000001d0: b945 3339 1a8e 83b8 f75d ca39 a803 1239
000001e0: a53c 37b9 491a 4c39 9554 afb8 377f 373a
000001f0: 92ca dc39 3b3d 4db9 9baa 4eb9 d3c8 8f39
00000200: 16fe 65b9 3cee 28ba fc17 5539 aad9 0138
00000210: 0253 a838 0409 8c38 49db f737 5882 b337
00000220: d5e6 39b8 1e8f 72b8 e60a ceb9 cb5a d138
00000230: 527c a638 1e9a ae38 bb9a 86b7 8724 c739
00000240: cc5a 4db8 d1ac 7938 9ea9 83b9 29f2 b638
00000250: b036 5c3a a11f 3437 0192 2c39 be56 1939
00000260: 3ddc aa39 a936 a5b8 3a1f de39 b81f ca39
00000270: 41a7 8fb9 554d fa37 324e dfb9 4851 a7b7
00000280: b9de 1ab9 0ef4 ff39 6e2c 6239 9912 0b39
00000290: 90cb e338 e63d 8e39 8b93 0bba 1ded 1fb9
000002a0: 4508 b338 444d 32ba 5135 c639 4e79 80b9
000002b0: 41fa d4b9 db52 87b8 f73c 4639 7c19 d338
000002c0: 2e13 b039 7d42 40b9 b3f4 4139 d02a 0539
000002d0: 3182 6fb6 290e 153a 7022 4e39 35f7 81b9
000002e0: afa9 04ba a0a1 183a c024 3539 7c1a 5fb9
000002f0: 118e 8539 acbe c6b9 0cce 0a39 a371 6836
00000300: fb3b 9f38 38a8 9538 26b3 2d39 7e47 8939
00000310: ad1c f138 36da e738 f3dc 903a e5f9 e139
00000320: bec4 a137 5dd7 ac36 2390 07b8 a55d f637
00000330: 60f1 cbb7 672b 4637 1668 67b6 767b b735
00000340: b6cd 6a38 84fd be38 9cc5 c837 745e 11b7
00000350: 2f46 e6b5 4e87 fab5 bcb6 4cb8 d6bd 28b8
00000360: 21d0 85b8 bbff e935 8f8d 39b8 a8b9 9fb8
00000370: 655b ffb7 c2dc a6b7 7fa0 dd36 1acf 8135
00000380: 5ee5 b1b7 dd26 af37 322d b7b6 e48d a635
00000390: 2cd8 0538 54e9 0a38 e4f7 14b8 9baf 6237
000003a0: 54d0 0cb6 4499 9936 454d 3337 65ab 9337
000003b0: a22f 37b6 c7bf a336 26ba 3e38 530d 35b7
000003c0: 4906 55b5 41f3 2eb7 5a68 b6b4 293d 1238
000003d0: 53ae 7eb6 bc2c 0036 e043 dcb7 f45c 2eb7
000003e0: da12 d6b8 bb02 e435 d0b6 1839 7cea 81b9
000003f0: 8b51 0739 37cd 3639 a163 1d38 13b9 6bb9
4.0490853e-05 -0.00023055993 -0.000114372415 8.626003e-05 -0.00014063373 -0.00011744869 3.6865713e-06 0.000100011086
-0.00029123217 0.000150219 1.9010891e-05 -1.3687503e-05 6.392984e-05 6.451277e-05 -0.00016115769 -0.00013142078
8.165834e-05 -8.534055e-05 0.00024697784 3.2433432e-05 -0.00011767593 -4.941866e-06 -3.5824763e-05 -0.00022587003
0.00028031497 0.00024532876 -4.7979356e-05 2.986143e-05 -0.0001934363 0.00024028953 -0.00014139466 3.3533954e-06
6.0080492e-05 0.0001676776 8.50907e-05 8.892168e-06 -0.0001548592 6.945451e-05 0.00015285295 0.00017880884
7.0901304e-05 -4.1406052e-05 -0.000118634336 0.00025798488 -0.00015107158 -2.1729766e-05 -0.00022078454 -5.1205443e-05
0.0003767005 -8.327615e-05 -0.00022693309 5.5057277e-05 -6.453447e-05 -0.00019391993 3.74167e-06 8.2717925e-05
0.000118093885 2.8363542e-05 0.0001822668 5.504906e-05 0.00016167732 -1.9526695e-05 6.3788655e-05 -6.2127525e-05
-8.664356e-05 -5.222728e-05 -9.754671e-05 -5.3028343e-05 -0.00014892714 -9.165212e-05 -4.741466e-05 0.00016536843
-0.00012516954 0.00019676583 -0.00010205726 -0.0002963605 -0.00012479156 0.00018499137 9.477442e-05 -0.00023703223
0.0002285538 0.000100150646 0.00012850521 -1.1930148e-05 4.4930184e-06 0.00011255737 6.5347167e-06 -9.108679e-05
-0.0002469456 -6.746585e-05 0.0001121408 0.00011184052 1.7323535e-05 -1.739778e-05 -4.418675e-06 0.00015181482
-1.585223e-05 0.00012165652 -0.00025214488 4.0438164e-05 -0.00021430796 -0.00021519372 -0.00021908141 -0.0001692381
-0.00013695212 -2.1803291e-05 9.8125e-05 4.158114e-05 -0.0005391627 0.00043145817 0.00039410382 1.1004635e-05
6.41331e-05 -1.8537292e-05 -0.00031735492 -0.00025920328 0.00017096744 -6.273035e-05 0.00038598452 0.00013925007
-0.00017474832 0.00019464748 -8.360405e-05 0.00069998525 0.00042112597 -0.00019573134 -0.00019709246 0.0002742471
-0.00021933796 -0.0006444191 0.00020322198 3.0958712e-05 8.026326e-05 6.6773995e-05 2.9546807e-05 2.1399159e-05
-4.4322416e-05 -5.7830584e-05 -0.00039299502 9.982808e-05 7.938653e-05 8.325673e-05 -1.6046097e-05 0.00037983453
-4.896037e-05 5.9527174e-05 -0.00025112642 8.723542e-05 0.0008400483 1.07362e-05 0.00016457589 0.00014623531
0.00032589017 -7.877994e-05 0.00042366405 0.00038552075 -0.000273997 2.9838333e-05 -0.00042592135 -1.99458e-05
-0.00014769555 0.00048819225 0.00021569591 0.00013263001 0.0001086212 0.00027130469 -0.0005324415 -0.00015251753
8.5369255e-05 -0.00068016746 0.00037805227 -0.00024504442 -0.00040622245 -6.452735e-05 0.00018905463 0.00010066011
0.00033583626 -0.00018335316 0.00018497072 0.00012699817 -3.5689557e-06 0.0005686009 0.0001965852 -0.0002478898
-0.0005060685 0.0005822424 0.00017275196 -0.00021276803 0.00025473585 -0.00037907565 0.00013237464 3.463684e-06
7.592883e-05 7.136207e-05 0.00016565304 0.00026183942 0.00011497117 0.00011055583 0.0011052176 0.0004310153
1.928431e-05 5.151071e-06 -3.2320746e-05 2.9369092e-05 -2.4311885e-05 1.1811825e-05 -3.4482268e-06 1.3670494e-06
5.598153e-05 9.107127e-05 2.3933877e-05 -8.664665e-06 -1.7156761e-06 -1.866583e-06 -4.8807575e-05 -4.023112e-05
-6.380701e-05 1.743428e-06 -4.4239274e-05 -7.616292e-05 -3.0440928e-05 -1.989154e-05 6.6049975e-06 9.671523e-07
-2.1206852e-05 2.0879723e-05 -5.4590864e-06 1.2409259e-06 3.1910997e-05 3.3119068e-05 -3.5516816e-05 1.3511536e-05
-2.0982889e-06 4.577598e-06 1.0687222e-05 1.7603577e-05 -2.729685e-06 4.8801044e-06 4.5472894e-05 -1.0791543e-05
-7.935783e-07 -1.0427845e-05 -3.3976067e-07 3.4866072e-05 -3.795042e-06 1.9099525e-06 -2.625765e-05 -1.03928505e-05
-0.000102078266 1.6988118e-06 0.00014563953 -0.00024779502 0.0001290498 0.00017433321 3.7524504e-05 -0.00022480292

exp_avg_sq f4 [50, 50]
00000000: d7ba 2c40 3407 7d3f e711 d83f 6e74 0840
00000010: ed72 6e3f 97eb 6e3f 511b 6b3f 2e03 5f3e
00000020: 4c69 f83f a9d7 6d40 efc6 5c40 4a6f 443e
00000030: 3081 b83e b3df 683e b79e 2740 05ca f13f
00000040: 9b34 c03f b412 a13e d3ef c83f 2529 0240
00000050: 120a aa3f 7528 e63f 30c8 bd3f 9c42 8d40
00000060: e9b9 bf3f 4a1c 5340 71b9 d93f 8ed7 3240
00000070: a911 983f 2140 8140 cf65 2040 e5c9 9b3f
00000080: 8f72 963f 8512 fa3e 79ef c33e 76a3 c93f
00000090: 1e01 b13e 73b4 313f 7c24 4540 9a1e 2d3f
000000a0: 9fa3 6f3f 381c 483f c4fe 463e 7952 e93f
000000b0: 0636 b33e 7bc4 cc3f 89a0 ac3f 12bf 773f
000000c0: df47 2740 fd75 893e b65a 483f 0e36 ec3d
000000d0: 95d5 fc3e e077 243f 059e 5a3e d66d 123e
000000e0: 0535 9e3e c38a 073d 21f6 6d3e e7f7 6e3f
000000f0: 15fb 733f 3308 2d3d 7beb a33d c800 823d
00000100: 575e 2d3f 439c 093f b766 3c3e 28d7 8e3d
00000110: 648e 363e f683 b13e 682a c13e f7fa 163f
00000120: 5e6a c13e 5f49 a33f 2da6 393e 03fa 6f3f
00000130: 9912 0b3f 3a02 4b3f 2572 fc3d 3853 9c3f
00000140: b0c4 433f 19b1 823e 886c 9b3e 0251 5f3d
00000150: c349 a03d 79e2 af3e 555d 1b3d 7bf6 2a3e
00000160: d52b 7b3f 0e9a 963d e64e 7c3e 8858 713e
00000170: 4b3d 933c ccf8 ba3e beb7 333d 8f2a d73e
00000180: 2f68 8a3e adf4 8c3e dc4c 9f3e 86d2 e03c
00000190: 6b1d 2f40 a003 b93f f055 1d40 3de7 b33f
000001a0: d057 ca3f 3e01 f53e d04a 643f f8cd 5a3e
000001b0: 8b7d 2d40 5ddb af40 4c9f 9040 c140 923e
000001c0: 325f 783e 3352 c13d 1f93 6e40 4603 3440
000001d0: 16c3 713f ca97 803e a29b 0340 9550 723f
000001e0: fd5a 0240 e5ce e63f 2feb 603f 4aac bf40
000001f0: f680 1440 baec 2840 94db 0640 cdda 5340
00000200: 3832 9a3f cbaf a340 9e76 e43f 2fc9 0f3f
00000210: 218b 583f e22b 233f 6af8 273f 1d91 453f
00000220: 872a da3e e3ef 863e fe12 5440 fc0e 643f
00000230: 76c3 3f3f ddf3 db3e 6080 103e b18e 4540
00000240: 43bd e93e 9fe1 6e3f 7723 0d40 888f f23e
00000250: ca0a 7040 4233 7f3e e9a7 7e40 1cca 4641
00000260: aa45 0141 49a2 333f cb41 1541 5362 c540
00000270: 0d59 a33f 6aa9 a33f c25c bd41 daeb 8341
00000280: 1b45 2541 17b5 1840 0edf 393f 824e bf3e
00000290: 851b 3b41 1872 1841 b9bd 4c41 d301 443f
000002a0: 8810 9e41 f872 1641 fd20 ff40 4fc3 0240
000002b0: b357 c43f 0dbd 2a41 3ede 9741 fca5 3840
000002c0: edc1 9040 e1b0 d540 06bc 5b41 73de fc40
000002d0: 18f1 533f d34c 4c40 590f ae3f e8e9 b040
000002e0: acfc 9b40 a673 5d40 1f6c 6740 44a3 b23f
000002f0: 180e 7040 759f 1141 2190 963f 63d8 c03e
00000300: 0f00 d63f 74da 8041 b9dc 5e40 eadd a73f
00000310: 3efa 3a41 7e4f 303f fe4c f341 5251 4c40
00000320: 7f87 fb3d 40c2 923d 4fe5 d93c 101b 283e
00000330: 3fbf c93c d905 ca3d 56d1 0c3d 74e4 a73b
00000340: bba8 093e ef43 683d b736 a83d 4d32 b33b
00000350: 41f9 643c b14b 613c 624c 2c3d 037d eb3c
00000360: ab53 153e edc3 193c 9e7f ef3d 12fb 483e
00000370: 6ce9 ab3c 05fc 9a3d efb8 d83d 4c44 003e
00000380: c4e1 df3d fda8 7a3e cfcf 2c3d 5554 ad3d
00000390: e54b f03d 314c 173e 097e 453e ebc6 d23d
000003a0: 15dc 733d 9257 023d 7e10 6f3c 63f8 033e
000003b0: 6cc0 a63c a14c 7b3d c25c 183e 989d 693d
000003c0: 2d2b 203d 1c68 573d 0829 613c 2540 5d3d
000003d0: 337e 8a3c c1ad f13d 36c9 1a3d 4117 9a3d
000003e0: d042 3b3e 3e10 da3c 6880 483f 786e 8c3f
000003f0: c728 353f 887e 6b3f 513b 1a3f e54f 6f3f
2.6989038 0.98839116 1.6880463 2.1321063 0.9314411 0.9332823 0.91838557 0.21778557
1.9407134 3.7162879 3.449642 0.19183078 0.36036062 0.22741584 2.6190622 1.8889776
1.5016054 0.31459582 1.5698189 2.0337613 1.3284323 1.7981097 1.4826717 4.414381
1.497861 3.2986016 1.7009717 2.7944064 1.188039 4.039078 2.506214 1.2170988
1.175371 0.48842254 0.3826864 1.5753009 0.34571165 0.6941597 3.0803518 0.6762482
0.9360904 0.7816806 0.19433123 1.8228294 0.35002154 1.5997461 1.3486491 0.96775925
2.6137617 0.2684783 0.78263414 0.115337476 0.493817 0.64245415 0.21349342 0.14299712
0.30899826 0.033091318 0.23238422 0.9334702 0.95304996 0.042244148 0.08003899 0.06347805
0.67722076 0.5375406 0.18398558 0.069746315 0.17827755 0.3467099 0.37727666 0.5897669
0.37776464 1.2756766 0.18129797 0.9374086 0.5432525 0.7930027 0.12326459 1.2212896
0.76471996 0.2552574 0.3035624 0.054520614 0.07826569 0.34352472 0.037930805 0.16695587
0.9811376 0.07353602 0.24639472 0.23568928 0.017973563 0.36517942 0.043876402 0.42024657
0.2703261 0.27530423 0.31113327 0.027444135 2.7361705 1.4454231 2.4583702 1.4054943
1.5808048 0.4785251 0.89176655 0.21367633 2.7107875 5.4955277 4.5194454 0.28565028
0.24255064 0.094395064 3.7277296 2.8126998 0.944383 0.25115806 2.056374 0.9465421
2.0368035 1.8031889 0.8785886 5.9897814 2.3203712 2.6394486 2.107152 3.3102295
1.2046576 5.115209 1.7848699 0.56166357 0.84587294 0.63738835 0.65613425 0.7717455
0.4261057 0.26354894 3.3136592 0.89085364 0.74907625 0.4295949 0.14111471 3.0868342
0.45652208 0.9331302 2.2052896 0.4737513 3.7506585 0.24921897 3.9789984 12.424343
8.079508 0.701695 9.328563 6.1682525 1.2761551 1.2786076 23.670292 16.490162
10.329371 2.3860528 0.7260598 0.37364584 11.694219 9.527855 12.796319 0.76565284
19.758072 9.403069 7.972777 2.0431707 1.5339264 10.671155 18.983517 2.885131
4.5236726 6.6778417 13.733404 7.9021544 0.82789755 3.192189 1.3598434 5.528553
4.8745937 3.4601836 3.6159742 1.3956075 3.7508602 9.10143 1.1762735 0.3766509
1.6718768 16.106667 3.4822218 1.3114598 11.686094 0.68871295 30.412594 3.1924634
0.12281703 0.071659565 0.0265986 0.16416574 0.024627326 0.098643966 0.034379326 0.0051236693
0.13443272 0.05670541 0.08213561 0.005468643 0.013975442 0.013750956 0.04206503 0.028746134
0.14582698 0.009385091 0.11694263 0.19627026 0.020985328 0.075676 0.10582148 0.12526053
0.10931733 0.24478526 0.04219037 0.08463351 0.11733226 0.14775158 0.1928636 0.10291847
0.05953606 0.031821795 0.014591334 0.12887721 0.020355426 0.061352376 0.14879134 0.05703506
0.039103676 0.05258952 0.013742693 0.05401625 0.01690588 0.11800719 0.037789546 0.075239666
0.18287206 0.026619073 0.7832093 1.0971212 0.70765346 0.91989946 0.6024676 0.93481284

exp_avg f4 [50]
00000000: 4f0a 983b 8d22 91ba 0d05 0d3b 7bc0 743c
00000010: 2965 0fba 50d9 9a3b ad84 c6bb 8082 cb3b
00000020: 0c80 443a 9ae4 edba a6f1 9039 9111 a33b
00000030: dad3 5fbb 0d3b c5bb 8494 89bc 6620 2d3c
00000040: 3fbf 023c 3737 903a 702e 0bbb ae81 c03b
00000050: 3998 3f3b 85c9 a63b e294 b7ba 4d8c 03bb
00000060: 7272 32bb ee05 113b 5bae 933a 8ca0 13bb
00000070: a75d d7ba 76fc 5bbb a169 1bbb c403 bc39
00000080: ffd4 c53b 1058 64bb c854 2a3b 5217 383b
00000090: 930f 653b fef3 bd39 d780 34bc 8213 86bb
000000a0: edb9 de3a 2f86 12bb 09e4 67bb a83a 1abc
000000b0: 8e12 3a38 c11c 01bb 87d1 debb 91b5 f339
000000c0: f9c6 203c de39 9a3b
0.0046399008 -0.0011072919 0.0021517903 0.014938469 -0.0005470091 0.0047256127 -0.0060582967 0.006210625
0.0007495887 -0.0018149794 0.00027645862 0.0049764593 -0.0034153373 -0.0060190023 -0.01679445 0.010566806
0.007980167 0.0011002783 -0.0021237396 0.005874834 0.002923502 0.005089941 -0.0014006163 -0.002007264
-0.002722886 0.0022128779 0.0011267172 -0.0022526113 -0.0016431109 -0.0033567226 -0.0023714083 0.0003586096
0.006037354 -0.0034842528 0.0025990475 0.0028090072 0.003495191 0.00036230678 -0.011017046 -0.004091681
0.0016992666 -0.0022357812 -0.0035383722 -0.009413399 4.4363136e-05 -0.0019700977 -0.00679988 0.0004648385
0.009813064 0.0047066053

exp_avg_sq f4 [50]
00000000: 26c5 8143 1deb a441 c4cd b842 2bbd 1b45
00000010: b8dc c840 30a3 0c43 584a b843 44a0 a943
00000020: 48dc 9841 94e1 e942 1aab 8941 52bc 9643
00000030: d3d1 4943 f6f4 8043 ebb7 0745 4bd6 8a44
00000040: 0684 1944 4f94 6c41 0c93 3341 90b7 ae43
00000050: 4821 7242 4b49 9f43 953f 4841 384b ac42
00000060: 2f00 8f42 1123 2842 5641 4e42 6d2b 5142
00000070: a20d 4242 92b1 f142 d613 8f42 d6ba d841
00000080: 7792 0944 72a7 6143 67bf c542 cee6 be42
00000090: bc48 0943 e84d 7a41 2e88 9d44 55c5 3743
000000a0: 3f3c 4c42 e91c a142 e1a2 0d43 c0a3 3e44
000000b0: cb53 3c40 3de2 7042 64bb 1a44 a31a 9241
000000c0: e6fd 8244 336e 9f42
259.54022 20.614801 92.401886 2491.823 6.276943 140.63745 368.5808 339.25208
19.10756 116.94058 17.208546 301.47125 201.81963 257.91376 2171.4949 1110.6967
614.06287 14.786208 11.2234 349.43408 60.5325 318.5726 12.515523 86.14691
71.50036 42.034245 51.563805 52.292408 48.513313 120.84682 71.53874 27.091228
550.2885 225.65408 98.87383 95.45079 137.28412 15.64402 1260.2556 183.77083
51.058834 80.556465 141.63625 762.5586 2.9426143 60.220936 618.928 18.263006
1047.9343 79.71523

exp_avg f4 [50, 50]
00000000: 2f64 94b9 566a af39 7e70 7c39 4e60 0238
00000010: ae40 16ba 8821 b4b9 8151 1439 bb0d 2039
00000020: 4184 c2b9 5c58 473a f922 3e39 da47 40b9
00000030: 86c1 073a 891a cd38 d828 b639 8f64 e6b9
00000040: 3b0e 2038 1083 81b9 1bdd d238 7101 8138
00000050: 3e22 2eb9 b20d 9e39 b144 0e3a f752 4e39
00000060: 2455 b039 4d06 08ba cf24 4a39 4058 83b9
00000070: 6c62 253a 6da1 cd39 93bd d239 ccd2 77b9
00000080: 96f4 31ba c9bc 86ba 6af6 dab9 2fa6 02b9
00000090: 4e88 7ab8 5d4e 5a38 8dbc b639 df61 e2b9
000000a0: fc0c f9b9 199e c437 e731 223a b3da 9db8
000000b0: 2224 5c38 9f39 63b8 ee6c b7b9 c65f 9b39
000000c0: 98a6 50b8 8f37 2c39 3884 9839 4723 8838
000000d0: 9227 8c39 c639 b8b9 c82b 9eb9 843c 5f39
000000e0: 46d7 1eb9 10a9 1b39 3180 88b8 5204 f839
000000f0: 10e2 3db7 44c6 89b5 f13b 9139 3c86 09b9
00000100: 7374 b9b8 43a3 b8b8 63bb 4539 27ec 5639
00000110: 2f01 9739 4070 7139 6e48 17b8 55d2 7e39
00000120: de02 3c39 e391 cdb9 b108 57b9 9477 a8b9
00000130: 8f0e 9a39 8731 c9b8 67b5 b439 1603 2d38
00000140: 4cbc d436 de3c b9b9 9f0c a7b8 8fda 2cba
00000150: 90a3 eeb7 9b3c e737 9057 cdb9 a26f 1439
00000160: 6216 acb9 92a4 cfb9 83ca d938 d723 6d39
00000170: 66d7 6939 3fbd 1635 1fd9 63b9 d28c d8b8
00000180: 7778 9bb9 29c6 d638 9518 ad39 8660 ae39
00000190: dfda 8439 cb50 69b5 d5f7 3d39 4402 3039
000001a0: c0be ca38 da14 b2b8 cd7f cbb8 6d34 1ab8
000001b0: f5a8 a8b8 d5b7 6236 ec50 9b39 b42f 0aba
000001c0: 0249 3db7 fcdd 2736 1bc5 be38 797f 20b9
000001d0: 2cb5 9eb8 498f 08b9 73b4 34b9 4f79 5139
000001e0: 4264 7538 9147 c238 d503 af39 cc09 9338
000001f0: 8b62 b6b8 d082 d6b6 d6e8 91b9 68b5 9438
00000200: e0a2 a537 d705 0f39 6ec2 d039 4742 6d39
00000210: e5f8 0838 478d 5bb9 3543 1aba 192c 4c39
00000220: c456 2339 1526 0d39 d11b 9ab8 26e3 4fb9
00000230: f71a 03b9 6635 e9b8 12e1 d638 e28a 4238
00000240: 1cf1 78b9 61bb a139 6da6 8eb9 caa3 f139
00000250: 4540 40b9 2dc8 2cb9 475b e8b8 33a3 ceb7
00000260: 712b 37b7 7369 e438 0168 56b7 c377 81b7
00000270: 7dbb cbb4 4330 d636 9213 96b7 7944 a4b8
00000280: f59d e237 27aa 6538 cd59 b3b8 ca51 66b8
00000290: 86d2 6cb8 4ac4 8138 6223 8ab7 fc6a 18b8
000002a0: 8a4f b8b7 81d5 a5b7 b260 bc38 f86e ba37
000002b0: 1b9a c036 90d6 ae38 a651 8738 71dd 3538
000002c0: 32bb 8837 0ffd 9db8 7185 1f37 ad3d a537
000002d0: c3db 32b7 b765 3538 d149 00b8 6de6 0439
000002e0: 3417 a438 abea 3cb8 92fc 8e38 c550 88b8
000002f0: 302d a5b7 744f bb36 d9b1 88b8 dabf 8fb8
00000300: f556 6637 cc5b 8db8 215a 9738 2b99 f6b7
00000310: e2cc 4e36 4ca3 9db8 a161 beb7 0bf3 48b8
00000320: 381f a139 baa9 83b9 8a20 4f39 e1bc 1eb9
00000330: 60d0 6139 65f7 a539 fa42 85b9 1eac 4837
00000340: 9f3e 1939 8391 b9b9 670a 9fb7 9aaa ba38
00000350: 5206 adb9 9c2b 67b9 14e2 c9b9 1d94 9539
00000360: 4367 b038 ec47 3839 ef59 2639 8246 0d39
00000370: 29e0 8f39 b764 c038 9036 15b9 5058 89b9
00000380: 4372 94b9 bd1a 0d39 bd5f aa38 0b23 38b8
00000390: bb21 dbb8 7d1b 9fb8 8e6b 61b9 fcb7 e7b6
000003a0: 1104 b239 28e5 093a 1d70 a139 0bd7 6a38
000003b0: 473c f3b8 25b6 34b8 241a 0dba 9715 dcb8
000003c0: 8bca 8639 d111 8638 fbe2 fbb8 37bb f7b8
000003d0: 08a9 09b9 eaee 05b8 c66f 7cb8 9c2d 35b9
000003e0: a2b6 3539 05fe 1c38 312a c5b9 4710 b638
000003f0: 16bc 8ab9 6d30 02b8 0da0 deb8 5d7f e4b8
-0.00028303402 0.00033457828 0.000240745 3.1084106e-05 -0.0005731684 -0.00034357258 0.00014144742 0.00015263904
-0.000371011 0.0007604414 0.0001813284 -0.00018337314 0.00051786785 9.780104e-05 0.00034744176 -0.0004394394
3.8160226e-05 -0.00024702447 0.000100547644 6.151468e-05 -0.0001660669 0.00030146312 0.0005427106 0.00019676598
0.0003363277 -0.0005188927 0.00019277933 -0.00025052018 0.00063089165 0.0003922092 0.00040195565 -0.00023634284
-0.00067884603 -0.0010279651 -0.00041763793 -0.00012459674 -5.973159e-05 5.204823e-05 0.00034854226 -0.00043179
-0.00047502655 2.343864e-05 0.00061872456 -7.527079e-05 5.248574e-05 -5.417468e-05 -0.0003498564 0.0002963526
-4.9746217e-05 0.00016423895 0.0002909021 6.491556e-05 0.00026732363 -0.0003513826 -0.00030168728 0.00021289481
-0.0001514825 0.00014844933 -6.508863e-05 0.00047305465 -1.1317912e-05 -1.0264998e-06 0.00027701215 -0.00013115344
-8.843178e-05 -8.8042136e-05 0.00018857191 0.00020496604 0.00028801846 0.00023025367 -3.606866e-05 0.00024301682
0.00017930145 -0.0003920934 -0.00020507236 -0.0003213255 0.00029384016 -9.593652e-05 0.0003446743 4.124929e-05
6.340013e-06 -0.000353313 -7.9655314e-05 -0.0006593847 -2.8447976e-05 2.7565568e-05 -0.00039165886 0.00014155966
-0.00032823073 -0.0003960473 0.00010385087 0.00022615433 0.00022300854 5.6154744e-07 -0.00021729291 -0.000103259124
-0.00029653657 0.000102412254 0.00033015446 0.00033259782 0.00025340074 -8.6916833e-07 0.00018116769 0.00016785512
9.6676406e-05 -8.491585e-05 -9.703599e-05 -3.6765286e-05 -8.042335e-05 3.3783629e-06 0.00029624195 -0.00052713905
-1.1282276e-05 2.501415e-06 9.09662e-05 -0.00015306276 -7.567773e-05 -0.00013023349 -0.0001723336 0.00019976984
5.8505924e-05 9.263971e-05 0.00033381456 7.011331e-05 -8.696791e-05 -6.3929256e-06 -0.00027830031 7.0909795e-05
1.9745377e-05 0.00013639718 0.00039817713 0.00022626772 3.2656728e-05 -0.00020938097 -0.00058846484 0.00019471384
0.00015577214 0.00013460995 -7.3484734e-05 -0.00019825678 -0.00012503179 -0.00011120252 0.00010246238 4.638255e-05
-0.00023740943 0.0003084792 -0.00027208347 0.00046089134 -0.00018334489 -0.0001647777 -0.00011079624 -2.463311e-05
-1.09177645e-05 0.00010891529 -1.2779609e-05 -1.5433767e-05 -3.7948112e-07 6.3833154e-06 -1.7890507e-05 -7.8328834e-05
2.7014854e-05 5.475632e-05 -8.552112e-05 -5.4912445e-05 -5.646285e-05 6.187761e-05 -1.6467358e-05 -3.633926e-05
-2.1971548e-05 -1.9768953e-05 8.9825495e-05 2.2224602e-05 5.739986e-06 8.336932e-05 6.45251e-05 4.3359996e-05
1.6299633e-05 -7.533479e-05 9.508208e-06 1.9698253e-05 -1.0660794e-05 4.3248492e-05 -3.0586325e-05 0.00012674341
7.824451e-05 -4.5041244e-05 6.8181325e-05 -6.50003e-05 -1.9690575e-05 5.582284e-06 -6.518112e-05 -6.8545065e-05
1.3729315e-05 -6.7405024e-05 7.217029e-05 -2.939681e-05 3.081565e-06 -7.51676e-05 -2.2695227e-05 -4.7910067e-05
0.00030731573 -0.00025112723 0.0001975318 -0.00015138417 0.00021535298 0.00031655576 -0.00025417638 1.1961003e-05
0.00014614545 -0.00035394364 -1.8959121e-05 8.900948e-05 -0.0003300184 -0.00022046122 -0.0003850615 0.00028529848
8.411568e-05 0.000175744 0.00015864497 0.00013473074 0.00027442098 9.174033e-05 -0.00014230073 -0.00026196474
-0.0002831389 0.00013456769 8.124064e-05 -4.3901655e-05 -0.000104490166 -7.586831e-05 -0.0002149774 -6.905755e-06
0.00033953835 0.0005260282 0.00030791844 5.5990222e-05 -0.000115983705 -4.308498e-05 -0.00053826184 -0.00010494439
0.00025709378 6.3929365e-05 -0.00012010891 -0.00011812749 -0.00013128307 -3.1932177e-05 -6.018558e-05 -0.00017278496
0.00017329541 3.7429872e-05 -0.00037606203 8.681468e-05 -0.00026461546 -3.1039515e-05 -0.00010615597 -0.000108956105
