weights/checkpoint/example0007_warm_adam.pth (torch, 73855 bytes, 25 tensors)

a f4 [5]
000000 cd cc 4c 3e cd cc 4c 3e cd cc 4c 3e cd cc 4c 3e
       0.2 0.2 0.2 0.2
000010 cd cc 4c 3e
       0.2

input_layer.weight f4 [50, 2]
000000 d5 69 8d bf 2d bd 03 c0 46 84 71 be 7a 0f d1 bb
       -1.1047922 -2.0584214 -0.23585615 -0.006380019
000010 10 18 c5 3f 08 74 91 bd 0d 53 f7 bf e9 50 46 3d
       1.5397968 -0.07102209 -1.932222 0.048417006
000020 9f 77 f2 bf aa 3d 8d bf 68 a0 56 3f d3 b4 3b bf
       -1.8942755 -1.1034443 0.8383851 -0.7332279
000030 d5 11 59 40 7a 2a 5f bf af 38 a4 3f cf 5a fb be
       3.3917134 -0.8717419 1.2829798 -0.4909272
000040 2c c8 56 bd c2 a7 f9 bf a1 2c 65 3f e3 92 bf 3e
       -0.052436993 -1.9504321 0.89521223 0.37416753
000050 9a 5f 9b bf 92 a1 c8 be e2 9c 14 c0 12 9a 88 3e
       -1.213855 -0.39185768 -2.3220754 0.26680046
000060 db 7b 92 be f3 0c 96 3f 78 6c 0a be de e9 82 bf
       -0.2861012 1.1722702 -0.1351794 -1.0227621
000070 4e 15 08 40 15 ed b0 be 81 32 82 bf fa a7 55 3f
       2.1263003 -0.3455588 -1.0171663 0.83459437
000080 06 31 33 bf 6b 55 0c 3f a1 bb 2f 3f ee ba 85 bf
       -0.6999668 0.5481784 0.68645674 -1.0447671
000090 ed 37 8a be 6a 13 21 be 19 58 ea be c0 52 b8 3f
       -0.26995793 -0.15730062 -0.45770338 1.4400253
0000a0 84 d7 a5 bf c7 ef c9 bf f6 be 50 3f 9e 5d cc bd
       -1.2956395 -1.5776299 0.81541383 -0.099787936
0000b0 2d 9b 53 bf d2 b8 81 3f 94 96 04 bf ae fb ae 3e
       -0.82658654 1.0134528 -0.51792264 0.3417639
0000c0 95 a4 e2 be e4 25 e3 bf 87 21 90 be 97 97 d6 3f
       -0.4426619 -1.7745938 -0.2815058 1.6765012
0000d0 e1 fb 94 3e 9f bc 67 3f 55 1f 82 bf 66 d8 84 bf
       0.29098418 0.9052219 -1.0165812 -1.037854
0000e0 e6 22 76 bf 62 6f 79 be ad 20 6f 3f d2 59 9e 3f
       -0.96147 -0.24358895 0.93409234 1.2371161
0000f0 91 c2 40 3f a3 c1 88 3f 38 7a 82 3e 3f ee d1 be
       0.75296885 1.0684093 0.2548387 -0.4100208
000100 e7 41 b6 bf af 38 26 3e cc 59 85 3e 9f 65 59 3e
       -1.4238862 0.1623256 0.26045072 0.21230172
000110 3d 7b 9b 3f ed 2f 8e 3e 4d 44 fb bc 22 71 e5 3f
       1.2146984 0.2777094 -0.030672217 1.792515
000120 1e 10 6e 3f a7 e1 8e 3f c4 61 bc be 39 79 ec bb
       0.9299334 1.1162614 -0.3679334 -0.0072165993
000130 34 90 c1 3e a7 00 a0 3f b6 c7 16 bf 3c 34 b4 3e
       0.3780533 1.2500199 -0.58898485 0.35196102
000140 20 cb 6a bf d1 f0 c7 bf aa 8e 0e bd af 35 95 be
       -0.91716194 -1.5620366 -0.034804024 -0.2914252
000150 09 85 3e be da 76 9f bf 3c 44 4a 3f 02 0c 64 3f
       -0.18605436 -1.2458146 0.7901037 0.8908082
000160 c6 d7 c5 be b0 cb ed 3f e5 f2 85 3f 47 95 9b bf
       -0.38641185 1.8577785 1.046475 -1.2154931
000170 d8 00 42 3f 04 d0 7e bf 28 3d bf bf f1 16 ca be
       0.7578254 -0.99536157 -1.4940538 -0.39470628
000180 53 ed a8 be d0 72 23 be 4d e2 1b 40 b2 be b5 be
       -0.32993564 -0.15961766 2.4356873 -0.3549705

input_layer.bias f4 [50]
000000 0c de d4 3a 2d f8 0a bb 94 d2 e5 b8 f0 b4 39 b9
       0.0016240492 -0.0021205053 -0.00010958794 -0.0001771038
000010 ff e9 ce b9 74 44 a0 39 e0 07 03 b9 14 32 a0 b9
       -0.00039465723 0.0003056858 -0.00012496067 -0.0003055489
000020 71 4b e4 b9 2a 00 ce ba d5 45 84 39 ae 71 dd b9
       -0.00043543757 -0.0015716602 0.0002522903 -0.00042237103
000030 29 c4 37 ba 3a 61 a8 39 50 f3 0f ba 92 92 00 ba
       -0.0007010126 0.00032115896 -0.00054912735 -0.0004904653
000040 80 dc f3 3a 9c 53 a4 ba a7 68 0b ba 51 39 94 39
       0.0018605143 -0.0012537125 -0.00053180236 0.00028271464
000050 e3 d6 7c b9 42 0c 22 3b af 95 1c ba 9d 17 6e ba
       -0.00024112644 0.0024726545 -0.00059732323 -0.0009082498
000060 52 69 87 b9 af b3 52 ba de 31 89 39 97 ff 0b ba
       -0.00025827676 -0.0008037639 0.0002616783 -0.0005340515
000070 4e 44 19 ba 32 cf 0a ba 38 f0 91 b9 b2 5f 6a ba
       -0.0005846665 -0.0005295157 -0.00027835532 -0.00089406513
000080 26 5d 97 3a 34 32 51 3a 95 ad 5f 39 e5 f3 a0 b9
       0.0011548146 0.0007980198 0.00021331602 -0.00030699294
000090 14 35 98 3a b1 26 40 ba e9 0a b4 3a 69 04 b7 b8
       0.0011612498 -0.0007329984 0.0013736162 -8.7269415e-05
0000a0 f1 25 cf b9 cc a5 89 3a 19 79 04 b9 c3 94 37 3a
       -0.00039510385 0.0010501682 -0.00012633613 0.0007003063
0000b0 23 bb 5a b9 9b 7e 69 3a f0 93 4e 39 23 a2 93 b9
       -0.00020859814 0.00089071103 0.00019700802 -0.00028158826
0000c0 c9 d1 b9 b8 89 17 ab 38
       -8.860563e-05 8.158299e-05

hidden_layers.0.weight f4 [50, 50]
000000 d1 11 07 3e 2b 71 37 3e de 71 7c 3d d4 14 ae 3d
       0.1319039 0.17914264 0.06163203 0.085000664
000010 6a 11 46 bd eb a5 a7 3e 5c 07 b8 bd 23 21 02 bd
       -0.04835645 0.32743773 -0.08985779 -0.031769883
000020 41 3f ac be 6e 36 46 3e ce 42 53 be d3 ff a0 3e
       -0.3364201 0.19356701 -0.20630953 0.31445178
000030 74 80 c3 be 85 c8 95 bd 4b 5a 47 3d b5 50 9c 3d
       -0.3818394 -0.07313637 0.048670094 0.07632581
000040 53 60 06 be 77 73 d8 bd 9d b1 2e bd fd 4e cb bd
       -0.13122682 -0.10568898 -0.042649854 -0.09927175
000050 74 a8 e1 3d da 19 8b be b3 8c 3d be b0 5a b2 bd
       0.11018458 -0.2716816 -0.18510704 -0.087087035
000060 fd 12 6b be ff 39 6b 3e 3c ed 64 3e 1e fe 07 3d
       -0.22956462 0.22971343 0.22356123 0.03320133
000070 86 e8 10 3e 32 4b 40 be 6d f2 92 bd fd 56 8e be
       0.141512 -0.18778685 -0.07175145 -0.27800742
000080 9e c7 ef bd d4 03 bd be 20 61 2c be ec d3 ce 3e
       -0.11707996 -0.36916983 -0.16833925 0.4039606
000090 ce 09 06 be 68 79 1a bd 66 c0 a7 39 64 5c 3e be
       -0.13089678 -0.03771344 0.0003199607 -0.18589932
0000a0 b6 b9 b8 3b ee ed a1 bb d5 7d 9d 3e 25 83 5f 3d
       0.005637373 -0.0049416935 0.30760065 0.05456843
0000b0 ea 22 0e 3d 6f 19 ab bd 24 83 da 3e e7 55 2f 3f
       0.034701265 -0.083544604 0.42678177 0.6849045
0000c0 93 f3 4c bd 6d 69 01 3e 5c 85 2c be 8e 0a 85 3e
       -0.050036978 0.12637873 -0.16847748 0.25984615
0000d0 70 52 2b bb f4 f5 aa 3e a5 bc d6 3d 0d 87 87 bd
       -0.0026141666 0.33390772 0.104852 -0.06617556
0000e0 b7 3d cc 3e 47 86 00 be 8e 6d a0 3d 4d 24 a0 bc
       0.39890835 -0.12551223 0.07833396 -0.01954856
0000f0 e2 68 fb 3d 84 d9 ce bd 9b 36 92 3d 93 03 59 3d
       0.12275864 -0.101000816 0.071393214 0.052981924
000100 82 e7 1c 3e e1 96 5b 3e 2a 10 58 3d 5c e5 e6 bd
       0.15322688 0.21444274 0.05274979 -0.112742156
000110 ee a3 f7 bc d1 18 50 be 00 74 35 3d e4 1e 24 be
       -0.030229535 -0.20321967 0.04430008 -0.16027409
000120 f2 83 f4 bd ad b7 aa 3e ca 85 be bd 6e fb db bd
       -0.11939229 0.33343259 -0.09302862 -0.10741316
000130 15 7b e0 3d 00 9a b4 be 35 7e 88 3d 40 e4 ec 3d
       0.10960976 -0.35273743 0.06664697 0.11566973
000140 a3 be 2c be 6b 88 9a 3d a3 b9 09 be 08 18 a4 3e
       -0.16869597 0.07545551 -0.13449721 0.32049584
000150 44 67 a8 3e 0b 96 4e 3d 76 ae 80 be c8 1f dd 3c
       0.32891285 0.05043606 -0.25133103 0.026992694
000160 ee 3f 9f bd 7b da ad bd 51 10 2a 3e a3 6b 28 be
       -0.077758655 -0.084889375 0.16607787 -0.1644731
000170 19 64 3f 3e c3 3a a8 3e 7e 27 e6 be da 0c 34 be
       0.18690528 0.32857332 -0.44952005 -0.17583027
000180 3a c4 d3 3e c6 d9 8b 3e 3a fd 83 3e a9 9b bf bd
       0.41360646 0.27314585 0.25779134 -0.09355862
000190 ef 4c a1 3e 75 ea 8c be f0 05 27 3e 35 60 33 be
       0.31504008 -0.27522627 0.16310859 -0.17517169
0001a0 32 9c 92 be b7 db 17 be 21 5a ab be 5d 87 a0 be
       -0.28634793 -0.14829908 -0.334672 -0.31353274
0001b0 b4 e4 26 3d a0 e7 54 be 62 2b c2 bd 90 f9 49 3d
       0.040745452 -0.20791483 -0.09480931 0.049310267
0001c0 21 e5 4c be 9a e2 b1 3d b4 b2 b7 bd b0 87 c2 3d
       -0.2000928 0.08685799 -0.08969632 0.094985366
0001d0 db 0e 13 be 0c 2c 97 3e 4b 42 a4 bd 30 e0 54 3d
       -0.14361136 0.29525793 -0.08020457 0.051971614
0001e0 ab 65 51 bd fb ed 6a bd 2e 2f 3b 3c b5 59 f4 be
       -0.05112235 -0.057355862 0.011424823 -0.4772469
0001f0 53 15 32 3e 7e 33 f6 3e a8 0a d8 be b9 8e 11 3e
       0.17390947 0.4808616 -0.4219563 0.142146
000200 03 50 8a bc 34 79 97 be 3a 8f 0a be 7c b3 45 3d
       -0.016883856 -0.29584658 -0.13531199 0.048266873
000210 c1 1c 8b be 58 ac 7a 3d 04 12 8f be 18 2e 6c 3d
       -0.27170375 0.061199516 -0.27943432 0.057661146
000220 e2 1c c4 3d 12 33 18 be 16 14 0e 3d 4f 1b 0c 3e
       0.095758215 -0.14863232 0.034687124 0.13682292
000230 45 72 24 3e 8f 6e e8 bd b1 e8 8c be 2b 0a 8a 3e
       0.16059215 -0.113492124 -0.2752128 0.26960883
000240 15 38 7a be 48 a0 55 bc be cf ae bd 7d a2 04 3f
       -0.24435456 -0.013038702 -0.085357174 0.5181044
000250 dd 71 c5 3e e4 5d ac be e4 27 38 be d1 52 c7 3b
       0.38563433 -0.33665383 -0.17983967 0.0060828705
000260 94 0e 2b 3e 0d ca 7c 3e 73 a8 07 be ef f6 fa bd
       0.1670478 0.24686451 -0.13247852 -0.1225413
000270 2b d2 a6 bc 73 c8 ae be 1d 49 90 be 43 cb 17 3d
       -0.020363888 -0.34137306 -0.2818078 0.03705908
000280 5e 23 47 bd ff 9e 71 3c b5 e0 a8 3e 83 56 02 3e
       -0.048617713 0.01474738 0.32983938 0.12728314
000290 62 73 27 be c7 84 eb 3e 2a a7 0b be 43 0e e8 bc
       -0.16352609 0.4599974 -0.13637987 -0.028327113
0002a0 7b 55 0f be e7 7a 1b 3e ad 00 ed 3d 72 e0 f0 bd
       -0.13997452 0.15183602 0.115723945 -0.117615595
0002b0 3d 46 39 3d dd 9e 8a bb f3 28 8d bd 83 55 0c be
       0.045233 -0.0042303638 -0.06892576 -0.13704495
0002c0 68 57 81 bd 79 d6 9e bd e6 2f 11 3d e2 53 0c 3d
       -0.063154995 -0.07755751 0.03544607 0.034259684
0002d0 c8 27 38 3e 7c 58 13 3d 77 37 93 3e 86 78 01 3e
       0.17983925 0.035973057 0.28753254 0.12643632
0002e0 b6 2b d5 bd cd 3f 4e 3e 77 23 98 3d ca c3 52 be
       -0.10408728 0.20141526 0.074286394 -0.205825
0002f0 71 80 18 be 27 6f c2 bd 54 fc 01 3d c3 df 96 3c
       -0.14892747 -0.09493857 0.03173478 0.018417245
000300 4d 27 38 3e 9f f4 10 bb ed 3c 3d be b9 9c da bd
       0.17983742 -0.0022118462 -0.18480273 -0.10674424
000310 0a 51 da bd 00 e9 59 3d cf eb bf 3c 33 c4 a3 3e
       -0.10659988 0.05320072 0.023427872 0.31985626
000320 09 b1 9e 3e f9 89 1a 3d c7 b1 8d bc f8 f1 cc bd
       0.30994442 0.037729237 -0.017296685 -0.100070894
000330 19 00 4a bd f2 3a c4 3d fd 0f c4 bd 55 dc 3d 3e
       -0.0493165 0.095815554 -0.09573362 0.18541081
000340 13 55 af be 05 a0 a1 be fc 96 52 3e 72 1f ff bd
       -0.34244594 -0.31567398 0.20565408 -0.124571696
000350 9a 75 8a bd 7f 58 d6 ba 8d 3a 32 be 5b 52 82 be
       -0.06760712 -0.0016353278 -0.17405148 -0.25453457
000360 7a 6f 17 3e dd 4c 93 be e0 20 93 be c8 6a cc bd
       0.14788619 -0.2876958 -0.2873602 -0.099813044
000370 37 d9 2c be 34 81 06 bd 80 eb ed 3d eb d6 bc be
       -0.16879736 -0.03283806 0.11617184 -0.3688272
000380 b6 aa bc 3e 35 26 2c be 50 79 fa 3d b2 38 73 3d
       0.36848992 -0.1681145 0.1223017 0.05938024
000390 22 fc cc 3c b1 c3 a8 3c d0 fc 22 3e d3 f3 f1 bd
       0.02502257 0.020601125 0.15916753 -0.11814084
0003a0 71 12 96 3e 2b 28 ad 3d 8a dc 91 3d e6 db 83 bd
       0.29310945 0.08454927 0.071221426 -0.06438427
0003b0 95 60 3c bd b5 a4 4e be 44 c4 67 3e 43 b1 d1 3d
       -0.045990545 -0.20180018 0.22633463 0.10238888
0003c0 b1 44 d0 bd 11 09 09 3e 16 fe 15 be c6 55 58 3e
       -0.10169352 0.13382365 -0.14647707 0.2112647
0003d0 6b f3 de bd 6b 8f 7c 3e cb d1 64 be fe 68 28 be
       -0.10886272 0.24664085 -0.22345655 -0.16446301
0003e0 62 e2 7e 3e 68 92 da bd b0 24 c0 bd c0 8c 69 3e
       0.24891046 -0.10672456 -0.093819976 0.22807598
0003f0 6d b9 f5 3c 99 bd 75 be 83 43 84 3e d2 1f 9e 3d
       0.029995644 -0.23998107 0.25832757 0.07720913

hidden_layers.0.bias f4 [50]
000000 15 21 b0 ba c5 52 88 ba 8b da 21 ba 16 11 ea b8
       -0.0013437594 -0.0010400644 -0.0006174228 -0.00011161172
000010 2a 15 2f 3c d9 c5 e9 39 a5 a4 cb 3a f6 21 e5 b7
       0.010686198 0.0004458863 0.0015536739 -2.7314742e-05
000020 38 b6 4a bb 53 10 be 3a 7b ef 26 bb 39 05 9c b9
       -0.0030931365 0.0014500715 -0.0025472331 -0.0002975853
000030 0d 61 ff 39 f9 d2 cc b9 61 a0 84 b8 76 f0 4b 36
       0.000487097 -0.000390671 -6.3241234e-05 3.0389324e-06
000040 af 51 5c 3a 5f c6 18 bb 98 5c 7d bb 58 1d 23 3a
       0.0008404506 -0.0023311598 -0.0038659927 0.0006222329
000050 46 e5 52 3b fb 38 b6 ba 29 d9 93 ba 01 c2 bb ba
       0.0032180115 -0.001390248 -0.0011279929 -0.0014324785
000060 d2 b3 5d ba e8 91 f4 b9 cf 53 e9 3a 3c 2a 58 bb
       -0.0008457276 -0.00046648015 0.0017801466 -0.0032984158
000070 50 55 14 b8 ca e9 a4 3a 6f 12 ea ba a1 1e d7 3a
       -3.5365403e-05 0.0012581882 -0.0017858277 0.0016412326
000080 3d 4f 81 b9 12 b7 b2 ba ec 6b 86 3a 71 3b aa 3a
       -0.00024663834 -0.0013634881 0.0010255552 0.0012987686
000090 8a 9b 82 3a 1c b7 4c 3b 7f 34 df b9 97 e8 f7 38
       0.0009964567 0.0031237071 -0.00042572987 0.00011821201
0000a0 d1 f1 b7 39 1f 44 0f 3b ce 2d f7 3a f9 b5 b7 b9
       0.00035084647 0.0021860672 0.0018858255 -0.0003504006
0000b0 e0 40 f5 bb bc 7d 2e b9 f2 26 8d b8 44 ba ef b8
       -0.0074845403 -0.00016640773 -6.730658e-05 -0.00011431103
0000c0 2b 0f 7d b9 1c 76 4c b8
       -0.0002413361 -4.8747388e-05

hidden_layers.1.weight f4 [50, 50]
000000 85 fe 0a bd d7 f2 63 3d 91 05 17 bd 9d 0e e4 bd
       -0.033934135 0.055651512 -0.036870543 -0.111356
000010 d8 55 08 3e f6 76 50 be f7 0c ec bc f2 e4 e8 bd
       0.13313997 -0.2035788 -0.028814776 -0.11371793
000020 9f 58 b5 be 5a 97 c5 3b 9a 1b 3d be 19 a6 1a 3d
       -0.35419175 0.0060300054 -0.1846756 0.03775606
000030 5b 8d 24 3e cb 60 8a bc d5 fc d4 3e 63 6c 0b bf
       0.16069548 -0.016891858 0.41599146 -0.5446226
000040 eb fa 5b 3e ce 83 19 bd 37 a9 a8 be 4e 6b 9a 3e
       0.21482436 -0.037479214 -0.329416 0.30159992
000050 e0 80 7f 3d 48 82 35 3e 9a 94 4e 3d 76 b6 4a be
       0.062378764 0.1772548 0.050434686 -0.19796166
000060 67 30 44 be d7 e4 89 be 88 38 03 bc 89 9e 6d 3d
       -0.19159089 -0.26932403 -0.008009084 0.05801252
000070 bb 57 39 be a6 b1 7c be 10 43 0a 3d 54 c6 06 be
       -0.18099873 -0.24677143 0.033755362 -0.13161594
000080 3e dc 40 3e 11 f1 21 bc 52 66 42 be e7 3c 70 3d
       0.18834016 -0.009884135 -0.18984345 0.05865183
000090 e3 3a 42 be 2a 2b 05 3e 6e 05 b2 bd f4 d3 e6 bd
       -0.18967776 0.13004747 -0.08692442 -0.112708956
0000a0 d3 dc d3 3d 9f b5 4e 3e 8d dc 66 3d 6a 45 0e be
       0.10344853 0.2018647 0.056362677 -0.13893667
0000b0 41 7b 83 3d 1f 33 86 3e 6b b0 de 3e c5 c2 c5 3d
       0.06419993 0.26210877 0.4349397 0.0965629
0000c0 9f 89 6c bd 8a ca 00 bf 0c d2 6e be 32 8f a2 bd
       -0.057748433 -0.5030905 -0.23322314 -0.079374686
0000d0 c5 cb 22 3d 00 2f a7 be 52 6f c8 bc a9 f4 72 3d
       0.03974511 -0.32653046 -0.024467144 0.059315357
0000e0 77 6b 80 3e 2b 20 4b be b4 e7 70 be 06 af be bd
       0.2508199 -0.1983649 -0.23525888 -0.09310727
0000f0 f4 ef dc bd ac e1 1f be 35 6e 2d bc 88 36 33 be
       -0.10787955 -0.1561343 -0.010585357 -0.17501271
000100 0e b3 8e 3e dc 66 46 be fa f4 0a 3e 27 c3 4e 3c
       0.27870983 -0.19375175 0.13570014 0.01261977
000110 97 b5 72 be 15 76 ef bd 11 24 3c 3e d9 09 bb be
       -0.23702084 -0.11692444 0.18373133 -0.3653095
000120 94 2f 03 be af fa 6d 3b 93 52 1f 3e 48 4c 80 be
       -0.12811118 0.003631275 0.15558843 -0.25058198
000130 a5 e1 2b 3d ef cb 0a 3e e2 01 5b 3e e6 9d 7e bc
       0.04196324 0.13554357 0.21387437 -0.015540576
000140 6d 92 c9 3c ab 61 3d be 9e a6 26 3e e7 cf 81 bd
       0.024605954 -0.18494289 0.16274497 -0.06338482
000150 99 42 9c bd b7 87 df bc d3 75 b3 3c 2d 17 52 3e
       -0.0762989 -0.027286394 0.021906769 0.20516653
000160 6a de 0a bf 7f 38 9e be fe 0a ba 3c 63 b1 b7 bd
       -0.54245627 -0.30902478 0.02271032 -0.08969381
000170 b6 e4 83 3e 92 c1 11 be 40 72 95 3e 43 27 a5 bd
       0.2576043 -0.14233997 0.29188728 -0.08064129
000180 57 bf 5c 3e be 5f eb bc 0b 45 39 3b af 80 8a be
       0.21557365 -0.028732177 0.0028269913 -0.27051303
000190 12 34 f9 3d 05 cd 70 be 77 e0 aa 3e 38 04 8f bd
       0.12168135 -0.23515709 0.33374378 -0.069832265
0001a0 41 c4 a0 3e 26 c2 48 be ff 95 7e 3c c0 ec 5a 3c
       0.3139973 -0.19605312 0.015538692 0.01336211
0001b0 bf bb 00 3f 77 dd 24 3d 82 a4 ae be 39 f1 19 bd
       0.5028648 0.040250268 -0.34109885 -0.037583563
0001c0 27 23 0d 3f d7 7b a0 3c 1d 18 2c bd 50 9d 35 be
       0.55131763 0.019590301 -0.042015184 -0.17735791
0001d0 42 49 75 3e 4c d8 15 3c 1e de 8d be 0c 46 9c be
       0.23953727 0.0091458075 -0.27708524 -0.30522192
0001e0 83 96 b6 be c4 8d 7d be 0f 60 c3 be 73 bc 5f 3e
       -0.35661706 -0.2476111 -0.38159224 0.21849231
0001f0 f9 c5 47 bd 5a bd 1c be da 34 36 be 4c 02 e3 3d
       -0.048772786 -0.15306607 -0.17793599 0.110844225
000200 0c 7b bf be 65 cd 33 bc 3c af 37 be b6 fa 29 3e
       -0.37398565 -0.010974263 -0.1793794 0.16599545
000210 20 38 35 be 39 ec ba 3e 42 60 d4 3b 24 2f 8e 3d
       -0.17697191 0.3650835 0.0064812014 0.06942585
000220 55 de 09 3e cd 2b a3 3d e9 b9 a4 3d e9 08 4d 3e
       0.13463719 0.07967339 0.08043272 0.2002293
000230 1c 5f 81 3d 14 fa b6 3e 92 35 69 be df d7 07 3f
       0.06316969 0.3573767 -0.22774342 0.5306377
000240 90 a4 45 be 5f 45 94 3e 37 11 62 bc fd 88 b5 3e
       -0.19301057 0.28959176 -0.01379805 0.35456076
000250 1f f8 3b 3d 96 e1 b6 3e 8b a0 67 be cb 10 35 3e
       0.045890924 0.35718983 -0.22619836 0.17682187
000260 48 58 88 be 1b 28 83 3e fd 76 c1 3d ce c3 c8 3e
       -0.26629853 0.25616536 0.09446523 0.39211887
000270 8a 4a 42 3d 61 9c 2d be 3e 34 8e be 0d 68 3a 3e
       0.047434367 -0.16954185 -0.27774233 0.18203755
000280 1f d6 92 be 10 7b 53 3e 58 2e 8d 3d fe a7 02 be
       -0.28678986 0.20652413 0.06893605 -0.12759396
000290 38 2a d5 3b 23 bc 3d bd a5 91 09 bd e3 a1 6e 3e
       0.006505277 -0.046322 -0.033586163 0.23303942
0002a0 0d a2 ff be 8d 34 0a be 8d 91 9e be a2 30 63 be
       -0.49928322 -0.13496609 -0.3097042 -0.2218652
0002b0 7f 7e e0 3d af 58 bc 3d 08 5f 3b bd 85 29 49 3d
       0.10961627 0.091966026 -0.045744926 0.04911186
0002c0 df 6a 16 3e 14 ee ba bc a7 71 8c 3d 28 2e af 3d
       0.14689206 -0.022818603 0.06857615 0.085537255
0002d0 0e 45 89 3d 45 cb f4 3e 33 83 c8 be 0d 48 96 3d
       0.06702624 0.47811332 -0.39162597 0.07337961
0002e0 8f be f9 3c a5 60 35 be bb e7 a1 be 52 72 7d bd
       0.030486373 -0.17712648 -0.3162211 -0.061876602
0002f0 32 48 04 be a3 62 49 3d 52 8f c2 be f5 89 e8 bd
       -0.12918165 0.049166333 -0.3799997 -0.11354438
000300 87 52 a5 bd 20 04 99 3c 75 38 43 be 68 55 52 3e
       -0.080723815 0.018678725 -0.19064505 0.20540392
000310 9e dc ba 3e cb 89 19 3d 7c 3b c9 bd 91 a8 6d 3c
       0.36496443 0.037484925 -0.09825799 0.014505521
000320 30 b0 d2 3e 65 0e eb 3d ee 6e 8c 3d 42 52 8b 3c
       0.41150045 0.11477355 0.06857096 0.017006997
000330 25 e1 76 bd 70 2b 37 3d 12 dc d0 bc 74 30 fe 3d
       -0.06027331 0.04471916 -0.025495563 0.124115855
000340 69 b1 76 bd 50 3a bd 3c 0a ba 34 bd 01 3d d9 3d
       -0.060227785 0.023099095 -0.044122733 0.10607339
000350 cd f1 1c 3e cb 4e c2 3e 6a 41 45 bd ed 8a 7f 3e
       0.15326615 0.3795074 -0.048158087 0.2495534
000360 19 08 31 bd 0a c4 26 bd b8 1c 89 3e 40 a2 d7 be
       -0.043220613 -0.0407143 0.26779723 -0.42115974
000370 19 39 16 bd 42 a5 0e 3d fc 3e 9e be 76 2e 59 be
       -0.036675546 0.03482557 -0.30907428 -0.2120913
000380 e6 62 23 bd cc 44 12 be dd 80 ae 3e 38 84 28 3d
       -0.03988924 -0.14284056 0.3408269 0.04114172
000390 ad 49 33 bc 20 ae fa 3d 02 32 07 bb 77 00 3f 3b
       -0.010942859 0.12240243 -0.0020629172 0.0029144564
0003a0 00 57 b5 bd 02 08 56 be e0 c1 d1 bb 6b 8e c7 3c
       -0.088544846 -0.20901492 -0.0064012855 0.024359902
0003b0 a0 36 4d 3e c5 f8 f0 3d 4b 25 03 3e 0f ad b2 bd
       0.20040369 0.11766199 0.12807195 -0.087244146
0003c0 65 82 a0 bd 58 10 5b 3c ac 6d 8e 3d 4c 4f 6e 3c
       -0.07837371 0.013370596 0.06954512 0.014545273
0003d0 2b ff 81 bd e8 b9 14 be 2f 65 94 3d 2b fa 0b 3e
       -0.063474976 -0.14524043 0.07245862 0.1366965
0003e0 2d 26 a7 3e 24 ee ef b9 04 54 a9 bd e7 f3 80 3b
       0.32646313 -0.0004576306 -0.08267978 0.0039353254
0003f0 ad 78 00 3e e5 b7 2a 3d f9 90 23 3e 6f 52 23 3e
       0.12546034 0.04167928 0.15973271 0.15949415

hidden_layers.1.bias f4 [50]
000000 e0 1c 78 ba 52 7c 28 3a b4 99 a9 3b 48 ec 9c 3a
       -0.0009464752 0.00064272166 0.0051757935 0.0011972273
000010 43 61 b2 39 f7 b9 e7 39 4e ab c3 3a 50 fc 89 3a
       0.0003402327 0.00044198308 0.0014928372 0.0010527465
000020 e6 2a 79 3a 48 dc 59 3b 77 e4 7b 3a 97 12 0c b8
       0.00095049886 0.003324287 0.0009608934 -3.3395914e-05
000030 da 15 8d b7 c1 dd 31 bc f4 4a 0b 3a a8 e4 a9 ba
       -1.6818685e-05 -0.010856093 0.0005313598 -0.0012961822
000040 1a 79 c4 b9 00 1c 42 b9 92 4e 9d 39 37 62 2f 3a
       -0.0003747426 -0.00018511713 0.00030003913 0.00066903554
000050 c9 b6 db bc 87 ae 00 3a 3a a3 26 bb 76 ff 56 bb
       -0.026820557 0.0004908819 -0.002542688 -0.0032806075
000060 ad 66 0f ba 2e 83 30 b8 cd 00 14 bb 5a 86 3f ba
       -0.0005470317 -4.208384e-05 -0.0022583485 -0.0007306092
000070 d4 a3 b5 ba 68 fd 2d b8 64 46 09 3a 35 8b d2 38
       -0.0013858029 -4.1482417e-05 0.0005236624 0.0001003951
000080 b2 c7 dc 38 29 71 53 38 fc 8f 1f ba 76 5c fa 39
       0.000105276136 5.041171e-05 -0.0006086824 0.00047752605
000090 5a 21 07 3b 1b 30 ca 3a 02 86 0b 3a 47 1d c0 b9
       0.0020619244 0.0015425714 0.0005322398 -0.00036642907
0000a0 ff 79 d2 b9 2b 54 73 3a 05 d6 e7 bb 22 ef 82 b9
       -0.00040145215 0.00092822564 -0.0070750737 -0.000249737
0000b0 48 64 a2 ba cb 0a 5d b9 31 20 c3 39 6b 59 0a 3a
       -0.0012389505 -0.00021080223 0.00037217283 0.00052776065
0000c0 ad 8b d2 3a be 1b 04 bb
       0.0016063355 -0.0020158137

output_layer.weight f4 [2, 50]
000000 48 db 87 3d 13 fb 43 be d9 8b 90 be 74 dc db bd
       0.066336215 -0.19138746 -0.28231695 -0.107354075
000010 0d 43 05 be 95 e7 bd bd d3 ea 2d be f1 c0 7e 3c
       -0.13013859 -0.092726864 -0.1698411 0.0155489305
000020 ba a3 88 3c ce e8 fe be 88 03 2f be 5e 28 eb bb
       0.016679633 -0.4978699 -0.17091191 -0.007176443
000030 07 c4 a9 3c cf 31 9a 3e 3b 92 9a bd 0d 1a 91 3d
       0.020723356 0.30116126 -0.075474225 0.07085047
000040 88 03 73 3c 8b fc a2 bc 8e 57 b8 bc 54 5b f9 bd
       0.014832385 -0.019895812 -0.022502687 -0.121756226
000050 bc a8 2c 3f 9b 1c 83 bd 76 38 fa 3d 8f 55 c4 3e
       0.6744497 -0.064019404 0.122178 0.38346526
000060 40 63 4b 3e b9 09 2d bb 39 8b 8d 3e b9 3a 4f 3e
       0.1986208 -0.00264035 0.2764528 0.20237245
000070 99 d1 3c 3d 65 34 64 3c 53 fd 73 bd f7 2e 28 bc
       0.046098325 0.013928507 -0.05956776 -0.010265104
000080 ee 61 ce 3b 9e c9 3e bd a2 5d f9 3d d9 60 7c be
       0.006298295 -0.046578996 0.12176062 -0.2464632
000090 90 68 d9 bd 99 3f 7c be 48 6e fd bd c0 88 a7 3d
       -0.10615647 -0.24633636 -0.1237455 0.0818038
0000a0 f2 87 86 3d ac 91 83 be 82 de d2 3d e1 fa 73 bc
       0.06568898 -0.25697076 0.10296346 -0.014891357
0000b0 ae 5b d0 3d ac 0f b6 3d d3 49 1d be eb b6 d7 bd
       0.101737365 0.08889708 -0.15360193 -0.10532936
0000c0 1e 2c ed bd 70 f7 bc 3d e5 b8 f5 bd c5 7a 8c 3b
       -0.1158068 0.092268825 -0.119981565 0.004287096
0000d0 f1 13 f8 bd 74 42 8f bd ea fd 82 3d 2c 2a ff bc
       -0.121131785 -0.06995097 0.063960865 -0.031148039
0000e0 bd 5f d6 be 70 d8 d1 be a7 f7 8f 3e 04 66 42 3e
       -0.41869918 -0.4098544 0.2811863 0.18984228
0000f0 f3 85 bb be 93 d0 ec bd 69 12 61 3e 44 80 06 bd
       -0.36625633 -0.1156322 0.21979679 -0.032837167
000100 13 9c b4 3d 8d 8d 9f 3e a7 6b d9 bd aa 09 19 3e
       0.08818831 0.31162682 -0.10616236 0.14945093
000110 61 61 ca 3d 2f 3c e2 bc 12 07 96 3e 61 df 0d be
       0.09881855 -0.027616588 0.2930227 -0.13854744
000120 9d 4a 05 3d 9c b6 b4 be ee 4b df bd 8e b4 1e 3e
       0.03254186 -0.3529557 -0.10903154 0.15498564
000130 11 51 37 be ce 04 44 3c 86 a7 1b be 60 4e e0 bd
       -0.17902018 0.011964036 -0.15200624 -0.10952449
000140 d6 b2 96 be 7f ea e5 bd a0 1c a9 bd c6 e2 95 3d
       -0.29433316 -0.11226367 -0.08257413 0.07318644
000150 a9 6d a9 3d a9 f2 02 3f 7c ba 3a bd aa 39 86 3e
       0.08272869 0.5115152 -0.045588 0.2621587
000160 b4 2b 8c bd 27 72 48 3e 02 24 81 bd 50 a0 89 bd
       -0.06844273 0.19574796 -0.06305696 -0.0672003
000170 cb c0 c7 3d de fe 15 be cc ed 8d be 39 9e 51 3e
       0.09753569 -0.14648005 -0.27720487 0.20470513
000180 44 ec 3a 3c 2d 10 7f 3e e1 93 21 3e 56 4d 43 be
       0.011408869 0.24908514 0.15779068 -0.1907247

output_layer.bias f4 [2]
000000 b5 d1 f7 b9 1d 66 00 39
       -0.00047267755 0.00012245071

exp_avg f4 [50, 2]
000000 5b d7 57 41 1d 9a 25 c0 6a e8 a6 c0 5f cf 53 c0
       13.490077 -2.5875313 -5.215871 -3.309532
000010 34 71 84 c0 0b 03 40 3f 49 f4 87 40 7b e1 43 3f
       -4.1388187 0.75004643 4.24857 0.7651593
000020 7c f0 b9 40 a4 dc fd bf d4 27 42 c1 8d 67 bf bf
       5.810606 -1.9832959 -12.134724 -1.4953476
000030 51 75 d8 3f e1 a0 1c 3e 3b 48 c2 40 05 b8 18 3f
       1.6910802 0.15295745 6.071317 0.5965579
000040 7a 96 d1 bf 4c 92 af 3f 7a dd 53 41 6f c6 17 c0
       -1.6374047 1.3716521 13.241571 -2.3714864
000050 b3 22 3c 41 87 1c a7 bd bb 6d c1 bf 66 44 6a be
       11.7584715 -0.08159738 -1.5111612 -0.22877654
000060 e1 46 29 bf fe 1d d4 be 04 66 3b 41 39 47 43 c0
       -0.6612378 -0.41429132 11.712406 -3.051222
000070 80 9a 5e 40 5f 64 c0 3e 23 41 32 41 42 f3 7b c0
       3.47818 0.37576577 11.1409025 -3.9367223
000080 f9 e8 17 bc 0d 7c 60 c0 71 bd 39 41 1b e7 21 40
       -0.009271854 -3.5075715 11.60875 2.5297306
000090 5e d1 91 c1 bb ce 0b 41 74 7a da bf e8 95 0d c0
       -18.22723 8.737971 -1.706862 -2.2122746
0000a0 10 b5 7b c1 36 5e 02 41 cd db 86 bf 35 e0 03 40
       -15.731705 8.148001 -1.0535828 2.0605595
0000b0 e8 d2 aa c1 ba dc f7 be 77 30 9e c0 a1 28 19 bf
       -21.352982 -0.48410589 -4.943416 -0.5982762
0000c0 bd 68 c7 3f bf 21 4b 40 0c 88 2a 41 f9 7b ca bf
       1.5578839 3.1739347 10.658215 -1.5819083
0000d0 d1 c0 8a 40 59 fb 55 c0 e9 b1 be c1 68 3d 27 41
       4.336037 -3.343466 -23.83687 10.452492
0000e0 5b 0c 0f 40 03 da 26 40 f0 ca c2 40 81 7f fe bf
       2.235129 2.6070564 6.0872726 -1.9882661
0000f0 ab 16 85 3f 19 96 f1 3f 8b e1 ed 40 fd 1c 80 c0
       1.0397543 1.8873931 7.433782 -4.0035386
000100 99 05 3f 3f ef 97 38 3f 15 1c 64 c0 36 1e d8 3e
       0.74617916 0.7210683 -3.564214 0.4221055
000110 69 ed ee be 30 93 6b 3f 29 73 2b 41 e2 85 19 bf
       -0.46665505 0.92021465 10.715615 -0.59969914
000120 ae af c7 41 e3 36 0b c1 36 7e 24 c1 9a 41 91 40
       24.960781 -8.7009 -10.280813 4.539258
000130 cc 44 2c c0 49 4a 21 bf 4a 92 18 c1 94 91 53 3f
       -2.691699 -0.63003975 -9.535715 0.8264401
000140 88 cc e2 c0 0a fc 81 40 68 e3 56 c1 0b 34 58 3e
       -7.087467 4.0620165 -13.430519 0.21113603
000150 a0 5f 7d 41 8d b7 96 bf e5 40 89 c1 fc 5e 45 40
       15.835846 -1.1774765 -17.156687 3.0839224
000160 c6 3b 15 c1 3e 2a 2f bf 2a 1b 40 c1 74 50 9e c0
       -9.327093 -0.6842383 -12.006632 -4.947321
000170 0e 9b 9c 41 29 65 99 3f d5 fd a3 c0 23 66 88 3f
       19.57571 1.1983997 -5.1247354 1.065617
000180 d9 99 a5 c0 fc 39 20 40 50 0f d4 40 59 7c 08 40
       -5.17503 2.503539 6.626869 2.1325896

exp_avg_sq f4 [50, 2]
000000 97 6c ae 41 bd f5 99 3f a9 a0 91 41 33 7e 13 40
       21.803022 1.2028118 18.203447 2.3045776
000010 13 13 aa 41 f1 64 77 41 7e ba c0 41 1c 2b 31 41
       21.259314 15.462144 24.09106 11.073025
000020 73 f7 41 42 33 25 c9 41 54 f7 b1 42 cc e7 5e 42
       48.49165 25.143164 88.98306 55.726364
000030 4e 37 33 41 1c 06 82 40 d0 0c b5 41 0d 90 df 41
       11.201002 4.063246 22.631256 27.945337
000040 fb b7 90 40 e8 90 9c 40 c4 8f 1c 42 d8 bc 98 41
       4.5224586 4.8926888 39.140396 19.092209
000050 db 11 92 41 3d 67 4b 41 92 55 68 42 9d e4 1f 42
       18.258718 12.712705 58.083565 39.973255
000060 fb a2 ef 41 a6 87 4f 42 f8 ba b1 42 3c 0b 9c 41
       29.95458 51.88247 88.86517 19.505486
000070 39 aa c4 40 c5 e1 8f 40 2a fe 9f 42 c8 47 9e 41
       6.145779 4.4963098 79.996414 19.78505
000080 ff 72 ee 40 a2 ad b3 40 15 f4 83 41 ad 9d 04 42
       7.4515376 5.6149454 16.49418 33.15398
000090 eb 6e d1 41 ad 20 b8 41 b3 98 af 40 98 b2 00 40
       26.17916 23.015955 5.48739 2.0109005
0000a0 ae 8d 02 43 96 7d bf 42 e4 bc d1 40 45 d8 8c 40
       130.55344 95.745285 6.554308 4.4014
0000b0 9f 4a a1 42 cd a6 f2 40 6b 4b 8b 3f 13 33 2d 40
       80.645744 7.5828614 1.0882391 2.7062423
0000c0 f4 91 d1 41 4d 4c 55 41 60 77 c2 41 99 ff 06 40
       26.196266 13.331128 24.308289 2.1093504
0000d0 fe 7f 53 41 f3 86 1e 41 cd da 73 42 d2 ab 74 41
       13.218748 9.907947 60.963673 15.291948
0000e0 07 cb a3 41 78 0a d2 41 58 85 e3 3f 8a ec e1 3f
       20.474134 26.255112 1.7775068 1.7650311
0000f0 ad 1f 3f 41 ea a3 b8 41 f2 a8 e7 41 d8 c4 17 41
       11.945233 23.080036 28.957493 9.485558
000100 19 5e c8 40 7a 3e f5 40 5f 12 4c 42 80 e0 da 42
       6.2614865 7.6638765 51.01794 109.43848
000110 02 38 05 42 b3 56 88 41 16 68 3b 42 a6 a9 4d 40
       33.304695 17.042334 46.851646 3.2134795
000120 e8 b0 a6 42 58 79 c9 41 c4 88 c5 40 1c d0 4c 41
       83.34552 25.18425 6.172945 12.800808
000130 86 be cc 40 64 42 ba 40 12 77 a6 41 c9 45 a4 40
       6.3982573 5.8206043 20.80814 5.1335187
000140 fd bd ef 40 f8 5e ad 40 4c 19 42 42 f7 78 81 42
       7.491942 5.417843 48.524704 64.73626
000150 c8 f9 00 43 9c ad 1e 42 72 ca b1 42 9c e9 46 41
       128.97571 39.66954 88.8954 12.432034
000160 71 1f b6 41 0a 30 68 40 f8 3c 68 42 ad bb c0 41
       22.765352 3.627932 58.05954 24.091639
000170 1d d2 81 42 15 71 1c 40 e3 0d 98 41 54 11 07 41
       64.91038 2.444402 19.00678 8.4417305
000180 56 0f 00 41 d9 88 e5 40 e6 13 90 41 26 c9 d5 40
       8.003744 7.172955 18.009716 6.6808043

exp_avg f4 [50]
000000 57 0c e7 c0 47 8f c5 40 62 1a 1b 40 ec 23 d1 bf
       -7.2202563 6.17374 2.4234853 -1.6339087
000010 fb 8c 14 bf a2 73 81 40 e3 33 1f 3f 15 22 cd be
       -0.5802762 4.0453653 0.6218855 -0.40065065
000020 1d 57 f1 3f 87 14 1c c0 f2 8d a0 c0 f3 37 3b 40
       1.885471 -2.438753 -5.0173273 2.9252899
000030 94 70 6c 40 9c 35 18 c1 e9 6d 2c 3f 3f 50 91 c0
       3.6943712 -9.513088 0.6735521 -4.5410457
000040 bc a9 b3 c0 e3 a2 13 40 54 45 1b 41 cd d8 c4 be
       -5.6144695 2.3068168 9.704426 -0.38446656
000050 36 8f 24 41 65 39 42 c0 d2 6e 09 41 c7 ee 28 40
       10.284964 -3.034753 8.589556 2.6395738
000060 da f8 38 3f 5a f4 2c c0 ba 62 88 c0 e9 59 52 41
       0.7225472 -2.702414 -4.2620516 13.146951
000070 38 84 07 bf 3b 64 10 bf 6c 9d be 3f cd 8a 31 3f
       -0.52936125 -0.5640294 1.4891791 0.6935242
000080 94 35 af c0 93 86 b9 c0 35 46 f2 3f 88 ae 99 c0
       -5.4752903 -5.7976775 1.8927675 -4.802555
000090 db 89 76 c1 48 c3 02 40 39 ef 15 3f 0c d3 91 40
       -15.408656 2.043169 0.5856815 4.5570126
0000a0 b7 9b 68 40 27 36 31 be 6d 1b 83 c0 9c a1 ae 40
       3.634504 -0.17305814 -4.097098 5.4572277
0000b0 3c 52 57 40 fc c8 b5 3c f8 ce db c0 39 4a 4d 40
       3.3643942 0.022190563 -6.8690147 3.2076552
0000c0 da e7 eb 3f 45 28 18 c0
       1.843013 -2.3774579

exp_avg_sq f4 [50]
000000 b1 86 9c 42 1c 08 b6 42 55 c4 52 44 6d b2 d1 44
       78.26307 91.01584 843.0677 1677.5758
000010 2d d4 03 45 95 55 df 44 4d ca f8 43 39 a4 46 44
       2109.261 1786.6744 497.58047 794.566
000020 2a df e7 43 07 5f 8c 43 c2 c8 bf 43 92 70 30 45
       463.74347 280.7424 383.56842 2823.0356
000030 cb f4 8a 44 46 f9 8f 44 61 5a 08 44 53 68 20 44
       1111.6498 1151.7898 545.4122 641.63007
000040 8b 91 9b 43 aa d4 fb 43 48 da 5c 43 e5 65 3a 43
       311.13705 503.66144 220.85266 186.39803
000050 5e 4a 9f 45 7a 7d 17 43 aa b3 a3 43 0a 68 45 42
       5097.296 151.49014 327.40363 49.3516
000060 11 89 28 44 9c 83 81 43 f3 e1 55 44 69 e3 cb 43
       674.14166 259.0282 855.53046 407.77664
000070 e3 b4 09 44 6d 7c 0d 42 df 31 0d 44 5a 1a 0c 44
       550.82635 35.37151 564.77924 560.41174
000080 58 e8 07 43 f2 c5 ee 44 26 96 54 44 bd 88 4c 43
       135.9076 1910.1858 850.34607 204.53413
000090 67 d7 ec 43 c9 2a f5 42 ce 51 92 42 6f 4b 4f 43
       473.68283 122.583565 73.159775 207.29466
0000a0 5a a7 87 42 02 38 99 44 a3 67 91 45 67 93 83 44
       67.82686 1225.7502 4652.9546 1052.6063
0000b0 0e d1 6d 43 7c 39 17 43 cb dd 1d 43 2b a8 ba 44
       237.81662 151.22455 157.86638 1493.2552
0000c0 9e 8f 3c 43 cb 43 4a 43
       188.561 202.26482

exp_avg f4 [50, 50]
000000 57 9a 17 bf 26 36 df bf b3 79 15 41 60 df 2a c1
       -0.5921988 -1.74384 9.342212 -10.679535
000010 13 b6 f8 c0 71 ca e3 40 04 18 61 41 80 0b 0f 41
       -7.772226 7.118462 14.068363 8.940308
000020 70 47 88 40 13 b5 a1 40 3e 46 d6 c0 8c 2c 40 c1
       4.2587204 5.053354 -6.6960745 -12.010876
000030 63 85 9a c0 d5 2c 08 40 2b ea 39 41 aa 1c 01 c1
       -4.8287826 2.1277363 11.61967 -8.069498
000040 1b 4d c5 c0 4f 95 d8 40 d1 11 c7 bf a4 99 c0 c0
       -6.1656623 6.768226 -1.5552312 -6.018755
000050 2f 26 4c c0 e3 41 ba 40 7d 67 ed c0 d9 80 95 c0
       -3.1898305 5.820543 -7.418883 -4.6719785
000060 f8 86 05 40 2e 87 ac c0 64 a4 3b bf f8 17 62 c0
       2.0863628 -5.3915014 -0.73297715 -3.532713
000070 a4 4e b8 c0 91 17 12 40 5b 8e d8 3f 6d 81 46 40
       -5.7595997 2.2826884 1.6918443 3.1016495
000080 b6 64 10 c1 27 e2 9a 3f 9d 08 e2 40 ab b6 8c c0
       -9.024588 1.2100266 7.0635514 -4.3972983
000090 17 39 2d 40 ba 09 2b c0 8d cf 9d bf 6b 72 a4 c0
       2.7066095 -2.6724687 -1.2328964 -5.138967
0000a0 eb ba 90 bf 50 5c 1c 3f 73 43 16 40 e8 c1 1e 40
       -1.1307043 0.6107836 2.3478668 2.480585
0000b0 76 48 c2 c0 7f 57 06 41 f6 b1 e2 40 a5 04 02 c1
       -6.0713453 8.396361 7.0842237 -8.126134
0000c0 c5 57 f8 bf f6 a8 45 41 55 10 a1 c0 9c ca 39 c0
       -1.9401785 12.35375 -5.0332437 -2.9029913
0000d0 91 6a 6e 41 cf 69 87 c1 71 9e 6e c1 30 b9 1f 41
       14.901017 -16.926664 -14.913682 9.982712
0000e0 24 aa a4 41 9e 47 56 41 f0 f3 4d 40 79 bb 14 41
       20.583076 13.392485 3.2180138 9.29577
0000f0 7c 2d 3f c1 89 8d 93 c1 06 de a8 c0 18 b3 6d 3f
       -11.948605 -18.444109 -5.2771025 0.928514
000100 37 ed 8d 41 ff c5 35 c1 41 6a 0c c1 ca db 0c 41
       17.740828 -11.360839 -8.775941 8.803659
000110 6f 05 41 c0 a6 bf dc c0 f6 fd 0a c1 00 9b 15 41
       -3.0159566 -6.8983946 -8.687002 9.350342
000120 4b 01 1f c1 e5 df da c0 c5 08 95 be 63 97 b0 c0
       -9.937816 -6.839831 -0.29108253 -5.51848
000130 f7 da 90 3f 49 cd 05 c1 d4 fd 21 c1 a9 bc d8 40
       1.1316823 -8.362618 -10.12447 6.77303
000140 0f 04 b0 40 d9 ba 80 40 7a a6 63 c1 5a c9 27 40
       5.5004954 4.0228086 -14.228144 2.6216645
000150 53 dc 43 41 2b be 69 c0 0a 59 e6 40 0a e9 8f c0
       12.24129 -3.652232 7.198369 -4.497197
000160 4f 41 81 3f 9b b1 f1 c0 4f 92 ab c0 f4 2e 5f 3e
       1.0098056 -7.5529304 -5.36161 0.21795255
000170 e1 f4 64 3f 3f 42 ce 40 f8 8e ce c0 27 ec 34 41
       0.89436156 6.4455867 -6.4549522 11.307654
000180 cf 74 16 41 57 ae 61 c1 f4 b8 6a c0 c9 52 96 41
       9.403518 -14.105063 -3.6675386 18.790422
000190 96 c4 e4 be 9f ed 84 3f 04 20 b1 c0 1c 2c c8 40
       -0.44681233 1.0385016 -5.535158 6.2553844
0001a0 1a 12 8a 40 09 30 8f c0 e2 15 00 c1 59 aa ac c0
       4.3147097 -4.4746137 -8.0053425 -5.3957944
0001b0 69 7d 46 c0 c5 77 38 c0 50 9f 79 40 05 0f df 40
       -3.1014044 -2.8823102 3.9003487 6.9705834
0001c0 c9 5d 53 40 68 af dc bf 17 b7 d8 c0 19 f2 9f 40
       3.3025992 -1.724103 -6.77235 4.998303
0001d0 f3 5f 78 40 a1 5a 8a c0 e2 57 5c 3f 20 30 7e 40
       3.8808563 -4.323563 0.860716 3.9716873
0001e0 83 3e a3 3f 51 7f 64 c0 16 f0 94 40 ee ee 3e 40
       1.2753452 -3.5702708 4.6543074 2.983333
0001f0 a1 48 f4 bf 74 76 6b 40 80 7f 61 3f 80 91 d5 3f
       -1.9084665 3.6791048 0.88085175 1.6685028
000200 63 66 59 40 c7 96 5a bf a3 b2 09 bf 0b d3 04 c0
       3.3968742 -0.8538632 -0.53788203 -2.075381
000210 4a 8a ac 40 93 c3 21 bf 50 da 84 c0 e2 d2 4a 40
       5.391881 -0.6318905 -4.1516495 3.1691213
000220 db 66 90 bf 49 17 d4 3f 34 a1 a2 3f 2b 53 4f 40
       -1.1281389 1.6569606 1.2705445 3.2394512
000230 0d ff 2a 3c cd 36 0b bf 0b 41 f6 bf 71 a3 8e bf
       0.010436785 -0.54380494 -1.92386 -1.1143628
000240 93 a3 80 40 21 87 a6 c0 e1 18 8f c0 3d 41 97 40
       4.0199676 -5.203995 -4.471787 4.7267137
000250 64 8e 8c 3f 2e b4 e4 c0 a0 63 8c bf 65 15 18 bf
       1.0980954 -7.1469946 -1.0967903 -0.59407645
000260 63 ed 4a 40 df 82 68 c0 51 c5 3e c0 de ab 20 40
       3.170739 -3.6329877 -2.9807932 2.51049
000270 8f 2f 9c 40 37 ce 45 40 ec 5f 99 3f 19 cb e3 3f
       4.8808055 3.0907114 1.1982398 1.7796355
000280 2c ca 15 c0 d6 33 83 c0 b8 ed d4 bf 80 28 11 3f
       -2.3404646 -4.1000776 -1.6635046 0.56702423
000290 6b dd 7e 40 b8 ff 38 c0 fa f1 08 c0 7d 5e 1e 40
       3.9822643 -2.8906078 -2.139769 2.474517
0002a0 53 af 08 bf b2 1f 0c c0 0d c7 e1 bf c8 5c fa 3f
       -0.53392524 -2.1894345 -1.763887 1.9559565
0002b0 a3 9d 2f c0 7e c5 c7 bf 39 16 52 3e 56 4c ee bf
       -2.7439964 -1.5607145 0.2051629 -1.8617046
0002c0 f4 49 80 bd 74 5b c7 bf a9 6b fd bf 03 bc 9f 3f
       -0.062641054 -1.5574784 -1.979848 1.2479252
0002d0 64 f0 6e 3f 0c 01 84 3f 32 8b 44 c0 b8 4b dc 3e
       0.93335557 1.031282 -3.0709958 0.4302652
0002e0 ea 9a 1b 40 4c d1 a8 bf c1 33 a9 3f 74 29 65 bf
       2.4313302 -1.3188872 1.3218919 -0.8951638
0002f0 31 73 d0 bd 78 5c de bf 14 8c 81 bf e5 5d 2d 3e
       -0.10178221 -1.7371969 -1.0120873 0.16930349
000300 c7 db 12 3f 5d 00 8f 3f e8 f4 0c c0 5e c6 4a 40
       0.57366604 1.1171986 -2.202448 3.1683574
000310 58 08 27 40 79 a1 34 c0 2a 84 2d bf ff 4b 87 40
       2.6098843 -2.8223555 -0.6777979 4.228027
000320 3a 15 2e 40 3e 0a 28 40 19 8f 60 c1 4a b3 81 41
       2.7200456 2.6256251 -14.034936 16.212543
000330 1c b6 4a 41 10 c3 21 c1 94 bc ab c1 9a 61 51 c1
       12.66946 -10.110123 -21.46708 -13.0863285
000340 a7 fd a3 c0 0e 9e fc c0 59 5a 25 41 c7 14 92 41
       -5.1247134 -7.894294 10.334558 18.260145
000350 8e b9 cd 40 73 de 17 c0 24 68 8c c1 36 98 38 41
       6.4289007 -2.3729522 -17.55085 11.537161
000360 0b 2c 0d 41 93 3d 18 c1 f6 a3 1b 40 59 59 03 41
       8.823253 -9.515033 2.4318824 8.209313
000370 b2 6c c9 40 2c 22 08 c1 9f 55 29 41 01 4b d3 40
       6.2945185 -8.508343 10.583404 6.6029058
000380 03 88 d8 bf 00 76 e2 40 13 a7 93 3e ad 0b ca 40
       -1.6916507 7.0769043 0.28838405 6.3139253
000390 e7 03 0c 41 b4 89 92 c0 c4 47 62 c0 df a2 88 c0
       8.750953 -4.5793095 -3.5356302 -4.2698817
0003a0 e3 1b 57 41 9e 15 fa bf 1b 99 2c c1 84 96 ac 40
       13.444308 -1.9537847 -10.787379 5.3933735
0003b0 6f f7 a4 c0 ed 2b 78 40 39 3c 4d 3f f9 6d eb 40
       -5.1552043 3.877681 0.8017002 7.3571744
0003c0 89 43 4b 40 b8 f1 1b bf 71 6c 21 c0 58 fa 8f c0
       3.175997 -0.6091571 -2.5222437 -4.4993095
0003d0 a6 0a 03 41 01 42 3f c1 56 4e 21 c1 d8 0b 49 41
       8.1901 -11.953614 -10.081625 12.565392
0003e0 ec 0f 41 40 64 4b 96 c1 8f 88 ab 40 39 1a 5d 40
       3.0165968 -18.786812 5.3604198 3.4547255
0003f0 b0 0e 8e c1 7d 15 a2 41 46 81 93 41 87 ad 3f c1
       -17.757172 20.260492 18.438122 -11.979865

exp_avg_sq f4 [50, 50]
000000 4d 0a 35 40 20 0b c5 3f 34 3c b0 41 76 dd e2 41
       2.8287537 1.539402 22.029396 28.358135
000010 a6 ba 68 41 b1 ad 42 41 0f d6 35 42 a4 37 96 41
       14.545568 12.167405 45.45904 18.777168
000020 27 78 94 40 53 13 17 41 f5 d9 5f 41 4e 3f 05 42
       4.639667 9.442218 13.990712 33.31182
000030 68 bd 97 40 e5 4c 76 3f 0e 1c 05 42 1c eb 81 41
       4.741871 0.9621108 33.277397 16.2398
000040 ac 3a 1b 41 40 cc 1c 41 0f b0 fe 3f e4 50 08 41
       9.701824 9.799866 1.9897479 8.519749
000050 5e 9e 79 40 18 c7 1d 41 b3 81 4d 41 1a 5d 0c 41
       3.900291 9.861107 12.844165 8.77273
000060 fa f0 04 40 91 cc ff 40 bc f8 cd 3f 3a b0 b5 40
       2.077208 7.9937215 1.6091533 5.677762
000070 df d5 15 41 61 bb a5 40 9a 94 4f 40 fb d0 43 40
       9.364715 5.1791234 3.243445 3.0596302
000080 4f 1d a3 41 37 73 5e 3f fd e3 48 41 50 7f 94 40
       20.38931 0.86894554 12.555661 4.640541
000090 fb b6 1e 40 50 08 1f 40 4d 9f 39 40 b3 ae d2 40
       2.4799182 2.4848824 2.900348 6.5838256
0000a0 eb de c8 3f fb f6 3e 3f c7 cb 8e 3f e3 ac 63 40
       1.5693029 0.7459561 1.1155938 3.5574272
0000b0 aa dd d7 40 e6 40 84 41 e3 f3 39 41 f0 29 84 41
       6.7458086 16.531689 11.622043 16.520477
0000c0 89 7e 4e 40 dd 76 0c 42 83 0e 18 40 fd 3f 8d 3f
       3.226473 35.116077 2.3758857 1.1035153
0000d0 a3 e5 e6 41 ec a8 15 42 28 cb b6 41 85 4d 55 41
       28.862127 37.414963 22.849197 13.331426
0000e0 2f 25 6c 42 fd cb bd 41 03 17 17 40 20 f4 29 41
       59.036312 23.724604 2.3607795 10.622101
0000f0 c1 a4 8c 41 dd 2e 34 42 76 81 82 40 2a 59 ff 3e
       17.580446 45.045765 4.0783033 0.49872714
000100 6d 29 29 42 38 e3 8b 41 00 ab 23 41 c0 3b 22 41
       42.290455 17.485947 10.229248 10.139587
000110 52 42 9a 3f 57 e7 d2 40 04 15 cb 40 f3 a1 3c 41
       1.2051489 6.5907397 6.3463154 11.789538
000120 cd fa 4f 41 eb f8 e9 40 6b b3 29 3f 92 0d a6 40
       12.998731 7.3116355 0.66289395 5.1891565
000130 be 04 28 3f 02 73 e3 40 75 d1 47 41 b5 ae 9f 40
       0.65632236 7.107789 12.488637 4.9900765
000140 4e da 52 40 3a f8 1c 40 05 74 d4 41 38 ec 54 3f
       3.2945743 2.4526505 26.55665 0.8317294
000150 52 d6 90 41 1a c0 31 40 7b 3e 93 40 b9 2f 31 40
       18.104649 2.77735 4.601377 2.7685378
000160 48 d6 8b 3f b2 74 f0 40 be 17 17 40 48 b4 7b 3e
       1.0924768 7.514245 2.360824 0.2458049
000170 00 3b 11 3f d2 5a 8a 40 1e 7d b2 40 c7 15 86 41
       0.5673065 4.3235865 5.577773 16.760633
000180 59 9e 39 41 de 90 bd 41 09 4f ec 3f 0f 51 3c 42
       11.601159 23.695736 1.846162 47.07916
000190 00 48 12 40 cc 7a a3 3f a4 af 5f 40 65 9a 41 40
       2.2856445 1.277185 3.4950953 3.0250485
0001a0 0b a1 12 40 68 c0 a9 3f a7 d1 65 40 7b 81 c1 3f
       2.2910793 1.3261843 3.5909212 1.5117639
0001b0 d8 86 2b 40 12 da 9f 40 89 b9 90 40 0a ff 1e 40
       2.6801052 4.99537 4.5226483 2.4843163
0001c0 13 90 2c 3f af 0a 53 3e eb f4 a6 40 89 14 5d 40
       0.6740734 0.20609544 5.217397 3.4543784
0001d0 7f e6 bd 3f ab e6 83 3f a2 ca e1 3f 5f 54 bd 3f
       1.4835967 1.0304769 1.7639964 1.4791373
0001e0 16 a1 e5 3f ca dd 06 40 4d 16 d8 3f 55 94 ac 40
       1.7939785 2.107287 1.6881806 5.393107
0001f0 a3 ce 06 40 4d d5 31 40 fe 2e e4 3f b9 78 3a 40
       2.106362 2.7786438 1.7826841 2.9136183
000200 bb 82 cd 3f c2 c1 89 40 1a b2 c1 3f a3 b4 2a 3f
       1.6055521 4.304902 1.5132477 0.6668188
000210 00 73 04 40 d2 81 11 3f 25 d4 b2 3f eb bb 89 3f
       2.069519 0.56838715 1.3970991 1.0760473
000220 c4 2f e3 3e fe 3b bd 3e c3 80 34 40 6e 12 9e 3f
       0.4437238 0.36959833 2.820359 1.2349374
000230 72 70 20 3f 19 45 c2 3e d4 2c 8f 3e ea d0 29 40
       0.6267158 0.37943342 0.2796389 2.653376
000240 b3 ac 8a 3f 52 37 fb 3f ff 80 2e 40 26 c9 c1 3f
       1.0833954 1.9626257 2.7266233 1.5139511
000250 c8 6c 4c 40 a0 ab 23 40 39 e0 fd 40 a9 66 2e 41
       3.1941395 2.5573502 7.933621 10.9000635
000260 6b 05 48 41 c7 79 ff 40 3f 9c 75 41 f3 26 d6 40
       12.501323 7.9836154 15.350646 6.6922545
000270 8e 2f 3c 41 c6 f4 9e 40 73 06 a8 41 fc b5 8a 41
       11.76161 4.9673796 21.003149 17.33886
000280 21 f1 59 41 cd 6e 28 41 f2 81 43 3f 71 b2 8b 3f
       13.621369 10.527051 0.76370156 1.0913831
000290 01 1d 8f 41 1a 4d 1e 41 fd f2 3b 41 39 0e 96 3f
       17.889162 9.893824 11.746823 1.172309
0002a0 a3 1b 88 41 e9 2d 00 41 a6 44 3f 41 04 26 78 40
       17.013494 8.011209 11.95426 3.8773203
0002b0 47 a6 09 40 af ca 1c 41 98 af 92 41 66 05 36 40
       2.1507738 9.799483 18.33574 2.8440795
0002c0 80 c9 9c 40 9f 82 1f 41 d0 0f 71 41 6d b1 29 41
       4.899597 9.96939 15.06636 10.605817
0002d0 79 4c 6d 40 3b 90 2f 40 b2 7b c7 40 5a 02 a9 40
       3.7077925 2.7431781 6.2338495 5.281537
0002e0 d0 b5 0a 41 cd e7 6d 40 88 33 df 40 c6 72 ef 3f
       8.669388 3.717273 6.9750404 1.8706901
0002f0 43 f7 9a 40 0c aa 08 41 be 78 9b 40 ce 39 e7 3e
       4.8426833 8.541515 4.858489 0.4516129
000300 04 69 23 40 23 ed 86 41 99 ab 58 40 01 dc 1c 40
       2.5532846 16.86579 3.3854735 2.450928
000310 55 7d 2c 41 39 0e d3 40 64 a0 d0 41 8c c0 37 41
       10.780599 6.595486 26.078316 11.4845085
000320 da 71 84 41 5c 8b 9b 40 02 ac 05 43 cd 1e 2c 43
       16.555592 4.8607616 133.6719 172.12032
000330 c2 18 e3 42 4d 81 65 42 b1 81 87 43 55 b6 da 42
       113.548355 57.37627 271.0132 109.35612
000340 26 33 5f 40 b4 8b 49 42 cc 09 a7 42 67 3f 50 43
       3.4874969 50.38643 83.519135 208.24767
000350 d3 13 3f 41 94 da 30 3f 83 a5 41 43 66 10 97 42
       11.94234 0.69083524 193.64653 75.53203
000360 d4 40 2d 42 00 22 20 42 23 81 ba 40 56 a8 a5 41
       43.31331 40.033203 5.8282638 20.707195
000370 c4 a6 1e 42 a4 08 56 42 29 ca 52 42 8d 78 da 41
       39.662857 53.50844 52.697422 27.308863
000380 b6 ee 12 40 f4 e3 3e 41 62 c4 0b 40 9a e3 1b 42
       2.2958198 11.930653 2.1838613 38.972267
000390 5d 34 77 42 7e ff dd 41 3b 15 9d 41 ab 6d 06 41
       61.801136 27.749752 19.635366 8.401774
0003a0 e1 e5 f6 42 4b 21 96 40 c3 85 b0 42 60 90 96 40
       123.44898 4.691564 88.26125 4.705124
0003b0 59 b9 ee 41 54 cb 4e 41 6a 79 34 40 9a 4a 02 42
       29.840502 12.924641 2.8199105 32.572853
0003c0 c7 2c 91 41 65 6e 03 3e d0 cd 66 3f 94 b3 d1 41
       18.146864 0.12835081 0.90157795 26.212685
0003d0 a8 1f 7a 41 9a 50 8e 42 3e 22 39 42 50 29 e3 42
       15.632729 71.157425 46.28344 113.58069
0003e0 86 c9 08 41 1c 74 59 43 a6 70 45 40 b5 0f 74 40
       8.5492 217.45355 3.0850005 3.8134587
0003f0 a9 75 a6 42 35 6d d7 42 8c 8a 6c 42 1e 9a 29 42
       83.229805 107.713295 59.1353 42.400505

exp_avg f4 [50]
000000 b5 74 9e bf 2a 74 8d c0 d7 2f 1c 40 66 e4 12 bf
       -1.2379366 -4.42043 2.44042 -0.5737976
000010 08 87 a1 3f 94 c2 00 41 7d 6c 25 bf 0a 6f 9e c0
       1.2619333 8.047504 -0.64618665 -4.9510546
000020 36 c4 c6 be 12 1a 4c c0 6f 1d 93 c0 81 b7 6b bf
       -0.38821572 -3.1890912 -4.597343 -0.9207688
000030 e6 80 2f 40 7b 48 12 bf 19 5a 86 be 51 90 d9 bd
       2.7422423 -0.57141846 -0.26240614 -0.10623229
000040 95 5c 1e c1 31 2d 42 c0 c1 e8 04 41 2f 8d 8d c0
       -9.897603 -3.0340083 8.306825 -4.4234843
000050 08 2c 8f c0 57 1a dc bf 42 49 78 c0 68 59 f1 c0
       -4.474125 -1.7195538 -3.8794713 -7.542164
000060 90 4f 99 c0 3e 18 f3 bf 7d b5 ef 3f 77 28 73 40
       -4.790962 -1.8991773 1.8727261 3.7993448
000070 44 82 a7 c0 74 fd 60 40 e2 ef 13 40 f0 32 72 40
       -5.2346516 3.5154696 2.3115163 3.784359
000080 35 50 31 40 9f 24 ba 40 c9 07 ca c0 11 bb 8f c0
       2.7705204 5.8169703 -6.3134503 -4.4915853
000090 92 75 aa c0 94 cc c8 40 4d fb b7 40 24 22 9f 3f
       -5.326852 6.274973 5.7494264 1.2432294
0000a0 b9 10 09 bf 5a 6f d7 40 23 42 5f 40 4e a3 ad bf
       -0.5354114 6.7323427 3.4884117 -1.3565462
0000b0 5f 79 0c 41 4c 54 01 c0 db d1 08 c0 bc 0e 10 be
       8.779632 -2.02077 -2.1378086 -0.1406812
0000c0 33 65 1c c0 11 74 97 3d
       -2.4436767 0.07395185

exp_avg_sq f4 [50]
000000 c0 4f 64 43 a8 7e b4 41 90 16 9c 42 9c 78 03 45
       228.31152 22.561844 78.04407 2103.538
000010 0d ad c2 41 d1 39 02 43 9a 9a 9d 43 7e 68 92 43
       24.334497 130.22585 315.20782 292.81635
000020 6c 1a 8b 41 34 a0 ca 42 ae c2 a6 41 3a 6c 7f 43
       17.387901 101.3129 20.845058 255.42276
000030 85 4c 2f 43 c4 0a 5f 43 87 5b e6 44 40 ee 6b 44
       175.2989 223.04205 1842.8602 943.72266
000040 a8 2d 04 44 57 60 7e 41 ea 2f 62 41 8c ed 94 43
       528.7134 15.89852 14.136698 297.85583
000050 cb 6b 57 42 b4 27 89 43 23 e9 78 41 4d 6c ad 42
       53.855267 274.31018 15.556918 86.711525
000060 0c c0 86 42 67 b5 14 42 fc e4 3b 42 a0 57 38 42
       67.37509 37.17715 46.973618 46.08557
000070 b0 36 32 42 a1 c1 d9 42 d9 4f 73 42 87 09 d4 41
       44.553406 108.87818 60.827976 26.504652
000080 17 50 eb 43 a1 4e 44 43 c6 c3 ae 42 3d 00 a9 42
       470.6257 196.30714 87.38237 84.500465
000090 f1 c6 ea 42 15 63 d8 41 21 f1 85 44 3d d2 1c 43
       117.38856 27.04838 1071.5353 156.82124
0000a0 41 64 38 42 33 14 a4 42 db 32 02 43 d7 3b 21 44
       46.097904 82.03945 130.19865 644.935
0000b0 7a 9e de 40 6e 2c 50 42 ab 49 03 44 ae a4 73 41
       6.9568453 52.04339 525.15106 15.227705
0000c0 1a 63 60 44 41 26 86 42
       897.54846 67.074715
