weights/checkpoint/example0003_warm_adam.pth (torch, 73855 bytes, 25 tensors)

a f4 [5]
000000 cd cc 4c 3e cd cc 4c 3e cd cc 4c 3e cd cc 4c 3e
       0.2 0.2 0.2 0.2
000010 cd cc 4c 3e
       0.2

input_layer.weight f4 [50, 2]
000000 17 d7 cd bf 4b c5 12 3f 43 e8 02 bf 8b 57 65 bf
       -1.6081265 0.57332295 -0.51135653 -0.89586705
000010 3e 42 91 bf a8 d9 6c be 7c b8 a5 bf 5b 96 86 3f
       -1.134834 -0.23129904 -1.2946925 1.0514635
000020 c4 f2 34 bf 7d 94 09 bf 9b 9d 54 3e 67 d4 78 bf
       -0.7068293 -0.537422 0.20763247 -0.971991
000030 a9 18 3d 3f 19 a5 6b be 9d 5a 87 3e bd 3a 88 3d
       0.73865753 -0.23012199 0.2643632 0.066518284
000040 0f f8 49 bf 7c 9f d0 bf 32 0f 11 40 e5 44 dd 3e
       -0.7889413 -1.6298671 2.2665524 0.43216625
000050 f4 c3 05 40 a5 fc a7 bd a4 20 71 be 15 af 60 be
       2.090085 -0.08202485 -0.23547608 -0.21941788
000060 a4 71 c1 3e 0c 51 63 be b5 23 77 be 4b ed 5d 3e
       0.37782013 -0.22198886 -0.24134715 0.21672551
000070 36 66 cc bf 71 9a 88 be 09 9f 9f bf 4b db 97 be
       -1.5968692 -0.2668033 -1.2470409 -0.29659495
000080 cf 7e 85 be cf 0d b6 3f bf 10 bb be 61 8a 01 3e
       -0.2607331 1.4222964 -0.36536214 0.12650444
000090 8f fe 0e 3f 71 4f b4 3f fa 11 5e bf 9e 8b d7 3f
       0.55857176 1.4086744 -0.8674618 1.6839483
0000a0 b6 80 74 bf f4 ba 9c be 37 3e 95 3f 0d 2a cc be
       -0.955089 -0.30611384 1.1659611 -0.39875832
0000b0 bb f9 65 bf 01 a0 54 3f 3e 01 40 40 13 62 7c be
       -0.89834183 0.83056647 3.0000758 -0.24646787
0000c0 52 f0 3e 3f c7 e8 9f 3f 3c 1e 03 c0 84 65 ae 3f
       0.7458545 1.2492913 -2.0487204 1.362473
0000d0 57 84 92 bf d0 85 bb 3d 1a 39 d6 3f e9 dc 80 be
       -1.1446637 0.09156382 1.6736176 -0.2516854
0000e0 6f bd 59 be dc bc 9b bf 90 0b 27 c0 3d 34 e2 3e
       -0.2126367 -1.216701 -2.6100807 0.4418048
0000f0 e5 ed c4 3f 15 fa 94 bf e6 2d 27 3f 94 35 6d bf
       1.53851 -1.1638819 0.6530441 -0.9265988
000100 12 7e 50 3f 90 69 f8 be ce 15 a0 3e 58 2f 06 3f
       0.8144237 -0.48518038 0.31266636 0.5241599
000110 60 c9 c1 3e e2 a3 c7 3e 9d 93 57 3f 36 66 87 bf
       0.3784895 0.3899222 0.84209615 -1.0578067
000120 75 93 82 be 4c 56 c4 be 7e 12 c9 be ae 17 24 3f
       -0.25503126 -0.3834709 -0.3927192 0.6409863
000130 d7 18 f2 bf 1d b3 22 3f ce e3 89 3e b1 91 4d 3f
       -1.891383 0.63554555 0.26931614 0.8030043
000140 58 05 31 3f a5 6d ac be 58 ea 12 3f 5d da fe be
       0.6914878 -0.33677402 0.5738883 -0.49775973
000150 4d e4 c0 bd 13 ce 94 be 02 66 96 3f 04 fb 4d 3f
       -0.09418545 -0.29063472 1.174988 0.80461144
000160 a7 f4 9a be 80 42 ae be ec 85 77 3f e8 1f 61 bf
       -0.3026478 -0.3403511 0.96688724 -0.8793931
000170 20 b7 6d bf a7 b3 18 bf 70 12 23 3f 58 55 28 bf
       -0.9285755 -0.5964913 0.6370001 -0.65755224
000180 0f 31 95 3f 5e 34 0f 40 ce 86 14 bd af 02 fb be
       1.1655596 2.2375712 -0.036261372 -0.49025485

input_layer.bias f4 [50]
000000 d3 23 10 bd a0 01 f3 bc 58 70 05 3d f6 a1 04 3d
       -0.035190415 -0.02966386 0.032577842 0.03238102
000010 90 db 09 3d d8 72 0a bd fb 89 07 bd 36 6b 18 3d
       0.033656657 -0.03380093 -0.033090573 0.03721162
000020 ed 99 07 3d 40 27 11 3d 73 80 fd 3c 83 95 0c 3d
       0.03310578 0.035437822 0.030945038 0.034322273
000030 2c c5 07 3d 20 a6 03 3d a9 ee 07 bd 76 86 00 3d
       0.033147022 0.03214085 -0.03318659 0.031378232
000040 b9 bc 0d bd 41 43 f5 bc 7b da 04 bd 6f 75 03 bd
       -0.034603808 -0.029939296 -0.03243492 -0.032094415
000050 f2 b9 09 3d a7 34 09 bd 24 77 9d bc ad d2 09 bd
       0.033624597 -0.03349748 -0.01922185 -0.03364818
000060 54 0c 06 3d 5c 79 0b bd f4 59 02 3d 4d 8c 06 3d
       0.0327266 -0.034051284 0.031824067 0.032848645
000070 e1 7e dd bc e2 f4 0f 3d 64 df fc bc ed ae f1 3c
       -0.02703804 0.035145648 -0.03086824 0.029502356
000080 6e 92 19 3d f3 a5 0e 3d 6f 71 01 bd 86 ae 08 3d
       0.03749316 0.03482623 -0.03160232 0.033369564
000090 96 14 05 bd 7c b9 03 3d 7f ff eb 3c 67 ba b0 bc
       -0.032490335 0.032159314 0.028808353 -0.021573259
0000a0 79 ae 09 3d af a6 0e bd 86 3e 08 bd de c5 08 3d
       0.033613656 -0.03482693 -0.033262752 0.033391826
0000b0 39 a4 05 bd 09 91 b4 3c df 27 10 bd 7b 43 05 bd
       -0.032627318 0.022041814 -0.035194274 -0.032535058
0000c0 74 3f 02 bd 77 c0 9d 3c
       -0.031798795 0.019256813

hidden_layers.0.weight f4 [50, 50]
000000 d7 4d 08 3e 43 55 ac 3e 79 29 8c bd 88 07 53 3e
       0.13310944 0.336588 -0.06843848 0.20608342
000010 3b 77 aa bd b0 6b 94 3e 50 41 47 3e f8 6c ad be
       -0.08323523 0.2898841 0.19458508 -0.338722
000020 28 53 b7 3d 65 95 cd 3e c0 88 09 3e 6f 8b a3 be
       0.08951408 0.4015304 0.13431072 -0.31942317
000030 89 76 54 3d db f8 0b 3e cf 42 0d 3e 58 4d d9 be
       0.051870856 0.1366915 0.13795017 -0.4244182
000040 17 dd 29 3e d9 09 9b 3c 6c 6a 52 bc bf 89 08 3e
       0.16588245 0.018925594 -0.012842756 0.13333796
000050 b0 61 18 3e 11 b0 27 be 1d 81 91 bd a4 bd 47 3e
       0.14881015 -0.16375758 -0.071047045 0.19505936
000060 01 5a 0a be 4a ab 2c be b9 62 b3 be ac 9d 05 3d
       -0.13510896 -0.16862217 -0.35036257 0.03262107
000070 30 dd 95 bd dd 6d c2 3d 5f a5 42 bd 76 8c 64 3e
       -0.07317579 0.09493611 -0.04752099 0.22319207
000080 5c eb d3 3d d8 0e 8b be bc c1 c7 bd cb be 65 3e
       0.103476256 -0.27159762 -0.09753749 0.22436063
000090 46 1a 83 be ac 82 b9 3e 73 07 26 3e 74 42 b8 3e
       -0.25605983 0.36232507 0.16213779 0.359882
0000a0 a3 c4 2c bd 86 53 91 be 4f 92 7a bd d1 87 7d be
       -0.042179715 -0.28384036 -0.061174687 -0.24758841
0000b0 13 ad 68 be 76 91 f4 3d 4d 7f 95 3c 90 b6 60 bd
       -0.22722273 0.11941807 0.018249178 -0.054861605
0000c0 ae 3f 54 be a7 72 3b be 67 a9 80 be 79 c6 60 3d
       -0.20727417 -0.18305455 -0.25129244 0.05487678
0000d0 b9 f2 a7 3d 97 f2 b2 3e b0 53 1d 3e 9e 08 f9 3c
       0.082005925 0.34950706 0.15363955 0.030399617
0000e0 77 76 be be 5c be b9 3e f1 c4 cf be fb 9e b3 3d
       -0.37199757 0.36278045 -0.40579942 0.087705575
0000f0 39 9c bf be a0 05 e9 3d 93 5d 78 3e c1 6b 35 be
       -0.37423876 0.11378026 0.24254446 -0.17716886
000100 64 9e 3a bd 74 5b 3e 3d 24 37 35 3d 4a 4e 2a 3e
       -0.04556121 0.046473935 0.04424204 0.16631427
000110 64 6e 7d 3e 70 0d 0a 3d 03 be 59 3d b3 f3 83 3e
       0.24749142 0.03370422 0.053159725 0.25771865
000120 19 2d 7e be 98 7c 87 be 74 bc 08 3e 01 9f af bd
       -0.24821891 -0.26462245 0.13353139 -0.085752495
000130 83 1a 3f bd 88 3d ab 3e 25 4a 34 be 83 e0 bc 3e
       -0.046656143 0.33445382 -0.17606409 0.3689004
000140 cd c4 f1 3e 2d bb fa 3d 53 07 e0 be fe 12 ab be
       0.4722046 0.12242732 -0.43755588 -0.33412927
000150 66 c3 c4 3d be c2 e1 bd aa 95 2f 3e 7d 2b 98 bd
       0.09607582 -0.11023472 0.17146936 -0.0743017
000160 70 5e dc 3d fc 27 49 3e 41 d2 0a be 9e 19 cb bd
       0.107602 0.19644159 -0.13556768 -0.099169955
000170 ed f0 01 3e bb 62 90 3e 6b d2 43 be a0 7d 0f be
       0.12689562 0.28200325 -0.19123237 -0.14012766
000180 e0 1e 17 3e 9b fe 3f 3d d7 a2 b8 be 69 1a 7e 3e
       0.14757872 0.04687367 -0.36061737 0.24814762
000190 96 c4 de bc 8b 30 dd 3d 74 cb 55 bc aa de a4 be
       -0.027193349 0.108002745 -0.013048995 -0.3220113
0001a0 bc 0b 38 bd 42 15 1d be 19 8c d5 bb 60 d7 19 be
       -0.044933066 -0.1534014 -0.006516945 -0.15023565
0001b0 94 49 23 3e 69 83 71 3e 6a 5c 98 be 6e 32 9b 3e
       0.15946037 0.23585285 -0.29758006 0.30311912
0001c0 a8 d6 5d be f9 15 07 bf 70 f3 38 3e 51 aa 21 bc
       -0.21663916 -0.527679 0.18061614 -0.009867267
0001d0 75 e4 dd 3d 3d 29 b5 3e fb 52 06 bf 17 60 98 3e
       0.1083459 0.35383025 -0.5247037 0.2976081
0001e0 66 a1 af 3e 28 de af 3e 26 a3 a8 3e 3a 22 98 bd
       0.34302825 0.3434918 0.32936972 -0.07428403
0001f0 fd 98 86 3e 7b d1 54 bd 5f c4 04 bb 14 41 49 3c
       0.26288596 -0.05195759 -0.0020258648 0.012283582
000200 a6 9a 0d 3e de 96 39 3e c6 1c 18 3f 14 a4 0d be
       0.13828525 0.18123958 0.59418905 -0.13832122
000210 d9 e5 ce 3d c0 ca b9 bd da 92 e4 bd 89 f9 09 be
       0.10102434 -0.090718746 -0.11160822 -0.13474096
000220 c0 6d bb be e5 b2 c4 3c 35 89 f5 3d 35 e9 4d be
       -0.3660717 0.024011085 0.11989061 -0.20108493
000230 1e 19 52 3a 39 e0 09 3e b1 12 21 3d 23 1f fa 3d
       0.0008014607 0.1346444 0.039324466 0.1221297
000240 c8 68 8c be ea eb a5 3d 23 d0 7c be 9a c3 e3 bd
       -0.27423692 0.08101638 -0.24688773 -0.111212924
000250 22 cb 6b be 5e ba 05 3e e2 30 58 3c 87 ba 33 bd
       -0.23026708 0.13059375 0.013195248 -0.04387906
000260 e4 d1 82 be eb 89 ee be e0 cf 8d be f0 e6 10 3e
       -0.2555076 -0.46589598 -0.2769766 0.14150596
000270 2b 0e 4b 3e 87 c6 8a bc e0 e7 cc be f3 b1 34 3d
       0.19829623 -0.016940368 -0.40020657 0.044115018
000280 ca d7 2e 3e 55 cd 7c 3e 9e 27 6f 3e cf 04 0f be
       0.17074504 0.24687703 0.23354957 -0.13966678
000290 96 5f a1 bd e0 77 57 3e 61 c0 f4 bb c3 98 17 3e
       -0.0787956 0.21041822 -0.0074692224 0.14804368
0002a0 52 48 de bd 99 8b 44 3c ac aa 0c be c8 fc 33 3d
       -0.10853638 0.011996173 -0.13736981 0.043942243
0002b0 d8 08 41 bd 76 ca 82 be 21 b2 b4 be 69 e8 44 bc
       -0.047127575 -0.2554509 -0.35292152 -0.0120183015
0002c0 87 de 4e 3d c2 ca 87 be e3 78 a6 3d aa 2e 69 3d
       0.050505187 -0.2652188 0.08128526 0.056929268
0002d0 9b b5 b0 3e 82 51 a9 3e 91 4f 2b be 69 44 a6 3e
       0.34513554 0.33069998 -0.16729571 0.32474068
0002e0 88 cb 80 be 07 ca 0a 3c 81 c7 a8 3d 4b c2 a7 bc
       -0.25155282 0.008471019 0.08241177 -0.020478388
0002f0 62 ad 47 3e 55 74 9c bd 3c 36 59 3d dd 18 08 be
       0.19499734 -0.07639376 0.053030238 -0.13290735
000300 7b b8 e2 3d 91 5c c4 bd d5 08 7a bd 99 f9 e4 bd
       0.11070343 -0.09587968 -0.06104358 -0.111804195
000310 99 fc a8 3d ee 81 b8 3e 8e 24 0f 3e bd c8 0c 3d
       0.08251304 0.36036628 0.13978788 0.034371126
000320 8b a4 69 3e 46 bc 95 bd 10 36 d9 be 85 07 53 be
       0.22816674 -0.07311301 -0.4242406 -0.20608337
000330 df 8c 9d bd 18 f0 01 3e 67 9c 68 be 47 2d 87 3e
       -0.07692885 0.12689245 -0.22715913 0.2640173
000340 2e 7f 24 bd 51 6e f9 3d c4 15 9e 3e a0 31 b7 3d
       -0.04016035 0.12179244 0.3087598 0.08945012
000350 9f 3c f4 bd ab 96 96 3e 8e 14 25 be c7 28 62 3e
       -0.11925625 0.29411826 -0.16121122 0.22085868
000360 db 20 20 be 6a 66 b6 3d 95 2f c9 3d 9e b2 4f be
       -0.15637533 0.08906253 0.09823529 -0.20282981
000370 ef 41 7f bd 7d f7 c4 bc 43 ae bd bd 2b 51 ea 3d
       -0.06231874 -0.024043793 -0.092617534 0.11441263
000380 a8 19 4e bd cd dd 29 be 9c 31 97 be 76 b8 20 be
       -0.050317436 -0.16588517 -0.29530036 -0.15695366
000390 77 86 89 bd d8 bc 2c 3c e3 5b 2a 3d 29 cb 96 bd
       -0.067151 0.010543071 0.041591536 -0.073629685
0003a0 05 a3 ad 3d 01 fa 3a 3e 63 0d a4 3d 52 19 fa bc
       0.08478359 0.18259431 0.08010366 -0.030529652
0003b0 3d fe 95 3d 49 97 23 3e ee 73 96 be 6b 37 aa be
       0.07323883 0.1597568 -0.29385322 -0.33245406
0003c0 24 d3 72 be 97 31 2d 3d d1 f2 36 be 84 14 04 3e
       -0.23713356 0.04228362 -0.17866065 0.12898451
0003d0 a8 b2 09 be 55 7f 3a be ca 9a 25 3c 84 48 ee 3d
       -0.13447058 -0.18212636 0.010107705 0.11634925
0003e0 d2 df 8f bd a2 40 2d 3e db d8 d9 3e 99 83 6e be
       -0.07025112 0.16919187 0.4254826 -0.23292388
0003f0 dd 41 9a 3d a3 69 49 be f8 27 b0 be da 7a 48 be
       0.07532094 -0.19669203 -0.34405494 -0.19578114

hidden_layers.0.bias f4 [50]
000000 56 27 0a bd 9a a4 0b 3d 5f 24 f9 bc 5f 98 04 bd
       -0.03372892 0.034092523 -0.03041285 -0.032371875
000010 ec 65 0c 3d 5d c9 0a bd f8 26 02 3d d4 99 09 bd
       0.034276888 -0.03388344 0.031775445 -0.033593968
000020 fe 5d f8 bc 9b 48 05 3d f5 25 e5 bc 50 2c 05 bd
       -0.030318256 0.032539945 -0.0279722 -0.032512963
000030 95 f0 05 3d a2 33 0e 3d 39 d6 09 3d a2 b0 07 bd
       0.03270014 0.03471721 0.033651564 -0.033127435
000040 eb e8 09 bd c3 ab 06 bd 54 63 3c 3a 46 f7 07 bd
       -0.033669394 -0.03287865 0.0007186432 -0.033194803
000050 e3 8f 13 bd 26 4d 01 bd 0b d9 d4 bb 47 7d ff 3c
       -0.036025893 -0.031567715 -0.0064956 0.031187667
000060 8b 5a 0d 3d 5a ce 09 bd 0a 3a 03 bd ba d5 0a 3d
       0.034510177 -0.033644058 -0.032037772 0.03389523
000070 ac cb ff 3c 73 9e 08 3d 5b bd 04 3d 93 ad d8 3c
       0.031225048 0.033354234 0.032407146 0.026449954
000080 d4 42 06 bd f2 5d 0a 3d a3 94 08 bd 80 ce fc bc
       -0.032778576 0.033781 -0.033344876 -0.030860186
000090 77 5b 02 bd bd 81 0d bd 78 37 08 3d 55 69 08 3d
       -0.03182551 -0.034547556 0.033256024 0.033303577
0000a0 f2 9f 0f bd 9f ca f5 3c cf a7 08 3d e5 cb 06 3d
       -0.035064645 0.030003844 0.03336316 0.032909293
0000b0 74 6a 33 3c a1 55 05 3d 4f f3 04 3d f4 3e dd bc
       0.010950673 0.032552365 0.0324586 -0.027007557
0000c0 7d b7 08 bd 1d 55 10 bd
       -0.033378113 -0.03523742

hidden_layers.1.weight f4 [50, 50]
000000 6e b7 f6 bc 15 e8 b1 3e 65 1d 59 be f1 5a 8e 3e
       -0.030116763 0.34747377 -0.2120262 0.27803758
000010 45 ce 92 3d f5 a4 9d be 48 29 c4 be c7 1d 9f 3d
       0.07168249 -0.30789915 -0.38312745 0.077693515
000020 89 4e 42 be 37 95 5f 3e b9 61 4e bd a3 f1 0f 3f
       -0.18975271 0.21834265 -0.050386164 0.56228083
000030 c9 0f 59 3e 42 9f 1d be c7 46 bb 3d 3b 62 01 3e
       0.21197428 -0.15392783 0.09144359 0.12635128
000040 e6 43 15 3e af 1f 16 bd dd d8 f2 be 23 8f 02 3e
       0.14576682 -0.03665131 -0.4743108 0.12749915
000050 e5 0a 7f 3e d2 9f b9 be 7d c5 b8 3e 79 24 95 be
       0.249065 -0.36254746 0.36088172 -0.2912939
000060 a9 b4 35 be 9a da ff bd 03 10 51 3e 29 9c 51 3e
       -0.17744698 -0.12492867 0.20416264 0.20469727
000070 5e 46 eb 3d c6 c5 a9 bd 70 59 41 3d 43 cf 6e be
       0.11488031 -0.082896754 0.047204435 -0.23321252
000080 db e5 cd be a6 99 48 bd 2b 97 91 3e 51 cc cb be
       -0.40214428 -0.048974656 0.28435645 -0.3980432
000090 fa db 4d 3d 22 86 81 bd 3f cd 08 3e 46 a8 94 bb
       0.050258614 -0.06324412 0.13359545 -0.0045366613
0000a0 0e 77 1a 3e 08 a4 3e bd 43 00 8d be 8f e9 03 bd
       0.15084478 -0.04654315 -0.27539262 -0.03220516
0000b0 c7 78 25 be 96 24 d9 3d fe 29 cc 3d 56 eb 40 be
       -0.16159354 0.10602681 0.09968947 -0.18839774
0000c0 98 68 d6 bd cf 39 b2 3c 44 fc 32 3d df 15 ad 3d
       -0.104691684 0.02175608 0.04369761 0.08451437
0000d0 0b e7 b5 be 87 0b be be 30 2e ff 3e af f7 96 bd
       -0.35527834 -0.3711817 0.49839926 -0.07371461
0000e0 00 86 7f 3e b5 7b 03 be 08 fc 13 be c5 cc eb bd
       0.2495346 -0.12840159 -0.14451611 -0.11513666
0000f0 af ff 6b be c5 4c cf bd e5 02 92 3e 6b 1d 85 3e
       -0.23046754 -0.101220645 0.28517833 0.25999007
000100 5f ef 0c 3d 7b 6b 08 be ae 88 c3 3c 8b 1d 18 3d
       0.03440797 -0.1332225 0.023868885 0.03713755
000110 b3 7c c3 3e bb 5b 76 3d 55 70 50 3d 02 0b 8d be
       0.38181075 0.060146075 0.05088838 -0.2754746
000120 7d eb 43 3d 69 cb 74 3e a3 9e f1 bd be 67 a6 be
       0.047832 0.2390572 -0.11797836 -0.32501024
000130 de a3 c0 bd 86 aa 2f 3e aa d3 d0 3e 42 29 13 be
       -0.09406255 0.17154893 0.40786487 -0.14371207
000140 ce f0 94 3e e3 7c 88 3d 6e 4d 99 be f7 d7 4e be
       0.2908997 0.06664445 -0.29941887 -0.20199572
000150 dc 28 f5 be 4c cd 7a 3e ff cb 89 be b9 14 15 be
       -0.47882736 0.24492377 -0.2691345 -0.14558686
000160 80 3b 33 be 1b be 9d 3e 13 89 1e 3e cf dc 93 bd
       -0.17503166 0.308091 0.15481977 -0.0721985
000170 00 4a 32 3e cf 27 a4 be 2f d8 7f 3e b3 04 66 3e
       0.17411041 -0.32061622 0.24984811 0.2246273
000180 7d b1 62 be 52 49 e4 3d 1e c8 c2 3e e3 85 1f bd
       -0.22138019 0.11146797 0.38043302 -0.038946044
000190 bf 03 6d be b8 03 f2 bc 49 0a 35 3e f2 67 3e bd
       -0.2314596 -0.029542789 0.17679705 -0.04648585
0001a0 ae 4a 7a bd 03 af a8 bd b2 0a 43 be 1b 2d 28 be
       -0.061106376 -0.08236506 -0.19047049 -0.16423456
0001b0 6e a8 ab 3e 3c 90 a1 bd 24 cf 33 be 3d 7a 1b 3c
       0.3352694 -0.07888839 -0.17559487 0.009489593
0001c0 ba e0 a2 be c5 bd ea 3e 6d ad 12 be f5 9b 63 be
       -0.31812078 0.45847908 -0.14323969 -0.22227462
0001d0 cb 48 3a 3d 54 58 e2 bd df 3a 7f bd 74 63 c3 bd
       0.045479577 -0.110520035 -0.062312003 -0.095404536
0001e0 20 85 86 be c6 de 6f 3e d6 bd 96 bd 5d fc 09 3f
       -0.2627344 0.23424825 -0.07360427 0.539007
0001f0 e0 f8 45 be 3f de 29 3d 09 6a e1 bd 84 cc 1a be
       -0.1933322 0.041471716 -0.11006553 -0.15117079
000200 24 c3 4c 3d 1f b2 9e 3e 58 9f 03 bd 0e 01 4d 3e
       0.049990788 0.3099527 -0.032134384 0.20019934
000210 50 9b 63 be ce 3b ff 3d e2 e6 93 bd 46 cd c3 bd
       -0.22227216 0.12462579 -0.07221772 -0.09560637
000220 69 88 cf bd 4f fe 77 be 6e ae 73 be 1e c7 87 3e
       -0.1013344 -0.24218105 -0.23797008 0.26519102
000230 4e c3 e2 3b 9e e1 8c 3b 33 76 7c bd 2d 78 2b be
       0.006920255 0.0042993566 -0.06163616 -0.16745062
000240 49 07 34 3c 39 e0 5f be 07 8d bc 3d 10 56 f2 3d
       0.010988065 -0.21862878 0.09206586 0.11832821
000250 fc fa e2 3c 24 bb 8a 3d 60 4c 53 be 9e 33 27 3e
       0.02770757 0.067739755 -0.20634604 0.16328284
000260 34 de ac be 75 9a 48 3e b3 26 36 3d 3e 15 c2 3c
       -0.33763278 0.1959017 0.0444705 0.02369177
000270 ac 66 93 bd ed fd 7d be fa 7c 3c 3e 96 d7 44 3e
       -0.071973175 -0.24803896 0.1840705 0.19222865
000280 6c 47 a4 3e 91 d8 a0 bd e0 9c 8f 3e 51 67 e9 bd
       0.3208574 -0.07853807 0.28049374 -0.11396659
000290 b1 85 1f 3d 53 08 2d 3c 74 7a 89 bc 45 88 51 3d
       0.038945857 0.010561067 -0.016782023 0.051155347
0002a0 d9 06 63 be e1 a9 96 bd 61 1f 22 3e 53 e0 3b bc
       -0.22170581 -0.073566206 0.15832283 -0.011467057
0002b0 a6 8a 0c be ae 98 50 3c 2e 43 bc bd b1 f7 7a 3d
       -0.13724765 0.012731714 -0.09192501 0.061271373
0002c0 49 83 18 bd d1 17 bf 3d 0f 55 36 be c8 29 95 3d
       -0.03723458 0.093307145 -0.17805885 0.0728336
0002d0 2d ca a1 be df b6 95 3e ed e2 0a 3e 10 34 f5 3c
       -0.3159956 0.29241082 0.13563128 0.029932052
0002e0 0e 3b 21 3d 67 68 94 bd 48 89 e6 3d 8c 8a b9 3d
       0.03936296 -0.07246476 0.11256653 0.09059629
0002f0 5e f6 53 bc 64 d6 3c 3e 9f 09 a4 3d 17 95 23 3e
       -0.0129371565 0.18441159 0.080096476 0.15974842
000300 72 19 39 be 50 02 14 bd e2 08 35 bd 5f c8 04 3f
       -0.18076113 -0.036135018 -0.044197924 0.5186824
000310 41 72 3d be 21 35 aa bc 75 e1 f9 3c 1d 2b 08 be
       -0.18500616 -0.020777287 0.030503014 -0.13297696
000320 19 e8 9f bc 4d 82 05 3e 73 99 d6 bd f6 b1 a2 3d
       -0.019519852 0.13037987 -0.10478487 0.079440996
000330 80 75 10 be 1e 00 21 bd 5d 77 6b 3e a4 e9 17 3e
       -0.14107323 -0.039306752 0.22994752 0.1483522
000340 d8 14 99 3e de 3c fd bd 7c 8b 06 3e 34 0f 9a 3e
       0.29898715 -0.12365125 0.13139147 0.30089724
000350 92 71 3c 3d 63 89 8b bd be b2 8d be db 3f 1a bc
       0.046006747 -0.06813314 -0.27675432 -0.009414638
000360 67 49 a7 3e c4 e2 42 be fd eb 4f be 38 ff 39 be
       0.3267319 -0.19031817 -0.20304866 -0.18163764
000370 ee 3a ed 3c 69 3c 5e be 4b a8 b4 bd a6 de 32 bd
       0.028958764 -0.21702732 -0.08821162 -0.043669365
000380 1d 2d 16 be 7f 85 7b 3d 5d b2 8f 3e 3b bb 41 3e
       -0.14665647 0.06140661 0.28065768 0.18919079
000390 a1 06 26 3e 62 37 89 be 39 99 d7 3d 7c 49 7e be
       0.16213466 -0.26800066 0.10527272 -0.2483272
0003a0 a0 fd 01 be d9 e0 ba bd 0f dd 3b 3b 3f 73 64 3e
       -0.12694407 -0.091249175 0.0028665697 0.22309588
0003b0 29 e7 3a bd 5d 7d 5b 3e 5f 3f 7b 3e 72 81 e1 3d
       -0.045630608 0.21434541 0.24535893 0.11011018
0003c0 ef ab b7 3c 7d 12 44 3d 00 0d 46 3e da 8e 62 3d
       0.022420852 0.047869194 0.19340897 0.055312015
0003d0 94 60 83 be a1 d2 57 3e 1e 8e 9b 3c 41 fa 98 3e
       -0.2565962 0.21076442 0.018988665 0.2987843
0003e0 49 fc 05 bd 2c 21 be bd 4c 3c 54 bd ab ae 3d be
       -0.0327113 -0.09283671 -0.051815316 -0.18523662
0003f0 41 8d dc 3d ed e1 1a be 6c 34 e7 3d 5e 89 e2 3d
       0.107691295 -0.15125246 0.112892956 0.11061357

hidden_layers.1.bias f4 [50]
000000 4c 9e 0b bd cd 35 03 3d 48 3f ce 3c 89 59 fd bc
       -0.03408651 0.03203373 0.02517666 -0.030926483
000010 49 c2 04 3d 7b 65 01 bd e6 6a fd bc da 84 fb 3c
       0.032411847 -0.03159092 -0.030934762 0.030702997
000020 ce 50 05 bd 88 1b 05 3d 2d 60 03 bd de de 0a 3d
       -0.032547764 0.03249696 -0.032074142 0.03390395
000030 b3 a2 07 bd 06 e7 b7 3c fd 18 06 3d 9c 48 09 3d
       -0.033114146 0.022449028 0.032738674 0.03351651
000040 a4 4b 0a 3d 24 f2 05 3d 71 9d 09 3d 22 26 f6 bc
       0.033763543 0.032701626 0.033597413 -0.03004748
000050 f0 00 fa bc 8c 58 07 bd 07 1f fa bc 94 63 05 bd
       -0.030518025 -0.03304343 -0.030532373 -0.03256567
000060 52 21 06 bd 6c 3a 03 3d ae 13 05 bd e4 8a 03 bd
       -0.03274662 0.032038137 -0.03248947 -0.03211488
000070 b0 2f 09 bd eb 9d 04 bd dc d3 00 3d c2 39 06 bd
       -0.033492744 -0.032377165 0.031452045 -0.032769926
000080 4b 2d 06 3d e5 6d 03 3d 61 da 01 3d 51 fe 01 bd
       0.03275804 0.032087225 0.031702403 -0.031736676
000090 f9 e8 06 3d 90 a9 02 bd 78 b7 03 3d 21 74 02 bd
       0.032937024 -0.03189999 0.03215739 -0.03184903
0000a0 51 93 03 3d c6 2c fa bc ad e5 e8 bc a4 51 05 3d
       0.032122914 -0.030538928 -0.02842983 0.03254856
0000b0 39 b6 06 3d 6e 23 01 bd 1f cc 05 bd 54 00 06 bd
       0.032888625 -0.03152793 -0.03266537 -0.032715157
0000c0 a5 66 05 3d 7a a0 f5 3c
       0.032568593 0.029983748

output_layer.weight f4 [2, 50]
000000 7d 33 01 3e 17 6a 8a be 34 0d e9 bc dc 35 b4 3d
       0.12617297 -0.27034065 -0.028448679 0.08799335
000010 ba ee 81 be 24 dc 1f 3e d4 b4 60 3e 21 05 ee bd
       -0.25377446 0.1561132 0.2194398 -0.11622072
000020 6e d1 c3 3d 8b 3d d5 bd 61 b3 90 3e a9 40 03 be
       0.0956143 -0.10412129 0.28261855 -0.12817635
000030 90 b1 08 3f 24 93 e9 bb 38 fe 0d be b2 d7 58 bd
       0.5339594 -0.007128136 -0.13866508 -0.052940078
000040 f6 be 08 be 54 d3 10 be eb 1f 39 be 02 f3 e4 3d
       -0.13354096 -0.14143115 -0.18078582 0.111791626
000050 3a 47 57 3c 8c e6 16 3e 43 b5 58 3d bc 13 df 3d
       0.01313954 0.14736384 0.05290724 0.10892436
000060 1b 34 a3 3e d1 1e 97 bd c3 aa c3 3d f9 c2 1d 3e
       0.3187569 -0.07378925 0.095540546 0.15406407
000070 16 e0 3d 3d 32 64 a8 3e d7 bd 65 be 43 7a 9b 3e
       0.046356283 0.32888943 -0.224357 0.30366716
000080 3d a5 8b be dc fd c9 be a8 03 50 be ef de 78 3e
       -0.27274504 -0.39451492 -0.20313895 0.24303792
000090 e1 44 71 bd a6 85 7e 3e b4 6d 6e be 41 0b 5d 3e
       -0.05890358 0.2485567 -0.23284036 0.21586324
0000a0 35 25 58 be 9e 88 37 3e 27 04 34 3c 2f a6 8a bd
       -0.21107943 0.17923209 0.010987318 -0.06769978
0000b0 db e9 38 be fc 8f 41 3e 32 db 16 3e cd 00 2e 3e
       -0.18057959 0.18902582 0.14732054 0.16992493
0000c0 74 60 2e be 78 e1 30 bd ff 98 a6 3e e9 3a 98 3e
       -0.17028981 -0.043183774 0.32538602 0.29732445
0000d0 00 db 8f 3e 9f d3 04 be 91 c2 42 be f9 09 47 be
       0.2809677 -0.12971352 -0.19019534 -0.19437398
0000e0 0c a0 fa be 69 c4 81 3e f9 c0 77 bb 71 cd 5d bc
       -0.4895023 0.25345162 -0.003780423 -0.013537751
0000f0 1a 1e 46 3a a5 89 91 be c0 fc af 3e a5 5f 35 be
       0.0007557586 -0.28425327 0.3437252 -0.17712267
000100 0b a7 0e 3d 9c c5 24 bd 85 18 8a be c2 bf 09 be
       0.034827273 -0.040227517 -0.26971832 -0.13452056
000110 66 96 a8 be e9 f5 f2 be c5 76 53 bd 8d 37 4c 3e
       -0.32927245 -0.4745324 -0.05162694 0.19943066
000120 69 40 2a 3e 8a 15 16 3e f7 7b 8e 3e b0 29 dc 3c
       0.16626133 0.14656654 0.27828953 0.026875347
000130 2c 27 bb 3c 17 5e bf 3d 67 6b c4 3d b9 ff 81 3d
       0.022845827 0.09344118 0.09590798 0.06347603
000140 ef f7 c4 3e 5e 74 61 3e 26 d1 66 3b 74 2f cb 3d
       0.38470408 0.22017047 0.0035219877 0.0992116
000150 f4 b2 34 3e 24 ab 05 be ef d3 c5 bd 97 f9 0e bc
       0.1764639 -0.13053566 -0.09659564 -0.008726499
000160 1f 50 4c 3e 7b 87 0a be 28 48 65 bd d5 7d 00 3f
       0.19952439 -0.13528244 -0.055977017 0.50192004
000170 e0 73 96 bd 5f 5e f1 3d 80 44 29 be 4f 2d 98 be
       -0.0734632 0.11785578 -0.16530037 -0.29722068
000180 e3 2f 86 ba 20 2a 74 3d 0a 72 ae be 5f ee 84 be
       -0.001023766 0.059610486 -0.3407138 -0.25963113

output_layer.bias f4 [2]
000000 cb 31 03 bd 46 8a 9a 3c
       -0.03202991 0.018864762

exp_avg f4 [50, 2]
000000 7f ec c3 be 9f 99 87 bf 44 58 ac 3e 08 cc 2e c0
       -0.3826637 -1.0593756 0.3366109 -2.731203
000010 aa 30 2b c0 96 36 de 3f ca 8a ce 3f 94 9b ec 40
       -2.6748452 1.7360408 1.6136105 7.3939915
000020 b5 e9 86 c0 c7 33 e0 3f b0 c7 51 be 74 65 26 c0
       -4.2160287 1.7515801 -0.20486331 -2.5999422
000030 8c e5 c7 3f d8 e3 67 c0 93 43 6f 3e dc a4 98 40
       1.5616927 -3.6232815 0.23365621 4.7701244
000040 01 1f f6 bf bf 52 31 c0 78 58 bd 3f 22 de 0c 3f
       -1.9228212 -2.7706754 1.4792624 0.5502645
000050 27 aa 02 c0 f5 9a 82 40 fc 96 7d bf 1c 40 bf be
       -2.0416353 4.0814157 -0.9905851 -0.373536
000060 44 65 5b 40 ec e3 62 40 0d 31 91 3f 97 5e e3 40
       3.4280558 3.5451612 1.1343094 7.1052966
000070 08 4f 97 3d 1b eb 2e bf 0d 78 d6 bf 7a 05 6d 3f
       0.07388121 -0.6832749 -1.6755387 0.9258648
000080 38 f1 1e 3f 2b de 2f 40 33 79 3a c0 59 15 bd bd
       0.6208682 2.747935 -2.9136474 -0.09232587
000090 5f 77 9e 3f 4f fd ef 3f 73 e7 79 3f 0d b5 2b 3e
       1.2380179 1.8749179 0.9761879 0.16768284
0000a0 68 bb a7 c0 b5 19 9c 3f 21 8d f6 3f 5d 2c bf bf
       -5.2416267 1.2195345 1.9261819 -1.4935414
0000b0 d6 c3 66 c0 66 4a a0 bf 6d 05 ee be af bc 00 40
       -3.6057029 -1.2522705 -0.46488515 2.0115163
0000c0 c2 1f 0b bf 7d 0b ad 3e 9d 05 08 c0 d7 db b0 be
       -0.54345334 0.33797827 -2.1253426 -0.34542724
0000d0 e8 0c f7 bf 6b cb 75 3d d6 69 4a 3e cc e1 6e 3e
       -1.9300814 0.060008448 0.19766936 0.23328322
0000e0 80 e3 0c 40 de 93 61 bf 91 60 16 bf 11 29 95 3f
       2.2013855 -0.8811625 -0.587411 1.1653157
0000f0 9e b8 9f be d3 f6 6c c0 cf 2e a5 3e 72 2c 64 3e
       -0.3119554 -3.702565 0.32262275 0.2228258
000100 42 b0 b4 bf f7 bc 96 bf 8f 01 e7 3e c8 0f d5 3f
       -1.411629 -1.1776417 0.45118377 1.6645441
000110 26 98 31 3f bc 1c a3 3f 05 6d 22 40 67 e1 fc 3f
       0.69372785 1.2743144 2.537904 1.9756287
000120 57 ff 34 c0 23 60 80 c0 b2 91 06 c0 8f 25 c9 3f
       -2.8280847 -4.0117354 -2.1026425 1.5714587
000130 9f 4a 12 c0 b3 8d 37 40 cc 4b 1c 40 11 85 ce bf
       -2.2858045 2.8680236 2.4421263 -1.6134359
000140 aa 3a c8 3f 64 f7 cb bf 5e b4 44 be b4 95 23 bf
       1.5642903 -1.5934873 -0.1920943 -0.63900304
000150 bf 1f 00 c0 39 41 26 c1 d2 ad b4 3d 09 96 c2 be
       -2.0019376 -10.3909235 0.08822216 -0.38005093
000160 25 16 33 c0 f0 38 c4 c0 9f e1 d5 3e 91 22 fd be
       -2.7982266 -6.1319504 0.41773698 -0.49440435
000170 09 fc f1 3e da 7e a8 3d 2e ee 95 c0 81 cf ee c0
       0.472626 0.0822732 -4.6853247 -7.46283
000180 c6 ee c2 be d2 18 19 3f 2f c4 6e bf 61 a0 51 bf
       -0.38072795 0.598035 -0.932681 -0.81885344

exp_avg_sq f4 [50, 2]
000000 af 89 fa 3d 65 ff de 3e 20 de 23 3e d5 99 f0 3e
       0.12233292 0.43554226 0.16002703 0.46992365
000010 77 e7 0b 3f 07 71 e0 3f 18 e5 a1 40 2c dc 0e 41
       0.5465006 1.7534493 5.0592155 8.928753
000020 24 bc aa 40 f5 bf bf 40 66 b0 cc 40 f2 5d 3a 40
       5.3354664 5.9921823 6.396533 2.911984
000030 76 fc 25 3f 42 60 06 40 9e 5f 6c 3f fb 45 c4 3f
       0.6483835 2.099625 0.923334 1.5333856
000040 5a b6 1a 3f 7a 8d 82 3f 45 85 7a 3e b8 de dd 3e
       0.60434496 1.0199425 0.24464901 0.43333983
000050 ea f4 ba 3f bc 4d 52 40 c4 c3 57 40 be 2f a4 40
       1.4605992 3.2859945 3.3713236 5.130828
000060 f5 7b ee 40 c3 a1 04 40 62 32 41 41 ad 41 fe 40
       7.4526315 2.0723732 12.0748005 7.945517
000070 06 5d f4 3d a0 2d d3 3f 14 4f 51 40 d5 8d c1 3f
       0.11931805 1.6498299 3.2704515 1.5121409
000080 ef 0a b8 3e e0 e6 dd 3e c5 0c 8b 40 df a8 42 3f
       0.35945842 0.43340206 4.345309 0.76038927
000090 fe 92 0a 40 d0 01 85 3f 59 87 52 3f 89 9d 03 3f
       2.1652217 1.0391178 0.82237774 0.51412255
0000a0 d0 34 3a 40 63 2e 01 41 80 b4 34 3f 15 fb d6 3e
       2.9094734 8.073825 0.7058792 0.41988435
0000b0 4c 7c b8 40 b3 5b d1 3f 44 f1 6c 3d 54 f1 87 3e
       5.765173 1.6356109 0.057847276 0.26551306
0000c0 30 a7 3f 3e 66 b3 19 3f 15 22 80 3f bc 9d 8a 3f
       0.1871612 0.60039365 1.0010401 1.0829387
0000d0 19 bc 09 40 cc f7 27 40 1d 6f e2 3e cf 48 8d 3f
       2.1521056 2.6244993 0.44225398 1.1037844
0000e0 3c 58 1a 41 c0 dc c4 3f 0f f6 38 3d 72 61 a5 3d
       9.646542 1.5379868 0.045156535 0.08075227
0000f0 6b 34 a3 40 bd 7a 9c 40 5f f4 25 40 d6 5b 8a 3f
       5.1001487 4.8899827 2.5930402 1.0809276
000100 83 b8 b7 3e 43 27 a1 3e df 64 c3 40 fe a1 2d 40
       0.3588296 0.31475267 6.1060634 2.7130122
000110 cc d5 8b 40 47 16 d7 3f 59 2d 6b 40 80 9c c4 3f
       4.3698483 1.6803674 3.6746428 1.536026
000120 52 da 46 3f 09 45 fd 3f df 52 95 3f 1a 60 8c 3f
       0.7767688 1.9786693 1.1665915 1.0966828
000130 5e f4 16 3f 5e d2 a1 3f c2 8d 25 3f 90 b3 f3 3e
       0.58966625 1.2642324 0.6466943 0.47597933
000140 ef a8 31 3e 08 3d 7e 3e d4 ad 1c 40 8b 7b 6e 3f
       0.173496 0.24827969 2.4481096 0.9315726
000150 09 3c b8 40 a7 4d a3 41 b2 09 9e 3e 23 fe ca 3f
       5.7573285 20.412916 0.30866772 1.5858806
000160 9c a3 4e 40 a9 ee 6e 40 7e ae 39 3f 7e 80 30 3f
       3.228736 3.7333167 0.7253188 0.68946064
000170 07 93 18 3f 58 fe b5 3e 97 9a a1 40 3b e0 03 41
       0.59599346 0.3554561 5.050121 8.242244
000180 98 2b 68 3f 16 21 bd 3e e3 fa 19 40 cc da e5 3e
       0.9069152 0.36939305 2.405938 0.4489349

exp_avg f4 [50]
000000 16 2f 48 41 17 d2 8f 41 88 45 7c c2 26 62 fa c2
       12.511496 17.977583 -63.0679 -125.191696
000010 4c 54 fd c2 45 6b de 42 11 11 3e 42 17 87 47 c2
       -126.66464 111.20951 47.516666 -49.881924
000020 64 17 8a c2 67 b9 15 c2 80 3a eb c1 92 c4 12 c3
       -69.045685 -37.431057 -29.403564 -146.76785
000030 c1 f2 09 c2 0a 6f 9b c2 9a a6 85 42 63 5a a8 c1
       -34.487064 -77.71687 66.82539 -21.044134
000040 c8 63 0e 42 19 15 67 41 cb 4c 99 41 b0 27 d8 41
       35.597443 14.442651 19.162497 27.019379
000050 7d c1 1b c3 c4 42 12 42 22 41 46 c0 3c fa a4 41
       -155.75581 36.5652 -3.0977254 20.622185
000060 77 09 62 c2 48 31 59 42 d8 87 91 c2 48 bf 4c c2
       -56.509243 54.298126 -72.76532 -51.1868
000070 4d 23 a5 41 0a db 33 c1 25 b1 10 42 f6 52 8f c0
       20.642237 -11.240976 36.172993 -4.478877
000080 61 25 0a c2 e9 e8 9f c2 74 56 84 42 47 72 ae c1
       -34.536503 -79.9549 66.16885 -21.8058
000090 d0 20 83 42 62 08 13 c2 68 72 8c bf cd 29 03 42
       65.56409 -36.758186 -1.0972414 32.79082
0000a0 58 c8 a0 c0 7b 73 64 42 74 61 58 43 1b 5b a6 c2
       -5.024456 57.112774 216.38068 -83.17794
0000b0 2a 6d 34 42 03 4c 62 c1 34 7f 09 42 22 35 e0 42
       45.106606 -14.143558 34.37422 112.103775
0000c0 38 f4 b5 41 82 27 9d c1
       22.744247 -19.64429

exp_avg_sq f4 [50]
000000 09 1d 11 41 4a f6 22 42 71 b4 cd 43 e2 f7 d1 44
       9.069589 40.740517 411.4097 1679.7463
000010 5e ea 9c 44 b4 b7 53 44 19 5c 52 43 2a 6b c5 42
       1255.324 846.87036 210.35976 98.709305
000020 9c 54 e3 43 7b 1d a7 42 d8 20 3d 43 cb 31 b4 44
       454.661 83.55758 189.1283 1441.556
000030 ab 7b 8a 42 88 10 24 44 7d b2 d9 43 35 ce 82 42
       69.24154 656.2583 435.39444 65.40275
000040 81 39 9b 42 09 63 f2 41 f9 67 ba 41 fc 36 c3 42
       77.61231 30.298357 23.300768 97.60739
000050 9b 29 f9 44 82 c6 eb 42 0d 8f ac 40 af 37 f1 41
       1993.3002 117.88771 5.3924623 30.15219
000060 61 a6 85 43 56 e1 6a 43 a2 e8 1c 44 c2 94 8b 43
       267.29984 234.88022 627.6349 279.16217
000070 d9 25 91 42 39 01 24 41 c8 50 83 43 9e 63 24 40
       72.57392 10.2502985 262.6311 2.5685802
000080 6b 9a 3e 42 ba 24 a4 43 ea d3 75 43 23 11 0e 42
       47.6508 328.28693 245.82779 35.516735
000090 0b 3b c3 43 0b 18 bb 42 4a 55 58 40 d6 6c 18 42
       390.46127 93.54696 3.3802056 38.106285
0000a0 ab fe a4 3f e7 47 35 43 43 cc 6f 45 49 65 1e 44
       1.2890218 181.28087 3836.7664 633.5826
0000b0 20 25 3a 43 de ca 02 41 ca eb 87 42 07 42 a0 44
       186.14502 8.174528 67.960526 1282.0634
0000c0 ed ba 6c 42 91 39 d9 41
       59.182545 27.153109

exp_avg f4 [50, 50]
000000 1e 90 84 bf 7d 6c a5 bf 3b 1b 1c 3f 49 2f 1a 3f
       -1.0356481 -1.2923733 0.6097905 0.602284
000010 fd 73 4b 3f 90 1e 87 bf ee ec 6e bf 53 e3 c6 3f
       0.7947386 -1.0556202 -0.93330276 1.5538124
000020 61 b8 30 3f d7 06 a9 3f 1d a7 80 3f e7 63 96 3f
       0.6903134 1.3205212 1.0050999 1.1749238
000030 6c ee aa 3f 93 02 a3 3f 02 e6 b3 bf b2 47 02 3f
       1.335401 1.273516 -1.4054568 0.5089065
000040 cd e5 8a bf e5 31 a9 bf 97 60 31 bf bc 55 97 bf
       -1.085138 -1.3218352 -0.6928801 -1.1823039
000050 f3 12 38 3f 44 8b 36 bf 31 83 74 bf f9 a1 7d bf
       0.71903914 -0.7130625 -0.9551268 -0.99075276
000060 cc db 95 3f 84 9c d7 be 85 12 27 3f f9 ac 94 3f
       1.1707702 -0.421116 0.65262634 1.1615287
000070 91 62 65 bf 48 06 8c 3f 88 dc 1d bf d6 8b 85 3f
       -0.89603525 1.0939417 -0.6166463 1.04333
000080 16 08 bb 3f 95 82 c2 3f 94 f7 55 bf f0 1c 9e 3f
       1.4611843 1.51961 -0.835809 1.2352581
000090 1f 99 c1 bf ab 2c 88 3f 38 0b 40 3f 2d d9 45 be
       -1.5124854 1.0638632 0.7501712 -0.19321127
0000a0 de 52 ad 3f 2b 4f 87 bf c7 a8 bd bf 75 8b b2 3f
       1.3540914 -1.0571035 -1.4817132 1.3948809
0000b0 35 be c1 bf f4 3e 3b 3f 6d e2 c2 bf 1d 0a 70 bf
       -1.5136172 0.73142934 -1.522535 -0.9376543
0000c0 c1 a8 25 bf b1 96 bb 3e 66 2f c8 bf d1 02 d0 3c
       -0.64710623 0.36638406 -1.5639465 0.025391968
0000d0 a3 ba b9 bf f7 d4 f0 bf 81 ce 7d bf d2 81 4c 3f
       -1.4510082 -1.8814992 -0.99143225 0.7988559
0000e0 12 bf b9 3f d1 e2 da bd 9b 33 c2 be db 32 95 3f
       1.4511435 -0.10687793 -0.37929997 1.1656145
0000f0 46 14 c5 3f 68 56 39 bf 3f 94 39 3e 87 3f 5c bf
       1.5396812 -0.7239747 0.18122958 -0.86034435
000100 ad 30 8c bf c4 47 b7 bf 7f e9 9e bd e5 97 27 be
       -1.0952355 -1.4318776 -0.077593796 -0.16366537
000110 6c dd b3 3e 01 8c fb be 1e ba a8 bf 4a 78 e9 3f
       0.3512987 -0.49130252 -1.3181798 1.8239834
000120 86 2e 70 bf 22 b2 0d 40 be be b4 3c c9 61 f4 bf
       -0.9382099 2.2139974 0.02206361 -1.9092342
000130 29 e3 d4 bf 69 19 bc 3f 3f c3 ad 3e be 10 17 c0
       -1.6631824 1.4695255 0.33938023 -2.3603969
000140 b6 5d 03 40 44 b7 10 3f 42 da 38 3f 97 72 1b be
       2.0525947 0.5652964 0.72208035 -0.15180431
000150 7a 8e 3e 3f 79 ec 2c 3f d5 2e 34 3e 48 26 87 bf
       0.7443615 0.6754833 0.1759599 -1.0558558
000160 e8 60 10 c0 c3 01 82 3e 95 8a 21 3f 82 c9 a7 3f
       -2.2559147 0.2539197 0.63102084 1.310837
000170 bc de ca 3e 3d 23 0e 3f 95 c2 c7 3d 7a 67 89 3f
       0.39623058 0.5552252 0.097539105 1.0734704
000180 8d 58 f3 be 95 2c ac 3f a3 76 97 3e 19 95 d9 bd
       -0.47528496 1.3451105 0.295827 -0.10624141
000190 e3 01 80 bf 50 e2 76 3d 7d a3 d9 3e b1 09 53 bf
       -1.0000576 0.060274422 0.42507544 -0.8243666
0001a0 00 77 73 3f eb 4f f9 3e f6 9a 9d be 56 c6 71 3e
       0.95103455 0.48693785 -0.30782288 0.23610815
0001b0 25 f6 b8 be e6 75 88 3f 44 33 a1 3f 75 01 75 3f
       -0.36125293 1.066098 1.259377 0.9570535
0001c0 97 6b 06 3f a9 e1 88 3e 33 33 11 bf 67 61 9e 3e
       0.5250792 0.26734665 -0.5671875 0.30933687
0001d0 0e 3d 6d bf 3c 55 c9 be 72 28 5c be a1 d1 7a bf
       -0.9267129 -0.3932284 -0.21499804 -0.9797612
0001e0 f3 17 2b 3f c8 1c 2c 3e 4f 72 5c bf 49 34 20 40
       0.6683342 0.16807854 -0.8611192 2.5031912
0001f0 d9 3c 12 3f fe be c3 bf aa 28 31 3e ec 73 65 3f
       0.57124096 -1.5292661 0.17300668 0.8963001
000200 af da 0b 3e 4b df 12 c0 d8 86 84 3f 38 24 81 3f
       0.1365764 -2.2948787 1.0353651 1.0089178
000210 e9 29 29 3f 81 7f 60 be fe cf 84 bf 40 d4 87 3f
       0.66079575 -0.21923639 -1.0375974 1.0611649
000220 42 9f 0f 3e ce 28 9e be f1 63 a5 bf 5c 2a 5b bf
       0.14025596 -0.30890507 -1.2921125 -0.8561151
000230 98 e8 fc 3e 89 6b 92 3d 85 b3 de bb 89 e4 eb 3e
       0.49396205 0.07149417 -0.0067963027 0.46072796
000240 9b 8f ea 3d 89 88 4d 3f 54 96 02 be 83 47 96 3e
       0.11453172 0.8028646 -0.12752658 0.29351434
000250 89 df cf 3f 06 3f 59 3f 0c 52 0f c0 fa 9b ed 3f
       1.6240093 0.8486179 -2.2393827 1.8563225
000260 93 f4 99 40 a4 ae 2d bf 10 12 c9 40 1d 19 11 40
       4.8111053 -0.67844605 6.283455 2.2671578
000270 3f f6 5a c0 13 c6 0c 40 b5 ce 88 40 ea 26 d2 3e
       -3.4212797 2.1995895 4.275233 0.41045314
000280 0a de 6d 3f 58 8d b2 40 26 97 60 40 15 66 20 40
       0.9291693 5.579754 3.5092254 2.5062306
000290 97 d4 9c bd 5f 70 92 40 b1 09 02 c1 15 41 33 c0
       -0.07657736 4.576217 -8.127366 -2.8008473
0002a0 23 9b b1 c0 00 65 0a c1 ec 03 ad 40 75 78 2b c0
       -5.5501876 -8.649658 5.4067287 -2.679227
0002b0 3e f1 97 c0 b7 ff de be 5a 25 a2 bf 70 b4 81 c0
       -4.7481985 -0.4355447 -1.2667649 -4.053276
0002c0 1b 04 7a 40 06 63 9d 3f c8 71 38 40 03 1c 34 3f
       3.9065006 1.2295845 2.8819447 0.7035524
0002d0 a4 47 42 3f 72 aa cc 40 f3 18 83 40 65 f8 33 bf
       0.75890565 6.3958063 4.0967956 -0.70300895
0002e0 48 e2 be c0 58 ee de 40 f4 fd 18 bd b7 e1 90 be
       -5.965122 6.9665947 -0.037351564 -0.28297207
0002f0 fd 55 9e 3f d9 5c af c0 d4 8f 4b 40 24 b5 af bf
       1.2369992 -5.480084 3.1806536 -1.3727155
000300 99 1d 86 bf 3b 52 33 bf aa f2 22 be 83 49 84 40
       -1.0477782 -0.7004735 -0.15912881 4.1339736
000310 85 5e 49 3f d4 26 8e be 2f 0c c8 bf 81 9f 93 40
       0.7865985 -0.27763999 -1.5628718 4.6132207
000320 ef d3 65 3e fd c8 c8 3d c8 94 df be 0c d8 88 3b
       0.22444128 0.098039605 -0.436682 0.0041761454
000330 a2 95 c9 be 73 ec 5e 3e d2 8c 58 3e e2 a1 2e be
       -0.39371973 0.21769886 0.21147469 -0.17053941
000340 dd 58 b9 bb a1 8f d0 3e 7e c8 27 3d 51 9f 85 be
       -0.0056563453 0.4073458 0.04096269 -0.2609811
000350 fc fe 1a be 79 a3 52 be d2 fc 3f be 67 c1 f4 be
       -0.15136331 -0.20570172 -0.18748787 -0.47803804
000360 c2 c4 1a be 19 1b 0f 3e 60 22 fa 3c 35 11 80 be
       -0.1511412 0.1397518 0.03053397 -0.25013128
000370 68 47 dd be 17 02 f2 3d d6 05 bb 3d dd 2b 28 3e
       -0.4321854 0.11816805 0.091319725 0.16422983
000380 ec 09 09 be 67 17 81 3e b9 94 8a be 93 e5 c5 bd
       -0.13382691 0.25213167 -0.2706659 -0.096629284
000390 8d 84 6a 3e d5 75 1a 3b 85 f0 7e bd 7f a0 21 bd
       0.22902127 0.0023568769 -0.062241096 -0.0394597
0003a0 ac bd 21 be 33 03 fd bd 25 40 89 3e dd ae 29 bd
       -0.1579501 -0.12354126 0.2680675 -0.04142653
0003b0 f6 3e 0b 3e 33 cd 24 be 1d a9 ab 3d bc 27 b7 3d
       0.13598236 -0.16093902 0.08381865 0.089431256
0003c0 c6 2f 08 be 62 03 27 3e fa b5 2d 3e 4a 00 1e 3e
       -0.13299474 0.16309884 0.1696395 0.15429798
0003d0 a8 aa 01 3e 84 88 85 bd 7a 36 77 bd 9e 2c 0f 3e
       0.12662756 -0.06520179 -0.060354687 0.13981864
0003e0 19 b5 48 be 6e 7b bf bd 73 59 0f 3f 79 18 a3 bf
       -0.19600333 -0.09349714 0.55995864 -1.2741843
0003f0 15 a8 e1 3f 85 63 c5 3f 75 ad 9f 3f 32 6d d6 bf
       1.762942 1.5420996 1.247481 -1.6752074

exp_avg_sq f4 [50, 50]
000000 e5 ce 39 40 5a 9a 80 3f cb ac e3 3f 6a 73 14 40
       2.9032528 1.0047104 1.7787107 2.3195443
000010 71 90 72 3f ec b4 7d 3f 79 5c 7d 3f 4c ea 64 3e
       0.9475165 0.9910419 0.9896923 0.22355002
000020 22 e3 f7 3f fd 9a 7a 40 6d 9f 6b 40 a0 72 45 3e
       1.936619 3.9157097 3.6816056 0.19282007
000030 10 66 c4 3e 4a 56 78 3e 0c d2 30 40 c0 17 fe 3f
       0.38359118 0.24251667 2.7628202 1.9850998
000040 12 ac ca 3f f1 23 ab 3e fb bf c9 3f 7d b4 0b 40
       1.5833762 0.3342586 1.5761713 2.1828911
000050 d7 ac b1 3f 00 2b f9 3f fe ee cd 3f d2 e1 97 40
       1.3880872 1.9466248 1.608856 4.746316
000060 5b b8 c1 3f 05 aa 62 40 aa 54 e9 3f fd 86 3f 40
       1.5134386 3.5416272 1.8228962 2.992614
000070 42 47 9d 3f 18 70 8b 40 ca 5d 2e 40 52 2e a8 3f
       1.2287371 4.3574333 2.7244744 1.3139136
000080 22 f7 a1 3f 27 ae fe 3e ed 43 c5 3e a4 cd d9 3f
       1.2653544 0.49742243 0.38528386 1.7015882
000090 34 0e b5 3e 04 88 3f 3f e5 91 55 40 ea 85 2f 3f
       0.353624 0.7481692 3.3370297 0.6856371
0000a0 6b d7 80 3f 62 bd 58 3f dc 8b 4b 3e 6d e3 ee 3f
       1.006574 0.84663975 0.19877571 1.8663155
0000b0 14 53 b7 3e 69 df dd 3f ca 60 b1 3f 10 66 86 3f
       0.3580557 1.7333804 1.3857663 1.0499897
0000c0 b0 f7 25 40 12 b4 8d 3e 20 4c 57 3f bb 93 d3 3d
       2.5932426 0.27676445 0.8410053 0.10330912
0000d0 6f ac 03 3f 48 9d 32 3f d7 72 57 3e 81 92 18 3e
       0.5143499 0.6977124 0.21039902 0.14899637
0000e0 78 fd a9 3e 02 eb 05 3d 11 1c 45 3e b3 ab 77 3f
       0.33201194 0.032694824 0.19248988 0.9674637
0000f0 60 29 81 3f 60 da 2b 3d b0 cd ae 3d 74 2e 8b 3d
       1.0090752 0.041956306 0.085353255 0.067959696
000100 73 97 34 3f 52 90 0e 3f 6e cf 40 3e e9 67 97 3d
       0.70543593 0.55688965 0.18829128 0.07392866
000110 51 8f 19 3e 9e a1 bf 3e de 60 c7 3e f1 87 22 3f
       0.14996077 0.37427992 0.3894109 0.6348868
000120 e3 4a d2 3e b7 a4 ad 3f 75 b5 22 3e 7f e1 81 3f
       0.4107276 1.3565892 0.15889533 1.0146941
000130 1d f5 13 3f 16 56 58 3f 9c e6 e9 3d 12 46 a7 3f
       0.5779589 0.84506357 0.114209384 1.3068259
000140 2f a2 54 3f 53 ec 8d 3e b6 7e a7 3e 3f b0 4a 3d
       0.8305997 0.27719364 0.3271386 0.049484488
000150 3d c0 9b 3d 0d 31 bf 3e b1 e0 0e 3d 9a 30 38 3e
       0.07605026 0.3734211 0.03488225 0.1798729
000160 ea 4f 87 3f 40 65 85 3d 16 a6 87 3e 67 97 82 3e
       1.0571263 0.065134525 0.264939 0.25506136
000170 a4 82 85 3c 70 8c b7 3e 2e cc 28 3d c4 ce e9 3e
       0.016297646 0.35849333 0.041210346 0.45665562
000180 2f 2d 89 3e 55 c7 98 3e 8d 28 80 3e ec e4 d5 3c
       0.26792285 0.29839578 0.25030938 0.026110135
000190 9f d3 3d 40 fc 83 c2 3f 84 c3 27 40 e3 6f c3 3f
       2.9660413 1.5196528 2.6213083 1.526852
0001a0 a3 b6 d5 3f 68 30 01 3f 94 99 75 3f db 64 6c 3e
       1.6696361 0.5046449 0.95937467 0.23085348
0001b0 63 42 31 40 55 d0 bc 40 3f c0 9b 40 15 9d 9a 3e
       2.769677 5.900431 4.8672175 0.3019797
0001c0 b1 02 87 3e e8 73 cf 3d a3 06 80 40 c9 bf 3f 40
       0.2636924 0.10129529 4.00081 2.9960806
0001d0 98 0e 76 3f a5 9b 8b 3e 7b cf 06 40 26 db 7a 3f
       0.9611602 0.27267185 2.1064136 0.97990644
0001e0 1f b4 0a 40 0b b6 f8 3f 4c 78 74 3f 38 3a cd 40
       2.1672437 1.9430555 0.9549606 6.413357
0001f0 97 b3 1a 40 a7 9b 37 40 ef a0 10 40 fa c9 64 40
       2.4172113 2.8688753 2.2598226 3.5748277
000200 bd 02 a0 3f 53 59 af 40 e7 1e f8 3f 23 4b 1a 3f
       1.2500836 5.479654 1.9384431 0.602709
000210 6a 75 6b 3f 62 72 2d 3f 41 68 31 3f f3 80 54 3f
       0.91976035 0.6775266 0.69299704 0.8300926
000220 42 f6 e8 3e 77 a3 91 3e e3 69 64 40 33 05 6e 3f
       0.4550038 0.28445026 3.5689628 0.92976683
000230 e9 68 50 3f 2b 0c ee 3e c4 43 1a 3e 81 45 51 40
       0.8141008 0.46493658 0.15064913 3.2698672
000240 4b e9 f9 3e 79 c3 81 3f 9d 22 16 40 1f 8b 03 3f
       0.488108 1.0137779 2.3458626 0.51384157
000250 78 29 73 40 b6 c4 85 3e da e4 80 40 f0 98 4f 41
       3.799406 0.2612664 4.027936 12.974838
000260 94 4c 06 41 d1 99 42 3f ec ec 1b 41 93 44 d0 40
       8.393696 0.76015955 9.745342 6.508371
000270 27 1c ab 3f e4 41 a7 3f a9 69 c2 41 52 20 88 41
       1.3367966 1.3066983 24.301592 17.015781
000280 cb 04 2a 41 6e 32 22 40 d7 f3 3e 3f 56 10 c7 3e
       10.62617 2.534328 0.7459082 0.3887965
000290 86 29 41 41 c5 03 1e 41 01 ec 57 41 70 94 48 3f
       12.072638 9.87592 13.495118 0.783515
0002a0 d2 81 a3 41 9e ec 1f 41 cb e8 04 41 03 20 08 40
       20.438389 9.995268 8.306834 2.1269538
0002b0 90 3d d2 3f e5 b6 2f 41 bd b8 9d 41 30 5b 38 40
       1.6425037 10.982152 19.715204 2.8805656
0002c0 13 a7 96 40 25 df da 40 3f 31 66 41 e3 31 02 41
       4.707895 6.8397393 14.387023 8.137179
0002d0 49 24 62 3f e3 ed 5a 40 0a 25 b1 3f 7f 63 b8 40
       0.88336617 3.4207695 1.3839428 5.7621455
0002e0 3a 88 a4 40 dc f2 6c 40 0b 28 71 40 b9 41 bc 3f
       5.141629 3.702323 3.768069 1.4707557
0002f0 20 85 77 40 9d 29 19 41 c6 d5 98 3f 25 12 cb 3e
       3.8675003 9.5726595 1.1940238 0.3966228
000300 d8 99 dd 3f a8 7c 85 41 e2 bd 67 40 5c 28 b1 3f
       1.7312574 16.685867 3.6209645 1.3840442
000310 f2 0b 42 41 e0 8e 3c 3f 0a ea f6 41 26 21 59 40
       12.127916 0.7365551 30.864277 3.3926482
000320 38 7e 08 3e 7f de 99 3d 50 67 e8 3c e9 54 34 3e
       0.13329399 0.07513141 0.028369576 0.17610516
000330 37 0a d1 3c 85 ae d5 3d ca 7f 16 3d 70 52 ac 3b
       0.025517566 0.104336776 0.036742963 0.0052588508
000340 17 da 0d 3e 4d 3c 78 3d 2f ea b6 3d 24 de b4 3b
       0.13852726 0.060604382 0.08931386 0.0055196453
000350 99 c3 75 3c eb 5e 6c 3c d9 2e 39 3d dd 20 fb 3c
       0.015000247 0.014426927 0.045210693 0.030655319
000360 70 cc 1c 3e 83 6f 25 3c 1e f9 f7 3d 81 81 54 3e
       0.15312362 0.010097387 0.12108062 0.20752527
000370 fb 57 b5 3c ab 96 a6 3d 26 c3 e8 3d b6 33 0b 3e
       0.022136679 0.081342064 0.113653466 0.13593945
000380 15 fd e9 3d d0 36 87 3e ff e7 39 3d 21 92 bc 3d
       0.11425225 0.26409006 0.045387264 0.092075594
000390 34 95 fc 3d 12 ca 23 3e 19 32 54 3e e0 f4 e0 3d
       0.12333146 0.15995052 0.20722236 0.10984206
0003a0 a8 a7 83 3d 82 2c 08 3d f6 af 77 3c 51 fa 0c 3e
       0.06428462 0.03324557 0.015117636 0.13767363
0003b0 df 40 ae 3c 56 50 85 3d 83 95 24 3e 59 21 75 3d
       0.021271167 0.065094635 0.16072659 0.059846256
0003c0 d0 43 2d 3d 33 22 65 3d 50 24 6a 3c 4e 44 67 3d
       0.042301 0.055940818 0.014290884 0.056461625
0003d0 45 88 90 3c 0a e6 01 3e ce e7 21 3d c4 49 a4 3d
       0.017643103 0.12685409 0.039527707 0.08021882
0003e0 42 a3 3f 3e 7d 8e e6 3c e1 f3 57 3f d9 9e 8e 3f
       0.18714622 0.028144116 0.84356505 1.1142226
0003f0 1f ba 3c 3f 08 3b 7f 3f 04 93 1c 3f 5e 71 79 3f
       0.737215 0.9969945 0.6116183 0.9743861

exp_avg f4 [50]
000000 70 65 75 42 d4 ad 9d c1 4a a2 cd 41 11 ab 23 43
       61.34906 -19.709877 25.704243 163.66823
000010 77 04 15 c1 00 28 39 42 ad 31 74 c2 78 16 8c 42
       -9.31359 46.289062 -61.04851 70.043884
000020 92 f6 25 41 37 8c 07 c2 3a 3d 10 41 9a 14 64 42
       10.372698 -33.88693 9.014948 57.02012
000030 46 8a 3c c2 1e 83 88 c2 bb 64 31 c3 82 bc ed 42
       -47.135033 -68.25609 -177.39348 118.86818
000040 4b 26 b9 42 1d 92 57 41 70 3d 85 c1 fa cd 86 42
       92.57479 13.473172 -16.654999 67.4023
000050 06 2c 0d 42 c4 1b 5d 42 24 b7 e4 40 cf 6c d4 c1
       35.29299 55.277115 7.147356 -26.55313
000060 e9 0d 0e c2 b7 ed d8 41 a5 40 ac 41 c0 87 e6 c1
       -35.513584 27.116072 21.531565 -28.816284
000070 4c 62 9f c1 b3 46 27 c2 b6 c9 d8 c1 41 a8 81 c0
       -19.922997 -41.819042 -27.098492 -4.051789
000080 38 25 9d 42 94 ff 54 c2 02 d7 0a 42 c1 d3 23 42
       78.57269 -53.249588 34.70997 40.95679
000090 9f 0c 14 42 40 0c 97 41 db 19 fb c2 da c7 44 c2
       37.012325 18.880981 -125.5505 -49.195168
0000a0 54 3d f3 41 b3 aa bc c1 5f c1 34 c2 a3 61 c3 c2
       30.404945 -23.58335 -45.18884 -97.6907
0000b0 e5 9f 9b c0 be 16 cd c1 3a 03 a4 c2 dc 49 c7 40
       -4.8632684 -25.636105 -82.0063 6.227766
0000c0 30 65 ee 42 a0 e8 1f 42
       119.19763 39.977173

exp_avg_sq f4 [50]
000000 32 91 8a 43 cf 4b ab 41 6a f7 c7 42 7e 53 28 45
       277.13434 21.412016 99.98323 2693.2183
000010 d8 ee d3 40 67 f5 17 43 73 b3 c7 43 29 81 b6 43
       6.6229057 151.9586 399.40195 365.00906
000020 6e 34 a5 41 27 8e f8 42 3a 11 93 41 5f ab a2 43
       20.6506 124.27764 18.383411 325.33884
000030 62 44 58 43 84 16 8a 43 85 6a 12 45 22 9d 95 44
       216.26712 276.1759 2342.6575 1196.9104
000040 16 13 25 44 81 08 7e 41 f7 27 40 41 2e 24 bc 43
       660.2982 15.877076 12.009757 376.28265
000050 7e c5 80 42 31 60 ac 43 4a 4d 33 41 41 9d b9 42
       64.38573 344.7515 11.206369 92.80714
000060 62 ed 97 42 ee 41 33 42 33 94 5b 42 cc 4c 5f 42
       75.96364 44.814384 54.894726 55.824997
000070 4b 94 51 42 26 70 01 43 ed 81 9a 42 fe f1 e8 41
       52.394817 129.43808 77.25376 29.11816
000080 8d b2 13 44 98 35 70 43 5b cb d3 42 aa 97 c9 42
       590.78986 240.20935 105.89718 100.79622
000090 d3 94 14 43 bb 59 6e 41 51 c7 a9 44 87 83 45 43
       148.58134 14.896907 1358.2286 197.51378
0000a0 d2 80 54 42 a6 c7 ae 42 70 82 17 43 99 26 4e 44
       53.1258 87.38994 151.50952 824.6031
0000b0 c9 f1 3d 40 e7 66 81 42 5e ba 26 44 0e ac 9e 41
       2.9678824 64.70098 666.912 19.834011
0000c0 c7 99 8c 44 10 9e ac 42
       1124.8055 86.308716
