weights/checkpoint/example0003_warm_adam.pth (torch, 73855 bytes, 25 tensors)

a f4 [5]
0	0x3e4ccccd	0.2
1	0x3e4ccccd	0.2
2	0x3e4ccccd	0.2
3	0x3e4ccccd	0.2
4	0x3e4ccccd	0.2

input_layer.weight f4 [50, 2]
0	0xbfd3921e	-1.6528966
1	0x3f1436e2	0.57896245
2	0xbf043820	-0.5164814
3	0xbf62c533	-0.8858215
4	0xbf916b80	-1.1360931
5	0xbe71ed50	-0.23625684
6	0xbfa82f45	-1.3139426
7	0x3f7f3a4f	0.99698347
8	0xbf326427	-0.6968407
9	0xbf05a052	-0.52197754
10	0x3e44d2db	0.1922106
11	0xbf75fc78	-0.9608836
12	0x3f3d0212	0.73831284
13	0xbe4a7a6e	-0.19773266
14	0x3e94efe7	0.2908928
15	0x3daaa5c0	0.083323956
16	0xbf4a04e4	-0.7891371
17	0xbfcb93ee	-1.590452
18	0x4013f754	2.3119707
19	0x3ed9153a	0.42399007
20	0x40070038	2.1093884
21	0xbd9f9fb3	-0.07794132
22	0xbe592f43	-0.21209435
23	0xbe659ad3	-0.22422342
24	0x3ec1e9ed	0.37873784
25	0xbe616e0a	-0.22014633
26	0xbe835cd0	-0.25656748
27	0x3e29d164	0.16583782
28	0xbfcca5ed	-1.5988137
29	0xbe92067f	-0.2852058
30	0xbf9ef3a7	-1.2418107
31	0xbe8b4d2e	-0.2720732
32	0xbe948e77	-0.29014942
33	0x3fb4e092	1.4131033
34	0xbeb9d274	-0.36293375
35	0x3ddfbb89	0.10924441
36	0x3f0d039b	0.55083627
37	0x3fb223f0	1.3917217
38	0xbf611812	-0.87927353
39	0x3fd77a40	1.6834183
40	0xbf765b6f	-0.96233267
41	0xbe9db860	-0.3080473
42	0x3f971a5c	1.1804919
43	0xbec66cd3	-0.387549
44	0xbf63f3c6	-0.89043844
45	0x3f4f8715	0.81065494
46	0x403cb7a7	2.9487092
47	0xbe79b670	-0.24386
48	0x3f3cded6	0.7377752
49	0x3fa0ab54	1.2552285
50	0xc000bb6d	-2.0114396
51	0x3fb0d183	1.3813938
52	0xbf94b4ff	-1.1617736
53	0x3dce644b	0.10077723
54	0x3fd7203c	1.6806712
55	0xbe6041d4	-0.21900111
56	0xbe66c946	-0.22537717
57	0xbf9f434c	-1.2442412
58	0xc0257050	-2.58498
59	0x3ecfe22d	0.40602246
60	0x3fc51900	1.5398254
61	0xbf914359	-1.1348678
62	0x3f29b4ec	0.6629169
63	0xbf6e9daa	-0.93209326
64	0x3f513489	0.8172079
65	0xbef57981	-0.47944263
66	0x3e9fd342	0.31215864
67	0x3f081d8b	0.5317008
68	0x3ebfb94f	0.37446067
69	0x3ec8b961	0.39203933
70	0x3f56d9de	0.8392619
71	0xbf861574	-1.0475297
72	0xbe845be8	-0.2585137
73	0xbeb2f883	-0.34955224
74	0xbec68d0e	-0.3877949
75	0x3f1e5063	0.6184141
76	0xbfee7ee9	-1.863248
77	0x3f1db90a	0.6161047
78	0x3e89cce0	0.2691412
79	0x3f5331bb	0.8249776
80	0x3f37a356	0.71733606
81	0xbead3f5e	-0.33837408
82	0x3f1038e4	0.5633681
83	0xbefb8438	-0.49124312
84	0xbdca5879	-0.09880156
85	0xbe8829e4	-0.2659446
86	0x3f965905	1.1745917
87	0x3f53fc48	0.82806826
88	0xbe913459	-0.2836025
89	0xbea4533a	-0.32094747
90	0x3f75e34b	0.96049947
91	0xbf613b92	-0.8798152
92	0xbf68aa8f	-0.9088525
93	0xbf1a92ac	-0.60380054
94	0x3f2732c5	0.65311843
95	0xbf18fcde	-0.59760845
96	0x3f96230e	1.1729448
97	0x400e28c0	2.2212372
98	0xbcd894d9	-0.026438164
99	0xbefdc23a	-0.49562246

input_layer.bias f4 [50]
0	0xbb4ff210	-0.0031729974
1	0xbd740b4c	-0.059581086
2	0xbceb0269	-0.028687673
3	0x3cf6b23b	0.030114284
4	0xbcbaf8a6	-0.022823643
5	0xbd006592	-0.031346865
6	0x3cb1487f	0.021641014
7	0xbe0d75cd	-0.13814469
8	0x3c280dd7	0.010257206
9	0xbc75c769	-0.015001156
10	0xbd005a98	-0.031336397
11	0xba6ff461	-0.0009153542
12	0xbd21f45c	-0.03953968
13	0x3d760055	0.06005891
14	0x3daf24d7	0.085519485
15	0xbd46b935	-0.04851647
16	0x3bd3ca7b	0.0064633465
17	0x3c9291e2	0.017891828
18	0xbd5d47be	-0.054023497
19	0x3bfc480b	0.007699018
20	0xbe26a553	-0.16274004
21	0xbd4fee79	-0.050764535
22	0x3c9fdb62	0.01951379
23	0xbcabe9b0	-0.020985454
24	0x3d40aa5a	0.04703746
25	0xbdd22a92	-0.10262026
26	0xbc813c10	-0.01577571
27	0xbb070e90	-0.0020608045
28	0x3d6e5bfb	0.05819319
29	0x3d5429f4	0.051797822
30	0xbc4317cb	-0.011907528
31	0x3b8929a8	0.004185874
32	0xbb8d20d6	-0.004306893
33	0x3d8dfe0e	0.06933223
34	0xbd246e9c	-0.040144548
35	0x3d691c5f	0.056911822
36	0xbda973fc	-0.082740754
37	0x3dc2541f	0.09488701
38	0x3cf7f4d2	0.030268107
39	0xbdadad8a	-0.084803656
40	0x3d0428ec	0.03226559
41	0xbb841bcb	-0.0040316335
42	0xbdf9752e	-0.121805534
43	0xbd9df5ba	-0.07712884
44	0xbb5f8a86	-0.0034109666
45	0x3d183820	0.0371629
46	0x3c9b49e8	0.01895614
47	0xbd773db2	-0.06036157
48	0x3ca58637	0.0202056
49	0x3cd15b55	0.025556246

hidden_layers.0.weight f4 [50, 50]
0	0x3e25de8b	0.16198175
1	0x3ead047d	0.33792487
2	0xbd40dabe	-0.04708361
3	0x3e753a5d	0.23948045
4	0xbd8b9f5c	-0.06817505
5	0x3e8bcfda	0.27307016
6	0x3e2da58b	0.16957681
7	0xbea878d6	-0.3290469
8	0x3dc609b8	0.096698225
9	0x3ec476a9	0.3837178
10	0x3debb6e0	0.1150949
11	0xbe99bb9c	-0.30025947
12	0x3d5f39a3	0.054498326
13	0x3e1aa3d4	0.15101558
14	0x3e1e2684	0.1544438
15	0xbeccd914	-0.40009367
16	0x3e379779	0.17928876
17	0x3c87d2ee	0.016580071
18	0xbca1cd79	-0.019751297
19	0x3e1c5880	0.15268135
20	0x3e2facbd	0.17155738
21	0xbe491cc2	-0.19639876
22	0xbd3e4e06	-0.046461128
23	0x3e2c8e11	0.16851069
24	0xbe0d7591	-0.1381438
25	0xbe1424b7	-0.1446713
26	0xbea4a810	-0.32159472
27	0x3bfba7be	0.0076799085
28	0xbda4ce81	-0.080472
29	0x3dfe9a13	0.12431731
30	0xbda6679f	-0.08125233
31	0x3e513743	0.20431237
32	0x3da9acb5	0.082848944
33	0xbe8d2e8a	-0.2757457
34	0xbdcc812c	-0.09985575
35	0x3e4fd0ca	0.2029449
36	0xbe80e6f0	-0.2517619
37	0x3ec5add6	0.3860919
38	0x3e47fa0c	0.19528979
39	0x3eb5da16	0.3551795
40	0xbd67342e	-0.056446247
41	0xbe9b6bf5	-0.30355802
42	0xbd8ed8d2	-0.06974949
43	0xbe7d19f6	-0.24716935
44	0xbe635fe3	-0.22204547
45	0x3dbe7d6b	0.09301265
46	0x3ca9c00b	0.020721456
47	0xbda3cfc6	-0.07998614
48	0xbe5d17dc	-0.21591133
49	0xbe396338	-0.18104255
50	0xbe805bc2	-0.25070006
51	0x3d9a519d	0.07535098
52	0x3dad2d19	0.08455867
53	0x3eaf4005	0.3422853
54	0x3e22db46	0.15903959
55	0x3d51bffd	0.051208485
56	0xbebf246c	-0.37332475
57	0x3eb1d99c	0.34736335
58	0xbeceac6a	-0.40365916
59	0x3dbabff0	0.091186404
60	0xbec03b9a	-0.37545472
61	0x3dfdef39	0.12399144
62	0x3e67c405	0.2263337
63	0xbe373754	-0.178922
64	0xbd31f268	-0.043444067
65	0x3d40113e	0.046891443
66	0x3cee9946	0.02912582
67	0x3e36de65	0.17858274
68	0x3e796533	0.2435501
69	0x3c8a4263	0.016877359
70	0x3d757d33	0.059933852
71	0x3e83454f	0.25638816
72	0xbe801637	-0.2501695
73	0xbe85c24a	-0.26124793
74	0x3df62a39	0.12019772
75	0xbdbbd55c	-0.091715544
76	0xbd33d3fd	-0.04390334
77	0x3eaa0d8a	0.33213454
78	0xbe1f6ba5	-0.15568407
79	0x3ebc4c13	0.3677679
80	0x3ef692ee	0.48158973
81	0x3e0429c9	0.12906565
82	0xbedfb83a	-0.4369524
83	0xbebaee66	-0.3651001
84	0x3db5739d	0.08859942
85	0xbdcc1dd9	-0.099666305
86	0x3e4dad77	0.20085703
87	0xbd9f9ccb	-0.07793578
88	0x3dd66b1e	0.1046965
89	0x3e3c8e48	0.18413651
90	0xbe0fdb39	-0.1404847
91	0xbdc150cf	-0.09439241
92	0x3e18ae92	0.14910343
93	0x3e8ecace	0.27889103
94	0xbe2bbca4	-0.1677118
95	0xbe04d856	-0.1297315
96	0x3e1d72e7	0.15375863
97	0x3d54b2ff	0.051928516
98	0xbeb840ea	-0.35987025
99	0x3e8aa490	0.27078676
100	0xbcd94129	-0.026520329
101	0x3dd437e8	0.10362226
102	0xbbed095c	-0.0072337817
103	0xbea585b0	-0.32328558
104	0xbd207d39	-0.03918192
105	0xbe2066e9	-0.15664257
106	0xbc77b8d5	-0.015119751
107	0xbe0cbbd8	-0.13743532
108	0x3e2209b2	0.15824011
109	0x3e709004	0.23492438
110	0xbe991b4d	-0.2990364
111	0x3e9a9d92	0.30198342
112	0xbe55cc03	-0.20878606
113	0xbf05eed4	-0.5231755
114	0x3e40a96e	0.18814632
115	0xbad5b320	-0.0016303994
116	0x3dd1f749	0.10252244
117	0x3eb5193f	0.35370824
118	0xbf06092e	-0.5235776
119	0x3e92f893	0.28705272
120	0x3eb3e9c8	0.35139298
121	0x3eae0aca	0.33992606
122	0x3ea6dd52	0.3259073
123	0xbd98bc0c	-0.07457742
124	0x3e872893	0.26398143
125	0xbd5a7e50	-0.053343117
126	0x3b49194c	0.0030685244
127	0x3c1927b9	0.0093478495
128	0x3e04d145	0.12970455
129	0x3e3e52fd	0.18586345
130	0x3f1834d1	0.5945559
131	0xbe09f22e	-0.1347129
132	0x3dc7d981	0.097582825
133	0xbdb44c58	-0.08803624
134	0xbddaff64	-0.10693243
135	0xbe095ea9	-0.13415016
136	0xbeb98c04	-0.36239636
137	0x3ca9d941	0.020733478
138	0x3dfceb1c	0.12349531
139	0xbe43178f	-0.19051956
140	0xbb538f49	-0.003228145
141	0x3e00317b	0.12518875
142	0x3d3a962f	0.045553382
143	0x3de972d1	0.113988526
144	0xbe903865	-0.28168026
145	0x3d9fea55	0.07808367
146	0xbe76b3ef	-0.24092077
147	0xbde5d6c7	-0.11222606
148	0xbe63f4b0	-0.2226131
149	0x3dedba59	0.116078086
150	0xbc0f6ebb	-0.008754428
151	0xbd8b9091	-0.06814683
152	0xbe891b96	-0.2677886
153	0xbeed40cc	-0.463385
154	0xbe9354f7	-0.2877576
155	0x3dee8e78	0.116482675
156	0x3e412f3f	0.18865679
157	0x3c24b9df	0.010054081
158	0xbec89a32	-0.39180142
159	0x3d8202bd	0.063481785
160	0x3e4be989	0.19913305
161	0x3e650128	0.22363722
162	0x3e861b7c	0.26192844
163	0xbddf1469	-0.10892565
164	0xbdc62cf2	-0.096765414
165	0x3e4e4940	0.2014513
166	0xbacdef3e	-0.0015711559
167	0x3e02fc46	0.12791547
168	0xbde500e3	-0.1118181
169	0x3c242498	0.01001849
170	0xbe1610b4	-0.14654809
171	0x3d361adc	0.04445921
172	0xbd8002e6	-0.06250553
173	0xbe6c3498	-0.23066938
174	0xbeb0e1c8	-0.34547257
175	0xbd2caefe	-0.042159073
176	0x3d33485c	0.04377018
177	0xbe799277	-0.24372278
178	0x3d803ed4	0.062619835
179	0x3d0ee1c9	0.034883294
180	0x3eb12cc8	0.34604478
181	0x3ea8a67d	0.3293952
182	0xbe23e584	-0.16005522
183	0x3eb4ae91	0.35289434
184	0xbe689cae	-0.22716019
185	0x3c23475b	0.009965743
186	0x3d886da7	0.066615395
187	0xbba02b78	-0.0048879944
188	0x3e384946	0.17996702
189	0xbd4a9f71	-0.04946846
190	0x3d83343d	0.06406448
191	0xbe1fe599	-0.15614928
192	0x3dc6c9e1	0.09706474
193	0xbdb28774	-0.08717242
194	0xbdcab019	-0.09896869
195	0xbde1c421	-0.11023737
196	0x3d8bce9b	0.06826516
197	0x3eb19fe8	0.3469231
198	0x3df8a6b1	0.12141169
199	0xbc32f4ce	-0.010922624
200	0x3e646faa	0.22308221
201	0xbd3a5867	-0.045494463
202	0xbecf7782	-0.40520865
203	0xbe5e5620	-0.21712542
204	0xbd3353cb	-0.043781083
205	0x3e111363	0.14167552
206	0xbe66634b	-0.22498815
207	0x3e72b2bd	0.23700996
208	0xbc5e3db9	-0.0135645205
209	0x3db91869	0.09037859
210	0x3e981e86	0.29710788
211	0x3ddf7be4	0.10912302
212	0xbe04975a	-0.12948361
213	0x3e94d88b	0.2907146
214	0xbe096438	-0.13417137
215	0x3e759574	0.23982793
216	0xbe2de479	-0.16981687
217	0x3dd61f2e	0.10455166
218	0x3d969215	0.07352082
219	0xbe5a382e	-0.21310493
220	0xbd45e2bf	-0.048311945
221	0xbcaa3afd	-0.02078008
222	0xbdccb217	-0.099949054
223	0x3deaa12f	0.114565246
224	0xbda4cab4	-0.08046475
225	0xbe365b87	-0.17808352
226	0xbe94fd53	-0.2909952
227	0xbe250ece	-0.16118929
228	0xbd3269ed	-0.04355805
229	0x3ba33da7	0.0049817148
230	0x3d5a2531	0.053258125
231	0xbd84475f	-0.064589255
232	0x3db0adb2	0.0862688
233	0x3e241857	0.1602491
234	0x3d3cc476	0.046085797
235	0xbcaede30	-0.021346182
236	0x3db36906	0.08760266
237	0x3e1b5606	0.15169534
238	0xbe9b29cc	-0.30305326
239	0xbeb7c1b2	-0.35889965
240	0xbe74250a	-0.23842254
241	0x3d4f6a53	0.050638508
242	0xbe320d51	-0.17387892
243	0x3da47785	0.08030609
244	0xbdce505a	-0.100739196
245	0xbe317f3f	-0.17333697
246	0x3d6007a2	0.05469478
247	0x3dfe2fcc	0.1241146
248	0xbdc99161	-0.09842182
249	0x3e3f5c44	0.1868754
250	0x3ed76d98	0.420758
251	0xbe743507	-0.23848353
252	0x3d795aba	0.06087754
253	0xbe44b4dd	-0.19209619
254	0xbebbac88	-0.36655068
255	0xbe46ed22	-0.19426396

hidden_layers.0.bias f4 [50]
0	0x3c92922c	0.017891966
1	0x3d28c95f	0.041207667
2	0xbcdc1eb6	-0.026870113
3	0xbd94db5a	-0.072684005
4	0x3d5d734f	0.054065045
5	0xbdfb7b0d	-0.122793294
6	0x3d987f6c	0.07446179
7	0xbd951224	-0.07278851
8	0xbc8d6a8a	-0.017262716
9	0x3c60babc	0.013716396
10	0x3d298693	0.041388106
11	0xbd84f791	-0.06492532
12	0x3c8f48c9	0.017490761
13	0x3d835501	0.064126976
14	0x3da83242	0.08212711
15	0xbda3c9b2	-0.07997455
16	0xbd807c6d	-0.06273732
17	0xbcd9622c	-0.02653607
18	0xbc332984	-0.010935191
19	0xbd905eea	-0.070493534
20	0xbd5cc628	-0.053899914
21	0xbd8c4df2	-0.068508044
22	0x3d172ab1	0.036905948
23	0x3cdc8d77	0.026922924
24	0xbb47d2f1	-0.003049072
25	0xbd29d903	-0.041466724
26	0xbca2c891	-0.019871028
27	0x3cfd52ea	0.030923326
28	0x3cac61fc	0.021042816
29	0x3d91b6f8	0.07114977
30	0x3d4eb176	0.05046221
31	0x3d479ab1	0.04873151
32	0x3cfab076	0.030601721
33	0xbd716e4b	-0.058943074
34	0xbd391a07	-0.045190837
35	0xbcb6c5de	-0.022311147
36	0xbc9c6874	-0.019092776
37	0x3dc9bb5e	0.098501906
38	0x3def5fd9	0.11688203
39	0xb9a29e30	-0.00031016907
40	0x3c80b8e7	0.015713168
41	0x3d91c754	0.07118097
42	0xbc6f0e64	-0.014590833
43	0x3d8cf1b9	0.068820424
44	0xbcfc10e3	-0.030769771
45	0x3cf6d011	0.03012851
46	0x3ce6d5be	0.028178092
47	0xbd46e4cd	-0.048558045
48	0xbd673673	-0.05644841
49	0xbdb6321b	-0.088962756

hidden_layers.1.weight f4 [50, 50]
0	0xbd3197ea	-0.043357767
1	0x3eb81757	0.35955307
2	0xbe60fe90	-0.21972108
3	0x3e860d26	0.26181906
4	0x3db621e6	0.08893184
5	0xbe97d825	-0.29657093
6	0xbeb63344	-0.35585988
7	0x3d94e304	0.07269862
8	0xbe3d0c0b	-0.18461625
9	0x3e487f31	0.1957977
10	0xbd8028f7	-0.062578134
11	0x3f0c0e2a	0.5470911
12	0x3e524373	0.20533542
13	0xbe062863	-0.13101344
14	0x3db81d9f	0.08990025
15	0x3e14ddb5	0.145377
16	0x3e03fccd	0.12889405
17	0xbd62e469	-0.05539361
18	0xbefd440c	-0.49465978
19	0x3dee9ca5	0.11650971
20	0x3e84b460	0.25918865
21	0xbebecf37	-0.37267467
22	0x3eb63041	0.3558369
23	0xbe8eaee0	-0.27867794
24	0xbe2a79b9	-0.16647996
25	0xbdd7fb06	-0.10545926
26	0x3e44d8b7	0.19223295
27	0x3e56140f	0.20906089
28	0x3df20b0c	0.11818513
29	0xbda579cf	-0.08079874
30	0x3d3e8195	0.046510298
31	0xbe6757fc	-0.22592157
32	0xbed3e5ac	-0.41386163
33	0x3a4c1dca	0.00077864213
34	0x3e8d1c60	0.2756071
35	0xbed816bb	-0.42204842
36	0x3d4bcd1f	0.049756166
37	0xbe0c34eb	-0.13692062
38	0x3e030b33	0.12797241
39	0xbb803dc9	-0.0039136154
40	0x3e1c69ff	0.1527481
41	0xbd045c29	-0.032314453
42	0xbe8a5c59	-0.2702358
43	0xbd07e905	-0.03318121
44	0xbe02fda6	-0.12792072
45	0x3de47617	0.11155336
46	0x3ddc20e7	0.10748463
47	0xbe47f9c7	-0.19528876
48	0xbdf80e4c	-0.12112102
49	0x3d03e3db	0.03219972
50	0x3d3168bf	0.043312784
51	0x3d9b3ae4	0.07579592
52	0xbea92baf	-0.3304114
53	0xbeb90fc5	-0.36144844
54	0x3efab935	0.48969427
55	0xbda66d7e	-0.08126353
56	0x3e778919	0.24173392
57	0xbe02cc75	-0.12773307
58	0xbe1e30ba	-0.15448275
59	0xbdf749b7	-0.12074607
60	0xbe6b0cea	-0.22954145
61	0xbdc38a56	-0.0954787
62	0x3e8a82ac	0.2705282
63	0x3e80b3b2	0.25137097
64	0xbc8097a8	-0.015697315
65	0xbe08a015	-0.13342316
66	0x3d2076d2	0.039175816
67	0x3d6a0097	0.05712947
68	0x3ecdcda8	0.40195966
69	0x3d770023	0.060302865
70	0x3d8517aa	0.06498654
71	0xbe8a8085	-0.27051178
72	0x3d38668a	0.045019664
73	0x3e629f3e	0.22131059
74	0xbdde22e7	-0.10846501
75	0xbea4fecf	-0.32225654
76	0xbda8fb60	-0.08251071
77	0x3e1a43ae	0.1506488
78	0x3ed54e35	0.4166123
79	0xbe061e71	-0.1309755
80	0x3e933351	0.2875009
81	0x3d75a13c	0.05996822
82	0xbe96c8c9	-0.29450062
83	0xbe413566	-0.18868026
84	0xbeeeefda	-0.46667367
85	0x3e6b0934	0.2295273
86	0xbe89744e	-0.26846546
87	0xbdd5f4cc	-0.10447082
88	0xbe43bbb2	-0.19114569
89	0x3e942f62	0.289424
90	0x3e21236c	0.15736169
91	0xbd964239	-0.0733685
92	0x3e3074b5	0.1723202
93	0xbea77504	-0.32706463
94	0x3e6488cf	0.22317813
95	0x3e621c7f	0.22081183
96	0xbe692bba	-0.22770587
97	0x3dba7aab	0.09105428
98	0x3ec42a67	0.383136
99	0xbd322ad0	-0.04349786
100	0xbe818b88	-0.25301766
101	0xbcef1018	-0.029182479
102	0x3e30aa3f	0.17252444
103	0xbd2861f1	-0.04110903
104	0xbd61d044	-0.05513026
105	0xbdab2882	-0.083573356
106	0xbe134e27	-0.14385282
107	0xbe3089a6	-0.17240009
108	0x3eb1f9c3	0.34760866
109	0xbdb77d3f	-0.08959436
110	0xbe3e2013	-0.18566923
111	0x3c68c98a	0.014208207
112	0xbeaa1fc0	-0.33227348
113	0x3eefd482	0.46841818
114	0xbe37ec33	-0.17961197
115	0xbe541e43	-0.20714669
116	0x3d64d80d	0.055870105
117	0xbdd76e5c	-0.10519096
118	0xbd7c300e	-0.061569266
119	0xbdd82a4e	-0.10554944
120	0xbe7d5780	-0.2474041
121	0x3e6d0bda	0.23149052
122	0xbdc0b979	-0.09410376
123	0x3f07a91e	0.5299243
124	0xbe459052	-0.19293335
125	0x3d906d81	0.07052136
126	0xbde91c4c	-0.1138235
127	0xbe105595	-0.14095147
128	0x3d0db5d4	0.034597233
129	0x3e973103	0.2952958
130	0xbd28d51a	-0.041218854
131	0x3e4ebcb0	0.20189166
132	0xbe60b53b	-0.21944134
133	0x3e1f0b02	0.15531543
134	0xbd86d54f	-0.06583654
135	0xbdb1deb6	-0.08685057
136	0xbdbf8c66	-0.09352951
137	0xbe5b902d	-0.21441717
138	0xbe7b85a6	-0.24562702
139	0x3e8e49d7	0.2779071
140	0x3cde4e6f	0.02713701
141	0x3b2a0912	0.0025945348
142	0xbda373eb	-0.07981094
143	0xbe2a8178	-0.16650951
144	0xbb9f7e39	-0.004867342
145	0xbe63ca9d	-0.2224526
146	0x3dcdff4b	0.10058459
147	0x3ded2d47	0.115809016
148	0x3c29f05c	0.010372248
149	0x3d86e8ca	0.0658737
150	0xbe5bcf54	-0.21465808
151	0x3e3ee77d	0.18642993
152	0xbeb4270b	-0.35186037
153	0x3e4302f5	0.19044097
154	0x3d2abc92	0.04168374
155	0x3d16f943	0.03685881
156	0xbd845b18	-0.06462687
157	0xbe759c82	-0.23985484
158	0x3e4b3434	0.19844133
159	0x3e508f10	0.20367074
160	0x3ea19b48	0.31563783
161	0xbda5067f	-0.0805788
162	0x3e9991a1	0.2999392
163	0xbdda8137	-0.10669177
164	0x3dbd341c	0.09238455
165	0x3c5aeebe	0.013362585
166	0xbc8352b4	-0.016030647
167	0x3d0db23f	0.034593817
168	0xbe74ff99	-0.23925628
169	0xbd9999e7	-0.07500058
170	0x3e1bc1ba	0.1521062
171	0xbbd60775	-0.0065316507
172	0xbe0c2940	-0.1368761
173	0x3c97a2b7	0.018510206
174	0xbdc793d9	-0.097449966
175	0x3d8268c0	0.06367636
176	0xbd379b55	-0.04482587
177	0x3dde3ca8	0.10851413
178	0xbe411dc3	-0.1885901
179	0x3d83d516	0.06437127
180	0xbea1860c	-0.31547582
181	0x3e95c2c8	0.2925017
182	0x3df8269b	0.121167384
183	0x3cca3fb0	0.024688572
184	0x3d17ea18	0.037088484
185	0xbd55c5bc	-0.052190527
186	0x3dda457c	0.10657784
187	0x3d2ab2e5	0.041674513
188	0xbc48dfad	-0.01226036
189	0x3e472e0d	0.1945116
190	0x3d95cac0	0.07314062
191	0x3e272664	0.16323239
192	0xbe2382af	-0.1596782
193	0xbd2495fb	-0.040182095
194	0xbc04b622	-0.0081000645
195	0x3f030e20	0.5119343
196	0xbe3ba273	-0.18323688
197	0xbbc54d29	-0.006021161
198	0x3cf98d41	0.030462863
199	0xbdec9591	-0.11551965
200	0xbcde3a79	-0.027127491
201	0x3df7372a	0.120710686
202	0xbd8ca5ab	-0.06867536
203	0x3dcf9a8f	0.101369016
204	0xbe2647c9	-0.16238321
205	0xbd4679ee	-0.048456125
206	0x3e45274b	0.1925327
207	0x3e197313	0.14985304
208	0x3e903e40	0.28172493
209	0xbde2c22e	-0.11072193
210	0x3e179ca4	0.14805847
211	0x3ea0df4e	0.31420368
212	0x3d2bf588	0.041982204
213	0xbdbfb193	-0.093600415
214	0xbe9a2e78	-0.30113578
215	0xbcd849d5	-0.026402393
216	0x3eac8306	0.33693713
217	0xbe2674c6	-0.16255483
218	0xbe31dc2d	-0.17369147
219	0xbe29f77e	-0.16598317
220	0x3d0a2ed4	0.033736065
221	0xbe5545ce	-0.2082741
222	0xbd8c7ed0	-0.06860125
223	0xbd724163	-0.05914439
224	0xbe0a42cc	-0.13502043
225	0x3d347d9e	0.04406511
226	0x3e9a646f	0.3015475
227	0x3e2fcbb3	0.17167549
228	0x3e3dea71	0.18546464
229	0xbe818d10	-0.25302935
230	0x3de7b177	0.113131456
231	0xbe84dc36	-0.25949258
232	0xbe075ab4	-0.13218194
233	0xbe062c97	-0.13102947
234	0x3c16fc62	0.009215446
235	0x3e4e40d4	0.20141917
236	0xbd401191	-0.046891753
237	0x3e8a9bd6	0.27072018
238	0x3e7db013	0.24774198
239	0x3dae50cf	0.08511507
240	0x3c1cace0	0.009562701
241	0x3d1ad327	0.037799027
242	0x3e50acbf	0.20378397
243	0x3d621172	0.05519242
244	0xbe8f27ef	-0.27960154
245	0x3e4db03b	0.20086758
246	0xbae17583	-0.0017201159
247	0x3e8de877	0.2771642
248	0xbc705348	-0.014668293
249	0xbdd1d4c2	-0.102456585
250	0xbd6c0f9a	-0.057632066
251	0xbe2cd4b3	-0.16878013
252	0x3db124d0	0.086495996
253	0xbe2b917f	-0.16754721
254	0x3de54dba	0.11196466
255	0x3e005e53	0.12535982

hidden_layers.1.bias f4 [50]
0	0xbd319aec	-0.043360636
1	0x3d7d11ef	0.06178468
2	0x3c42edba	0.011897499
3	0xbd4b479d	-0.049628843
4	0x3dbc592c	0.09196696
5	0xbd99f0b0	-0.075166106
6	0xbdd7465f	-0.10511469
7	0x3d473b15	0.04864033
8	0xbd4a280a	-0.04935459
9	0x3d6071e1	0.054796103
10	0xbcf42b99	-0.029805945
11	0x3d45de62	0.048307784
12	0xbd0e8384	-0.03479339
13	0x3a8ad26f	0.0010591279
14	0x3d8f9291	0.07010377
15	0x3d67c086	0.05658009
16	0x3d37b941	0.044854406
17	0x3d477d50	0.04870349
18	0x3d1c5740	0.038169146
19	0xbd9a03e7	-0.075202756
20	0x3ca762d6	0.02043287
21	0xbd6260ce	-0.0552681
22	0xbcce224d	-0.02516284
23	0xbced6061	-0.028976621
24	0xbde06b9b	-0.10958024
25	0x3d5bd156	0.053666435
26	0xbd35c6fe	-0.044379227
27	0xbd631061	-0.055435542
28	0xbd32199a	-0.043481447
29	0xbd03396e	-0.03203719
30	0x3d97ae83	0.07406332
31	0xbdc758fa	-0.09733768
32	0x3d47bc87	0.048763778
33	0x3db31545	0.08744291
34	0x3d55ec15	0.0522271
35	0xbdc48dd2	-0.095973626
36	0x3d0c390d	0.034234095
37	0xbcc053d8	-0.02347748
38	0x3da6be11	0.08141721
39	0xbd741919	-0.059594247
40	0x3da5980a	0.0808564
41	0xbba22aa7	-0.004948932
42	0xbcca76de	-0.024714883
43	0x3d428faf	0.04750031
44	0x3d992230	0.07477224
45	0xbda4be4f	-0.08044111
46	0xbd8025f0	-0.06257236
47	0xbd9103e2	-0.07080819
48	0x3caf66d6	0.02141134
49	0x3ca7e7e2	0.020496313

output_layer.weight f4 [2, 50]
0	0x3ddee971	0.10884369
1	0xbe3f5156	-0.18683371
2	0x3b75dc29	0.003751526
3	0x3de9e792	0.11421122
4	0xbe8546e5	-0.2603065
5	0x3dd89a87	0.10576349
6	0x3dec8cd4	0.11550298
7	0xbd8dfc06	-0.06932835
8	0x3da5a133	0.08087387
9	0xbddae29d	-0.10687754
10	0x3e875280	0.2643013
11	0xbdda9fcc	-0.1067501
12	0x3efa12d9	0.48842505
13	0x3c714666	0.014726257
14	0xbe0f275d	-0.1397986
15	0xbd8ed932	-0.069750205
16	0xbde352f1	-0.11099804
17	0xbe04b172	-0.12958315
18	0xbe3cff4d	-0.18456765
19	0x3de06e7e	0.10958575
20	0xbcf2d44b	-0.029642245
21	0x3e07d57f	0.13265036
22	0x3d37fe18	0.044920057
23	0x3de79f73	0.113097094
24	0x3ea123be	0.31472582
25	0xbce11710	-0.027476817
26	0x3dadf326	0.084936425
27	0x3e270e68	0.1631409
28	0x3d99d944	0.07512143
29	0x3ebee312	0.37282616
30	0xbe466229	-0.19373383
31	0x3ea4a6c5	0.32158485
32	0xbe7e200e	-0.24816915
33	0xbec41485	-0.38296905
34	0xbe35cb06	-0.17753229
35	0x3e3d23d3	0.18470697
36	0xbda1571f	-0.07877945
37	0x3e5dcfec	0.21661347
38	0xbe327d15	-0.17430528
39	0x3e6bfc40	0.23045444
40	0xbe37cdad	-0.17949553
41	0x3e07846a	0.13234106
42	0x3c7f8523	0.015595707
43	0x3ac3fa37	0.0014951889
44	0xbe43c34d	-0.1911747
45	0x3e2966d1	0.16543128
46	0x3e15c454	0.14625674
47	0x3de9b8cc	0.114122
48	0xbe0eb800	-0.13937378
49	0xbc032d33	-0.008006382
50	0x3ea405bf	0.32035634
51	0x3e7b6a90	0.24552369
52	0x3ea1624d	0.3152031
53	0xbdf14f0d	-0.11782656
54	0xbe21d29f	-0.15803002
55	0xbe4fe29e	-0.20301291
56	0xbf0043cc	-0.5010345
57	0x3e7b93ca	0.24568096
58	0xbbf77cbf	-0.0075527127
59	0xbd2e8ac2	-0.0426128
60	0xbd422b13	-0.04740436
61	0xbe7946e9	-0.24343456
62	0x3ea83371	0.32851747
63	0xbe1c4fa0	-0.1526475
64	0x3d2cc9d2	0.04218466
65	0xbd25a5eb	-0.040441435
66	0xbe86b2bb	-0.26308236
67	0xbdd51eca	-0.10406263
68	0xbe910fe0	-0.28332424
69	0xbece6e3d	-0.4031848
70	0xbcd0a5ed	-0.025469745
71	0x3e43b913	0.19113569
72	0x3e6a5f56	0.2288793
73	0x3e29f10c	0.16595858
74	0x3ea6dcab	0.3259023
75	0x3d43a533	0.047764968
76	0x3d7e5962	0.06209696
77	0x3da1b8a9	0.07896549
78	0x3dcf472f	0.10120999
79	0x3d812f12	0.06307806
80	0x3eb78a79	0.35847834
81	0x3e66dd22	0.22545293
82	0x3c6661ab	0.014061372
83	0x3d8facff	0.07015418
84	0x3e4c9633	0.19979171
85	0xbde753be	-0.112952694
86	0xbda728d1	-0.08162082
87	0xbd02986c	-0.031883642
88	0x3e3ef729	0.18648972
89	0xbe2d4aac	-0.16923016
90	0xbcfe3769	-0.031032281
91	0x3edb954b	0.4288734
92	0xbd71f779	-0.0590739
93	0x3e035bdb	0.12828009
94	0xbe1ed1f7	-0.15509783
95	0xbe94dcf7	-0.29074833
96	0x3c1d8439	0.009614044
97	0x3ce9f51c	0.02855926
98	0xbebc8057	-0.36816666
99	0xbe738608	-0.23781598

output_layer.bias f4 [2]
0	0xbe35902f	-0.17730783
1	0x3c59a64c	0.013284277

exp_avg f4 [50, 2]
0	0x3f02ceb9	0.51096684
1	0xbe657475	-0.22407706
2	0xbd699db7	-0.057035174
3	0xbe23bdc6	-0.15990362
4	0xbecfc599	-0.40580443
5	0x3e6eb1c9	0.23310007
6	0xbe62ccc6	-0.22148427
7	0x3e85eb47	0.26156065
8	0xbeb01001	-0.3438721
9	0xbe51fed0	-0.2050736
10	0x3ea13250	0.31483698
11	0xbebb5515	-0.3658835
12	0x3e05dd6a	0.13072744
13	0xbec6bcc3	-0.3881589
14	0x3f00844e	0.5020188
15	0x3e1e4fb9	0.154601
16	0xbe122847	-0.14273177
17	0xbe15f0a8	-0.14642584
18	0xbf0334bb	-0.51252335
19	0x3e362ef9	0.17791356
20	0x3d2e903b	0.042618018
21	0x3f19b236	0.60037553
22	0x3e50c0ac	0.20385998
23	0xbd9c6ec9	-0.07638318
24	0x3e7ca97d	0.2467403
25	0x3e8e059f	0.27738664
26	0xbea05332	-0.31313473
27	0x3e8b66fa	0.27227002
28	0x3eae07ed	0.33990422
29	0xbe7b42f5	-0.24537261
30	0x3e0bb3e2	0.13642839
31	0x3dd74025	0.105102815
32	0x3ea9cbee	0.33163399
33	0x3e2ad1dc	0.16681617
34	0x3d7ca666	0.061682127
35	0xbea39d6a	-0.31956035
36	0x3f059aec	0.5218952
37	0x3c4485b3	0.011994767
38	0x3e668cd6	0.22514662
39	0xbe02bbfb	-0.12767021
40	0xbd5a8e2f	-0.053358253
41	0xbdaaed88	-0.08346087
42	0x3de06392	0.109564915
43	0x3cde4b90	0.02713564
44	0xbee41858	-0.44549823
45	0x3df78a4b	0.12086924
46	0x3d1e2734	0.038611606
47	0x3d913e17	0.07091921
48	0xbddf11c8	-0.108920634
49	0xbe28fe17	-0.16503178
50	0xbddeed6e	-0.1088513
51	0xbda9ae43	-0.08285191
52	0xbcbfccb4	-0.02341304
53	0x3d9d7c74	0.07689753
54	0xbe1ad635	-0.15120776
55	0xbe678a41	-0.22611333
56	0xbd810f9c	-0.063018054
57	0xbdf070e0	-0.11740279
58	0x3d10b4be	0.03532862
59	0x3db7aec6	0.08968882
60	0x3ebd533c	0.36977565
61	0x3e331580	0.1748867
62	0x3df8aeb9	0.12142701
63	0xbc0b5451	-0.008503989
64	0xbb0a6696	-0.0021118275
65	0x3e1feefa	0.15618506
66	0x3ece1e01	0.40257266
67	0xbee55dce	-0.4479813
68	0x3d9aee6c	0.075650066
69	0xbd2f46a6	-0.042791985
70	0x3eb0f01f	0.34558198
71	0x3d8c8b8e	0.068625554
72	0x3d1a8a35	0.03772946
73	0xbd7ae4fc	-0.061253533
74	0xbda8bb67	-0.08238869
75	0x3e3bd808	0.18344128
76	0xbd9c92d0	-0.0764519
77	0x3d530fef	0.051528867
78	0x3ed71871	0.42010835
79	0x3e48ab9b	0.19596712
80	0x3d323315	0.043505747
81	0x3e736a5c	0.23771042
82	0x3e9963d4	0.29958975
83	0xbe79d808	-0.24398816
84	0xbeb6cb6a	-0.35702068
85	0xbe4028cf	-0.18765567
86	0xbddc1c54	-0.10747591
87	0x3c8a1957	0.016857786
88	0x3dcd6fd3	0.100310944
89	0xbe27479a	-0.16335908
90	0x3dabbc80	0.08385563
91	0x3eb23b6b	0.34810957
92	0xbddf4b16	-0.109029934
93	0x3e8c41e9	0.27394035
94	0xbe28357b	-0.16426651
95	0xbf0a5ad8	-0.54044867
96	0xbedab6ea	-0.42717677
97	0x3e8a4df9	0.27012613
98	0x3e0e2e43	0.13884835
99	0xbe9ad000	-0.30236816

exp_avg_sq f4 [50, 2]
0	0x3eb56c55	0.35434213
1	0x3e8eda52	0.2790094
2	0x4077981f	3.8686597
3	0x3ff88066	1.9414184
4	0x4033fcb1	2.812298
5	0x3fce5645	1.6120077
6	0x40f53645	7.6628747
7	0x3fa71352	1.3052771
8	0x418416a4	16.511055
9	0x40bce258	5.90263
10	0x410c455b	8.7669325
11	0x40bfc455	5.9927163
12	0x4028c212	2.636845
13	0x3f859296	1.043536
14	0x41141a60	9.256439
15	0x409b290d	4.848761
16	0x407f9e47	3.9940355
17	0x3fcaf0d2	1.5854743
18	0x3f0930de	0.5359019
19	0x3fab52c2	1.3384631
20	0x3eadc73a	0.3394106
21	0x404a4e3a	3.1610246
22	0x421d17fd	39.273426
23	0x41cbebee	25.4902
24	0x4023bd90	2.558445
25	0x40a7b74a	5.241124
26	0x41196d3f	9.589171
27	0x413c57de	11.771452
28	0x4019b43c	2.4016256
29	0x402e9e36	2.7284064
30	0x3f67f46a	0.9060732
31	0x40723b6d	3.784877
32	0x3fa4bf14	1.2870812
33	0x3f06b9a1	0.52627
34	0x3fe86745	1.8156515
35	0x40c4540b	6.135259
36	0x3f694a46	0.9112896
37	0x3f25f907	0.6483311
38	0x404ac76b	3.1684215
39	0x3f055e5b	0.520971
40	0x4221fc46	40.49636
41	0x41dc5b04	27.544441
42	0x3f90d947	1.1316308
43	0x3ee08a01	0.4385529
44	0x3fe6e368	1.8038149
45	0x40a17573	5.045587
46	0x3e5445eb	0.20729797
47	0x3fb04a64	1.3772702
48	0x41444fc0	12.26947
49	0x40da2304	6.8167744
50	0x3f9408ce	1.1565187
51	0x3f36930d	0.7131813
52	0x40cb84a0	6.3599396
53	0x40355f82	2.8339543
54	0x3eb99990	0.3624997
55	0x3e3e7511	0.18599345
56	0x3fef0b5f	1.8675345
57	0x40184733	2.3793457
58	0x3d301fa6	0.042998932
59	0x3dc2a15b	0.09503432
60	0x3fe263e2	1.7686732
61	0x4083bb99	4.11665
62	0x4006323b	2.0968158
63	0x3fbd614a	1.4795315
64	0x4047aef4	3.1200533
65	0x3fd330c7	1.6499261
66	0x410d4d72	8.831408
67	0x412f303d	10.949277
68	0x40e50211	7.1565022
69	0x40c0cc73	6.024957
70	0x402db9d4	2.714467
71	0x402d4b50	2.7077217
72	0x410cbece	8.796583
73	0x4029a159	2.6504729
74	0x409de1d4	4.933817
75	0x400bef41	2.186478
76	0x3e120916	0.14261279
77	0x3f6d7f69	0.9277254
78	0x40cacd67	6.3375735
79	0x40ba9c9f	5.831619
80	0x3f05ae6c	0.5221927
81	0x3f0a8b00	0.5411835
82	0x4017c755	2.3715413
83	0x40d1784e	6.5459356
84	0x425e7b3d	55.62035
85	0x417af92c	15.685833
86	0x40d973d8	6.795391
87	0x40858a17	4.1731067
88	0x3f1dca77	0.6163706
89	0x403e3c94	2.9724474
90	0x3f741732	0.95347893
91	0x3f95d9fb	1.1707147
92	0x3ffb64c8	1.9640131
93	0x4068bcc6	3.6365218
94	0x406e5ada	3.7242951
95	0x3fc826f3	1.5636886
96	0x3f52856f	0.82234854
97	0x3f272739	0.65294224
98	0x40b79a82	5.737611
99	0x40818d49	4.0484967

exp_avg f4 [50]
0	0xbb832ea2	-0.004003362
1	0xbf7d1140	-0.98854446
2	0x3d9f47b0	0.07777345
3	0x3f1a86f5	0.6036218
4	0x3f723789	0.9461599
5	0x3e6adcda	0.2293581
6	0xbe9ae3cc	-0.3025192
7	0x3e4d7426	0.20063838
8	0x3dea4b77	0.11440175
9	0xbffdef6f	-1.9838694
10	0xbacaf456	-0.0015484195
11	0xbf332b54	-0.6998799
12	0x3f4e3b61	0.80559355
13	0xbef5c95e	-0.48005193
14	0x3d64b258	0.055834144
15	0x3f65eef9	0.8981777
16	0x3db4a174	0.08819857
17	0x3db9566f	0.09049689
18	0xbf545d25	-0.8295463
19	0xbfa7a7c4	-1.3098073
20	0x3e8fbf4b	0.28075632
21	0x3caf883c	0.021427266
22	0xbf185d9d	-0.5951784
23	0x3f3ef98c	0.7459953
24	0x3fb335c2	1.400078
25	0xbf5c32b0	-0.86014843
26	0x3f353311	0.70781046
27	0x3f0844fe	0.53230274
28	0xbfbd0af1	-1.4768964
29	0xbd5da546	-0.054112695
30	0xbf5a93a1	-0.85381514
31	0x3f133f91	0.5751887
32	0xbf6dc536	-0.92879045
33	0xbe55bcec	-0.20872849
34	0x3f2c66b5	0.6734422
35	0xbeb89059	-0.3604763
36	0x3e5b2420	0.214005
37	0x3d01c3e4	0.031680956
38	0x3e1a70f4	0.1508215
39	0xbea34b7d	-0.3189353
40	0xbf354743	-0.7081186
41	0xbe403c77	-0.18773066
42	0xbf0c5afe	-0.54826343
43	0x3f6985dc	0.9121988
44	0xbea89c30	-0.32931662
45	0xbd950cbf	-0.07277822
46	0x3f1581b9	0.58401066
47	0xbed180e6	-0.40918654
48	0x3fc46b86	1.5345314
49	0xbe77e09c	-0.24206775

exp_avg_sq f4 [50]
0	0x40138f3c	2.3056173
1	0x4189cb7a	17.224354
2	0x41e3eede	28.491634
3	0x430b6e1e	139.43015
4	0x432cf3af	172.95189
5	0x4297e698	75.95038
6	0x42a58e43	82.777855
7	0x4345a65f	197.64989
8	0x41caa120	25.328674
9	0x40bae99c	5.841017
10	0x4206a29f	33.65881
11	0x438cca47	281.5803
12	0x42488586	50.130394
13	0x42328237	44.627163
14	0x42525836	52.586143
15	0x41d3ba42	26.465946
16	0x41d8c92f	27.098234
17	0x41d57c60	26.68573
18	0x40d47d2f	6.640281
19	0x4157fe98	13.499657
20	0x4401a37d	518.5545
21	0x40ec820c	7.390875
22	0x41ce1832	25.761814
23	0x418a7768	17.308304
24	0x424a660e	50.599663
25	0x414db445	12.856511
26	0x428ec971	71.39344
27	0x41d048a6	26.035473
28	0x422f391d	43.805775
29	0x409cd970	4.9015427
30	0x418973dc	17.181572
31	0x41161fb2	9.382738
32	0x41e75e74	28.92112
33	0x425505f9	53.255833
34	0x4232f8c1	44.742924
35	0x4125e98e	10.36952
36	0x41a9562e	21.16708
37	0x418339b6	16.40318
38	0x403a26bf	2.9086149
39	0x41750503	15.313724
40	0x3fc8c6b7	1.5685643
41	0x4219bc10	38.433655
42	0x438cb888	281.44165
43	0x42e364b5	113.69669
44	0x41019d71	8.100938
45	0x4190cefb	18.101065
46	0x41f6ac40	30.834106
47	0x4242dfbf	48.718502
48	0x4108efc2	8.558535
49	0x4226786f	41.61761

exp_avg f4 [50, 50]
0	0xbebb92ff	-0.36635587
1	0x3e52aeb5	0.20574458
2	0x3de118bf	0.10991048
3	0xbedac25f	-0.42726418
4	0x3e2b403f	0.16723727
5	0x3e61a3d3	0.2203515
6	0xbd2ba99e	-0.041909806
7	0x3d23b6b2	0.039969154
8	0x3e5c1f9e	0.21496436
9	0x3e73d8a5	0.23813112
10	0x3eb41f55	0.35180154
11	0x3d763504	0.060109153
12	0xbc03b9ff	-0.00803995
13	0xbc11b21b	-0.008892561
14	0xbd53a2d2	-0.05166895
15	0x3ddbc58d	0.10731039
16	0xbebd9998	-0.37031245
17	0x3d352bfc	0.0442314
18	0xbe095ca1	-0.13414241
19	0xbf0770e0	-0.5290661
20	0x3e83649c	0.25662696
21	0x3e38ed66	0.1805931
22	0xbe8a7fbb	-0.27050576
23	0x3f16c747	0.58897823
24	0xbe72ceda	-0.2371172
25	0xbf06beac	-0.5263469
26	0xbccde1c5	-0.02513207
27	0x3e84b398	0.2591827
28	0x3e106f6c	0.14105004
29	0xbf0a4581	-0.54012305
30	0x3efa709d	0.48914042
31	0x3e8330b4	0.25623095
32	0x3dd09f7c	0.10186669
33	0xbe242686	-0.1603032
34	0xbd77b16c	-0.060471937
35	0x3e9a68d7	0.3015811
36	0x3e168447	0.14698897
37	0xbe2769dc	-0.16348976
38	0xbee068df	-0.4383001
39	0xbc7cf0d2	-0.015438275
40	0x3a24b0b5	0.0006282435
41	0x3d79ee92	0.061018534
42	0x3e0e8c2a	0.13920656
43	0xbdd358b7	-0.103196554
44	0x3da52ccb	0.08065184
45	0x3e8dcd70	0.276958
46	0x3e161267	0.14655457
47	0x3e22d618	0.15901983
48	0xbec117da	-0.3771351
49	0x3cce7bde	0.025205549
50	0xbe11500e	-0.14190695
51	0xbe3af136	-0.18256077
52	0xbe3e729b	-0.18598406
53	0xbe001ca2	-0.12510923
54	0xbe31e164	-0.17371136
55	0xbd39f227	-0.04539695
56	0x3e1cebd1	0.15324332
57	0xbc213077	-0.009838215
58	0xbe4d1d82	-0.20030788
59	0x3d41dc05	0.047328968
60	0x3d6a620e	0.05722242
61	0xbd8c717e	-0.068575844
62	0x3d5cad05	0.05387594
63	0xbc96936b	-0.018380841
64	0xbd8e9591	-0.06962121
65	0xbe4a9126	-0.19781932
66	0x3d66e828	0.056373745
67	0xbd90a7cb	-0.07063254
68	0x3e1cb9a7	0.15305196
69	0xbd0a00cc	-0.033692166
70	0xbe93ee93	-0.28892955
71	0x3defafa4	0.11703423
72	0xbdd4ecee	-0.10396753
73	0x3ba792e8	0.005113948
74	0x3e547be7	0.2075039
75	0xbe4e9629	-0.20174469
76	0xbe2d7d18	-0.1694225
77	0x3e004968	0.12528002
78	0xbdd6a832	-0.104812995
79	0xbcbf5c67	-0.02335949
80	0x3e0fc77a	0.14040938
81	0x3d8da4d7	0.06916206
82	0x3e0204b8	0.12697113
83	0x3e1514b2	0.14558676
84	0x3dad97a6	0.0847619
85	0x3de054de	0.10953687
86	0xbe0a6db4	-0.13518411
87	0x3bac4fae	0.005258522
88	0xbddbb217	-0.10727327
89	0x3d86d915	0.06584374
90	0x3e15b61a	0.14620247
91	0x3db71c17	0.089409046
92	0xbdec16da	-0.11527796
93	0x3e0dbb77	0.13841043
94	0xbdbacadb	-0.09120723
95	0x3e0bf2de	0.13666865
96	0xbe24943f	-0.16072176
97	0x3d823aec	0.06358895
98	0x3e83b121	0.25721076
99	0xbcd7fa2e	-0.026364412
100	0xbdafb619	-0.08579654
101	0x3e8e0bb3	0.277433
102	0x3cf496b1	0.029857012
103	0xbdbf0587	-0.09327226
104	0x3dfd26e1	0.12360931
105	0x3e8e042b	0.27737555
106	0x3cc7c8ca	0.024387736
107	0x3d93f7a5	0.07224969
108	0x3e892d19	0.2679222
109	0xbdfd5bfc	-0.1237106
110	0x3d7ffda4	0.06249775
111	0x3db4d265	0.08829192
112	0x3dc7ff39	0.09765477
113	0xbdd24cb0	-0.10268533
114	0xbd9c0011	-0.076172
115	0x3d4211be	0.0473802
116	0xbe90acba	-0.2825678
117	0xbd45b6e0	-0.048270106
118	0xbe65eab1	-0.22452809
119	0xbe129952	-0.143163
120	0x3e363ca8	0.17796576
121	0x3db73f74	0.089476496
122	0xbde2640f	-0.11054241
123	0x3ddbe919	0.10737819
124	0xbe9362bb	-0.28786263
125	0xbd68fa9e	-0.056879632
126	0xbc4c0253	-0.012451726
127	0x3d65f349	0.056140218
128	0x3e81ba16	0.25337285
129	0xbe5b4aef	-0.21415304
130	0x3db6c04b	0.08923396
131	0x3e1865d8	0.148826
132	0x3da22dd4	0.07918897
133	0xbe6f84a5	-0.23390444
134	0xbdc07d7f	-0.093989365
135	0x3dac391a	0.08409329
136	0x3e4614cb	0.1934387
137	0xbe6e2712	-0.23257092
138	0xbe1a0795	-0.15041955
139	0xbe2bbe08	-0.1677171
140	0x3d342524	0.043980733
141	0x3df091b4	0.11746541
142	0x3e4920b3	0.1964138
143	0x3cfe61e5	0.03105254
144	0x3df51395	0.119666256
145	0x3d84d0f5	0.06485168
146	0x3d526342	0.05136419
147	0x3e225304	0.1585198
148	0xbec3ebd9	-0.38265875
149	0x3e291f35	0.16515811
150	0xbf116df7	-0.5680842
151	0x3e06413b	0.13110821
152	0xbdffe8cf	-0.124955766
153	0xbf1b338e	-0.6062554
154	0x3d62d1df	0.05537593
155	0x3eba8c94	0.36435378
156	0x3e0440c0	0.12915325
157	0xbd784b90	-0.060618937
158	0xbdbcec58	-0.092247665
159	0x3eb000bf	0.3437557
160	0x3f129fb8	0.5727496
161	0x3de0deb8	0.1097998
162	0x3dd63c9f	0.10460781
163	0xbd960217	-0.07324617
164	0xbe898acc	-0.26863706
165	0xbe1ff053	-0.1561902
166	0xbeb33123	-0.34998426
167	0xbd3be8e3	-0.045876395
168	0x3d914a29	0.07094223
169	0xbf06d6a1	-0.5267125
170	0xbcd73431	-0.026270004
171	0x3eab28c7	0.33429548
172	0xbee8e4e3	-0.45487127
173	0x3f598058	0.8496146
174	0xbc987e01	-0.01861477
175	0xbf3388e7	-0.7013077
176	0xbe6094e2	-0.21931794
177	0x3ef4b139	0.4779146
178	0x3dba93d7	0.091102295
179	0xbf5efbe0	-0.8710308
180	0x3f2e42c6	0.6807064
181	0x3ee83929	0.4535611
182	0x3e8fc79b	0.28081974
183	0xbe3d7e3e	-0.18505189
184	0xbe038ed1	-0.12847449
185	0x3ef7a278	0.4836614
186	0x3e1a496a	0.15067068
187	0xbea793f5	-0.3273007
188	0xbf2e7a8f	-0.6815576
189	0xbe0701d1	-0.13184287
190	0x3e43a43d	0.1910562
191	0x3e862c76	0.26205796
192	0x3e016450	0.12635922
193	0x3e233156	0.15936789
194	0x3e0a24cc	0.134906
195	0x3eed0b73	0.46297798
196	0xbd092ec9	-0.033491883
197	0x3eac0bd3	0.3360277
198	0x3cfec825	0.031101296
199	0x3e5c6019	0.21521033
200	0x3df18628	0.117931664
201	0xbdbff6c9	-0.093732424
202	0xbcc6914b	-0.024239203
203	0x3e139791	0.14413287
204	0xbd5810f3	-0.05275054
205	0xbdc3d96c	-0.09562954
206	0xbd212588	-0.039342433
207	0xb9de96b6	-0.00042455428
208	0xbe21520c	-0.15753955
209	0x3de272f2	0.1105708
210	0xbc7afcb2	-0.015319036
211	0xbc8b5e14	-0.017012633
212	0xbd03eb98	-0.0322071
213	0x3cc4b680	0.024012804
214	0xbd4a7a12	-0.04943282
215	0xbd071f75	-0.032988984
216	0x3e0a5cd4	0.13511974
217	0x3ca4e0f9	0.020126807
218	0x3e024135	0.12720187
219	0x3e1f4c06	0.15556344
220	0xbcf29cb9	-0.029615747
221	0xbd9b5a16	-0.07585542
222	0x3dd7eb3c	0.10542914
223	0xbd3d3097	-0.046188917
224	0x3e0b576d	0.13607569
225	0x3e4bfd9d	0.19920965
226	0x3cffb943	0.03121627
227	0xbd5c989d	-0.05385648
228	0xbde225d6	-0.11042373
229	0x3dc04b8e	0.09389411
230	0xbe29de86	-0.16588792
231	0xbdcdcf5c	-0.10049316
232	0xbd957657	-0.07297962
233	0x3d522f7d	0.05131482
234	0x3d0289d4	0.031869724
235	0xbddec7f0	-0.10877979
236	0xbd0138e4	-0.031548396
237	0x3d954c37	0.072899275
238	0x3e069609	0.13143171
239	0x3d8cf9a0	0.0688355
240	0xbd5a170f	-0.053244647
241	0xbd8225d0	-0.063548684
242	0xbcd2859c	-0.025698476
243	0x3dc7ae2a	0.09750016
244	0xbcd6cc3c	-0.026220433
245	0xbddf1e50	-0.108944535
246	0xbd88c78e	-0.06678687
247	0xbda2789e	-0.07933162
248	0x3e643f67	0.22289811
249	0xbd399b4d	-0.045314122
250	0xbdee7475	-0.11643306
251	0xbe465e2c	-0.19371861
252	0xbdd8f0a1	-0.10592771
253	0xbdbb50b6	-0.09146254
254	0xbe14c158	-0.1452688
255	0xbd238a11	-0.039926592

exp_avg_sq f4 [50, 50]
0	0x41a93d58	21.154953
1	0x3fbc2f6a	1.470197
2	0x40de4069	6.9453626
3	0x41b23fcb	22.281149
4	0x3fa012fb	1.2505792
5	0x40fa8519	7.8287473
6	0x40c839d7	6.2570605
7	0x4085e3b3	4.1840453
8	0x405e41a9	3.4727576
9	0x41816d06	16.178234
10	0x41a580d3	20.687902
11	0x3e1a2275	0.15052207
12	0x40978112	4.7345057
13	0x403a9cb5	2.9158146
14	0x415a9c00	13.663086
15	0x40d04625	6.5085626
16	0x41421c0f	12.13185
17	0x40018bca	2.024157
18	0x404cf257	3.2022913
19	0x419f7bb2	19.935398
20	0x4020eec3	2.5145729
21	0x41898409	17.18947
22	0x41856635	16.674906
23	0x41cd5084	25.664314
24	0x4010aa7b	2.2604053
25	0x41d1e2c6	26.23573
26	0x412daaa9	10.854165
27	0x418e4faa	17.788898
28	0x408351b9	4.103726
29	0x41d6025e	26.751156
30	0x41bd93e5	23.697214
31	0x41525d99	13.147851
32	0x4123c38f	10.235244
33	0x3f39c7cd	0.72570497
34	0x3f2bfc9e	0.6718234
35	0x41637b53	14.217608
36	0x3f4e5938	0.80604887
37	0x4130cdb5	11.050221
38	0x41b985be	23.190304
39	0x3fcc07af	1.5939845
40	0x40e29e3b	7.0818152
41	0x40de88cf	6.9542003
42	0x3fdb0b7d	1.7112881
43	0x40991721	4.7840734
44	0x3e71f6c6	0.23629293
45	0x41649762	14.286959
46	0x403b2eee	2.9247394
47	0x413d33ff	11.825194
48	0x4092cecd	4.587744
49	0x3fab8296	1.3399227
50	0x3fa6cd98	1.3031492
51	0x3e66cee0	0.22539854
52	0x3f288411	0.6582652
53	0x3f87b9ec	1.0603614
54	0x3e91c185	0.28467956
55	0x3e50f598	0.20406187
56	0x3eaa40e2	0.33252627
57	0x3f016913	0.50550956
58	0x3f051ffc	0.5200193
59	0x3fb57a29	1.4177905
60	0x3fc8d237	1.5689152
61	0x3d32af61	0.043624286
62	0x3e9412fa	0.28920728
63	0x3e29676a	0.16543356
64	0x3fa2e020	1.2724648
65	0x3f1dcd89	0.61641747
66	0x3eadd98b	0.33955035
67	0x3de8e333	0.1137146
68	0x3f05ba4d	0.522374
69	0x3f1f4aea	0.62223685
70	0x3e70be9b	0.2351021
71	0x3f8ff0eb	1.1245397
72	0x3f40233e	0.75053775
73	0x3fec640e	1.8468034
74	0x3ec506ae	0.3848166
75	0x3fa6a9b1	1.3020536
76	0x3f45ae2a	0.7721888
77	0x3f9d295b	1.2278246
78	0x3ec3923c	0.38197505
79	0x3fefc05d	1.873058
80	0x3f915d22	1.1356547
81	0x3ee84bd1	0.45370343
82	0x3ef70eb6	0.4825341
83	0x3d8f95c5	0.07010988
84	0x3e4fe0df	0.20300625
85	0x3efc387c	0.49261844
86	0x3cce71c3	0.02520073
87	0x3ef853af	0.48501346
88	0x3fb82c20	1.4388466
89	0x3e8be562	0.27323443
90	0x3eb4b687	0.35295507
91	0x3e84a929	0.2591031
92	0x3d88a513	0.066721104
93	0x3f670b03	0.9025118
94	0x3d956772	0.07295121
95	0x3f0e52c6	0.5559505
96	0x3f117cb5	0.5683091
97	0x3efd8701	0.49517062
98	0x3f2cf50e	0.67561424
99	0x3d87bf10	0.06628239
100	0x3fc4e305	1.5381781
101	0x3fcc78fc	1.5974422
102	0x3f9d30c9	1.2280513
103	0x3fc1cd54	1.5140786
104	0x3f84bbd3	1.0369819
105	0x3fa96461	1.3233758
106	0x3ef4f8a9	0.47845963
107	0x3eb8555a	0.36002618
108	0x4040b0ad	3.0107834
109	0x4024d54b	2.5755184
110	0x4007e187	2.12314
111	0x3e2f0923	0.17093329
112	0x3e8599e8	0.26093984
113	0x3e24f785	0.16110046
114	0x3fea7c13	1.8319114
115	0x3fb3c1d6	1.4043529
116	0x400cd5fc	2.2005606
117	0x3e09239c	0.1339249
118	0x40215982	2.5210881
119	0x401c9c45	2.447038
120	0x3f9951a9	1.1978046
121	0x3f8da10e	1.1064775
122	0x3f919f86	1.1376808
123	0x402af8d6	2.6714377
124	0x401e0671	2.4691432
125	0x40048d05	2.0711071
126	0x3f835c2a	1.0262501
127	0x3fced1a5	1.6157728
128	0x400025f6	2.002317
129	0x40194647	2.3949144
130	0x3fdad34d	1.7095734
131	0x3f952e41	1.165474
132	0x3f2d83d9	0.6777931
133	0x3f3fa277	0.74857277
134	0x3ef32b09	0.4749377
135	0x3fa79f65	1.3095518
136	0x3ef0f331	0.4706054
137	0x3f604bbf	0.8761558
138	0x3fe420a1	1.7822458
139	0x3f8f72ff	1.1206969
140	0x3efbda65	0.4919006
141	0x3efc6da9	0.49302414
142	0x3eb95a2d	0.3620161
143	0x3fffffe5	1.9999968
144	0x3eaa01d6	0.33204526
145	0x3f8fbfc9	1.1230403
146	0x3fb36ccc	1.4017577
147	0x3f4637d1	0.7742892
148	0x40812bcc	4.0365963
149	0x3ed51c35	0.41623083
150	0x41aa4863	21.285345
151	0x400cbbf0	2.1989708
152	0x4123babc	10.233089
153	0x418664c5	16.799204
154	0x406f531c	3.7394476
155	0x402c7ede	2.6952434
156	0x40cd90c2	6.4239206
157	0x40975eb5	4.730311
158	0x4064e8c8	3.5767078
159	0x41b0eef8	22.116684
160	0x41c5fb38	24.747665
161	0x3ef1f01d	0.47253504
162	0x4046b4f3	3.1047943
163	0x3fe1a8e7	1.762967
164	0x4186c9c2	16.848515
165	0x412fca98	10.986961
166	0x40871ee4	4.222521
167	0x3fdfe86a	1.7492802
168	0x40544b0b	3.3170803
169	0x411ba20b	9.727061
170	0x40f1b29c	7.553053
171	0x416fb356	14.981283
172	0x412c0f66	10.753759
173	0x420314cf	32.77032
174	0x40514793	3.2699935
175	0x41d706d7	26.87834
176	0x4143712f	12.215133
177	0x41a2f126	20.367748
178	0x402be277	2.6856973
179	0x41fe4141	31.781862
180	0x41a02b74	20.021217
181	0x40e13c5f	7.0386195
182	0x4103a7bb	8.22845
183	0x3f97987a	1.1843407
184	0x3fd56088	1.6670084
185	0x411a2c75	9.635854
186	0x3f9f0322	1.2422831
187	0x40b1858e	5.547553
188	0x41c6ed20	24.865784
189	0x3fe65b1f	1.7996558
190	0x40cad0d1	6.3379903
191	0x4097d411	4.744637
192	0x3fd811f5	1.688048
193	0x410d1381	8.817262
194	0x3f51789e	0.8182467
195	0x412f88f2	10.970934
196	0x40c70699	6.2195554
197	0x40d902e1	6.7816014
198	0x4091f2af	4.5608745
199	0x3f18a99e	0.59633815
200	0x3e16ef45	0.14739712
201	0x3dce1d45	0.100641765
202	0x3cf62ffe	0.030052181
203	0x3e584b22	0.21122411
204	0x3d011bac	0.03152053
205	0x3e2621e4	0.16223866
206	0x3d200543	0.039067518
207	0x3c86f0c8	0.016472235
208	0x3e5c5da3	0.21520095
209	0x3da2be2c	0.07946429
210	0x3de82f9c	0.11337206
211	0x3bdbd62b	0.0067088804
212	0x3d04378c	0.032279536
213	0x3cb40fd5	0.021980206
214	0x3d83f71a	0.06443615
215	0x3cef490d	0.029209638
216	0x3e84e71e	0.25957578
217	0x3c47899d	0.012178806
218	0x3e41b4cd	0.18916626
219	0x3ea070fa	0.31336194
220	0x3cb0e3dd	0.021593029
221	0x3de2347b	0.11045166
222	0x3e282ede	0.16424128
223	0x3e2338d8	0.15939653
224	0x3e218148	0.15771973
225	0x3e8274f8	0.25479865
226	0x3d5e101a	0.054214574
227	0x3dd07452	0.10178436
228	0x3e352808	0.17691052
229	0x3e33d138	0.1756028
230	0x3e68901b	0.22711222
231	0x3e2e4e86	0.17022142
232	0x3dad56dd	0.084638335
233	0x3d35f17a	0.044419743
234	0x3c919d19	0.017775105
235	0x3e3e68b1	0.18594624
236	0x3ce31ec8	0.027724639
237	0x3df48c33	0.119408034
238	0x3e278c45	0.16362102
239	0x3dac7072	0.08419885
240	0x3d5332c5	0.05156209
241	0x3d951e3f	0.072811596
242	0x3cd86501	0.02641535
243	0x3d79bf35	0.060973365
244	0x3c741bd0	0.014899209
245	0x3e207dbe	0.15672967
246	0x3d1f3832	0.03887195
247	0x3df29fcc	0.11846885
248	0x3e94e6c2	0.29082304
249	0x3d2d5a7b	0.042322617
250	0x40e9bb12	7.3040857
251	0x3f379f1e	0.7172717
252	0x402b95b5	2.6810124
253	0x40e902dd	7.2815995
254	0x3f197503	0.5994417
255	0x40279885	2.618684

exp_avg f4 [50]
0	0xbf477d9d	-0.77926046
1	0x3f1acee4	0.6047194
2	0xbf3a7b61	-0.7284451
3	0x3e0e909b	0.1392235
4	0x3c5e4450	0.013566092
5	0x3f4fa9da	0.8111855
6	0xbf1d8859	-0.61536175
7	0x3e64bf63	0.22338633
8	0x3c1c6b01	0.009546996
9	0x3f06cd30	0.5265684
10	0xbef22bad	-0.47298947
11	0xbebac3a3	-0.36477384
12	0x3d02b5e5	0.03191175
13	0xbdb02c70	-0.08602226
14	0x3cd421af	0.025894968
15	0x3d935d5e	0.07195543
16	0xbf603c4d	-0.8759201
17	0x3e5d4721	0.21609165
18	0x3d5a2f8f	0.05326801
19	0xbe823136	-0.2542817
20	0xbdc25a70	-0.09489906
21	0x3f2fad1d	0.68623525
22	0x3f25b026	0.64721906
23	0xbc46558e	-0.012105359
24	0x3f2c1272	0.67215645
25	0x3f393f22	0.7236196
26	0x3e0b0ec2	0.13579848
27	0x3cb5b398	0.022180364
28	0xbe98cf5f	-0.29845712
29	0xbf09786f	-0.5369939
30	0xbda4c564	-0.08045462
31	0xbd04b0b6	-0.032395087
32	0x3f4538f2	0.77040017
33	0xbf959d36	-1.1688602
34	0xbe840326	-0.25783652
35	0xbe6aa66c	-0.22915047
36	0xbdaad222	-0.08340861
37	0xbf157df5	-0.5839532
38	0xbebe8e3e	-0.37217897
39	0x3ee1d79f	0.44109818
40	0x3ddc1379	0.107459016
41	0x3e0cf60a	0.13765731
42	0xbf38c24f	-0.7217149
43	0x3e99b7ac	0.30022943
44	0x3e29d006	0.16583261
45	0x3e829d48	0.2551062
46	0x3f94b99f	1.1619147
47	0xbe4ee16d	-0.2020318
48	0xbd99984c	-0.074997514
49	0x3e4ac041	0.19799902

exp_avg_sq f4 [50]
0	0x42ca74a6	101.22783
1	0x41318425	11.094762
2	0x413d5ad3	11.834674
3	0x4325f137	165.94225
4	0x3f0c1c39	0.54730564
5	0x4121fab7	10.12371
6	0x41c23b8c	24.279076
7	0x413d60b2	11.836107
8	0x405448ce	3.3169436
9	0x418d8cee	17.693813
10	0x412fb5be	10.981871
11	0x41c6abe6	24.833935
12	0x4189f0e1	17.242617
13	0x42193ba5	38.308247
14	0x43c765d5	398.79556
15	0x4302c568	130.77112
16	0x429d9f45	78.81107
17	0x40bc2b7e	5.880309
18	0x421aa908	38.66507
19	0x41906f5d	18.054377
20	0x4031cd9b	2.7781742
21	0x4205f107	33.48538
22	0x41350d68	11.315773
23	0x41c2531d	24.290583
24	0x42768001	61.625004
25	0x40a57766	5.170825
26	0x40be81a3	5.953325
27	0x417d6dd5	15.839314
28	0x40e5f76f	7.1864543
29	0x412a455c	10.641933
30	0x40bc34dc	5.8814526
31	0x413d796c	11.842144
32	0x42efb371	119.85047
33	0x420ce935	35.22774
34	0x40fd978e	7.9247503
35	0x41cbe9e5	25.489206
36	0x41ae4969	21.785845
37	0x415d813d	13.844052
38	0x42a7026b	83.50472
39	0x41de8137	27.813093
40	0x429c532a	78.16243
41	0x40afda86	5.495425
42	0x42143a5f	37.057003
43	0x42792022	62.28138
44	0x413eb791	11.919816
45	0x401ca1eb	2.4473827
46	0x42861833	67.047264
47	0x41494b1c	12.580837
48	0x436c29ec	236.16376
49	0x4168a07c	14.539181
