weights/checkpoint/example0007_warm_adam.pth (torch, 73855 bytes, 25 tensors)

a f4 [5]
0	0x3e4ccccd	0.2
1	0x3e4ccccd	0.2
2	0x3e4ccccd	0.2
3	0x3e4ccccd	0.2
4	0x3e4ccccd	0.2

input_layer.weight f4 [50, 2]
0	0xbf8e5d26	-1.1122177
1	0xc0030fb5	-2.0478337
2	0xbe6e4603	-0.23268895
3	0xbc2574bf	-0.010098635
4	0x3fc4dbbc	1.5379558
5	0xbd6ac1ce	-0.057313733
6	0xbff76d22	-1.933018
7	0x3d24d6a3	0.040243756
8	0xbff28139	-1.8945686
9	0xbf8f1a38	-1.1179876
10	0x3f534c74	0.82538533
11	0xbf3f113e	-0.74635684
12	0x4059cdfb	3.403197
13	0xbf5bc770	-0.8585119
14	0x3f9fc7fd	1.2482907
15	0xbf022988	-0.5084462
16	0xbd11925d	-0.035539974
17	0xbffa5f7a	-1.9560387
18	0x3f660eaa	0.89866126
19	0x3ec8adc8	0.39195085
20	0xbf9d1278	-1.2271261
21	0xbec82387	-0.39089605
22	0xc012cb2e	-2.293651
23	0x3e8d712e	0.27625412
24	0xbe9aeb58	-0.30257678
25	0x3f94134e	1.1568391
26	0xbdeda03b	-0.11602827
27	0xbf81c560	-1.0138359
28	0x400848d0	2.1294441
29	0xbeb6f98b	-0.3573726
30	0xbf83bd15	-1.0292078
31	0x3f587195	0.8454831
32	0xbf3486ea	-0.7051836
33	0x3f0f1a3d	0.5589941
34	0x3f3018a5	0.68787605
35	0xbf85cc9e	-1.0453069
36	0xbe8aa188	-0.27076364
37	0xbe2fec47	-0.17179976
38	0xbeeb5e22	-0.45970255
39	0x3fb8913a	1.441932
40	0xbfa89cf4	-1.3172898
41	0xbfc93539	-1.5719367
42	0x3f4cbfbb	0.7998006
43	0xbde6b720	-0.11265397
44	0xbf526fff	-0.8220214
45	0x3f827028	1.0190477
46	0xbf0040fb	-0.5009915
47	0x3eacff5f	0.33788583
48	0xbedcfa32	-0.43159634
49	0xbfe307da	-1.7736771
50	0xbe93257f	-0.28739545
51	0x3fd4d0b9	1.6626197
52	0x3e951dcd	0.291243
53	0x3f6bce4a	0.9211165
54	0xbf814073	-1.0097793
55	0xbf87083e	-1.054939
56	0xbf6ebd28	-0.9325738
57	0xbe647d93	-0.22313528
58	0x3f6660b4	0.8999131
59	0x3fa0dc85	1.2567297
60	0x3f3f8dba	0.7482563
61	0x3f899275	1.074782
62	0x3e796e43	0.24358468
63	0xbed78ca2	-0.42099482
64	0xbfb67007	-1.4252938
65	0x3e31fb4e	0.17381021
66	0x3e90428c	0.2817577
67	0x3e4b47f3	0.19851665
68	0x3f983a9f	1.189289
69	0x3e8b7cb6	0.27243584
70	0xbce97738	-0.02849923
71	0x3fe5aa7a	1.794265
72	0x3f669069	0.900641
73	0x3f907766	1.1286438
74	0xbeb6102d	-0.35559216
75	0x3c2399e4	0.009985421
76	0x3ec0d88a	0.37665206
77	0x3f9f2667	1.2433594
78	0xbf1b4488	-0.60651445
79	0x3eb2798c	0.34858358
80	0xbf680c98	-0.90644217
81	0xbfca17b5	-1.5788485
82	0xbd2ab102	-0.041672714
83	0xbe995aa7	-0.29951975
84	0xbe607d30	-0.21922755
85	0xbfa1431f	-1.2598609
86	0x3f4b4113	0.7939617
87	0x3f624808	0.8839116
88	0xbebdb661	-0.37053207
89	0x3fee756d	1.8629586
90	0x3f8449da	1.0335038
91	0xbf9cb4e8	-1.2242708
92	0x3f42106c	0.7580631
93	0xbf7f4c95	-0.9972623
94	0xbfbdf663	-1.4840816
95	0xbecb9b2f	-0.39766833
96	0xbea8c7dd	-0.32964984
97	0xbe26f941	-0.1630602
98	0x401c7673	2.4447296
99	0xbeb54be9	-0.35409477

input_layer.bias f4 [50]
0	0x3c64b6ad	0.013959569
1	0xbc831b70	-0.016004294
2	0xbd0da807	-0.03458407
3	0xbc2e942a	-0.010655442
4	0xbb38823e	-0.0028153802
5	0x3c7f4632	0.015580701
6	0x3d35efa2	0.044417985
7	0xbc036ee0	-0.00802204
8	0xbad73b3a	-0.0016420849
9	0xbcbf65ce	-0.023363974
10	0xbd8fadc6	-0.070155665
11	0xbc519d4e	-0.012793852
12	0x3ad1de57	0.0016011697
13	0xba77eefb	-0.0009457913
14	0x3d0b0f0e	0.033949904
15	0xbcabc9cf	-0.020970253
16	0xbc1f9705	-0.009740596
17	0xba8635c7	-0.0010239416
18	0xbcb620de	-0.02223247
19	0xbc6e01c7	-0.014526791
20	0xbcb1d774	-0.021709181
21	0x3c3ac680	0.011399865
22	0xbb21473a	-0.0024609105
23	0xbc1637d8	-0.009168588
24	0x3cc50b6b	0.024053296
25	0x3bbcd2a5	0.0057624155
26	0xbc8794b3	-0.016550398
27	0x3a810a49	0.0009844984
28	0xbc9f561c	-0.01945024
29	0x3c329a17	0.010900996
30	0xbbbe7dd2	-0.005813339
31	0x3caa6cf3	0.020803904
32	0x3abb0826	0.0014269396
33	0x3c41fc82	0.011839988
34	0x3d0623dd	0.032749046
35	0x3c92e0be	0.017929431
36	0x3c7be492	0.01537432
37	0x3c4c6025	0.0124740945
38	0xbcf473c2	-0.029840354
39	0xbc2c4e87	-0.010516769
40	0xbcce02c7	-0.025147809
41	0xbb972cd3	-0.0046134978
42	0x3c33e124	0.010978971
43	0xbc7f7840	-0.015592635
44	0x3c90afc3	0.017661935
45	0xbb630685	-0.0034641337
46	0x3c950fda	0.018196035
47	0x3cf33c0b	0.029691717
48	0x3d5c924d	0.05385046
49	0xbb7c031c	-0.0038454002

hidden_layers.0.weight f4 [50, 50]
0	0x3df52ef8	0.11971849
1	0x3e299fa6	0.16564807
2	0x3d8cbc92	0.068719044
3	0x3da763bc	0.0817332
4	0xbd7eb84e	-0.062187485
5	0x3ea3c8b5	0.31989065
6	0xbdb6f4b3	-0.089333914
7	0xbc9d18ac	-0.019176804
8	0xbeb723ac	-0.35769403
9	0x3e57dd8b	0.21080606
10	0xbe4767e2	-0.19473222
11	0x3e9c235a	0.3049572
12	0xbec40146	-0.38282222
13	0xbd9aa22b	-0.07550462
14	0x3d2a61e6	0.04159727
15	0x3d8b8b49	0.06813676
16	0xbdf76033	-0.120788954
17	0xbdcae628	-0.0990718
18	0xbcab673f	-0.020923255
19	0xbdb5e1db	-0.08880969
20	0x3dde63d5	0.10858885
21	0xbe889169	-0.2667344
22	0xbe3d724d	-0.18500634
23	0xbd8e3206	-0.06943135
24	0xbe5e8f1c	-0.2173428
25	0x3e6a1fd5	0.22863705
26	0x3e66d593	0.2254241
27	0x3d28a1bd	0.04116987
28	0x3df1a296	0.11798589
29	0xbe501d5b	-0.20323698
30	0xbd8a8494	-0.067635685
31	0xbe9182b8	-0.28420043
32	0xbdf49b5d	-0.11943696
33	0xbeb8248f	-0.35965392
34	0xbe1d7985	-0.15378387
35	0x3ecdcdee	0.40196174
36	0xbdff260d	-0.124584295
37	0xbd0fabd2	-0.03507597
38	0xbc141fda	-0.009040797
39	0xbe39a5b7	-0.18129621
40	0x3a8c8652	0.0010721183
41	0xbc3557d6	-0.011068305
42	0x3e9b132f	0.30288073
43	0x3d9469ce	0.07246743
44	0x3cded63a	0.02720176
45	0xbda56e73	-0.08077707
46	0x3ed8b92d	0.42328778
47	0x3f2d5036	0.6770052
48	0xbcf76dc5	-0.03020371
49	0x3e077686	0.13228807
50	0xbe22cffd	-0.15899654
51	0x3e8d7f84	0.2763635
52	0xbb9930c8	-0.0046750046
53	0x3eaa77b8	0.33294463
54	0x3df66fa8	0.120330155
55	0xbd71f719	-0.05907354
56	0x3eca15cb	0.39469752
57	0xbe050a40	-0.12992191
58	0x3dcb0077	0.09912198
59	0xbd07b627	-0.0331327
60	0x3e032500	0.12807083
61	0xbdc2760e	-0.094951734
62	0x3d95c564	0.0731304
63	0x3d68f7e5	0.056877036
64	0x3e1d5170	0.15363097
65	0x3e627e30	0.22118449
66	0x3d32b9c2	0.043634184
67	0xbdead8ba	-0.114671186
68	0xbd207bee	-0.03918069
69	0xbe5adab3	-0.2137249
70	0x3d887fc3	0.066649936
71	0xbe27a691	-0.16372134
72	0xbdfaa775	-0.12238971
73	0x3eac9748	0.33709168
74	0xbdcb7cd0	-0.099359155
75	0xbde94ad4	-0.113912255
76	0x3dd8db11	0.105886586
77	0xbeaeb98b	-0.34125933
78	0x3daf50b7	0.08560317
79	0x3dd7248d	0.105050184
80	0xbe30de35	-0.17272265
81	0x3da2c38f	0.07947456
82	0xbe028433	-0.12745742
83	0x3e9bf246	0.30458277
84	0x3ea3656a	0.3191331
85	0x3d5d208e	0.053986125
86	0xbe876595	-0.26444688
87	0x3ce409c3	0.027836686
88	0xbdab9c60	-0.083794355
89	0xbdb67425	-0.089088716
90	0x3e41abac	0.18913144
91	0xbe22cd4a	-0.15898624
92	0x3e4cb1ad	0.19989653
93	0x3e9cc91b	0.3062218
94	0xbee4aa84	-0.44661343
95	0xbe316717	-0.17324482
96	0x3ed6a605	0.41923538
97	0x3e91e330	0.28493643
98	0x3e7889df	0.24271344
99	0xbdc106a8	-0.09425098
100	0x3ea38fea	0.31945735
101	0xbe8bdd80	-0.2731743
102	0x3e2f8169	0.1713921
103	0xbe2f945f	-0.17146443
104	0xbe96292a	-0.2932828
105	0xbe1a143e	-0.15046784
106	0xbea29a66	-0.31758422
107	0xbe9ae27f	-0.30250928
108	0x3d1da090	0.038483202
109	0xbe5a93d8	-0.2134546
110	0xbde0ba71	-0.10973061
111	0x3cceb756	0.025233906
112	0xbe55f736	-0.20895085
113	0x3db8ce83	0.09023764
114	0xbd95de8e	-0.073178396
115	0x3dbc109c	0.091828555
116	0xbe0a4139	-0.13501443
117	0x3e9f5894	0.31122267
118	0xbda3497c	-0.079730004
119	0x3d85aab9	0.065267034
120	0xbd69cf2b	-0.057082336
121	0xbd700f97	-0.058608618
122	0x3c74c83a	0.014940316
123	0xbefa160a	-0.4884494
124	0x3e2c3136	0.16815647
125	0x3efb837f	0.4912376
126	0xbed683c4	-0.41897404
127	0x3e05e97c	0.13077348
128	0xbcb22110	-0.021744281
129	0xbe903eb0	-0.28172827
130	0xbe12ad89	-0.14324011
131	0x3d28fae0	0.041254878
132	0xbe938f28	-0.28820157
133	0x3d7a2337	0.06106874
134	0xbe8983e0	-0.26858425
135	0x3d56d00c	0.052444503
136	0x3dd018dc	0.101609915
137	0xbe14e5b1	-0.14540745
138	0x3d3a34c8	0.045460492
139	0x3e0e9e26	0.13927516
140	0x3e1ac85b	0.15115492
141	0xbdf1251b	-0.117746554
142	0xbe8cd90c	-0.27509344
143	0x3e87efe4	0.2655021
144	0xbe81c2a6	-0.25343817
145	0xbc8bc298	-0.017060563
146	0xbd9f993d	-0.077929
147	0x3f0168c4	0.50550485
148	0x3ec5ad99	0.38609007
149	0xbea633ab	-0.32461295
150	0xbe34cc1c	-0.17655987
151	0x3c64ac5f	0.013957112
152	0x3e30e5d6	0.17275175
153	0x3e7f5b37	0.2493714
154	0xbe01088d	-0.12600918
155	0xbdeda235	-0.11603204
156	0xbcbfff6b	-0.023437222
157	0xbeb2bcba	-0.34909612
158	0xbe8e3bfb	-0.27780136
159	0x3d2ac183	0.041688453
160	0xbd3d725f	-0.04625165
161	0x3c6d41e8	0.014481045
162	0x3ea64a43	0.32478532
163	0x3e054293	0.13013677
164	0xbe24054c	-0.16017646
165	0x3eeca9df	0.4622335
166	0xbe128a45	-0.14310558
167	0xbceb98a3	-0.028759306
168	0xbe184e68	-0.1487366
169	0x3e1784ef	0.14796804
170	0x3df77e27	0.120846085
171	0xbdf7277b	-0.12068077
172	0x3d2e39f7	0.04253575
173	0x3b5c8ea1	0.003365435
174	0xbda8b28a	-0.082371786
175	0xbe0fd613	-0.14046507
176	0xbd801bfa	-0.06255336
177	0xbd93c6d1	-0.072156556
178	0x3d1ba92f	0.038003143
179	0x3cda64aa	0.026659328
180	0x3e32f421	0.1747594
181	0x3d287423	0.04112638
182	0x3e959682	0.2921639
183	0x3dfc8565	0.123301305
184	0xbddcd0f8	-0.10782045
185	0x3e50dfd0	0.20397878
186	0x3dac2652	0.084057465
187	0xbe540ad9	-0.20707263
188	0xbe202746	-0.15639982
189	0xbdd7c92a	-0.10536416
190	0x3d130b11	0.035899226
191	0x3cbc0ac2	0.022954348
192	0x3e371e85	0.17882736
193	0xbc29921b	-0.010349776
194	0xbe2d507d	-0.16925235
195	0xbdd2321c	-0.10263464
196	0xbdcb475e	-0.099257216
197	0x3d6a7ebf	0.05724978
198	0x3c8281cc	0.015931033
199	0x3ea9b9e8	0.33149648
200	0x3ea3b731	0.319757
201	0x3d2a9b0c	0.04165177
202	0xbcda2a60	-0.026631534
203	0xbdb79c1d	-0.08965323
204	0xbd365996	-0.04451903
205	0x3da575e5	0.08079127
206	0xbdd12a88	-0.1021319
207	0x3e3642d8	0.17798936
208	0xbeb66bc7	-0.35629103
209	0xbea55055	-0.3228785
210	0x3e599ad6	0.21250471
211	0xbdf1c15f	-0.11804461
212	0xbd69bbf0	-0.057063997
213	0x3c098cba	0.008395368
214	0xbe3c7bc9	-0.18406595
215	0xbe795d4b	-0.24351995
216	0x3e2773bf	0.16352747
217	0xbe995ea4	-0.29955018
218	0xbe8c729d	-0.27431193
219	0xbdab617e	-0.083682045
220	0xbe25f742	-0.16207603
221	0xbd2e672c	-0.04257886
222	0x3e062185	0.13098724
223	0xbeb92f28	-0.3616879
224	0x3ec5674a	0.38555366
225	0xbe1db5e2	-0.15401414
226	0x3de071a0	0.10959172
227	0x3d83c436	0.06433909
228	0x3cdd2e61	0.026999654
229	0x3c84bef3	0.016204333
230	0x3e198647	0.14992629
231	0xbe051ba1	-0.12998821
232	0x3e9983e9	0.29983452
233	0x3d9f172d	0.07768092
234	0x3d87b841	0.066269405
235	0xbd7394f8	-0.05946824
236	0xbd59c03a	-0.053161837
237	0xbe43e00f	-0.1912844
238	0x3e5e0dc6	0.21684942
239	0x3deec141	0.11657954
240	0xbdc532f3	-0.096288584
241	0x3e08fc2b	0.13377444
242	0xbe09b298	-0.13447034
243	0x3e558bc5	0.20854099
244	0xbdc9c2c9	-0.098516054
245	0x3e6bd01a	0.23028603
246	0xbe74770c	-0.23873538
247	0xbe225c4b	-0.1585552
248	0x3e877dad	0.2646307
249	0xbdef52bc	-0.11685702
250	0xbdadf1f7	-0.08493417
251	0x3e75e014	0.2401126
252	0x3d167a76	0.03673788
253	0xbe674714	-0.22585708
254	0x3e899a55	0.26875558
255	0x3d960f87	0.0732718

hidden_layers.0.bias f4 [50]
0	0xbb720196	-0.0036927215
1	0xbc2e5ab9	-0.010641747
2	0xbcebe790	-0.028796941
3	0x3d53f2d5	0.051745255
4	0x3c38c5c2	0.011277618
5	0x3b939e27	0.004504937
6	0x3cad1328	0.021127298
7	0x3ce36998	0.027760312
8	0x3c2ae82f	0.010431333
9	0x3bacff16	0.005279432
10	0xbc240e02	-0.010013105
11	0x3cdea300	0.027177334
12	0xbcae8cde	-0.021307405
13	0xbc71f6eb	-0.0147683425
14	0xbc0ea760	-0.0087068975
15	0x3c591d67	0.013251639
16	0xbbac1404	-0.0052514095
17	0xbca0187d	-0.019542927
18	0xbc890dc8	-0.016730204
19	0x3cca56cd	0.024699593
20	0x3c828efe	0.015937325
21	0x3c887942	0.016659383
22	0x3d4152c2	0.047198065
23	0x3c5a5e6c	0.013328176
24	0x3bb4f120	0.0055219084
25	0x3ca02df5	0.019553164
26	0x3c7563eb	0.014977436
27	0xbcb10f50	-0.021613747
28	0xbcfdf708	-0.031001583
29	0xbc299786	-0.010351067
30	0xbb5082b9	-0.0031816198
31	0xbc220b60	-0.009890407
32	0x3d16c0b9	0.03680489
33	0xbce9138a	-0.0284517
34	0x3c9a8153	0.018860495
35	0x3ca7a6cf	0.020465283
36	0x3c956ab1	0.018239351
37	0x3c043c38	0.008070998
38	0xbd137d6e	-0.03600829
39	0xbbce593a	-0.0062972577
40	0xbbbd190a	-0.005770807
41	0x3c121c09	0.008917817
42	0xbbb51ad6	-0.0055268807
43	0xbc6fe35b	-0.014641608
44	0x3a63d46d	0.00086910167
45	0x3ae0d739	0.0017153985
46	0x3c57f2b9	0.013180428
47	0xbb1884ca	-0.0023272508
48	0x3cfe688c	0.031055711
49	0xbc2091ae	-0.009800358

hidden_layers.1.weight f4 [50, 50]
0	0xbd5fe352	-0.05466015
1	0x3d1f62ac	0.03891246
2	0xbd13f298	-0.036120027
3	0xbde04026	-0.10949735
4	0x3e270e3f	0.16314028
5	0xbe4f9c57	-0.20274483
6	0xbc987868	-0.018612102
7	0xbdf84ea2	-0.12124373
8	0xbeb81be6	-0.35958785
9	0xbc768a14	-0.015047569
10	0xbe3ea9ea	-0.18619505
11	0x3d0aaaa4	0.03385414
12	0x3e2b4b7f	0.16728018
13	0xbc329bf7	-0.010901443
14	0x3ed86c8e	0.4227032
15	0xbf0d34b2	-0.5515853
16	0x3e4acdaa	0.19805017
17	0xbd2bc9e4	-0.041940585
18	0xbea0e52e	-0.3142485
19	0x3e9af398	0.30263972
20	0x3d650709	0.055914912
21	0x3e2b5bf9	0.16734304
22	0x3d3e15a1	0.046407346
23	0xbe4b6394	-0.19862205
24	0xbe3ee914	-0.186436
25	0xbe8ba8b8	-0.2727716
26	0xbc8a4686	-0.016879331
27	0x3d734e3f	0.059400793
28	0xbe3ae636	-0.18251881
29	0xbe708a9d	-0.23490377
30	0x3d31b631	0.043386642
31	0xbdef72a1	-0.116917856
32	0x3e403d59	0.18773402
33	0x3c67acdf	0.014140337
34	0xbe57c4cd	-0.21071167
35	0x3d55b6c5	0.052176256
36	0xbe42bdb2	-0.19017676
37	0x3e139dd5	0.14415677
38	0xbda3cb71	-0.07997788
39	0xbddc4a82	-0.10756399
40	0x3dbab0b7	0.09115737
41	0x3e5c0b38	0.21488655
42	0x3d894429	0.06702454
43	0xbe0db757	-0.1383947
44	0x3db423c3	0.087958835
45	0x3e824ee7	0.25450823
46	0x3edf41c8	0.43604875
47	0x3dc45ccc	0.09588012
48	0xbd9913be	-0.07474469
49	0xbf016289	-0.5054098
50	0xbe7f8760	-0.24953985
51	0xbd8ec3b9	-0.06970925
52	0x3d2ea7e5	0.042640585
53	0xbea661f1	-0.32496598
54	0xbcfee5e2	-0.031115476
55	0x3d87dae0	0.06633544
56	0x3e806465	0.25076595
57	0xbe4b8e85	-0.19878586
58	0xbe620f60	-0.22076178
59	0xbdaa09cf	-0.08302652
60	0xbdd96417	-0.10614794
61	0xbe1d3b87	-0.15354739
62	0x3a4a8a2c	0.00077262777
63	0xbe308584	-0.17238432
64	0x3e8eea96	0.2791335
65	0xbe4192ab	-0.18903606
66	0x3e0ee59c	0.13954777
67	0x3c83463b	0.0160247
68	0xbe6c8190	-0.23096299
69	0xbe019bc0	-0.1265707
70	0x3e3bd4c8	0.18342888
71	0xbeb66bab	-0.3562902
72	0xbdf53652	-0.119732514
73	0xbbc3c8fc	-0.005974887
74	0x3e1b1520	0.15144777
75	0xbe77b88e	-0.24191496
76	0x3d4acad1	0.049509827
77	0x3e10a130	0.14123988
78	0x3e58c2b9	0.21168031
79	0xbcc439a4	-0.023953266
80	0x3cb56da0	0.022147
81	0xbe458ade	-0.19291255
82	0x3e159e75	0.14611228
83	0xbd9e39a2	-0.07725836
84	0xbd93a002	-0.072082534
85	0xbccdec45	-0.025137076
86	0x3c9cdd56	0.01914851
87	0x3e54c1a0	0.20776987
88	0xbf0b1d0a	-0.54341185
89	0xbe9c7241	-0.3055592
90	0x3cb94a8f	0.02261856
91	0xbdb7d579	-0.089762636
92	0x3e7f4956	0.24930319
93	0xbe11f492	-0.14253452
94	0x3e9a006a	0.3007844
95	0xbdc2c50b	-0.09510239
96	0x3e5db61b	0.21651499
97	0xbd0f2a86	-0.034952663
98	0x3b87fce8	0.004150022
99	0xbe83bc06	-0.25729388
100	0x3dcfedc9	0.10152776
101	0xbe6ed57c	-0.23323625
102	0x3eab1fea	0.33422786
103	0xbd78b3c1	-0.0607183
104	0x3ea1fae6	0.31636733
105	0xbe44d32c	-0.1922118
106	0x3c211d2d	0.009833616
107	0x3c8ca61f	0.017169056
108	0x3f02085e	0.5079402
109	0x3d186baa	0.03721205
110	0xbeac7f66	-0.33690947
111	0xbd0eefe3	-0.034896743
112	0x3f0e4f8f	0.55590147
113	0x3c9b7d6a	0.0189807
114	0xbce8da55	-0.028424421
115	0xbe367e0d	-0.17821522
116	0x3e7e3827	0.24826108
117	0x3a89e564	0.0010520634
118	0xbe88d9eb	-0.26728758
119	0xbe98ffa5	-0.2988254
120	0xbeba13aa	-0.36343127
121	0xbe7da484	-0.24769789
122	0xbebfa880	-0.37433243
123	0x3e5dd247	0.21662246
124	0xbd3971d8	-0.045274585
125	0xbe1cbe53	-0.15306978
126	0xbe36f13d	-0.17865463
127	0x3dee32a8	0.11630756
128	0xbec3d802	-0.38250738
129	0xbc408bdc	-0.011752095
130	0xbe2d19c5	-0.16904362
131	0x3e296f18	0.16546285
132	0xbe427b84	-0.1899243
133	0x3ebca2d6	0.36842984
134	0x3bfd9df4	0.0077397767
135	0x3d607c7b	0.054806214
136	0x3e0c92a4	0.13727814
137	0x3db01eec	0.08599648
138	0x3da8662f	0.08222615
139	0x3e515e0f	0.20446037
140	0x3d719ebe	0.05898928
141	0x3eb9d822	0.3629771
142	0xbe677980	-0.22604942
143	0x3f074459	0.52838665
144	0xbe42aec5	-0.19011982
145	0x3e8eed86	0.2791559
146	0xbc888b80	-0.016668081
147	0x3eb3474c	0.35015333
148	0x3d1f2ab9	0.038859103
149	0x3eb9e82b	0.36309943
150	0xbe5b0c7f	-0.21391486
151	0x3e2fc376	0.17164406
152	0xbe85c6cc	-0.26128232
153	0x3e88c076	0.26709336
154	0x3dcd1525	0.100137986
155	0x3ecb2787	0.39678594
156	0x3d16fb94	0.036861017
157	0xbe34da6b	-0.17661445
158	0xbe8e3b4e	-0.2777962
159	0x3e365083	0.1780415
160	0xbe9153a9	-0.2838414
161	0x3e4d92e7	0.2007557
162	0x3d844ec7	0.06460338
163	0xbe0751e6	-0.13214836
164	0x3c240470	0.010010824
165	0xbd3ef865	-0.046623606
166	0xbcf8caaf	-0.030370085
167	0x3e6373e0	0.22212172
168	0xbf01223b	-0.50442857
169	0xbe09edb5	-0.13469584
170	0xbe9d3a66	-0.30708617
171	0xbe5cd785	-0.21566589
172	0x3ddf0af3	0.1089076
173	0x3dc15ff1	0.094421275
174	0xbd54542d	-0.05183809
175	0x3d5941a4	0.053041115
176	0x3e14250c	0.14467257
177	0xbc7c81a7	-0.015411771
178	0x3d7c3fb6	0.061584197
179	0x3dc39d94	0.0955154
180	0x3d912a77	0.07088178
181	0x3ef4c548	0.47806764
182	0xbec484c1	-0.38382533
183	0x3da5e19a	0.08099671
184	0x3cc48f2c	0.02399405
185	0xbe3e381e	-0.18576095
186	0xbea0188d	-0.3126873
187	0xbd896feb	-0.067108
188	0xbe04583e	-0.12924287
189	0x3d484be2	0.048900492
190	0xbec48002	-0.38378912
191	0xbdf26b69	-0.11836893
192	0xbdab61c0	-0.08368254
193	0x3c6e5d98	0.014548682
194	0xbe447d51	-0.1918843
195	0x3e5f429b	0.21802752
196	0x3eb84446	0.35989588
197	0x3ce6ac62	0.02815837
198	0xbdc1fb00	-0.094717026
199	0xb94a0460	-0.00019265851
200	0x3edb0d7e	0.4278373
201	0x3de5b141	0.11215449
202	0x3da297b1	0.07939089
203	0x3cc6d46b	0.02427121
204	0xbd6a678e	-0.057227664
205	0x3d1a73ea	0.0377082
206	0xbcc53913	-0.024075067
207	0x3dfd7fa4	0.12377861
208	0xbd7c48d3	-0.061592888
209	0x3c906494	0.017626084
210	0xbc9e88a0	-0.019352257
211	0x3dad748f	0.084694974
212	0x3e15b202	0.14618686
213	0x3ec04949	0.37555912
214	0xbd6cfd38	-0.057858676
215	0x3e7fab45	0.24967678
216	0xbd401704	-0.04689695
217	0xbd31f445	-0.043445844
218	0x3e88fc8a	0.26755172
219	0xbed8e898	-0.42364955
220	0xbcf99b6e	-0.030469622
221	0x3d4a4f70	0.049392164
222	0xbe93e245	-0.28883567
223	0xbe549ca0	-0.20762873
224	0xbd3af1ab	-0.04564063
225	0xbe10b1aa	-0.14130273
226	0x3eabda8b	0.33565173
227	0x3d196409	0.037448917
228	0xbc59a986	-0.013285046
229	0x3dff2caf	0.124596946
230	0x3be9f223	0.0071394606
231	0x3c6156a5	0.013753568
232	0xbda2c635	-0.07947961
233	0xbe5d4de9	-0.21611752
234	0xbcb03702	-0.021510605
235	0x3d0ed53e	0.034871332
236	0x3e584e3d	0.21123596
237	0x3de829fa	0.113361314
238	0x3e014346	0.12623319
239	0xbdc85df8	-0.09783548
240	0xbd9433d9	-0.07236452
241	0x3a165ef1	0.0005736193
242	0x3d836d33	0.064173125
243	0x3c8415d6	0.016123693
244	0xbd9a57d0	-0.0753628
245	0xbe09c26d	-0.13453074
246	0x3d7c56ed	0.061606336
247	0x3e16fd55	0.14745076
248	0x3ea6500f	0.32482955
249	0xbbc9e953	-0.0061618476
250	0xbd93a77e	-0.07209681
251	0x3aa90e70	0.001289798
252	0x3e024ac1	0.12723829
253	0x3d1d5e00	0.038419724
254	0x3e203194	0.15643913
255	0x3e2373de	0.15962169

hidden_layers.1.bias f4 [50]
0	0x3bde9dfc	0.0067937355
1	0xbc862ab0	-0.016377777
2	0x3c507c71	0.012724982
3	0x3c81c4f0	0.015840977
4	0xbc13b605	-0.009015565
5	0x3c105025	0.00880817
6	0x3c8bd8f1	0.01707122
7	0x3bb03842	0.0053778
8	0x3c20b295	0.009808202
9	0x3c072952	0.008249598
10	0xbc16031f	-0.009156018
11	0xbc832b1a	-0.016011763
12	0x3ce8e819	0.028430985
13	0xbc8fb1da	-0.01754086
14	0x3b6ca67a	0.003610997
15	0x3c094a3f	0.008379518
16	0xbc8cb630	-0.017176718
17	0xbbd654b7	-0.0065408605
18	0xbb58e6de	-0.0033096592
19	0xbbff4bd9	-0.007791024
20	0xbc9cdfd3	-0.019149696
21	0x3c0c2567	0.008553839
22	0xbc5504d9	-0.013001644
23	0xbc1deef1	-0.009639488
24	0x3c920cfe	0.01782846
25	0xbb2c45c9	-0.0026286712
26	0xba242d3f	-0.0006262846
27	0x3c3aa820	0.011392623
28	0x3adf1818	0.001702073
29	0x3bd10b18	0.0063794963
30	0x3b600133	0.0034180402
31	0x3c8ecea3	0.017432516
32	0xbc5c9d00	-0.013465166
33	0x3c067085	0.008205538
34	0xbccbcde0	-0.024878442
35	0x3bcf1542	0.006319673
36	0x3b8aa525	0.0042311125
37	0x3a84b448	0.0010124529
38	0xba84a475	-0.0010119813
39	0x3bb0744a	0.0053849565
40	0xbc890ef3	-0.016730761
41	0x3d2e0054	0.04248078
42	0xbcce4a6a	-0.025181968
43	0xbc0c07c4	-0.008546773
44	0xbc821001	-0.015876772
45	0x3bb94f65	0.0056552165
46	0x3a3c7cd9	0.00071902346
47	0x3c45b4f2	0.0120670665
48	0xba19d65c	-0.0005868429
49	0xbc0149a2	-0.007891091

output_layer.weight f4 [2, 50]
0	0x3dc6d663	0.0970886
1	0xbe04cabb	-0.1296796
2	0xbe8e5d81	-0.27805713
3	0xbe04884f	-0.12942623
4	0xbe311ee2	-0.17296937
5	0xbcde5b13	-0.027143037
6	0xbdf6d999	-0.12053222
7	0x3b09b861	0.002101444
8	0xbb5ffe52	-0.0034178686
9	0xbef2a46e	-0.47391075
10	0xbdf6351c	-0.120218486
11	0x3be00d7c	0.006837545
12	0xbd666a8e	-0.056253962
13	0x3e8d9d7c	0.27659214
14	0xbd34afb7	-0.044112887
15	0x3da28dc9	0.079371996
16	0x3c20625c	0.009789076
17	0xbc206d58	-0.009791695
18	0x3b532ef2	0.0032224027
19	0xbde464bb	-0.11152025
20	0x3f21e591	0.63240916
21	0xbd2f46bd	-0.04279207
22	0x3e064193	0.13110952
23	0x3ec604a4	0.38675416
24	0x3e50acc0	0.20378399
25	0xbc0b878b	-0.008516203
26	0x3e8500f5	0.25977293
27	0x3e2b0821	0.1670232
28	0x3c66a17e	0.014076589
29	0xbd1ab3f7	-0.037769284
30	0xbcdf7e30	-0.02728185
31	0x3c2229fd	0.009897706
32	0x3cc27b0d	0.023740316
33	0xbd43c0bd	-0.04779123
34	0x3de82a06	0.1133614
35	0xbe858bce	-0.26083225
36	0xbd73e606	-0.05954554
37	0xbe85f12e	-0.26160568
38	0xbe060655	-0.13088353
39	0x3d81f231	0.063450225
40	0x3cf5e1a8	0.030014828
41	0xbe9366be	-0.28789324
42	0x3e19a589	0.15004553
43	0x3cad3ea4	0.021148033
44	0x3e0e36d0	0.13888097
45	0x3ddf2206	0.10895161
46	0xbe2bf7d9	-0.16793765
47	0xbe139921	-0.14413883
48	0xbe33beee	-0.17553303
49	0x3d8785e6	0.06617336
50	0xbda54582	-0.08069898
51	0x3c97759e	0.018488701
52	0xbdee51b7	-0.116366796
53	0xbdb55492	-0.08854021
54	0x3d87309f	0.066010706
55	0xbc6b354b	-0.014355968
56	0xbebe0d73	-0.37119636
57	0xbed81a6c	-0.42207658
58	0x3e7c67ff	0.24649046
59	0x3e333fa0	0.1750474
60	0xbeb96674	-0.36210978
61	0xbd9e8b97	-0.077414684
62	0x3e0f7f2d	0.14013357
63	0xbd0aec88	-0.03391698
64	0x3ded9120	0.11599946
65	0x3ea0a08d	0.3137249
66	0xbdb6be14	-0.08922973
67	0x3df8ce3d	0.12148712
68	0x3e1ad9eb	0.15122192
69	0x3c3c7e55	0.011504729
70	0x3e9a4405	0.3013002
71	0xbe015826	-0.12631282
72	0x3cba13fb	0.022714606
73	0xbeba54ae	-0.3639273
74	0xbdc45dbf	-0.09588193
75	0x3e22560c	0.15853137
76	0xbe2d3ceb	-0.1691777
77	0x3ce8a197	0.028397365
78	0xbe18b6b5	-0.14913447
79	0xbe4226e3	-0.18960147
80	0xbe89e1cd	-0.26930085
81	0xbda7c3c8	-0.08191639
82	0xbd9a8aa3	-0.07545974
83	0x3d382f48	0.044966966
84	0x3d99c749	0.07508714
85	0x3f083506	0.5320591
86	0x3931847f	0.00016929394
87	0x3e6f6172	0.23377016
88	0xbd410422	-0.047123082
89	0x3e36f7b0	0.17867923
90	0xbd081ab2	-0.033228584
91	0xbd037451	-0.03209335
92	0x3db6f042	0.08932544
93	0xbe0d4ce5	-0.13798864
94	0xbe820013	-0.25390682
95	0x3e30bf7d	0.17260547
96	0xbc9030d5	-0.01760141
97	0x3e407669	0.1879517
98	0x3dfb6d6c	0.1227673
99	0xbe26572d	-0.16244192

output_layer.bias f4 [2]
0	0x3c8504f0	0.016237706
1	0x3bada56b	0.0052992604

exp_avg f4 [50, 2]
0	0x3dc33e02	0.095333114
1	0x3e0bc785	0.1365033
2	0xbe90bd2a	-0.2826932
3	0xbde906bc	-0.113782376
4	0x3d0f9117	0.035050478
5	0xbd6ceac1	-0.057841066
6	0xbd2f2c7c	-0.042767033
7	0x3d73b7cf	0.059501465
8	0xbd53de23	-0.051725518
9	0x3cf43c5d	0.02981394
10	0xbc843aa9	-0.016141253
11	0xbdd5fbb8	-0.10448402
12	0x3d159a5a	0.036524154
13	0x3d53998f	0.051660117
14	0xbda4ee86	-0.08053307
15	0x3b5f984f	0.0034117883
16	0x3be129b8	0.0068714283
17	0xbd4514fe	-0.048115723
18	0xbdd92c4d	-0.10604153
19	0x3cec91ca	0.028878111
20	0xbd482421	-0.04886258
21	0x3e0d1b2f	0.13779901
22	0x3d6ad439	0.057331298
23	0x3d779d29	0.060452614
24	0xbe305933	-0.17221527
25	0xbe0757d2	-0.13217095
26	0x3dfded1f	0.12398743
27	0x3dec65d2	0.11542858
28	0x3d0b7ce8	0.034054667
29	0x3c865d1a	0.016401816
30	0xbdbcea4a	-0.092243746
31	0xbd1147ac	-0.035468742
32	0x3e7a96f6	0.2447165
33	0x3e66a75c	0.2252478
34	0xbe89d181	-0.2691765
35	0xbe6add65	-0.22936018
36	0x3dce0379	0.10059256
37	0xbdb0c1e8	-0.08630735
38	0x3d83520a	0.06412132
39	0x3d5cccdc	0.053906307
40	0x3a2dd1d8	0.00066306954
41	0xbd8c7fd7	-0.06860321
42	0x3d2a4d82	0.041577823
43	0x3deb1b6d	0.114798404
44	0x3e1e303f	0.15448092
45	0xbe2aee53	-0.16692476
46	0xbd9c2fc5	-0.07626299
47	0xbcc38168	-0.023865417
48	0x3d93ec0f	0.07222759
49	0x3dfb3c00	0.122673035
50	0xbe2c0a43	-0.1680079
51	0x3d34296c	0.043984815
52	0x3dd7b8a1	0.10533262
53	0x3cd9c9c3	0.026585465
54	0x3ba322c7	0.004978511
55	0xbd9743e6	-0.073859975
56	0xbb4dfe31	-0.0031432027
57	0x3dede01f	0.11615013
58	0xbe26c28c	-0.16285151
59	0x3bfb3cbd	0.0076671527
60	0x3db25434	0.08707467
61	0x3e0ea2b0	0.13929248
62	0xbe90d58a	-0.28287917
63	0xbc45aec1	-0.01206559
64	0xbd015e36	-0.031583987
65	0x3e00f185	0.12592132
66	0x3edd8f2d	0.43273297
67	0x3daede53	0.08538499
68	0xbcb08a45	-0.021550307
69	0x3d6a5b8e	0.05721622
70	0xbd401d3e	-0.046902888
71	0x3e0690da	0.13141194
72	0x3e447a9f	0.19187401
73	0x3e3a0d1c	0.18169063
74	0x3e0e38f6	0.13888916
75	0xbc881043	-0.016609317
76	0x3cf0a897	0.029377265
77	0x3c3b0d48	0.011416741
78	0x3bf3360c	0.0074222144
79	0xbcc2d4e7	-0.02378316
80	0x3d446d55	0.04795583
81	0xbac82b81	-0.0015271754
82	0x3eba36d8	0.36369967
83	0x3d88aa9a	0.06673165
84	0xbe245301	-0.16047288
85	0xbd03c13f	-0.032166716
86	0x3dee815f	0.11645769
87	0xbe30b6e4	-0.17257267
88	0xbc1a05e4	-0.0094008185
89	0xbd7355f0	-0.05940813
90	0x3e1e3121	0.15448429
91	0xbd34bb95	-0.044124205
92	0xbdb23330	-0.087011695
93	0x3df508ff	0.119646065
94	0xbd649608	-0.055807143
95	0xbcf7497c	-0.030186407
96	0x3e4e33de	0.20136973
97	0x3c8a5c4e	0.016889717
98	0xbbe49d7c	-0.0069767814
99	0x3da3c876	0.07997219

exp_avg_sq f4 [50, 2]
0	0x40590e91	3.391514
1	0x3fb0e9ed	1.3821388
2	0x40df7641	6.9831853
3	0x40072b0b	2.1120021
4	0x40a2f7cf	5.09275
5	0x4020db9f	2.5134046
6	0x413a4752	11.642412
7	0x4052986e	3.2905536
8	0x41cc6918	25.551315
9	0x40d62f61	6.6932836
10	0x41b3d7c7	22.48036
11	0x418a6094	17.297157
12	0x40777c87	3.8669755
13	0x3fa69352	1.3013709
14	0x40e2940d	7.0805726
15	0x412f2ef3	10.948962
16	0x40815ac5	4.0423303
17	0x40209d2e	2.5095935
18	0x40d6da7c	6.7141705
19	0x411f4193	9.953509
20	0x402f4871	2.7387965
21	0x40fe8237	7.9533954
22	0x421d09ed	39.259693
23	0x41e2a121	28.328676
24	0x40e5799c	7.171095
25	0x420608e5	33.508686
26	0x41a72427	20.892653
27	0x41d38b9d	26.44317
28	0x4076c67b	3.8558643
29	0x402f2372	2.7365384
30	0x4144795d	12.27963
31	0x41786edb	15.527064
32	0x406d1955	3.7046711
33	0x3f9353b1	1.1509916
34	0x40e9d96c	7.3077908
35	0x41b7b170	22.96164
36	0x408e4b5c	4.446699
37	0x405b70a2	3.4287496
38	0x40a0ff6b	5.031179
39	0x3fc9bbab	1.5760397
40	0x42b69b5f	91.30346
41	0x422446ad	41.06902
42	0x4078f264	3.8897943
43	0x40054f42	2.0829625
44	0x415b7dc7	13.718207
45	0x4151af0b	13.105235
46	0x3eae4447	0.34036466
47	0x401b2a94	2.4244738
48	0x41681e38	14.507378
49	0x40d1ba5f	6.5540004
50	0x40a287d5	5.079081
51	0x3fd93803	1.6970218
52	0x41188879	9.5333185
53	0x409ab0c9	4.83408
54	0x410a8c7b	8.659297
55	0x403b96db	2.9310825
56	0x40c2048c	6.063055
57	0x41247190	10.277725
58	0x3f0a72aa	0.54081213
59	0x3ed2eb1c	0.41195
60	0x40989e89	4.7693524
61	0x417d6d49	15.839181
62	0x40edbe38	7.42947
63	0x409ab652	4.834756
64	0x407fe177	3.9981363
65	0x4063bb1c	3.5582952
66	0x41ac1095	21.508097
67	0x42125c0c	36.58989
68	0x4104b18b	8.293345
69	0x4140323c	12.012264
70	0x410e485d	8.892667
71	0x40b596e5	5.6746697
72	0x41a02814	20.01957
73	0x404497cd	3.0717652
74	0x40ab305f	5.3496547
75	0x40d3d2d4	6.619486
76	0x3f969e25	1.1767012
77	0x400b64d2	2.1780286
78	0x41199b0e	9.600355
79	0x40d92204	6.7854023
80	0x3fa3dee3	1.2802395
81	0x3fbd84ca	1.4806149
82	0x41441e39	12.257379
83	0x41d5c4b1	26.72104
84	0x4292aff6	73.34367
85	0x41952969	18.64522
86	0x41859833	16.699316
87	0x407e1d02	3.9705205
88	0x403289f2	2.7896695
89	0x40d9a9de	6.8019857
90	0x411e2a04	9.885258
91	0x40d9a953	6.8019195
92	0x4124899a	10.283594
93	0x40fba2f7	7.863643
94	0x40ad1ae5	5.409533
95	0x40b4a41c	5.645033
96	0x40297301	2.6476443
97	0x3ffda568	1.9816103
98	0x410a6d57	8.651694
99	0x408155f8	4.041744

exp_avg f4 [50]
0	0x3e776c88	0.24162495
1	0xbf9b4f06	-1.2133491
2	0xbe3de5a8	-0.18544638
3	0x3e70a78e	0.23501417
4	0xbf5214ac	-0.8206279
5	0x3e96bd60	0.29441357
6	0xbe23189e	-0.1592736
7	0xbf0de882	-0.55432904
8	0xbe86ee35	-0.26353613
9	0xbf2a59fc	-0.66543555
10	0x3d439a03	0.0477543
11	0xbf2d432c	-0.6768062
12	0xbfa8a910	-1.3176594
13	0x3f670ced	0.902541
14	0xbf114d0a	-0.5675818
15	0xbf563b10	-0.8368387
16	0x3fce7d26	1.6131942
17	0xbfc7d1a0	-1.5610847
18	0x3e0dae8a	0.13836113
19	0x3e489f62	0.1959205
20	0xbd9d3ea7	-0.076779656
21	0x3f8d64f5	1.1046435
22	0x3eb47c0c	0.3525089
23	0xbe3f3e06	-0.18676004
24	0x3eb6cae2	0.35701662
25	0xbf6c77a5	-0.92370063
26	0x3f0637b6	0.5242876
27	0xbec46e23	-0.38365278
28	0x3d9d92e9	0.076940365
29	0xbf6cd48e	-0.9251183
30	0x3e9628f3	0.29328117
31	0xbfaec375	-1.3653399
32	0x3fb63f92	1.423815
33	0x3fb8cc23	1.4437298
34	0xbda0cd72	-0.078516856
35	0xbf2ac2bf	-0.6670341
36	0x3f4c94a0	0.79914284
37	0x3f716338	0.9429202
38	0xbe55a944	-0.20865351
39	0xbed4d637	-0.41569683
40	0x3e844ec8	0.25841355
41	0x3f8de6a9	1.1086017
42	0xbf9e2c1f	-1.2357215
43	0x3f5569d0	0.8336458
44	0x3e48c402	0.19606021
45	0x3f754cf6	0.9582056
46	0xbeb8889a	-0.3604172
47	0xbe73bdcb	-0.23802869
48	0x3eebda05	0.46064773
49	0x3e92a615	0.28642336

exp_avg_sq f4 [50]
0	0x4145f418	12.372093
1	0x41d67a82	26.809818
2	0x4311681f	145.40672
3	0x436e224e	238.134
4	0x43b668b0	364.81787
5	0x43cd91b0	411.13818
6	0x42b40a44	90.02005
7	0x43015f53	129.37236
8	0x42437f0c	48.87407
9	0x42bda961	94.83082
10	0x42caee9b	101.46603
11	0x44416db6	773.71423
12	0x43b25a2d	356.7045
13	0x43a3daec	327.71033
14	0x42efc848	119.891174
15	0x433fce5a	191.80606
16	0x42885568	68.16681
17	0x4381a45a	259.284
18	0x42085d9c	34.091415
19	0x428e411b	71.12716
20	0x44bbb068	1501.5127
21	0x42408603	48.13087
22	0x4348480c	200.28143
23	0x4221dfc7	40.468533
24	0x43532d9c	211.17816
25	0x42527f7d	52.6245
26	0x438b36e1	278.42874
27	0x4208c0bc	34.188217
28	0x43333fab	179.2487
29	0x4102caa0	8.174469
30	0x43449fec	196.6247
31	0x42b301de	89.50365
32	0x42b3b740	89.85791
33	0x43dfdcf9	447.72635
34	0x435fbe2d	223.74287
35	0x425ddd26	55.465965
36	0x4267e0d5	57.969563
37	0x4282d8a3	65.42312
38	0x4227a457	41.91049
39	0x42a5a6ea	82.826004
40	0x415e224a	13.883371
41	0x43a0dcd0	321.7251
42	0x44683dec	928.9675
43	0x431a16b3	154.08867
44	0x426e7451	59.61359
45	0x429b2987	77.58111
46	0x42ddadaa	110.83919
47	0x42cd880f	102.76574
48	0x422f949e	43.895134
49	0x4328bf9f	168.74852

exp_avg f4 [50, 50]
0	0x3de1c7e7	0.110244565
1	0x3d78e047	0.060760763
2	0xbe115c98	-0.14195478
3	0x3e2c19c5	0.16806705
4	0x3e52378b	0.20529
5	0xbdd14040	-0.10217333
6	0xbdf76432	-0.120796576
7	0xbe0d0585	-0.13771637
8	0x3cf2dfe4	0.029647775
9	0xbe09450f	-0.1340525
10	0x3e693343	0.22773461
11	0x3e18308d	0.1486227
12	0x3b890f4e	0.0041827327
13	0x3d1faa7e	0.038980953
14	0xbe2e4f68	-0.17022479
15	0x3df50046	0.11962943
16	0x3dc89742	0.09794475
17	0xbd50c408	-0.0509682
18	0x3d98b9c6	0.074573085
19	0x3cc787af	0.024356691
20	0x3e273ef7	0.16332613
21	0xbe123134	-0.14276582
22	0x3d90a909	0.07063491
23	0x3db1f061	0.08688427
24	0x3d3a7feb	0.04553215
25	0xbbdaf6f0	-0.0066822693
26	0xbd444d19	-0.04792509
27	0x3e0ebc27	0.13938962
28	0x3e2d4ed8	0.16924608
29	0xbe01127d	-0.12604709
30	0xbdd942a4	-0.10608414
31	0xbd39231a	-0.04519949
32	0x3e2624de	0.16225001
33	0xbd912577	-0.07087224
34	0xbe49831d	-0.19678922
35	0xbd1c8119	-0.038209055
36	0xbe0bf3a8	-0.13667166
37	0x3d800ff0	0.0625304
38	0xbd2ab091	-0.041672293
39	0x3dd2d52f	0.10294568
40	0x3e039599	0.12850036
41	0x3c9ea2c2	0.019364718
42	0x3d271991	0.040795866
43	0xbde70faa	-0.112822846
44	0xbc0dac5e	-0.008647053
45	0xbd9b485c	-0.07582161
46	0xbd9c9c7f	-0.07647037
47	0x3e24c35a	0.16090146
48	0x3d0c0d8e	0.034192614
49	0xbe03ea97	-0.12882458
50	0xbd8fbe1d	-0.07018683
51	0xb9b0d544	-0.0003372823
52	0xbbc0502e	-0.005868933
53	0x3cd44be4	0.025915094
54	0xbcceed69	-0.02525969
55	0xbd1d90b8	-0.038468093
56	0xbd8f0c27	-0.0698474
57	0xbcf9dab2	-0.03049979
58	0xbdf0ff4e	-0.117674455
59	0x3cb9938d	0.022653366
60	0x3a53c21a	0.00080779346
61	0x3d337c7c	0.04381989
62	0x3d63d82a	0.055626072
63	0xbd08b3dd	-0.033374656
64	0xbd496e18	-0.04917726
65	0x3d5fc796	0.0546337
66	0x3c9f70ab	0.019462904
67	0xbd66fcf1	-0.056393567
68	0xba43f02d	-0.00074744486
69	0x3dbc67df	0.09199499
70	0xbd263318	-0.04057607
71	0x3985ac53	0.00025496128
72	0x3d721503	0.05910207
73	0x3b6131d9	0.0034361987
74	0xbdb2e063	-0.087342046
75	0x3dd694d1	0.10477603
76	0x3cf29adb	0.029614856
77	0xbd043256	-0.032274567
78	0xbc08674c	-0.008325409
79	0x3d14dba9	0.036342297
80	0x3d092ced	0.03349011
81	0xbbe280f1	-0.0069123437
82	0x3c7d274c	0.015451264
83	0x3b5dbff1	0.003383633
84	0x3b80a652	0.003926077
85	0x3dd3f715	0.103498615
86	0x3cf89a8b	0.03034713
87	0xbc1d769b	-0.009610797
88	0x3d53cdb3	0.051709842
89	0x3bbf647b	0.0058408356
90	0xbd3d2f6f	-0.046187814
91	0xbaaee288	-0.0013342658
92	0xbd57097d	-0.052499283
93	0x3cf639cc	0.030056857
94	0x3dfe3a9f	0.12413525
95	0xbdabc121	-0.08386446
96	0xbd6cc55f	-0.057805415
97	0xbc7537f8	-0.014966957
98	0xbca535b3	-0.020167207
99	0xbd3a3155	-0.045457203
100	0x3b3b5b8b	0.00285885
101	0xbc1b34d8	-0.009473048
102	0x3d17ad03	0.03703023
103	0xbd3ec318	-0.046572775
104	0xbd0538ed	-0.03252499
105	0x3d219a80	0.039453983
106	0x3d6a2126	0.05716052
107	0x3d2b62ee	0.041842394
108	0x3d0ad6c1	0.03389621
109	0x3c8de1b1	0.017319532
110	0xbd12809e	-0.03576719
111	0xbd52e04e	-0.051483445
112	0xbcf70c20	-0.030157149
113	0x3c6ba69a	0.014382983
114	0x3d5aa7a9	0.05338255
115	0xbd3d6e84	-0.046247974
116	0xbd04ce80	-0.032423496
117	0x3d1f5d5f	0.038907405
118	0xbc0af403	-0.0084810285
119	0xbd29e0a9	-0.04147402
120	0xbc65b403	-0.014019969
121	0x3ce3204e	0.027725365
122	0xbd2cf944	-0.042229906
123	0xbcbb5137	-0.022865875
124	0x3cacb501	0.021082403
125	0xbd1c8a13	-0.038217615
126	0xbc1542c8	-0.00911016
127	0xbc3f9efa	-0.011695618
128	0xbcd5f55a	-0.02611797
129	0x3bd0cb5a	0.0063718976
130	0x3b5df9f0	0.0033870898
131	0x3c8fd967	0.01755972
132	0xbd254547	-0.04034927
133	0x3beb164a	0.007174288
134	0x3d0640d2	0.03277666
135	0xbd006501	-0.031346325
136	0x3c18c14b	0.009323428
137	0xbc23988d	-0.009985101
138	0xbc660d01	-0.014041186
139	0xbcd795d7	-0.026316566
140	0xbb3e0a34	-0.002899778
141	0x3b55193b	0.003251626
142	0x3c8c421e	0.01712137
143	0x3be24aff	0.006905913
144	0xbd2d06db	-0.042242866
145	0x3d4a551a	0.049397565
146	0x3d2c9522	0.04213441
147	0xbcf8cad8	-0.030370161
148	0xba98ceea	-0.0011658345
149	0x3d5152b5	0.051104266
150	0x3d9276af	0.07151543
151	0x3cac5baa	0.021039803
152	0xbd7ffd28	-0.062497288
153	0x3da45beb	0.080253445
154	0x3db3bd6d	0.087763645
155	0xbd46a664	-0.048498526
156	0xbdb68da1	-0.08913732
157	0xbd730feb	-0.059341352
158	0x3c78278e	0.015146149
159	0xbd462bcd	-0.048381615
160	0x3db0993f	0.086229794
161	0x3da98dbb	0.08278986
162	0x3c2f6377	0.010704867
163	0x3c7877c3	0.015165272
164	0xbdb0226a	-0.08600314
165	0x3d6d96c3	0.058005106
166	0x3d2c6b13	0.0420943
167	0xbd0bb0cd	-0.034104157
168	0x3cd4a69a	0.025958348
169	0x3cb82ffa	0.022483815
170	0x3daf6df6	0.08565895
171	0xbd50cb7f	-0.05097532
172	0x3d2cf4e0	0.04222572
173	0x3d0719c7	0.032983568
174	0x3d0259f9	0.031824086
175	0x3ba66762	0.005078242
176	0xbca9c00f	-0.020721463
177	0x3d8421d4	0.06451765
178	0x3d7a2491	0.06107003
179	0xbd82e7a2	-0.06391837
180	0xbd521095	-0.051285345
181	0xbca0c2bf	-0.019624112
182	0x3d8add31	0.0678047
183	0xbcc3cbaf	-0.023900835
184	0xbd97b208	-0.07407004
185	0xbc77e9f4	-0.015131462
186	0xbd852257	-0.065006904
187	0x3ca05146	0.019570004
188	0xbcc63c47	-0.024198664
189	0x3d2087d2	0.03919203
190	0x3d902a7f	0.070393555
191	0x3bc3dc1b	0.0059771664
192	0x3ca4d5e7	0.020121528
193	0xbd4addef	-0.04952806
194	0x3bb4a956	0.0055133505
195	0xbd47c12c	-0.048768207
196	0xbd338f11	-0.04383761
197	0x3d86c407	0.06580358
198	0x3bd5d1de	0.0065252623
199	0xbda379d5	-0.07982222
200	0xbe5effbc	-0.21777242
201	0xbd9bad32	-0.07601394
202	0x3e47f738	0.195279
203	0xbe70eb6a	-0.23527303
204	0xbea525db	-0.32255444
205	0x3dbf1780	0.09330654
206	0x3e26c8cf	0.1628754
207	0x3e232b14	0.15934402
208	0xbddf766c	-0.10911259
209	0x3e4f07fa	0.20217887
210	0xbea05976	-0.31318253
211	0xbe5415a2	-0.20711377
212	0x3d618668	0.05505982
213	0xbdef0742	-0.11671306
214	0x3e66bcf1	0.22533013
215	0xbdf2ff1a	-0.11865063
216	0xbdbb4cdd	-0.0914552
217	0x3c9e4396	0.019319337
218	0xbddbcd28	-0.1073249
219	0x3ce971a6	0.028496575
220	0xbe8e23af	-0.277616
221	0x3e322a12	0.17398861
222	0xbd47d732	-0.04878921
223	0xbdad1255	-0.08450762
224	0xbe0f2d06	-0.13982019
225	0x3d93d0fd	0.07217596
226	0x3e033843	0.12814431
227	0xbe77e4d3	-0.24208383
228	0xbe6cf404	-0.2313996
229	0x3e6d01ba	0.2314519
230	0x3e515be5	0.20445211
231	0x3cb586c0	0.02215898
232	0xbe56932f	-0.20954584
233	0x3dd836a1	0.10557295
234	0x3e8a81c9	0.27052143
235	0x3df05a8b	0.1173602
236	0x3e765274	0.24054891
237	0xbda0dca2	-0.07854582
238	0x3e07540f	0.1321566
239	0xbdd8c759	-0.105848975
240	0xbe72da30	-0.23716044
241	0xbd4e0ad8	-0.05030331
242	0xbe028577	-0.12746225
243	0x3e526261	0.20545341
244	0x3d8f4978	0.06996435
245	0x3d7794e0	0.060444713
246	0x3d591e4c	0.05300741
247	0xbe77964d	-0.24178429
248	0xbd77874a	-0.060431756
249	0x3e3af0ea	0.18255964
250	0x3e2cc1a6	0.16870746
251	0x3ca0462b	0.019564709
252	0xbd5a62cc	-0.053316876
253	0x3d5d755f	0.054067012
254	0x3d91bb8c	0.0711585
255	0xbcaddded	-0.021223987

exp_avg_sq f4 [50, 50]
0	0x413dff4f	11.874831
1	0x3f6d288e	0.92640007
2	0x40e41e6b	7.128713
3	0x41843d0e	16.529812
4	0x4037004d	2.8593934
5	0x40c604c1	6.1880803
6	0x41289da9	10.538491
7	0x40a9f8aa	5.3116045
8	0x401dec6f	2.4675558
9	0x411f5711	9.958756
10	0x41534254	13.203693
11	0x40aaa4c8	5.332615
12	0x405797c4	3.368638
13	0x3fe21e31	1.7665464
14	0x4147e3d6	12.493124
15	0x40bfb9ce	5.991431
16	0x41014883	8.080203
17	0x402c2fdb	2.6904209
18	0x3ff011ed	1.875547
19	0x4142a9c5	12.166448
20	0x3ff2f78c	1.8981795
21	0x412d9e41	10.851136
22	0x4131fa8f	11.123672
23	0x41701af6	15.006582
24	0x3fb9a1d6	1.4502513
25	0x41766c5f	15.401458
26	0x40c1d552	6.05729
27	0x41266393	10.39931
28	0x40670c9f	3.6101453
29	0x4171eeee	15.120832
30	0x4155305a	13.324305
31	0x40f332fb	7.599973
32	0x410c4d5f	8.768889
33	0x3ef484af	0.4775748
34	0x40145f88	2.3183308
35	0x410746af	8.454757
36	0x3f5575db	0.8338296
37	0x40cd52ae	6.4163427
38	0x414eabbe	12.916929
39	0x3fed5df1	1.8544294
40	0x4083735f	4.1078334
41	0x40771c9c	3.8611212
42	0x3f91dacc	1.1394897
43	0x40400dfb	3.0008533
44	0x3f9d543e	1.2291334
45	0x41266577	10.399772
46	0x4055b5d3	3.3392227
47	0x41106741	9.025208
48	0x402cee57	2.702047
49	0x40c89cd7	6.2691455
50	0x3f84ca76	1.0374286
51	0x3e84560f	0.25846907
52	0x408476d4	4.1395054
53	0x40adc9dc	5.430891
54	0x403802a4	2.8751612
55	0x4007d71a	2.1225038
56	0x40fe1759	7.94035
57	0x4065f74b	3.5932186
58	0x3f7c1cb0	0.98481274
59	0x40008191	2.007908
60	0x403f1268	2.9854984
61	0x40be9ff4	5.9570255
62	0x3f7e5955	0.9935506
63	0x3e9618fd	0.2931594
64	0x40c81245	6.25223
65	0x40390003	2.8906257
66	0x3fda0742	1.7033465
67	0x3fddcc27	1.7327927
68	0x3ed544f2	0.41654164
69	0x3fca61f6	1.5811145
70	0x3f517572	0.8181983
71	0x400b0fb3	2.1728332
72	0x401bc09b	2.4336307
73	0x3ff99dd7	1.9501294
74	0x3f07b4c3	0.53010195
75	0x3fdd771d	1.7301975
76	0x3f0494b0	0.5178938
77	0x3fb501e5	1.4141203
78	0x3fe665ff	1.7999877
79	0x3fbf1fbf	1.4931563
80	0x3f6fc0af	0.93653387
81	0x3f20aa52	0.6275989
82	0x4073ae45	3.8075116
83	0x3e061ba2	0.13096479
84	0x401b2830	2.4243279
85	0x3f7fcbd2	0.9992038
86	0x3f07da4e	0.5306748
87	0x3f2078a6	0.62684095
88	0x3f74ae65	0.95578605
89	0x3f9f5672	1.2448256
90	0x3efe32af	0.49648044
91	0x3e2825c0	0.1642065
92	0x3e98e568	0.29862523
93	0x3f73b397	0.9519591
94	0x3fa0c7ed	1.2561013
95	0x40387001	2.8818362
96	0x400974a0	2.1477432
97	0x404feef0	3.2489586
98	0x3f11522b	0.56766003
99	0x40c7d72a	6.245015
100	0x3f5b5993	0.85683554
101	0x3f6451f9	0.8918758
102	0x3f632d9c	0.8874147
103	0x3f8ce327	1.1006821
104	0x3f332c07	0.69989055
105	0x3f5f5bc0	0.87249374
106	0x3f2dfd7e	0.67964923
107	0x3ecb8017	0.39746162
108	0x3fdf7270	1.7456799
109	0x3fbd9bc1	1.4813157
110	0x3fa39fab	1.2783102
111	0x3ed5ee63	0.41783437
112	0x3e6770c0	0.22601604
113	0x3de8ad10	0.11361134
114	0x3fa8d9c4	1.3191457
115	0x3f732c9e	0.94989955
116	0x3fa95d1d	1.3231541
117	0x3e53d20d	0.20685597
118	0x3fb3436a	1.4004948
119	0x3fbc31d6	1.4702709
120	0x3f2c4e7f	0.67307276
121	0x3f33594d	0.7005814
122	0x3f480274	0.78128743
123	0x3fc52730	1.5402584
124	0x3fb35221	1.4009439
125	0x3f9fde4d	1.2489716
126	0x3f134c19	0.5753799
127	0x3f695420	0.9114399
128	0x3f97fced	1.1874062
129	0x3faa236a	1.3292058
130	0x3f728285	0.94730407
131	0x3f2cedea	0.6755053
132	0x3f12a784	0.5728686
133	0x3ed597c5	0.41717353
134	0x3ec2e61c	0.38066185
135	0x3f4e0ff0	0.8049307
136	0x3e897ef1	0.2685466
137	0x3f010b0a	0.5040747
138	0x3f801e97	1.0009335
139	0x3f31958a	0.69368804
140	0x3e8c62b4	0.27419055
141	0x3e8cda66	0.27510375
142	0x3e6d15f0	0.231529
143	0x3f8eb638	1.1149359
144	0x3e9d106b	0.30676588
145	0x3f4f3dd2	0.80953705
146	0x3f6ac79d	0.91710836
147	0x3f148231	0.58011156
148	0x400f8d7c	2.2430105
149	0x3f118beb	0.5685412
150	0x414744e5	12.45432
151	0x3fa0b315	1.2554651
152	0x40d58d19	6.673474
153	0x41298fdc	10.597622
154	0x4055ed88	3.3426228
155	0x3fdfd63f	1.7487258
156	0x40aeab48	5.4584084
157	0x4054244b	3.3147151
158	0x4009047c	2.1408987
159	0x414c2623	12.759311
160	0x4167c07c	14.484493
161	0x3fe45067	1.7837037
162	0x3fdeb6ab	1.7399496
163	0x3f8a8255	1.0821024
164	0x412b494f	10.705398
165	0x40cdf977	6.4367023
166	0x40224b42	2.5358434
167	0x3f8a3e9e	1.0800359
168	0x3ff3ef46	1.9057395
169	0x40ad3690	5.4129105
170	0x40a0c2a2	5.023759
171	0x410abfcc	8.671825
172	0x40c433c9	6.1313214
173	0x4191f9b4	18.246925
174	0x40083325	2.1281216
175	0x416e8ac6	14.90888
176	0x40dd599e	6.9171896
177	0x413ef91b	11.935817
178	0x40042042	2.0644689
179	0x41918414	18.189491
180	0x4138ca4d	11.54939
181	0x407a4807	3.9106462
182	0x40ae99b4	5.4562626
183	0x3f39966f	0.7249517
184	0x3fdc82f1	1.722746
185	0x40ae48cb	5.446386
186	0x3fa64a5d	1.2991444
187	0x404ae7dd	3.1704018
188	0x415fe812	13.994158
189	0x3f950b4a	1.164407
190	0x40835d75	4.1051583
191	0x402882de	2.6329875
192	0x3f8add1b	1.0848726
193	0x40abf39a	5.3734865
194	0x3f0144a2	0.5049535
195	0x40cb1113	6.3458343
196	0x4065aa18	3.5885067
197	0x40991921	4.7843175
198	0x40279f0a	2.619082
199	0x3ff37a9b	1.9021791
200	0x4019d5db	2.4036777
201	0x3f61f678	0.88266706
202	0x41b71f45	22.890268
203	0x41ea989f	29.324522
204	0x4194fa3e	18.622189
205	0x412937b8	10.576103
206	0x42371db9	45.779026
207	0x4199bc91	19.217073
208	0x3f804598	1.0021238
209	0x410741c6	8.453558
210	0x41611975	14.068715
211	0x420d4feb	35.328045
212	0x4022c655	2.5433552
213	0x3e28a619	0.16469611
214	0x4204420c	33.0645
215	0x415bb3bb	13.7313795
216	0x4100292f	8.010055
217	0x40f4123a	7.627225
218	0x3f860193	1.046923
219	0x408d3174	4.4122868
220	0x40c519c6	6.159396
221	0x41164d3d	9.393857
222	0x411ee1ba	9.930109
223	0x40a02901	5.0050054
224	0x3eba4f84	0.3638879
225	0x4030199e	2.7515635
226	0x3e93d1e0	0.2887106
227	0x40c6dac2	6.214204
228	0x4128930e	10.535902
229	0x4089f577	4.311214
230	0x40443e4c	3.0663023
231	0x3fd6da77	1.678542
232	0x41aa9790	21.324005
233	0x3f47c887	0.78040355
234	0x416e92c4	14.910831
235	0x3fa05974	1.2527299
236	0x409405b7	4.6256976
237	0x4013deba	2.3104692
238	0x3ed490df	0.41516778
239	0x40bcc5b5	5.899134
240	0x4029d9cf	2.653919
241	0x3d6d3eab	0.057921093
242	0x3e4b2ff4	0.19842511
243	0x40843e1f	4.132583
244	0x405afd7b	3.4217212
245	0x4154c359	13.297692
246	0x410b86af	8.720382
247	0x4198e81e	19.113338
248	0x3fc7bfc8	1.5605402
249	0x42139749	36.89774
250	0x408f2bf2	4.4741144
251	0x3f5410c5	0.8283809
252	0x415d2fff	13.824218
253	0x419ed981	19.856203
254	0x410c8f8d	8.785047
255	0x410050c4	8.019718

exp_avg f4 [50]
0	0xbf2677b0	-0.6502638
1	0xbe75e992	-0.24014881
2	0x3dfb0b54	0.1225802
3	0xbe9caea4	-0.3060199
4	0x3f42f271	0.76151186
5	0xbe172a25	-0.1476217
6	0x3f0942fe	0.53617847
7	0xbe89559d	-0.2682313
8	0xbf17a448	-0.5923505
9	0x3f34bc5b	0.7059991
10	0xbf33b699	-0.70200497
11	0xbe99d4d1	-0.3004518
12	0x3f3133a2	0.6921941
13	0xbe29fcbd	-0.16600318
14	0xbe97f1f0	-0.2967677
15	0xbdf778f8	-0.1208362
16	0x3f184da3	0.59493464
17	0xbef68082	-0.4814492
18	0xbf509273	-0.81473464
19	0x3ee6edb1	0.4510322
20	0x3f2ac9e9	0.6671434
21	0xbf4d6197	-0.80227035
22	0x3d9ddc05	0.07707981
23	0xbe8dc75b	-0.2769116
24	0xbeb3f9e4	-0.3515159
25	0xbd6fc7e5	-0.058540244
26	0x3ee470a3	0.44617185
27	0xbea1ff62	-0.31640154
28	0xbf003956	-0.5008749
29	0x3ea100cc	0.3144592
30	0xbef9064b	-0.48637614
31	0x3ee0a1f5	0.43873563
32	0xbeb9cff5	-0.3629147
33	0xbf1587a8	-0.5841012
34	0xbd24f57b	-0.04027317
35	0x3f0734a0	0.52814674
36	0x3ee796c6	0.45232219
37	0x3e7711ed	0.24127932
38	0xbedb94c1	-0.42886928
39	0x3eeba4b6	0.46024102
40	0xbe9c74ad	-0.30557767
41	0x3f000479	0.50006825
42	0x3f594614	0.84872556
43	0x3d94c028	0.072632134
44	0xbf1a7038	-0.6032748
45	0x3e2d5a85	0.16929062
46	0xbed5937a	-0.41714078
47	0x3dae463d	0.08509491
48	0xbebe8cfa	-0.37216932
49	0xbd372611	-0.044714037

exp_avg_sq f4 [50]
0	0x4263386e	56.805107
1	0x40d8c300	6.7738037
2	0x40d2fcca	6.593358
3	0x42b78169	91.752754
4	0x4066abbf	3.6042325
5	0x40f10236	7.53152
6	0x41687eb6	14.530935
7	0x40e29885	7.081118
8	0x400489a3	2.0709007
9	0x411f8ca8	9.97184
10	0x40eecbd8	7.4623833
11	0x415d3f3a	13.827936
12	0x41211bed	10.069318
13	0x41aa85a6	21.315258
14	0x435c6499	220.39296
15	0x429094db	72.29073
16	0x42329c0c	44.65239
17	0x4076ec3a	3.8581681
18	0x41b7c97a	22.973377
19	0x4123fa65	10.2486315
20	0x3fe83211	1.8140279
21	0x419f2c2e	19.896572
22	0x40d95fed	6.7929597
23	0x4179385e	15.5762615
24	0x420baa7c	34.91649
25	0x403f23dd	2.986564
26	0x4070defa	3.7636094
27	0x411101c3	9.06293
28	0x4093a14c	4.6134396
29	0x40d6a777	6.7079425
30	0x4058d81a	3.3881898
31	0x40e7ed09	7.247685
32	0x4284a81d	66.32835
33	0x419dffd8	19.749924
34	0x409964a9	4.7935376
35	0x4165b04e	14.355543
36	0x4147d859	12.490319
37	0x41155de3	9.335422
38	0x423aaef3	46.67085
39	0x41793af6	15.576895
40	0x422cffce	43.24981
41	0x40b370fa	5.607541
42	0x41b011ef	22.008757
43	0x420aaf63	34.671276
44	0x40ed9a81	7.4251103
45	0x3fc30f1e	1.5238988
46	0x42157c66	37.371483
47	0x40dece6e	6.962699
48	0x4302cd63	130.80229
49	0x4100a29e	8.039701
