weights/checkpoint/example0007_warm_adam.pth (torch, 73855 bytes, 25 tensors)

a f4 [5]
000000 cd cc 4c 3e cd cc 4c 3e cd cc 4c 3e cd cc 4c 3e
       0.2 0.2 0.2 0.2
000010 cd cc 4c 3e
       0.2

input_layer.weight f4 [50, 2]
000000 22 6c 8d bf 05 cc 03 c0 d6 67 71 be e4 6b d7 bb
       -1.1048625 -2.0593274 -0.23574767 -0.006574141
000010 ea 19 c5 3f bb 70 91 bd 76 63 f7 bf ea 56 46 3d
       1.5398533 -0.0710158 -1.9327228 0.04842273
000020 27 84 f2 bf 7c 2e 8d bf 41 c4 56 3f 5a 9e 3b bf
       -1.894658 -1.1029811 0.8389321 -0.732885
000030 d6 26 59 40 82 1e 5f bf 7c 39 a4 3f 72 b9 fa be
       3.3929954 -0.87155926 1.2830043 -0.4896961
000040 b2 46 5a bd aa 9c f9 bf 32 29 65 3f 71 95 bf 3e
       -0.053290077 -1.9500935 0.89515984 0.37418702
000050 9d 79 9b bf f1 2e c8 be 5b 9f 14 c0 11 91 88 3e
       -1.2146488 -0.39098313 -2.3222263 0.26673177
000060 56 fc 92 be 42 0f 96 3f b4 98 0a be ec f2 82 bf
       -0.28708142 1.1723406 -0.13534814 -1.0230384
000070 f0 1f 08 40 40 f0 b0 be 9e 3f 82 bf 06 a9 55 3f
       2.1269493 -0.34558296 -1.0175664 0.83461034
000080 c3 fb 32 bf 6b 09 0c 3f 78 fb 2f 3f 65 af 85 bf
       -0.6991541 0.5470187 0.68743086 -1.0444151
000090 6d 79 8a be c3 96 21 be 2f 21 ea be e5 65 b8 3f
       -0.27045766 -0.15780167 -0.45728442 1.4406096
0000a0 c7 d6 a5 bf 4c ea c9 bf 2a eb 50 3f 83 fc cc bd
       -1.295617 -1.5774627 0.8160883 -0.100091
0000b0 1b 74 53 bf bf c5 81 3f 63 e1 04 bf 94 93 ae 3e
       -0.8259904 1.0138472 -0.5190641 0.34096968
0000c0 34 aa e2 be af 1f e3 bf 79 32 90 be d3 95 d6 3f
       -0.4427048 -1.7744044 -0.28163508 1.6764473
0000d0 9a 1a 95 3e ca c5 67 3f 87 31 82 bf 77 d4 84 bf
       0.29121858 0.9053618 -1.0171365 -1.0377339
0000e0 e4 f3 75 bf df dd 78 be 06 64 6f 3f 4b 40 9e 3f
       -0.9607527 -0.24303387 0.93512 1.2363371
0000f0 dd e8 40 3f 17 c1 88 3f f0 72 82 3e 4b 36 d2 be
       0.7535532 1.0683926 0.25478315 -0.41057047
000100 a8 6d b6 bf a5 2b 28 3e 48 73 85 3e f3 2a 59 3e
       -1.4252214 0.16422899 0.26064515 0.2120779
000110 2e 84 9b 3f b3 54 8e 3e d5 8b fe bc 1c 6a e5 3f
       1.2149713 0.27798995 -0.031072536 1.7923007
000120 40 0f 6e 3f 9b d6 8e 3f b7 8a bc be 5a 1b b9 bb
       0.9299202 1.1159242 -0.3682458 -0.0056490125
000130 b0 20 c2 3e 7f d2 9f 3f 9c d5 16 bf cd 00 b4 3e
       0.37915564 1.2486113 -0.5891969 0.3515686
000140 0d ff 6a bf 93 ee c7 bf 18 90 0f bd 18 49 95 be
       -0.91795427 -1.5619682 -0.035049528 -0.2915733
000150 9a b5 3e be b1 72 9f bf c5 41 4a 3f 56 17 64 3f
       -0.18623963 -1.2456876 0.79006606 0.8909811
000160 97 d2 c5 be e4 d4 ed 3f af f6 85 3f f1 7f 9b bf
       -0.3863723 1.8580594 1.0465907 -1.214842
000170 63 ee 41 3f 81 da 7e bf 4b 4d bf bf 63 f7 c9 be
       0.75754374 -0.9955216 -1.4945463 -0.39446554
000180 5d cd a8 be 29 fa 21 be fd e0 1b 40 51 07 b5 be
       -0.3296918 -0.15818085 2.4356072 -0.35357144

input_layer.bias f4 [50]
000000 54 79 79 3b a6 16 3f ba b0 1c fc ba 3c 9f 8a ba
       0.0038066702 -0.00072894467 -0.0019234624 -0.001057602
000010 3a bb e1 ba 66 f2 b1 3a d1 e4 de 3a 40 38 05 bb
       -0.0017221936 0.0013576269 0.0017005448 -0.0020327717
000020 8a 37 82 ba 5f 24 d2 ba 1f 01 8d ba 65 94 eb ba
       -0.0009934765 -0.0016032568 -0.001075778 -0.0017973302
000030 cb 71 e4 ba d5 a6 76 ba 9f f0 6f 3a 6c 94 f5 ba
       -0.0017428932 -0.0009409015 0.0009152982 -0.001873625
000040 a9 64 6a 3b e4 b7 91 ba 76 26 ed ba a1 99 cf 3a
       0.0035765565 -0.0011117426 -0.0018093127 0.0015838632
000050 5e 4b f8 ba cc ad 5a 3b 12 cd bc 3a aa 7f a3 ba
       -0.001894336 0.0033367751 0.0014404377 -0.001247396
000060 5e 05 dd ba 67 89 9b b9 d8 0e 65 ba 05 80 05 bb
       -0.0016862561 -0.00029666277 -0.00087378686 -0.0020370495
000070 47 4e 7a 38 49 38 39 3a 1f 45 63 3a e4 dc 2b bb
       5.9677546e-05 0.0007065577 0.00086696626 -0.002622419
000080 e6 88 e6 b9 5e f7 8f b9 a5 94 c4 3a d4 5f 03 bb
       -0.00043971016 -0.00027459388 0.0014997913 -0.0020046132
000090 48 e6 a3 3a 90 74 f6 b9 8d 51 55 b9 e6 ac 33 3a
       0.0012504542 -0.00047007622 -0.00020343643 0.0006854072
0000a0 4e 1c 41 3a 4b 6c 0d 3b 71 74 6f 3a a2 4a 5f ba
       0.00073665834 0.002157944 0.00091344776 -0.0008517896
0000b0 a8 5d 48 3a b8 f7 e8 39 56 13 b0 3a 85 c8 91 3a
       0.00076433504 0.00044435053 0.0013433497 0.0011122382
0000c0 da 03 5b 3a 7d 52 9f ba
       0.0008354761 -0.0012155321

hidden_layers.0.weight f4 [50, 50]
000000 e8 4a 07 3e 92 66 37 3e 0c 6b 7c 3d 5d 1a ae 3d
       0.13212168 0.17910221 0.061625525 0.08501122
000010 61 10 46 bd 18 a7 a7 3e 72 11 b8 bd 25 25 02 bd
       -0.048355464 0.3274467 -0.089877024 -0.031773705
000020 5c 21 ac be d9 38 46 3e e2 40 53 be 3f 01 a1 3e
       -0.336192 0.19357623 -0.2063022 0.31446263
000030 30 8e c3 be a0 19 95 bd 96 52 47 3d 27 4d 9c 3d
       -0.38194418 -0.07280278 0.048662744 0.07631903
000040 c2 69 06 be ac 63 d8 bd e7 d6 2e bd 94 7b cb bd
       -0.13126281 -0.10565886 -0.042685416 -0.0993568
000050 fd d0 e1 3d 6b 1a 8b be 9f 92 3d be 24 6d b2 bd
       0.110261895 -0.27168593 -0.18512963 -0.08712223
000060 7b c4 6a be d8 1a 6b 3e 42 ba 64 3e fa 2a 08 3d
       -0.22926514 0.22959459 0.22336677 0.03324411
000070 c3 eb 10 3e f7 61 40 be 49 2f 93 bd 32 4d 8e be
       0.14152436 -0.1878737 -0.07186753 -0.2779327
000080 0f c0 ef bd 08 07 bd be 24 63 2c be c7 bc ce 3e
       -0.11706554 -0.36919427 -0.16834694 0.403784
000090 ec 1a 06 be 27 7f 1a bd 08 61 d6 38 94 63 3e be
       -0.13096207 -0.03771892 0.00010222389 -0.18592674
0000a0 9a b4 c0 3b 31 65 9e bb 4d ad 9d 3e ad 2e 5f 3d
       0.0058809044 -0.0048338403 0.3079628 0.054487873
0000b0 ae a5 0d 3d 6a 17 ab bd 3d 88 da 3e 9c 56 2f 3f
       0.034581833 -0.08354075 0.42682067 0.6849153
0000c0 5f 12 4d bd d8 65 01 3e f2 13 2d be 88 da 84 3e
       -0.05006635 0.12636507 -0.1690214 0.25947976
0000d0 29 31 1a bb c5 d4 aa 3e 36 09 d6 3d af 10 87 bd
       -0.0023527837 0.33365455 0.104509756 -0.06594979
0000e0 c4 58 cc 3e 19 47 00 be 6c 71 a0 3d 08 3c 9d bc
       0.39911473 -0.12527122 0.078341335 -0.019193664
0000f0 d6 c2 fa 3d 43 54 cf bd ee e9 91 3d bc 3b 58 3d
       0.12244193 -0.101234935 0.07124697 0.052791342
000100 3f 26 1d 3e 39 5a 5b 3e 3e 0d 57 3d b0 7a e6 bd
       0.15346621 0.21421136 0.052502863 -0.112538695
000110 70 72 fb bc c0 44 50 be 74 5d 33 3d 58 d6 23 be
       -0.030694216 -0.20338726 0.043790296 -0.15999734
000120 bb f7 f4 bd d4 92 aa 3e 0f 9c bf bd 25 41 dc bd
       -0.11961313 0.33315146 -0.09355938 -0.10754613
000130 83 3a e1 3d 5c d5 b4 be cd de 87 3d d0 df ed 3d
       0.10997488 -0.3531903 0.06634293 0.116149545
000140 3d 3e 2c be 28 05 9b 3d fe fb 09 be be 51 a4 3e
       -0.16820617 0.07569343 -0.13475034 0.32093614
000150 d0 8d a8 3e fd 7c 4e 3d 57 6f 80 be 29 a6 da 3c
       0.32920694 0.050412167 -0.25084946 0.02669056
000160 f1 af 9e bd 71 5e ae bd 2b 70 29 3e c7 6e 28 be
       -0.07748402 -0.08514107 0.16546695 -0.16448508
000170 4e 28 3f 3e a2 76 a8 3e a0 38 e6 be 43 d5 33 be
       0.18667719 0.3290301 -0.44965076 -0.17561822
000180 ff e1 d3 3e 3a b3 8b 3e cd c2 83 3e a1 23 bf bd
       0.4138336 0.27285177 0.2573456 -0.093329675
000190 d3 3d a1 3e 46 d5 8c be 51 75 26 3e 8b b8 32 be
       0.3149248 -0.27506465 0.1625569 -0.1745321
0001a0 58 5b 92 be 9a 7d 18 be 9f ba ab be c0 ef a0 be
       -0.28585315 -0.14891663 -0.33540818 -0.31432915
0001b0 a1 6c 25 3d f6 28 55 be b9 75 c1 bd 31 2c 4d 3d
       0.0403868 -0.20816407 -0.09446282 0.050090972
0001c0 50 1f 4c be ca 8a b0 3d 37 d3 b8 bd de 94 c3 3d
       -0.1993382 0.08620222 -0.09024661 0.095498785
0001d0 60 7b 12 be c6 c5 96 3e 83 fc a3 bd b6 41 57 3d
       -0.14304876 0.29447764 -0.08007147 0.0525529
0001e0 7f d4 50 bd b3 da 6c bd ff e3 45 3c ea 37 f4 be
       -0.050983902 -0.057825755 0.012078284 -0.4769891
0001f0 66 d1 31 3e b9 6a f6 3e c8 f6 d7 be 30 bb 11 3e
       0.17365035 0.48128298 -0.42180467 0.14231563
000200 cf a7 86 bc a2 80 97 be e4 9c 0a be d9 c4 43 3d
       -0.01643744 -0.29590327 -0.13536412 0.04779515
000210 21 c4 8a be e0 29 7a 3d 8d 64 8f be 62 83 6e 3d
       -0.2710276 0.06107509 -0.28006402 0.058230765
000220 a1 a5 c3 3d 88 ce 17 be 2f d0 0e 3d e1 a4 0c 3e
       0.095530756 -0.14824879 0.034866508 0.13734771
000230 21 5e 24 3e 5a c7 e8 bd 70 37 8d be 0a fc 89 3e
       0.16051532 -0.11366148 -0.27581358 0.26950103
000240 ce 89 79 be 3a a8 60 bc c3 d8 af bd 72 cd 04 3f
       -0.24368975 -0.013711983 -0.08586266 0.51875985
000250 87 81 c5 3e 88 c6 ac be 48 f6 37 be 1c 5e c8 3b
       0.38575384 -0.33745217 -0.17965043 0.0061147343
000260 8d e0 2a 3e cb 05 7d 3e 25 74 07 be a5 11 fb bd
       0.16687222 0.24709241 -0.132279 -0.12259225
000270 d3 aa a8 bc ea d5 ae be 15 35 90 be 47 66 17 3d
       -0.020589268 -0.34147578 -0.28165498 0.036962774
000280 ab a5 46 bd 38 70 75 3c 24 cd a8 3e bb 76 02 3e
       -0.048497837 0.014980368 0.3296901 0.12740605
000290 b7 90 27 be f6 8e eb 3e 5d 9a 0b be a8 2f e8 bc
       -0.16363798 0.46007508 -0.13633104 -0.028343037
0002a0 60 47 0f be 27 5c 1b 3e 16 76 ed 3d 8f 4f f1 bd
       -0.13992071 0.15171872 0.11594789 -0.11782753
0002b0 69 86 39 3d c8 fb 88 bb fd db 8c bd e5 83 0c be
       0.0452942 -0.0041804053 -0.06877897 -0.13722189
0002c0 d9 cb 81 bd 3b 8b 9e bd 8c a7 11 3d e8 85 0b 3d
       -0.06337709 -0.077414 0.035560176 0.03406325
0002d0 a3 d1 37 3e 01 6c 13 3d 8d 50 93 3e ae 69 01 3e
       0.17951064 0.035991672 0.28772393 0.1263797
0002e0 62 9e d5 bd da e7 4d 3e c6 cf 97 3d 45 c1 52 be
       -0.104306 0.20107976 0.074126765 -0.20581539
0002f0 cb c4 18 be d4 4b c2 bd ca 12 03 3d 63 24 95 3c
       -0.1491882 -0.09487119 0.03200034 0.018205827
000300 ff 47 38 3e 9e 57 19 bb 8e 5c 3d be 39 d9 da bd
       0.17996214 -0.0023398171 -0.18492338 -0.10685963
000310 87 55 da bd 55 a5 5a 3d 7d 52 c0 3c a2 a7 a3 3e
       -0.10660844 0.05338033 0.023476833 0.3196383
000320 3a 80 9e 3e 04 99 19 3d e7 ce 8b bc 0e 67 cd bd
       0.30957204 0.037499443 -0.017066432 -0.10029422
000330 a4 fc 4a bd 15 ac c4 3d dc 9e c3 bd e1 17 3e 3e
       -0.049557343 0.096031345 -0.095517844 0.18563797
000340 33 ba af be d8 7e a1 be e1 54 52 3e 59 92 ff bd
       -0.34321746 -0.31542087 0.20540191 -0.124790855
000350 69 7d 8a bd a3 7c 3d bb 9e 00 32 be 65 6f 82 be
       -0.06762201 -0.00289134 -0.17383048 -0.25475612
000360 81 3a 17 3e 24 35 93 be 9d 41 93 be f8 8b cc bd
       0.14768411 -0.2875148 -0.28760996 -0.099876344
000370 9e 28 2d be 66 82 05 bd 61 87 ed 3d a6 f3 bc be
       -0.16910025 -0.03259506 0.11598087 -0.3690464
000380 fa 93 bc 3e c2 0d 2c be 41 1a fb 3d 3d 09 72 3d
       0.36831647 -0.16802123 0.12260867 0.05909084
000390 93 f3 ca 3c a4 69 ab 3c c5 52 23 3e 99 a9 f1 bd
       0.024774348 0.020924397 0.15949543 -0.11799926
0003a0 c9 f3 95 3e d9 c7 ad 3d 8a 5b 92 3d 32 d6 82 bd
       0.29287556 0.084853835 0.07146366 -0.06388511
0003b0 e3 20 3b bd c0 e6 4e be 91 23 68 3e 56 3f d1 3d
       -0.04568566 -0.20205212 0.22669818 0.102171585
0003c0 5e fc d0 bd 0a 41 08 3e fc 44 17 be 1b a9 58 3e
       -0.10204385 0.1330606 -0.14772409 0.21158259
0003d0 54 d4 de bd b1 c7 7c 3e 26 a2 64 be db a6 28 be
       -0.10880342 0.24685551 -0.2232748 -0.164699
0003e0 31 a0 7e 3e 13 20 da bd fb 57 c0 bd ef b0 69 3e
       0.24865796 -0.10650649 -0.09391781 0.22821401
0003f0 77 9e f5 3c 40 b8 75 be f1 50 84 3e 6a 22 9e 3d
       0.029982788 -0.23996067 0.25843003 0.07721408

hidden_layers.0.bias f4 [50]
000000 f7 fd af ba 78 c4 98 ba 9a d1 14 ba 03 de d9 b8
       -0.0013427128 -0.0011655232 -0.0005676985 -0.00010388719
000010 48 2b 29 3c 0a 52 d9 39 5d 2b c7 3a 1f 0f 33 b7
       0.01032526 0.0004145059 0.0015195418 -1.0672752e-05
000020 c6 26 43 bb 44 06 c4 3a 16 96 20 bb d6 56 98 b9
       -0.002977775 0.0014955481 -0.002450352 -0.00029056397
000030 a9 03 01 3a 1e 2a d9 b9 81 99 6b b8 2c d9 db 36
       0.0004921505 -0.00041420845 -5.6171328e-05 6.5519907e-06
000040 c2 78 5e 3a 90 2a f8 ba 8a 45 80 bb 5c 61 27 3a
       0.0008486622 -0.0018933583 -0.0039145397 0.0006385052
000050 35 04 52 3b ae 91 b5 ba 9f 95 8d ba 77 d2 b3 ba
       0.0032045965 -0.001385262 -0.0010802037 -0.001371934
000060 40 72 65 ba 6a b7 f2 b9 60 10 eb 3a 7c ab 50 bb
       -0.00087526813 -0.0004629449 0.0017933957 -0.0031840494
000070 ac 4e 75 37 29 41 a2 3a 86 9b e4 ba 7e ad d4 3a
       1.4621455e-05 0.0012379038 -0.0017441369 0.0016226021
000080 2f a6 88 b9 ea 55 b7 ba 19 3f 81 3a 7c 2c b3 3a
       -0.00026063758 -0.0013987396 0.0009860724 0.0013669874
000090 64 89 8a 3a 8c f2 54 3b da 46 ea b9 74 3e 0e 39
       0.001056951 0.0032493202 -0.00044684747 0.00013565441
0000a0 2d c2 a9 39 cf 1e 0a 3b ae 8e ef 3a f7 9d b4 b9
       0.00032378864 0.0021075492 0.0018276775 -0.00034449968
0000b0 16 e6 f4 bb f7 47 2c b9 9c 2f 5e b8 e0 58 76 37
       -0.0074737174 -0.00016430007 -5.2973264e-05 1.4683435e-05
0000c0 86 c6 74 b9 e1 8c 4c b8
       -0.00023343609 -4.8768594e-05

hidden_layers.1.weight f4 [50, 50]
000000 ab dc 0a bd b5 fc 65 3d 28 3e 17 bd 32 fd e3 bd
       -0.03390185 0.056149203 -0.03692451 -0.111322775
000010 ef 87 07 3e 31 b3 50 be 3b ea f3 bc 3a fd e7 bd
       0.13235448 -0.20380856 -0.029774776 -0.11327596
000020 32 5b b5 be 77 37 c7 3b 25 b3 3c be c8 17 1a 3d
       -0.3542114 0.00607961 -0.18427713 0.037620336
000030 c2 83 24 3e 15 01 8a bc b1 f0 d4 3e 5f 67 0b bf
       0.16065887 -0.01684622 0.41589883 -0.54454607
000040 48 24 5c 3e 1b 62 18 bd 71 f9 a8 be ed 56 9a 3e
       0.21498215 -0.037202936 -0.3300281 0.30144444
000050 4d 90 7e 3d 03 e4 35 3e 6a 1e 4f 3d 92 68 4a be
       0.062149335 0.17762761 0.050566114 -0.19766453
000060 94 09 44 be 2f eb 89 be 6a 5e 05 bc 96 93 6e 3d
       -0.19144279 -0.26937243 -0.008140186 0.058246218
000070 de b4 38 be 86 20 7d be 5b 32 0a 3d f4 c5 06 be
       -0.18037745 -0.24719438 0.03373943 -0.1316145
000080 a4 73 40 3e d4 84 22 bc 85 75 42 be e2 36 72 3d
       0.18794113 -0.009919364 -0.18990143 0.05913437
000090 ee b9 41 be 31 1b 05 3e 57 8e b3 bd 60 e2 e6 bd
       -0.18918583 0.12998654 -0.087673835 -0.11273646
0000a0 d5 6c d3 3d 5e 78 4e 3e 4c a9 66 3d 07 29 0e be
       0.103234924 0.20163104 0.056313798 -0.13882838
0000b0 7b b6 82 3d 4d 9a 86 3e c1 c6 de 3e 13 05 c6 3d
       0.06382462 0.26289597 0.43511012 0.096689366
0000c0 03 89 6c bd 89 c4 00 bf 0a 03 6f be 39 3e a3 bd
       -0.057747852 -0.5029989 -0.23341003 -0.079708524
0000d0 43 b0 22 3d 19 21 a7 be 20 c2 c6 bc f1 61 73 3d
       0.039718878 -0.3264244 -0.024262488 0.059419576
0000e0 16 89 80 3e a2 32 4b be c6 f2 70 be 68 be be bd
       0.25104588 -0.19843534 -0.2353011 -0.09313661
0000f0 4e ef dc bd b1 cb 1f be c7 d7 2d bc 63 57 33 be
       -0.10787831 -0.15605046 -0.010610527 -0.17513804
000100 3f c9 8e 3e 14 7c 46 be 86 ee 0a 3e ad cc 4a 3c
       0.27887914 -0.1938327 0.13567552 0.0123779
000110 f5 80 72 be a8 4b ef bd c4 58 3c 3e ca 13 bb be
       -0.23682006 -0.11684352 0.18393236 -0.36538535
000120 12 42 03 be 9b 20 67 3b cb 5e 1f 3e 98 52 80 be
       -0.12818173 0.0035267237 0.15563504 -0.25063014
000130 bb b6 2b 3d 63 9f 0a 3e 4d d5 5a 3e c3 16 7c bc
       0.041922312 0.13537364 0.2137043 -0.015386286
000140 a7 00 ca 3c 9c 4e 3d be f5 dc 26 3e cb cd 81 bd
       0.024658514 -0.18487018 0.16295226 -0.0633808
000150 5f 1a 9c bd 25 95 e2 bc 7b 53 b3 3c 6c 4b 52 3e
       -0.076222174 -0.027659008 0.021890393 0.20536584
000160 0b d9 0a bf b6 35 9e be 50 a6 bb 3c 11 62 b7 bd
       -0.5423743 -0.30900353 0.022906452 -0.089542516
000170 75 e9 83 3e 96 d0 11 be 78 71 95 3e ff aa a5 bd
       0.2576405 -0.14239725 0.29188132 -0.080892555
000180 c4 a4 5c 3e 7f 76 ec bc 69 e8 2f 3b b6 78 8a be
       0.21547228 -0.028865097 0.0026841408 -0.2704522
000190 9c a1 f8 3d a4 f6 70 be 01 9e aa 3e 7f 99 8e bd
       0.121401995 -0.23531586 0.33323672 -0.06962871
0001a0 e2 be a0 3e 80 34 49 be 4d aa 77 3c 73 90 61 3c
       0.31395632 -0.19648933 0.015116286 0.0137673495
0001b0 8f b1 00 3f e8 41 25 3d 54 87 ae be fc df 18 bd
       0.5027093 0.040346056 -0.34087622 -0.037322983
0001c0 6f 19 0d 3f 37 62 a1 3c cd 96 2a bd 7d c5 35 be
       0.55116934 0.019700153 -0.04164772 -0.17751117
0001d0 72 e3 75 3e c1 7f 15 3c df dd 8d be df 03 9c be
       0.24012545 0.009124697 -0.27708337 -0.30471703
0001e0 37 d6 b6 be 97 bb 7d be aa 6a c3 be e9 17 60 3e
       -0.35710308 -0.24778591 -0.38167316 0.21884121
0001f0 bb a7 45 bd b7 ec 1c be fc 96 36 be c4 bb e2 3d
       -0.048255663 -0.15324675 -0.17831033 0.1107097
000200 fb 8e bf be 7d d0 33 bc 38 4b 37 be ca 13 2a 3e
       -0.37413773 -0.010975 -0.17899787 0.16609111
000210 d5 07 35 be 26 df ba 3e a2 35 df 3b 79 d5 8d 3d
       -0.17678769 0.36498374 0.0068118135 0.06925482
000220 b4 3c 0a 3e e7 f2 a3 3d 89 19 a4 3d 8d 2b 4d 3e
       0.13499719 0.08005314 0.08012683 0.20036145
000230 6d 14 82 3d 65 29 b7 3e 2d 46 69 be fa fc 07 3f
       0.06351552 0.3577377 -0.22780676 0.53120387
000240 73 39 46 be b0 27 94 3e 68 17 5e bc 52 8d b5 3e
       -0.19357853 0.2893653 -0.013555385 0.3545938
000250 f4 8e 3a 3d 16 17 b7 3e 4a ae 67 be 8b 4d 35 3e
       0.045546487 0.357598 -0.2262508 0.17705362
000260 f9 69 88 be b2 4a 83 3e 3c 7b c0 3d cd ab c8 3e
       -0.2664335 0.25642926 0.09398505 0.39193574
000270 0d 61 40 3d 41 26 2d be 60 30 8e be 18 b3 3a 3e
       0.046967555 -0.16909124 -0.27771282 0.18232381
000280 c0 b6 92 be fb 9b 53 3e 7d d1 8c 3d c6 96 02 be
       -0.28655052 0.2066497 0.06875894 -0.12752828
000290 02 9a df 3b 01 38 3e bd 5e 96 05 bd 87 03 6f 3e
       0.006823779 -0.04644013 -0.032614104 0.2334119
0002a0 54 a6 ff be d0 f3 09 be 88 bb 9e be d9 38 63 be
       -0.49931586 -0.13471913 -0.3100245 -0.22189654
0002b0 ed 93 e0 3d c2 e2 bc 3d fa b2 3a bd 6f cd 48 3d
       0.109657146 0.09222938 -0.04558084 0.04902404
0002c0 13 3f 16 3e 21 7e ba bc 93 52 8c 3d c8 df ae 3d
       0.14672498 -0.022765221 0.06851687 0.08538777
0002d0 1e 8c 89 3d 8f c9 f4 3e d5 79 c8 be 12 b2 95 3d
       0.06716178 0.47810027 -0.3915545 0.07309355
0002e0 9c a7 fa 3c c6 36 35 be 9d aa a1 be 86 b3 7d bd
       0.0305975 -0.17696676 -0.3157548 -0.061938785
0002f0 20 7d 04 be a5 31 4a 3d 59 84 c2 be 4b 61 e8 bd
       -0.12938356 0.04936375 -0.37991598 -0.11346682
000300 9a d7 a5 bd b1 5b 9a 3c 74 a0 43 be e3 3f 52 3e
       -0.08097763 0.01884255 -0.19104177 0.20532183
000310 34 fb ba 3e 77 c7 19 3d 57 67 c9 bd 0a f9 6f 3c
       0.36519778 0.03754374 -0.09834164 0.014646778
000320 4b a1 d2 3e 4d 08 ea 3d 51 5c 8c 3d e3 d1 8b 3c
       0.41138682 0.114273645 0.068535455 0.017067855
000330 90 56 75 bd 58 10 38 3d b5 25 cc bc 48 ca fd 3d
       -0.059897006 0.04493746 -0.024920324 0.12392098
000340 a2 c0 76 bd bb 1a bd 3c cc e5 34 bd 65 a4 d9 3d
       -0.060242303 0.023084035 -0.044164464 0.10627059
000350 16 e1 1c 3e 12 42 c2 3e 60 49 44 bd d6 68 7f 3e
       0.15320238 0.37941033 -0.04792154 0.24942335
000360 b3 17 31 bd 09 04 28 bd f2 4d 89 3e 0f 89 d7 be
       -0.043235492 -0.041019473 0.2681728 -0.42096755
000370 ea 5a 15 bd 17 86 0d 3d a1 4f 9e be 75 6c 59 be
       -0.036463656 0.034551706 -0.30920127 -0.2123278
000380 1f 9f 23 bd f3 42 12 be a2 85 ae 3e 08 4c 27 3d
       -0.03994667 -0.14283352 0.3408633 0.040843993
000390 a5 18 3a bc ee 36 fb 3d 92 ad fd ba 32 28 42 3b
       -0.011358415 0.122663364 -0.0019354096 0.002962601
0003a0 40 ad b4 bd c7 0b 56 be a6 63 cc bb a3 b4 c3 3c
       -0.08822107 -0.2090293 -0.006237465 0.023889845
0003b0 76 0f 4d 3e ff 39 f1 3d ff 53 03 3e d3 86 b2 bd
       0.20025429 0.1177864 0.1282501 -0.08717122
0003c0 a6 d6 9f bd 34 82 60 3c bc 70 8e 3d cf d2 6d 3c
       -0.07804613 0.013702918 0.06955096 0.014515593
0003d0 bc d4 81 bd ee 4c 15 be a6 12 94 3d 26 e1 0b 3e
       -0.06339404 -0.14580128 0.072301194 0.13660106
0003e0 c3 1d a7 3e 64 78 ef b9 be bf a9 bd 73 e7 83 3b
       0.32639894 -0.0004567533 -0.08288525 0.0040253936
0003f0 9e 42 00 3e e1 5d 2a 3d f0 8d 23 3e 1b 29 23 3e
       0.12525412 0.041593436 0.15972114 0.15933649

hidden_layers.1.bias f4 [50]
000000 f7 7a 70 ba 54 05 27 3a 3b 09 aa 3b a2 02 a2 3a
       -0.00091735966 0.00063713384 0.0051890886 0.0012360404
000010 ae c2 af 39 13 56 e5 39 e3 56 c9 3a 68 20 8e 3a
       0.0003352365 0.00043742414 0.0015360977 0.0010843398
000020 81 c6 5d 3a a0 01 58 3b 54 35 77 3a cf 63 43 b7
       0.00084600603 0.0032959953 0.0009430249 -1.1646144e-05
000030 62 fb 70 b7 ff 74 32 bc 3d 34 05 3a f0 9e c6 ba
       -1.4363644e-05 -0.010892152 0.00050813315 -0.0015153568
000040 af e6 b3 b9 03 30 47 b9 1f 5a 8c 39 3e b0 2d 3a
       -0.00034313413 -0.00018996005 0.00026770026 0.00066256884
000050 d4 c8 d5 bc d9 f2 03 3a b4 a1 2c bb 07 42 4d bb
       -0.026096739 0.00050334405 -0.00263415 -0.0031319873
000060 ca 75 0d ba 5f 8c 02 b9 59 14 0f bb 2d 81 42 ba
       -0.0005396275 -0.00012450058 -0.0021832197 -0.00074197614
000070 ca ff a3 ba 6c b6 13 b8 a6 b2 0e 3a b1 d4 d9 38
       -0.0012512144 -3.5217425e-05 0.0005443491 0.00010386983
000080 49 20 db 38 62 1f 43 38 37 4b 1f ba a3 b6 f7 39
       0.00010448747 4.652085e-05 -0.00060765765 0.00047247586
000090 cf 76 09 3b 8f 02 c0 3a 44 dc 0c 3a 47 7e b4 b9
       0.0020975356 0.00146492 0.00053733983 -0.0003442636
0000a0 31 9a cb b9 f9 ac 78 3a 72 11 ea bb cc 8b 7d b9
       -0.0003883406 0.0009486224 -0.007143193 -0.00024180039
0000b0 28 a1 9e ba 1c f4 70 b9 1d 75 c2 39 06 6a fc 39
       -0.0012102472 -0.00022979121 0.0003708982 0.0004814418
0000c0 c2 73 ca 3a 8e b1 03 bb
       0.0015445875 -0.0020094845

output_layer.weight f4 [2, 50]
000000 e6 76 82 3d cc ce 42 be 95 a0 90 be c8 73 db bd
       0.06370334 -0.19024199 -0.28247514 -0.10715443
000010 00 ec 06 be 30 3a be bd fb 5b 2f be d9 8c 81 3c
       -0.13175964 -0.09288442 -0.17124932 0.015814232
000020 e3 ea 81 3c 76 44 fe be ca ba 2e be 1e 85 e1 bb
       0.015859073 -0.49661607 -0.17063442 -0.006882324
000030 c6 3e a4 3c ec ba 99 3e f6 09 97 bd 25 1a 93 3d
       0.020049464 0.30025423 -0.07374947 0.07182721
000040 33 1e 86 3c f9 08 a0 bc 26 53 bf bc 80 32 fa bd
       0.016371822 -0.019535528 -0.023355078 -0.12216663
000050 56 98 2c 3f 2d 94 85 bd ef 64 f8 3d ee cb c3 3e
       0.67419946 -0.06522403 0.121286266 0.38241524
000060 ec fb 49 3e 93 0e 3c bb 84 db 8d 3e 35 67 4e 3e
       0.19725007 -0.002869521 0.2770654 0.20156558
000070 76 71 3b 3d cf 30 61 3c 02 ef 6e bd 92 4a 47 bc
       0.0457625 0.013744547 -0.058333404 -0.012163775
000080 f8 49 f5 3b da f9 3e bd 30 05 fc 3d a2 d6 7e be
       0.0074856244 -0.046624996 0.12305677 -0.24886563
000090 22 bc d6 bd 84 2e 7c be c4 0d fd bd 38 09 a8 3d
       -0.10485102 -0.2462712 -0.12356141 0.08204883
0000a0 7a 65 8a 3d cf 67 83 be 19 7f d1 3d 60 d8 79 bc
       0.06757636 -0.25665137 0.1022932 -0.015249342
0000b0 4c d9 d1 3d fc d5 b3 3d 92 f7 1d be ad 81 d9 bd
       0.10246524 0.08781049 -0.15426472 -0.10620437
0000c0 c7 15 ea bd 4a 0f be 3d fd 24 f6 bd b1 19 a7 3b
       -0.11429935 0.0928026 -0.12018774 0.005099498
0000d0 35 3b f7 bd 04 7c 90 bd 11 23 86 3d 90 1d f8 bc
       -0.1207184 -0.07054904 0.06549657 -0.030287534
0000e0 aa a6 d6 be 9c 2a d2 be cd 0a 90 3e 1e a2 42 3e
       -0.4192403 -0.41048133 0.2813324 0.19007155
0000f0 06 8f bb be 70 de ed bd ef f9 60 3e 9a 66 06 bd
       -0.36632556 -0.11614692 0.21970342 -0.032812692
000100 a6 0e b5 3d 99 2b a0 3e 15 9e d9 bd d6 1c 19 3e
       0.088406846 0.31283262 -0.10625855 0.14952406
000110 89 36 cc 3d e3 cd e4 bc 24 69 96 3e 8a 54 0e be
       0.09971339 -0.027930206 0.2937709 -0.13899437
000120 f0 31 03 3d 0f ff b4 be 52 17 e0 bd 5b 5b 20 3e
       0.032030046 -0.35350844 -0.10941948 0.1565985
000130 b0 90 38 be 7b 55 40 3c fe c9 1b be dc 4f e1 bd
       -0.18023944 0.01173913 -0.15213773 -0.1100156
000140 fd c5 96 be c1 79 e6 bd e3 8d ab bd 90 70 97 3d
       -0.29447928 -0.112536915 -0.08376672 0.073945165
000150 b5 f0 a9 3d 5f 18 03 3f 3d e1 3c bd ee 5f 86 3e
       0.08297864 0.5120906 -0.04611324 0.26245064
000160 ff e7 8d bd 80 e1 47 3e 02 b4 82 bd 98 db 89 bd
       -0.06929015 0.19519615 -0.0638199 -0.06731337
000170 5a ed cb 3d 65 eb 15 be c1 f0 8d be fe f4 52 3e
       0.099573806 -0.14640577 -0.27722743 0.2060127
000180 01 e6 3b 3c a4 9c 7f 3e 4f 75 22 3e a7 e7 43 be
       0.011468411 0.24962097 0.15865062 -0.19131337

output_layer.bias f4 [2]
000000 aa a4 35 3a 0e 93 b7 39
       0.0006929139 0.00035014044

exp_avg f4 [50, 2]
000000 b0 6a 61 41 a0 d9 34 c0 4f 94 b3 c0 23 cd 50 c0
       14.088547 -2.8257828 -5.611854 -3.2625206
000010 4b de 87 c0 6d 4a 52 3f d9 42 95 40 55 9e 7c 3f
       -4.2458854 0.82144815 4.66441 0.98679096
000020 ac f6 c8 40 47 e4 10 c0 b4 a4 4a c1 ad 96 d8 bf
       6.2801113 -2.263933 -12.665211 -1.6920983
000030 d6 10 bf 3f 14 60 c1 3d bc a5 cb 40 fd a0 7f 3e
       1.4927013 0.094421536 6.3639812 0.24963756
000040 0a 22 d2 bf 30 ef b7 3f a7 d4 59 41 32 b5 16 c0
       -1.6416638 1.4369869 13.614417 -2.3548093
000050 bd 1b 42 41 3a 68 c2 bd 06 10 bb bf 44 37 4f be
       12.131772 -0.09492536 -1.4614265 -0.20235926
000060 9e a4 5f bd 33 6a 1f bf 23 41 4b 41 2c 32 44 c0
       -0.05460035 -0.6227142 12.7034025 -3.0655622
000070 c7 8a 5b 40 dc c7 d9 3e db b7 41 41 4f 89 84 c0
       3.4303453 0.42535293 12.107387 -4.1417613
000080 ff fa b6 3d fb 1d 58 c0 50 db 37 41 1e 6e 16 40
       0.089345925 -3.3768299 11.491043 2.350471
000090 bd d6 94 c1 bf 78 11 41 bd 95 d5 bf e8 17 0d c0
       -18.604853 9.091979 -1.6686321 -2.2045841
0000a0 fb 1a 85 c1 6c 40 05 41 0b 31 8d bf 51 37 0e 40
       -16.638174 8.328228 -1.1030592 2.2221262
0000b0 93 fc b1 c1 5b eb b8 be d0 47 a0 c0 97 dc 1d bf
       -22.248327 -0.36117062 -5.008766 -0.6166472
0000c0 a9 8c d2 3f d1 ae 4d 40 30 88 31 41 29 5d d9 bf
       1.6449176 3.213795 11.095749 -1.6981555
0000d0 67 88 8c 40 4f 7f 5d c0 75 e3 c2 c1 c8 48 2a 41
       4.3916507 -3.4608953 -24.361063 10.642769
0000e0 9e 02 06 40 d9 03 37 40 07 af c5 40 a9 d8 00 c0
       2.0939097 2.8596098 6.1776156 -2.013224
0000f0 45 06 55 3f 2e 16 dd 3f ae 60 f6 40 65 52 81 c0
       0.8321269 1.7272394 7.6993017 -4.041308
000100 d6 60 55 3f 2e 67 50 3f d6 ba 5c c0 64 62 39 3f
       0.83350885 0.8140744 -3.4489036 0.7241576
000110 38 a9 31 bf 00 eb 4c 3f af de 33 41 76 5c 26 bf
       -0.6939883 0.8004608 11.241866 -0.64984834
000120 5c 4d d0 41 f3 b5 11 c1 e2 e4 24 c1 c6 64 95 40
       26.037773 -9.106921 -10.30588 4.6685514
000130 7b ff 41 c0 c7 9a 08 bf 3f 5b 1c c1 a6 46 6e 3f
       -3.0312183 -0.5336117 -9.772277 0.9307655
000140 f8 b4 e4 c0 e4 78 89 40 89 b6 58 c1 92 f2 f1 3d
       -7.147091 4.296007 -13.544564 0.11813845
000150 d0 ed 84 41 8f 23 bd bf c7 3f 8d c1 72 c1 47 40
       16.61612 -1.4776477 -17.656141 3.121182
000160 02 86 18 c1 72 f9 2e bf ec 63 47 c1 c2 30 9c c0
       -9.532717 -0.68349373 -12.461895 -4.880952
000170 39 59 a0 41 ab 93 88 3f 42 08 a7 c0 0c e0 82 3f
       20.043566 1.0670065 -5.219758 1.0224624
000180 3f 2b aa c0 ed 7d 1d 40 28 54 dd 40 f2 ef 05 40
       -5.317779 2.460811 6.916523 2.09277

exp_avg_sq f4 [50, 2]
000000 d3 9b ca 41 3b 7d d7 3f 0b 29 9d 41 9d 3e f0 3f
       25.326086 1.6835092 19.64504 1.8769108
000010 e5 af e6 41 89 0b aa 41 8e 84 d7 41 d3 48 68 41
       28.835886 21.255632 26.939724 14.517779
000020 21 50 69 42 c8 9e 11 42 85 20 d4 42 73 5f d7 42
       58.32825 36.40506 106.063515 107.686424
000030 72 35 ad 41 4d 03 f7 40 c1 5c f2 41 a7 ff 57 42
       21.651096 7.719153 30.29529 53.99966
000040 d8 19 f0 40 6e 4e 09 41 ba 4f 2a 42 fb fc fc 41
       7.5031548 8.581648 42.577858 31.623526
000050 54 2a a8 41 83 e0 9c 41 8c 73 89 42 18 de 4c 42
       21.020668 19.609625 68.72568 51.21689
000060 70 21 f4 41 f1 09 d1 42 33 77 be 42 81 aa ad 41
       30.516327 104.51942 95.23281 21.708254
000070 f4 82 e9 40 8c c5 a7 40 0d 53 aa 42 e1 c6 c0 41
       7.2972355 5.2428646 85.16221 24.097109
000080 af 85 12 41 9e 0a 17 41 a8 b7 84 41 fa 7d 35 42
       9.157638 9.440092 16.589676 45.373024
000090 60 a9 f2 41 cf 7b fc 41 9c 25 5a 40 68 ef f1 3f
       30.332703 31.560453 3.4085455 1.8901186
0000a0 83 9b 44 43 a6 71 f7 42 fa ac fa 40 6d 40 ba 40
       196.60747 123.72197 7.8336153 5.8203645
0000b0 4f 72 ae 42 70 db 32 41 cc 6d 90 3f dd f1 87 40
       87.22326 11.178574 1.1283507 4.2482743
0000c0 9e 25 00 42 d2 4f 7f 41 3c 5b d0 41 24 a2 05 40
       32.036736 15.956987 26.044548 2.0880213
0000d0 26 68 71 41 49 f2 33 41 73 af 83 42 9a dc 89 41
       15.087927 11.246652 65.842674 17.232716
0000e0 93 9c a5 41 03 d3 35 42 9f 97 ee 3f 58 b6 04 40
       20.701452 45.456066 1.8640021 2.0736294
0000f0 1b bf 64 41 84 01 15 42 0c 52 14 42 ba 32 8b 41
       14.296657 37.25148 37.080124 17.399769
000100 88 21 1d 41 b8 49 40 41 49 69 7b 42 ad c9 2c 43
       9.820686 12.017998 62.852818 172.7878
000110 1c d2 14 42 57 8a 91 41 07 28 52 42 d7 af 8b 40
       37.205185 18.192549 52.53909 4.365215
000120 94 07 b4 42 f0 3d 12 42 44 31 cd 40 7e 88 a9 41
       90.0148 36.560486 6.412264 21.191647
000130 13 13 05 41 af 0d 4a 41 c6 9e 96 41 41 d6 bf 40
       8.317157 12.628341 18.827526 5.994904
000140 9c 04 fc 40 a7 ac 29 41 78 04 4e 42 bb 72 da 42
       7.8755627 10.604651 51.504364 109.22408
000150 1e d0 16 43 b5 ff 29 42 d7 5c c5 42 98 ba 61 41
       150.81296 42.499714 98.68133 14.108055
000160 6d bf de 41 df 38 95 40 a2 53 71 42 7d 1e f1 41
       27.84347 4.6631923 60.331673 30.139887
000170 11 ca 8c 42 18 eb 5f 40 c4 47 e1 41 1c ef 28 41
       70.39466 3.498724 28.160042 10.558376
000180 95 78 38 41 e0 20 51 41 40 1c 92 41 79 ac 59 41
       11.529439 13.070526 18.263794 13.604608

exp_avg f4 [50]
000000 f5 cc 24 c1 b1 79 b0 40 0f f2 06 41 93 0b f0 3f
       -10.300038 5.514855 8.434096 1.8753532
000010 d5 c0 c6 40 ca 36 1b bf 65 93 85 c0 96 e4 b4 40
       6.211039 -0.60630476 -4.1742425 5.6529036
000020 0e c1 48 40 72 a7 15 c0 91 84 15 c0 7e 32 29 41
       3.1367831 -2.338345 -2.3362162 10.574827
000030 79 07 0a 41 c8 4d c1 c0 74 a4 35 c0 7b dc 76 bf
       8.626824 -6.040745 -2.8381624 -0.96430176
000040 3f 84 20 c1 5c b2 09 40 f2 7e 48 41 27 3c df bf
       -10.032287 2.1515112 12.5309925 -1.7440232
000050 4f d9 be 41 5d 5f 94 c0 b1 3f a3 40 a8 8b 43 40
       23.856108 -4.636641 5.101525 3.055399
000060 91 c4 9c 40 07 12 6a c0 b3 53 82 bf 56 f9 88 41
       4.898995 -3.6573503 -1.0181793 17.121746
000070 0a 47 0d c0 13 47 aa bf e1 57 ad bf 6e 54 c6 40
       -2.2074609 -1.330294 -1.3542444 6.1978064
000080 f6 13 7f c0 4a 7a d8 bf 83 dd c1 bf 3f 87 21 c0
       -3.9855933 -1.691232 -1.5145725 -2.5238798
000090 c1 8a 86 c1 77 d0 cc 3f 3e 69 0f 40 49 23 6e 40
       -16.81775 1.6001118 2.2407985 3.7209036
0000a0 54 ce 30 40 0d 39 98 c0 21 dc 37 c1 25 7c 32 41
       2.7625933 -4.756964 -11.491242 11.155309
0000b0 69 61 02 40 c2 90 03 3f c3 a1 11 c1 3a bf 14 c0
       2.0371954 0.5139276 -9.101993 -2.3241715
0000c0 63 c3 0a 3f d8 ca ae be
       0.54204386 -0.34139132

exp_avg_sq f4 [50]
000000 81 97 db 42 f6 e4 b4 42 94 00 83 44 15 39 db 44
       109.795906 90.44719 1048.0181 1753.7838
000010 8b 54 23 45 52 a5 0f 45 af 93 38 44 d0 90 92 44
       2613.284 2298.3325 738.30756 1172.5254
000020 74 d7 fd 43 1a 6f ae 43 eb 7f 00 44 05 7b 3c 45
       507.68323 348.86798 513.9987 3015.6887
000030 ce e8 ce 44 da 47 99 44 30 9e 16 44 a6 54 40 44
       1655.2751 1226.2454 602.4717 769.32263
000040 5a 19 d6 43 75 b3 f4 43 31 9b 9c 43 13 07 fb 42
       428.19806 489.402 313.21243 125.51382
000050 d6 84 c0 45 27 96 34 43 58 13 d2 43 78 f8 57 42
       6160.6045 180.58653 420.15112 53.992645
000060 8a d1 58 44 92 d3 85 43 fd e7 74 44 47 43 e8 43
       867.27405 267.6529 979.6248 464.5256
000070 8d ba 3f 44 87 0b 1c 42 72 93 24 44 b6 99 46 44
       766.91486 39.011257 658.30383 794.40173
000080 b9 b8 51 43 b5 70 0c 45 6f c8 4f 44 d1 28 76 43
       209.72157 2247.0442 831.1318 246.15944
000090 ff df 08 44 c9 79 16 43 45 fe 0f 43 ce 5e 74 43
       547.49994 150.47572 143.99324 244.37033
0000a0 a2 6e c6 42 9f e9 b4 44 79 b0 96 45 39 d6 9c 44
       99.21608 1447.3007 4822.059 1254.6945
0000b0 12 62 81 43 df 03 35 43 6b 53 67 43 a6 c9 d9 44
       258.76617 181.01512 231.32585 1742.3015
0000c0 dd 1a 61 43 49 9f 94 43
       225.10493 297.24442

exp_avg f4 [50, 50]
000000 f1 ea 2a bf 8b b7 e6 bf 30 84 1a 41 c0 9b 30 c1
       -0.6676474 -1.8024763 9.657272 -11.038025
000010 fd b1 00 c1 b8 79 eb 40 c6 f0 68 41 b7 c7 13 41
       -8.043454 7.3586082 14.558783 9.2362585
000020 95 14 8c 40 26 07 a7 40 98 cf dd c0 26 aa 46 c1
       4.3775125 5.2196226 -6.931591 -12.41654
000030 db 7e 9f c0 7f a4 0b 40 df 2e 40 41 c0 78 05 c1
       -4.9842353 2.181915 12.011443 -8.34198
000040 7c 8a cb c0 a0 ea df 40 af 4c cc bf 4b f1 c6 c0
       -6.360655 6.9973907 -1.5960902 -6.2169547
000050 25 a3 54 c0 9a 95 c0 40 7f 3d f5 c0 97 70 9a c0
       -3.3224576 6.018262 -7.663757 -4.826244
000060 a5 10 08 40 e4 17 b2 c0 2e 9a 3c bf 82 91 6a c0
       2.126016 -5.5654163 -0.7367276 -3.665131
000070 5b 6b be c0 34 00 19 40 a2 15 e3 3f 65 ab 4c 40
       -5.950605 2.3906374 1.7740977 3.197961
000080 d8 5c 15 c1 60 83 a1 3f cd 7d e9 40 81 de 90 c0
       -9.335167 1.2618217 7.2966065 -4.527161
000090 fb 43 34 40 fd fa 30 c0 c6 0e 9d bf 2c df a9 c0
       2.8166492 -2.765319 -1.2270133 -5.3084927
0000a0 ec 9b 9a bf 5c af 1f 3f e8 6f 19 40 56 c4 25 40
       -1.2078834 0.6237695 2.3974552 2.5901084
0000b0 52 85 c8 c0 6e fb 0a 41 5f 06 ea 40 d1 6a 06 c1
       -6.2662745 8.686384 7.3132777 -8.401078
0000c0 30 31 00 c0 5d 5c 4c 41 79 96 a7 c0 87 98 3e c0
       -2.0030022 12.77255 -5.2371182 -2.9780595
0000d0 fc 6c 74 41 c6 d3 8a c1 8b 89 75 c1 58 9f 23 41
       15.2766075 -17.353405 -15.34608 10.226402
0000e0 64 bd a8 41 20 63 5b 41 de d2 53 40 f1 85 18 41
       21.092476 13.7117 3.3097453 9.532701
0000f0 c2 5a 44 c1 f4 39 97 c1 a3 4b ad c0 7d 06 72 3f
       -12.272158 -18.903297 -5.415483 0.9454115
000100 20 6b 91 41 d2 1f 3a c1 6a a7 0f c1 e5 6d 10 41
       18.177307 -11.632769 -8.978373 9.02683
000110 91 e5 44 c0 7f a5 e2 c0 ad 66 0f c1 2b 53 19 41
       -3.0765116 -7.082702 -8.962567 9.582805
000120 48 d0 22 c1 8b 34 e0 c0 c7 81 9e be 15 a6 b5 c0
       -10.17585 -7.006414 -0.30958387 -5.6765237
000130 ed 00 97 3f 32 b4 09 c1 2c 0e 26 c1 75 bd df 40
       1.1797158 -8.606493 -10.37846 6.991877
000140 fc 90 b5 40 6e bd 83 40 de 60 69 c1 0e d9 2c 40
       5.6739483 4.1168737 -14.586149 2.700748
000150 f7 d3 48 41 b1 63 70 c0 ef 4f ed 40 84 73 93 c0
       12.551749 -3.7560847 7.4160075 -4.607851
000160 69 60 8a 3f 97 9d f7 c0 cb b1 b1 c0 94 a9 5a 3e
       1.0810672 -7.737987 -5.5529532 0.21353751
000170 12 d1 65 3f 36 b9 d4 40 62 65 d4 c0 8e 6b 39 41
       0.8977214 6.6476088 -6.637376 11.588758
000180 b6 f9 19 41 e3 a9 67 c1 af 36 70 c0 db 10 9a 41
       9.623465 -14.478976 -3.7533376 19.25823
000190 f8 dc da be c8 5a 86 3f 77 ba b2 c0 41 ea c9 40
       -0.4274671 1.0496454 -5.585262 6.3098454
0001a0 a7 d1 8b 40 14 6a 90 c0 da 1f 01 c1 81 15 ae c0
       4.3693423 -4.512949 -8.070276 -5.440125
0001b0 f2 71 48 c0 80 3f 3a c0 d8 54 7c 40 a0 ec e0 40
       -3.1319547 -2.9101257 3.9426785 7.028885
0001c0 f4 55 55 40 ea 66 de bf 44 83 da c0 00 4a a1 40
       3.3333712 -1.7375157 -6.8285236 5.040283
0001d0 08 64 7a 40 5f a1 8b c0 e8 e8 5c 3f 27 5b 80 40
       3.9123554 -4.3634486 0.86292887 4.011127
0001e0 3c db a6 3f cb 90 66 c0 01 3d 96 40 fe 8c 40 40
       1.3035655 -3.6025875 4.694947 3.0086055
0001f0 bc 00 f6 bf 51 e6 6d 40 40 c3 61 3f 19 c6 d8 3f
       -1.9218974 3.7171824 0.8818855 1.6935455
000200 93 6c 5b 40 c0 67 60 bf 0a ca 0d bf 3f f2 05 c0
       3.4285018 -0.8765831 -0.5538641 -2.0929105
000210 8e 1d ae 40 a2 93 24 bf b8 0f 86 c0 23 cf 4c 40
       5.4411077 -0.6428777 -4.189419 3.2001426
000220 20 28 93 bf 90 25 d6 3f b5 25 a2 3f 43 28 51 40
       -1.149662 1.6730213 1.2667757 3.2680824
000230 bb 2e e2 3c a2 7b 0b bf e6 a2 f7 bf 5d 99 91 bf
       0.027610173 -0.54485524 -1.9346588 -1.1374928
000240 44 fe 81 40 79 04 a8 c0 da 48 90 c0 10 cb 98 40
       4.0622883 -5.250546 -4.508893 4.774788
000250 50 e5 8d 3f 73 9e e6 c0 ae d0 a3 bf 71 ef 24 bf
       1.1085606 -7.206842 -1.2798059 -0.6442786
000260 b8 07 5b 40 57 bb 7a c0 d2 bd 4f c0 b9 40 2a 40
       3.422346 -3.9176843 -3.2459607 2.6602004
000270 77 b0 a7 40 f8 d0 53 40 65 fc 92 3f 68 87 f9 3f
       5.240291 3.3096294 1.1483275 1.9494448
000280 0d 90 23 c0 ab 28 8d c0 45 0e d9 bf be 5d 05 3f
       -2.5556672 -4.4112144 -1.695748 0.52096164
000290 f0 00 89 40 1c 23 44 c0 60 f3 10 c0 0f b2 25 40
       4.2813644 -3.064643 -2.2648544 2.5889928
0002a0 5f 6f 17 bf 4d 96 0f c0 3b e3 fb bf c8 48 07 40
       -0.59154314 -2.2435486 -1.967872 2.1138172
0002b0 78 3f 38 c0 87 0d d5 bf 9e 35 d1 3d a3 2d f0 bf
       -2.8788738 -1.6644753 0.10215305 -1.8763927
0002c0 5e c4 4b 3c bc cb de bf 4b 20 0a c0 c3 ed b5 3f
       0.012436954 -1.7405925 -2.158221 1.4213184
0002d0 e1 8c 8a 3f e6 bd 89 3f ff f2 53 c0 04 39 fb 3e
       1.0824243 1.0761077 -3.3117063 0.49066937
0002e0 66 3d 29 40 bd bc a4 bf 8a 22 bf 3f 8d e6 78 bf
       2.6443725 -1.2870098 1.4932415 -0.9722679
0002f0 7d 70 53 bb 8a 10 ed bf 84 29 97 bf c1 46 1e 3e
       -0.0032263093 -1.8520672 -1.1809545 0.15456678
000300 d2 02 03 3f 27 ff a2 3f ba 8a 0e c0 ce 82 55 40
       0.5117618 1.2734116 -2.2272172 3.3361087
000310 3d cd 2e 40 be 3c 44 c0 52 cb 3e bf 54 7b 91 40
       2.7312768 -3.0662074 -0.7452899 4.5463047
000320 6f 45 4e 40 81 73 35 40 f3 bf 71 c1 00 6e 8b 41
       3.222988 2.8351748 -15.109363 17.42871
000330 52 b8 5b 41 19 59 2d c1 40 fc b7 c1 15 d3 60 c1
       13.7325 -10.834252 -22.998169 -14.051534
000340 c4 eb a7 c0 90 ec 08 c1 34 56 33 41 ca c3 9c 41
       -5.24753 -8.5577545 11.208546 19.5956
000350 07 95 d8 40 1b cd 17 c0 54 b1 96 c1 2e d5 45 41
       6.768192 -2.3718936 -18.836586 12.364546
000360 9c d8 16 41 54 5a 22 c1 f5 a4 28 40 67 b9 0a 41
       9.427883 -10.147053 2.6350682 8.670264
000370 44 1e df 40 c2 f7 12 c1 15 97 34 41 83 d9 e2 40
       6.9724445 -9.185488 11.286885 7.0890517
000380 93 4c c7 bf 19 64 ed 40 cb c9 0c 3e cd 5a de 40
       -1.5570244 7.418469 0.13748853 6.948584
000390 94 8f 17 41 82 7d a4 c0 58 00 80 c0 a1 11 91 c0
       9.472553 -5.140321 -4.000042 -4.533402
0003a0 1f b5 67 41 b0 e4 0a c0 b8 81 3a c1 9e 26 b2 40
       14.481719 -2.170208 -11.65667 5.567214
0003b0 2c 1c b7 c0 d3 84 86 40 93 94 19 3f ff 94 fc 40
       -5.722189 4.203714 0.5999233 7.893188
0003c0 30 8f 6a 40 08 e8 19 bf 82 3f 1f c0 54 dc a0 c0
       3.6649895 -0.60119677 -2.4882512 -5.0268955
0003d0 1f 80 09 41 07 b7 4c c1 b9 be 2b c1 ef 2b 59 41
       8.59378 -12.794684 -10.734063 13.573226
0003e0 de 9d 51 40 27 3a a1 c1 ed fe b8 40 b2 b6 65 40
       3.2752604 -20.153395 5.781119 3.5892758
0003f0 7d 1b 93 c1 95 b7 a7 41 e9 a8 99 41 33 d6 45 c1
       -18.388422 20.96464 19.207476 -12.364795

exp_avg_sq f4 [50, 50]
000000 a9 66 40 40 c9 18 d2 3f 78 f5 bb 41 9d ff f1 41
       3.0062659 1.6413814 23.494858 30.249811
000010 4c 4e 77 41 0d 66 50 41 ac c3 41 42 79 32 a0 41
       15.456615 13.024915 48.441086 20.024645
000020 00 fb 9f 40 59 c9 20 41 d3 b9 6e 41 cc f5 0d 42
       4.9993896 10.049157 14.920367 35.490036
000030 27 cf a3 40 d3 0a 85 3f f9 ed 0d 42 d5 f4 8a 41
       5.119037 1.0393928 35.482395 17.369547
000040 d3 fa 25 41 5f 49 28 41 b2 07 06 40 ef 01 13 41
       10.373736 10.517913 2.0942197 9.187972
000050 94 e3 82 40 f1 86 28 41 05 5d 5c 41 54 af 16 41
       4.0902805 10.532945 13.77271 9.417805
000060 d7 3f 0f 40 ef 50 0a 41 b3 ac dc 3f c1 75 c0 40
       2.2382715 8.644759 1.7240204 6.0143743
000070 7e 6c 1f 41 45 77 b0 40 05 b7 5c 40 20 c1 52 40
       9.963987 5.5145593 3.4486706 3.2930374
000080 1f 0b ae 41 d5 6b 6a 3f c6 8c 55 41 d3 27 a1 40
       21.75543 0.9157079 13.3468685 5.0361114
000090 0d 6c 25 40 64 75 29 40 b9 31 48 40 80 2d e1 40
       2.58472 2.64779 3.1280348 7.036804
0000a0 d7 a5 d1 3f 45 c4 4b 3f 00 3c 9a 3f ac 8a 70 40
       1.6378735 0.7959636 1.204956 3.7584639
0000b0 f5 29 e9 40 46 b4 8d 41 87 21 47 41 24 c4 8c 41
       7.2863717 17.713024 12.445685 17.595772
0000c0 e3 41 5a 40 fd b1 15 42 4f e2 22 40 5a 75 97 3f
       3.4102714 37.423817 2.5450628 1.1832688
0000d0 12 fd f7 41 ad 92 20 42 e0 cd c3 41 87 23 66 41
       30.99857 40.143238 24.475525 14.383674
0000e0 b5 d7 7c 42 0c 01 cc 41 da d0 26 40 59 09 36 41
       63.21065 25.500511 2.6064973 11.377282
0000f0 b9 07 97 41 47 24 41 42 e8 89 8e 40 2c 70 0f 3f
       18.87877 48.285427 4.4543343 0.56030536
000100 be 64 35 42 58 b2 96 41 46 62 30 41 c7 8f 2f 41
       45.34838 18.837082 11.023993 10.972602
000110 10 17 a3 3f 21 8b e5 40 9f e8 d7 40 26 0d 4b 41
       1.2741413 7.1732335 6.747146 12.69071
000120 63 6d 60 41 3e 87 fc 40 3b d5 3d 3f 8a a1 b5 40
       14.026706 7.891509 0.7415349 5.675969
000130 b4 ac 35 3f ef 68 f2 40 52 55 56 41 85 5e aa 40
       0.7096665 7.5753093 13.39583 5.324038
000140 12 c1 60 40 22 30 2a 40 0e 51 e4 41 69 9c 63 3f
       3.511784 2.6591878 28.539577 0.8891054
000150 c2 5d 9b 41 44 68 44 40 b1 7b 9c 40 60 90 3e 40
       19.42078 3.0688639 4.890099 2.977562
000160 b9 6a 98 3f eb b3 01 41 0b a1 20 40 93 4a 88 3e
       1.1907569 8.106425 2.5098293 0.26619396
000170 37 66 23 3f 52 a7 93 40 c5 e8 c2 40 cd a5 90 41
       0.6382784 4.614175 6.0909142 18.080957
000180 7f 31 48 41 ce 6b cb 41 b7 c5 fa 3f d0 d8 49 42
       12.512084 25.427639 1.9591588 50.46173
000190 cb 2d 1e 40 d6 5e ad 3f 48 d1 6c 40 d4 25 4a 40
       2.471545 1.3544567 3.7002735 3.1585588
0001a0 95 4d 1b 40 05 fa ac 3f 12 7c 6d 40 70 1f c7 3f
       2.4266102 1.35138 3.7106977 1.5556469
0001b0 09 5b 37 40 72 06 ac 40 0e 35 9b 40 27 94 23 40
       2.8649313 5.375787 4.8502264 2.5559175
0001c0 59 65 34 3f 13 02 59 3e 2c 87 b0 40 94 2a 6b 40
       0.70467144 0.21192198 5.5165005 3.6744738
0001d0 a8 45 c6 3f e6 f7 88 3f 8e e3 f1 3f 24 e8 c6 3f
       1.5490007 1.0700653 1.8897569 1.5539594
0001e0 17 dc f7 3f fb ac 0f 40 d0 8a e2 3f af 0a ba 40
       1.9364041 2.244933 1.7698612 5.813804
0001f0 42 b3 0f 40 60 81 3e 40 bc b6 f6 3f 7a 17 49 40
       2.245316 2.9766464 1.9274516 3.142058
000200 be b9 d5 3f af 05 95 40 da c2 d0 3f 99 4e 34 3f
       1.6697309 4.656944 1.6309464 0.7043243
000210 8c 6a 0a 40 db 9f 18 3f de 29 bb 3f 6a be 91 3f
       2.162753 0.5961892 1.4622152 1.1386235
000220 dd a0 ed 3e 33 c0 bf 3e 0b 10 43 40 0a 14 a6 3f
       0.4641179 0.37451324 3.0478542 1.2974865
000230 ce a7 2d 3f ff 64 cc 3e ac 09 92 3e 57 d8 36 40
       0.67834175 0.39920804 0.28523004 2.8569543
000240 8c 32 90 3f 8f 8c 03 40 aa dc 38 40 13 3c c8 3f
       1.1265426 2.055454 2.8884683 1.5643333
000250 e9 19 5c 40 f2 e5 27 40 76 49 04 41 03 c2 36 41
       3.4390814 2.6234097 8.267935 11.422366
000260 6e 12 55 41 66 42 07 41 25 08 83 41 27 19 dd 40
       13.316999 8.453711 16.378977 6.9093204
000270 39 3e 48 41 eb 3e a5 40 a0 fb b3 41 8b 2e 91 41
       12.515191 5.1639304 22.497864 18.147726
000280 21 be 63 41 88 59 33 41 27 41 48 3f 15 e2 8d 3f
       14.233918 11.209358 0.78224415 1.108462
000290 34 4d 96 41 3e a3 28 41 e6 53 49 41 9d d6 99 3f
       18.787697 10.539854 12.582983 1.201862
0002a0 ab d5 91 41 25 b1 09 41 d5 d4 4b 41 d9 cf 83 40
       18.22933 8.605748 12.739461 4.119122
0002b0 6d f5 12 40 b5 7e 25 41 01 d5 9a 41 58 b4 3c 40
       2.2962296 10.343434 19.354006 2.9485073
0002c0 9e 48 a7 40 d4 2a 26 41 9d e3 7d 41 14 79 33 41
       5.2276144 10.385456 15.86807 11.21706
0002d0 c8 04 7b 40 fe 18 3d 40 f0 11 d2 40 2d 77 ad 40
       3.9221668 2.9546504 6.5646896 5.420798
0002e0 58 e0 13 41 5a 62 7f 40 99 04 e8 40 73 85 ee 3f
       9.242271 3.990378 7.250561 1.8634475
0002f0 a6 0d a4 40 46 eb 11 41 b3 2b a3 40 f6 df d3 3e
       5.126666 9.11994 5.0990844 0.41381806
000300 82 f8 25 40 b8 f7 8d 41 31 3d 5d 40 40 90 26 40
       2.5932927 17.745956 3.4568598 2.6025543
000310 3f ea 33 41 d9 8e dd 40 9b cb df 41 f1 a2 43 41
       11.244689 6.9236875 27.974417 12.227281
000320 c5 91 89 41 25 44 a7 40 31 18 10 43 8d 86 39 43
       17.196177 5.2270684 144.0945 185.52559
000330 b6 4f f4 42 0d 63 78 42 20 09 92 43 b0 e2 eb 42
       122.155685 62.09673 292.0713 117.94275
000340 7b ed 75 40 10 25 58 42 b3 b5 b3 42 33 78 60 43
       3.8426197 54.036194 89.85488 224.46953
000350 f3 9b 52 41 8e 44 30 3f 2e ba 50 43 a2 46 a3 42
       13.163074 0.68854606 208.72726 81.637955
000360 dd 65 3b 42 a0 17 2e 42 21 77 c6 40 f1 be b5 41
       46.849476 43.52307 6.202042 22.718233
000370 29 37 28 42 c3 b6 66 42 d2 63 64 42 2e 76 ec 41
       42.053867 57.67848 57.09748 29.557705
000380 b5 18 0b 40 2a 52 53 41 3e 35 0b 40 43 ce 25 42
       2.173383 13.20756 2.1751246 41.451427
000390 28 ce 84 42 f7 bd ea 41 92 5c a5 41 ae 73 12 41
       66.40265 29.342756 20.6702 9.153242
0003a0 d5 19 05 43 aa 13 a0 40 d8 e0 bd 42 ea 48 a7 40
       133.1009 5.0024004 94.93915 5.2276506
0003b0 37 cd fc 41 57 64 5e 41 ee 80 32 40 3e f6 0c 42
       31.600203 13.899497 2.7891192 35.24047
0003c0 3c ab 97 41 91 86 04 3e 7d 1a 62 3f 0e 94 de 41
       18.95861 0.12941958 0.8832167 27.822292
0003d0 18 23 8a 41 e4 0c 9a 42 63 ad 48 42 4c 91 f4 42
       17.267136 77.02518 50.169323 122.28378
0003e0 26 0f 12 41 7e 66 6a 43 c9 59 4d 40 c3 a9 81 40
       9.128698 234.40036 3.208605 4.051973
0003f0 20 76 b3 42 e8 00 e8 42 06 14 7e 42 b6 75 37 42
       89.73071 116.00177 63.519554 45.864952

exp_avg f4 [50]
000000 33 62 9b bf 3a d3 91 c0 0a 8b 1d 40 b2 7a 1f bf
       -1.2139343 -4.5570345 2.4616113 -0.62296593
000010 83 4b cb 3f c2 2d 0a 41 35 01 2d bf 4e ab a8 c0
       1.5882419 8.636171 -0.67579967 -5.270911
000020 b6 c0 e1 be a5 8c 62 c0 db 89 9b c0 0d 6e 75 bf
       -0.4409234 -3.5398343 -4.860578 -0.9587105
000030 d6 0d 35 40 3e b1 02 bf 41 96 a3 be c9 5c a5 bd
       2.8289695 -0.510517 -0.31950572 -0.08074338
000040 37 6b 2a c1 16 28 63 c0 4f 80 12 41 63 69 9b c0
       -10.6511755 -3.5493217 9.156325 -4.8566146
000050 89 c9 98 c0 dc 6a d8 bf 8f 29 89 c0 e9 18 01 c1
       -4.7746015 -1.6907611 -4.286323 -8.068582
000060 de 45 9e c0 15 66 00 c0 3a de f3 3f 3b 4d 79 40
       -4.9460287 -2.0062306 1.9052193 3.8953388
000070 a0 8e b5 c0 0a 5f 6d 40 bb 69 1d 40 1a b9 7a 40
       -5.6736603 3.7089257 2.4595783 3.9175477
000080 e5 51 42 40 6c ce ca 40 85 9d d3 c0 c7 1f 9e c0
       3.0362484 6.337698 -6.6129785 -4.941379
000090 9e 93 bc c0 d5 29 d7 40 a0 ff cc 40 74 83 9b 3f
       -5.8930197 6.7238564 6.406204 1.2149491
0000a0 0f c2 f3 be 6a a4 e6 40 1b 85 68 40 a0 bf b8 bf
       -0.47608992 7.20757 3.633124 -1.4433479
0000b0 04 ab 15 41 11 19 0c c0 50 9f 11 c0 83 07 8e be
       9.354252 -2.18903 -2.2753487 -0.27740106
0000c0 00 d3 25 c0 f9 01 b3 3d
       -2.5910034 0.08740611

exp_avg_sq f4 [50]
000000 0f 3c 6e 43 1a 81 b6 41 34 f6 a6 42 8c 3b 0c 45
       238.2346 22.813038 83.480865 2243.7217
000010 4b ad cf 41 8a 90 0a 43 bc 87 a8 43 22 a8 9a 43
       25.959616 138.5646 337.06042 309.31354
000020 a5 c0 94 41 b9 60 d3 42 5f 08 b1 41 b1 f0 87 43
       18.594065 105.68891 22.129087 271.8804
000030 51 20 38 43 61 b7 68 43 73 61 f4 44 c7 fd 79 44
       184.12624 232.71632 1955.0453 999.9653
000040 10 b6 0b 44 3c 3b 85 41 d4 a4 78 41 fb e4 9d 43
       558.8447 16.653923 15.540241 315.7889
000050 f2 14 5e 42 e4 99 92 43 f7 0e 6a 41 05 6b b8 42
       55.520454 293.20227 14.628654 92.20902
000060 2d 3c 8b 42 22 d3 1a 42 76 73 44 42 d5 46 40 42
       69.61753 38.706184 49.112755 48.06917
000070 05 63 3e 42 79 4c e5 42 9b 8a 81 42 b1 96 e3 41
       47.5967 114.64936 64.77071 28.44858
000080 79 f1 f7 43 d1 5a 4c 43 ac fa b7 42 39 d5 ad 42
       495.8865 204.35475 91.98959 86.91645
000090 b4 3f fb 42 f0 e7 d0 41 a8 13 8e 44 b3 bd 25 43
       125.62442 26.11325 1136.6143 165.74101
0000a0 d6 f7 37 42 7f de b0 42 86 96 08 43 f8 04 2c 44
       45.992027 88.43456 136.58798 688.07764
0000b0 78 fe e3 40 52 2c 5c 42 27 84 0b 44 13 a3 83 41
       7.124813 55.04328 558.0649 16.454626
0000c0 bd 62 6c 44 31 89 8f 42
       945.5428 71.76795
