weights/checkpoint/example0000_train_adam.pth (torch, 74678 bytes, 27 tensors)

a f4 [5]
0	0x3ee6347e	0.44961923
1	0x3f49e570	0.7886572
2	0x3f3e9144	0.7444041
3	0x3e4ccccd	0.2
4	0x3f1ea456	0.61969507

input_layer.weight f4 [50, 2]
0	0xbf2973b8	-0.661922
1	0xbe2b4d6a	-0.1672875
2	0xbeb8d58c	-0.36100423
3	0xbe4b8c1f	-0.1987767
4	0xbf227d14	-0.63472104
5	0x3e88ec3b	0.2674273
6	0xbf25ba9b	-0.6473786
7	0xbd770198	-0.060304254
8	0x3e7d0a20	0.24710894
9	0xbe610397	-0.21974026
10	0x3ec7f287	0.3905222
11	0x3dd31123	0.10306003
12	0x3ec6b8e5	0.38812938
13	0x3eddc56c	0.43314683
14	0xbeaf219e	-0.34205335
15	0x3e8057ae	0.25066894
16	0xbea0022e	-0.31251663
17	0x3e4dc66b	0.20095222
18	0xbecc8abf	-0.39949605
19	0x3eac55d2	0.33659226
20	0x3e1f60c5	0.15564258
21	0xbe8fa14f	-0.28052756
22	0xbebd45b4	-0.36967242
23	0x3e2c0008	0.16796887
24	0x3f23e50c	0.6402137
25	0x3eb72ca4	0.35776246
26	0xbdc76822	-0.09736659
27	0xbd68186c	-0.056663916
28	0x3ee4f62e	0.4471907
29	0xbef97fa6	-0.487302
30	0x3e831c63	0.25607595
31	0xbe7f6134	-0.24939424
32	0x3ec8d0b8	0.3922174
33	0xbe83e0b9	-0.25757387
34	0x3d12aa7f	0.03580713
35	0x3e6cdd2b	0.23131244
36	0x3efb054f	0.49027488
37	0xbdc5f309	-0.09665496
38	0x3f1d3b0a	0.6141821
39	0xbf20f8ba	-0.62879527
40	0xbde479d1	-0.11156047
41	0xbf35cda7	-0.71016926
42	0x3da6ade5	0.081386365
43	0x3e347c8e	0.17625639
44	0xbe8c284b	-0.2737449
45	0x3e914385	0.28371826
46	0xbdfc8b9a	-0.123313144
47	0xbf2432f7	-0.64140266
48	0x3f03724c	0.5134628
49	0x3ef4fd04	0.47849286
50	0x3eb82961	0.3596907
51	0x3f141d83	0.5785753
52	0x3e79f590	0.24410081
53	0x3ebc9837	0.3683488
54	0x3f11c9c1	0.5694848
55	0xbe0d8a10	-0.13822198
56	0xbf1363ec	-0.57574344
57	0xbeaeffa3	-0.3417941
58	0xbdc6721b	-0.09689733
59	0xbd83df6a	-0.06439097
60	0x3bab4cf4	0.0052276794
61	0x3edf8653	0.4365717
62	0x3e554980	0.2082882
63	0xbf155a0b	-0.5834052
64	0xbe78674b	-0.24258153
65	0xbe35804a	-0.1772472
66	0x3ecdcea9	0.40196732
67	0xbe7cb573	-0.24678592
68	0xbe94d31d	-0.29067317
69	0xbdecef79	-0.11569113
70	0xbe43dd3e	-0.19127366
71	0xbe3bd6cb	-0.18343656
72	0xbf2dbdec	-0.6786792
73	0x3f282569	0.65682083
74	0x3eb70b90	0.3575101
75	0xbe9fa705	-0.31182113
76	0xbed66bb8	-0.41879058
77	0x3cf4f0f5	0.029900054
78	0x3ed9a4fc	0.42508686
79	0xbf0265ad	-0.50936395
80	0xbe871456	-0.26382703
81	0x3e98aa17	0.29817268
82	0xbef5bc96	-0.47995442
83	0xbdee896c	-0.11647305
84	0xbf02d1aa	-0.5110117
85	0x3f2eec17	0.68328995
86	0x3eb5043d	0.35354796
87	0xbf2f91c1	-0.6858178
88	0xbec90e99	-0.3926895
89	0x3e8a30b2	0.26990277
90	0x3cbc3df2	0.022978757
91	0x3e4207cf	0.18948291
92	0xbf137bfb	-0.57611054
93	0xbec9ec94	-0.39438307
94	0x3eabf37a	0.33584195
95	0xbf01bb2e	-0.5067624
96	0xbe316023	-0.1732183
97	0x3ea55272	0.32289463
98	0x3eaf170e	0.34197277
99	0x3c154708	0.009111173

input_layer.bias f4 [50]
0	0x3e5cb0cb	0.21551816
1	0x3e9316ad	0.28728238
2	0xbdf05c39	-0.1173634
3	0xbe3c715e	-0.18402621
4	0x3f0ea365	0.5571807
5	0x3f30ac75	0.6901315
6	0x3e9fbca7	0.31198618
7	0xbe9401b1	-0.2890754
8	0xbf1feb7e	-0.6246871
9	0xbf30696a	-0.6891085
10	0x3d0529b3	0.03251047
11	0xbe94645c	-0.28982818
12	0xbe4d6089	-0.20056356
13	0xbde74aa9	-0.11293537
14	0x3f263b93	0.64934653
15	0x3f29743d	0.6619299
16	0xbda3f22b	-0.08005174
17	0xbe6c37c2	-0.23068145
18	0x3eb072d5	0.3446261
19	0xbb18cb8b	-0.002331468
20	0xbf2686c1	-0.6504937
21	0x3e6fe337	0.2342652
22	0x3f31c7cb	0.69445485
23	0xbf08fe9e	-0.53513515
24	0xbe2e4014	-0.17016631
25	0x3e36e4c1	0.178607
26	0xbf18e96d	-0.5973118
27	0xbf1f1760	-0.6214504
28	0x3f06b679	0.5262218
29	0xbe8687fd	-0.26275626
30	0x3ec2729d	0.37978068
31	0x3db1a5ec	0.08674225
32	0x3e0fc622	0.14040425
33	0xbefd7fc6	-0.49511546
34	0xbe37cf7a	-0.1795024
35	0x3ee8871a	0.45415574
36	0x3e92f7bf	0.2870464
37	0xbe57a9d0	-0.21060872
38	0x3e010db2	0.1260288
39	0x3f06d3e8	0.52667093
40	0xbf1e2370	-0.61772823
41	0x3ede3609	0.434006
42	0xbe829ad4	-0.2550875
43	0xbde82278	-0.113346994
44	0x3ea88197	0.3291137
45	0xbf1a35d4	-0.60238385
46	0xbddc0d0b	-0.10744675
47	0x3f31e254	0.69485974
48	0x3e7cbf85	0.24682434
49	0xbe8df776	-0.2772786

hidden_layers.0.weight f4 [50, 50]
0	0x3be2703b	0.0069103516
1	0x3e144235	0.14478381
2	0x3d8f2e4b	0.069912516
3	0x3de22616	0.110424206
4	0xbd9137b1	-0.070907004
5	0x3d7fa1fe	0.062410347
6	0x3d105999	0.035241697
7	0x3c9ffdb2	0.019530151
8	0x3de44f70	0.11147964
9	0x3d6cc9d0	0.05780965
10	0x3da79bac	0.08183989
11	0x3d72e503	0.059300434
12	0x3cb09355	0.021554628
13	0xbd12fab8	-0.035883635
14	0xbddce4e4	-0.10785845
15	0xbdc21c3d	-0.09478042
16	0xbdf99e55	-0.121884026
17	0xbde41675	-0.11137096
18	0x3d86981c	0.06571981
19	0x3ba39433	0.004992032
20	0xbd8b67c6	-0.068069026
21	0xbdb7e712	-0.0897962
22	0x3e2fe69e	0.17177817
23	0x3da3e7c4	0.0800319
24	0x3d0364be	0.032078497
25	0x3e16c2f4	0.14722806
26	0xbddd7e35	-0.10815088
27	0xbdea8fb1	-0.11453188
28	0xbd3ea05b	-0.046539646
29	0xbcc006b9	-0.023440706
30	0xbdca95a0	-0.0989182
31	0x3dd9cee3	0.10635164
32	0x3cfe705b	0.031059435
33	0x3d174d92	0.03693921
34	0xbda240ea	-0.079225376
35	0x3c8298fc	0.01594209
36	0x3d6cc1d4	0.057802036
37	0xbd92c4d8	-0.07166451
38	0x3e2b29df	0.16715191
39	0xbd5cd8c4	-0.05391766
40	0x3cbd1d70	0.023085326
41	0xbd7c1edf	-0.06155288
42	0xbc398851	-0.011324004
43	0xbd8e5a4a	-0.06950815
44	0x3dc1f1cb	0.094699465
45	0x3d8ecdd0	0.06972849
46	0x3d3384bb	0.043827754
47	0x3bef146a	0.0072961347
48	0xbc11f244	-0.008907858
49	0x3da004f2	0.07813443
50	0xbc926c56	-0.017873924
51	0x3dd8ef14	0.105924755
52	0xbd1869de	-0.037210338
53	0x3e257130	0.16156459
54	0x3df5e416	0.120063946
55	0x3d88af82	0.066741005
56	0x3d27e9ea	0.040994562
57	0x3d93c55f	0.0721538
58	0xbd3b1d5d	-0.0456823
59	0x3cc6c76c	0.024265014
60	0x3d878ba1	0.06618429
61	0xbc4b479e	-0.012407212
62	0xbb4f5a7f	-0.0031639633
63	0x3dd0e3a1	0.10199667
64	0xbe18e8ed	-0.14932604
65	0xbe1a0aa2	-0.15043119
66	0xbd99d836	-0.07511942
67	0x3c8a4ce0	0.01688236
68	0xbd779159	-0.06044135
69	0x3d440777	0.04785868
70	0xbb8a70f1	-0.0042248894
71	0xbdf48275	-0.11938945
72	0xbb9617ad	-0.004580459
73	0x3e00c77e	0.125761
74	0xbdeec067	-0.116577916
75	0x3da571d6	0.08078353
76	0x3d1c0de1	0.038099173
77	0x3e2161b2	0.15759924
78	0xbe00e031	-0.12585522
79	0xbde30b1b	-0.110861026
80	0x3ca4c9e4	0.0201158
81	0xbdf42e8d	-0.11922941
82	0xbddf8b87	-0.109152846
83	0x3dbad72e	0.091230735
84	0x3dd294f2	0.10282315
85	0xbe0d2544	-0.13783747
86	0x3da66ef3	0.08126631
87	0xbc247c9e	-0.010039477
88	0x3de51370	0.11185348
89	0xbdc7836d	-0.09741864
90	0xbde99ff8	-0.11407465
91	0xbdcd7d9b	-0.10033723
92	0xbca5b6bb	-0.020228734
93	0xbded039e	-0.115729555
94	0xbcd990f2	-0.026558373
95	0xbd5d7024	-0.054062024
96	0x3c9be44e	0.019029763
97	0xbc64d055	-0.013965686
98	0xbc74d7ad	-0.014943999
99	0xbe09cee4	-0.13457829
100	0x3da45a76	0.080250666
101	0xbd9a4c08	-0.07534033
102	0x3d8b7975	0.068102755
103	0x3dd09e49	0.101864405
104	0xbcba40db	-0.022736004
105	0x3d3649a1	0.04450381
106	0x3dd54544	0.10413602
107	0xbd024883	-0.031807434
108	0xbe1420e5	-0.14465673
109	0x3d179296	0.03700503
110	0x3d9aeadc	0.07564327
111	0xbdcc9378	-0.09989065
112	0xbdc6a526	-0.09699468
113	0xbd2d2a34	-0.042276576
114	0x3d55435d	0.052066196
115	0xbd3b4bb5	-0.045726497
116	0xbc9245f0	-0.017855614
117	0xbd96667c	-0.07343766
118	0xbce513f9	-0.027963625
119	0xbcb0da05	-0.021588335
120	0xbda1f9d9	-0.07908983
121	0x3e0637bd	0.131072
122	0x3d824864	0.06361464
123	0x3dd0c3f7	0.10193627
124	0x3e02bbd6	0.12766966
125	0x3d42f8a2	0.047600396
126	0xbd990b48	-0.07472855
127	0x3d7ca664	0.06168212
128	0x3bfbd8d2	0.007685759
129	0x3da90665	0.08253173
130	0xbbca8ba9	-0.0061811996
131	0x3e073c96	0.13206705
132	0x3ce52589	0.027972
133	0xbd621de1	-0.055204276
134	0xbdee1269	-0.11624605
135	0x3dfbd31c	0.12296125
136	0x3d2bde66	0.041960143
137	0x3ceb4686	0.028720152
138	0x3d899d86	0.06719498
139	0x3c647beb	0.01394556
140	0xbdc45fd5	-0.09588591
141	0xbcc8ca94	-0.02451066
142	0xbc911f96	-0.017715257
143	0x3d8d2eb9	0.06893677
144	0x3c36d3f2	0.01115893
145	0xbd705664	-0.05867614
146	0xbd43ca4a	-0.04780034
147	0x3d39bfb3	0.045348834
148	0x3e09a11e	0.13440368
149	0x3dbc48c7	0.09193569
150	0xbc7b6b06	-0.015345341
151	0x3b96c0bf	0.004600614
152	0x3e183a3c	0.14865965
153	0x3dbefe0f	0.093258016
154	0xbd41c4db	-0.047306877
155	0x3d3b700e	0.04576116
156	0x3cf47fce	0.029846098
157	0xbc52147c	-0.012822267
158	0x3dbc1374	0.09183398
159	0x3d3d86c1	0.04627109
160	0xbd71d670	-0.059042394
161	0x3c81a5d2	0.01582614
162	0x3e090578	0.13380992
163	0x3d80514c	0.06265506
164	0xbe18aedf	-0.14910458
165	0x3d6294e8	0.05531779
166	0x3d3b7c49	0.045772824
167	0x3dae5f6b	0.08514293
168	0xbd01218b	-0.03152613
169	0x3d81ddbd	0.06341121
170	0x3da2008f	0.07910263
171	0x3dc41415	0.09574143
172	0x3d1e44f8	0.038639992
173	0xbcd5d103	-0.026100641
174	0x3d9552d9	0.072911926
175	0xbd276064	-0.04086341
176	0x3df03b4d	0.11730061
177	0xbc9cfe9b	-0.019164374
178	0xbd6f4614	-0.05841644
179	0x3e226970	0.15860534
180	0xbc072bc4	-0.008250181
181	0x3c66075f	0.014039843
182	0x3b845811	0.0040388186
183	0x3d21d728	0.03951183
184	0x3d0c5f83	0.034270775
185	0xbe175aab	-0.14780681
186	0x3de07fb1	0.10961855
187	0x3e228ef3	0.15874843
188	0xbddbee74	-0.10738841
189	0x3bea7237	0.0071547288
190	0x3e19a8b9	0.15005769
191	0x3bb1016f	0.005401782
192	0x3d9932ba	0.074803784
193	0x3e0554c4	0.13020617
194	0x3d0b02a2	0.033938058
195	0x3bc3c331	0.0059741964
196	0xbdacad0a	-0.08431442
197	0xbdc7c02f	-0.09753453
198	0xbde477fe	-0.11155699
199	0x3ca7d7d1	0.020488651
200	0xbdd3c152	-0.10339607
201	0x3dc60d27	0.09670477
202	0x3c02c563	0.007981631
203	0xbd90b7ef	-0.070663325
204	0xbda25392	-0.07926096
205	0x3d353648	0.04424122
206	0xbcf9b8af	-0.030483572
207	0x3c854999	0.016270446
208	0x3c50081d	0.012697247
209	0x3c7f9e9f	0.015601783
210	0xbc523c42	-0.012831749
211	0xbd1408b4	-0.036141112
212	0xbd324bd5	-0.04352935
213	0x3d52471a	0.05133734
214	0xbdab41db	-0.0836217
215	0x3b7ea7fc	0.003885745
216	0xbd4ab7e4	-0.049491778
217	0xbe174f9c	-0.14776462
218	0x3d35925c	0.044329032
219	0x3d60d56b	0.05489103
220	0x3df99e8b	0.12188443
221	0x3db721e0	0.08942008
222	0x3e033c7a	0.12816039
223	0xbde7d390	-0.11319649
224	0xbe13182c	-0.1436469
225	0x3d246e43	0.040144216
226	0x3d712b18	0.058878988
227	0x3d9b7a93	0.075917386
228	0xbda6a0ad	-0.08136115
229	0x3de3f438	0.111305654
230	0xbe039e14	-0.12853271
231	0x3d80310f	0.06259357
232	0xbd3b9db0	-0.04580468
233	0xbd0f7aa8	-0.035029083
234	0x3ddde665	0.1083496
235	0x3e00ece8	0.12590373
236	0x3d0ffe7e	0.035154812
237	0x3da20580	0.07911205
238	0xbb148e06	-0.002266766
239	0xbd9556aa	-0.072919205
240	0x3d0a8882	0.03382159
241	0x3df3b7e8	0.11900312
242	0x3d070782	0.032966144
243	0xbded0b09	-0.115743704
244	0xbd3eb7b5	-0.046561915
245	0x3d345ca9	0.04403368
246	0xbcdd9978	-0.027050719
247	0xbd0d1e7e	-0.034452908
248	0xbe0a870e	-0.13528082
249	0x3c95e3ff	0.018297194
250	0x3cf01872	0.029308531
251	0xbe03c899	-0.1286949
252	0x3c8323ec	0.01600834
253	0x3d047841	0.032341246
254	0x3d6ae053	0.05734284
255	0x3dc8b716	0.09800546

hidden_layers.0.bias f4 [50]
0	0xbdda3519	-0.10654659
1	0xbdf7f4b3	-0.121072195
2	0x3e275e6d	0.16344614
3	0xbd1342ac	-0.035952255
4	0xbd45e8c6	-0.048317693
5	0xbd262cc5	-0.04057004
6	0xbc81f261	-0.015862646
7	0x3c0fe5b4	0.008782793
8	0xbded9c4a	-0.116020754
9	0x3c61c173	0.013779032
10	0xbd8f92ec	-0.07010445
11	0xbd0414e3	-0.03224648
12	0x3bfa95b2	0.0076472396
13	0x3decb5c4	0.115581065
14	0x3c7edf64	0.01555619
15	0xbdf305ba	-0.11866327
16	0x3df19eb1	0.11797846
17	0xbe33b29c	-0.17548603
18	0x3dc1a0d9	0.094545074
19	0x3dce8c77	0.10085385
20	0xbd548b33	-0.051890563
21	0x3a4a91db	0.00077274226
22	0x3dae59e9	0.08513243
23	0x3d6bc535	0.05756112
24	0x3e03be38	0.12865531
25	0xbd9252ec	-0.07144722
26	0x3db1d2fd	0.08682821
27	0xba6c96f5	-0.000902518
28	0xbd3b395f	-0.04570901
29	0x3dc3ca73	0.095600985
30	0x3dfebe6b	0.12438663
31	0xbdf0f01d	-0.11764548
32	0xbda21efa	-0.079160646
33	0xbd836391	-0.06415475
34	0xbda361f2	-0.07977666
35	0xbda3219c	-0.07965395
36	0x3ddf45ae	0.10901962
37	0xbdea20e6	-0.11432056
38	0xbda15849	-0.07878167
39	0x3cbb47b6	0.022861343
40	0x3d1b74af	0.037953075
41	0x3d89f2cf	0.06735765
42	0xbc756480	-0.014977574
43	0x3d32b483	0.04362918
44	0x3c02d495	0.007985254
45	0x3e1f4302	0.15552905
46	0xbb71ecbc	-0.0036914786
47	0x3de6150d	0.11234484
48	0x3dbb5cff	0.09148597
49	0x3d497567	0.04918423

hidden_layers.1.weight f4 [50, 50]
0	0xbd83320a	-0.064060286
1	0x3dccc033	0.099975966
2	0xbcb601fc	-0.022217743
3	0x3c36d3c2	0.011158885
4	0xbdd9bb27	-0.106313996
5	0x3e12026e	0.1425874
6	0x3dacaf4a	0.08431871
7	0xbdad1b32	-0.08452453
8	0xbe140613	-0.14455442
9	0x3d9d4f04	0.07681087
10	0xbda5795c	-0.08079788
11	0x3d86079f	0.06544422
12	0x3daa736e	0.08322798
13	0xbe1539f8	-0.14572895
14	0xbdbf76f1	-0.09348858
15	0x3dd48172	0.10376252
16	0x3e228b24	0.1587339
17	0x3e0a48bb	0.13504307
18	0xbd966545	-0.073435344
19	0x3d8e3197	0.06943052
20	0xbd9d8d16	-0.07692926
21	0x3cc6e70c	0.024280094
22	0xbd9033f3	-0.070411585
23	0xbda54e8f	-0.080716245
24	0xbbda5a69	-0.0066636098
25	0xbe450e02	-0.19243625
26	0xbdd8077b	-0.10548302
27	0x3d14fbf3	0.03637309
28	0xbc93fa50	-0.018063694
29	0x3cf1c18f	0.029511241
30	0x3dd5a1b5	0.10431234
31	0xbc9c7614	-0.019099273
32	0x3dc6be18	0.09704226
33	0x3dfb0cd6	0.12258308
34	0xbd849497	-0.06473654
35	0x3e2180cf	0.15771793
36	0x3dad0215	0.08447663
37	0xbce7fd8f	-0.028319148
38	0xbd96c026	-0.07360868
39	0x3dc3e2c7	0.09564739
40	0x3e023ce2	0.12718537
41	0x3d21e6aa	0.03952662
42	0xbcc73e06	-0.024321567
43	0x3c47136c	0.012150627
44	0xbc8dfc98	-0.01733236
45	0x3d366a6d	0.04453509
46	0x3c6d85af	0.014497205
47	0xbd408c43	-0.047008764
48	0xbe0259c1	-0.12729551
49	0x3d3d66f6	0.04624077
50	0x3ab57d69	0.0013846579
51	0x3deecc45	0.11660055
52	0x3d128c8e	0.035778575
53	0x3dffa613	0.12482848
54	0xbd86dc24	-0.06584957
55	0xbdd048ab	-0.1017011
56	0xbd23a348	-0.03995064
57	0xbd6d8567	-0.05798855
58	0xbcbbe4ed	-0.022936309
59	0xbd80d8e7	-0.06291371
60	0x3dfaef10	0.12252629
61	0x3d37b031	0.044845764
62	0xba7b1e14	-0.0009579372
63	0x3b8884b9	0.0041662124
64	0x3e1ce51d	0.15321775
65	0x3d76bd27	0.060238983
66	0xbd56fc06	-0.052486442
67	0xbe1a707a	-0.15081969
68	0xbdfc955a	-0.12333174
69	0xbcee6f34	-0.02910576
70	0x3d3b0fe4	0.04566945
71	0x3d2f935a	0.042865135
72	0x3d9b33f9	0.07578272
73	0x3d24efc0	0.040267706
74	0xbda08ce6	-0.07839374
75	0x3d97bede	0.07409452
76	0x3d9a95aa	0.075480774
77	0x3d33634b	0.043795865
78	0x3ddef082	0.10885717
79	0xbdaa6330	-0.083197
80	0x3d20aa6f	0.03922504
81	0xbd5689b9	-0.052377436
82	0x3e0c4115	0.13696702
83	0xbde04eb2	-0.1095251
84	0x3cacf38c	0.021112226
85	0xbdfb0dcd	-0.12258492
86	0xbd9b2f70	-0.07577407
87	0xbde34e36	-0.11098902
88	0x3cc27e6c	0.023741923
89	0x3deb4df5	0.114894785
90	0xbd828415	-0.06372849
91	0x3d0b0337	0.033938613
92	0xbdf3dbe2	-0.11907174
93	0xbdd6fd4b	-0.104975305
94	0x3d3ba149	0.04580811
95	0xba966d2b	-0.0011476626
96	0xbbe37a81	-0.006942094
97	0xbdbc5587	-0.091960005
98	0x3db7762e	0.08958088
99	0xbdf9b589	-0.12192828
100	0xbda19f84	-0.07891753
101	0x3d9beb57	0.07613247
102	0x3da67a6f	0.08128821
103	0xbe15b44f	-0.14619564
104	0xbe1bb8b9	-0.15207185
105	0xbdba0e3c	-0.09084746
106	0xbe1d83f0	-0.15382361
107	0x3dbdc5c0	0.092662334
108	0xbd6ab26e	-0.05729907
109	0x3d19ac8b	0.037518065
110	0xbdd4c327	-0.10388785
111	0x3c899c90	0.016798288
112	0x3df595f9	0.11991496
113	0x3de8553a	0.11344381
114	0x3e046df0	0.12932563
115	0xbd18fed4	-0.037352398
116	0xbd0131c2	-0.031541593
117	0xbe0b7bc5	-0.13621433
118	0xbd55516d	-0.052079607
119	0xbd8c3014	-0.06845108
120	0x3c657e83	0.0140072135
121	0x3ccd9856	0.025097053
122	0xbc85d046	-0.016334664
123	0xbda00ced	-0.078149654
124	0x3e03095e	0.12796542
125	0x3cd624a9	0.026140528
126	0xbe0fc00e	-0.14038107
127	0xbd2a5b45	-0.041590948
128	0x3da1a810	0.078933835
129	0xbdec77d0	-0.1154629
130	0x3e188f44	0.14898401
131	0xbd0d810f	-0.034546908
132	0x3d85179d	0.064986445
133	0xbd2f5fab	-0.042815845
134	0xbde337de	-0.1109464
135	0x3d72dec5	0.05929448
136	0x3d67be93	0.05657823
137	0xbd828b97	-0.06374281
138	0x3d841bd3	0.064506195
139	0xbdb7b692	-0.089703694
140	0xbdde2dd2	-0.10848583
141	0xbdf4d9d0	-0.11955607
142	0x3dcc0e71	0.09963692
143	0x3dc93856	0.09825198
144	0x3dbe9c52	0.093071595
145	0x3dea4eb4	0.11440793
146	0x3e11a646	0.14223585
147	0xbc142313	-0.0090415655
148	0xbdf8dfc9	-0.12152059
149	0xbdb537a7	-0.088485055
150	0x3d9edc82	0.07756902
151	0xbdda2c51	-0.10652984
152	0xbc0b0a0c	-0.008486282
153	0xbc012539	-0.00788241
154	0xbc18bb01	-0.009321929
155	0xbe05f489	-0.13081564
156	0x3dd465cf	0.10370981
157	0xbd41009e	-0.04711973
158	0xbd68fd2d	-0.056882072
159	0xbd859f6c	-0.06524548
160	0xbd32e178	-0.043672055
161	0xbcd89756	-0.02643935
162	0xbdea2695	-0.1143314
163	0x3e0abebd	0.13549323
164	0x3ca76e7e	0.020438429
165	0x3c9feab4	0.019521095
166	0xbdde8828	-0.108658135
167	0x3e03373d	0.1281404
168	0xbd65fe98	-0.056151003
169	0x3ddd571a	0.10807629
170	0xbd868486	-0.065682456
171	0xbbc5d076	-0.0060368134
172	0x3c99084e	0.018680718
173	0xbc08b664	-0.008344267
174	0xbcf1177d	-0.029430145
175	0xbd2f4681	-0.042791847
176	0xbd6e1fda	-0.058135845
177	0xbcc35ede	-0.023848947
178	0xbe024d18	-0.12724721
179	0x3de1b1b6	0.11020224
180	0xbd27e212	-0.04098708
181	0xbc7eb897	-0.015546939
182	0xbdd97e96	-0.106198475
183	0xbdaa0fce	-0.08303796
184	0xbdf35e34	-0.11883202
185	0x3caae19a	0.020859528
186	0x3e0836f9	0.1330222
187	0x3c8247c3	0.01590336
188	0x3dca6929	0.09883339
189	0xbe10232e	-0.1407592
190	0xbde59dee	-0.11211763
191	0x3d8fbb60	0.07018161
192	0xbdbb183e	-0.09135483
193	0xbd940d41	-0.072290905
194	0x3dcfc22b	0.101444565
195	0x3b14dc6e	0.0022714394
196	0x3dd8348f	0.105569
197	0xbd598fd2	-0.053115673
198	0xbb67e2e7	-0.0035383047
199	0x3e0227c8	0.12710488
200	0xbb7e6a4b	-0.003882068
201	0x3d8c3400	0.06845856
202	0x3e130a0e	0.14359304
203	0x3dcb2507	0.09919172
204	0x3de070ac	0.109589905
205	0xbda50405	-0.08057407
206	0x3d095972	0.033532567
207	0xbc387058	-0.011257254
208	0xbd86fcbb	-0.06591173
209	0xbdc0f191	-0.09421075
210	0x3d5da0da	0.054108478
211	0x3d63c423	0.055606972
212	0xbb4bdd5c	-0.0031107282
213	0x3e03715b	0.1283621
214	0x3d8014e1	0.06253982
215	0x3de03dff	0.10949325
216	0x3d62ac95	0.05534037
217	0xbd16b782	-0.0367961
218	0xbd21ce33	-0.039503288
219	0xbdc7b42b	-0.09751161
220	0x3e223a0d	0.15842457
221	0xbcc66d12	-0.02422193
222	0x3d8b29da	0.06795092
223	0x3d791110	0.060807288
224	0xbde4904c	-0.11160335
225	0x3d96bd32	0.07360305
226	0x3db0044b	0.08594569
227	0xbd87c08d	-0.06628523
228	0xbd7514c0	-0.059834242
229	0x3d3112ea	0.04323093
230	0x3e0a708b	0.13519494
231	0x3dea3683	0.114361785
232	0xbcaea258	-0.021317646
233	0xbd87c18e	-0.066287145
234	0x3d3f7165	0.046739
235	0xbd279990	-0.040917933
236	0x3d22a199	0.039704893
237	0xbdcccf9b	-0.10000535
238	0x3c06d427	0.008229292
239	0x3cbf779c	0.023372464
240	0xbd396c93	-0.04526956
241	0x3d2b6455	0.04184373
242	0x3dde0a0b	0.10841759
243	0xbe0bae7e	-0.13640782
244	0x3df463f8	0.1193313
245	0xbd996df3	-0.07491674
246	0xbde56976	-0.11201756
247	0x3c839fa8	0.016067341
248	0x3e0c5d9e	0.13707587
249	0xbde17bb8	-0.110099256
250	0xbe152ff3	-0.14569072
251	0x3dcc1676	0.099652216
252	0xbd4dca5d	-0.050241817
253	0xbe0d6d88	-0.13811314
254	0xbe100ae0	-0.14066648
255	0xbd403478	-0.046925038

hidden_layers.1.bias f4 [50]
0	0x3d852ce2	0.06502701
1	0x3ca10607	0.019656194
2	0xbd018c84	-0.031628147
3	0x3dadf3f1	0.08493794
4	0x3e12de77	0.14342676
5	0xbb2fdcac	-0.0026834412
6	0x3e1686ee	0.14699909
7	0xbcb51569	-0.022104936
8	0xbcb8f16a	-0.022576053
9	0x3de3ae8b	0.11117276
10	0x3d89e55c	0.067332
11	0xbe03d30f	-0.12873481
12	0x3c56e198	0.013115309
13	0x3d848b57	0.064718895
14	0xbcf19c45	-0.02949346
15	0xbd500c7e	-0.050793163
16	0x3d6054c5	0.054768343
17	0xbde5c3da	-0.11218996
18	0x3bbb50ac	0.005716404
19	0x3c61327f	0.013744949
20	0x3b724940	0.003696993
21	0xbbad2c0a	-0.005284791
22	0xbce8c2a0	-0.028413117
23	0xbdfe221b	-0.12408849
24	0xbacc314d	-0.0015578658
25	0xbdabc7b3	-0.08387699
26	0xbde45642	-0.11149265
27	0xbcc1b665	-0.023646543
28	0xbd22e58c	-0.039769694
29	0x3cd7cb9f	0.026342211
30	0xbe01cc95	-0.12675698
31	0x3dcc9e46	0.09991126
32	0xbbfd42c9	-0.0077289087
33	0xbd6338f5	-0.05547424
34	0xbd4afc38	-0.04955694
35	0x3d897fda	0.06713839
36	0x3b9132be	0.004431098
37	0xbe06aa1f	-0.13150834
38	0xbd83944d	-0.064247705
39	0xbe126dfa	-0.14299765
40	0xbe0ea817	-0.13931309
41	0xbe2a0257	-0.16602455
42	0xbd756902	-0.059914596
43	0xbd0da44f	-0.034580525
44	0x3d73e2df	0.059542533
45	0xbc89fc9c	-0.016844086
46	0xbd932e1d	-0.0718653
47	0x3d38aa75	0.045084435
48	0xbde26412	-0.11054243
49	0xbc004385	-0.007828598

output_layer.weight f4 [2, 50]
0	0xbcbe994f	-0.023266463
1	0xbdf12f35	-0.11776582
2	0x3d134493	0.03595407
3	0xbdcb2b72	-0.09920396
4	0xbd9989f0	-0.074970126
5	0x3bc992ff	0.0061515565
6	0x3d5fe5e1	0.05466259
7	0x3d4463c4	0.047946706
8	0x3dbc75ab	0.09202131
9	0x3d1322f4	0.035922006
10	0x396ab87f	0.00022384709
11	0x3b821566	0.003969836
12	0xbd8aca6f	-0.067768924
13	0xbca0370b	-0.019557497
14	0xbc4da807	-0.012552268
15	0x3dc987c7	0.098403506
16	0x3d9676c3	0.07346871
17	0x3d0fda4a	0.035120286
18	0x3bfeeb2c	0.0077794995
19	0xbdc97d46	-0.09838347
20	0xbbf1d169	-0.0073797
21	0xbb11e08b	-0.0022259082
22	0x3d15dab6	0.036585532
23	0xba4d0106	-0.0007820282
24	0x3d6951cb	0.05696277
25	0xbd0de6be	-0.03464388
26	0xbb6a7921	-0.0035777765
27	0xbe0db7e3	-0.13839678
28	0x3e0978f0	0.1342504
29	0x3daed034	0.08535805
30	0x3de69793	0.11259379
31	0xbce26bb6	-0.027639251
32	0x3d569beb	0.05239479
33	0x3e0fc551	0.14040114
34	0x3b80f7c7	0.0039357874
35	0xbd0df57c	-0.03465794
36	0x3d1f6485	0.038914222
37	0x3e091b87	0.13389407
38	0x3d8c47d4	0.06849638
39	0xbd6c1780	-0.0576396
40	0x3d8b3c44	0.06798604
41	0x3e09109a	0.13385239
42	0xbe212eed	-0.15740557
43	0xbdee0960	-0.11622882
44	0x3dc84a88	0.09779841
45	0xbbec4982	-0.0072109113
46	0x3cdbeed0	0.026847273
47	0xbd8bb04a	-0.06820734
48	0x3d979413	0.0740129
49	0xbd56491f	-0.052315827
50	0x3e488fda	0.19586125
51	0xbd7dd51b	-0.06197081
52	0xbd1c7614	-0.038198546
53	0xbde484f5	-0.11158172
54	0xbd27c72b	-0.040961426
55	0x3d8d4a3f	0.06898927
56	0xbe523f67	-0.20531999
57	0x3dd4ddda	0.10393877
58	0xbe0ca317	-0.13734089
59	0xbd2a0f53	-0.04151852
60	0x3ca335f5	0.01992319
61	0x3dc41939	0.09575123
62	0xbd264e6f	-0.040602144
63	0x3e03da10	0.12876153
64	0x3df98cee	0.12185083
65	0xbd94670b	-0.072462164
66	0xbe176afc	-0.14786905
67	0x3e0e645e	0.13905475
68	0x3dc2a51e	0.0950415
69	0xbd45d068	-0.048294455
70	0xbe026747	-0.1273471
71	0x3dc3fdce	0.09569894
72	0x3db03875	0.08604518
73	0x3d2cc09a	0.042175867
74	0xbe346a5b	-0.17618696
75	0x3db75231	0.08951224
76	0x3de402e3	0.11133363
77	0xbe01afdb	-0.1266474
78	0x3df61eb1	0.12017573
79	0xbdccc518	-0.0999853
80	0x3e32d05f	0.174623
81	0x3dcc411f	0.09973358
82	0xbce6dad8	-0.028180525
83	0x3dc568e8	0.0963915
84	0x3e49bd7e	0.19701192
85	0x3d84030c	0.06445894
86	0x3dedc74a	0.11610277
87	0x3e45e804	0.19326788
88	0x3d66ab43	0.05631567
89	0x3de00845	0.10939077
90	0x3e128eea	0.1431233
91	0x3e5d583d	0.21615691
92	0x3e05d9c1	0.13071348
93	0x3cb8cb58	0.0225579
94	0x3e17e504	0.14833456
95	0x3d03530c	0.03206162
96	0x3e2931ec	0.1652295
97	0x3d7555b4	0.059896186
98	0x3e08e51e	0.13368651
99	0x3e1efea8	0.15526831

output_layer.bias f4 [2]
0	0x3ca639bd	0.020291204
1	0xbdb34471	-0.087532885

exp_avg f4 [5]
0	0xc0c45f21	-6.1366124
1	0xc1039320	-8.223419
2	0xc129ec31	-10.620164
3	0x00000000	0.0
4	0xc0d7a07d	-6.738341

exp_avg_sq f4 [5]
0	0x40f17e6c	7.5466824
1	0x41618082	14.093874
2	0x41b9996e	23.199917
3	0x00000000	0.0
4	0x42147d04	37.122086

exp_avg f4 [50, 2]
0	0xbceaf621	-0.028681817
1	0x3b399a57	0.0028320753
2	0x3d94c648	0.07264382
3	0xbc0e7a22	-0.008696111
4	0x3d86246f	0.06549918
5	0x3d8aa299	0.06769294
6	0x3d4a31da	0.04936395
7	0x3d752eb7	0.059859004
8	0xbb100f70	-0.0021981858
9	0xbd0a8d70	-0.03382629
10	0x3ce73d2c	0.028227411
11	0x3d3c55e5	0.045980353
12	0x3aa5bd52	0.0012644923
13	0x3ddf5941	0.10905696
14	0x3d763716	0.060111128
15	0x3daba78a	0.08381565
16	0x3d2b67ed	0.04184716
17	0xbcc0d215	-0.023537675
18	0x3ca2c134	0.019867517
19	0xbc7625e3	-0.015023681
20	0x3e06437f	0.13111685
21	0x3dcc1cae	0.09966408
22	0x3d82b951	0.063830025
23	0x3e4b9aa6	0.19883212
24	0xbdaa59f0	-0.083179355
25	0xbdb5508b	-0.08853253
26	0x3d982773	0.07429399
27	0x3e63c182	0.22241786
28	0xbd3f5aee	-0.046717577
29	0x3b8a58bb	0.0042220033
30	0x3ccbd5f1	0.024882289
31	0xbc29a871	-0.010355101
32	0x3c825f7c	0.015914671
33	0x3def59b7	0.116870336
34	0x3db4c09d	0.088258006
35	0x3c9976c1	0.018733384
36	0xbc635790	-0.013875857
37	0xbe20c7a1	-0.15701152
38	0x3c88c4b4	0.016695358
39	0xbca37560	-0.01995343
40	0x3ca71ca0	0.020399392
41	0xbd1e539f	-0.038653966
42	0xbd001a64	-0.031275168
43	0x3a67619d	0.0008826496
44	0x3bb9ff48	0.005676184
45	0xbcb7a996	-0.022419732
46	0x3d836274	0.06415263
47	0x3e53ea4a	0.20694843
48	0xbd4a3b9c	-0.049373254
49	0xbca01255	-0.019539991
50	0xbd8bdd28	-0.068292916
51	0xbe0b2575	-0.13588507
52	0xbd1e8186	-0.038697742
53	0xbd83a834	-0.064285666
54	0x3c3b9f92	0.011451619
55	0xbd993de8	-0.07482511
56	0x3e262fac	0.16229123
57	0x3d6edb4c	0.058314607
58	0x3cafe9a2	0.02147371
59	0xbc7fc881	-0.015611769
60	0xb9ecc244	-0.00045158167
61	0x3d8b250b	0.06794175
62	0x3e803257	0.25038406
63	0x3e14adf1	0.14519478
64	0x3c758072	0.014984237
65	0x3db1a153	0.08673348
66	0x3e0b1459	0.13581981
67	0x3d7a3dab	0.061093967
68	0x3ccde298	0.025132462
69	0xbd8b3460	-0.06797099
70	0x3cbf9528	0.023386553
71	0x3c969958	0.018383667
72	0x3d18b592	0.037282534
73	0x3dfe1429	0.12406189
74	0x3cfa91fc	0.030587189
75	0xbdbcb30d	-0.09213839
76	0x3ca085b7	0.01959501
77	0xbc16d6f8	-0.009206526
78	0xbcbe6600	-0.023241997
79	0x3d199a3c	0.037500605
80	0xbc0b1799	-0.008489513
81	0x3d700a68	0.058603674
82	0x3e5176f1	0.20455529
83	0x3d468953	0.048470806
84	0xbd67417e	-0.056458943
85	0xbd16faf3	-0.036860418
86	0x3e790955	0.24319966
87	0x3e7587c5	0.23977573
88	0xbd806cbb	-0.06270739
89	0xbd828e7e	-0.063748345
90	0xbcf7bde7	-0.03024192
91	0x3c738ffe	0.014865873
92	0x3d4573ad	0.04820602
93	0x3e982900	0.2971878
94	0xbc84e319	-0.01622157
95	0x3c26aa26	0.0101724025
96	0xbcce36a8	-0.025172547
97	0x3e2f58f2	0.17123774
98	0xbd5102d8	-0.051028103
99	0xbb8f2ef1	-0.0043696095

exp_avg_sq f4 [50, 2]
0	0x38adb85d	8.283623e-05
1	0x394729e7	0.00018993729
2	0x3986a8d1	0.0002568425
3	0x3a5c3c99	0.0008401364
4	0x3929d33b	0.00016195785
5	0x3a0402f6	0.00050358416
6	0x38ea4059	0.00011169975
7	0x3a2ece53	0.0006668318
8	0x36c95467	6.0000925e-06
9	0x388f935f	6.8462214e-05
10	0x3792e2cf	1.7510172e-05
11	0x38a20cc5	7.7271405e-05
12	0x3732c270	1.0654898e-05
13	0x39eaaedb	0.00044762235
14	0x393ef981	0.0001821276
15	0x3aa7ead2	0.0012811071
16	0x3868da04	5.5516153e-05
17	0x38885733	6.5012275e-05
18	0x3881b649	6.1851526e-05
19	0x38217da9	3.850242e-05
20	0x39d4a072	0.00040555332
21	0x3992840a	0.00027945667
22	0x38e5bd8d	0.000109548775
23	0x3a8c5b76	0.001070841
24	0x3a28d4b0	0.00064403843
25	0x39df7c86	0.00042626652
26	0x3a42792e	0.000741857
27	0x3a8dddd5	0.0010823557
28	0x38d7825a	0.00010276279
29	0x39d67a02	0.00040908164
30	0x382c76d2	4.1118656e-05
31	0x3988ebe8	0.00026115705
32	0x392dac96	0.00016562859
33	0x39bbe1dd	0.000358357
34	0x39959c3b	0.00028535895
35	0x39169238	0.00014359585
36	0x394b7151	0.00019401802
37	0x3ac82f1d	0.001527283
38	0x3a1dae3f	0.00060150394
39	0x3a2901db	0.0006447115
40	0x37dd22f0	2.6361522e-05
41	0x390e01af	0.00013542802
42	0x38d19ed1	9.9954785e-05
43	0x391ee082	0.0001515169
44	0x3895454c	7.117781e-05
45	0x3800ee6c	3.0739626e-05
46	0x39a307c2	0.00031095563
47	0x3a7e451c	0.0009699629
48	0x39834012	0.00025034003
49	0x39a9a398	0.0003235608
50	0x393def86	0.00018113674
51	0x39ee8ec0	0.00045501254
52	0x38d45e81	0.000101265505
53	0x399db4c9	0.0003008007
54	0x38fba194	0.00011998709
55	0x394d2c25	0.00019566769
56	0x3aa796b4	0.0012786002
57	0x3a33b464	0.00068551884
58	0x38b292fe	8.515081e-05
59	0x3983a268	0.0002510727
60	0x3825445b	3.9402727e-05
61	0x398811cd	0.00025953204
62	0x3addfaf4	0.0016935752
63	0x3b83330d	0.0040038885
64	0x3a43241d	0.0007444041
65	0x39aaad67	0.00032554122
66	0x39dbad98	0.00041900272
67	0x39038e22	0.00012546082
68	0x38f932a8	0.00011882681
69	0x39d4adb2	0.00040565204
70	0x39e447fd	0.00043541184
71	0x392b2164	0.0001632027
72	0x39b72a24	0.00034935877
73	0x3a550151	0.00081255013
74	0x39c0ab12	0.0003674855
75	0x3a95c03f	0.0011425092
76	0x393a5e38	0.00017773442
77	0x39448002	0.00018739703
78	0x384028cd	4.5814366e-05
79	0x3904fb61	0.00012682147
80	0x38c0809a	9.179227e-05
81	0x399a9ce3	0.0002949006
82	0x3ac2b1a9	0.0014853972
83	0x39b29afe	0.00034066284
84	0x38fc3224	0.00012025636
85	0x3aceb8a0	0.0015771575
86	0x3ac58353	0.0015069045
87	0x3aad207e	0.0013208536
88	0x38fc3941	0.00012026961
89	0x397811ec	0.000236578
90	0x395656a6	0.0002044091
91	0x3989954a	0.00026241905
92	0x39a5bc2b	0.00031611449
93	0x3b4d99dc	0.0031372225
94	0x38992cd4	7.3039584e-05
95	0x396a7ee1	0.00022363245
96	0x38d39b51	0.00010090194
97	0x3a498423	0.00076872314
98	0x38c9de10	9.625789e-05
99	0x3830e493	4.2174546e-05

exp_avg f4 [50]
0	0xbe92fdd3	-0.28709278
1	0x3e759740	0.23983479
2	0x3cd2af23	0.025718277
3	0xbe14f330	-0.14545894
4	0xbe1372bb	-0.14399235
5	0xbd918d8a	-0.071070746
6	0xbdf30319	-0.11865825
7	0xbe683ed6	-0.2268022
8	0xbdcc786e	-0.09983908
9	0x3c53ef3a	0.012935454
10	0xbda5572a	-0.08073266
11	0xbc00dab1	-0.00786464
12	0x3e1cf3ef	0.15327428
13	0xbe152dc8	-0.14568245
14	0xbdb93b37	-0.090444975
15	0xbe8e9457	-0.2784755
16	0x3d91987d	0.07109163
17	0x3ce3a86a	0.027790267
18	0x3e05a31b	0.13050501
19	0xbc27b0d5	-0.010235031
20	0x3ccd9292	0.025094304
21	0xbdc47e5e	-0.09594415
22	0xbcc3aacf	-0.023885159
23	0xbeaf53f4	-0.3424374
24	0x3e8ea09d	0.27856913
25	0x3ddf03b7	0.108893804
26	0x3d6e7b09	0.058222804
27	0x3e1742b0	0.14771533
28	0x3d7ba1e6	0.061433695
29	0x3c9e374f	0.019313483
30	0xbc7e08ca	-0.015505025
31	0xbc524326	-0.012833392
32	0x3e3fe239	0.18738641
33	0x3e6f65d8	0.23378694
34	0x3ea54121	0.32276252
35	0x3d979f69	0.07403452
36	0xbd97e298	-0.07416266
37	0x3eb1818e	0.34669155
38	0xbe930810	-0.2871709
39	0x3e7ce9e3	0.24698596
40	0xbd746267	-0.059664156
41	0x3de8ca6a	0.113667324
42	0x3e49bece	0.19701692
43	0xbe3bdba4	-0.18345505
44	0xbd9e1b7d	-0.07720087
45	0x3ed51a7b	0.41621765
46	0xbe7ea0dc	-0.2486605
47	0xbd91555e	-0.070963606
48	0xbe348dce	-0.17632219
49	0x3d1ca554	0.038243607

exp_avg_sq f4 [50]
0	0x3b93cd43	0.004510553
1	0x3c2cf2f8	0.010555975
2	0x3b76ffb6	0.0037689037
3	0x3a394f94	0.0007069048
4	0x3bae3239	0.0053160456
5	0x3a1c7634	0.00059685414
6	0x3ad6876a	0.0016367261
7	0x3b8b7e88	0.004257027
8	0x3b38c9df	0.0028196496
9	0x3b1f4089	0.002429994
10	0x3c140847	0.009035177
11	0x3b3b151b	0.0028546515
12	0x3cc1e2c4	0.0236677
13	0x3b97b930	0.0046302304
14	0x3c181522	0.009282382
15	0x3c995177	0.018715603
16	0x3bcbbd22	0.0062176147
17	0x3c33f518	0.010983728
18	0x3c014786	0.007890588
19	0x3b6c78b6	0.0036082692
20	0x3a821fd8	0.0009927703
21	0x3bc12cc7	0.0058952305
22	0x3b106206	0.0022031083
23	0x3b9491e0	0.004533991
24	0x3ce9c776	0.028537493
25	0x3bac9f96	0.0052680476
26	0x3b978cb0	0.0046249256
27	0x3b00272e	0.0019554603
28	0x3c07fc06	0.008299833
29	0x3b78c593	0.003795956
30	0x3b996211	0.00468088
31	0x3d8cf2b2	0.06882228
32	0x3bde9077	0.006792124
33	0x3b1055ac	0.002202372
34	0x3cb3791a	0.021908332
35	0x3b1cae88	0.002390774
36	0x3bb30c0f	0.005464084
37	0x3bed2a2e	0.007237694
38	0x3cf28686	0.029605161
39	0x3c081be8	0.008307435
40	0x3b9beec7	0.004758689
41	0x3c025710	0.007955328
42	0x3d09f6bb	0.033682566
43	0x3abd174c	0.0014426499
44	0x3b041bd9	0.00201582
45	0x3d2b56f3	0.041830968
46	0x3ba09e5f	0.004901692
47	0x3b4e7695	0.0031503786
48	0x3c1ad416	0.009449979
49	0x3aa9bcf1	0.0012949986

exp_avg f4 [50, 50]
0	0xbd039b4a	-0.032130517
1	0xbd7db6c5	-0.06194188
2	0xbd887f8c	-0.06664953
3	0xbd24b92e	-0.040215664
4	0xbde9390f	-0.11387836
5	0xbe087d1b	-0.13328974
6	0xbca9a502	-0.020708565
7	0x3d07d0b2	0.03315801
8	0x3e026426	0.12733516
9	0x3e0fc874	0.1404131
10	0x3ce77ae9	0.02825685
11	0x3cbd8124	0.023132868
12	0x3bbecca6	0.005822736
13	0x3c338ebc	0.0109593235
14	0xbdf64659	-0.120251365
15	0xbe14b5cc	-0.14522475
16	0x3d821038	0.0635075
17	0x3d1f8230	0.038942516
18	0xbcb945e5	-0.022616336
19	0x3dc15b05	0.09441189
20	0x3d979e50	0.074032426
21	0xbd467871	-0.048454706
22	0xbe256f6f	-0.1615579
23	0x3d7c3c6f	0.06158107
24	0xbbf79979	-0.007556137
25	0xbcf1f556	-0.02953593
26	0x3ddf2703	0.10896113
27	0x3e0b35b1	0.135947
28	0xbd9f5080	-0.07779026
29	0x3d5dfc1e	0.054195516
30	0xbd9e468f	-0.07728302
31	0x3d4a0ba3	0.049327504
32	0xbd342463	-0.043980014
33	0x3dfc5558	0.123209655
34	0xba49b8b7	-0.0007695066
35	0xbdd1dc54	-0.102471024
36	0xbde8eaa0	-0.11372876
37	0x3daebd46	0.08532195
38	0xbd435058	-0.047684044
39	0xbda310e8	-0.07962209
40	0x3e020dc7	0.12700568
41	0xbdbfd967	-0.09367638
42	0xbd366fad	-0.044540096
43	0x3da13a54	0.07872453
44	0xbdd37332	-0.10324706
45	0x3e09aa68	0.13443911
46	0x38ff2f30	0.00012168137
47	0xbe002a26	-0.12516078
48	0xbd9d4f75	-0.07681171
49	0x3d8fed38	0.07027668
50	0xbd9248ab	-0.071427666
51	0xbd1549df	-0.036447402
52	0xbdcc73b8	-0.09983009
53	0xbdac389b	-0.08409234
54	0x3caf090d	0.02136662
55	0x3c912479	0.017717587
56	0xb99bd1b4	-0.00029720145
57	0xbd81d986	-0.063403174
58	0xbcbec128	-0.023285463
59	0xbd318d5d	-0.043347705
60	0x3d407fcf	0.046996888
61	0xbd5fc284	-0.054628864
62	0x3d8371c0	0.064181805
63	0x3b32be8c	0.002727422
64	0x3d8d7d07	0.06908613
65	0x3cd1ae35	0.025595764
66	0x3d98a664	0.074536115
67	0xbac6e931	-0.0015175698
68	0x3d82c86f	0.06385886
69	0x3db46004	0.08807376
70	0xbb0bad0e	-0.0021312865
71	0xbc8138c8	-0.015774146
72	0xbb9f5974	-0.0048629586
73	0x3bd818e7	0.0065947655
74	0x3d194d9c	0.03742753
75	0xbca07c79	-0.019590603
76	0x3c547dae	0.0129694175
77	0x3cb27d89	0.021788375
78	0xbd0bb401	-0.034107212
79	0x3bee32cd	0.0072692395
80	0xbcb1d79c	-0.021709256
81	0x3d99ddcc	0.075130075
82	0xbcbc4005	-0.022979746
83	0x3d05ac57	0.03263506
84	0xbc909d2c	-0.01765307
85	0xbc904893	-0.017612731
86	0xbd708dd2	-0.058729
87	0x3d76cc5f	0.060253497
88	0xbd90ee3f	-0.07076692
89	0x3da295d9	0.079387374
90	0xbce1b7ab	-0.0275534
91	0xbd119b3e	-0.03554844
92	0xbdd91c61	-0.10601116
93	0x3d8b1831	0.067917235
94	0xbd499443	-0.04921366
95	0x3a5805ac	0.0008240591
96	0xbd121e62	-0.035673507
97	0x3d389f48	0.045073777
98	0xbd38f0ab	-0.045151394
99	0x3d516e3c	0.05113052
100	0xbd8fcb6d	-0.07021222
101	0xbde8cae0	-0.1136682
102	0x3d2b8b72	0.041881032
103	0x3d918e6d	0.07107244
104	0xbe472226	-0.1944662
105	0xbe69331c	-0.22773403
106	0xbddb1740	-0.10697794
107	0x3defea8d	0.11714659
108	0x3e58860f	0.2114489
109	0x3e6df1df	0.23236798
110	0xbc319293	-0.010838169
111	0x3ddcfbb0	0.10790193
112	0x3d852c54	0.065025955
113	0x3d185932	0.03719444
114	0xbe613da3	-0.21996169
115	0xbe6ae35f	-0.22938298
116	0x3c91507a	0.01773857
117	0x3db14a8e	0.08656798
118	0xbe055e34	-0.13024217
119	0xba4dde2f	-0.00078532373
120	0x3e43e1d2	0.19129112
121	0xbdb04872	-0.08607568
122	0xbe5e73bc	-0.21723837
123	0x3e2b5a32	0.16733626
124	0x3d7155f9	0.05891988
125	0xbd3d81c3	-0.04626633
126	0x3e4c73dc	0.19966072
127	0x3e46b4f0	0.1940496
128	0xbe34b058	-0.17645395
129	0x3dc6651a	0.09687252
130	0xbe0a1b2b	-0.13486926
131	0xbd143f6b	-0.036193293
132	0xbd843cc6	-0.06456904
133	0x3e2062b4	0.15662652
134	0x3d75d901	0.060021404
135	0xbe2b6915	-0.16739304
136	0xbda71004	-0.081573516
137	0x3d86d5e4	0.06583765
138	0xbcfab2f7	-0.030602915
139	0xbe3b4752	-0.18288925
140	0x3e58e0bf	0.21179484
141	0xbe20768f	-0.15670227
142	0x3dafc4a1	0.08582426
143	0x3ced9ef1	0.029006453
144	0xbde12b7f	-0.10994624
145	0x3e55879f	0.20852517
146	0x3d05b70e	0.032645278
147	0xbe62cd79	-0.22148694
148	0xbdaba7d5	-0.08381621
149	0x3dc1b319	0.09457988
150	0x3dab2252	0.083561555
151	0x3e138ea9	0.1440989
152	0xbd64d080	-0.055862904
153	0xbdcf8e41	-0.10134555
154	0x3e82e2f0	0.25563765
155	0x3e9ca304	0.3059312
156	0x3e1dd8ce	0.15414736
157	0xbe1d1104	-0.15338522
158	0xbe8ed4a6	-0.27896613
159	0xbe9c7305	-0.30556503
160	0x3c22dd54	0.009940464
161	0xbe120f0a	-0.1426355
162	0xbd96ef39	-0.07369847
163	0xbd4f3fcb	-0.050597947
164	0x3e930a19	0.2871864
165	0x3e9ab7c9	0.30218342
166	0xbcc70e21	-0.02429873
167	0xbde11457	-0.10990208
168	0x3e330684	0.17482954
169	0xbb9d9cc6	-0.0048099486
170	0xbe883199	-0.2660034
171	0x3df33c7e	0.11876772
172	0x3e94958d	0.29020348
173	0xbe6f8992	-0.23392323
174	0xbd8610c7	-0.06546169
175	0x3d9b473d	0.07581947
176	0xbe839976	-0.2570302
177	0xbe823640	-0.25432014
178	0x3e657322	0.22407201
179	0xbe063b1b	-0.13108484
180	0x3e3f5e22	0.18688253
181	0x3d224b7d	0.039622772
182	0x3da49101	0.0803547
183	0xbe54d24a	-0.20783344
184	0xbdada6c4	-0.08479074
185	0x3e5ec2ef	0.21754049
186	0x3de6f66f	0.11277472
187	0xbdb7f49f	-0.08982205
188	0x3d13d1e7	0.03608885
189	0x3e72f8b9	0.23727693
190	0xbe8e6a51	-0.27815488
191	0x3e4f1587	0.20223056
192	0xbdd8500a	-0.10562141
193	0xbd451c96	-0.048122965
194	0x3e15fe5e	0.14647815
195	0xbe8bebeb	-0.2732843
196	0xbd661950	-0.056176484
197	0x3e9379b7	0.288038
198	0x3ded89ba	0.11598535
199	0xbdf73e58	-0.12072438
200	0x3e03f5fb	0.12886803
201	0x3e2319ac	0.15927762
202	0xbdfa63b6	-0.122260496
203	0xbdab5dcc	-0.083675
204	0x3e5611d9	0.20905246
205	0x3e649f4a	0.22326389
206	0x3d99683d	0.07490585
207	0xbe2948f3	-0.16531734
208	0xbe5d7c27	-0.21629392
209	0xbe55771a	-0.20846215
210	0x3d9d9d0e	0.076959714
211	0xbe255963	-0.1614738
212	0xbe0fd9c6	-0.14047918
213	0xbd63e307	-0.055636432
214	0x3e459ba7	0.19297658
215	0x3e5e74d6	0.21724257
216	0x3cb0234c	0.021501206
217	0xbe103b4b	-0.14085118
218	0x3e3212f9	0.1739005
219	0x3e1b8c20	0.15190172
220	0xbdfbda09	-0.12297446
221	0x3db82745	0.08991865
222	0x3e4fee50	0.20305753
223	0xbdcc5254	-0.0997664
224	0xbe05ef8b	-0.1307966
225	0xbc7b89c1	-0.015352667
226	0xbe63dfe3	-0.22253375
227	0xbe4ad17c	-0.19806474
228	0x3e5d4165	0.21606977
229	0xbdffc562	-0.1248882
230	0x3dac564b	0.084148966
231	0x3e182cfb	0.14860909
232	0x3dc9c09e	0.09851192
233	0xbe26490e	-0.16238806
234	0xbda49de4	-0.08037928
235	0x3e4e9bc1	0.20176603
236	0xbc3b52d5	-0.011433323
237	0xbcf9ae5b	-0.030478647
238	0x3d72ba29	0.059259567
239	0x3e44490a	0.19168487
240	0xbe571722	-0.21004918
241	0x3e4249ef	0.18973516
242	0xbe57084b	-0.20999257
243	0x3de29ffb	0.1106567
244	0x3dcb329f	0.099217646
245	0xbe62953c	-0.22127241
246	0x3b530cdf	0.0032203717
247	0x3e476247	0.19471084
248	0x3d423f2c	0.047423527
249	0xbe0a9f26	-0.13537273
250	0x3d66fefe	0.056395523
251	0x3d780051	0.060547177
252	0xbcc46b85	-0.02397705
253	0xbcfc01d0	-0.030762583
254	0x3d7d31a1	0.061814908
255	0x3d88c7fe	0.066787705

exp_avg_sq f4 [50, 50]
0	0x3a4bf8b5	0.00077808957
1	0x3b002930	0.00195558
2	0x39f1896c	0.0004606949
3	0x3a94719a	0.001132536
4	0x3bbeda4d	0.0058243633
5	0x3c0a8362	0.008454176
6	0x3b27b85e	0.002559207
7	0x3b13cb58	0.0022551622
8	0x3be21755	0.006899754
9	0x3c03877c	0.008027907
10	0x3897731f	7.221684e-05
11	0x3b033fbf	0.002002701
12	0x3a24689d	0.0006271692
13	0x39983dd2	0.0002903776
14	0x3be80cdd	0.0070816115
15	0x3c01bda3	0.007918748
16	0x393330c2	0.00017088934
17	0x3a9c4018	0.0011920957
18	0x3b412095	0.0029468883
19	0x3988bcbf	0.00026080568
20	0x3bf403c5	0.0074467384
21	0x3ac51790	0.0015036929
22	0x3c05223f	0.008125841
23	0x3bc05e59	0.005870622
24	0x3a1012a3	0.0005495941
25	0x3a51935f	0.0007994677
26	0x3bb7dd37	0.0056110877
27	0x3bcec938	0.0063106082
28	0x3b8c3154	0.0042783413
29	0x3ae7741f	0.0017658508
30	0x3b746461	0.0037291276
31	0x39ba8315	0.00035574348
32	0x3a23a3d4	0.0006242369
33	0x3b96a039	0.0045967367
34	0x3a50265b	0.0007940286
35	0x3b8e2b5d	0.0043386654
36	0x3afb0758	0.0019151969
37	0x3a8edfc0	0.0010900423
38	0x39807018	0.0002449758
39	0x3ba6036c	0.005066326
40	0x3bdeceff	0.006799578
41	0x3b7c3f71	0.0038489962
42	0x3abaabce	0.0014241876
43	0x3a0daafe	0.0005404203
44	0x3b239607	0.002496125
45	0x3bd8986a	0.006609966
46	0x39f0189a	0.00045794697
47	0x3be679ed	0.0070335777
48	0x3ad1f472	0.0016018285
49	0x3acc3628	0.0015580105
50	0x3a04afa7	0.00050615746
51	0x3a33707b	0.0006845069
52	0x39bee415	0.00036409558
53	0x39dfe5ab	0.0004270499
54	0x3ad3b25d	0.0016151179
55	0x3b33eccf	0.0027454381
56	0x3a859fe7	0.0010194749
57	0x3a021756	0.0004962584
58	0x3b004202	0.0019570594
59	0x3b1093ca	0.0022060745
60	0x39004770	0.00012233644
61	0x39f0496b	0.00045831068
62	0x39b28c26	0.00034055224
63	0x38b69343	8.705866e-05
64	0x3ae5a9ed	0.0017521955
65	0x3b18299f	0.0023218167
66	0x39c79820	0.0003806958
67	0x3981d2b0	0.00024761772
68	0x3a4579e3	0.0007533116
69	0x39f48f21	0.00046645946
70	0x3b3188c7	0.0027089582
71	0x3a203c3f	0.0006112493
72	0x3b37836f	0.0028001925
73	0x3b119079	0.0022211357
74	0x39166a95	0.0001434482
75	0x39febd59	0.0004858773
76	0x3adf9d44	0.0017060419
77	0x3b0ddc13	0.0021646067
78	0x3ab850ef	0.0014062206
79	0x3a1e1166	0.0006029814
80	0x3ac71a8b	0.0015190406
81	0x39709492	0.0002294353
82	0x39571617	0.00020512227
83	0x3adfeca1	0.0017084071
84	0x397aac5a	0.00023906064
85	0x3ab2d093	0.0013642482
86	0x3a8850b8	0.0010400033
87	0x3a3d4c62	0.000722116
88	0x39af6922	0.0003345693
89	0x3a90d025	0.001104836
90	0x3af308cb	0.0018542049
91	0x3ab26c4c	0.0013612597
92	0x39cd1185	0.000391137
93	0x3a211c44	0.00061458745
94	0x3a907ddf	0.0011023841
95	0x3b06f709	0.0020594022
96	0x395c802c	0.00021028583
97	0x3ae7cc14	0.0017684721
98	0x3a5afb35	0.0008353473
99	0x3a3343a7	0.0006838389
100	0x3a614ac7	0.00085942115
101	0x3b1687ac	0.002296905
102	0x39b1fed4	0.00033949933
103	0x3a6fbbdc	0.00091451197
104	0x3bdc2d81	0.0067192917
105	0x3c15720e	0.009121431
106	0x3b02cbfb	0.0019958008
107	0x3b237423	0.002494105
108	0x3c01fe37	0.007934145
109	0x3c1dbc56	0.009627422
110	0x380f46dc	3.415985e-05
111	0x3b09761a	0.0020974935
112	0x3a4b081b	0.0007745043
113	0x397c6514	0.00024070247
114	0x3c0ee745	0.008722131
115	0x3c18e7d7	0.009332619
116	0x3852dd15	5.02738e-05
117	0x3ab22687	0.0013591804
118	0x3b46984d	0.003030318
119	0x37ba5884	2.2214146e-05
120	0x3bd31168	0.006441284
121	0x3aa83902	0.0012834372
122	0x3c075a48	0.008261271
123	0x3ba13db7	0.004920687
124	0x3a30dbb6	0.00067466067
125	0x39c87847	0.00038236586
126	0x3be86d45	0.007093104
127	0x3bd78131	0.00657668
128	0x3bb55fba	0.005535093
129	0x3ad6d061	0.0016389006
130	0x3b4fb053	0.003169079
131	0x399758a2	0.00028867
132	0x3a456155	0.0007529457
133	0x3b8b7d9f	0.0042569186
134	0x3a25b7b4	0.00063216244
135	0x3ba28502	0.0049597034
136	0x3a94f140	0.0011363402
137	0x3a3fe498	0.0007320135
138	0x392043f4	0.00015284104
139	0x3bc79714	0.006091008
140	0x3c030276	0.007996192
141	0x3b8d4aa6	0.0043118773
142	0x3ab87540	0.0014073029
143	0x3926b93b	0.00015899997
144	0x3b081332	0.0020763394
145	0x3bfbc71a	0.007683647
146	0x394b099f	0.00019363173
147	0x3c10b284	0.008831624
148	0x3a9d9b99	0.0012024521
149	0x3acb8904	0.0015528505
150	0x3aa16e3d	0.0012316179
151	0x3b737b0c	0.00371522
152	0x3a1e5dc7	0.00060411956
153	0x3af456d4	0.00186416
154	0x3c3fe370	0.01171194
155	0x3c883579	0.01662706
156	0x3b883d99	0.0041577336
157	0x3b8d1187	0.004305068
158	0x3c649354	0.013951141
159	0x3c898a35	0.016789535
160	0x380f8530	3.4217897e-05
161	0x3b71ea68	0.0036913399
162	0x3a82529c	0.0009942832
163	0x39ed5dc3	0.0004527402
164	0x3c7504c7	0.014954752
165	0x3c85d940	0.016338944
166	0x38d12df3	9.974455e-05
167	0x3b0f409f	0.0021858586
168	0x3bb48694	0.005509207
169	0x381dcf16	3.762458e-05
170	0x3c4c2d31	0.012461946
171	0x3b219fc0	0.0024661869
172	0x3c74024f	0.014893129
173	0x3c1d99f0	0.009619221
174	0x3a573f3a	0.00082110206
175	0x3a843acc	0.0010088324
176	0x3c41aa40	0.011820376
177	0x3c3bb05a	0.01145562
178	0x3c131bc9	0.0089787925
179	0x3b466685	0.0030273509
180	0x3bc8c8b1	0.00612744
181	0x39b8e9d7	0.0003526944
182	0x3a993fce	0.0011691989
183	0x3bf948ad	0.0076075406
184	0x3aa686d1	0.0012704973
185	0x3c0a577c	0.008443709
186	0x3b11f8b9	0.0022273494
187	0x3ab6c126	0.0013943061
188	0x3964470e	0.00021770244
189	0x3c28de1c	0.010306861
190	0x3c63eeed	0.013911945
191	0x3bedcbb6	0.0072569503
192	0x3b0ccff7	0.0021486261
193	0x39dda183	0.0004227274
194	0x3b76b2a4	0.00376431
195	0x3c5a0f1a	0.013309265
196	0x3a140248	0.0005646092
197	0x3c7615f5	0.015019883
198	0x3b1996e1	0.0023435878
199	0x3b283c7b	0.0025670815
200	0x39ccfb64	0.00039097213
201	0x3a510ba9	0.0007974455
202	0x3a4ac994	0.0007735726
203	0x3a6d90f3	0.00090624316
204	0x3b0a9ca9	0.0021150506
205	0x3b2f8b5a	0.002678594
206	0x3a7d9c5b	0.0009674483
207	0x3aa7e788	0.001281009
208	0x3b19f19f	0.0023489965
209	0x3b1a9ff2	0.002359387
210	0x39443003	0.00018709902
211	0x3aa798a3	0.0012786578
212	0x39ea9f24	0.00044750527
213	0x394e1264	0.00019652542
214	0x3b099cc6	0.0020997985
215	0x3b1d8391	0.0024034719
216	0x382bd3d3	4.0966854e-05
217	0x3a34839b	0.0006886066
218	0x3ada955a	0.001667659
219	0x3a27cf02	0.0006401391
220	0x3ac2ea03	0.0014870766
221	0x3a129e72	0.0005593068
222	0x3b09f97b	0.0021053243
223	0x3a9d9ef3	0.001202552
224	0x39d57814	0.0004071599
225	0x39d5a0a1	0.00040746204
226	0x3b050505	0.0020297181
227	0x3ae062ac	0.001711925
228	0x3ad926c2	0.0016567337
229	0x3a53cde9	0.0008079694
230	0x3a4adf27	0.0007738941
231	0x3a245d5f	0.0006270017
232	0x398d160f	0.0002691005
233	0x3a9c68e2	0.0011933113
234	0x3a14e1c1	0.0005679392
235	0x3ad6f6dc	0.0016400474
236	0x38a3bb87	7.8073754e-05
237	0x38bdb7bd	9.046446e-05
238	0x38b344a5	8.548171e-05
239	0x3af5e0d7	0.0018759024
240	0x3b11b549	0.0022233299
241	0x3aac6eec	0.0013155616
242	0x3ac08dad	0.001469066
243	0x399d70a9	0.00030029312
244	0x39f5f132	0.00046909746
245	0x3b11e400	0.0022261143
246	0x39ecae1e	0.00045143155
247	0x3b07b3d5	0.0020706553
248	0x39839ff0	0.0002510543
249	0x3a1ac561	0.00059040455
250	0x3a6071a5	0.0008561856
251	0x3a8884fe	0.0010415611
252	0x38f56cc1	0.000117027674
253	0x398e2124	0.00027109042
254	0x3ac80ca5	0.0015262557
255	0x3adf1d4f	0.0017022284

exp_avg f4 [50]
0	0xbe93d8dd	-0.2887639
1	0x3d8c8e51	0.06863082
2	0xbec6e979	-0.3885
3	0x3f03fa9b	0.5155427
4	0x3e6fd1cd	0.23419876
5	0x3ce8b410	0.028406173
6	0x3e7163cb	0.23573224
7	0xbe74351c	-0.23848385
8	0xbe52fd1b	-0.20604365
9	0x3ef4143f	0.47671697
10	0x3d0be15a	0.03415046
11	0x3e150a4f	0.14554714
12	0x3e0e76b9	0.13912477
13	0xbe28102d	-0.1641242
14	0xbe87ee47	-0.2654898
15	0xbf3a2ffa	-0.72729456
16	0x3eeda526	0.4641506
17	0x3edc02a2	0.4297076
18	0xbf0f6616	-0.56015146
19	0x3e3615b0	0.1778171
20	0xbece9502	-0.4034806
21	0xbe92f6bf	-0.28703877
22	0xbeba8a53	-0.36433658
23	0x3e7ad757	0.24496208
24	0xbe6714f2	-0.22566584
25	0xbdd500e6	-0.10400562
26	0xbcfcdd82	-0.030867342
27	0x3e94e389	0.29079846
28	0xbf0e9676	-0.55698335
29	0xbcf6dc2c	-0.030134283
30	0x3e9da564	0.30790246
31	0x3ea63d2e	0.3246855
32	0xbbcaac49	-0.006185089
33	0x3ddcc740	0.107801914
34	0xbd1325db	-0.035924774
35	0x3c325326	0.010884082
36	0xbf1ae6ff	-0.6050872
37	0x3eb6219a	0.3557251
38	0xbd4f5ab5	-0.050623614
39	0x3f2d9541	0.6780587
40	0x3f06d192	0.5266353
41	0xbee41238	-0.4454515
42	0xbe00b6cf	-0.12569736
43	0x3d92d450	0.07169402
44	0xbe9df19d	-0.308484
45	0xbee97361	-0.4559584
46	0x3ec5c4b4	0.38626635
47	0x3e090e2f	0.13384317
48	0xbe8e1164	-0.27747643
49	0x3893e2a2	7.05172e-05

exp_avg_sq f4 [50]
0	0x3cb30c6b	0.021856507
1	0x3be75b17	0.0070604193
2	0x3cda8ada	0.026677538
3	0x3d425c6f	0.047451433
4	0x3b7029e2	0.0036646058
5	0x3b8b8463	0.004257725
6	0x3cfdf285	0.030999431
7	0x3c72b72f	0.014814182
8	0x3bc28ae3	0.0059369667
9	0x3d1c7240	0.038194895
10	0x3c25bc2e	0.010115666
11	0x3b86a263	0.0041087135
12	0x3c0ef4e0	0.008725375
13	0x3d5fa4f8	0.054600686
14	0x3d4e39e6	0.050348185
15	0x3d929b94	0.071585804
16	0x3d3b54e0	0.04573524
17	0x3d031ddf	0.03201091
18	0x3df2b1f1	0.11850346
19	0x3bb1358c	0.0054079946
20	0x3cf26599	0.029589461
21	0x3c1111d3	0.008854347
22	0x3c9fb70e	0.019496467
23	0x3c2f5cd7	0.010703287
24	0x3b4df9f1	0.0031429494
25	0x3cecfbdc	0.02892869
26	0x3b71b5f5	0.0036882136
27	0x3c89c1d3	0.016816055
28	0x3d4f61e9	0.050630484
29	0x3a126016	0.0005583776
30	0x3d14d241	0.036333326
31	0x3cf48afa	0.029851425
32	0x3b35a4ad	0.0027716563
33	0x3c0f544b	0.008748124
34	0x3a3e53bb	0.00072604016
35	0x3ce86b14	0.028371371
36	0x3d870335	0.065924086
37	0x3cf427c2	0.029804114
38	0x3a4bce37	0.0007774564
39	0x3daafcb7	0.08348983
40	0x3db8326b	0.089939915
41	0x3d11e70f	0.035620745
42	0x3c029f20	0.007972509
43	0x3b42d04b	0.0029726203
44	0x3d00b189	0.03141931
45	0x3d0c147c	0.034199223
46	0x3bef34db	0.007300002
47	0x3b7f8e3d	0.0038994693
48	0x3c88c6f9	0.01669644
49	0x3c82a305	0.015946874
