weights/checkpoint/example0001_train_adam.pth (torch, 79323 bytes, 35 tensors)

a f4 [5]
00000000: cdcc 4c3e cdcc 4c3e cdcc 4c3e cdcc 4c3e
00000010: cdcc 4c3e
0.2 0.2 0.2 0.2 0.2

input_layer.weight f4 [50, 2]
00000000: 2b5b 8ebf 9893 02c0 1335 72be b14f d33b
00000010: d73c c23f 78aa a1bd 688f f7bf ae35 483d
00000020: 810b f3bf 7f1e 8fbf 36b6 523f 985a 48bf
00000030: 35f9 5140 d4a1 63bf 08e0 a13f 42d4 08bf
00000040: 9e12 c3bc 8166 f8bf d8fc 623f cf62 ac3e
00000050: 59d8 98bf 0361 d2be a747 14c0 4951 8c3e
00000060: 53de 97be 9be3 953f 7442 02be e6c8 7fbf
00000070: 6cb0 0740 8730 b0be 0052 82bf 3244 5e3f
00000080: 66ed 46bf 198e 063f abc1 3a3f 505a 80bf
00000090: 68e7 7abe c0d2 35be d962 f8be 1b13 af3f
000000a0: 6e99 a6bf 03ba c9bf f193 4c3f 41ce a6bd
000000b0: 4629 56bf e9c5 783f 79bd e2be 6d50 ad3e
000000c0: cc13 dabe 14ee dbbf 4701 91be 5285 d63f
000000d0: dc40 953e 2755 673f bbff 80bf efe6 86bf
000000e0: 39b3 6fbf f180 84be 663a 653f 40ed a03f
000000f0: 268f 3d3f 16ba 883f 909b 7a3e 1965 bbbe
00000100: 1b72 b6bf d71f e13d 7d88 843e 2cae 733e
00000110: e108 9b3f 0ee7 8d3e cd18 bbbc 1f9c e93f
00000120: 4c23 6d3f 1f11 8f3f c9de cebe cc48 183b
00000130: 5b40 cb3e b456 9d3f 8c8b 14bf 4a79 bd3e
00000140: 55f0 6abf eb06 c9bf a466 2cbd 0c82 81be
00000150: 64d3 3ebe 0359 9ebf ca1b 483f d18d 643f
00000160: b910 c2be 24a3 ee3f cc87 853f 7b47 9cbf
00000170: 661e 453f f011 72bf c631 bdbf cda1 bebe
00000180: 4821 aabe 9a1e 18be 1c10 1b40 3a8d b8be
-1.1121572 -2.0402584 -0.23653059 0.006448709 1.5174817 -0.078938425 -1.9340639 0.048879318
-1.8987886 -1.1181182 0.8230928 -0.78263235 3.2808354 -0.88918805 1.2646494 -0.5344888
-0.023812588 -1.9406282 0.8866706 0.33669135 -1.1941024 -0.4108964 -2.3168733 0.27405766
-0.29661807 1.1710085 -0.12720662 -0.9991592 2.120143 -0.34412023 -1.0181274 0.8682281
-0.7770599 0.52560574 0.72951764 -1.0027561 -0.24502337 -0.17756176 -0.48512915 1.3677706
-1.3015573 -1.5759891 0.7991324 -0.081448086 -0.8365673 0.97176987 -0.4428518 0.33850423
-0.4259323 -1.7182031 -0.28321287 1.6759436 0.29151046 0.9036431 -1.0078043 -1.0539225
-0.9363285 -0.25879624 0.89542234 1.2572403 0.7404655 1.0681789 0.24473405 -0.3660057
-1.4253572 0.10992401 0.25885382 0.2379691 1.2112085 0.27715343 -0.022838974 1.8250769
0.92631984 1.11771 -0.40404347 0.002323675 0.39697537 1.2292085 -0.5802543 0.370066
-0.9177297 -1.5705236 -0.042090073 -0.2529453 -0.18635327 -1.2370914 0.781674 0.89278895
-0.37903383 1.8643537 1.0432067 -1.2209314 0.7699951 -0.9455862 -1.4780815 -0.3723282
-0.33228517 -0.14855424 2.4228582 -0.36045247

input_layer.bias f4 [50]
00000000: 4691 e2bd 22be 723e b820 ed3d 1493 06be
00000010: e7e7 de3c 20ae 853d 86f2 aabc 33df a6bc
00000020: f8dd fbbc a8f9 e8bd 384e dcbd 6857 8c3c
00000030: 237d bb3d 5a88 653c 7bf8 7cbc 28a3 bebc
00000040: 9dd9 5abd 9f7c 25bd d3fd 8e3d ac7d d0bd
00000050: 018e 233d 4bf2 9abc 94f4 eabb 8fd8 053e
00000060: cfd8 41be 6e8c 50bd 222c c6bd 8121 003e
00000070: 63a3 d1bd a23c 0a3e 3053 05be 4ca6 833c
00000080: 25be 85bc bebf b5bd 312b 153c 14ac 1e3d
00000090: 6935 f53c 65c4 6bbd 4b6c cfbd 7a1a 363e
000000a0: 7996 fe3d 81fd 9a3c 4279 c7bb 764a c83d
000000b0: 558a c3bc e275 b13d df2f 6abd b197 bc3d
000000c0: 287e bd3d 17d7 78bd
-0.11062865 0.23705342 0.11578506 -0.13142043 0.027210189 0.06527352 -0.020867597 -0.020370102
-0.030745491 -0.11375743 -0.107571065 0.017131522 0.09154727 0.0140095595 -0.015440102 -0.023271158
-0.05343019 -0.04040205 0.06982007 -0.1018022 0.039930347 -0.018914362 -0.0071702693 0.13070892
-0.18930362 -0.050915174 -0.096763864 0.1251278 -0.10236242 0.13499692 -0.13020015 0.016070507
-0.01632602 -0.088744625 0.009104536 0.038738325 0.029932695 -0.057560343 -0.10128077 0.17783538
0.12431044 0.018919708 -0.006087453 0.09779827 -0.023869673 0.086650625 -0.05717456 0.0920862
0.09252578 -0.060752

input_ln.weight f4 [50]
00000000: 1082 743f d813 913f ded1 783f 454c 783f
00000010: 4df7 7d3f 5e91 7a3f a199 7e3f e826 a13f
00000020: d79e 623f dd3a 7a3f 8f6e 783f 6dca 773f
00000030: 5bff 833f 5bbb 883f d478 803f acaa 773f
00000040: 30cd 733f 4f59 853f 85d0 7d3f 4a3c 6e3f
00000050: 167d 763f e775 7d3f f8e4 793f 9691 6f3f
00000060: 2b31 703f a9f1 7d3f d24a 743f 556c 713f
00000070: 0244 6a3f 120a 893f c781 733f 95ad 6e3f
00000080: e4cd 833f 3b6c 853f 7ca9 823f 245a 893f
00000090: 3e7a 863f 4c01 7b3f 7918 753f 6109 853f
000000a0: bae0 833f 3169 7b3f bd0e 753f 6b32 813f
000000b0: 032b 833f 2f15 803f 6817 873f 85f6 7e3f
000000c0: 3d48 663f 0997 8d3f
0.9551096 1.1334181 0.9719523 0.9699138 0.99205476 0.9787806 0.9945317 1.2589998
0.8852362 0.9774607 0.970437 0.9679325 1.0312303 1.0682176 1.0036874 0.967448
0.95234966 1.041788 0.991463 0.93060744 0.96284616 0.9900803 0.97615004 0.9358152
0.93825024 0.9919687 0.95426667 0.94305927 0.9151002 1.0706198 0.951199 0.93233615
1.0297208 1.0423654 1.0207973 1.0730634 1.0506055 0.98048854 0.9574047 1.0393487
1.0302956 0.98207384 0.95725614 1.0093511 1.0247501 1.0006465 1.0554018 0.9959491
0.89953977 1.1061717

input_ln.bias f4 [50]
00000000: e057 a33c d5d7 f0bd 93bd 0e3e 64a6 adbe
00000010: 40d7 09be 1290 92be b4b4 083e 3c0c 113e
00000020: 45f4 0a3e 93ee 053e 033d 833d f500 913e
00000030: 1c10 69be d5ed a8be a1af a6bd 2e29 be3c
00000040: 785b 31bd ae43 973e 67ce a43e b72c a43e
00000050: 9c62 4c3e b26b d4bc dda2 813e badd 9cbc
00000060: 8199 763e 820a 4e3e ba55 cc3d ef12 51be
00000070: f853 9c3e 21b8 23be 72a5 803e f544 32be
00000080: 5214 bd3c 4d39 833e 7752 80be 8038 84be
00000090: cf9c 13bd 39cb e73d cdb0 373e ce66 3cbe
000000a0: cd33 53be c5c2 57be dd2b 4fbb 99bb 153e
000000b0: 9f22 6a3e 0fba 9abd db8d 41be da1a b23e
000000c0: b403 6ebe f482 8c3e
0.019939363 -0.11759917 0.13939504 -0.33916008 -0.13461018 -0.28625542 0.13350183 0.14164823
0.13569744 0.1307929 0.064081214 0.28321043 -0.22760051 -0.3299395 -0.08138967 0.023212995
-0.043300122 0.29543823 0.32188722 0.32065365 0.19959491 -0.02593026 0.25319567 -0.019148696
0.24081995 0.20121196 0.099772885 -0.20417379 0.30532813 -0.15988208 0.25126225 -0.17409118
0.023080979 0.25629655 -0.25062916 -0.25824356 -0.036038216 0.113180585 0.17938538 -0.18398592
-0.20625229 -0.21070392 -0.0031611838 0.14622344 0.2286477 -0.07555019 -0.1890177 0.3478611
-0.232436 0.2744366

hidden_layers.0.weight f4 [50, 50]
00000000: af46 023e 74a4 533e e9fa 793d 5077 ad3d
00000010: 2d7c 19bd 035b 9f3e 9759 c6bd c159 0cbd
00000020: 5c09 b1be 6bd0 373e 0d56 4fbe b550 a83e
00000030: ed3d bebe 4e66 b6bd 4ccf 1b3d 49be aa3d
00000040: 4739 02be 7fb9 d4bd 458e a5bc cccb bbbd
00000050: 5f79 f93d 01c9 8fbe 7072 2bbe cfee 97bd
00000060: 46a9 7fbe 3d8c 703e 3d13 5d3e cda6 483d
00000070: eb12 1a3e 2478 3cbe 5790 a5bd 0d6b 93be
00000080: 5a46 ddbd 8e5e bcbe 54a4 3bbe ceaa d13e
00000090: 2cb2 15be 2f62 f2bc 7406 04bb 02d8 31be
000000a0: 336c ad3c 44b8 38bc eea3 973e e913 793d
000000b0: bb21 433d 9af5 b7bd 1b7c ce3e 6431 343f
000000c0: 0587 4fbd 6133 f93d 82ac 2ebe 901a 593e
000000d0: 77c8 cfbb 74b9 b13e 36b4 bd3d 28d1 9dbd
000000e0: f6b1 c93e 98f1 0cbe 08cf a13d 8a7e 85bc
000000f0: e1d5 e93d 9931 e8bd fbd6 943d f138 ad3c
00000100: 9215 223e 571a 6d3e 96a0 8c3d 3b67 02be
00000110: 0494 91bd 7d92 37be 0578 3a3d 93e8 1fbe
00000120: c1f7 d4bd 6f75 a93e 8281 9fbd 718a babd
00000130: 02d6 053e 6c6d babe b6cb 413d f4cc ed3d
00000140: 517c 1bbe 3269 8b3d 5fdf 09be 101d a83e
00000150: 2817 b43e 28f1 3d3d e189 81be 4218 f13c
00000160: 0b8d 6fbd 8ff9 aebd 4e5f 163e c540 20be
00000170: 10a6 2f3e ce61 a83e f60e ddbe c3d8 49be
00000180: 1ef5 ce3e c08d 7c3e f4df 8b3e 146e cbbd
00000190: 70e2 a43e 4298 9fbe 8423 303e efe9 3dbe
000001a0: 7f31 9cbe 60a9 1abe 85e3 a6be 69be 94be
000001b0: 8e15 863d 7b79 47be 0835 bebd 2477 273d
000001c0: f1dc 69be f7ae a03d 7ee4 aebd 3e77 b13d
000001d0: e23f 1bbe 854b a53e dabc 79bd 60ee 443d
000001e0: f859 3fbd 9fdf 5cbd 0e36 e53b f72d f8be
000001f0: e9db 553e 27e0 f23e 1f12 d7be 7332 013e
00000200: a1e4 ae3b 2e42 9bbe 99c0 fdbd 6860 233d
00000210: 0a76 8dbe eacb e43d 671d 93be ce70 3c3d
00000220: 61ab c13d d53c 0cbe 9694 123d 3c6f c73d
00000230: 5110 173e b08f 06be 2d3f 80be 31cd 8b3e
00000240: 6b05 89be bb45 e2bb a9df 95bd 97cf 053f
00000250: 7c9c b73e 0611 a2be 36d4 36be 92ae d4bb
00000260: 24c7 353e ee35 7e3e 2ab1 1bbe 9cd6 fdbd
00000270: 1ddb 78bc db6a a4be 8f94 8fbe e13b 493d
00000280: 52f8 56bd 89e2 56ba 68d8 a13e b3f2 063e
00000290: 5ef3 1bbe 768f e83e b3fa 0cbe 682d 51bc
000002a0: 0860 12be 7848 193e 6481 ce3d bed0 ecbd
000002b0: ba47 383d 45b7 06bc 4b38 91bd 4082 12be
000002c0: b019 76bd 4c92 a7bd 32c2 0c3d f356 113d
000002d0: a59f 333e ab74 123d d928 933e de82 0f3e
000002e0: 3aec b2bd 34d0 473e 9950 af3d 781f 4fbe
000002f0: 78e3 1abe 52a9 ddbd 6a2b 063d 2ef8 a93c
00000300: ad07 383e 2f03 1a3c d50d 42be 341e d9bd
00000310: 3f9f c7bd 7a49 523d ed9d 963c f2f3 a93e
00000320: 50ef a93e a9de 263d 328d c9bc 82b1 bdbd
00000330: 9163 2dbd 099d d63d cb30 c8bd b307 383e
00000340: ee6e b1be 25ed a2be b60a 5a3e c731 fbbd
00000350: 8565 54bd 8894 2f3d 562c 34be 501a 80be
00000360: 6818 1f3e f3da 9bbe 9858 a6be 6f92 e0bd
00000370: d46d 29be 01d6 15bd 78a7 d23d df01 bfbe
00000380: 7dbd c53e 7cb4 32be f4ce f63d 4565 813d
00000390: dfea d43c d842 633b d5db 1b3e d176 cabd
000003a0: 6f74 973e 8042 7f3d 967a 8c3d c936 3fbd
000003b0: 717d 56bd 6a4a 55be 2027 5c3e fad5 e33d
000003c0: 51c0 c1bd 571b 2f3e 4dbe f1bd 829a 463e
000003d0: bdd3 f1bd b9b2 763e b750 5bbe 9d0e 28be
000003e0: 0cd6 863e 99d4 ddbd fc23 ddbd b0d3 963e
000003f0: 4250 5b3d 72d5 8abe 35dd 763e a779 c53d
0.12722276 0.20668203 0.061030302 0.08470023 -0.03747194 0.31124124 -0.09685057 -0.034265283
-0.34577453 0.17950599 -0.2024767 0.32874075 -0.3715662 -0.08906232 0.03803949 0.08337075
-0.12717162 -0.10386943 -0.020209441 -0.091697305 0.12181353 -0.2808304 -0.16742873 -0.07418596
-0.24966916 0.23490997 0.2158937 0.0489872 0.15046279 -0.18405205 -0.08084171 -0.2879261
-0.10804434 -0.3679089 -0.18324405 0.40950626 -0.14618748 -0.029587833 -0.0020145448 -0.17367557
0.021169757 -0.011274401 0.29617256 0.060810003 0.04763959 -0.08982392 0.4032906 0.70387864
-0.050665874 0.12168003 -0.17057994 0.21201539 -0.006341036 0.34711802 0.09262888 -0.07705909
0.39393586 -0.13764036 0.07900816 -0.01629569 0.11417747 -0.11337585 0.07267567 0.021145316
0.15828541 0.23154579 0.06866567 -0.12734692 -0.0710831 -0.17926975 0.045524616 -0.15616064
-0.10398818 0.33097407 -0.077883735 -0.09108437 0.13069919 -0.36411607 0.047313415 0.11611357
-0.15184142 0.06807174 -0.13464116 0.32834673 0.35173917 0.046372563 -0.25300506 0.029430512
-0.05848412 -0.08543693 0.14684793 -0.15649708 0.17153192 0.3288712 -0.43175477 -0.19711594
0.40421385 0.24663448 0.273193 -0.09933105 0.32204008 -0.3117085 0.17201048 -0.1854627
-0.30506513 -0.15103674 -0.3259546 -0.2905152 0.0654708 -0.19479935 -0.09287459 0.040885106
-0.22838189 0.07845872 -0.08539675 0.08665322 -0.15161088 0.3228418 -0.06097112 0.048078895
-0.04671666 -0.0539242 0.006994969 -0.48472568 0.2088467 0.4743664 -0.42006013 0.12616901
0.0053373133 -0.3032393 -0.12390251 0.039886862 -0.2762912 0.11171706 -0.2873337 0.046006016
0.09456516 -0.1369508 0.035786234 0.09738013 0.14752318 -0.1314075 -0.250482 0.27304986
-0.26761946 -0.006905285 -0.073180504 0.5226988 0.35861576 -0.31653613 -0.1785439 -0.006490537
0.17751747 0.2482526 -0.15204301 -0.12394449 -0.015188959 -0.32112774 -0.2804303 0.04912937
-0.05248291 -0.00081972085 0.31610417 0.1317852 -0.15229556 0.45421952 -0.13767509 -0.012767173
-0.14294446 0.14969051 0.10083273 -0.11563252 0.04499028 -0.008222406 -0.07090815 -0.14307499
-0.06008309 -0.08182201 0.034364887 0.03548331 0.17541368 0.035755794 0.28742102 0.14014766
-0.08736463 0.19513017 0.08560295 -0.20226848 -0.15125835 -0.10823311 0.032756247 0.020748224
0.17971678 0.009400173 -0.18950589 -0.10601464 -0.09747171 0.051339604 0.018385852 0.33193928
0.33190393 0.04073969 -0.02460346 -0.092623726 -0.042331282 0.10479171 -0.097749315 0.17971687
-0.34654945 -0.31821552 0.21293148 -0.12265354 -0.05185463 0.04286626 -0.17595038 -0.25020075
0.15536654 -0.30440482 -0.32489467 -0.1096543 -0.16545802 -0.036581043 0.102858484 -0.37306115
0.3862113 -0.17451662 0.12051192 0.06318144 0.025990902 0.0034677293 0.15220578 -0.09885944
0.2958102 0.06231928 0.06859319 -0.046683107 -0.052365724 -0.20829168 0.214993 0.11124797
-0.094605096 0.17100273 -0.11803875 0.19394878 -0.11807964 0.24091615 -0.21417509 -0.16411825
0.2633518 -0.108315654 -0.10797879 0.2945838 0.053543337 -0.2711597 0.24107821 0.09642344

hidden_layers.0.bias f4 [50]
00000000: 32bc a03c be41 d9bc 0c45 d03c 2722 e43b
00000010: 8f9e 59bd 4e63 ea3c 685f 2fbd 0463 89bb
00000020: 458e e5bc e444 4abd cdb7 293d d6a5 3f3d
00000030: 94ff a23c 194a e33c 2c73 013b fe6e e5ba
00000040: 8c7a 473c 2829 453d 2a12 8b3c 6239 7f3d
00000050: 4741 623c be72 0cbd de62 e43c 914d a33a
00000060: 9f2d 873b d0cf 54bd ca61 4d3d b1fb 96bb
00000070: dbe7 673d b1ce fbbc 3f34 87bc aed1 523d
00000080: 3ecb 4fbc 29bd 01bd a766 953d f872 173d
00000090: 553d 463d b574 49bd 8097 5b3d bd76 6d3c
000000a0: e789 913d 1e62 4dbd 4699 57bd 9026 46bc
000000b0: f184 6ebc cf8d fabd 9229 fb3c fb1d 70bc
000000c0: 54dc 89bc f330 83bc
0.019620989 -0.026520606 0.02542355 0.006962079 -0.05312973 0.028611805 -0.042815596 -0.004192712
-0.028021941 -0.049382105 0.04143505 0.046789013 0.01989726 0.027745293 0.0019752486 -0.0017504392
0.012175214 0.048134953 0.016976435 0.062310584 0.013809509 -0.034289114 0.027879175 0.001245903
0.0041253115 -0.051955998 0.050142087 -0.0046076407 0.0566176 -0.030738207 -0.016504405 0.051469497
-0.012682734 -0.031674538 0.0729497 0.036974877 0.048398335 -0.049183566 0.05361128 0.014493641
0.07106381 -0.0501424 -0.052636407 -0.012094155 -0.014558063 -0.12234079 0.03065947 -0.014655585
-0.016828693 -0.016014552

hidden_layers.1.weight f4 [50, 50]
00000000: 6fd8 2ebd 1402 2a3d 33ab f4bc 836f edbd
00000010: 897b f23d 5883 56be f560 0fbd 5a87 16be
00000020: 3c6e b4be 87f0 053b 5c86 4ebe a746 993c
00000030: 76ea 443e 13db 23bc 38fc cc3e d09a 14bf
00000040: 7edd 6e3e ac47 4dbd 17f6 98be bf2f 9b3e
00000050: 9b39 573d e92d 373e 5314 873d 4aa2 48be
00000060: 3cfb 4dbe 21bb 88be 07a1 b0bb ab14 9e3d
00000070: 204b 18be 0760 85be 7739 113d 8d49 0cbe
00000080: d123 443e 8a08 29bc 1bcd 51be 7928 b43d
00000090: 813f 52be 04a1 ff3d 323a 53bd 2bc9 d4bd
000000a0: af40 da3d 4720 563e 9f00 823d ec04 18be
000000b0: 98df dc3d fd82 6b3e 2fd5 de3e 136a bf3d
000000c0: 6934 80bd c3a0 00bf 3838 7bbe 4fae 69bd
000000d0: 57db e93c feec aabe 0fcb 47bc 4241 263d
000000e0: fb63 813e fe59 37be 8d1b 7bbe 87e0 d3bd
000000f0: 31f1 e0bd 31a3 1dbe eeea 8bbc 5803 32be
00000100: 774a 8a3e aa29 12be 4fba f03d 4886 f73c
00000110: 6075 76be 32b7 f1bd 4e9d 2e3e 1201 bcbe
00000120: 0be5 11be 25d5 f73b ec91 2f3e c6bf 88be
00000130: c1aa 043d 7ab0 d03d bcf1 5c3e a12c be3a
00000140: 7d4f f63c 0340 35be b2a6 223e c7c8 54bd
00000150: 0c08 99bd a455 ffbc 7171 cf3c 144a 833e
00000160: df4c 0cbf a973 a8be 973d 0d3d 516d a4bd
00000170: ee5f 863e baeb fcbd 73bd 913e db6b 90bd
00000180: d1bf 533e 2ed4 3fbc 4bcd 86bc b97d 84be
00000190: 9d60 d53d 7d4c 41be f117 aa3e c5db babd
000001a0: 7180 b13e 232d 57be bcd4 a9bd ed05 753c
000001b0: 98a5 073f 7893 d33c 4e44 b4be d0cd 9cbc
000001c0: fd51 093f f224 8dbc fdfe c1bd 2050 eebd
000001d0: 2655 803e d1ed 1d3d 6829 95be 1f47 abbe
000001e0: 42dc d1be 8568 66be 276a e5be 0bd0 583e
000001f0: e068 06bd bdce 12be ea38 48be 0acd dc3c
00000200: 5001 bbbe 55ae a73d 79e4 3abe 7d5a 143e
00000210: 429c 34be 098d c13e cee4 80bc f1ab 8a3d
00000220: a43d ec3d 654e 423e f7c1 6c3c 251d 253e
00000230: e94b 443d c7a5 b23e bf99 5abe d723 fd3e
00000240: bee9 45be f550 ab3e 94db bbbd cc0b b43e
00000250: d710 183c 1f07 bc3e ca4c 89be 24b0 5f3e
00000260: 765d 93be 9761 703e 08ff fc3d 503b b73e
00000270: 8daf 323d 72b1 09be 59a0 98be b762 1a3e
00000280: 6bf1 93be 01e0 643e a3a1 433d c452 fdbd
00000290: 13f2 4ebd 40f6 1d3d 34e8 24bd 6cd9 833e
000002a0: 8e85 01bf c9e5 fbbd 4f21 b9be 792c 73be
000002b0: 4f2d 9a3d bdee e13d 74c2 65bc 2a1b eb3c
000002c0: b31a e63d 5a35 96bd 1ba4 843d e24f f93d
000002d0: 503b b63d d2bf f93e 7007 bbbe 56f0 d13d
000002e0: 24bd 1d3d 1452 3cbe 8576 a0be 5151 033c
000002f0: 2027 20be 5da1 aa3c 9080 b8be 4460 c2bd
00000300: 1e7b 37bd e606 063d 49ea 57be 7b32 6a3e
00000310: 3c47 b13e a5c6 6a3d 720e 0fbe f82e 2f3d
00000320: b7d0 d03e f3e2 f83d e72f 713d f3e4 723c
00000330: c793 52bd c3f1 063d 8252 9ebc c49d 273e
00000340: 1d60 89bd 043e a93c 6900 36bd 92f1 dc3d
00000350: 87ff 183e d47b c33e 080b 2fbd e500 843e
00000360: 4a98 18bd d0e0 febc 30d2 893e d47b d6be
00000370: 8815 21bd 0359 f33c 205f a1be 3c27 54be
00000380: c10d edbc c8b1 19be 541e ab3e 62aa 0d3d
00000390: 93cd 71bc 6c52 043e 17b1 3b3b 608d 2e3c
000003a0: 77ff b2bd b7eb 52be 8e17 1ebb a84a 9e3c
000003b0: 4ffe 523e b9fe fc3d 57aa fc3d 7c8a bfbd
000003c0: 9cb1 7ebd 232c b13c 6d10 813d 3c36 da3c
000003d0: 1327 9dbd 483b 15be 9746 973d 63cd 123e
000003e0: a27a a33e d9f7 e83b f468 aebd 4852 a03c
000003f0: e812 053e 6378 0c3d 16f4 263e 5ed1 193e
-0.042686876 0.041505888 -0.02986679 -0.11593535 0.11839969 -0.20948541 -0.035004575 -0.1470007
-0.35240352 0.0020437555 -0.20168442 0.018710447 0.19230065 -0.010000962 0.40036178 -0.58048725
0.2332668 -0.05011718 -0.29875252 0.30309865 0.05254517 0.17888607 0.065956734 -0.19593158
-0.2011537 -0.26705268 -0.0053902897 0.07718786 -0.14872408 -0.26049826 0.035455193 -0.13699932
0.19154288 -0.010316977 -0.20488398 0.08796782 -0.20532037 0.12481883 -0.05156917 -0.10389932
0.10656869 0.2091075 0.06347775 -0.14845628 0.107848346 0.22999187 0.4352202 0.09346404
-0.062599964 -0.502453 -0.24533165 -0.057051 0.028546972 -0.33383936 -0.012194409 0.04058958
0.25271592 -0.17905423 -0.24522229 -0.103455596 -0.109835036 -0.15394284 -0.017079797 -0.17384088
0.27009937 -0.14273706 0.117542855 0.030215397 -0.24068213 -0.1180252 0.17052194 -0.36719567
-0.14247529 0.0075632506 0.17145509 -0.26708812 0.032389406 0.1018991 0.2157659 0.001450915
0.0300672 -0.177002 0.15883902 -0.05194929 -0.07472238 -0.031168766 0.025322648 0.25642455
-0.54804796 -0.32900742 0.034482565 -0.08028663 0.26245064 -0.12349649 0.2846485 -0.07051822
0.20678641 -0.011708302 -0.016455313 -0.2587717 0.10418818 -0.18876834 0.3322139 -0.09123949
0.34668306 -0.21013312 -0.08292529 0.014955026 0.5298705 0.025827155 -0.35208362 -0.019141108
0.5364073 -0.017229531 -0.09472463 -0.116363764 0.25064963 0.038556878 -0.29133153 -0.334527
-0.40988356 -0.22500809 -0.4480755 0.21173112 -0.03281486 -0.14336677 -0.19552961 0.026953239
-0.3652444 0.08187548 -0.18251218 0.14487644 -0.17637733 0.37802914 -0.015734103 0.067710765
0.115351945 0.18975218 0.014450542 0.16124399 0.047923956 0.34892103 -0.21347712 0.49441406
-0.19327447 0.33460203 -0.091727406 0.3516525 0.009281359 0.36724183 -0.26816398 0.21844536
-0.28782243 0.23474728 0.12353331 0.3578744 0.04362445 -0.13446596 -0.29809836 0.15076719
-0.28895125 0.22351076 0.04776157 -0.12369302 -0.05052383 0.03856492 -0.04026051 0.25751817
-0.50594413 -0.122996874 -0.36158225 -0.23747434 0.07528173 0.11031864 -0.014023412 0.028699476
0.11235561 -0.07334395 0.06476613 0.121734396 0.08898032 0.4877916 -0.36529112 0.102509186
0.038510457 -0.18390685 -0.31340423 0.008014993 -0.15639925 0.020828897 -0.36035585 -0.094910175
-0.044795148 0.032721423 -0.21085466 0.2287082 0.3462466 0.05731835 -0.13970354 0.042769402
0.40784237 0.12152662 0.058883574 0.014825094 -0.051410463 0.032945406 -0.019326452 0.16368777
-0.06707785 0.020659454 -0.044433985 0.107882634 0.14941226 0.3818041 -0.04273513 0.25781932
-0.03725461 -0.031113058 0.26918173 -0.41891348 -0.039327174 0.02970553 -0.31517887 -0.20718092
-0.028937222 -0.15009224 0.33421576 0.034586318 -0.014758485 0.12922066 0.002863949 0.010653824
-0.08740132 -0.2059773 -0.0024122926 0.019322708 0.20604824 0.12353272 0.12337177 -0.09352586
-0.0621811 0.021627491 0.06301961 0.02663719 -0.076734684 -0.14573395 0.07386511 0.14336161
0.319295 0.007109624 -0.08516112 0.019570485 0.12995493 0.034294497 0.16304049 0.15021273

hidden_layers.1.bias f4 [50]
00000000: 5f4f 3f3d fd73 37bd a01d 29bd 367f 47bd
00000010: 3d89 42bc dfcf 8dbb f520 083c 4e94 8c3c
00000020: a307 a7bd 7d5d 17bd 9393 f5bc 02ce 7f3c
00000030: cf3b 88ba c641 b13c 40dd 45bd 43ae 1bbe
00000040: c65d f43b 1ab4 7dbc cde5 3fbc 053a 72bb
00000050: 6679 7dbd 44dd ae3c 88ba 823c 5117 4f3d
00000060: 1fc9 c73b b361 80bd f8e7 8d3d 789d 0a3d
00000070: 9298 89bc 24b8 ef3b 4fa3 de3c da6a a43c
00000080: 8a0d 173d 7422 ecbc 83d0 86b9 a889 4cbd
00000090: e486 ac3b bcf0 1dbc 9d99 f6bb b315 8ebd
000000a0: 2ff6 a93c dddf 65bc f98f 06bd 9c19 993c
000000b0: 8930 fabb 53a3 5dbd de2d 1bbd b4e2 44bd
000000c0: 25d5 f5bc 2636 8f3c
0.046706554 -0.04478835 -0.04128802 -0.048705302 -0.0118735405 -0.0043277587 0.008308639 0.017160561
-0.081557535 -0.03695439 -0.029977595 0.015613081 -0.0010393801 0.021637809 -0.048306704 -0.15203194
0.0074574677 -0.015484834 -0.011712504 -0.0036960852 -0.061883353 0.021345742 0.015958086 0.050559346
0.0060969735 -0.06268635 0.0692901 0.03384158 -0.016796384 0.0073156524 0.027177481 0.020070482
0.036878146 -0.028825022 -0.00025713825 -0.049935967 0.0052651037 -0.009639915 -0.0075256363 -0.069377325
0.020747272 -0.014030424 -0.032852147 0.01868897 -0.0076351804 -0.054110836 -0.03788554 -0.048067763
-0.030008862 0.017481875

hidden_lns.0.weight f4 [50]
00000000: 0000 803f 0000 803f 0000 803f 0000 803f
00000010: 0000 803f 0000 803f 0000 803f 0000 803f
00000020: 0000 803f 0000 803f 0000 803f 0000 803f
00000030: 0000 803f 0000 803f 0000 803f 0000 803f
00000040: 0000 803f 0000 803f 0000 803f 0000 803f
00000050: 0000 803f 0000 803f 0000 803f 0000 803f
00000060: 0000 803f 0000 803f 0000 803f 0000 803f
00000070: 0000 803f 0000 803f 0000 803f 0000 803f
00000080: 0000 803f 0000 803f 0000 803f 0000 803f
00000090: 0000 803f 0000 803f 0000 803f 0000 803f
000000a0: 0000 803f 0000 803f 0000 803f 0000 803f
000000b0: 0000 803f 0000 803f 0000 803f 0000 803f
000000c0: 0000 803f 0000 803f
1.0 1.0 1.0 1.0 1.0 1.0 1.0 1.0
1.0 1.0 1.0 1.0 1.0 1.0 1.0 1.0
1.0 1.0 1.0 1.0 1.0 1.0 1.0 1.0
1.0 1.0 1.0 1.0 1.0 1.0 1.0 1.0
1.0 1.0 1.0 1.0 1.0 1.0 1.0 1.0
1.0 1.0 1.0 1.0 1.0 1.0 1.0 1.0
1.0 1.0

hidden_lns.0.bias f4 [50]
00000000: 0000 0000 0000 0000 0000 0000 0000 0000
00000010: 0000 0000 0000 0000 0000 0000 0000 0000
00000020: 0000 0000 0000 0000 0000 0000 0000 0000
00000030: 0000 0000 0000 0000 0000 0000 0000 0000
00000040: 0000 0000 0000 0000 0000 0000 0000 0000
00000050: 0000 0000 0000 0000 0000 0000 0000 0000
00000060: 0000 0000 0000 0000 0000 0000 0000 0000
00000070: 0000 0000 0000 0000 0000 0000 0000 0000
00000080: 0000 0000 0000 0000 0000 0000 0000 0000
00000090: 0000 0000 0000 0000 0000 0000 0000 0000
000000a0: 0000 0000 0000 0000 0000 0000 0000 0000
000000b0: 0000 0000 0000 0000 0000 0000 0000 0000
000000c0: 0000 0000 0000 0000
0.0 0.0 0.0 0.0 0.0 0.0 0.0 0.0
0.0 0.0 0.0 0.0 0.0 0.0 0.0 0.0
0.0 0.0 0.0 0.0 0.0 0.0 0.0 0.0
0.0 0.0 0.0 0.0 0.0 0.0 0.0 0.0
0.0 0.0 0.0 0.0 0.0 0.0 0.0 0.0
0.0 0.0 0.0 0.0 0.0 0.0 0.0 0.0
0.0 0.0

hidden_lns.1.weight f4 [50]
00000000: 0000 803f 0000 803f 0000 803f 0000 803f
00000010: 0000 803f 0000 803f 0000 803f 0000 803f
00000020: 0000 803f 0000 803f 0000 803f 0000 803f
00000030: 0000 803f 0000 803f 0000 803f 0000 803f
00000040: 0000 803f 0000 803f 0000 803f 0000 803f
00000050: 0000 803f 0000 803f 0000 803f 0000 803f
00000060: 0000 803f 0000 803f 0000 803f 0000 803f
00000070: 0000 803f 0000 803f 0000 803f 0000 803f
00000080: 0000 803f 0000 803f 0000 803f 0000 803f
00000090: 0000 803f 0000 803f 0000 803f 0000 803f
000000a0: 0000 803f 0000 803f 0000 803f 0000 803f
000000b0: 0000 803f 0000 803f 0000 803f 0000 803f
000000c0: 0000 803f 0000 803f
1.0 1.0 1.0 1.0 1.0 1.0 1.0 1.0
1.0 1.0 1.0 1.0 1.0 1.0 1.0 1.0
1.0 1.0 1.0 1.0 1.0 1.0 1.0 1.0
1.0 1.0 1.0 1.0 1.0 1.0 1.0 1.0
1.0 1.0 1.0 1.0 1.0 1.0 1.0 1.0
1.0 1.0 1.0 1.0 1.0 1.0 1.0 1.0
1.0 1.0

hidden_lns.1.bias f4 [50]
00000000: 0000 0000 0000 0000 0000 0000 0000 0000
00000010: 0000 0000 0000 0000 0000 0000 0000 0000
00000020: 0000 0000 0000 0000 0000 0000 0000 0000
00000030: 0000 0000 0000 0000 0000 0000 0000 0000
00000040: 0000 0000 0000 0000 0000 0000 0000 0000
00000050: 0000 0000 0000 0000 0000 0000 0000 0000
00000060: 0000 0000 0000 0000 0000 0000 0000 0000
00000070: 0000 0000 0000 0000 0000 0000 0000 0000
00000080: 0000 0000 0000 0000 0000 0000 0000 0000
00000090: 0000 0000 0000 0000 0000 0000 0000 0000
000000a0: 0000 0000 0000 0000 0000 0000 0000 0000
000000b0: 0000 0000 0000 0000 0000 0000 0000 0000
000000c0: 0000 0000 0000 0000
0.0 0.0 0.0 0.0 0.0 0.0 0.0 0.0
0.0 0.0 0.0 0.0 0.0 0.0 0.0 0.0
0.0 0.0 0.0 0.0 0.0 0.0 0.0 0.0
0.0 0.0 0.0 0.0 0.0 0.0 0.0 0.0
0.0 0.0 0.0 0.0 0.0 0.0 0.0 0.0
0.0 0.0 0.0 0.0 0.0 0.0 0.0 0.0
0.0 0.0

output_layer.weight f4 [2, 50]
00000000: daca 963d 958b 44be a8b7 9dbe 9ee6 febd
00000010: 3444 0abe 8090 ebbd ddae 2dbe 8bdd fa3b
00000020: c1fe b53c 8ee3 f2be b147 28be 1e6b c0bb
00000030: 28b3 903c 7238 9d3e 8c8a 9ebd 206e 923d
00000040: 0f77 e03b 9710 9bbc f0dc abbc edbd cfbd
00000050: 3ac2 2e3f 316e 86bd c75f e93d eb17 ca3e
00000060: 1f8b 4f3e 4c4f 29bc 3977 903e ec56 703e
00000070: eb77 0d3d 04e4 b73b f42d 56bd 80ce 52b9
00000080: cede d3bb a52b 3ebd 7304 1b3e 3b2d 84be
00000090: 45e2 82bd 19f8 72be 402f 02be 719d b33d
000000a0: 80ba 9e3d 5f46 7cbe fd41 d73d c06b 2fbc
000000b0: 04f0 ab3d aee6 a33d 552b 19be c694 bfbd
000000c0: 5e51 eebd bd50 cb3d f973 fabd 3f86 203b
000000d0: 9da2 00be 51d5 67bd d011 863d 01a2 943a
000000e0: 0041 c7be 5808 e7be c4d6 8d3e dae3 483e
000000f0: eacf b9be b03b 09be b87a 573e 3bd8 11bd
00000100: c1da ad3d a64c b53e fbd5 d5bd e577 133e
00000110: 9543 f23d 9b96 bfbc 61e0 af3e 5908 02be
00000120: 4f05 b63c 6dea c3be 8694 b7bd 4a9e ef3d
00000130: c8d1 2ebe 4c4d 143c 9c56 19be 11b8 eabd
00000140: 4759 92be d5e0 83bd 5ec5 f0bd 9a5c 953d
00000150: dcb7 293d 7930 013f 28f9 71bd 9f2d 873e
00000160: 5c6a d0bc 400d 493e ac98 9bbd 7700 8bbd
00000170: 88b4 343d b25d 13be 05dc 90be 551c 5f3e
00000180: ac4b 1b3c a986 653e 7583 163e 6124 45be
0.073629096 -0.19193871 -0.3080418 -0.124463305 -0.1350258 -0.115021706 -0.16961236 0.0076558045
0.022216203 -0.47439235 -0.16433598 -0.0058721444 0.017663553 0.30707127 -0.077412695 0.07149911
0.0068501304 -0.01892881 -0.020979375 -0.10143647 0.68265116 -0.06563986 0.11395221 0.39471373
0.20267914 -0.010333847 0.2821596 0.23470658 0.03453819 0.0056118984 -0.052289918 -0.00020104088
-0.0064657694 -0.04642834 0.15138416 -0.25815758 -0.06390814 -0.23727454 -0.12713337 0.08770264
0.07750416 -0.2463622 0.10510633 -0.010706842 0.08395389 0.08002983 -0.14957936 -0.09354548
-0.11636613 0.09927509 -0.12229151 0.002449408 -0.12562032 -0.05659992 0.06546366 0.0011339785
-0.3891678 -0.45123553 0.27702916 0.19618168 -0.36291438 -0.13401675 0.21042907 -0.035606604
0.084889896 0.3541004 -0.10441204 0.14401205 0.118292965 -0.023387244 0.34350875 -0.12698497
0.022219328 -0.3826479 -0.089638755 0.11700113 -0.17072213 0.009051632 -0.14974445 -0.11460889
-0.28583738 -0.06439368 -0.11756395 0.07293053 0.041435108 0.5046459 -0.059075505 0.26401994
-0.025441341 0.1963396 -0.07597479 -0.06787198 0.04411748 -0.1439121 -0.28292862 0.21788152
0.009478491 0.2241465 0.14698584 -0.19252159

output_layer.bias f4 [2]
00000000: 507d 953c bac9 7cbd
0.01824823 -0.06171582

exp_avg f4 [50, 2]
00000000: 8b05 d83b a857 f1bc bc22 69bd b62c 673c
00000010: e7a6 db3c 06e7 8abc 6276 e8bc eb3f ad3c
00000020: 822d 17bd 3182 0c3d 6fc6 9c3c 1eba 9f3c
00000030: ce32 e23c 40db 2d3c aaff b83b d55c 22bb
00000040: 1f53 303a 396f b1bc c081 093d f4fb 163d
00000050: d1b5 0bbd d49d f13c 2208 9bbc db29 32bd
00000060: d76b af3c c561 a83c 5e3c 03bc 2340 e3b9
00000070: 38b7 943c 479e 13bb dc60 763b 4331 23bc
00000080: 6f1f 973b c894 293c 8e4f dabc 2523 17bb
00000090: 9f27 b1bc 23f5 d53a 28c4 793c a23b 113d
000000a0: 9bf0 42b9 498f 88bb 265f 093d 046a 54bc
000000b0: f394 8b3c 8275 a83c f6b8 1abd e2ed 9d3c
000000c0: 5b44 bebc 667a a1bd 4724 20ba 7b97 893c
000000d0: 1c29 833b 28c1 833c 9622 46bc 0eca 87bc
000000e0: 9c41 84bc 5183 ecbb 5485 033d a042 65bc
000000f0: 7bf7 2c3d 0c7f 01ba bf4c 56bb 6e7c 44ba
00000100: a392 e2bc 4359 273c 642f a33c b231 bbbc
00000110: 0c4c e0bc 7fec 6d3c a4a9 a73c 2abe d93a
00000120: 245b 6c3c eaa5 043c f5ad 063d 2145 54bc
00000130: 531e 0e3c 41ef 3b3c ce6d 2dbd 36bf 66bc
00000140: 669f 60bb 4289 a1ba 66d4 fc3b da29 0bbc
00000150: bebd 4f3c f3f5 e0bc 1265 0b3b ca49 ac3c
00000160: e458 943c 456a 9c3c 4ea6 423c b650 9fbc
00000170: c932 98bc e8df 733a 7f87 b9bc d9f7 c5bc
00000180: 68a5 83bc 3d51 1abc 9471 b33c 1abd 293c
0.0065924576 -0.029460743 -0.05691789 0.014109781 0.026812984 -0.016955864 -0.028376762 0.021148643
-0.036908634 0.034303848 0.01913759 0.019497927 0.027612116 0.010611355 0.005645712 -0.002477457
0.0006726253 -0.02165948 0.033571005 0.036861375 -0.03410894 0.029494204 -0.018924776 -0.043496948
0.021413727 0.020554433 -0.008009998 -0.000433446 0.018153772 -0.002252476 0.0037594354 -0.009960475
0.0046119015 0.010350414 -0.026649263 -0.002306172 -0.021625338 0.0016323667 0.015244521 0.03545726
-0.00018590914 -0.0041674715 0.033538006 -0.012964729 0.017038798 0.020563845 -0.03777405 0.01927847
-0.023225954 -0.07884674 -0.00061089214 0.016795864 0.0040027034 0.016083315 -0.012093207 -0.01657584
-0.016144566 -0.0072178026 0.032109573 -0.013992935 0.042228203 -0.0004939891 -0.0032699553 -0.0007495348
-0.027657812 0.010214153 0.019920059 -0.022850845 -0.027380012 0.014521717 0.020466633 0.001661246
0.0144260265 0.008096198 0.032880742 -0.012955935 0.008674222 0.011470617 -0.042341046 -0.014083674
-0.0034274696 -0.0012324231 0.0077157496 -0.008493865 0.012679515 -0.027461028 0.002126996 0.02103128
0.018108793 0.019093642 0.01188047 -0.019447666 -0.018578904 0.0009303079 -0.022647617 -0.024166035
-0.016070083 -0.009418783 0.021904744 0.010360027

exp_avg_sq f4 [50, 2]
00000000: 7311 f13e e055 ab3d 01b4 b33f 6f4f a13d
00000010: db2c 213e 62b4 653e b190 0a3e 068c 843e
00000020: cd83 583e a88a d43e 531b 2840 7d9c c03e
00000030: dc8b e73b 7279 303e b814 583d b3ff 093e
00000040: 98cf 0d3e e54b 523d 3916 863f 7466 263e
00000050: 5416 aa3e 3916 3e3e 35b6 3f3f 1450 c53f
00000060: f2c3 c73e 97b0 d73d 12a6 ef3f dba6 f73e
00000070: a4fb cb3d ae6b c03e 1431 9f3f b021 be3d
00000080: 6353 003e 83a6 8e3d 44de 063f 8b22 983d
00000090: 4ff2 be3e 07bd ac3e f080 893d c170 803d
000000a0: 02c2 113f 7a86 4a3f dae5 cd3d 4e96 b43d
000000b0: d2de b63f 436b c43d df63 db3d d228 c83d
000000c0: 15fb 933e d8bf bd3d 7570 c43e 3418 c43d
000000d0: d162 543e a183 f23d f99d ad3f c164 033f
000000e0: 6a20 243f 4ddf b03d e8a4 d83d 6e46 ee3d
000000f0: c5b7 3c3e 99ae 4a3e c48f 453e 372b 933d
00000100: f077 cb3d c316 a13e a9d2 463f 6ceb 0c3f
00000110: dc32 023f cf0d d83e 8022 463f bc40 473d
00000120: 7ddd 0340 6c40 073f a6a3 663e a60c f03d
00000130: 52e0 1f3e 16d4 513d 8982 243f d9f9 6d3e
00000140: 4bbc 273e afc4 6f3d f078 b03f 2993 263e
00000150: 5fb7 0040 40b2 1a40 91aa d03f 362c 6b3e
00000160: 510d a63e a829 ae3d 9cb6 8f3f 2151 143f
00000170: b2fa a03f 9417 ee3d 5ac7 b23d ca58 793e
00000180: d79b 543e 6d78 ad3d 5f88 313e 659d bf3d
0.47083625 0.08365989 1.4039308 0.07876479 0.15739767 0.22432092 0.13531758 0.2588808
0.21144028 0.41512036 2.6266677 0.3761939 0.007066233 0.17233828 0.052754134 0.13476448
0.13848722 0.05134191 1.0475532 0.1625002 0.3322016 0.18563165 0.748874 1.5415063
0.39016682 0.10531729 1.8722556 0.48369488 0.09960106 0.37582153 1.2436852 0.09283769
0.1253181 0.06965353 0.526829 0.074284635 0.37294242 0.33737966 0.06714046 0.06271506
0.5693666 0.79111445 0.10053606 0.08817731 1.4286749 0.09590771 0.10712408 0.09773411
0.28902498 0.09265107 0.38367048 0.09574929 0.2074082 0.118415125 1.3563834 0.51325613
0.6411196 0.08636341 0.10578328 0.11634527 0.18429478 0.19793166 0.19293123 0.07185977
0.09934986 0.31462678 0.7766519 0.55046725 0.50858855 0.42198035 0.7739639 0.04864572
2.0603936 0.52832675 0.22523364 0.117211625 0.15612915 0.05122765 0.6426168 0.2323984
0.16380422 0.05853718 1.3786907 0.16267075 2.011192 2.4171295 1.6302053 0.22966084
0.32432035 0.08504039 1.1227603 0.5793629 1.2576506 0.11625591 0.087294295 0.24350277
0.20762573 0.08470235 0.17337178 0.093561925

exp_avg f4 [50]
00000000: d5de 2d3e caa1 abbf 9d33 4dbe cff4 8a3e
00000010: 358b 6ebc f67a 16be 5a70 963d f7c0 1c3e
00000020: c742 5fba 341f ca3e 4706 f93e 435d 96bd
00000030: ee28 57be 9e99 68bd e5dd 36bc 1128 5bbd
00000040: 0649 3a3e 6731 123d c621 acbe f2ae 173e
00000050: 867c f8bc 3a93 473d 796b 063e ab17 13be
00000060: c625 1d3f dc6e 943b f895 813e 6e09 6dbe
00000070: b509 0f3e 71fc 89bd b1ac b13e 85ca 073e
00000080: 085f 19bd 81dd 183f e545 233b 29a6 1cbe
00000090: 53b4 aabe 21e0 8b3e 7fbb d63e 6504 07bf
000000a0: a531 50be cd53 3e3d da46 85bd baba a6be
000000b0: 7da5 dd3d bca2 3bbe 71cc c33d 4751 59be
000000c0: b529 48be f77f d43c
0.16979535 -1.3408749 -0.2003922 0.271399 -0.014559557 -0.14695343 0.07345648 0.15307985
-0.00085167255 0.3947693 0.48637602 -0.07342007 -0.21011707 -0.056787126 -0.011161302 -0.053505007
0.18191919 0.035691645 -0.33619517 0.1481283 -0.030332815 0.04872439 0.13126935 -0.14364497
0.6138576 0.004529817 0.2530973 -0.23148128 0.13968547 -0.067376025 0.34702066 0.13260849
-0.037444144 0.5971299 0.0024913487 -0.1529776 -0.333407 0.27319434 0.41939923 -0.5274108
-0.20331438 0.046466637 -0.065076545 -0.32564336 0.1082258 -0.18323797 0.095604785 -0.21222411
-0.1954716 0.025939925

exp_avg_sq f4 [50]
00000000: 4620 8a3f 413e ca40 3b51 5d3f e919 f03f
00000010: 7723 1c40 50df cd40 4519 903f 0de9 9140
00000020: 5736 4e3f a297 0f40 4af8 a240 aaa5 7c40
00000030: 21cb 2040 3130 8241 6f89 6b3f b0cf 4640
00000040: 98f8 cf3f 2ff7 8940 969d f03f 5203 4d3f
00000050: a668 803f d64b f53f 0f13 4140 7618 833f
00000060: 0836 1240 c6f9 983f 926c 6b3f dc89 843f
00000070: 71fa 0240 9e17 6e3e cbb8 8b3f b13c 2540
00000080: f461 5d40 99dd 9240 c2e6 683f 2993 653f
00000090: 7d9a 5740 63bf 8c40 2553 fa3f 7fa6 3440
000000a0: a905 fe3e 9e4a b040 3e18 4a41 ed85 4b40
000000b0: 6305 0640 8782 3b40 f307 db3f 1fa3 633f
000000c0: ff1c 773f a29c 1b40
1.0791099 6.3200994 0.8645207 1.8757907 2.4396646 6.43351 1.1257712 4.5596986
0.80551666 2.24363 5.0928087 3.9476113 2.512398 16.273531 0.9200658 3.1064262
1.624774 4.311424 1.8798091 0.8008319 1.0031936 1.9163768 3.0167882 1.024184
2.2845478 1.1951225 0.9196254 1.0354571 2.0465357 0.23251197 1.0915769 2.5818293
3.4591036 4.5895505 0.9097711 0.89677674 3.3688042 4.3983626 1.9556624 2.822662
0.49613693 5.5091085 12.6309185 3.1800492 2.0940788 2.9298418 1.7111801 0.8892078
0.9652862 2.431435

exp_avg f4 [50]
00000000: 2118 b13c 3b20 85be 7dda cfbb 46e3 a23c
00000010: b88a bf3c 9f85 a1bc 7e72 293c f8ec fcbb
00000020: 57e2 083d 2f0c 41ba 4421 9cbc a2de 923c
00000030: 52bf cbbb a6bb faba 567b d13b d27e 41bc
00000040: 1343 7fbb 62b2 d9bc 1c04 8ebc 05b4 053d
00000050: ffd2 23bb 1e69 a43c 8a27 bc3b 6536 5e3b
00000060: 6794 e03c 292e c73c b7e6 dabb 46da 9cba
00000070: 0582 e93b b6f1 a1bc 2520 6fbc 8745 b2ba
00000080: 4ede 223d 3c9d 43bd 9b3b 33bd 67b5 6cbc
00000090: 3ee1 80ba 6d13 cebc 5256 cebc e27f 92bd
000000a0: cf11 c0bc 9d2a ef3a deb8 e93c 5c2a c8bc
000000b0: 7e80 983c ff65 0e3b f0ec dfbc 6bbd a73c
000000c0: 7228 51bc 08cb 1c3c
0.02161795 -0.26001152 -0.0063431845 0.019883763 0.023381576 -0.019717036 0.0103422385 -0.0077186786
0.03341898 -0.0007364181 -0.019058831 0.017928425 -0.0062178755 -0.001912941 0.0063928766 -0.0118100215
-0.0038949891 -0.026574317 -0.017335944 0.032642383 -0.002499759 0.020069655 0.005742018 0.0033906933
0.027414514 0.024314003 -0.0066803354 -0.0011966906 0.0071260952 -0.019768577 -0.014595066 -0.0013601043
0.039762788 -0.047757372 -0.043758016 -0.014447547 -0.0009832752 -0.025155747 -0.025187645 -0.07153298
-0.023445992 0.0018246953 0.028530534 -0.024434261 0.018615957 0.0021728275 -0.02733466 0.020476064
-0.012765991 0.009569891

exp_avg_sq f4 [50]
00000000: 4595 a43e d72f 063e c0db 963e 3694 833f
00000010: 7b91 813e db61 dd3f 69c6 dc3c 3637 373d
00000020: cee4 983c 0ee6 403f e807 053f 5dc5 b43d
00000030: c608 b13d d71d e93d 4042 1d3e d7b6 863f
00000040: 9e13 c43d 1386 743e f298 963c 1c15 103e
00000050: 8283 cf3d ce17 c33d 8392 123f 9418 5c3d
00000060: b779 a73d 0092 d43d 0685 9c3d 58da 9c3e
00000070: 9466 d93e 8986 043d ae14 343e 9fea 1d3d
00000080: 1e30 9e3e 72ce 7f3d 4a5e ba3e 8630 653d
00000090: ce56 043f 1ea2 c73d 801a b73c d51b 963e
000000a0: 083c b53c d6dd 113e f3a0 7b3e f8b1 fa3e
000000b0: fb48 233d 6ea4 d33d e9c2 d13e 8a28 4a3e
000000c0: 1c8a bf3c cbe9 993e
0.32145134 0.13104187 0.2946453 1.0279605 0.25306305 1.7295488 0.026950078 0.044730388
0.01866379 0.75351036 0.5196519 0.088267066 0.086442515 0.113826446 0.15357304 1.0524548
0.09574054 0.2387927 0.018383477 0.14070553 0.10132505 0.09526025 0.5725481 0.053734377
0.08177512 0.1037941 0.0764256 0.30635333 0.42461073 0.032354865 0.17586014 0.03855383
0.30896086 0.06245274 0.36400062 0.05595448 0.51694953 0.09747718 0.022351503 0.2931811
0.022123352 0.1424478 0.24573116 0.48963904 0.03986452 0.10334097 0.40969017 0.19742027
0.023381285 0.30061182

exp_avg f4 [50]
00000000: c30c 5bbd 3702 a33c 935d 40bd 4d8e 8f3d
00000010: 5a16 463c 6e7f edba 8d77 bb3b 1170 343d
00000020: e6b0 6fbc c31a df3c fafe 873d dfe4 a4bd
00000030: a9a3 a63c 81ed 0d3d 4722 cbbc 012b 01bd
00000040: 6fb7 15bd 5940 90bc 6005 89bd 7f36 5fbd
00000050: f295 8c3b 5201 c4ba a082 223d 7a14 bb3d
00000060: d6cc 0b3d 6b4a 3cbd 0b95 5bbc 0e5e 12bc
00000070: 4a8b c6bc a0c2 ad3d e684 b4bc e88b 323d
00000080: 8029 3d3c 4155 293d ac84 843d eb80 15bc
00000090: 0a8a dbbd 084a e5bb c9e5 0fb9 28e2 ef3c
000000a0: c551 353c 0a69 463d 50cc 78bc 5e68 7cbd
000000b0: 0a0f 033c 6d34 743d be8f 94bc 2fd9 dabd
000000c0: 0088 3f3d a2e2 863b
-0.053478967 0.019898517 -0.04696424 0.070095636 0.01209029 -0.0018119642 0.0057210387 0.044052187
-0.014629578 0.02723444 0.0664043 -0.08051466 0.020341711 0.03465033 -0.024796618 -0.031535152
-0.03655189 -0.017608808 -0.06690478 -0.05449533 0.004290336 -0.0014954007 0.039675355 0.09134765
0.034130894 -0.045969408 -0.013402234 -0.008933557 -0.02423634 0.084843874 -0.022036027 0.043590456
0.011545539 0.04134107 0.06470618 -0.009124975 -0.10719688 -0.0069973506 -0.00013723144 0.029282644
0.011066859 0.048440017 -0.015185431 -0.06162297 0.007999191 0.05962031 -0.018134948 -0.10685956
0.04676056 0.004116372

exp_avg_sq f4 [50]
00000000: c89b fc3e e942 253f 5d9d a43e 97b2 333f
00000010: 6c30 1c3f bec2 f540 808a 3a3e f36a a43e
00000020: 0e96 7e3e 9407 293f 4259 1c3f 3f5e e040
00000030: bbe9 2740 8cf5 943f 280c a53e 571d 523f
00000040: a956 363f 77e4 7740 6a7c fa3e 647d 6f3e
00000050: 8fa8 f43e 0e7d 023f 49c1 da3f 013b 733e
00000060: c165 8e3f e444 0f3f d718 a63d 900e be3e
00000070: c1df b940 1401 f83d e189 f83f 6d64 b43f
00000080: 5c35 3e3f a72b c640 a79a 5640 f3e3 ec3f
00000090: 1c7b 8c3f f329 623f 0eb3 f73e 4d10 b03f
000000a0: 3cdc 423e 2d94 8840 de2c 3440 827c 7c3f
000000b0: 2f09 fc3e 50c9 db3f 7711 053f 9352 7e3f
000000c0: 882a 583f 046d 2640
0.49337602 0.6455522 0.3215131 0.7019438 0.61011386 7.6800222 0.18216896 0.32112846
0.24861929 0.6602719 0.61073697 7.0115047 2.6236408 1.1637435 0.32235837 0.8207602
0.7122598 3.8733194 0.48923045 0.23387676 0.4778485 0.5097207 1.7090236 0.23752977
1.1124803 0.55964494 0.081102066 0.37120485 5.8085637 0.12109581 1.9417077 1.4093148
0.7430017 6.1928287 3.3531892 1.8507065 1.097507 0.8834526 0.48378795 1.3754975
0.19029325 4.268088 2.8152385 0.98627484 0.49225757 1.7170811 0.51979774 0.9934475
0.844399 2.6004038

exp_avg f4 [50, 50]
00000000: 2d43 3d3c cdd4 2dbd 8811 9cbc 2380 dc3c
00000010: 7ac4 b33b d5e1 613c 366e db3b b4b2 013c
00000020: 5928 273c aa02 413c e4bf 5f3c 09a0 80bc
00000030: 69e5 a4bc c13e 743c 4c35 0e3c 2b7a 2ebc
00000040: 2490 a83b 05ce 0d3c fa6e e9bc c4c7 96bb
00000050: 9671 f9b9 aeb3 f33b 4ce8 cbbc f0fe e3bc
00000060: 52cc c43c 0c86 e8bb c7cf 373c e882 29bc
00000070: f836 993b 4bc3 84bc d6d2 433c 76d6 173c
00000080: 0d9f 2bbb ecc6 f03b 9123 853b 7576 04bc
00000090: 9d1d c2bb 7c0a bc3b 71ec 063c 5900 e7bc
000000a0: 301c 47bc c75d 053c 7cb1 073c 0b64 84bc
000000b0: a5c3 60bc a818 973b a2d5 043d 5927 8bbc
000000c0: 95ad eebb beb0 48b9 c382 dbb6 2780 633d
000000d0: 5f64 873b 3919 27bc 8a8f 2a3c 8f5f 62bb
000000e0: 062f 47bc fa9d e6bb 9b38 59ba f700 a3bc
000000f0: 52de b0b8 408c c33c e3b8 723c 4e50 2638
00000100: 4595 9abc 2f84 df3a 3007 98bb 3903 babb
00000110: 6443 033d df99 64bc 0a7e a33c bf05 67bc
00000120: 01c8 da3b 2c37 023d 745e 9bbc e26e 0fbc
00000130: 2eec 93bc 34db 9c3c bdf1 503c c2c2 193c
00000140: ade3 a9bc 5804 e9bb d8af 5b3c faf6 3dbc
00000150: ca37 e8bc 5ee0 e23a 5f93 08bc 1fc0 11bb
00000160: 972d 9abc ed58 193d 2f49 b93c 726a cabb
00000170: 1934 393b 0232 913c 7ecd 8abb fe2d d83b
00000180: b71f a2bc 3dd5 213d fb92 183c 7dcd 3fbc
00000190: 865a 1e3c 218a 2b3c 6f99 253c 7806 24bc
000001a0: 66e8 8cba 8afb 803c da32 863c 6097 5d3c
000001b0: ec89 273c 28be 50bb 483f fdbb d31b 92bc
000001c0: b991 f8bb 67d4 603c 83c3 893c f912 5cbc
000001d0: 04df 37bc 2e9a 163c a42d b4bb 7fa3 80bc
000001e0: e2bc a93b 7ecd fc3b eb70 68bc 016a 83bb
000001f0: 282e 953b d589 5cbc 2c9f 66bc 79c2 5e3c
00000200: 7c78 62bc 1eb5 75bb 9e8e 8fbc c285 1f3c
00000210: bd9a 5dbc b51d 2cbc 71e5 4f3c 9fdf 30bc
00000220: a3ba bcbb 2203 09bc 70e6 85bc dbd6 1ebb
00000230: 277c a43c ab30 013c cc72 1c3c 0457 0ebc
00000240: 0d17 4dbc 12ca 713c fcf7 533c cd72 42bc
00000250: 1f45 e33b 6bdc 853c 6212 02bb 34b3 833c
00000260: 250d df3b 80b6 f7bb 8e9d 16bb b84e 7f3a
00000270: 6f3d 2d3b 5463 173a e99b 6dbb 45aa c3bb
00000280: 60e5 b2bb a8d5 603a 9b08 ae3b 6c59 faba
00000290: ebcc 583a 9a71 a338 d88a 44bb 81b6 4bbb
000002a0: e9f9 c63b 8f42 d839 40ae 21ba 3aac 7aba
000002b0: 8e7e 2f3b ae0f 0d3c 81ed 83bb d5b9 343b
000002c0: 05c3 88bb a089 733b a3d9 9bbb ec57 443b
000002d0: c44e 90bb 7c7a 77b9 352e 34bb 8eb4 a7bb
000002e0: 7576 403a e1cd 823b fbfb f43a 6015 6dbb
000002f0: 01b1 47bb dff6 403c df77 393b fc29 4cb9
00000300: 08e7 08bb 15af 7f3b a0d5 a13b 326a 933a
00000310: 707a a4bb 50ac e13b f954 9b3b b7db 043b
00000320: cdd2 3ebc ede3 ae3c 3bec 3d3c 11b2 a8bc
00000330: 0611 293c 5122 9ebc ae03 17bd c1f4 c1bc
00000340: c0ce 573b d8e1 d4bc 7eb5 bdbb 8f33 153d
00000350: cb78 1e3c 10a0 acbc 2c63 05bd 1c86 373c
00000360: 8085 f9bb c768 2ebb 559f 2d3d 62c4 6d3a
00000370: 2eaf cf3c 2055 94bc 06f1 f63c c9a3 cd3c
00000380: f209 99bc 5d4d 02ba 507a cdbc 59b4 c73c
00000390: 211b 913b 2dad 5d3c 0029 c1bc 6ee2 61bc
000003a0: 7af3 9b3c 4395 2cbc 28d6 98bc 9ab4 19bc
000003b0: dd01 b0bb 886d 1ebb 4e3a a8bc b507 923c
000003c0: 1267 e33c 2d18 44bc f92e 2c3a f743 973c
000003d0: 4a5d 073c 853e 9339 7ba1 0ebd 60b7 f93c
000003e0: a69a 0e3c 8aa3 02bd 9a62 1f3d da3d 04be
000003f0: 46df bdbd 8e0f de3d 2859 893d 9c0c 52bd
0.0115516605 -0.04243927 -0.019051328 0.02691657 0.0054860683 0.013786753 0.006696488 0.007916141
0.010202491 0.01178042 0.01365659 -0.01570131 -0.020128923 0.01490754 0.008679699 -0.010649244
0.005144136 0.008655076 -0.0284953 -0.0046014506 -0.0004757761 0.007437191 -0.024891041 -0.027831525
0.024023209 -0.0070960578 0.011218972 -0.010346152 0.0046757422 -0.016206404 0.011952123 0.00926744
-0.002618733 0.007347932 0.0040630777 -0.008084883 -0.0059239403 0.0057385545 0.008235083 -0.028198408
-0.0121527165 0.008140034 0.008282062 -0.016160985 -0.01371852 0.0046110936 0.0324303 -0.016986536
-0.007283876 -0.00019139328 -6.5419313e-06 0.055542137 0.004131838 -0.010198885 0.010410199 -0.003454182
-0.012157207 -0.0070378752 -0.0008286328 -0.019897921 -8.4337444e-05 0.023870587 0.014814588 3.9652274e-05
-0.018870005 0.0017052944 -0.0046395287 -0.0056766537 0.03204669 -0.013952701 0.019957561 -0.014100491
0.0066766744 0.031790897 -0.018965937 -0.008754464 -0.018056955 0.019147493 0.012752947 0.009384813
-0.020738447 -0.0071111135 0.013408624 -0.011594528 -0.028346915 0.0017309298 -0.008335917 -0.0022239757
-0.018820567 0.03743832 0.022617904 -0.00617724 0.0028259812 0.01772404 -0.0042359224 0.0065972796
-0.019790513 0.03951 0.009312387 -0.011706707 0.009665137 0.010469944 0.010107382 -0.010011308
-0.0010750412 0.015744943 0.01638167 0.01352486 0.010225754 -0.0031851623 -0.007728491 -0.017835533
-0.007585731 0.013722516 0.01681686 -0.013432258 -0.011222605 0.009192033 -0.005498605 -0.015702961
0.0051799873 0.0077149263 -0.014187078 -0.0040104394 0.0045526214 -0.013460596 -0.0140760355 0.013596171
-0.013822671 -0.0037491987 -0.01752406 0.00973648 -0.013525662 -0.01050513 0.01268898 -0.010795503
-0.0057595535 -0.008362563 -0.016345233 -0.002423695 0.020078732 0.0078851385 0.009548854 -0.008687738
-0.012517703 0.01475765 0.012937542 -0.011868191 0.00693573 0.016340455 -0.0019847383 0.016076662
0.006806987 -0.0075595975 -0.0022982094 0.0009739208 0.0026434322 0.0005774994 -0.003625626 -0.0059712254
-0.0054594725 0.0008576759 0.0053110844 -0.0019100136 0.0008270281 7.7936056e-05 -0.0029989984 -0.0031084123
0.006072272 0.0004124832 -0.0006167628 -0.0009562407 0.0026778313 0.008609695 -0.0040261154 0.0027576585
-0.0041736388 0.0037160888 -0.004756169 0.0029959632 -0.004403921 -0.00023601385 -0.0027493362 -0.0051179593
0.000734187 0.003991828 0.0018690819 -0.003617607 -0.0030470493 0.011777609 0.0028300209 -0.00019470596
-0.0020889658 0.003901427 0.004938796 0.0011246859 -0.0050194785 0.0068869963 0.004740354 0.0020272562
-0.0116469385 0.021348918 0.011591966 -0.020592721 0.010319 -0.019303473 -0.036868744 -0.023676278
0.003292963 -0.025986597 -0.005789458 0.036426123 0.009672354 -0.021072417 -0.03256528 0.011201408
-0.0076147914 -0.0026612745 0.04238828 0.0009070096 0.025352087 -0.018106997 0.030144226 0.025102513
-0.0186815 -0.00049706345 -0.025082737 0.024377989 0.004428283 0.013530058 -0.02357912 -0.013786895
0.019036997 -0.010533634 -0.018656805 -0.009381438 -0.005371316 -0.0024174172 -0.020535614 0.01782594
0.027759109 -0.011968655 0.0006568279 0.018465025 0.008261988 0.00028084606 -0.03482197 0.030482948
0.008703863 -0.031894244 0.038912393 -0.1291422 -0.09271102 0.108428106 0.06706458 -0.051281556
