weights/checkpoint/example0001_warm_adam.pth (torch, 74678 bytes, 27 tensors)

a f4 [5]
0.20227294 0.20202982 0.20225158 0.2 0.20220253
00000000: a320 4f3e e8e0 4e3e 0a1b 4f3e cdcc 4c3e
00000010: 2e0e 4f3e

input_layer.weight f4 [50, 2]
-0.6633048 -0.13309832 -0.3477353 -0.19483295 -0.6335156 0.29052794 -0.6414347 -0.03768398
0.24442221 -0.23921429 0.39272273 0.097805254 0.37960497 0.46265054 -0.320927 0.26566026
-0.31416887 0.22887473 -0.36045444 0.3182308 0.13443412 -0.26787192 -0.35455486 0.18873088
0.6654819 0.3307427 -0.059592407 -0.0325463 0.4006624 -0.48727936 0.226094 -0.22576754
0.40129778 -0.24938583 0.028093569 0.23212661 0.49417987 -0.11115939 0.6510943 -0.59222907
-0.11740748 -0.7134536 0.054999735 0.20563589 -0.2856196 0.30143666 -0.12332259 -0.6196754
0.54008204 0.4279753 0.36623237 0.5551345 0.2657173 0.36712316 0.577835 -0.14998041
-0.5494309 -0.34993923 -0.10294856 -0.06991346 -0.013543402 0.4129493 0.21882313 -0.51469207
-0.20826542 -0.17371204 0.42139843 -0.2525138 -0.28789043 -0.12009131 -0.17608579 -0.18212895
-0.70064783 0.62926084 0.3735141 -0.34028506 -0.4489586 0.032771237 0.41164485 -0.5158706
-0.27556425 0.3032996 -0.46180624 -0.076086275 -0.52549815 0.6483093 0.37624153 -0.6459202
-0.39811465 0.24646762 0.040911086 0.17927313 -0.5873073 -0.3698828 0.31185612 -0.5304129
-0.15712631 0.31245798 0.3587591 0.049203612
00000000: 58ce 29bf ed4a 08be 5c0a b2be 4a82 47be
00000010: 142e 22bf 14c0 943e 1135 24bf 845a 1abd
00000020: d149 7a3e 97f4 74be f412 c93e 1f4e c83d
00000030: 955b c23e 88e0 ec3e 8b50 a4be 9f04 883e
00000040: beda a0be 235e 6a3e 7c8d b8be 26ef a23e
00000050: 19a9 093e 8226 89be 3788 b5be ab42 413e
00000060: 065d 2a3f 1b57 a93e 2b17 74bd 454f 05bd
00000070: 9f23 cd3e ae7c f9be 2f85 673e 9b2f 67be
00000080: e776 cd3e 005f 7fbe 7c24 e63c 99b2 6d3e
00000090: 2505 fd3e 89a7 e3bd 1eae 263f 539c 17bf
000000a0: 5573 f0bd e5a4 36bf 6747 613d 3792 523e
000000b0: bb3c 92be e855 9a3e 8e90 fcbd 0ca3 1ebf
000000c0: d142 0a3f 941f db3e cf82 bb3e 4b1d 0e3f
000000d0: 190c 883e 91f7 bb3e ffec 133f 7794 19be
000000e0: 81a7 0cbf 3c2b b3be b2d6 d2bd ca2e 8fbd
000000f0: 25e5 5dbc 176e d33e 2c13 603e dcc2 03bf
00000100: 8843 55be 92e1 31be 89c1 d73e 7d49 81be
00000110: 6066 93be 6ff2 f5bd d54f 34be 0380 3abe
00000120: a85d 33bf 3d17 213f 3d3d bf3e d839 aebe
00000130: e7dd e5be 223b 063d 1dc3 d23e 1810 04bf
00000140: c216 8dbe 164a 9b3e de71 ecbe 1fd3 9bbd
00000150: 0c87 06bf 99f7 253f bba2 c03e 075b 25bf
00000160: afd5 cbbe 0262 7c3e 6292 273d 6093 373e
00000170: c559 16bf 4761 bdbe 9bab 9f3e 24c9 07bf
00000180: b8e5 20be 7efa 9f3e 46af b73e ba89 493d

input_layer.bias f4 [50]
0.21019256 0.30550408 -0.08080485 -0.18533385 0.54829025 0.68867064 0.33615837 -0.30019504
-0.6066278 -0.7070197 0.013960576 -0.26863325 -0.18701166 -0.096043184 0.67710036 0.6793186
-0.07449752 -0.2213671 0.33723217 -0.047838304 -0.6652765 0.2395474 0.68556875 -0.55160075
-0.16176476 0.14700109 -0.5848902 -0.61440766 0.52548087 -0.24567418 0.40421283 0.07223311
0.16360438 -0.47967806 -0.16008279 0.4576506 0.31525853 -0.21352983 0.09605935 0.5324154
-0.6105463 0.45434955 -0.2215701 -0.13547173 0.32883337 -0.59649897 -0.09800767 0.68469095
0.24571027 -0.2569048
00000000: b83c 573e 086b 9c3e 037d a5bd 28c8 3dbe
00000010: c05c 0c3f b84c 303f f31c ac3e 2ab3 99be
00000020: f64b 1bbf 3eff 34bf e6ba 643c 4c8a 89be
00000030: fc7f 3fbe 4ab2 c4bd 7356 2d3f d3e7 2d3f
00000040: 2892 98bd 0fae 62be b2a9 ac3e 19f2 43bd
00000050: 904f 2abf ea4b 753e 6f81 2f3f b535 0dbf
00000060: a9a5 25be 7487 163e 5dbb 15bf d249 1dbf
00000070: ea85 063f 0392 7bbe fcf4 ce3e f4ee 933d
00000080: e887 273e 5d98 f5be beec 23be 2e51 ea3e
00000090: 9169 a13e 90a7 5abe c4ba c43d 604c 083f
000000a0: c34c 1cbf 81a0 e83e 46e3 62be 1ab9 0abe
000000b0: d95c a83e 28b4 18bf 3fb8 c8bd e847 2f3f
000000c0: 799b 7b3e 0789 83be

hidden_layers.0.weight f4 [50, 50]
-0.02303696 0.12049813 0.04464481 0.0870174 -0.082048155 0.04973518 0.033956334 0.015617168
0.12230521 0.069267906 0.103638396 0.053071782 0.056215726 -0.03351387 -0.1157824 -0.110452406
-0.08585357 -0.10058862 0.07556802 0.048917823 -0.049127474 -0.09891803 0.1481427 0.09749429
0.06410096 0.14783686 -0.08430873 -0.0894628 -0.073800206 -0.015777413 -0.116051786 0.11970503
0.012562234 0.061557587 -0.08648201 -0.00556426 0.026430855 -0.046991132 0.13430126 -0.055573646
0.03489107 -0.086989984 -0.025607556 -0.04174906 0.069807306 0.08978198 0.026306095 -0.0038054
-0.027542276 0.10195459 -0.030638441 0.10260796 -0.054224007 0.12513652 0.13958293 0.09617669
0.08071019 0.05586669 -0.06834661 0.0029799778 0.04402236 -0.033266503 0.021841824 0.08363865
-0.13282031 -0.12967114 -0.08835537 0.018549187 -0.029391462 0.026048578 -0.03387596 -0.092444636
0.01912889 0.095495544 -0.08875389 0.12421641 0.03512785 0.13868977 -0.12924284 -0.13491508
0.048423752 -0.13790353 -0.11542728 0.07100242 0.071170844 -0.12902158 0.104104355 -0.029497048
0.10873778 -0.08555149 -0.13324513 -0.093101665 -0.012972904 -0.1440235 -0.008341943 -0.07010335
-0.02470129 -0.0016721868 0.009016409 -0.13944489 0.08181859 -0.077586524 0.09505625 0.12060656
-0.038067505 0.024957586 0.08699698 -0.02029955 -0.12742557 0.05443235 0.05854648 -0.08657547
-0.10417745 -0.03375961 0.036824044 -0.062426224 -0.012464934 -0.070196986 -0.04600845 -0.02836569
-0.06296825 0.11769536 0.046247374 0.11749994 0.11897833 0.031971954 -0.06792936 0.07690512
0.0041697794 0.09560916 -0.021129493 0.11744034 0.027751746 -0.040509164 -0.101281345 0.1137587
0.027463336 0.03984923 0.066255026 0.0017908362 -0.080193646 -0.033113226 -0.01330218 0.07880947
-0.0012500773 -0.04494746 -0.027767971 0.032313786 0.12194326 0.09762711 -0.017324977 0.009664598
0.13514516 0.07113107 -0.024008002 0.074767895 0.055435076 -0.02888896 0.06629361 0.0202944
-0.0445435 -0.0020001912 0.14195317 0.05153896 -0.12584819 0.08104152 0.03936867 0.07864694
-0.008483913 0.065072015 0.051307052 0.115139 0.065568365 -0.052860685 0.08252635 -0.017159158
0.1025935 -0.040549308 -0.050590396 0.13984065 0.01588352 0.022984209 0.0054401015 0.01828219
0.014951645 -0.13197647 0.12749745 0.14403473 -0.10641795 0.02587919 0.12598543 0.01830239
0.06930149 0.11421621 0.050972078 -0.016479671 -0.108954124 -0.07578367 -0.09322527 0.011943875
-0.109160006 0.0857657 0.018937087 -0.06921161 -0.077384874 0.04952048 -0.03188705 0.019850578
0.008861114 0.01302509 -0.010493757 -0.035008285 -0.024382802 0.051162124 -0.08562262 0.0070508937
-0.048352025 -0.13927145 0.046658147 0.05268506 0.12680265 0.09253968 0.13660051 -0.110044815
-0.11494771 0.044590477 0.067633845 0.06687737 -0.096197516 0.10841775 -0.124798216 0.04672781
-0.0582782 -0.04584702 0.10608869 0.12328552 0.045934975 0.07227301 -0.003549755 -0.08004049
0.032333378 0.11723697 0.050403286 -0.11785466 -0.03594799 0.04286141 -0.03276167 -0.03866325
-0.12891532 0.022906374 0.046786383 -0.11962377 0.03595256 0.03365801 0.061723143 0.101088814
00000000: 02b8 bcbc b9c7 f63d 7add 363d 2e36 b23d
00000010: dd08 a8bd 1eb7 4b3d cc15 0b3d 26df 7f3c
00000020: 277b fa3d 55dc 8d3d 5e40 d43d cc61 593d
00000030: 7642 663d d745 09bd 531f edbd df34 e2bd
00000040: ffd3 afbd 6801 cebd 68c3 9a3d 0e5e 483d
00000050: e439 49bd 8995 cabd b8b2 173e 16ab c73d
00000060: 5d47 833d 8c62 173e 0eaa acbd 4638 b7bd
00000070: 9024 97bd a23f 81bc 8fac edbd e927 f53d
00000080: d4d1 4d3c cf23 7c3d 7b1d b1bd 6554 b6bb
00000090: 8585 d83c c679 40bd 4586 093e 31a1 63bd
000000a0: f0e9 0e3d ce27 b2bd f0c6 d1bc 1001 2bbd
000000b0: 22f7 8e3d 9ddf b73d e17f d73c 0564 79bb
000000c0: 57a0 e1bc 91cd d03d 78fd fabc 1f24 d23d
000000d0: fe19 5ebd ca23 003e d4ee 0e3e 49f8 c43d
000000e0: 624b a53d 78d4 643d 4ff9 8bbd bb4b 433b
000000f0: ca50 343d 7542 08bd a0ed b23c be4a ab3d
00000100: 0c02 08be 83c8 04be a9f3 b4bd 77f4 973c
00000110: 5dc6 f0bc d463 d53c 85c1 0abd 9d53 bdbd
00000120: 31b4 9c3c 2b93 c33d 99c4 b5bd 2c65 fe3d
00000130: 38e2 0f3d b104 0e3e 3c58 04be 2e27 0abe
00000140: fc57 463d 9536 0dbe 2365 ecbd b769 913d
00000150: 05c2 913d 3c1e 04be aa34 d53d cba3 f1bc
00000160: eab1 de3d 9f35 afbd 6971 08be 16ac bebd
00000170: 4e8c 54bc e57a 13be a5ac 08bc 5892 8fbd
00000180: 5c5a cabc 472d dbba 8fb9 133c a4ca 0ebe
00000190: 8190 a73d afe5 9ebd daac c23d 9200 f73d
000001a0: acec 1bbd da73 cc3c 792b b23d 3e4b a6bc
000001b0: d97b 02be 75f4 5e3d 6fce 6f3d 7b4e b1bd
000001c0: fd5a d5bd 8447 0abd cfd4 163d a4b2 7fbd
000001d0: b939 4cbc 70c3 8fbd 5b73 3cbd 2a5f e8bc
000001e0: 7ff5 80bd 440a f13d e36d 3d3d cfa3 f03d
000001f0: e9aa f33d 06f5 023d 8c1e 8bbd 6e80 9d3d
00000200: a5a2 883b bcce c33d c217 adbc 9084 f03d
00000210: a157 e33c f0ec 25bd 986c cfbd 52fa e83d
00000220: cafa e03c f238 233d b7b0 873d 7eba ea3a
00000230: 913c a4bd bca1 07bd 63f1 59bc dc66 a13d
00000240: a2d9 a3ba d41a 38bd a879 e3bc 765b 043d
00000250: 63bd f93d b9f0 c73d 1ced 8dbc 4358 1e3c
00000260: 7e63 0a3e 2bad 913d 6eac c4bc e91f 993d
00000270: e40f 633d 8aa8 ecbc f2c4 873d 7140 a63c
00000280: 3f73 36bd a415 03bb 2c5c 113e 841a 533d
00000290: 59de 00be 19f9 a53d 0b41 213d a611 a13d
000002a0: 1c00 0bbc 7a44 853d 5827 523d ffcd eb3d
000002b0: b548 863d 7284 58bd 9303 a93d 5d91 8cbc
000002c0: 8a1c d23d 0817 26bd e037 4fbd 6332 0f3e
000002d0: 281e 823c 6149 bc3c e142 b23b 88c4 953c
000002e0: bff7 743c d724 07be b18e 023e d77d 133e
000002f0: a7f1 d9bd 9800 d43c 5302 013e e5ee 953c
00000300: f1ed 8d3d 30ea e93d 19c8 503d 6000 87bc
00000310: 5723 dfbd 7834 9bbd e4ec bebd 3eb0 433c
00000320: 488f dfbd eda5 af3d f321 9b3c d1be 8dbd
00000330: f67b 9ebd fdd5 4a3d ff9b 02bd ae9d a23c
00000340: 352e 113c 3067 553c 02ee 2bbc d964 0fbd
00000350: 71be c7bc 608f 513d ea5a afbd 2f0b e73b
00000360: c60c 46bd 2d9d 0ebe 9d1c 3f3d 4acc 573d
00000370: 8ed8 013e 7285 bd3d 01e1 0b3e 2d5f e1bd
00000380: b469 ebbd 81a4 363d 9d83 8a3d 01f7 883d
00000390: 3403 c5bd 200a de3d 3596 ffbd a965 3f3d
000003a0: 1fb5 6ebd 16ca 3bbd 0745 d93d 1e7d fc3d
000003b0: 5026 3c3d df03 943d 02a3 68bb 45ec a3bd
000003c0: 0170 043d f019 f03d ad73 4e3d c95d f1bd
000003d0: 333e 13bd 728f 2f3d 1a31 06bd 5b5d 1ebd
000003e0: 6102 04be 26a6 bb3c 14a3 3f3d 4ffd f4bd
000003f0: fe42 133d fbdc 093d 68d1 7c3d a707 cf3d

hidden_layers.0.bias f4 [50]
-0.13226004 -0.09426491 0.14084263 -0.0014085099 -0.04173532 -0.03901594 -0.016561888 -0.012295715
-0.12736748 0.038070437 -0.07607652 0.00018138059 -0.014268907 0.099216856 0.02825943 -0.121337034
0.12836833 -0.14858475 0.10096719 0.100008346 -0.06838986 -0.025500847 0.058022596 0.078308575
0.13006519 -0.061122872 0.113085456 0.0100080995 -0.062452085 0.090692736 0.1318915 -0.10532401
-0.08083602 -0.052295767 -0.06900936 -0.08391356 0.07587213 -0.108980216 -0.06668124 0.047277622
0.014288611 0.05127735 -0.022439973 0.058710285 -0.010620164 0.13752946 -0.006084287 0.096815854
0.08349137 0.0762688
00000000: 2d6f 07be f60d c1bd 0d39 103e c09d b8ba
00000010: a8f2 2abd 2ecf 1fbd ccac 87bc f773 49bc
00000020: 9f6c 02be bfef 1b3d 02ce 9bbd fb30 3e39
00000030: 22c8 69bc 3532 cb3d 5280 e73c 8d7f f8bd
00000040: fd72 033e 9a26 18be e3c7 ce3d 2dd1 cc3d
00000050: fc0f 8cbd 27e7 d0bc 1aa9 6d3d 3f60 a03d
00000060: cf2f 053e fa5b 7abd 5999 e73d 03f9 233c
00000070: c2cd 7fbd 1dbd b93d 910e 073e 1db4 d7bd
00000080: 5b8d a5bd 1634 56bd c854 8dbd dfda abbd
00000090: d962 9b3d 0531 dfbd 2d90 88bd 2ea6 413d
000000a0: c71a 6a3c 3308 523d 09d4 b7bc 327a 703d
000000b0: 3200 2ebc 86d4 0c3e b35e c7bb 6447 c63d
000000c0: 86fd aa3d d132 9c3d

hidden_layers.1.weight f4 [50, 50]
-0.08400914 0.07555494 0.00011423183 -0.014530299 -0.09223166 0.1304892 0.053306542 -0.09183357
-0.09101377 0.053767256 -0.03767002 0.041341815 0.058581147 -0.14423214 -0.029468289 0.1221533
0.09928389 0.12073114 -0.026599128 0.10098657 -0.054257162 0.042741593 -0.06411091 -0.10478208
-0.026771866 -0.13188152 -0.14609496 0.018344868 -0.002411799 0.05381455 0.11334168 -0.04506949
0.07887712 0.094253905 -0.10049778 0.11915202 0.118082814 -0.012792609 -0.05017083 0.08258113
0.0859928 0.06455946 0.020624865 0.013607529 -0.021584352 0.067350626 0.004484722 -0.06130131
-0.10660739 0.042103894 0.008102775 0.12257994 0.024244208 0.13279818 -0.064899825 -0.10634445
-0.021781545 -0.042939473 -0.018247792 -0.04177158 0.13508797 0.05379763 0.028274339 0.006663812
0.13616034 0.054266203 -0.033901468 -0.14398734 -0.1262429 -0.045054417 0.03285168 0.026745567
0.07581283 0.055959266 -0.059019692 0.07660493 0.06972307 0.04398364 0.10733085 -0.09323892
0.030863104 -0.029727317 0.13579884 -0.119651385 0.04101877 -0.10277864 -0.09282022 -0.120491505
0.022411875 0.1201787 -0.07673894 0.018592766 -0.12416349 -0.10991345 0.062157527 -0.011403888
-0.014103174 -0.088399634 0.09666745 -0.11378545 -0.07389793 0.0838064 0.071340375 -0.13925914
-0.14627108 -0.08362114 -0.14504647 0.09303644 -0.07779122 0.047203507 -0.12389344 0.026184903
0.12320518 0.08558873 0.13520943 -0.031009113 -0.028001554 -0.12618971 -0.060032297 -0.077146634
0.0038480132 0.016420271 -0.03321425 -0.06738665 0.12943421 0.009109693 -0.11935224 -0.04177022
0.07131611 -0.1238848 0.14042902 -0.024422297 0.06298809 -0.025051689 -0.10090458 0.06734763
0.05195089 -0.06747113 0.050825253 -0.07853864 -0.0951588 -0.1303604 0.09708969 0.11100032
0.08960909 0.10686862 0.13810854 -0.0072790007 -0.13172208 -0.09817201 0.07530305 -0.120785944
-0.00908484 -0.019742442 -0.013110815 -0.13284896 0.10824643 -0.026451608 -0.03808592 -0.060053684
-0.024158899 -0.031663448 -0.08816023 0.1260245 0.025538241 0.010276659 -0.10406831 0.13104159
-0.03524235 0.09955475 -0.06843928 -0.009753104 0.014780527 -0.0011007165 -0.02602334 -0.033209167
-0.079167254 -0.035106916 -0.114971586 0.11902947 -0.044848993 -0.0066304435 -0.109571196 -0.10668777
-0.10152679 0.04449493 0.14037703 0.009936607 0.101971164 -0.14018463 -0.1319534 0.06335807
-0.086087085 -0.07931968 0.10438793 0.006600469 0.09946097 -0.060375374 0.020462073 0.12763081
0.0029081437 0.07182932 0.13453372 0.109278806 0.109105974 -0.07953125 0.052276697 0.004275661
-0.057432238 -0.07471169 0.068811946 0.06184184 0.02219183 0.12771715 0.04560367 0.10625002
0.077309266 -0.030682946 -0.04278144 -0.11662616 0.14268681 -0.04226779 0.06530108 0.07549856
-0.09206217 0.0771487 0.078256875 -0.07291781 -0.057613082 0.035847973 0.12557095 0.13374251
-0.02358956 -0.07668267 0.0687334 -0.020028384 0.022399658 -0.11429503 0.009306087 0.027230341
-0.057532355 0.027609468 0.10619722 -0.13894506 0.13444611 -0.08184391 -0.11643805 0.01947207
0.14421055 -0.10219138 -0.1382639 0.10601259 -0.057633776 -0.1313422 -0.13490888 -0.048611823
00000000: fc0c acbd 8cbc 9a3d bf8f ef38 7e10 6ebc
00000010: f4e3 bcbd f69e 053e f657 5a3d 3d13 bcbd
00000020: 6d65 babd 0e3b 5c3d e14b 1abd 0956 293d
00000030: c9f2 6f3d 97b1 13be 7b67 f1bc 822b fa3d
00000040: 5a55 cb3d e341 f73d 6ae6 d9bc 0cd2 ce3d
00000050: c23c 5ebd cf11 2f3d 954c 83bd fd97 d6bd
00000060: ac50 dbbc f30b 07be eb99 15be fa47 963c
00000070: 460f 1ebb a56c 5c3d af1f e83d c99a 38bd
00000080: 548a a13d 3108 c13d c8d1 cdbd f905 f43d
00000090: 67d5 f13d 1798 51bc ee7f 4dbd 4c20 a93d
000000a0: fe1c b03d c037 843d 7af5 a83c 1df2 5e3c
000000b0: abd1 b0bc 20ef 893d 93f4 923b 1517 7bbd
000000c0: fa54 dabd 2275 2c3d 80c1 043c 310b fb3d
000000d0: ca9b c63c 3ffc 073e 33ea 84bd 1ecb d9bd
000000e0: 366f b2bc 4de1 2fbd 657c 95bc ad18 2bbd
000000f0: 8054 0a3e e75a 5c3d 969f e73c 1b5c da3b
00000100: 9e6d 0b3e 3d46 5e3d 44dc 0abd 6b71 13be
00000110: d245 01be fb8a 38bd 7c8f 063d 8519 db3c
00000120: c243 9b3d 8b35 653d a2be 71bd 0ce3 9c3d
00000130: f8ca 8e3d 3028 343d 47d0 db3d 0cf4 bebd
00000140: 9fd4 fc3c b486 f3bc da0e 0b3e c90b f5bd
00000150: 4c03 283d 9c7d d2bd 8718 bebd 40c4 f6bd
00000160: 1c99 b73c 4020 f63d 4e29 9dbd db4f 983c
00000170: 6e49 febd 4e1a e1bd e498 7e3d 60d7 3abc
00000180: 0011 67bc de0a b5bd 96f9 c53d 5908 e9bd
00000190: cc57 97bd b1a2 ab3d e71a 923d f399 0ebe
000001a0: 16c8 15be 8f41 abbd 1087 14be e489 be3d
000001b0: 0151 9fbd 7758 413d d8bb fdbd b981 d63c
000001c0: ff52 fc3d 2549 af3d 5774 0a3e d306 febc
000001d0: 8463 e5bc e037 01be 6de4 75bd 0eff 9dbd
000001e0: f32e 7c3b ce83 863c aa0b 08bd 0302 8abd
000001f0: 678a 043e d240 153c f26e f4bd 4017 2bbd
00000200: 2e0e 923d 50b7 fdbd a0cc 0f3e 4511 c8bc
00000210: e6ff 803d 3339 cdbc 0fa7 cebd 8eed 893d
00000220: 75ca 543d 4e2e 8abd 242e 503d ded8 a0bd
00000230: 9ee2 c2bd 327d 05be f6d6 c63d 2354 e33d
00000240: f884 b73d efdd da3d 536c 0d3e af84 eebb
00000250: 27e2 06be 680e c9bd 7c38 9a3d 9f5e f7bd
00000260: 95d8 14bc e7ba a1bc bece 56bc 8f09 08be
00000270: 4eb0 dd3d 0bb1 d8bc fbff 1bbd dafa 75bd
00000280: e2e8 c5bc 88b1 01bd 5a8d b4bd 910c 013e
00000290: 9335 d13c 6f5f 283c c421 d5bd c42f 063e
000002a0: 485a 10bd 5ce3 cb3d e529 8cbd 7ccb 1fbc
000002b0: 062a 723c eb45 90ba e62e d5bc 5606 08bd
000002c0: 7122 a2bd 45cc 0fbd 3976 ebbd b9c5 f33d
000002d0: 94b3 37bd 3144 d9bb dd66 e0bd 1e7f dabd
000002e0: 47ed cfbd 5140 363d ffbe 0f3e 27cd 223c
000002f0: 42d6 d03d 8f8c 0fbe cb1e 07be e0c1 813d
00000300: 6d4e b0bd 5b72 a2bd 57c9 d53d bf48 d83b
00000310: 31b2 cb3d 2b4c 77bd 14a0 a73c a7b1 023e
00000320: 8e96 3e3b 401b 933d 35c3 093e 91cd df3d
00000330: f472 df3d 48e1 a2bd 1720 563d d81a 8c3b
00000340: 113e 6bbd 7102 99bd 47ed 8c3d df4d 7d3d
00000350: a4cb b53c 49c8 023e eaca 3a3d 9c99 d93d
00000360: 5254 9e3d cd5a fbbc 973b 2fbd b2d9 eebd
00000370: 7e1c 123e fd20 2dbd 93bc 853d fd9e 9a3d
00000380: 178b bcbd 2300 9e3d 2445 a03d ef55 95bd
00000390: b2fb 6bbd 53d5 123d ac95 003e ccf3 083e
000003a0: e53e c1bc ce0b 9dbd 19c4 8c3d 9112 a4bc
000003b0: 7d7f b73c 8313 eabd 8f78 183c 2a12 df3c
000003c0: 0ca7 6bbd 402d e23c ee7d d93d 9d47 0ebe
000003d0: 3eac 093e c89d a7bd 1377 eebd e483 9f3c
000003e0: eeab 133e b749 d1bd 0d95 0dbe 211d d93d
000003f0: 6511 6cbd 927e 06be 8e25 0abe 311d 47bd

hidden_layers.1.bias f4 [50]
0.09321712 -0.0036186564 -0.043174863 0.068168275 0.12562628 -0.0120405955 0.12471112 -0.022634175
-0.06001118 0.09097316 0.08334852 -0.1278073 0.021593954 0.054923937 -0.00061883853 -0.08449988
0.03909746 -0.07977348 0.033720553 -0.016113918 -0.019193754 -0.007825921 -0.019463336 -0.12958875
-0.019510385 -0.06317871 -0.08763148 -0.066331044 -0.028599026 0.025635177 -0.09946887 0.122199
-0.02847736 -0.02265713 -0.0398458 0.052467655 0.024528485 -0.09952348 -0.036736824 -0.13086599
-0.114713304 -0.13700822 -0.057067607 -0.031422798 0.091818884 -0.03321366 -0.062239844 0.042986058
-0.098094426 0.0070910724
00000000: 9ee8 be3d fb26 6dbb 20d8 30bd cf9b 8b3d
00000010: 2da4 003e eb45 45bc 8b68 ff3d 4e6b b9bc
00000020: 48ce 75bd 2350 ba3d a1b2 aa3d ebdf 02be
00000030: cee5 b03c ecf7 603d 8d39 22ba 460e adbd
00000040: a924 203d 4760 a3bd 901e 0a3d 5601 84bc
00000050: 383c 9dbc 4b38 00bc 9371 9fbc eab2 04be
00000060: 3ed4 9fbc d763 81bd 2278 b3bd 92d8 87bd
00000070: 8148 eabc dd00 d23c 56b6 cbbd 7843 fa3d
00000080: 5a49 e9bc 729b b9bc 5935 23bd 53e8 563d
00000090: f6ef c83c f7d2 cbbd 5a79 16bd bc01 06be
000000a0: cfee eabd e24b 0cbe b9bf 69bd 31b5 00bd
000000b0: 8a0b bc3d 0c0b 08bd 35ef 7ebd 2612 303d
000000c0: bbe5 c8bd 3a5c e83b

output_layer.weight f4 [2, 50]
-0.050543353 -0.13877587 0.058716636 -0.04845882 -0.06375939 -0.026475377 0.1099394 0.012890735
0.062398568 0.069933936 0.07854138 -0.03867437 -0.072122976 -0.039113186 -0.029590605 0.1062022
0.12873653 0.019349232 0.00893051 -0.066024244 0.03604659 0.010402881 0.039209507 -0.005974983
0.019286484 -0.0965539 -0.067115776 -0.12796907 0.055060465 0.1065435 0.13452074 -0.08351415
0.07250233 0.14019568 -0.041370302 -0.044994432 -0.012546648 0.08788888 0.074198134 -0.11322291
0.0049522202 0.07707911 -0.11232543 -0.14346802 0.085550085 -0.062187165 -0.019225718 -0.113902405
0.014164605 -0.102715276 0.07036146 -0.06385609 -0.027788358 -0.11558533 -0.022736281 -0.00060466764
-0.13697034 0.07012487 -0.111005045 -0.1162937 0.044559956 0.024073925 0.05252886 0.10519057
0.12596445 -0.10100452 -0.08733375 0.12626088 0.10004359 -0.035505377 -0.10216707 0.0036677963
0.017345473 -0.07066535 -0.1296613 0.06192709 0.08552097 -0.1314073 0.111046426 -0.09311071
0.10559842 0.12952797 -0.07439449 0.031901434 0.101192005 0.015415707 0.07288934 0.14560162
0.014640432 0.052910976 0.105645224 0.15005173 0.043769877 0.033783074 0.12576121 -0.002462464
0.10812392 0.027327267 0.0562304 0.10046475
00000000: 8c06 4fbd 431b 0ebe db80 703d c17c 46bd
00000010: 4894 82bd e4e2 d8bc e827 e13d a933 533c
00000020: a495 7f3d 8639 8f3d 4eda a03d 0469 1ebd
00000030: 36b5 93bd 2635 20bd ff67 f2bc 8a80 d93d
00000040: 82d3 033e 4882 9e3c 4651 123c b837 87bd
00000050: 97a5 133d d870 2a3c 269a 203d cac9 c3bb
00000060: b0fe 9d3c 0dbe c5bd ff73 89bd 530a 03be
00000070: 1587 613d 7b33 da3d cebf 093e 7709 abbd
00000080: 1a7c 943d 758f 0f3e e873 29bd 154c 38bd
00000090: 7590 4dbc 16ff b33d 31f5 973d 6ae1 e7bd
000000a0: 3c46 a23b a7db 9d3d e00a e6bd 48e9 12be
000000b0: e234 af3d f8b7 7ebd 417f 9dbc aa45 e9bd
000000c0: a912 683c 635c d2bd ab19 903d fbc6 82bd
000000d0: 69a4 e3bc 00b8 ecbd 7041 babc 8f82 1eba
000000e0: f441 0cbe a19d 8f3d 9d56 e3bd 642b eebd
000000f0: 8084 363d ae36 c53c 8028 573d 276e d73d
00000100: d3fc 003e 75db cebd 0adc b2bd 884a 013e
00000110: a7e3 cc3d 166e 11bd f83c d1bd 695f 703b
00000120: 1818 8e3c ffb8 90bd efc5 04be 43a7 7d3d
00000130: 9e25 af3d a38f 06be 4f6c e33d d4b0 bebd
00000140: fc43 d83d fba2 043e 235c 98bd 14ab 023d
00000150: c13d cf3d 2992 7c3c 0247 953d 9718 153e
00000160: 6cde 6f3c 2eb9 583d 865c d83d 29a7 193e
00000170: 0b48 333d 1f60 0a3d 8cc7 003e 4a61 21bb
00000180: 1370 dd3d 6fdd df3c d951 663d 76c0 cd3d

output_layer.bias f4 [2]
0.08941005 0.074923165
00000000: 9e1c b73d 5171 993d

exp_avg f4 [5]
-299.23886 -413.1562 -529.6915 0.0 -559.4301
00000000: 939e 95c3 fe93 cec3 426c 04c4 0000 0000
00000010: 87db 0bc4

exp_avg_sq f4 [5]
2550.836 4939.8267 8003.004 0.0 8956.341
00000000: 606d 1f45 9d5e 9a45 0818 fa45 0000 0000
00000010: 5df1 0b46

exp_avg f4 [50, 2]
-0.3884719 -2.183155 0.64013624 1.7263491 1.0038097 -0.09006272 0.10095871 -0.19540471
0.69341445 -1.8281302 1.3834401 -1.2173746 1.6462833 -1.029426 2.2469263 -3.1489651
0.55655676 -0.9166656 -2.1472611 3.0049336 1.1650925 -2.2167537 0.6240445 0.2648298
0.08224209 5.1072702 -0.30082536 0.50457025 1.025767 -3.4368682 2.7212906 -6.212094
0.4349604 0.83608747 0.45383403 3.0163612 -1.196206 0.29119375 -0.3504572 -0.6438465
-0.39117408 0.46473876 0.119100995 -1.5454742 -0.5149687 -1.1250371 0.78978163 -0.05950428
0.36061677 4.673598 -1.81546 1.3099452 0.02980431 3.99499 1.0815455 0.9328837
-1.1213411 -2.3823543 1.4036797 -0.4304551 1.2525282 -0.78352475 0.3166012 -1.9422066
-0.028631233 1.9868914 0.9538252 0.42176828 -0.9690989 3.7434065 -0.43490085 1.1531152
1.1866324 0.7215227 0.26393285 1.9679198 0.53629935 -6.1982584 -1.7946726 3.9328222
0.79971737 -2.1427338 -0.06838961 -1.8970916 -0.7060608 4.5392485 -0.05577147 -0.25292283
0.26248202 -0.037931457 -0.26760608 7.74722 3.3173928 -3.6244397 0.9991019 -3.639557
1.2898054 -0.052682023 0.20689552 0.13476376
00000000: cae5 c6be d0b8 0bc0 f8df 233f 02f9 dc3f
00000010: d67c 803f ce72 b8bd 71c3 ce3d 2c18 48be
00000020: 9c83 313f 2c00 eabf 9114 b13f eed2 9bbf
00000030: 69b9 d23f 3bc4 83bf a4cd 0f40 a588 49c0
00000040: 817a 0e3f 99aa 6abf ba6c 09c0 d550 4040
00000050: c021 953f 4bdf 0dc0 61c1 1f3f c697 873e
00000060: 8a6e a83d c26e a340 c805 9abe 842b 013f
00000070: 554c 833f a6f5 5bc0 a029 2e40 79c9 c6c0
00000080: 21b3 de3e d409 563f ef5c e83e 100c 4140
00000090: 471d 99bf 5917 953e 206f b3be 20d3 24bf
000000a0: f847 c8be 3df2 ed3e 39eb f33d 19d2 c5bf
000000b0: fdd4 03bf 3701 90bf 212f 4a3f c3ba 73bd
000000c0: c3a2 b83e 1d8e 9540 fe60 e8bf 49ac a73f
000000d0: 2b28 f43c ebad 7f40 1570 8a3f 77d1 6e3f
000000e0: 1b88 8fbf 7e78 18c0 c7ab b33f 9c64 dcbe
000000f0: d852 a03f 1495 48bf 8d19 a23e 3a9a f8bf
00000100: 0c8c eabc 7552 fe3f e32d 743f 03f2 d73e
00000110: de16 78bf f993 6f40 53ab debe 4799 933f
00000120: 92e3 973f b6b5 383f 3522 873e cce4 fb3f
00000130: ea4a 093f 2258 c6c0 d5b7 e5bf 5cb3 7b40
00000140: 47ba 4c3f 8d22 09c0 da0f 8cbd e6d3 f2bf
00000150: 67c0 34bf 8641 9140 a070 64bd 1a7f 81be
00000160: 0b64 863e 045e 1bbd aa03 89be 3ae9 f740
00000170: 2a50 5440 d2f6 67c0 24c5 7f3f 80ee 68c0
00000180: 5818 a53f 1bc9 57bd 6bdc 533e 83ff 093e

exp_avg_sq f4 [50, 2]
0.0046623894 0.13501723 0.011390969 0.09468326 0.024037223 0.008095012 0.0017473476 0.0035108842
0.01443358 0.11144224 0.046983447 0.036712017 0.061061792 0.02452617 0.14290585 0.24536392
0.017004354 0.03387373 0.11041771 0.21367107 0.038435 0.115960084 0.02073798 0.03162522
0.0064564664 0.6567699 0.002240792 0.0115767615 0.032173187 0.3591975 0.1784183 0.9801706
0.005869598 0.034734137 0.008315426 0.27392626 0.05414075 0.037635174 0.0041862926 0.018435657
0.0036916223 0.008081653 0.0017756955 0.07908959 0.008399825 0.036219355 0.019784704 0.015619143
0.0073572905 0.57724565 0.08856384 0.045405995 0.004453847 0.3812072 0.027404401 0.024938295
0.037075058 0.24858506 0.055728354 0.021624222 0.0369947 0.02436713 0.0066532316 0.09984866
0.0034750362 0.11989127 0.020720983 0.013474338 0.028676953 0.42800474 0.0049304618 0.03811398
0.03316481 0.030436004 0.0052958 0.12541479 0.016211797 1.0238782 0.09658702 0.3942087
0.019410677 0.12823682 0.008030116 0.10670001 0.028234804 0.5746643 0.0014720386 0.0025067301
0.0026880489 0.007593366 0.01472515 1.6011835 0.2911188 0.31821457 0.023532638 0.3298385
0.03923163 0.010161126 0.0011757099 0.004487673
00000000: f5c6 983b f541 0a3e 30a1 3a3c 4ce9 c13d
00000010: b6e9 c43c f1a0 043c 4207 e53a dd16 663b
00000020: d37a 6c3c d43b e43d b771 403d 575f 163d
00000030: ee1b 7a3d 1beb c83c e955 123e ae40 7b3e
00000040: b74c 8b3c 2ebf 0a3d ae22 e23d 97cc 5a3e
00000050: 056e 1d3d 7b7c ed3d b2e2 a93c 7289 013d
00000060: c490 d33b 1222 283f 40da 123b 75ac 3d3c
00000070: 08c8 033d bce8 b73e 49b3 363e 76ec 7a3f
00000080: c255 c03b 6245 0e3d 6d3d 083c 1040 8c3e
00000090: b1c2 5d3d 5727 1a3d 2b2d 893b 6006 973c
000000a0: 25ef 713b e968 043c 74be e83a b9f9 a13d
000000b0: 6b9f 093c bf5a 143d 8813 a23c 6fe7 7f3c
000000c0: 6d15 f13b 5fc6 133f f560 b53d a3fb 393d
000000d0: 94f1 913b 972d c33e 327f e03c 654b cc3c
000000e0: 04dc 173d 158d 7e3e 6a43 643d 4825 b13c
000000f0: c187 173d 939d c73c 5a03 da3b 747d cc3d
00000100: 6fbd 633b 8e89 f53d 0dbf a93c 78c3 5c3c
00000110: eeeb ea3c 7023 db3e b68f a13b 681d 1c3d
00000120: d3d7 073d ed54 f93c 6488 ad3b bc6c 003e
00000130: 9ace 843c 710e 833f 6acf c53d b9d5 c93e
00000140: 2403 9f3c 8350 033e bf90 033c 8985 da3d
00000150: ad4c e73c 331d 133f 6bf1 c03a f447 243b
00000160: fa29 303b c5d1 f83b c141 713c 95f3 cc3f
00000170: 860d 953e 05ed a23e 85c7 c03c 98e0 a83e
00000180: 58b1 203d da7a 263c 471a 9a3a 540d 933b

exp_avg f4 [50]
-7.7422786 10.497061 1.9405953 -1.3339449 -8.003113 -3.833204 -6.0663023 -13.125483
-5.558688 9.962245 -7.8105917 3.4318533 18.107729 1.7452543 -10.937155 -22.948366
5.916388 14.835574 -0.15345657 -5.965614 -0.92325515 -10.278866 -6.1370263 -8.263837
21.252186 0.13148145 12.377149 4.882301 -6.5957527 1.5136588 3.7104876 -8.34953
13.065117 4.7258863 22.32373 5.793677 8.326903 13.987474 -26.958279 14.957164
-10.018688 -5.6050773 20.346289 -1.9012845 2.922756 32.24545 -15.097152 -9.646776
4.998632 0.81860846
00000000: bfc0 f7c0 f6f3 2741 6d65 f83f b5be aabf
00000010: c00c 00c1 3753 75c0 261f c2c0 fa01 52c1
00000020: c6e0 b1c0 5b65 1f41 5ef0 f9c0 7ca3 5b40
00000030: a1dc 9041 7e64 df3f 96fe 2ec1 4196 b7c1
00000040: 0d53 bd40 835e 6d41 b823 1dbe 4fe6 bec0
00000050: 735a 6cbf 3c76 24c1 8562 c4c0 ad38 04c1
00000060: 7a04 aa41 13a3 063e cd08 4641 cf3b 9c40
00000070: 6810 d3c0 92bf c13f a178 6d40 ad97 05c1
00000080: b80a 5141 763a 9740 0097 b241 cd65 b940
00000090: ff3a 0541 b2cc 5f41 8eaa d7c1 8b50 6f41
000000a0: 8c4c 20c1 cb5c b3c0 33c5 a241 4a5d f3bf
000000b0: 6f0e 3b40 57fb 0042 ef8d 71c1 3259 1ac1
000000c0: cbf4 9f40 5390 513f

exp_avg_sq f4 [50]
1.5508419 2.5666063 0.16284956 0.15612346 1.6430422 0.54586565 0.8743483 4.5569034
1.1523956 2.2569938 1.4053782 0.6381964 7.4493637 0.22295782 3.0661213 11.953389
0.8877955 5.0280566 0.53639656 1.1222897 0.11549468 2.4044094 0.9195231 1.8297449
10.3993 0.14195023 3.492997 0.549777 2.1227176 0.37841755 0.63754624 1.6187396
4.425599 0.5514559 11.342704 0.9477886 1.5844638 4.4690948 16.502169 5.5316124
2.3696442 1.0561589 9.466253 0.184088 0.8137472 23.61021 6.360531 2.1718879
0.6823215 0.13239318
00000000: fd81 c63f 4743 2440 09c2 263e d4de 1f3e
00000010: 354f d23f dabd 0b3f 4ad5 5f3f 27d2 9140
00000020: b381 933f 9672 1040 6fe3 b33f d760 233f
00000030: 3061 ee40 0e4f 643e 553b 4440 1541 3f41
00000040: 9146 633f d7e5 a040 4951 093f 30a7 8f3f
00000050: 7a88 ec3d d8e1 1940 de65 6b3f 1535 ea3f
00000060: 8863 2641 675b 113e 438d 5f40 2fbe 0c3f
00000070: 9bda 0740 f2bf c13e 3b36 233f dc32 cf3f
00000080: 829e 8d40 372c 0d3f b77b 3541 46a2 723f
00000090: b6cf ca3f d302 8f40 7104 8441 f802 b140
000000a0: 40a8 1740 3730 873f c675 1741 9181 3c3e
000000b0: bd51 503f b6e1 bc41 7889 cb40 3600 0b40
000000c0: 9fac 2e3f 1492 073e

exp_avg f4 [50, 50]
-1.2340919 -3.120514 1.6514903 3.225347 -6.580012 -8.182814 -4.865591 4.003903
7.2425227 7.920718 -0.09824512 3.7106884 0.7373272 1.4110422 -7.3758607 -7.796067
0.45063186 2.5348232 -4.69001 0.068956845 7.6586585 -3.3321657 -7.516862 6.787946
0.5652096 -2.8456624 6.06953 6.114084 -4.8194566 3.4305527 -5.2774277 -0.7087074
-1.6470394 5.1828074 2.5994027 -5.2585545 -2.8312614 2.277162 -0.44847625 -6.0837817
7.1631107 -4.639157 2.6281688 1.5631253 -3.643738 6.8604755 2.4505725 -7.3435435
-3.1992204 2.6082435 0.6764479 1.7013582 -0.6430891 -1.9067668 3.7386975 4.9408574
3.3047695 -2.105392 -4.1341476 -4.515834 -0.22211754 -2.0031393 -0.1950135 -0.86584383
4.0586395 4.5042434 -0.57252496 -1.2980777 2.6587636 -0.6604499 -5.0455556 2.2047298
4.7276177 -4.510362 0.014905016 2.1924312 -3.3750794 -3.8238056 2.6402967 -2.1065805
3.5094652 -0.10435999 0.81608355 -3.3575068 -1.664561 2.9932778 2.3007474 -1.7426295
0.35424712 3.1906574 -4.0329237 2.7475693 -0.93096936 -1.5838368 2.4354193 -3.979825
-1.7645384 4.0169387 2.2222984 -1.538233 -6.053488 -8.363977 -1.1563905 3.9927368
-13.205723 -17.627235 -11.030753 6.3475585 14.635196 15.901484 1.9157166 5.743745
4.053368 3.0177345 -13.867913 -16.385895 4.667322 5.0048776 -7.718992 6.465098
19.44216 -8.288082 -19.519535 17.306772 2.6001084 -6.8594384 14.003408 17.238403
-12.557083 7.6840363 -13.899843 2.0599275 -4.31709 15.101338 4.7852893 -12.41679
-12.734207 8.981618 -3.8838136 -10.32273 14.38385 -12.802832 0.35322565 8.649609
-11.672437 15.447857 3.9007354 -14.037675 -9.6808815 7.947281 5.757323 9.07715
-0.110445745 -5.84862 15.74373 20.85462 13.219622 -8.082804 -17.4459 -18.96572
-1.7395003 -7.4301095 -3.5687478 -3.5975041 16.759993 19.3169 -4.3768997 -5.846227
9.889658 -5.8246207 -22.309515 9.559888 21.971518 -19.873526 -2.1629546 8.340194
-15.902724 -18.91986 13.745545 -9.020294 15.796769 -1.6003661 4.6341596 -16.543821
-6.0668135 14.08703 13.066996 -9.395407 3.526349 12.794309 -17.124706 13.9920845
-1.7884156 -8.834803 12.557404 -17.834423 -5.466074 16.845299 10.668425 -8.459623
1.1816758 0.85119903 1.2192504 0.5611953 0.4380161 0.87265915 0.6521882 0.2368496
-0.4990781 -0.5252409 -0.5960922 0.26522756 -0.8693203 -0.13960627 0.2186281 0.7356895
-1.141325 -0.16692826 -0.2135281 -1.8408037 -1.6634735 0.67696625 1.7935017 -1.4913
-0.5320573 0.46907485 -0.974762 -1.8760401 1.2124561 -0.44707057 1.2917944 -0.94379085
0.42614347 -1.725262 -0.023961816 0.9107516 2.231179 -1.4426684 0.9342633 -0.15028588
-0.47264054 1.3585453 1.2465498 -1.6855361 1.5174237 -0.9616456 0.19858836 0.29375854
1.1501356 -0.9895397 -3.4131348 -4.316804 -1.0993632 1.5056076 -6.2668133 -8.440511
00000000: b9f6 9dbf 80b6 47c0 0964 d33f 166c 4e40
00000010: 758f d2c0 ceec 02c1 ecb2 9bc0 f91f 8040
00000020: bfc2 e740 8676 fd40 bd34 c9bd eb7b 6d40
00000030: 7ac1 3c3f 089d b43f 0d07 ecc0 6279 f9c0
00000040: 38b9 e63e 8b3a 2240 9014 96c0 3f39 8d3d
00000050: bb13 f540 3442 55c0 228a f0c0 db36 d940
00000060: 94b1 103f 551f 36c0 9739 c240 93a6 c340
00000070: fd38 9ac0 2d8e 5b40 b0e0 a8c0 d96d 35bf
00000080: 30d2 d2bf 8fd9 a540 9d5c 2640 1446 a8c0
00000090: 6333 35c0 06bd 1140 ae9e e5be 57ae c2c0
000000a0: 3438 e540 f973 94c0 eb33 2840 7d14 c83f
000000b0: 0133 69c0 0489 db40 2ed6 1c40 4ffe eac0
000000c0: 07c0 4cc0 76ed 2640 b12b 2d3f 1bc6 d93f
000000d0: 7da1 24bf ef10 f4bf d246 6f40 811b 9e40
000000e0: 5881 5340 bebe 06c0 f04a 84c0 b681 90c0
000000f0: c872 63be 6f33 00c0 9eb1 47be f1a7 5dbf
00000100: 60e0 8140 c322 9040 ff90 12bf 6927 a6bf
00000110: 2f29 2a40 3f13 29bf 3175 a1c0 4b1a 0d40
00000120: a548 9740 e354 90c0 2b34 743c cb50 0c40
00000130: 4d01 58c0 3bb9 74c0 9ffa 2840 37d2 06c0
00000140: 149b 6040 b1ba d5bd daea 503f 64e1 56c0
00000150: 5610 d5bf dd91 3f40 723f 1340 7c0e dfbf
00000160: e15f b53e bb33 4c40 b60d 81c0 2dd8 2f40
00000170: 0254 6ebf 2abb cabf e9dd 1b40 74b5 7ec0
00000180: 65dc e1bf c38a 8040 233a 0e40 d2e4 c4bf
00000190: 2cb6 c1c0 dad2 05c1 9b04 94bf 0089 7f40
000001a0: a44a 53c1 9404 8dc1 f77d 30c1 331f cb40
000001b0: c329 6a41 7a6c 7e41 3436 f53f c2cc b740
000001c0: 31b5 8140 9022 4140 f9e2 5dc1 5016 83c1
000001d0: b45a 9540 f527 a040 fc01 f7c0 15e2 ce40
000001e0: 8b89 9b41 fc9b 04c1 0228 9cc1 4574 8a41
000001f0: 2d68 2640 8580 dbc0 f60d 6041 40e8 8941
00000200: d0e9 48c1 a0e3 f540 c265 5ec1 dad5 0340
00000210: 9a25 8ac0 159f 7141 1721 9940 2cab 46c1
00000220: 50bf 4bc1 b5b4 0f41 6790 78c0 e729 25c1
00000230: 4024 6641 66d8 4cc1 fed9 b43e cc64 0a41
00000240: 4dc2 3ac1 6c2a 7741 a6a5 7940 519a 60c1
00000250: e4e4 1ac1 2050 fe40 fd3b b840 023c 1141
00000260: 6131 e2bd e527 bbc0 51e6 7b41 43d6 a641
00000270: 9283 5341 2a53 01c1 3491 8bc1 cbb9 97c1
00000280: f2a7 debf 75c3 edc0 5d66 64c0 823d 66c0
00000290: 7714 8641 0389 9a41 900f 8cc0 4b14 bbc0
000002a0: 0a3c 1e41 4b63 bac0 e379 b2c1 4df5 1841
000002b0: abc5 af41 fbfc 9ec1 d96d 0ac0 6f71 0541
000002c0: 8f71 7ec1 e05b 97c1 c1ed 5b41 2053 10c1
000002d0: 91bf 7c41 ccd8 ccbf 094b 9440 bf59 84c1
000002e0: 5623 c2c0 7a64 6141 6a12 5141 9653 16c1
000002f0: b4af 6140 7db5 4c41 66ff 88c1 94df 5f41
00000300: cdea e4bf 5a5b 0dc1 20eb 4841 e6ac 8ec1
00000310: 14ea aec0 2cc3 8641 deb1 2a41 9e5a 07c1
00000320: 2741 973f 2ee8 593f 6610 9c3f 7faa 0f3f
00000330: a543 e03e 9766 5f3f cef5 263f b488 723e
00000340: 2a87 ffbe 3076 06bf 8099 18bf e8cb 873e
00000350: c68b 5ebf f2f4 0ebe 0be0 5f3e 2656 3c3f
00000360: f016 92bf 3eef 2abe 1ca7 5abe 759f ebbf
00000370: b3ec d4bf a94d 2d3f 7791 e53f ebe2 bebf
00000380: e834 08bf 942a f03e 018a 79bf 1522 f0bf
00000390: c331 9b3f 6fe6 e4be 8559 a53f 479c 71bf
000003a0: 7a2f da3e 63d5 dcbf 924b c4bc 0427 693f
000003b0: a3cb 0e40 5ca9 b8bf e12b 6f3f 8be4 19be
000003c0: f1fd f1be d0e4 ad3f f28e 9f3f a6bf d7bf
000003d0: f13a c23f 682e 76bf bf5a 4b3e 8567 963e
000003e0: a537 933f 7952 7dbf cd70 5ac0 4223 8ac0
000003f0: efb7 8cbf c0b7 c03f bc89 c8c0 550c 07c1

exp_avg_sq f4 [50, 50]
0.045070965 0.23408495 0.07021892 0.2439539 1.0059583 1.5598775 0.56938773 0.37423617
1.2199423 1.4575869 0.0057789483 0.31970215 0.028186614 0.046547312 1.266174 1.4134494
0.012746449 0.15222834 0.50988877 0.026227567 1.3969766 0.26367146 1.33115 1.100609
0.026276909 0.21524532 0.8663485 0.88499296 0.55484015 0.27516037 0.6655814 0.029813489
0.06726989 0.6401544 0.15887256 0.64906 0.220529 0.13516033 0.008577658 0.86647606
1.1945908 0.50941813 0.18140335 0.08949956 0.3215221 1.0979077 0.1549853 1.257555
0.24987333 0.16338427 0.033395834 0.10600155 0.012179241 0.092560075 0.41705075 0.7537415
0.34357217 0.11978128 0.51285446 0.60761845 0.006444343 0.107483864 0.009535983 0.02306202
0.47585964 0.61893827 0.027483212 0.0503586 0.19406658 0.054439288 0.8527113 0.16077034
0.76618123 0.6834726 0.0036383395 0.15632632 0.369676 0.53275794 0.24950229 0.14026979
0.42173654 0.010056905 0.025053322 0.4165574 0.079372786 0.2949769 0.25464374 0.13426037
0.013728421 0.28211835 0.48680484 0.2750871 0.022092177 0.1297781 0.23336163 0.5026705
0.08725528 0.46955514 0.18384327 0.09411426 0.8471925 1.6052585 0.030671716 0.37147436
3.9628303 7.056873 2.797828 0.9221899 4.8705745 5.745567 0.088350296 0.75123584
0.41057163 0.20678017 4.378687 6.098834 0.49381378 0.576258 1.3557603 0.95703197
8.603765 1.5639073 8.645492 6.8221445 0.20036633 1.119441 4.472302 6.740465
3.6110044 1.3412066 4.395611 0.117712565 0.4350646 5.171353 0.5273494 3.5120258
3.6832917 1.8312417 0.343041 2.4412746 4.708753 3.7257297 0.024688855 1.7192384
3.0903494 5.4213033 0.3847754 4.490374 2.1311748 1.4388007 0.7668806 1.8874325
0.0053483993 0.7874652 5.628464 9.889898 4.0425634 1.4906129 6.915942 8.168041
0.08136724 1.2541537 0.33332348 0.29442748 6.385523 8.473879 0.44349626 0.7845092
2.2221413 0.8121596 11.386148 2.0920453 10.983021 9.045754 0.16754448 1.6740346
5.760913 8.1352825 4.3193502 1.8517228 5.7084627 0.10455704 0.50050396 6.2282743
0.84790534 4.516127 3.9256864 2.0255878 0.28350747 3.7392857 6.6667385 4.4494944
0.119116485 1.8425466 3.5920916 7.224892 0.73815244 6.4558244 2.6070092 1.62902
0.031883888 0.021035004 0.03574785 0.014736792 0.030124417 0.05688092 0.024712203 0.011223086
0.036464937 0.044001438 0.008019995 0.010401236 0.017593754 0.0017078983 0.03433803 0.048021138
0.029121272 0.0042747674 0.015156014 0.07579506 0.095730126 0.016799789 0.1025058 0.07618751
0.007068823 0.010753457 0.041271497 0.0972776 0.04432778 0.011279053 0.05328045 0.020551085
0.0053643608 0.079935774 0.0047200858 0.03336345 0.11459119 0.048780795 0.019618409 0.023211274
0.035106253 0.05204063 0.04010775 0.064575434 0.057922132 0.04728193 0.0059037223 0.034717575
0.03509537 0.024969798 0.2993458 0.4792365 0.027616067 0.055692706 0.98186475 1.7462149
00000000: 559c 383d f7b3 6f3e f0ce 8f3d 0dcf 793e
00000010: 3ec3 803f 11aa c73f 65c3 113f e29b bf3e
00000020: 1227 9c3f 3592 ba3f 555d bd3b 00b0 a33e
00000030: 9de7 e63c 65a8 3e3d fd11 a23f e9eb b43f
00000040: 7bd6 503c bfe1 1b3e 1288 023f 32db d63c
00000050: 21d0 b23f f2ff 863e 2063 aa3f c1e0 8c3f
00000060: ac42 d73c 4569 5c3e 04c9 5d3f e68e 623f
00000070: 010a 0e3f d2e1 8c3e 8b63 2a3f 6b3b f43c
00000080: ccc4 893d 29e1 233f 7daf 223e cc28 263f
00000090: 5bd2 613e 7867 0a3e 4e89 0c3c 60d1 5d3f
000000a0: 5ae8 983f 3a69 023f cdc1 393e 8c4b b73d
000000b0: 8b9e a43e 3d88 8c3f 77b4 1e3e 90f7 a03f
000000c0: cbde 7f3e 354e 273e 12ca 083d 5717 d93d
000000d0: 708b 473c 2390 bd3d ad87 d53e 34f5 403f
000000e0: b1e8 af3e e34f f53d 6e4a 033f e28c 1b3f
000000f0: 112b d33b 8020 dc3d d03c 1c3c 90ec bc3c
00000100: e0a3 f33e bd72 1e3f 7924 e13c d244 4e3d
00000110: 64b9 463e bbfb 5e3d 4a4b 5a3f fba0 243e
00000120: 7424 443f 0ff8 2e3f 3571 6e3b 0214 203e
00000130: 2c46 bd3e d362 083f 877d 7f3e e2a2 0f3e
00000140: daed d73e b8c5 243c a03c cd3c 0347 d53e
00000150: 338e a23d 3607 973e aa60 823e 8d7b 093e
00000160: 2ced 603c d171 903e 7c3e f93e 37d8 8c3e
00000170: a7fa b43c 8de4 043e 5af6 6e3e 04af 003f
00000180: e5b2 b23d 8869 f03e 6941 3c3e fabe c03d
00000190: 9ce1 583f 1c79 cd3f 4043 fb3c e331 be3e
000001a0: 039f 7d40 e7d1 e140 9d0f 3340 a314 6c3f
000001b0: bfdb 9b40 afdb b740 00f1 b43d fe50 403f
000001c0: 7236 d23e 2ebe 533e 341e 8c40 a629 c340
000001d0: 29d5 fc3e a585 133f 8e89 ad3f 0c00 753f
000001e0: 05a9 0941 1d2e c83f ef53 0a41 024f da40
000001f0: d52c 4d3e d849 8f3f 191d 8f40 e4b1 d740
00000200: b21a 6740 a8ac ab3f d8a8 8c40 4913 f13d
00000210: cac0 de3e b97b a540 5f00 073f 08c5 6040
00000220: 0dbb 6b40 2166 ea3f 12a3 af3e d83d 1c40
00000230: 1bae 9640 5b72 6e40 4840 ca3c 0110 dc3f
00000240: 49c8 4540 517b ad40 4801 c53e 25b1 8f40
00000250: 2b65 0840 9f2a b83f 4952 443f 6397 f13f
00000260: a041 af3b 5297 493f 611c b440 063d 1e41
00000270: ae5c 8140 67cc be3f 664f dd40 4cb0 0241
00000280: dea3 a63d 1c88 a03f 60a9 aa3e 33bf 963e
00000290: 3456 cc40 0295 0741 f111 e33e 98d5 483f
000002a0: 9037 0e40 b1e9 4f3f aa2d 3641 12e4 0540
000002b0: 74ba 2f41 69bb 1041 c890 2b3e c446 d63f
000002c0: 6659 b840 1e2a 0241 1e38 8a40 4105 ed3f
000002d0: baab b640 0022 d63d 0721 003f 064e c740
000002e0: 5310 593f 1d84 9040 723e 7b40 3ba3 0140
000002f0: e427 913e 7550 6f40 ec55 d540 4262 8e40
00000300: 58f3 f33d 91d8 eb3f d4e4 6540 5132 e740
00000310: 8ff7 3c3f 1d96 ce40 3dd9 2640 ba83 d03f
00000320: ae98 023d 9a51 ac3c 566c 123d 9672 713c
00000330: 7bc7 f63c f8fb 683d 3f71 ca3c 09e1 373c
00000340: 425c 153d da3a 343d 4c66 033c f269 2a3c
00000350: c720 903c 8fdb df3a 09a6 0c3d d0b1 443d
00000360: bc8f ee3c 5913 8c3b ee50 783c 713a 9b3d
00000370: 280e c43d b69f 893c 90ee d13d 3208 9c3d
00000380: 96a1 e73b 452f 303c 4d0c 293d 7a39 c73d
00000390: 0c91 353d c7cb 383c 9a3c 5a3d c05a a83c
000003a0: 85c7 af3b 5eb5 a33d f3aa 9a3b 1da8 083d
000003b0: c9ae ea3d 5fce 473d c9b6 a03c 9225 be3c
000003c0: 93cb 0f3d 8e28 553d 0648 243d 2040 843d
000003d0: c23f 6d3d b2aa 413d 0374 c13b 0434 0e3d
000003e0: 2ac0 0f3d 768d cc3c da43 993e 7d5e f53e
000003f0: 173b e23c 091e 643d 7d5b 7b3f f883 df3f

exp_avg f4 [50]
-13.360462 7.975906 -30.946945 35.679142 2.0881882 -15.16818 31.836355 -26.90186
3.45106 21.092869 5.1660643 0.94502133 -7.728899 -18.495539 -37.421726 -37.458755
39.089783 27.475039 -49.008167 14.446865 -35.807755 -7.347872 -17.580114 10.897361
-8.70276 -11.78713 -1.6387893 16.006788 -38.537178 -6.4422326 27.185555 35.837875
3.6054556 3.2338662 -0.83551675 -9.768616 -42.798893 18.865967 5.535523 35.42672
44.70213 -25.416334 -2.326469 -15.719727 -16.934881 -35.194126 3.9879463 14.978074
-15.856542 11.222243
00000000: 74c4 55c1 9f3a ff40 5893 f7c1 71b7 0e42
00000010: e0a4 0540 deb0 72c1 dbb0 fe41 0237 d7c1
00000020: 2bde 5c40 32be a841 6650 a540 ebec 713f
00000030: 2453 f7c0 ddf6 93c1 d9af 15c2 c4d5 15c2
00000040: f05b 1c42 e1cc db41 5d08 44c2 5c26 6741
00000050: 243b 0fc2 c421 ebc0 13a4 8cc1 975b 2e41
00000060: 813e 0bc1 1698 3cc1 d9c3 d1bf e70d 8041
00000070: 1226 1ac2 c526 cec0 047c d941 fc59 0f42
00000080: c9bf 6640 aaf7 4e40 6de4 55bf 404c 1cc1
00000090: 1132 2bc2 80ed 9641 0123 b140 f6b4 0d42
000000a0: fbce 3242 a754 cbc1 dee4 14c0 0084 7bc1
000000b0: a37a 87c1 c9c6 0cc2 833a 7f40 31a6 6f41
000000c0: 65b4 7dc1 4f8e 3341

exp_avg_sq f4 [50]
4.17304 2.0467784 21.76122 28.945612 0.19727312 5.685783 23.14164 17.625038
0.27288473 10.657076 0.6460473 1.2019353 1.9552132 8.788562 32.174076 32.32895
35.070496 17.171093 54.68298 5.6358147 29.477573 1.7815983 7.170879 3.2831178
2.4060252 3.2340932 0.08172325 6.261684 35.657856 0.93829626 17.480654 29.691782
0.5513798 0.25708812 0.23481509 2.5711923 41.683544 8.625111 0.7991475 28.905476
46.66715 15.019182 0.65632546 7.521747 6.648433 28.222752 0.49631432 5.1942616
5.687178 3.3083982
00000000: 8b89 8540 6bfe 0240 fb16 ae41 9d90 e741
00000010: f701 4a3e eff1 b540 1422 b941 1400 8d41
00000020: 8cb7 8b3e 6283 2a41 5b63 253f 04d9 993f
00000030: 6d44 fa3f f39d 0c41 41b2 0042 d850 0142
00000040: 3048 0c42 665e 8941 5fbb 5a42 9858 b440
00000050: 12d2 eb41 6a0b e43f d777 e540 9a1e 5240
00000060: 51fc 1940 62fb 4e40 855e a73d b75f c840
00000070: a5a1 0e42 2f34 703f 61d8 8b41 c588 ed41
00000080: 3a27 0d3f 0ea1 833e 5e73 703e 6a8e 2440
00000090: f3bb 2642 7400 0a41 ee94 4c3f 6a3e e741
000000a0: 29ab 3a42 924e 7041 f204 283f 27b2 f040
000000b0: f7bf d440 32c8 e141 e91c fe3e 6437 a640
000000c0: 5dfd b540 ccbc 5340

exp_avg f4 [50, 50]
-12.191309 -2.7300835 8.760765 -5.9159074 -4.450083 0.96538186 -7.142902 0.401921
-4.756041 -9.534452 -3.4765134 -6.6943593 -3.686792 1.657952 2.0056036 0.47167113
-3.5828416 -5.1279573 1.9528463 13.704811 9.966242 6.772839 3.1378136 -12.939466
-3.1526318 -0.5476493 1.9359297 3.5001738 -0.31405145 16.347769 12.104892 -9.145637
4.0153446 0.5411107 -14.037142 -6.0573545 4.122169 3.3681133 -1.7145637 -2.8354259
3.1383882 14.485954 -1.821047 0.20342937 -0.92381763 8.900963 3.3603761 -4.9846134
1.5395105 -1.9039277 8.94871 3.2696915 -6.3682723 4.322988 4.0935154 0.1458037
4.301313 -1.1863673 0.6736543 4.193987 0.4040896 5.919049 -0.16933611 -4.0851607
-0.92430913 1.5461296 0.8698991 4.244524 -3.0601864 -7.9770713 -6.5452003 -3.6060424
-4.5250874 8.709618 0.4024617 -1.776766 0.45510146 -1.590552 0.02030076 -11.92789
-7.8445454 4.2395024 -2.4945977 2.2571826 6.7046447 2.1347606 -2.4547067 -1.4806712
1.7151471 3.1249533 0.01920125 -9.705475 3.6159184 1.0712335 -0.5702655 -7.529686
-2.396103 3.8142397 -1.7815107 1.8297138 5.821748 0.8294346 -4.220685 2.7463827
1.8739288 -0.8080725 3.7050352 0.064343736 3.2744083 5.5455866 2.4481537 2.8101456
2.6554458 0.040804166 -0.9685131 -0.8460477 2.128226 2.3510735 -0.34920305 -7.1813354
-5.0268173 -3.8120642 -0.891958 6.50661 2.0746315 1.0635787 -1.5933665 -2.045809
0.22441328 -7.8225107 -6.1712856 5.211171 -2.1338913 -1.1096623 7.830419 3.6148238
-2.1192894 -1.8743094 0.7503133 1.0826583 -2.3213842 -7.2123547 0.27442798 -0.5497258
0.79598135 -3.951352 -1.621651 2.389876 -0.5170113 0.8556211 16.977156 4.0885262
-12.423401 8.026857 6.6879687 -1.407101 9.625868 -1.238957 5.8420677 12.511611
4.408363 9.47926 3.5666027 -4.0671415 -1.9595864 0.032822423 3.6730719 7.738294
-3.3393466 -17.976322 -13.786292 -9.397861 -5.9573646 18.069632 3.2017891 0.077372424
-2.1619291 -4.582244 0.25036612 -22.909693 -16.596714 11.985174 -5.604186 0.5742006
17.770573 7.204852 -5.4842362 -3.907507 2.991819 4.8393326 -3.5374434 -19.914955
4.066004 -0.113217376 0.43984166 -13.129882 -4.5557957 7.443022 -2.5398545 3.274534
2.5781162 1.1337712 -1.8175792 1.2560239 1.289577 0.17764919 1.1100703 -0.45175242
-0.2109217 0.8066608 -0.19899781 1.8586392 -0.4287775 -1.5479282 -0.22288024 0.7074399
0.04003745 1.2727813 -1.1114446 -2.0233533 -1.7725224 -0.8298015 -1.5795367 2.38896
-0.130028 -0.8250879 0.39717627 -0.31588727 -0.021034366 -3.422887 -2.107635 0.8710144
-0.6448408 1.0075183 1.4520024 0.309075 -0.63252866 -0.3067895 0.5407221 1.0253613
0.3340358 -2.6670923 1.3255183 0.491726 -0.3220951 -2.2943437 -0.683852 1.1024139
-0.5990795 0.56881887 0.43212757 0.30659655 -0.22863287 0.17848529 0.2637418 0.16852936
00000000: 9a0f 43c1 b0b9 2ec0 182c 0c41 1d4f bdc0
00000010: 1467 8ec0 4423 773f a792 e4c0 97c8 cd3e
00000020: 7d31 98c0 1e8d 18c1 327f 5ec0 3138 d6c0
00000030: 66f4 6bc0 c537 d43f cf5b 0040 e17e f13e
00000040: 474d 65c0 3a18 a4c0 def6 f93f e846 5b41
00000050: ba75 1f41 19bb d840 f0d1 4840 0e08 4fc1
00000060: b8c4 49c0 bf32 0cbf 8bcc f73f d902 6040
00000070: 5acb a0be 3bc8 8241 a3ad 4141 8754 12c1
00000080: b47d 8040 3b86 0a3f 2298 60c1 d9d5 c1c0
00000090: cfe8 8340 2b8f 5740 d376 dbbf 9e77 35c0
000000a0: 5adb 4840 78c6 6741 1118 e9bf ca4f 503e
000000b0: 507f 6cbf 586a 0e41 6710 5740 f481 9fc0
000000c0: ae0e c53f e7b3 f3bf eb2d 0f41 a042 5140
000000d0: e3c8 cbc0 eb55 8a40 14fe 8240 914d 153e
000000e0: 5ba4 8940 e2da 97bf 9c74 2c3f 2435 8640
000000f0: d5e4 ce3e d968 bd40 7266 2dbe a3b9 82c0
00000100: 869f 6cbf 93e7 c53f b5b1 5e3f 24d3 8740
00000110: 18da 43c0 2b44 ffc0 4872 d1c0 66c9 66c0
00000120: 84cd 90c0 985a 0b41 760f ce3e 116d e3bf
00000130: 0f03 e93e 3597 cbbf c84d a63c a3d8 3ec1
00000140: 8406 fbc0 01aa 8740 7da7 1fc0 ae75 1040
00000150: 738c d640 eb9f 0840 ea19 1dc0 a286 bdbf
00000160: f189 db3f 3cff 4740 f14b 9d3c a049 1bc1
00000170: 356b 6740 2e1e 893f ebfc 11bf 30f3 f0c0
00000180: c059 19c0 811c 7440 8b08 e4bf 1034 ea3f
00000190: c24b ba40 d355 543f da0f 87c0 bcc4 2f40
000001a0: e6dc ef3f d7dd 4ebf 4c1f 6d40 a6c6 833d
000001b0: e88f 5140 7275 b140 8dae 1c40 6dd9 3340
000001c0: d3f2 2940 4522 273d 79f0 77bf 9596 58bf
000001d0: db34 0840 fd77 1640 beca b2be 80cd e5c0
000001e0: b0db a0c0 dcf8 73c0 5c57 64bf 2636 d040
000001f0: c3c6 0440 5923 883f 6ff3 cbbf 89ee 02c0
00000200: 98cc 653e 0252 fac0 2c7b c5c0 eac1 a640
00000210: ad91 08c0 6a09 8ebf cb92 fa40 4659 6740
00000220: 70a2 07c0 5fe9 efbf 8814 403f 8c94 8a3f
00000230: 8f91 14c0 9ccb e6c0 d381 8c3e d4ba 0cbf
00000240: 6fc5 4b3f f3e2 7cc0 4392 cfbf baf3 1840
00000250: da5a 04bf fc09 5b3f 37d1 8741 35d5 8240
00000260: 40c6 46c1 026e 0041 d703 d640 e31b b4bf
00000270: 8e03 1a41 2596 9ebf 38f2 ba40 8f2f 4841
00000280: 4f11 8d40 0dab 1741 3843 6440 0626 82c0
00000290: bad3 fabf ce70 063d 9c13 6b40 1ba0 f740
000002a0: dbb7 55c0 82cf 8fc1 a794 5cc1 a35d 16c1
000002b0: bba2 bec0 9b8e 9041 1dea 4c40 6f75 9e3d
000002c0: 0c5d 0ac0 bea1 92c0 fd2f 803e 0d47 b7c1
000002d0: 12c6 84c1 46c3 3f41 7e55 b3c0 cffe 123f
000002e0: 222a 8e41 268e e640 dd7e afc0 9814 7ac0
000002f0: f679 3f40 d0db 9a40 7965 62c0 d451 9fc1
00000300: b41c 8240 83de e7bd ed32 e13e ff13 52c1
00000310: 14c9 91c0 3c2d ee40 fa8c 22c0 f791 5140
00000320: dbff 2440 6a1f 913f 6fa6 e8bf 64c5 a03f
00000330: dc10 a53f abe9 353e c916 8e3f 184c e7be
00000340: dcfb 57be 5281 4e3f 15c6 4bbe e4e7 ed3f
00000350: b988 dbbe 8322 c6bf b83a 64be c81a 353f
00000360: 4ffe 233d 7fea a23f d143 8ebf 9f7e 01c0
00000370: 04e2 e2bf df6d 54bf 422e cabf b8e4 1840
00000380: 0f26 05be f638 53bf b05a cb3e fabb a1be
00000390: 4350 acbc 9510 5bc0 7ee3 06c0 cdfa 5e3f
000003a0: 4914 25bf 5cf6 803f 37db b93f 143f 9e3e
000003b0: 66ed 21bf 8313 9dbe c36c 0a3f 0a3f 833f
000003c0: be06 ab3e a4b1 2ac0 95aa a93f 83c3 fb3e
000003d0: a6e9 a4be 87d6 12c0 ed10 2fbf e61b 8d3f
000003e0: 465d 19bf 1d9e 113f d33f dd3e 39fa 9c3e
000003f0: bc1e 6abe d9c4 363e 2a09 873e f692 2c3e
