weights/checkpoint/example0002_warm_adam.pth (torch, 79323 bytes, 35 tensors)

a f4 [5]
00000000: cdcc 4c3e cdcc 4c3e cdcc 4c3e cdcc 4c3e
00000010: cdcc 4c3e
0.2 0.2 0.2 0.2 0.2

input_layer.weight f4 [50, 2]
00000000: f7d0 8dbf 030a 04c0 c71d 72be 44cd 773b
00000010: a13f c53f c95e 9cbd b825 f8bf d98c 373d
00000020: 10e7 f2bf 1c0b 8dbf 4775 553f 3e46 3fbf
00000030: fc0c 5940 d193 5fbf e940 a23f 0983 01bf
00000040: bf07 56bd 1169 fabf bfc0 643f a579 c03e
00000050: 4ea4 9abf 9efb c7be b77d 14c0 5a6f 8a3e
00000060: 418d 92be 1b0d 973f 1e91 07be 2c83 82bf
00000070: 7f50 0840 0fac afbe d916 82bf a16f 583f
00000080: a2f7 37bf e1f8 0b3f db30 313f 6416 84bf
00000090: c9c3 89be 9b11 23be 778d eabe 07a1 b73f
000000a0: 0d0e a6bf 66e4 c9bf 510d 523f ab0e b8bd
000000b0: 2f10 55bf f86a 7f3f da01 00bf a102 b23e
000000c0: df41 e1be aa4c e3bf 1984 92be db5f d73f
000000d0: 1c4d 973e da04 693f 511d 82bf 764f 86bf
000000e0: 14f0 74bf c8a6 80be a6e0 703f c6ba 9e3f
000000f0: 23b4 423f 8853 893f d057 843e daba c8be
00000100: 055f b9bf 6e2d 173e 18af 853e 3504 633e
00000110: f489 9a3f d545 8f3e 6edd e7bc 4bbe e73f
00000120: bdb1 6e3f d4b6 8d3f 3170 c9be 1941 52bb
00000130: 8799 c23e c53c 9e3f 793d 18bf 5107 b33e
00000140: f16a 6abf 31d4 c8bf 1799 15bd 3d30 95be
00000150: 16ee 3dbe a951 9fbf 1cb7 493f 6e29 643f
00000160: 1b9a c3be d6e6 ee3f 8d71 853f da86 9cbf
00000170: e630 433f 5846 7abf 52a1 bdbf da20 c5be
00000180: 0995 a6be 780b 2dbe de26 1c40 bf8d b3be
-1.1079396 -2.063111 -0.23644172 0.0037811557 1.5410043 -0.07635266 -1.9386511 0.044812057
-1.8976765 -1.1019015 0.83382076 -0.74716556 3.3914175 -0.87334925 1.2676059 -0.5059057
-0.05225348 -1.9563314 0.8935661 0.37592807 -1.2081392 -0.39059156 -2.320173 0.2703808
-0.28623393 1.1800874 -0.13238952 -1.019628 2.129913 -0.34310958 -1.0163223 0.8454533
-0.7186223 0.54676634 0.6921517 -1.0319333 -0.26907185 -0.15924685 -0.45811054 1.4346017
-1.2973038 -1.5772827 0.8205157 -0.08987173 -0.8322782 0.99772596 -0.50002825 0.3476763
-0.43995568 -1.7757771 -0.28616408 1.6826128 0.29551017 0.9102303 -1.0165197 -1.0493
-0.9567883 -0.25127244 0.94092786 1.2400749 0.76056117 1.0728617 0.25848246 -0.39205056
-1.4482123 0.14763424 0.26110148 0.22169574 1.207335 0.27982965 -0.028303828 1.8104948
0.9323996 1.107142 -0.39343408 -0.0032082258 0.38007757 1.2362295 -0.594688 0.3496652
-0.9156943 -1.5689756 -0.03652295 -0.29138365 -0.18547854 -1.2446796 0.7879503 0.89125717
-0.3820351 1.8664196 1.0425278 -1.2228653 0.7624649 -0.97763586 -1.4814856 -0.38501626
-0.3253558 -0.16898906 2.4398723 -0.3506908

input_layer.bias f4 [50]
00000000: 5337 1fba 74f5 eb3c eaea dc3c dcd8 e5bc
00000010: b2e2 b4bb 8b19 543c 1ba8 723c 87c8 c1bb
00000020: 028e c03b 37fc 02bc b891 9abc c1ee 023c
00000030: 49fe f83b f843 2bbc b366 aabb 256d 91bc
00000040: fbc1 0fbc ee8c 723c 1c99 a93c 9027 473c
00000050: f486 563c c47c 97bb fc0f b83c b43c 1c3c
00000060: 8d34 9dbb fe3a b63b 512a 78bc 54e0 113d
00000070: 7c82 2dbc 47c2 c33c ac23 853a 3d6b 2f3c
00000080: fe8b b3bc 043b 4cbc 9838 0abb f283 f7bb
00000090: e6a4 7bbc 7292 37bb 9ea7 243c 0bc1 6e3c
000000a0: 790e dd3b 668f 5b3b e339 c039 c13b df3c
000000b0: ce10 ca3b d8dc 033b f524 21bd 50af b63c
000000c0: b8a0 dfbc 55dd d4bc
-0.00060736126 0.028803565 0.026967485 -0.028057508 -0.0055201882 0.012945543 0.014810587 -0.0059137973
0.0058763037 -0.007994703 -0.018868312 0.007991494 0.0075986725 -0.010453217 -0.005200231 -0.01775224
-0.008774276 0.014804108 0.020702891 0.0121554285 0.013093699 -0.0046230275 0.02246856 0.009535957
-0.0047975243 0.0055612316 -0.015146808 0.035614327 -0.010590192 0.02389635 0.0010157726 0.01070672
-0.02191734 -0.012465242 -0.0021090861 -0.007553571 -0.015359139 -0.0028010872 0.010049729 0.014572392
0.00674611 0.003350222 0.00036664223 0.027250173 0.006166554 0.0020120647 -0.039341886 0.022300392
-0.027298316 -0.025984446

input_ln.weight f4 [50]
00000000: fd82 703f 1a05 7b3f 9bca 7b3f 09e2 7f3f
00000010: b529 763f db43 723f cfc1 833f 89e3 8e3f
00000020: a423 773f 49d5 7c3f 6f54 713f 41e3 7c3f
00000030: c173 883f e658 913f dc03 803f ec1c 703f
00000040: 6bd4 6e3f 0414 7b3f 7154 7b3f 80c6 803f
00000050: dea9 6f3f 9499 7e3f 9d8f 773f 7e6b 673f
00000060: 5bc5 7d3f a50a 833f 6cf4 703f f218 6d3f
00000070: 5c88 613f 3cc9 813f e89a 783f 111a 713f
00000080: c309 833f 010d 7f3f 0d27 7f3f 46b0 863f
00000090: b25d 843f 199e 713f ea48 6d3f d434 823f
000000a0: da60 803f 4386 7d3f 9da4 723f d1ec 803f
000000b0: 5909 823f d1df 7c3f fadb 803f 2bc9 813f
000000c0: af15 6c3f bb17 8d3f
0.9394987 0.9805466 0.98356026 0.9995428 0.9615739 0.9463479 1.0293521 1.1163188
0.9653876 0.9876295 0.9426946 0.9878426 1.0660325 1.1355255 1.0001178 0.9379413
0.93292874 0.98077416 0.9817572 1.0060577 0.9361857 0.9945309 0.9670351 0.90398395
0.99129266 1.0237623 0.9412296 0.9261619 0.8809869 1.0139537 0.9711137 0.941804
1.0237354 0.9962922 0.9966896 1.0522544 1.0341094 0.9438186 0.92689383 1.0172372
1.0029557 0.9903299 0.9478243 1.0072271 1.0159103 0.98779017 1.0067132 1.0139517
0.92220587 1.1022867

input_ln.bias f4 [50]
00000000: d6e1 d0bd 2270 f6bd 80e0 343e 236b efbe
00000010: 2330 aabe 1551 53bf e7a9 823e ca2d 7dbe
00000020: 4579 2d3e 69a7 4b3e a4ea 8b3e 6a00 433f
00000030: b160 d1be 253a 5cbe e58e 1ebe 2c86 943d
00000040: 3090 b93d 9bb8 c03e 964c d73e b109 363e
00000050: 289a 403e 9244 a13b d8d9 dd3e 750a e93d
00000060: a676 ca3e 30aa a73e 9dba 093d cf7c 79be
00000070: 18dd 323f e6c4 683d 3c1e d33e d0f2 bbbe
00000080: f22c 7a3c 0229 363f 5a85 13bf 1f09 febe
00000090: 9fbd b3be 5695 e83e 7a77 9b3e 611e 6bbe
000000a0: 2e73 47be e119 01bf fdb2 6fbe eda8 513e
000000b0: b862 d93d f34f c0bd 8827 2ebe 280f 1e3f
000000c0: b0cf eabe ecce cc3e
-0.10199325 -0.120331064 0.17663765 -0.46761426 -0.3323985 -0.82545596 0.2552025 -0.24724498
0.16940792 0.1988808 0.27327454 0.76172507 -0.40894082 -0.21506555 -0.15484197 0.07252154
0.09060705 0.37640843 0.42050618 0.17777134 0.18808806 0.0049215043 0.43330264 0.11378948
0.39543647 0.3274703 0.033625234 -0.24364017 0.6986861 0.056828402 0.41234004 -0.3670869
0.015269505 0.7115632 -0.57625353 -0.49616334 -0.35105607 0.45426434 0.3036459 -0.22960807
-0.19477531 -0.50430113 -0.23408122 0.20474596 0.10614532 -0.09390249 -0.17007267 0.61741877
-0.45861578 0.4000162

hidden_layers.0.weight f4 [50, 50]
00000000: e038 063e c4fd 363e bb08 793d 304d b33d
00000010: 8f99 37bd 5a9d a33e 1da9 b7bd 5907 03bd
00000020: 2c26 adbe 0a64 443e 025e 51be ddf7 a03e
00000030: d482 c4be f9fc 9dbd 7661 463d 4a1f 9e3d
00000040: c9b4 02be 360a d2bd f902 24bd 0a12 c3bd
00000050: 21dd e23d 5e3c 8cbe 8393 37be 6135 aebd
00000060: 4f6d 6cbe 294f 6f3e b94d 663e 926c 103d
00000070: 6971 153e 9798 41be 089a 95bd 5fbc 90be
00000080: 129a ebbd 01fd babe bbac 2cbe e3c1 cf3e
00000090: 8a40 07be de33 03bd 5d3f c73a e370 3ebe
000000a0: bd34 d03b b148 09bc 52d7 9a3e 3397 593d
000000b0: 53b8 173d ec21 b1bd bb11 da3e 5fd9 2f3f
000000c0: 4d4f 4fbd 0236 013e 60c0 3fbe fffd 823e
000000d0: 68c4 e7ba 671d ac3e 4078 cc3d a03c 8dbd
000000e0: 2609 cc3e f3a2 fbbd a8af 8f3d a255 84bc
000000f0: 5e20 ef3d 6ee1 dfbd 306b 8e3d 5fd7 a13c
00000100: 3d3b 203e 88ed 5d3e d2af 623d 3700 e6bd
00000110: 9136 09bd fb16 44be f349 0c3d e983 21be
00000120: d5c8 e3bd 9c3d ab3e e698 cebd 2efc bdbd
00000130: 3074 013e 6e1e b9be 49e5 6b3d f874 013e
00000140: f3bb 1fbe 8a2f 8a3d 5155 0bbe be56 a73e
00000150: 4631 ad3e 076f 4e3d 53b2 78be efb5 e83c
00000160: 4d74 74bd fd2b aebd b612 183e 06c8 30be
00000170: 8ea8 163e f332 ad3e e4de debe f5a2 37be
00000180: 0ee2 d13e 68df 863e d286 823e f765 c1bd
00000190: f917 a43e 7d1a 8fbe 1606 2c3e 9da8 36be
000001a0: 8900 94be 9f12 18be 8c3a a7be b0f2 96be
000001b0: a717 673d 3c29 54be 64c3 c0bd c055 043d
000001c0: 4090 59be 9d97 c63d ae38 afbd 702f b53d
000001d0: fad2 17be cb6d 9e3e 0e03 9dbd 4e4c 403d
000001e0: 4587 38bd 34b2 64bd 4e53 043c 7669 f5be
000001f0: 92ea 3f3e c16e f33e cba6 dabe 8b39 143e
00000200: 6ecf 40bc e685 99be 9b83 0dbe 3102 403d
00000210: 1e0b 8dbe 006d 893d 0480 8fbe 2199 553d
00000220: c933 aa3d 0582 13be bb42 fa3c 3b29 fb3d
00000230: 320c 2c3e 7bd7 edbd 3eb8 82be 4f26 883e
00000240: 5d47 87be a57c 09bc 60a4 9abd 5b8d 053f
00000250: 4106 c33e 0360 a2be 7e79 37be bf13 643b
00000260: 654c 333e a951 7f3e 22a8 12be cd63 01be
00000270: 5f50 96bc 1006 abbe d5f6 91be 6492 343d
00000280: fae1 51bd ba7a fe3b e235 a53e 2e02 033e
00000290: 09a9 20be 24ca ea3e 0258 0bbe 6070 b0bc
000002a0: 36a9 0dbe 3b36 1b3e f714 db3d 9eb5 f1bd
000002b0: fbfb 423d af08 77bb af88 96bd aa78 0fbe
000002c0: 1c45 7abd b576 a3bd d52c 183d ad81 133d
000002d0: 6283 333e 9603 0f3d 5fb1 933e e4e3 0b3e
000002e0: 3753 c5bd a36a 493e 8ec9 a63d ccb0 4dbe
000002f0: 6f83 19be 46ff c9bd c034 063d 31b2 9e3c
00000300: 5d82 333e 32fa 153c da95 36be fb88 dcbd
00000310: 583f e2bd dfb4 653d e259 963c c478 a63e
00000320: 161f 9e3e 740e 2a3d eb09 8ebc 66c0 cdbd
00000330: 9fb0 4cbd 8c8a e53d fa8a c4bd 16e7 3d3e
00000340: 3092 b0be 8e99 a1be ec3b 523e e207 fcbd
00000350: 1f5d 66bd 0ce2 4d3c 64ef 32be 506b 82be
00000360: a7aa 153e 1f2b 96be 2c0b 9dbe 2b51 dbbd
00000370: f976 2ebe ce34 08bd 3cb2 db3d 00df bdbe
00000380: d98e b63e d666 44be 44bc fd3d a699 733d
00000390: abbb 973c f595 b33c 1cea 213e 1f86 c9bd
000003a0: e11a 963e 4cb4 9d3d 2e9c 923d c6a1 52bd
000003b0: abae 31bd fbc5 60be ab0c 663e b9ab d73d
000003c0: d7e2 d1bd de76 1b3e 8e78 07be a294 583e
000003d0: 65a9 eebd 32c2 7c3e 4df3 62be b5a5 27be
000003e0: 18d1 813e 661a dabd 8766 c1bd fd11 643e
000003f0: 3d75 0e3d 7736 7fbe 32ab 813e 6a31 983d
0.13107634 0.17870241 0.06079934 0.08754957 -0.04482418 0.31955987 -0.08967803 -0.03198943
-0.33818185 0.19178787 -0.20446017 0.31439105 -0.38381064 -0.07714266 0.04843279 0.07720812
-0.12764277 -0.10255854 -0.040041897 -0.09524925 0.11077333 -0.27389807 -0.17927365 -0.08506275
-0.23088573 0.23370041 0.22490586 0.03525979 0.14594044 -0.18905865 -0.0730477 -0.28268716
-0.11503996 -0.36521152 -0.16862766 0.4057761 -0.13208213 -0.032031886 0.0015201379 -0.1859775
0.006353943 -0.008379147 0.302424 0.05312271 0.03704102 -0.08649048 0.42591652 0.68691057
-0.050612736 0.12618259 -0.18725729 0.2558441 -0.0017682435 0.33616182 0.09983873 -0.06896329
0.3985073 -0.122869395 0.07015926 -0.016154114 0.116760954 -0.10931669 0.06954038 0.019756017
0.15647598 0.21672642 0.055343457 -0.1123051 -0.033499304 -0.19149391 0.03425021 -0.15772976
-0.1112229 0.33445442 -0.10087757 -0.09276615 0.12641978 -0.36156029 0.05759171 0.12642276
-0.1559904 0.067473486 -0.13606764 0.32683367 0.33826655 0.050398853 -0.24286775 0.028407065
-0.059681226 -0.08504484 0.14850888 -0.17263803 0.14712736 0.33827934 -0.43529427 -0.17933257
0.4099278 0.2634232 0.25493485 -0.094432764 0.3204954 -0.27949896 0.16799197 -0.17837758
-0.28906658 -0.14850853 -0.32661855 -0.2948203 0.05641904 -0.20718855 -0.09412268 0.03230834
-0.21246433 0.09696887 -0.08555733 0.088469386 -0.14826575 0.3094314 -0.07666598 0.04694777
-0.045050878 -0.05583401 0.008076502 -0.47932023 0.18741825 0.47545436 -0.42705378 0.14475076
-0.011768205 -0.2998497 -0.13819735 0.04687709 -0.27547544 0.06710243 -0.28027356 0.05214799
0.083106585 -0.14405067 0.030549398 0.122637235 0.16801527 -0.11613365 -0.2553119 0.26591727
-0.26421633 -0.008391534 -0.07550883 0.52168816 0.3809071 -0.31713876 -0.1791744 0.0034801809
0.17509611 0.24933495 -0.1432195 -0.12635727 -0.01834887 -0.33403063 -0.2850863 0.04408492
-0.0512409 0.007766095 0.32267672 0.127938 -0.15689482 0.45857346 -0.13607791 -0.02153796
-0.1383408 0.15157406 0.10697358 -0.11802219 0.04760359 -0.0037694385 -0.07350289 -0.14010873
-0.061101064 -0.07981626 0.03715213 0.03601234 0.17530587 0.03491553 0.2884626 0.13661152
-0.096350126 0.19669585 0.08143912 -0.20086974 -0.14991544 -0.09863143 0.03276515 0.019372078
0.17530198 0.0091538895 -0.17830601 -0.107683145 -0.11047238 0.056080695 0.018353406 0.32514012
0.30883092 0.04151769 -0.017338714 -0.10046463 -0.049973127 0.11208066 -0.0959682 0.18545184
-0.34486532 -0.31562465 0.20530671 -0.12306191 -0.05624115 0.012566101 -0.17474133 -0.25472498
0.1461588 -0.29329774 -0.30672586 -0.10708841 -0.17037572 -0.033253483 0.10727355 -0.37084198
0.3565586 -0.19179854 0.123894244 0.059472702 0.018522104 0.021922091 0.15811962 -0.09840035
0.29317382 0.077004045 0.07158695 -0.05142381 -0.043379467 -0.21950524 0.2246577 0.105308
-0.102483444 0.15182063 -0.13229582 0.21150449 -0.11653403 0.24683455 -0.22163124 -0.16371806
0.25354838 -0.10649566 -0.09443384 0.22272487 0.034779776 -0.2492312 0.25325924 0.074313

hidden_layers.0.bias f4 [50]
00000000: 3567 013b 46c3 e03a 934b 3b3b edd8 f93b
00000010: 0cd8 97bc d68c 963c f40f 5ebc f5ad 1c3b
00000020: 312e e5bc 8311 83bc 679d 423c fa78 20ba
00000030: 055a 92bc 8ce6 b43b 9f19 433a bb46 ad3b
00000040: ea57 1abc a6e6 283c bf21 eb3b 7fe6 113c
00000050: 5a9c e0bb be5c 083b 37c2 723b c92f 84b9
00000060: 77bc a0bb 7df3 9bbc b5a7 f03b 7837 023c
00000070: 5f19 ab3c 5d04 b1bb c7d1 a0bb 053a 9f3c
00000080: 0feb 153b 96cd 133c bf23 4c3c 96b3 083b
00000090: db33 463c 8294 24bc 2d1e 8e3c 6dde d9ba
000000a0: 8102 6c3c 5833 72bb a51d 7fbc f651 7abb
000000b0: 4a78 afba edb9 a6bc c18f 0a3c c77c 0bbc
000000c0: b648 f1ba e27e 8bbb
0.0019745354 0.001714804 0.0028578981 0.0076247365 -0.018535636 0.018377703 -0.013553608 0.0023907397
-0.027976127 -0.015999561 0.011878348 -0.00061215425 -0.01786519 0.0055206474 0.00074424775 0.0052879727
-0.009420374 0.010308897 0.0071756537 0.008905052 -0.006854576 0.0020807232 0.003704203 -0.00025212605
-0.0049052793 -0.019037003 0.007344211 0.007947795 0.020886121 -0.0054021315 -0.00490782 0.019436846
0.0022875702 0.0090211835 0.012459694 0.0020858995 0.012097324 -0.010045173 0.017348373 -0.0016622074
0.014404894 -0.0036956873 -0.015571033 -0.0038195825 -0.0013387289 -0.020352328 0.008457125 -0.008513636
-0.001840851 -0.004257069

hidden_layers.1.weight f4 [50, 50]
00000000: 5966 22bd f84e 673d f2e4 16bd 64aa e7bd
00000010: a69f 023e ace7 51be 7e51 1fbd adb8 f8bd
00000020: 3a74 b5be b5b3 e33b 13bc 3cbe c213 093d
00000030: 4086 303e e59d 84bc c539 d13e 9483 0ebf
00000040: 0b16 653e 106f 3abd 27a5 a9be 695a 9a3e
00000050: e81d 6e3d 6af3 3b3e b3ea 7c3d c704 46be
00000060: b0a7 46be 9d67 89be a586 ccbb ff13 873d
00000070: bc25 2dbe 79d6 81be d056 0a3d 15b6 09be
00000080: 43ac 3e3e f594 1bbc 2fcb 48be 6f4d 8a3d
00000090: 8bec 3dbe dfd1 053e 1b9a a3bd 3a2a dcbd
000000a0: 3b6e d13d ceb1 4d3e ad11 713d d129 13be
000000b0: 827e b33d 498b 893e 799e dd3e b7c6 c73d
000000c0: a8c2 77bd f39f 00bf bd8e 6bbe 28d2 a2bd
000000d0: 41f1 1a3d 143f a8be 63e6 86bc 100c 6d3d
000000e0: 8b5a 7b3e e0c4 45be ec5e 6cbe afde ccbd
000000f0: cad5 dabd de68 1ebe c125 7abc 044c 31be
00000100: 4ca4 8e3e 18d0 34be 1826 e63d b3a5 a63c
00000110: 830b 72be a440 f2bd 1062 393e 4731 babe
00000120: 3911 0bbe 1163 2a3b 820a 253e bc41 81be
00000130: f545 203d 3d6a f53d dcf3 593e f60d f2bb
00000140: 3f78 ce3c b393 3abe bb69 263e 026a 72bd
00000150: 36f4 9abd 099c 09bd 5c40 9b3c 85b3 613e
00000160: c637 0abf 68b9 a2be 2a52 e03c 0112 aebd
00000170: 1ec0 833e e602 0fbe c5d0 933e 5d08 a4bd
00000180: 141d 573e 5f71 ebbc ad0f 7abb a547 88be
00000190: 2a94 e33d 6ecd 72be 62cc a33e 0928 95bd
000001a0: b9ed a83e aa47 54be fb39 abbc 2736 e33c
000001b0: 7ba1 013f a63e 043d e548 a7be b61f fbbc
000001c0: 7319 0a3f c4aa 983c affd 34bd 83aa 26be
000001d0: 3b6f 7a3e ea9e 853c c371 8fbe 1b7f 9abe
000001e0: a92b c1be 823f 72be 910a cbbe 0723 723e
000001f0: bbc2 05bd e387 1dbe 0d73 42be 1ce8 bd3d
00000200: 24f5 c0be e4bb 493c 7c70 2cbe e323 253e
00000210: 0a23 32be 2595 bd3e 081c 203c 2b67 793d
00000220: cb52 033e 9d60 c93d 01a8 b63d 3e4e 423e
00000230: b78f 9e3d 14f2 ba3e f6fe 63be af5e 033f
00000240: fd21 50be 390e 993e c4f4 32bd 717b b23e
00000250: a0a2 e03c 369b be3e 4c11 75be 5e91 443e
00000260: 4675 8cbe dac0 7e3e d719 d93d cc4a c33e
00000270: ecff c93c 2273 1ebe 81f9 91be 5784 2c3e
00000280: a868 90be 2afd 523e efc9 813d 2e9b f0bd
00000290: 2b73 1cbc 0869 b1bc 5b14 35bd 137d 813e
000002a0: 21b1 02bf 9241 0ebe 9b26 a6be 8b29 61be
000002b0: 722f d13d 41d6 d33d de2d 0cbd e285 233d
000002c0: 0188 0c3e 0f9d 0dbd da28 8d3d 32c0 c03d
000002d0: bca2 8d3d 0f20 f63e 4067 c8be 050f af3d
000002e0: 76bd f13c 79b9 31be 8d23 a5be b57e 45bd
000002f0: e6fb 02be 0260 133d 8704 bfbe 8a2e e2bd
00000300: 6d1b 88bd 848c c23c e958 45be da82 5f3e
00000310: b1a2 b53e 4f4d 393d 8c6c e3bd b388 c83c
00000320: c293 d23e 819d e53d 4597 853d 3720 823c
00000330: bd0e 59bd e59f 323d ea48 b6bc feb7 0d3e
00000340: 7576 74bd 012e 9f3c eeec 33bd d18f e03d
00000350: 5fd6 173e f787 c23e 7191 2bbd f1f0 833e
00000360: 31de 54bd 3925 0fbd 0e3d 8c3e 2ee3 d5be
00000370: 9de9 1bbd c4bb f53c 51e4 a2be 6eec 5abe
00000380: cb2c 0ebd 7489 15be 10e0 ab3e 76ce cb3c
00000390: d83a 95bc f482 053e 7f7d 9939 f717 fe3b
000003a0: 5440 aabd 18db 53be 55d6 39bb 6cf1 8a3c
000003b0: d9ce 4b3e c6d2 fb3d a1c2 033e f717 bfbd
000003c0: fb79 8ebd 1ed1 b03c 7755 893d b3f3 a53c
000003d0: b67e 93bd 698b 1bbe 3ca6 933d 2d9a 0c3e
000003e0: 45c8 a43e 0a48 8c3b 6929 adbd 73ed e53b
000003f0: 3bb8 fd3d 234c 253d 4378 263e 4523 203e
-0.039648388 0.056471795 -0.036839433 -0.11311796 0.12756214 -0.20498532 -0.038896076 -0.12144599
-0.35440236 0.006948913 -0.1843112 0.03346611 0.17238712 -0.016188571 0.40864387 -0.5566952
0.2237169 -0.045516074 -0.33133814 0.30147102 0.05813399 0.18354574 0.061747264 -0.1933776
-0.19399905 -0.26836863 -0.006241637 0.06595611 -0.16908926 -0.25358942 0.033774197 -0.13448365
0.186204 -0.009495963 -0.19608758 0.067530505 -0.18547265 0.1306834 -0.07988378 -0.107502416
0.10226103 0.20087358 0.058854748 -0.1437142 0.08764364 0.2686408 0.43284968 0.09754699
-0.060488373 -0.50244063 -0.23003669 -0.079502404 0.037827734 -0.32860625 -0.016467279 0.05787283
0.24546258 -0.19313383 -0.23083085 -0.10003411 -0.10685308 -0.15469691 -0.01526779 -0.17314154
0.27859724 -0.17657506 0.112377346 0.020342683 -0.23637204 -0.118287355 0.18103814 -0.3636572
-0.13580789 0.002599899 0.1611729 -0.25245464 0.039129216 0.11983154 0.21284431 -0.007386918
0.025203822 -0.18220405 0.1625127 -0.05918313 -0.07566111 -0.033596072 0.018951587 0.22041138
-0.53991354 -0.3178208 0.027382929 -0.08499528 0.2573251 -0.1396595 0.28870216 -0.08009408
0.21007186 -0.028740583 -0.0038156316 -0.2661716 0.111122444 -0.23711178 0.3199187 -0.07283027
0.32993868 -0.20730463 -0.02090167 0.027735783 0.50637025 0.03228631 -0.32672802 -0.03065477
0.5394508 0.018636115 -0.044187244 -0.16275983 0.24456494 0.016311128 -0.2801648 -0.301751
-0.37728623 -0.23657039 -0.396565 0.23646174 -0.032656413 -0.15383868 -0.18989201 0.09272787
-0.37687027 0.012312863 -0.16839784 0.16126971 -0.17396179 0.3702785 0.009772308 0.060889404
0.12824552 0.09832881 0.08918763 0.1897516 0.07742255 0.36512816 -0.22265229 0.5131635
-0.20325466 0.29893664 -0.043690458 0.34859803 0.027421296 0.37227792 -0.2393238 0.19196078
-0.27433223 0.24878255 0.10600632 0.38143003 0.024658166 -0.15473607 -0.2851067 0.16847359
-0.28204846 0.20604387 0.06337344 -0.11748348 -0.009548943 -0.021656528 -0.044208866 0.25290737
-0.5105153 -0.138922 -0.3245133 -0.21988504 0.102141276 0.103436 -0.03422343 0.039922602
0.13723756 -0.03457361 0.068925574 0.09411658 0.06915805 0.48071334 -0.39141273 0.085477866
0.029509287 -0.17355908 -0.32253686 -0.04821654 -0.12791404 0.035980232 -0.37308142 -0.11044033
-0.06645856 0.023748644 -0.19272198 0.2182726 0.35475686 0.045239743 -0.11104688 0.024479246
0.41128355 0.11211682 0.06522993 0.015884502 -0.05299257 0.04360952 -0.022251565 0.13839719
-0.059683282 0.019431116 -0.043927126 0.10964931 0.1482787 0.37994358 -0.04188675 0.2576976
-0.05196971 -0.034947608 0.2739033 -0.41774887 -0.038064588 0.02999676 -0.31814817 -0.21379253
-0.034710687 -0.14603215 0.33569384 0.024878722 -0.018216535 0.13038236 0.00029275936 0.0077543217
-0.08313051 -0.20689046 -0.0028356512 0.016960822 0.19903125 0.12296061 0.12867214 -0.09330743
-0.0695686 0.02158409 0.06705754 0.020257806 -0.072019026 -0.151899 0.07209441 0.13730688
0.32184044 0.0042810487 -0.08455164 0.0070168315 0.12388655 0.040355813 0.16256814 0.15638454

hidden_layers.1.bias f4 [50]
00000000: d34c dc3b a9fa 3fbc ee80 49bc e7b3 5fbc
00000010: ab59 2bbb 552c a8bb a02f 3cbc 76fe 2c3c
00000020: 033b 753b d1ac 21bc c234 1abc 9bb5 b43a
00000030: 7fa0 873a d398 2a3c 9fb1 00bc f8db 8dbc
00000040: 0aa6 d9ba 6599 2d3b 5f7d 663a c12f 53bb
00000050: 9319 9e3b 3e60 5aba 7b93 d83b a4c0 a03c
00000060: 4e27 6d39 3f82 32bc d207 9f3c 2eaf 003c
00000070: b29d b6bb 8b83 a83a a106 e5bb 85d6 0f3b
00000080: 52e8 893b 93cd 8abb 16df a13b df4d 2ebc
00000090: 4424 b8bb 9419 d5b9 38ab e6bb af9a 403a
000000a0: 8772 a43b c27e 95bb c007 db3b dc55 00bc
000000b0: a458 d5bb 95be b33b 716d ddbb 208d a8bb
000000c0: 27fa a8bb a618 afbb
0.0067230253 -0.011717477 -0.012298806 -0.013653732 -0.0026145976 -0.005132238 -0.011485964 0.010558715
0.0037419207 -0.009867863 -0.0094119925 0.0013787033 0.0010347514 0.010412413 -0.007854848 -0.017316803
-0.001660527 0.0026489135 0.00087924855 -0.0032224508 0.004824826 -0.0008330381 0.006609378 0.019623108
0.00022616723 -0.010895311 0.019412909 0.007854266 -0.005572998 0.0012856586 -0.0069893156 0.0021947932
0.004208603 -0.004235932 0.004939924 -0.010638683 -0.0056195576 -0.00040645583 -0.007039454 0.00073472684
0.0050185355 -0.00456223 0.0066842735 -0.0078329705 -0.006510811 0.0054853656 -0.006757431 -0.0051437765
-0.0051567736 -0.0053435145

hidden_lns.0.weight f4 [50]
00000000: 0000 803f 0000 803f 0000 803f 0000 803f
00000010: 0000 803f 0000 803f 0000 803f 0000 803f
00000020: 0000 803f 0000 803f 0000 803f 0000 803f
00000030: 0000 803f 0000 803f 0000 803f 0000 803f
00000040: 0000 803f 0000 803f 0000 803f 0000 803f
00000050: 0000 803f 0000 803f 0000 803f 0000 803f
00000060: 0000 803f 0000 803f 0000 803f 0000 803f
00000070: 0000 803f 0000 803f 0000 803f 0000 803f
00000080: 0000 803f 0000 803f 0000 803f 0000 803f
00000090: 0000 803f 0000 803f 0000 803f 0000 803f
000000a0: 0000 803f 0000 803f 0000 803f 0000 803f
000000b0: 0000 803f 0000 803f 0000 803f 0000 803f
000000c0: 0000 803f 0000 803f
1.0 1.0 1.0 1.0 1.0 1.0 1.0 1.0
1.0 1.0 1.0 1.0 1.0 1.0 1.0 1.0
1.0 1.0 1.0 1.0 1.0 1.0 1.0 1.0
1.0 1.0 1.0 1.0 1.0 1.0 1.0 1.0
1.0 1.0 1.0 1.0 1.0 1.0 1.0 1.0
1.0 1.0 1.0 1.0 1.0 1.0 1.0 1.0
1.0 1.0

hidden_lns.0.bias f4 [50]
00000000: 0000 0000 0000 0000 0000 0000 0000 0000
00000010: 0000 0000 0000 0000 0000 0000 0000 0000
00000020: 0000 0000 0000 0000 0000 0000 0000 0000
00000030: 0000 0000 0000 0000 0000 0000 0000 0000
00000040: 0000 0000 0000 0000 0000 0000 0000 0000
00000050: 0000 0000 0000 0000 0000 0000 0000 0000
00000060: 0000 0000 0000 0000 0000 0000 0000 0000
00000070: 0000 0000 0000 0000 0000 0000 0000 0000
00000080: 0000 0000 0000 0000 0000 0000 0000 0000
00000090: 0000 0000 0000 0000 0000 0000 0000 0000
000000a0: 0000 0000 0000 0000 0000 0000 0000 0000
000000b0: 0000 0000 0000 0000 0000 0000 0000 0000
000000c0: 0000 0000 0000 0000
0.0 0.0 0.0 0.0 0.0 0.0 0.0 0.0
0.0 0.0 0.0 0.0 0.0 0.0 0.0 0.0
0.0 0.0 0.0 0.0 0.0 0.0 0.0 0.0
0.0 0.0 0.0 0.0 0.0 0.0 0.0 0.0
0.0 0.0 0.0 0.0 0.0 0.0 0.0 0.0
0.0 0.0 0.0 0.0 0.0 0.0 0.0 0.0
0.0 0.0

hidden_lns.1.weight f4 [50]
00000000: 0000 803f 0000 803f 0000 803f 0000 803f
00000010: 0000 803f 0000 803f 0000 803f 0000 803f
00000020: 0000 803f 0000 803f 0000 803f 0000 803f
00000030: 0000 803f 0000 803f 0000 803f 0000 803f
00000040: 0000 803f 0000 803f 0000 803f 0000 803f
00000050: 0000 803f 0000 803f 0000 803f 0000 803f
00000060: 0000 803f 0000 803f 0000 803f 0000 803f
00000070: 0000 803f 0000 803f 0000 803f 0000 803f
00000080: 0000 803f 0000 803f 0000 803f 0000 803f
00000090: 0000 803f 0000 803f 0000 803f 0000 803f
000000a0: 0000 803f 0000 803f 0000 803f 0000 803f
000000b0: 0000 803f 0000 803f 0000 803f 0000 803f
000000c0: 0000 803f 0000 803f
1.0 1.0 1.0 1.0 1.0 1.0 1.0 1.0
1.0 1.0 1.0 1.0 1.0 1.0 1.0 1.0
1.0 1.0 1.0 1.0 1.0 1.0 1.0 1.0
1.0 1.0 1.0 1.0 1.0 1.0 1.0 1.0
1.0 1.0 1.0 1.0 1.0 1.0 1.0 1.0
1.0 1.0 1.0 1.0 1.0 1.0 1.0 1.0
1.0 1.0

hidden_lns.1.bias f4 [50]
00000000: 0000 0000 0000 0000 0000 0000 0000 0000
00000010: 0000 0000 0000 0000 0000 0000 0000 0000
00000020: 0000 0000 0000 0000 0000 0000 0000 0000
00000030: 0000 0000 0000 0000 0000 0000 0000 0000
00000040: 0000 0000 0000 0000 0000 0000 0000 0000
00000050: 0000 0000 0000 0000 0000 0000 0000 0000
00000060: 0000 0000 0000 0000 0000 0000 0000 0000
00000070: 0000 0000 0000 0000 0000 0000 0000 0000
00000080: 0000 0000 0000 0000 0000 0000 0000 0000
00000090: 0000 0000 0000 0000 0000 0000 0000 0000
000000a0: 0000 0000 0000 0000 0000 0000 0000 0000
000000b0: 0000 0000 0000 0000 0000 0000 0000 0000
000000c0: 0000 0000 0000 0000
0.0 0.0 0.0 0.0 0.0 0.0 0.0 0.0
0.0 0.0 0.0 0.0 0.0 0.0 0.0 0.0
0.0 0.0 0.0 0.0 0.0 0.0 0.0 0.0
0.0 0.0 0.0 0.0 0.0 0.0 0.0 0.0
0.0 0.0 0.0 0.0 0.0 0.0 0.0 0.0
0.0 0.0 0.0 0.0 0.0 0.0 0.0 0.0
0.0 0.0

output_layer.weight f4 [2, 50]
00000000: 1858 983d 71dd 38be c078 92be faa6 d6bd
00000010: c64d 06be ab3f dabd 7586 2cbe fdfb 823c
00000020: 7ec7 873c db9a fdbe 0a32 2bbe bade c4bb
00000030: f828 9e3c 18e4 993e 6d8c a1bd 972a 883d
00000040: ba79 6b3c 64d5 a2bc 82c1 aabc 389c e8bd
00000050: f4bb 2b3f 5dae 88bd 87a9 dc3d 2f62 c73e
00000060: 240a 4e3e 9020 1dbc 4ec9 8b3e b9e1 543e
00000070: 3ac8 2f3d fef4 233c 74d5 7dbd 82cc 14bc
00000080: c02c e13b 1344 48bd b057 043e 3d46 84be
00000090: 43ea b7bd 277e 7ebe 96cc 03be 129f ac3d
000000a0: 7db2 913d fc1d 7ebe 692e cc3d c749 48bc
000000b0: f608 c83d 3554 8f3d 014a 17be 5edf bebd
000000c0: a151 f2bd 74c8 d23d 3e98 f4bd 74e2 a23b
000000d0: 762d fdbd 550e 8abd ba6e b13d 57f4 d6bc
000000e0: e693 d1be 5439 d5be d5f1 913e 4ee0 433e
000000f0: 3dcf b9be 6945 eebd c64b 5b3e d182 0ebd
00000100: e89c bd3d bfe2 a13e cb87 e3bd 0faa 173e
00000110: becf e43d 140f ccbc 3675 9b3e f362 05be
00000120: 355a e33c e582 b9be ed12 d8bd 3574 0d3e
00000130: 400d 31be 6462 4c3c 8ab3 1cbe 7c67 e3bd
00000140: 35a9 94be 2b97 b3bd 5214 cdbd 928e 943d
00000150: 96c2 9a3d 2f41 023f 6d21 37bd 0f57 863e
00000160: 4a06 52bd 0502 4b3e 77a4 81bd d05d 84bd
00000170: f97a 9a3d 44aa 12be 2d3a 8fbe 1420 4e3e
00000180: 3261 4e3c d06e 643e 4d42 123e c7e2 48be
0.074386775 -0.18053223 -0.2860775 -0.10481067 -0.13115606 -0.10656675 -0.16848166 0.015989298
0.016574617 -0.49532208 -0.16718307 -0.0060079964 0.019306645 0.30056834 -0.07888112 0.06648748
0.014372284 -0.019877143 -0.020844225 -0.11357921 0.6708367 -0.06673882 0.10774522 0.38942096
0.20121056 -0.009590283 0.2730202 0.20789231 0.04291556 0.010007141 -0.061971143 -0.009081962
0.0068717897 -0.048893046 0.12924075 -0.25834838 -0.08980229 -0.24852811 -0.12871012 0.08428778
0.07114122 -0.24816126 0.099697895 -0.012224621 0.09767334 0.06998483 -0.14774324 -0.09319948
-0.11831976 0.1029214 -0.119431004 0.004970843 -0.123621866 -0.06741015 0.086636975 -0.026239557
-0.4093315 -0.416453 0.28504816 0.19128534 -0.36290923 -0.11634333 0.21415624 -0.034792725
0.09258443 0.31618306 -0.11109885 0.14810966 0.11172436 -0.024909534 0.30362862 -0.13026027
0.027752975 -0.36232677 -0.10550485 0.1381386 -0.1729021 0.01247463 -0.15302864 -0.111037225
-0.29035345 -0.087690674 -0.100136414 0.07253756 0.075566456 0.5088071 -0.04470961 0.26238295
-0.05127553 0.19824989 -0.06330197 -0.06463206 0.075429864 -0.14322764 -0.27974072 0.20129424
0.012596415 0.22307897 0.14283104 -0.19617759

output_layer.bias f4 [2]
00000000: 5540 d83b 78f3 ceba
0.006599466 -0.0015789112

exp_avg f4 [50, 2]
00000000: cfa8 edbe 63ad de3c 6088 0340 197c 83bf
00000010: 17a8 bc3e a588 7e3d 8ab6 2fbd e73a 3c3e
00000020: 1bf9 debe 2ee8 dbbd e6e3 f93f 74c7 743f
00000030: dc46 f63c d937 08be 39f6 2d3e 530c 4c3e
00000040: 3fb4 33bf 7d0d 013e a85b 13bf b41f 41be
00000050: 5cca 1bbf e769 30ba 8500 c93e 5a10 87be
00000060: 8842 c13e 22c7 a0be a868 9fbf f778 ca3e
00000070: ccc5 6ebe 8901 71be bc95 4abf 1b96 eebe
00000080: b768 123f ad72 c23e 2348 a3bf b4a8 a2be
00000090: 325f 89be 0dcf 88bd 9c9c 5cbd 56aa 6d3e
000000a0: b20e a33e f57c a2bd f3a9 86bd c054 e13e
000000b0: 2da7 a93f d506 fd3e a8cc 373d ddf8 0cbf
000000c0: 76e3 88bf f9d4 873e 6e7e 1cbf b5e2 85be
000000d0: a7fc 88bf 4a0b 5abe 487b 193e be07 bf3e
000000e0: 7b93 bcbf b6f0 313e 7d18 0b3f a7c9 3bbf
000000f0: e050 88be b464 d8bd a44a 6e3f 37f8 8ebf
00000100: 6719 1cbe ad36 0640 64a6 2e3d 2b57 253e
00000110: 65e2 8d3f 3fae 39be eae8 f9be 7b9e 84be
00000120: b572 bdbf cacf f93e 59dc 27be a209 bd3d
00000130: 3b28 f5be 0b1e 6c3e eb65 913f 3142 cbbc
00000140: e82b 203e 8cce 4b3e 2ded 203f 4864 183e
00000150: b6d5 4cbe 9659 2bbf df33 9c3f be15 903d
00000160: 08e8 4c3e ec51 09be c605 8e3f 9810 653f
00000170: 529c 5abf 3dcf 4ebf 774f 573e 0b9a 0ebf
00000180: 1102 523e 702b ac3e 165d 36be ed77 59be
-0.46417853 0.027182287 2.0551987 -1.0272247 0.36846992 0.062142033 -0.042898692 0.18381844
-0.43549427 -0.10737644 1.9522674 0.9561684 0.030063085 -0.13302554 0.16988458 0.19926576
-0.7019691 0.12602802 -0.5756173 -0.1885975 -0.6085565 -0.0006729648 0.3925821 -0.26379663
0.37746072 -0.31401926 -1.2453814 0.39545414 -0.23317641 -0.23535742 -0.79134727 -0.46598896
0.5719103 0.37978116 -1.2756389 -0.31769335 -0.2683044 -0.06680117 -0.05386029 0.23209509
0.3184715 -0.0793399 -0.06575384 0.44009972 1.3254143 0.49419275 0.04487291 -0.55067235
-1.0694416 0.26529673 -0.61130416 -0.26149526 -1.0702103 -0.21293369 0.14988434 0.37310594
-1.4732507 0.1737698 0.5433424 -0.7335457 -0.26624203 -0.105660826 0.9308264 -1.1169499
-0.15244065 2.0970871 0.04263915 0.16146533 1.1084715 -0.18132876 -0.48810512 -0.2590216
-1.4800631 0.48791343 -0.1639265 0.09230353 -0.47882256 0.23058335 1.1359228 -0.024811836
0.15641749 0.1990301 0.628619 0.14882004 -0.20003399 -0.6693357 1.220333 0.07035397
0.20010388 -0.13410157 1.1095512 0.89478445 -0.85394776 -0.8078497 0.21026407 -0.557038
0.20508601 0.3362689 -0.17808947 -0.21237154

exp_avg_sq f4 [50, 2]
00000000: e87a 033f 3848 103e 5d33 a33f c7fd 4f3e
00000010: b5ed 5f3e adb4 a33e 9c4a 2f3e 5f9e a83e
00000020: feff 5d3e ef4e 033f b9cc 4740 3878 043f
00000030: 64b3 e43b 96c3 6d3e d21d 873d 8caa 3c3e
00000040: 8b5a 103e d16a 9c3d 33ba 713f b5d2 e73d
00000050: cc63 fc3e 4e37 473e ac14 873f e199 0840
00000060: 9300 ba3e aee0 2b3e 98be 1c40 8f77 213f
00000070: 3528 133e 66c8 063f 5a74 e63f f434 be3e
00000080: 2c98 503e e64f 913d ffb6 103f 7972 913d
00000090: 23c0 c23e 6c54 683e f7ea 813d db25 853d
000000a0: bb36 243f 1dee 803f a657 753d 831b 3d3e
000000b0: 26da f33f a3ba 543e 3513 073e 77c7 2a3e
000000c0: 9347 a63e 77a7 e03d c291 f43e 1245 093e
000000d0: 647f 203e 9af3 0b3e efc0 b73f 9d98 cb3e
000000e0: 5264 483f 62d7 5f3d 4371 543d aad9 e93d
000000f0: 8406 563e 0aa6 6a3e 68eb 2c3e de33 bc3d
00000100: d599 763d 4a75 233f cb55 5b3f 2a3a 553f
00000110: a937 0e3f 188f 123f f5ee 8a3f e54e 8c3d
00000120: d3ff 0140 e1bf 323f 8c0e 393e a3d2 1c3e
00000130: 4738 4b3e 41ea 393d 04f6 1b3f c64c 903e
00000140: 51bd 133e 2fec 563d 7bb6 a53f 897d 573e
00000150: a316 0940 002f 5340 29f9 e73f 5c93 1d3e
00000160: f8e9 8d3e 4fe5 d13d 44ce f13f 2f76 853f
00000170: 89ab f13f 9c5b 673e 5125 a63d cbb8 b33e
00000180: b9fa 203e b279 8e3d 29eb 873e e24d df3d
0.51359415 0.1409005 1.275005 0.20311652 0.21868022 0.31973782 0.17118305 0.32933328
0.21679685 0.5129232 3.1218703 0.5174594 0.006979393 0.23219141 0.06597485 0.18424433
0.1409704 0.07637561 0.9442474 0.11319486 0.4929489 0.19454691 1.0553184 2.134392
0.36328563 0.16784927 2.449133 0.63073057 0.14370807 0.52649534 1.8004258 0.37149775
0.20370549 0.070953175 0.5652923 0.07101912 0.38037214 0.22688454 0.06343644 0.06501361
0.6414601 1.0072666 0.05989804 0.18467526 1.9050949 0.20774321 0.1319092 0.16677652
0.32476482 0.109694414 0.47767454 0.13405254 0.15673596 0.13667145 1.4355754 0.39764872
0.78278077 0.054648764 0.051865827 0.11418469 0.20900923 0.22914901 0.16886675 0.091895804
0.0602053 0.63850844 0.85677785 0.83291876 0.5555368 0.57249594 1.0854174 0.068509854
2.0312393 0.69824034 0.18071955 0.15314727 0.19845687 0.045389418 0.60922265 0.28183573
0.14427687 0.052471336 1.2946314 0.21043982 2.1420066 3.2997437 1.8122913 0.15388244
0.27717566 0.10248815 1.8891072 1.0426692 1.8880473 0.2259354 0.08112586 0.35101923
0.15720643 0.06956805 0.265466 0.10903527

exp_avg f4 [50]
00000000: 0725 0140 4822 9bc0 e16b 6ac0 17ec b140
00000010: 3d3c 6040 a97f 9ac0 ac38 55bf 9b2a c43f
00000020: 6b6e bf3e 035f 7b40 106f b940 416f f9be
00000030: 9136 673d ce22 cc3f 9b66 cd3f f689 c540
00000040: 0a28 f93e 00a0 3940 4208 7bc0 8a97 bdbe
00000050: b1c4 26c0 4ea6 8dc0 683d 88c0 c77b 2ec0
00000060: 673c 4d40 cd01 5f40 247f d43f bd8e 96c0
00000070: b720 2a40 77c5 d3bf 56d5 73be 1190 903f
00000080: 5b47 5c40 d4af 83bf c54f d33f e4ff f93f
00000090: 7a4e 3940 c8f7 60bf 53e1 7ebf e7ed 6ac0
000000a0: 9ada 03c0 909e c2c0 37f8 8240 5522 e6c0
000000b0: 55ca 0dc0 3acd 88c0 55e6 8f40 f1bf d5bf
000000c0: ca09 a53e fe52 4740
2.017885 -4.8479347 -3.6628344 5.5600696 3.5036767 -4.8280835 -0.832896 1.5325502
0.3738893 3.927674 5.7948074 -0.48717692 0.056448523 1.5948122 1.6046938 6.173091
0.4866336 2.9003906 -3.922379 -0.37029678 -2.605755 -4.426551 -4.257496 -2.7263048
3.2068117 3.484485 1.66013 -4.704924 2.6582468 -1.6544636 -0.2381185 1.1293966
3.4418552 -1.0288033 1.6508719 1.9531217 2.8954148 -0.87878084 -0.9956257 -3.6707704
-2.0602174 -6.081856 4.0927997 -7.191691 -2.2154744 -4.275052 4.4968667 -1.6699201
0.3223403 3.1144404

exp_avg_sq f4 [50]
00000000: ba6e 703f 140e 5b40 f5dc 5a3f 08e3 3e40
00000010: e926 1040 8ff4 0841 db15 a83f 3e6b 8b40
00000020: 7819 813f d157 4b3f d918 9940 027b 9540
00000030: eb1f 0340 225e a941 b580 903f d064 6440
00000040: 0530 5e40 af96 b240 6a42 ec3f 4958 373f
00000050: 9804 cc3f 678a e83f 9d19 6440 c1f0 ca3f
00000060: ef12 a13f 36ed b83f f312 853f e86f 933f
00000070: af15 0c40 4ba2 2d3e 8638 993f 49df b640
00000080: ad1b e840 76f7 b240 92fc a93f ca2d 103f
00000090: f093 8c40 1479 ef40 8786 2240 66e8 f33f
000000a0: 6257 7b3e 3033 6b40 3788 7e41 4310 2540
000000b0: 6359 2440 76ec 0c40 a2e7 d43f fee4 7d3f
000000c0: a2f1 5f3f f626 3940
0.93918955 3.4227343 0.85493404 2.982607 2.252375 8.559707 1.313167 4.356841
1.0085897 0.7943087 4.784283 4.6712656 2.048823 21.170963 1.1289278 3.568653
3.4716809 5.580894 1.8457768 0.7161909 1.5938902 1.8167237 3.5640633 1.5854722
1.2583903 1.4447391 1.0396408 1.1518526 2.1888235 0.16956441 1.1970375 5.7147565
7.2533784 5.5927076 1.3280203 0.5631987 4.393059 7.48353 2.539461 1.9055297
0.24545053 3.6749992 15.908256 2.5791175 2.5679557 2.2019324 1.6633189 0.9917754
0.8747808 2.893003

exp_avg f4 [50]
00000000: 178f 333f 842b 09bf 8ae5 023f 8639 e23e
00000010: baaf ac3f 5f71 813f 7071 133f 20e5 943d
00000020: d6d4 47be 4979 1ebf eadd 683f 71f1 b8be
00000030: 0a24 89be 1237 6bbe c571 c1be a70f 1f3f
00000040: d037 ff3b 592c 1abf 84e2 8a3d 7cd9 243f
00000050: 014f c6bd d5a8 39bd a4e1 a3be f100 1abe
00000060: cb60 253d 44ee 683d ec20 02bf 17ca febe
00000070: 5f22 d63f 3c93 adbe 1656 81be d69c 2c3f
00000080: 499c 643f 3b9f b13d 397c a53f 4bf3 42be
00000090: 6704 43bf 1ffa 0f3e f386 803e aa74 0cbf
000000a0: 9ef4 9bbe a49c 10bc 3451 603f d4e9 813f
000000b0: ba04 f83c 3432 063e 1bec 9bbd cc16 0e3e
000000c0: f521 82bd 53f7 8bbe
0.7014021 -0.53582025 0.511315 0.44184512 1.3491127 1.0112723 0.57594967 0.072702646
-0.19514784 -0.61903816 0.90963614 -0.36121705 -0.26785308 -0.22970226 -0.37782112 0.6213326
0.007788636 -0.6022392 0.06781486 0.64394355 -0.096830375 -0.045327026 -0.32008088 -0.15039422
0.040375512 0.056867853 -0.50831485 -0.49763557 1.6729239 -0.33901393 -0.2526099 0.6742681
0.8930097 0.08672949 1.2928535 -0.19038121 -0.7617859 0.14060257 0.25102958 -0.54865515
-0.30460066 -0.008826409 0.87623906 1.0149484 0.030275691 0.13105088 -0.07613393 0.13875884
-0.06354133 -0.2733713

exp_avg_sq f4 [50]
00000000: 81d5 9a3e 543f 903d b1d8 cf3e 88e9 b33f
00000010: 22cd bb3e 02bf 2840 20b0 603d d26d ed3c
00000020: 09a6 9e3c e1f1 583f 516a 7b3f 8b57 d73e
00000030: 2367 d93d 7e51 023e 3558 5c3e 6812 863f
00000040: ac19 943d 63d6 e93d bc2b a93c c83e 063e
00000050: 319d 063e 4e64 893d ef41 263f 8d6c ac3d
00000060: e35c 913d 338c a43d 2abb c33d 9887 f33e
00000070: 9d14 223f cb5a 873d f43a 6a3e 95aa 043d
00000080: ff4c 5d3e 3d8f cb3d d4d9 ae3e 7a7d b33d
00000090: 2416 ef3e cf10 d53d 1743 963d b5eb 813e
000000a0: 13ba 113d 1c57 463e 7a89 a73e 2e60 503f
000000b0: 812d fe3c e601 1b3e 6f24 f83e ac15 a43e
000000c0: b1fe 883c 5e41 fa3e
0.30241016 0.07043329 0.4059501 1.4055643 0.3667994 2.6366582 0.054855466 0.02898303
0.019366281 0.8474408 0.982091 0.42058977 0.10615375 0.127264 0.21518023 1.0474367
0.07231459 0.11417844 0.020650737 0.13109887 0.13145901 0.06708585 0.64944357 0.08419142
0.07097795 0.080345534 0.09557183 0.47564387 0.63312703 0.06609114 0.22874051 0.032389242
0.21611403 0.0993943 0.34150565 0.08764167 0.4669658 0.104035966 0.07337015 0.25375143
0.035577845 0.19369167 0.32722074 0.8139676 0.031027557 0.15137443 0.48465297 0.32047784
0.016723009 0.48877996

exp_avg f4 [50]
00000000: 321c d0bf 2b47 0c40 9ee7 1cbf 7d82 e43f
00000010: efff de3f 208f 453f 551f 20bf e630 0c3f
00000020: 4edc 563e 9e42 233f b5fd ac3f 3b48 8fbe
00000030: aa15 eb3f 6fc4 39c0 ba77 123e b3fe 8a3e
00000040: 1941 a93d d8bf d63e fd6e b9bf 305c a7bf
00000050: f506 8a3f 772c 15c0 8862 753f ee17 9a3e
00000060: 0f20 41be bdc7 933e c860 f2be fdbc 013f
00000070: 81de 98bf 7b27 0c3f 67aa a7bf 43b0 b53f
00000080: 69da c33f 6ed5 d9bf 5214 eb3f 7d74 6abf
00000090: 59de 34c0 cbe5 8e3e e88a 5dbf 10b5 433e
000000a0: 6910 04bf 3b04 80bf ea77 423f 90ee d5bf
000000b0: 6770 5cbd d501 ec3f 86ce 0cbf c9ba 03bf
000000c0: c86d ff3e f113 9f3f
-1.6258605 2.1918437 -0.6129092 1.7852322 1.7421855 0.77171516 -0.6254781 0.54762113
0.20982477 0.63773525 1.3514925 -0.27984795 1.8365986 -2.9026144 0.14303485 0.27147445
0.082643695 0.4194324 -1.4486996 -1.3075008 1.0783373 -2.330839 0.9585347 0.30096382
-0.18859886 0.28863326 -0.47339463 0.50679 -1.1942903 0.5474774 -1.3098878 1.4194416
1.5301028 -1.7018259 1.8365576 -0.91583997 -2.826071 0.27909693 -0.8654008 0.19112039
-0.5158754 -1.0001291 0.75964224 -1.6713428 -0.053818133 1.8438059 -0.5500263 -0.51456887
0.49888444 1.2427961

exp_avg_sq f4 [50]
00000000: cf03 e63e 468c 153f c49d e13e 7ae4 8d3f
00000010: d518 163f d2b7 2e41 d50c 973e a6cb b13e
00000020: eb14 b43e 33df ce3e e8b2 193f 00dc 1441
00000030: a83c 5740 74f1 e63f f970 d33e 3c0e c33e
00000040: 8cc1 e73f 07f8 ac40 c2d4 e23e 2fb3 833e
00000050: feb8 343f 363a 0b3f 63c6 ff3f 9380 1a3f
00000060: 9998 b23f ea84 323f 872e 943d 76f4 903e
00000070: 649b ff40 1ac2 093d 62d7 2840 69ff 3940
00000080: a3a6 ff3f d12f 0841 91ae 8f40 e7f4 1340
00000090: 7fc1 4d3f 12f1 da3f 341f 4b3f 1da5 e83f
000000a0: f3f9 713e c527 9740 5c8a 4840 bdd0 503f
000000b0: 89af fa3e 2c8b 883f 9139 d33e 9ba1 9f3f
000000c0: 0d77 783f b12a 6940
0.4492478 0.58417165 0.44065678 1.108535 0.5863164 10.919878 0.29501978 0.34725684
0.3517221 0.40404662 0.60038614 9.303711 3.3630772 1.8042436 0.4129713 0.38096797
1.8105941 5.405277 0.44302946 0.25722644 0.70594776 0.543857 1.9982418 0.6035244
1.3952819 0.6973406 0.07235437 0.2831151 7.9877186 0.033632375 2.638146 2.906214
1.9972728 8.511674 4.4900594 2.3118227 0.80373377 1.7104819 0.7934449 1.8175389
0.23630504 4.7236047 3.1334448 0.8156851 0.48962048 1.0667472 0.41254857 1.2471193
0.9705666 3.6432307

exp_avg f4 [50, 50]
00000000: 50bf d63e 7453 80bd 6412 723d 963d c3bd
00000010: 6586 603d d8dc c2be a14f 013e 013c 363c
00000020: 37fc 033f 8775 373d c220 af3e 38c7 523d
00000030: 6902 09bf 2159 3c3c dfee 3a3d 8811 f2bd
00000040: 7743 9ebd 5d99 c33e dadb 143f fcba e3bd
00000050: 82e9 313f ef57 a8bd 9d50 203d b7c5 493d
00000060: 60aa 573f 8430 1fbd f46f 98be a6d2 bc3d
00000070: 5855 333f 1c6a a0be b6fa 343e 0ad1 8cbe
00000080: 3cd1 3ebd 6e1b 2a3f b9af 0ebf 2bc4 3fbf
00000090: 52a1 58bf eb0a fb3e bbae 543d fb6a 6fbe
000000a0: d6ef 513e 60f0 0dbf 27c7 483d 36df 21bd
000000b0: 1311 4cbe 6039 da3d 9ed4 8e3c 2056 043f
000000c0: 3a2f 12bf 37f2 843d 5381 c93e dac1 3f3d
000000d0: e102 8dbd d3e1 9ebe dbdd c13e c457 c7be
000000e0: d2d6 093d c0d6 b5be 765f 113e 09d9 21be
000000f0: d444 1f3f 36ba 8e3f df70 6bbd 66fa 633e
00000100: 7303 02bf 3238 a0bd cead 90bc fb3d 203e
00000110: cd61 cd3e 8df2 4dbe fc94 d63e 518f 8cbe
00000120: 878d 86bd 576d bb3d 9117 0c3e d1f9 85be
00000130: fc9b 8fbe 09e7 c13e 2bf5 383f 730c c4be
00000140: 22d0 a6be f92b fbbd c814 573e 653f 813e
00000150: e667 5cbf 5b37 1abd 9c52 d6be 2ec1 b63e
00000160: 58c0 98be ee5a c8bd 70dc ca3e c3c1 8bbe
00000170: 6bdc 8b3e 08c7 a2be fd97 45be 5ba7 f63d
00000180: a008 873c 3e48 823f dc7b a0be 3c0d c83d
00000190: 7201 d3be 0542 053e cd85 e0be 54bd 033f
000001a0: 2863 043e 8fee 13be 1f29 27bf 0eea f1be
000001b0: 8a7e 26bf 486a 16be 2faa cc3d eb3e c93e
000001c0: ea18 233f 8184 b0be cb0d 04bf 277f 093f
000001d0: 74df d13e 6a52 1cbf ed10 29be cbad 123f
000001e0: 164d a6be c625 88be 9753 e43e 85e5 873e
000001f0: a5fa 21bf 4316 0c3f ec4c ac3e 9742 9dbd
00000200: 67f6 e4bd 6a20 833e 2e28 bd3d ce3b b8bd
00000210: fb80 e93e 493c 74be 4dd6 80bc a197 363f
00000220: 53d9 b73e 5694 85bd 8e16 913e c3f8 db3e
00000230: ad99 99be 3a51 003e 871e b5be 9333 d43d
00000240: b1f4 213f 18da 17bf 8360 febe 3baf 933d
00000250: 74d3 7f3e b3f2 19bf 1b84 8b3e 49eb d13d
00000260: 532d cfbe e510 e83e 6963 f13e 814b bd3c
00000270: 0b13 ccbe 3760 86be b335 4f3d 2dec a4be
00000280: 5824 9f3e 3335 8f3e 4889 a33d e5db b03d
00000290: 7901 bebe ed11 393e 1486 083e 2537 5bbe
000002a0: 8f3c 933c 441b 503d 10f0 c83e 94db 88be
000002b0: 25c5 233d 108f ce3d a9f2 403e 9ee1 c33b
000002c0: 1a87 1abe eef7 a13e 2aac db3d f206 9fbe
000002d0: 00e6 6ebe ac3c 833c d957 ae3e 3939 3dbe
000002e0: ea14 87be c509 36bd de24 b3be 12f3 503c
000002f0: 2374 10be a375 563e 6ce5 833e fd55 c93d
00000300: bd9f cf3d 7d5e 90be 4ccf 293d 1a87 37be
00000310: 8be5 00be 50a4 983e 961a 1d3e 550c e3be
00000320: b20d f5bf aed0 00bf a73d 0340 12b1 ffbf
00000330: 4b24 1fc0 78f9 4a3f 0e05 0540 3a8f ee3f
00000340: 2a3c 1bbf cebc cf3f 9256 0bc0 f0a3 1dc0
00000350: 125c d9bd 3df7 e3be 0454 1440 9f1c 96bf
00000360: 2bd6 62bf 804d 5a3f 80b1 4dbf 8502 a3be
00000370: ee99 1fc0 9d3c d33f 0a16 2ebf cb7b 42bf
00000380: b1de b7bf 5870 6abd a78a 823f 3e0a eabf
00000390: b163 cdbf 0c45 f73f 873c 9f3f a4af cd3e
000003a0: 97a3 fdbf 34aa 2f3e e95f 1140 2432 263f
000003b0: ed67 1740 a35f 48bf 7ecd 493f 5b63 6abf
000003c0: ef6c d6bf 58e6 513e 2d48 14bf 7023 c83f
000003d0: 26e7 0bbe 9930 9b3f a71c 813f 0ccf 20c0
000003e0: ba29 c3bd d9e8 0940 514e 25bf e2c6 9ebe
000003f0: 3117 813f 6daf f6be 4ae3 5dbf c7de 8c3f
0.41942835 -0.062659174 0.05909957 -0.09533231 0.05481567 -0.38059115 0.12628032 0.0111227045
0.51556724 0.044789817 0.3420468 0.05145952 -0.535193 0.011495859 0.04563796 -0.1181975
-0.07727712 0.38202944 0.58147967 -0.11119649 0.6949693 -0.08219897 0.03913938 0.04926082
0.84244347 -0.038864627 -0.29772913 0.092198655 0.700521 -0.31330955 0.17673764 -0.27503234
-0.04658626 0.66448104 -0.5573688 -0.74908704 -0.84621155 0.49031767 0.05192445 -0.23380654
0.20501646 -0.5544491 0.04901805 -0.03951951 -0.19928388 0.10655475 0.017435368 0.51693916
-0.5710331 0.06491511 0.3935648 0.04681573 -0.06885315 -0.31031665 0.37864575 -0.38934147
0.033652134 -0.35515404 0.14196572 -0.15805449 0.622144 1.1150577 -0.05748069 0.22263488
-0.50786513 -0.078232184 -0.017661002 0.15648644 0.4011368 -0.20112057 0.4191054 -0.27453092
-0.06569963 0.09151714 0.13680865 -0.26167157 -0.28048694 0.37871578 0.72249097 -0.38290748
-0.32580668 -0.122642465 0.21004021 0.2524368 -0.86096036 -0.037650447 -0.418599 0.3569426
-0.29834247 -0.097829685 0.39621305 -0.27296266 0.27316603 -0.31792474 -0.1929626 0.12043639
0.016483605 1.0178297 -0.31344497 0.09768149 -0.4121204 0.13013466 -0.43852082 0.51460767
0.1292845 -0.14446472 -0.6529712 -0.47248882 -0.65036833 -0.1468898 0.099933974 0.39305815
0.6370989 -0.34476092 -0.51583546 0.53709644 0.40990794 -0.61063254 -0.16510363 0.5729644
-0.32480687 -0.2659132 0.44595024 0.26542297 -0.6327308 0.5472147 0.33652437 -0.07678717
-0.1117981 0.25610667 0.09236179 -0.08995782 0.45606217 -0.23851122 -0.015727187 0.7132512
0.35907993 -0.065224335 0.2833752 0.42963228 -0.30000058 0.12530985 -0.35374853 0.103613995
0.63263994 -0.5931716 -0.49683008 0.07211157 0.24983007 -0.60135955 0.27249226 0.10249955
-0.40464267 0.4532539 0.47146156 0.023107292 -0.3985828 -0.2624528 0.05058832 -0.32211438
0.31082416 0.27970275 0.07985169 0.086356916 -0.371105 0.18073244 0.13332397 -0.21407755
0.017973213 0.050807253 0.39245653 -0.26730025 0.039982934 0.10085881 0.18842568 0.0059778234
-0.150906 0.31634468 0.10726197 -0.31059986 -0.23329926 0.016020142 0.34051397 -0.1847886
-0.26383144 -0.04444291 -0.34989065 0.012753265 -0.14106803 0.20943312 0.25760972 0.09830854
0.101378895 -0.2819709 0.04145746 -0.17922631 -0.12587564 0.2981286 0.15342173 -0.44345346
-1.9144804 -0.5031842 2.050638 -1.9975913 -2.4865901 0.7928691 2.0784335 1.8637459
-0.6063868 1.6229494 -2.1771588 -2.463131 -0.10613264 -0.44524565 2.317628 -1.1727484
-0.88608044 0.85274506 -0.8034897 -0.3183786 -2.4937701 1.6502873 -0.6800238 -0.75970143
-1.4364835 -0.057236046 1.0198563 -1.8284376 -1.6046048 1.9317946 1.2440346 0.40173066
-1.9815549 0.17154771 2.271479 0.6492026 2.3657181 -0.7827093 0.7882918 -0.91557854
-1.6751994 0.20498025 -0.5792263 1.5635815 -0.13662395 1.2124206 1.0086869 -2.5126371
-0.09529443 2.154837 -0.64572626 -0.3101111 1.0085202 -0.48180714 -0.8667494 1.1005486
