weights/checkpoint/example0005_train_adam.pth (torch, 73855 bytes, 25 tensors)

a f4 [5]
000000 cd cc 4c 3e cd cc 4c 3e cd cc 4c 3e cd cc 4c 3e
       0.2 0.2 0.2 0.2
000010 cd cc 4c 3e
       0.2

input_layer.weight f4 [50, 2]
000000 f9 dd 8c bf f8 f1 03 c0 0e d4 5d be 1f 9e 8c bc
       -1.1005241 -2.0616436 -0.21662924 -0.017165242
000010 18 94 c5 3f ab 2c 9a bd 83 b9 f6 bf e5 d9 a8 3c
       1.543582 -0.07528051 -1.9275364 0.020611713
000020 3a ef f2 bf 81 51 91 bf d8 8b 56 3f bb 88 41 bf
       -1.8979256 -1.1352998 0.83807135 -0.7559926
000030 b0 86 58 40 08 da 60 bf dc 1a a4 3f ae 8b fc be
       3.3832207 -0.8783269 1.2820697 -0.49325317
000040 b5 7c 52 bd 13 78 fa bf 30 6c 60 3f 96 75 ce 3e
       -0.05138846 -1.9567894 0.8766508 0.40324086
000050 82 57 9b bf 27 55 b8 be b9 ba 14 c0 86 ff 7a 3e
       -1.213608 -0.36002466 -2.3238966 0.24511537
000060 d5 48 93 be 5c 5b 98 3f 1f ce 27 be 03 63 7d bf
       -0.28766504 1.1902881 -0.16387223 -0.98979205
000070 3f 3c 07 40 35 63 af be 9e d9 7c bf b9 0b 51 3f
       2.1130521 -0.34255376 -0.9876956 0.8165851
000080 0f d1 36 bf e1 88 0a 3f 1d 7c 2f 3f 5f e4 82 bf
       -0.7141275 0.5411511 0.68548757 -1.0225943
000090 05 e3 64 be 3a a3 28 be bf 4c de be 78 f7 b9 3f
       -0.22352226 -0.16468516 -0.43417928 1.4528646
0000a0 6f 51 a5 bf b3 88 c6 bf bd 18 4e 3f 52 b3 9e bd
       -1.2915477 -1.5510467 0.805065 -0.077490464
0000b0 bc 1d 5b bf f5 d5 7f 3f 5c 51 01 bf 5a 96 c2 3e
       -0.85592246 0.9993585 -0.5051477 0.38005334
0000c0 3b e2 00 bf e9 15 e0 bf c1 ca 92 be e8 a6 d8 3f
       -0.503452 -1.7506686 -0.28670314 1.6925936
0000d0 b5 a0 9c 3e d4 26 62 3f 7a 81 7f bf da 6c 87 bf
       0.3059136 0.88340497 -0.9980694 -1.0580094
0000e0 43 15 77 bf d4 28 7f be 61 4c 6d 3f 37 35 9c 3f
       -0.9651682 -0.24917918 0.9269467 1.220374
0000f0 87 58 44 3f 0e 1b 89 3f ad 26 83 3e d4 c9 d1 be
       0.7669758 1.0711381 0.25615445 -0.40974295
000100 28 af b3 bf b8 96 2e 3e 94 28 74 3e a6 20 52 3e
       -1.4037828 0.17049682 0.23843604 0.20520267
000110 bc 05 9a 3f 0b 46 8d 3e c8 53 f6 bc 8a 48 e5 3f
       1.2033 0.275925 -0.030069247 1.7912762
000120 58 43 67 3f d8 5b 8f 3f 6a 9e ba be bc ce 98 3c
       0.90337133 1.1199903 -0.36448985 0.018653266
000130 45 7c af 3e 56 43 a2 3f ac 50 0d bf 2f 4b a8 3e
       0.34274498 1.2676799 -0.5520122 0.3286986
000140 a5 00 6b bf 09 27 c9 bf 68 6d e5 bc 42 c4 9f be
       -0.9179786 -1.5715038 -0.02800627 -0.3120442
000150 df 8b 31 be 81 8f 9f bf 0d 10 4c 3f 7c 5b 63 3f
       -0.17338513 -1.2465669 0.7971199 0.8881147
000160 79 79 c4 be 60 d3 ed 3f 58 61 84 3f ac 82 9d bf
       -0.38373926 1.8580132 1.0342207 -1.2305503
000170 8b 63 4b 3f 16 0e 7f bf 65 f2 be bf 80 93 c4 be
       0.79448766 -0.9963087 -1.4917723 -0.38393784
000180 2e a7 ca be 9d 86 13 be 6c 5a 1b 40 eb aa b3 be
       -0.39580673 -0.1440682 2.427394 -0.35091338

input_layer.bias f4 [50]
000000 7c f7 3c bc 4f 66 04 3c b5 1f 0c bd 10 4b 5e 3d
       -0.011533614 0.008081033 -0.034209926 0.054270804
000010 38 75 b1 3b e7 d5 a0 bd e6 95 28 3d 35 b5 49 bb
       0.005415585 -0.07853299 0.04115858 -0.0030778174
000020 6b dc 84 3d 8a 0b ad 3b cc 8c df bc 24 88 f6 bc
       0.06487354 0.0052809166 -0.027288817 -0.030094214
000030 d2 23 4b bb 00 53 8b 3c 75 a9 9b 3c 10 a1 0d bd
       -0.0030996692 0.01700735 0.019001702 -0.03457743
000040 c0 9b ff bc 7c a5 91 bc 28 77 e3 3b 01 60 41 bd
       -0.031202197 -0.017779104 0.0069416948 -0.047210697
000050 eb 47 c2 bd 04 bb 5d 3c 65 2b 08 bb 33 2b 84 3d
       -0.094863735 0.0135333575 -0.0020777818 0.06453552
000060 54 a6 f1 bb 92 2a d3 bc 65 e1 47 bd a9 1b 59 bc
       -0.007374564 -0.025777135 -0.048798937 -0.013251224
000070 4b 2a d1 bc af 40 f7 bb a9 e6 14 bc 46 47 8f bc
       -0.025532862 -0.0075455527 -0.009088197 -0.01749004
000080 64 cf e7 3c fe d7 5b bc 98 ba fd 3b 36 33 37 3d
       0.028297134 -0.013418196 0.007743191 0.044726573
000090 96 d1 1d bd 4f ce 20 3d 02 cb 9f bc 93 cf 8e 3b
       -0.038529955 0.03925925 -0.019505981 0.004358241
0000a0 74 85 3a 3d d0 89 88 bb 4d a9 6e bc e5 22 cd 39
       0.045537427 -0.004166819 -0.014566732 0.00039126645
0000b0 20 75 b8 bc 92 3b 91 3c 97 31 c7 3c 4b 66 80 3b
       -0.022516787 0.0177286 0.024315638 0.0039184443
0000c0 81 1a 29 bc 27 17 e1 bc
       -0.01032126 -0.02747686

hidden_layers.0.weight f4 [50, 50]
000000 19 c7 f9 3d 70 fe 2c 3e 6a 16 9f 3d 6c 73 a3 3d
       0.12196178 0.16893935 0.07767947 0.07980999
000010 f2 ab 81 bd 13 ec a9 3e 1a cd b5 bd e6 18 b8 bc
       -0.06331624 0.33187923 -0.08877011 -0.02247281
000020 0d 85 b0 be 84 f6 49 3e 55 f1 68 be 8f 29 9c 3e
       -0.3447651 0.19722944 -0.22748311 0.30500457
000030 55 32 c6 be 51 5f 90 bd 9b 28 86 3d 6c 47 97 3d
       -0.38710275 -0.0704943 0.06550714 0.073866695
000040 9e fd 09 be 54 46 c4 bd 89 e3 30 bd 8e 52 bd bd
       -0.13475654 -0.095837265 -0.043185744 -0.09244262
000050 84 09 cf 3d a0 ed 85 be e7 c7 40 be 4a 5b cd bd
       0.10109237 -0.26157856 -0.18826257 -0.10027178
000060 d2 ea 6c be 35 69 79 3e 88 bd 6b 3e 3b d3 7c 3c
       -0.23136452 0.2435654 0.23021519 0.015431221
000070 8c 8e fb 3d 7b 99 31 be 7b 81 87 bd d7 c9 8c be
       0.12283048 -0.17343704 -0.06616493 -0.27497742
000080 a9 bf 05 be 5c 6a b7 be 90 73 1e be 36 94 cc 3e
       -0.13061394 -0.35823333 -0.15473771 0.39956826
000090 2d 50 f1 bd 9a 33 2c bd fa cf 06 3c c7 d9 43 be
       -0.117828704 -0.0420414 0.008228296 -0.19126044
0000a0 98 fc 28 bc cb f7 01 bc 9c 33 9a 3e cd 0b 7b 3d
       -0.010314129 -0.007932614 0.301175 0.06129055
0000b0 38 08 fa 3c 21 68 a4 bd 41 65 de 3e ce 0a 2b 3f
       0.030521497 -0.080276735 0.43436626 0.6681336
0000c0 24 07 53 bd a9 34 06 3e cb 82 1a be 27 6a 88 3e
       -0.05152048 0.13106026 -0.15088956 0.26643488
0000d0 fd 73 4a ba f5 40 aa 3e 91 d0 e8 3d c2 29 80 bd
       -0.0007722972 0.33252683 0.11367906 -0.06257965
0000e0 3e 8c ca 3e b5 f9 03 be a6 a2 c6 3d fc e9 ff bc
       0.3956012 -0.12888224 0.096989915 -0.031239502
0000f0 6b f4 f6 3d 80 63 c8 bd 75 f3 89 3d 7c 7e 82 3d
       0.12058338 -0.09784603 0.06735889 0.06371781
000100 0b 7d 21 3e a5 30 60 3e 66 1e 40 3d 87 3f e3 bd
       0.15770356 0.21893556 0.04690399 -0.11096101
000110 c9 55 12 bd aa aa 5e be ca c3 64 3d 7f 54 29 be
       -0.035726342 -0.2174479 0.05585078 -0.16536139
000120 08 ae fa bd 89 04 a8 3e 36 ea a2 bd c1 3e f9 bd
       -0.12240225 0.3281596 -0.079548284 -0.121701725
000130 a7 3d d1 3d 55 c0 b3 be 37 14 9c 3d 26 9e ea 3d
       0.102168374 -0.35107675 0.07621043 0.11455946
000140 01 af 2f be 40 54 a0 3d a1 d3 06 be 3f fa a0 3e
       -0.17156602 0.078285694 -0.13166668 0.31440923
000150 6f fd a4 3e 64 a9 39 3d 82 ec 82 be 92 28 e2 3c
       0.32224604 0.04532756 -0.25571066 0.027607236
000160 78 8b b5 bd b5 db b4 bd f9 7d 36 3e f1 b0 21 be
       -0.08864492 -0.08830968 0.17821492 -0.15790154
000170 d2 3c 4f 3e a2 d3 a3 3e 30 f5 e7 be be c7 2e be
       0.20238045 0.319974 -0.4530425 -0.17068383
000180 b0 fd d6 3e 7a ad 8e 3e 60 bd 81 3e 2f 0d bd bd
       0.41990423 0.27866727 0.25339794 -0.0923103
000190 c0 9f a5 3e 5f 46 8e be 45 f1 25 3e 1d eb 26 be
       0.32348442 -0.27788064 0.16205318 -0.16300626
0001a0 a5 84 8e be 01 3b 18 be 26 21 ad be f0 f3 a1 be
       -0.27835575 -0.14866258 -0.33814353 -0.31631422
0001b0 95 b2 fb 3c cc c6 6e be e5 e2 d1 bd e1 4a 56 3d
       0.030724803 -0.23318022 -0.10248355 0.052317504
0001c0 15 dd 50 be 10 6f b5 3d 8d 57 b4 bd c5 55 cd 3d
       -0.20396836 0.08859074 -0.088057615 0.10026125
0001d0 93 0c 07 be ba 21 98 3e c7 d0 96 bd fd 2d 92 3d
       -0.1318839 0.2971323 -0.0736404 0.07137678
0001e0 40 0d 36 bd fd bd 80 bd 2b 35 a3 3c 1e 80 fd be
       -0.04444623 -0.062862374 0.019922813 -0.49511808
0001f0 58 95 36 3e 64 c6 f5 3e 4c 73 d7 be 41 30 0e 3e
       0.17830408 0.48002923 -0.42080152 0.13885595
000200 ef 9c a2 bc 8d 88 96 be cc 37 12 be d6 26 31 3d
       -0.019850222 -0.29401055 -0.14279097 0.043249927
000210 63 13 8c be 6b 91 70 3d b3 4f 91 be 11 9d 42 3d
       -0.2735854 0.05873243 -0.28381118 0.04751307
000220 06 e3 c2 3d 3f 16 17 be 08 48 0e 3d 5c 6d 10 3e
       0.095159575 -0.1475458 0.034736663 0.14104217
000230 8a 6b 23 3e 04 0d e9 bd 8c 17 8a be e8 ed 8b 3e
       0.15958992 -0.11379436 -0.2697109 0.27329946
000240 66 57 7a be a4 2b b0 bc 26 a4 b6 bd c2 0f 05 3f
       -0.24447402 -0.021505184 -0.089180276 0.5197717
000250 50 01 cb 3e 9e 98 ad be fb f5 36 be ad 39 22 3b
       0.3964944 -0.339055 -0.17867272 0.0024753616
000260 55 3a 3a 3e ad be 7d 3e a3 0b 0d be ed 97 ee bd
       0.18186314 0.24779768 -0.1377397 -0.11650071
000270 a0 52 84 bc 00 d6 aa be 6a cb 92 be 55 c7 d3 3c
       -0.01615268 -0.33366394 -0.28670818 0.025851885
000280 40 5a 8d bd bf 33 d4 3b ab 9a aa 3e 8f 94 f7 3d
       -0.069019794 0.006475895 0.33321127 0.12088882
000290 8b f1 15 be 80 26 eb 3e 5a 50 0b be 86 dc be bc
       -0.14642923 0.4592781 -0.1360487 -0.023298513
0002a0 03 95 09 be c3 f5 2b 3e c9 5d ea 3d e0 2a e6 bd
       -0.1343575 0.1679297 0.11443669 -0.112386465
0002b0 cc b6 32 3d 8c 40 b8 bc b9 50 87 bd ba 84 e9 bd
       0.04363136 -0.022491716 -0.066071935 -0.11402269
0002c0 d3 52 5e bd ed da be bd b3 59 cd 3c 39 1c 42 3d
       -0.054278206 -0.093191005 0.025067186 0.047390196
0002d0 cc 1f 35 3e 70 fa 0b 3d 48 02 8c 3e 34 0a 02 3e
       0.17687911 0.034174383 0.2734549 0.12699205
0002e0 df 79 c6 bd 01 6c 47 3e 05 41 ac 3d c7 c9 59 be
       -0.09691214 0.19474794 0.08410839 -0.21268378
0002f0 cd 35 0d be 37 df c5 bd 41 07 b1 3c a7 34 41 3c
       -0.13790055 -0.096617155 0.021609904 0.011792338
000300 c4 d4 34 3e 2d cc 72 3b b2 4f 3b be a4 47 db bd
       0.17659289 0.0037047968 -0.1829212 -0.10707024
000310 4e ec cd bd fd 47 2c 3d 6c 31 e8 3c 28 a8 a8 3e
       -0.10054837 0.04206084 0.028343879 0.32940793
000320 d6 76 aa 3e 02 7f 2b 3d 72 2d 1b bd 84 fa 99 bd
       0.3329379 0.04186917 -0.037885137 -0.07518485
000330 58 2e f6 bc 3b 7e a0 3d f3 3c d7 bd 5f 0e 30 3e
       -0.030051395 0.078365766 -0.10509672 0.17192982
000340 d2 d4 b0 be 96 d0 a6 be 95 7a 6b 3e e9 26 e8 bd
       -0.3453737 -0.32581013 0.2299598 -0.113355465
000350 13 4b 8a bd f8 38 76 3c aa 9e 45 be 88 c6 7c be
       -0.067526005 0.015028231 -0.19298807 -0.24685109
000360 35 85 2a 3e f6 bd 96 be 17 e9 88 be f2 92 ae bd
       0.16652377 -0.29441804 -0.26740333 -0.08524121
000370 f5 d9 1c be f1 f8 56 bd 62 9f 06 3e 24 91 b6 be
       -0.15317519 -0.052483503 0.13146737 -0.35657609
000380 d2 91 c8 3e e7 be 1a be ab 7f d7 3d e2 d9 a1 3d
       0.39173752 -0.15111886 0.105223976 0.07902886
000390 b7 ba 20 3d d9 71 c4 3b b2 16 05 3e a1 43 06 be
       0.039240565 0.005995017 0.12996939 -0.13111736
0003a0 6b 59 9c 3e 53 11 9d 3d 90 ca 5e 3d 76 84 96 bd
       0.3053697 0.0766932 0.054392397 -0.07349484
0003b0 d9 36 8d bd 5f b1 3d be a4 3e 5d 3e 84 1f f6 3d
       -0.06895227 -0.18524693 0.21605927 0.1201773
0003c0 76 2e b1 bd e9 21 0d 3e 0f 30 08 be f4 95 4b 3e
       -0.0865144 0.13782467 -0.13299583 0.19881421
0003d0 64 24 d9 bd e9 90 69 3e 85 38 73 be 0c 63 18 be
       -0.10602644 0.22809185 -0.23752029 -0.14881533
0003e0 58 a1 89 3e fb 4f fa bd 6a 15 ca bd 3a 4b 6a 3e
       0.26880908 -0.12222286 -0.09867366 0.22880259
0003f0 53 01 52 3c f5 bf 76 be fa 76 82 3e 9d 3b ac 3d
       0.0128176985 -0.24096663 0.25481397 0.08409808

hidden_layers.0.bias f4 [50]
000000 82 1a e4 3c 76 7a 2b bc e7 80 19 bd 5a 52 6b bc
       0.027844671 -0.010466209 -0.037476446 -0.014362896
000010 f9 63 7c 3c ab 16 91 3c 4f 1f 10 3d 0e 8b b0 3c
       0.015404695 0.017711004 0.03518611 0.021550681
000020 69 10 63 bc f9 46 18 bd ca 53 ec ba 8f e1 19 bd
       -0.013858893 -0.03717706 -0.0018030342 -0.037568625
000030 6a b9 97 bc fc 7d 8f 3b 9c 94 98 3b 7a ab bc bb
       -0.01852103 0.004379032 0.0046563875 -0.0057577463
000040 6e 88 ad bc 80 5a 06 bc f3 b5 4e 3c dd d1 bf bc
       -0.021183219 -0.008200288 0.012616622 -0.0234155
000050 e4 f2 4b bc 71 23 99 bc 1e 06 c0 bb e8 cf 5e 3c
       -0.012448046 -0.018693658 -0.005860104 0.013599373
000060 07 eb 2b bc f4 8c 6c 3c 2b 9b e8 3b ca 3f db bc
       -0.010493047 0.014437903 0.0070985756 -0.026763815
000070 73 4c df bc c4 af 09 bd 67 c1 6e 3a f5 2d 15 bc
       -0.027258134 -0.03361489 0.00091077987 -0.009105195
000080 c9 1c a2 3c 6c 36 14 bd b8 88 b5 bc 6c aa e7 3c
       0.019789116 -0.036184713 -0.02215992 0.028279506
000090 d8 52 2a ba da f1 f5 3c 15 f5 ef bc d6 fa 5c 3c
       -0.000649733 0.03002255 -0.029291669 0.013487538
0000a0 9f b6 dc 3b 09 4f 41 3c 3d c4 c8 bc b5 97 6d 3c
       0.0067356373 0.011798629 -0.024507636 0.014501502
0000b0 7d f8 77 bc 1b 9e 28 3c 8b cc 1d 3c 9a 3c f3 3c
       -0.015134928 0.0102916015 0.009631286 0.029691983
0000c0 09 09 54 3c af 65 8f ba
       0.012941607 -0.0010940338

hidden_layers.1.weight f4 [50, 50]
000000 3a f1 32 bd f1 ab 4f 3d 93 d0 48 bd 12 cb e8 bd
       -0.043687083 0.050701085 -0.049027037 -0.113668576
000010 65 e0 0b 3e d9 6d 4e be b7 0a 31 bc 0a a9 fd bd
       0.13659818 -0.20159091 -0.010805777 -0.12385757
000020 e7 de b6 be 20 63 18 3c b5 bc 50 be 54 8c 2d 3d
       -0.35716936 0.009300977 -0.20384486 0.042370155
000030 a6 e9 35 3e 7a 01 7e bc 1f 94 cf 3e 65 ef 0e bf
       0.17764911 -0.015503282 0.40542695 -0.5583404
000040 74 0e 58 3e e2 ce 09 bd 69 1b a7 be 27 cc 99 3e
       0.21099263 -0.033644564 -0.326381 0.30038568
000050 10 6a 3b 3d 36 c2 27 3e 7d a9 12 3d 58 c6 57 be
       0.045755446 0.1638268 0.035806168 -0.21071756
000060 e3 f1 44 be 20 90 8c be ad c7 4c bc c8 cc 7d 3d
       -0.19232897 -0.2745371 -0.012498778 0.061962873
000070 b4 f0 3c be 12 93 79 be c9 f1 1c 3d 0d 35 06 be
       -0.18451196 -0.24372509 0.03831652 -0.13106175
000080 8c d0 47 3e 4e 85 4c bb cb 35 3f be 81 c3 81 3d
       0.19513148 -0.0031207385 -0.18672864 0.063361175
000090 2d e9 4d be 40 41 12 3e 41 33 b5 bd 15 98 db bd
       -0.20108481 0.14282703 -0.088476665 -0.10722367
0000a0 6c 8e c9 3d 5b ce 5b 3e d0 10 92 3d 60 19 06 be
       0.09841618 0.21465437 0.07132113 -0.13095617
0000b0 f8 be 8e 3d 6e 1f 7c 3e 5f 6c e3 3e e2 c6 d8 3d
       0.06970018 0.24621364 0.44418618 0.10584809
0000c0 d7 b5 63 bd 13 2c fe be 68 44 5d be 0f 0b 97 bd
       -0.055593338 -0.49643 -0.21608126 -0.07375156
0000d0 1f a9 32 3d 3d 89 a2 be 20 98 b6 bc 6e 25 7e 3d
       0.043618318 -0.3174533 -0.022289336 0.062047414
0000e0 37 7a 6d 3e bb 52 56 be 84 90 75 be 83 28 b3 bd
       0.23191153 -0.20929997 -0.2398091 -0.08747961
0000f0 1f 9a cd bd 4d 7c 22 be 21 da 21 ba 8d 7a 2d be
       -0.10039162 -0.1586773 -0.00061741663 -0.1694128
000100 b1 d6 8f 3e bd f7 46 be c4 10 0d 3e 7b 83 40 3c
       0.28093484 -0.19430442 0.13775927 0.011750097
000110 c2 82 74 be 68 84 ea bd 72 63 38 3e 30 38 ba be
       -0.23878005 -0.11451036 0.18006685 -0.36370993
000120 c7 5e 01 be 63 77 fa 3b 0d f7 18 3e 51 d8 82 be
       -0.12633811 0.0076436265 0.14937992 -0.2555566
000130 60 cd 17 3d 56 df 13 3e 06 c5 59 3e 11 f8 00 bc
       0.037061095 0.14440665 0.21266565 -0.007871644
000140 84 29 c6 3c 39 d8 3e be 30 4c 22 3e 59 4c 69 bd
       0.024189718 -0.1863717 0.15849376 -0.056957576
000150 c0 85 c5 bd b1 e5 b7 bc 2a 59 dc 3c 41 0f 4b 3e
       -0.096446514 -0.022448393 0.026897985 0.19830038
000160 ab 19 0b bf 8b 33 a1 be 49 76 8b 3c e9 98 ce bd
       -0.5433604 -0.31484637 0.017024176 -0.10087759
000170 c8 15 8b 3e e8 22 0f be c6 ad 94 3e 16 52 8a bd
       0.27165055 -0.1397816 0.2903883 -0.06753938
000180 34 95 5a 3e dc 99 bd bc a2 85 2e 3c 0b 74 8f be
       0.21345979 -0.023144655 0.010651978 -0.2801822
000190 db a5 04 3e 30 62 7c be 22 59 a8 3e 22 db 6d bd
       0.12953894 -0.2464683 0.32880503 -0.05807031
0001a0 d5 d4 a4 3e e7 a7 3f be 8a 70 3a 3c 24 bb 50 ba
       0.32193628 -0.18716393 0.0113793705 -0.00079624564
0001b0 07 e5 01 3f 36 04 28 3d 0c e3 af be 63 5a c8 bc
       0.50740093 0.04101964 -0.3435291 -0.024457162
0001c0 4f 5c 0d 3f a0 24 81 3c 67 b4 fe bc ee 5a 37 be
       0.55218977 0.015764534 -0.031091882 -0.1790578
0001d0 d6 89 7b 3e 1a ad 5a ba 24 95 8e be bb 83 97 be
       0.24564299 -0.0008341834 -0.2784816 -0.2959269
0001e0 4b 08 ba be af 42 83 be e5 c0 c9 be 2c f7 55 3e
       -0.36334452 -0.25636813 -0.3940498 0.2089507
0001f0 17 b2 65 bd 06 34 15 be d5 fe 3a be 32 a8 f5 3d
       -0.056078043 -0.14570627 -0.18261273 0.11994971
000200 c2 34 c9 be d9 3a 9e bb e6 7a 36 be 69 65 2a 3e
       -0.39298064 -0.0048287925 -0.1782032 0.16640247
000210 21 e1 2e be 50 c3 be 3e fb f1 25 3c e6 21 79 3d
       -0.17078067 0.37258387 0.010128493 0.060823344
000220 93 92 0b 3e 62 e3 a5 3d 03 75 9e 3d 3e 82 57 3e
       0.13630132 0.081000105 0.07737162 0.21045777
000230 b8 7b 84 3d 31 66 b8 3e 43 ca 68 be 2f 94 07 3f
       0.0646891 0.36015466 -0.22733407 0.52960485
000240 7e 48 4a be 0d be 95 3e 05 84 ca bb cd 70 b3 3e
       -0.19754216 0.2924656 -0.0061802887 0.35046998
000250 b9 bc 52 3d ca da b3 3e f3 52 79 be 64 a7 24 3e
       0.05144951 0.3512786 -0.24348049 0.1607948
000260 96 be 87 be 80 76 89 3e e5 70 be 3d c0 ec c9 3e
       -0.26512593 0.2684822 0.09298877 0.39438438
000270 e4 bf 51 3d a0 9c 2f be 2e 67 90 be fb 94 3b 3e
       0.05120839 -0.17149591 -0.2820372 0.1831855
000280 ee d1 90 be 03 82 52 3e 5e 4a 75 3d 20 f8 0d be
       -0.28285164 0.20557408 0.059885375 -0.13864183
000290 c6 83 30 3c 22 1b 65 bd de 8a 0a bd a5 d5 60 3e
       0.010773605 -0.05593408 -0.03382384 0.21956499
0002a0 6e 25 f9 be 11 d2 06 be e6 3c 9c be fb 05 60 be
       -0.4866137 -0.13166071 -0.30515212 -0.21877281
0002b0 26 f9 e5 3d 3f e8 bb 3d fd 7d 0e bd ac 36 3b 3d
       0.11229162 0.09175157 -0.03478812 0.045706436
0002c0 12 35 12 3e 73 b4 05 bd 3b 7a 9a 3d 34 8e c6 3d
       0.14278057 -0.032642793 0.07542845 0.09695092
0002d0 aa 1a a0 3d 5d ed f6 3e 27 be c7 be 98 18 60 3d
       0.07817586 0.4822797 -0.39012262 0.054710954
0002e0 49 fe e5 3c 07 c6 49 be d6 66 9e be 42 6d 82 bd
       0.028075354 -0.19704448 -0.30937833 -0.063684955
0002f0 8b 84 03 be 58 25 40 3d 4f 25 c5 be ff d3 db bd
       -0.1284353 0.046910614 -0.38505027 -0.107337944
000300 2c d2 94 bd c0 64 98 3c cd 5c 42 be 54 3d 48 3e
       -0.072666496 0.018602729 -0.18980713 0.19554645
000310 89 67 b8 3e 0e 4d ed 3c 81 25 e0 bd bf 67 89 3c
       0.3601649 0.028967407 -0.10944653 0.016773103
000320 fb 43 d8 3e c3 83 f1 3d 61 64 a9 3d cf 43 b4 3c
       0.42239365 0.1179271 0.08271099 0.02200499
000330 86 a7 74 bd 79 e1 26 3d a4 90 2b bd 9b 93 05 3e
       -0.059730075 0.04074237 -0.041885987 0.13044588
000340 02 6b 89 bd c3 0c bd 3c e6 c4 dd bc 05 ba c1 3d
       -0.06709863 0.023077374 -0.027071428 0.094593085
000350 ef e1 16 3e f5 d7 c1 3e 40 4e 21 bd 0f 87 81 3e
       0.14734624 0.37860075 -0.039381266 0.25298354
000360 11 08 2f bd 72 56 47 bd 08 b7 89 3e ce 4a d8 be
       -0.042732302 -0.048666425 0.26897454 -0.4224457
000370 0d e6 db bc 4d e2 55 3d 43 a9 95 be 6a 1e 47 be
       -0.026843095 0.05221777 -0.292307 -0.19445196
000380 de c6 23 bd 04 5f 14 be fe 97 ae 3e 19 07 29 3d
       -0.039984576 -0.1448937 0.34100336 0.041266534
000390 c6 d4 59 bc 27 c2 00 3e 03 93 38 bb 18 d2 7f 3b
       -0.013295358 0.12574063 -0.0028163798 0.0039035138
0003a0 1c 49 cb bd b8 46 5c be f4 bd ee bc b2 d7 ca 3c
       -0.09926054 -0.21511352 -0.029143311 0.024761055
0003b0 34 fe 5c 3e 4a 24 e3 3d 67 16 06 3e ab 3f ce bd
       0.21581346 0.11090906 0.13094483 -0.100707375
0003c0 c5 31 9e bd a7 1b 07 ba 50 2a 93 3d 1c d6 29 3c
       -0.077243365 -0.0005153962 0.07185805 0.010365989
0003d0 13 de 91 bd 09 45 08 be 91 7f 72 3d 41 de 0b 3e
       -0.071224354 -0.13307585 0.059203688 0.13659002
0003e0 72 7d a3 3e f1 fe 2f bc 3f 24 bb bd 3c c5 07 3c
       0.31931645 -0.010741935 -0.09137773 0.00828677
0003f0 37 d5 00 3e 9f 01 2a 3d fe 5c 20 3e 2f 5f 26 3e
       0.12581335 0.041505452 0.15660474 0.16247247

hidden_layers.1.bias f4 [50]
000000 6e e8 8f bc 66 67 d7 3b 05 21 20 3c f3 45 5b 3b
       -0.017566886 0.0065736054 0.0097734975 0.003345844
000010 91 de fc 3b 8f 77 0e bc 3d 2e c3 3c 64 57 64 3c
       0.0077169617 -0.008695497 0.023825759 0.013936851
000020 20 ca 02 bc 37 e5 a9 3c 67 4c cf bb b1 ab 53 3c
       -0.007982761 0.020739181 -0.0063262465 0.012919352
000030 0c 58 bc 3c 76 a8 9e bc d2 be 8a 3a 1d 92 44 b8
       0.022991203 -0.019367438 0.0010585433 -4.686612e-05
000040 43 19 ce bb 14 8e 9a bc 27 73 b1 bc 39 5f e6 bc
       -0.0062896325 -0.018866576 -0.021661354 -0.028121578
000050 b1 89 02 bd 76 4a 53 3c 83 11 0f bc ea de 92 bc
       -0.031869594 0.012896171 -0.008732202 -0.01792856
000060 4d 34 49 3c d2 24 e9 3b 35 22 2f bb 25 aa 3c 3c
       0.012280536 0.007114985 -0.002672327 0.011515175
000070 f6 79 db 3b 29 ac 16 3c 0c b8 a3 3c d9 29 ff 3c
       0.0066978885 0.00919632 0.019985221 0.031147884
000080 2e 5f 35 3a b2 5e 94 bc 66 66 5d 3b ea 0e 06 bc
       0.0006918785 -0.01811156 0.0033782958 -0.008182267
000090 a4 aa aa 3a 77 48 42 3c 9e 02 4e 3b 51 6b 7c bc
       0.0013020826 0.011858097 0.0031434665 -0.015406446
0000a0 05 3c e1 bb 9f 12 36 3c 99 be c7 b8 f8 e5 0e 3b
       -0.00687361 0.011112838 -9.524561e-05 0.0021804553
0000b0 2e 18 b6 bb 36 08 68 bb 76 99 ee 3a e6 88 b5 3b
       -0.0055570817 -0.0035405285 0.0018203694 0.005540001
0000c0 55 b7 d8 3c 7f e2 ef 3b
       0.026454607 0.0073207016

output_layer.weight f4 [2, 50]
000000 1f ca ec 3d cf dd 50 be cd 29 8d be fd 5c 03 be
       0.11561989 -0.20397113 -0.27570954 -0.12828441
000010 26 30 ea bd 87 95 96 bd 51 74 2b be 8d 15 c0 bc
       -0.11434965 -0.07352739 -0.1674359 -0.023447776
000020 e8 87 81 3d 6e 9e fe be 8d 79 30 be d5 de 4f bd
       0.0632475 -0.49730247 -0.17233868 -0.05074962
000030 8f 1c bc 3c a8 da 94 3e 4d 61 c2 bd dc 7a c6 3d
       0.022962837 0.2907307 -0.09491215 0.09691402
000040 1c 5e d5 bb 42 db a6 3c b7 e6 15 bd 6d 60 0f be
       -0.006511463 0.020368222 -0.03659698 -0.14001627
000050 0e a6 29 3f 20 72 af bd ca 26 c2 3d 77 fb d1 3e
       0.66269004 -0.085666895 0.09480055 0.41012165
000060 d4 e9 57 3e 6e 56 5a bb 82 90 8b 3e 06 d2 4b 3e
       0.21085292 -0.0033315676 0.27258688 0.19904336
000070 49 a3 18 3d 0c eb 90 3c 57 b1 45 bd 68 86 46 3d
       0.037265096 0.017690204 -0.048264828 0.048468024
000080 38 13 16 bd a8 1e fc bb 01 1e 0d 3e fc 3b 5a be
       -0.036639422 -0.007694084 0.13780977 -0.21311945
000090 0b 99 b1 bd e8 92 97 be b9 fc e4 bd d9 87 2a 3d
       -0.08671769 -0.29604268 -0.111810155 0.04163346
0000a0 d9 99 9a 3d 41 64 71 be d0 ec c2 3d 66 f6 a9 bc
       0.07548875 -0.235734 0.09517825 -0.020747375
0000b0 fb 04 0f 3e de d2 d4 3d 4e 52 18 be 1c b6 8d bd
       0.13966744 0.10391782 -0.14875147 -0.069195
0000c0 2a c7 28 be 29 d2 49 3d 4d 00 01 be af 26 e2 3c
       -0.16482225 0.04927269 -0.12597771 0.027606336
0000d0 e7 bc 07 be bc ba 6b bd 0c 0d 9a 3d aa 70 87 bd
       -0.13255654 -0.05755113 0.0752202 -0.06613286
0000e0 f8 86 ac be 53 b8 e2 be 41 1e 93 3e 49 95 30 3e
       -0.33696723 -0.44281253 0.2873402 0.17244448
0000f0 8d 30 ab be 34 27 13 be b8 47 30 3e b5 c9 ea 3c
       -0.3343548 -0.14370424 0.17214859 0.028660635
000100 f9 7e ee 3d 42 05 89 3e b8 22 b2 bd ec 79 2a 3e
       0.11645312 0.26761824 -0.08698028 0.16648072
000110 2b 3c ef 3d 0c a8 85 3b 68 ae 7e 3e 09 7c 4b be
       0.11681398 0.0040788706 0.24871218 -0.19871534
000120 e0 70 94 3c 7e be ab be 8c 29 04 be 0f 1b 88 3d
       0.01812023 -0.33543772 -0.12906474 0.06645786
000130 ee 4c 57 be cd 17 da bc 79 7b e3 bd f0 cf 57 bd
       -0.2102544 -0.026622677 -0.11107535 -0.05268854
000140 38 5c 9b be 35 46 b0 bd e7 6d df bd be 78 91 3d
       -0.30343795 -0.08607141 -0.10909634 0.07103108
000150 36 a1 4a 3d e5 9b ee 3e 3c d2 82 bb b9 79 82 3e
       0.04947015 0.46603313 -0.003992347 0.25483492
000160 dc f1 53 3d 07 35 fe 3d ec 60 1e bd 3d 26 f6 bd
       0.051744327 0.12412458 -0.03866665 -0.12019012
000170 63 db e5 3d 83 9f a7 bd d4 c7 26 be bb 06 41 3e
       0.11223485 -0.08184721 -0.16287166 0.18850224
000180 1b d5 2b 3c 41 d4 15 3e 5a 1c d1 3d 98 16 21 be
       0.01048782 0.1463175 0.10210486 -0.15731275

output_layer.bias f4 [2]
000000 bf 09 46 3b ef a2 62 3c
       0.0030218211 0.013832792

exp_avg f4 [50, 2]
000000 09 5b 75 40 65 3b c6 bf f3 a2 06 c1 8e 31 09 40
       3.8336813 -1.5486876 -8.414783 2.1436496
000010 ce 28 a3 bf ef 2d 21 3f d9 31 7c 3e bb 4f 07 bf
       -1.2746828 0.62960714 0.2462839 -0.52856034
000020 6c 96 8e bf 71 cb 93 3f 08 3f 7f c0 52 24 e0 be
       -1.1139655 1.154646 -3.9882221 -0.4377771
000030 c4 e5 e1 bd 7e 4f 96 bc b7 48 7b 3f ae e8 3c be
       -0.110301524 -0.018348452 0.9815783 -0.18448135
000040 14 02 9b be e1 ce 26 3f ac 89 13 c0 4a 7c df 3f
       -0.30275023 0.6515942 -2.3052778 1.7459805
000050 04 7b 55 40 df 38 fc bf 9e 6c 4a bf 58 ce 8c 3e
       3.3356333 -1.9704856 -0.79071987 0.27501178
000060 17 dc 82 c0 ae 80 0d 3f a8 21 b9 40 48 c4 27 c0
       -4.0893664 0.55274475 5.7853584 -2.621355
000070 10 b2 39 be 54 48 94 be 80 d5 18 c0 1e d4 40 bf
       -0.18134332 -0.28961432 -2.388031 -0.75323665
000080 6c 14 89 40 f2 c6 aa bf 28 6f 85 c0 17 b4 44 3f
       4.283743 -1.3341963 -4.169819 0.76837295
000090 ef 51 08 c0 4d 3d 40 3f ab 61 46 3e af 65 2d bf
       -2.1300008 0.7509354 0.19373195 -0.6773328
0000a0 87 cf 47 c0 10 06 f3 3f 94 a0 79 40 8f a9 f3 bf
       -3.1220415 1.8986225 3.900426 -1.903612
0000b0 cc db f7 bf 11 7a 54 3e 69 71 e0 be a0 da 09 3f
       -1.9363952 0.2074969 -0.43836525 0.5384922
0000c0 8b 50 27 40 be 4d 34 be 77 b6 8f bf 93 ac 0c be
       2.614291 -0.17607781 -1.1227559 -0.13737707
0000d0 cf f0 ad 3f 6b b3 7c 3d df e1 6b c0 fe b7 04 40
       1.3589114 0.061694544 -3.685661 2.07373
0000e0 ef 5d 19 40 09 e7 9f bf 82 b1 79 c0 71 ab 17 40
       2.3963583 -1.2492381 -3.9014592 2.369839
0000f0 6c d2 0a 40 15 8a d0 be ca 91 8b c0 c8 c6 1f 40
       2.1690931 -0.40730348 -4.3615465 2.4965076
000100 5a e4 2c 40 43 3e d7 bf 67 92 23 41 99 3c 57 c0
       2.7014375 -1.6815876 10.223243 -3.3630736
000110 8e a9 5b be 6a f0 bc 3c 13 01 90 3f 6d c1 26 be
       -0.21451399 0.023063857 1.1250328 -0.16284724
000120 36 ae d4 40 b1 a9 4b c0 0a 42 8f 3f bd 79 18 be
       6.646266 -3.1822321 1.1192029 -0.1489019
000130 5c 8d cf 3f c0 e6 21 bd a2 da 12 c0 30 64 86 3f
       1.6215014 -0.0395267 -2.2945943 1.0499325
000140 3e bd c8 3f c2 03 9b bf c7 9f e7 3f e8 66 13 be
       1.5682752 -1.2110522 1.8095635 -0.14394724
000150 c7 60 4a c0 4b e0 c9 3f 83 54 29 3f 1b 2c 98 bf
       -3.1621568 1.5771574 0.6614458 -1.188846
000160 cb d5 cd 3c 27 d5 c2 3e 06 b6 8e 3f 41 55 10 bf
       0.025126358 0.38053247 1.1149299 -0.5638009
000170 5d bb a5 3e 43 58 c8 be 66 43 f1 bf ec db 0f 3f
       0.3236951 -0.39129838 -1.8848693 0.5619495
000180 b3 ed 72 40 55 15 f3 bf 19 d3 22 3f be 88 d6 be
       3.795758 -1.8990885 0.6360336 -0.419012

exp_avg_sq f4 [50, 2]
000000 53 3d c4 41 95 f2 ac 3f 67 32 a6 41 bf 4d 32 40
       24.529943 1.351153 20.77461 2.7859952
000010 2c 09 aa 41 5f e0 6f 41 1d 40 c2 41 e2 86 2c 41
       21.254478 14.992278 24.281305 10.78293
000020 da 45 47 42 5e 51 cb 41 65 6d bd 42 94 30 58 42
       49.818214 25.41473 94.71366 54.04744
000030 9e 85 2d 41 62 ed 7c 40 d8 83 b2 41 36 a5 d9 41
       10.845121 3.9519887 22.314377 27.20567
000040 ec 97 8e 40 98 1e 98 40 ce 08 2e 42 89 f0 96 41
       4.456045 4.7537346 43.5086 18.867449
000050 1f 1f b7 41 23 b6 50 41 4e 0d 61 42 77 ec 1a 42
       22.890196 13.044467 56.262993 38.730923
000060 93 77 ee 41 32 38 49 42 ad be b5 42 3f 14 9a 41
       29.808386 50.30488 90.87241 19.259886
000070 2f f0 c7 40 a9 15 8c 40 09 c7 a7 42 8b 8b 99 41
       6.2480693 4.377644 83.88874 19.193136
000080 af 90 07 41 62 21 be 40 e2 8e 90 41 0e d4 00 42
       8.472823 5.941575 18.069767 32.207085
000090 a5 24 e2 41 e5 7f c1 41 57 87 ac 40 b5 65 00 40
       28.267893 24.187449 5.391521 2.0062077
0000a0 f9 f2 00 43 20 95 ba 42 7b fd f6 40 3f ba a8 40
       128.94911 93.29126 7.7184424 5.272735
0000b0 6b a3 b5 42 f5 e7 f7 40 52 68 97 3f 7d ba 2a 40
       90.819176 7.747065 1.1828711 2.6676323
0000c0 05 a6 cc 41 83 d6 4e 41 a8 d8 de 41 66 82 05 40
       25.581064 12.927371 27.85579 2.086084
0000d0 22 8f 59 41 e3 21 1e 41 58 fc 84 42 ff 40 85 41
       13.597445 9.883273 66.49286 16.656736
0000e0 c4 0a c3 41 57 13 ce 41 e1 1c 28 40 59 32 14 40
       24.380257 25.759443 2.6267626 2.315573
0000f0 5d d0 3d 41 68 77 b4 41 af 98 eb 41 03 91 1b 41
       11.86337 22.558304 29.449553 9.722903
000100 77 52 e1 40 39 f4 f7 40 af e2 63 42 0f 34 d5 42
       7.0413165 7.7485623 56.97137 106.60168
000110 a5 7a 05 42 5c 77 84 41 93 79 4f 42 79 46 48 40
       33.36977 16.55828 51.868725 3.1293013
000120 97 fd b6 42 ad 53 c9 41 f3 ba dd 40 27 e3 46 41
       91.49529 25.165857 6.929071 12.430457
000130 43 22 d1 40 fe e1 b6 40 37 71 bb 41 b8 21 a3 40
       6.5354323 5.715087 23.43028 5.097866
000140 43 a5 f3 40 f4 5a ac 40 68 f7 64 42 8b 50 7b 42
       7.6139235 5.3861027 57.241608 62.828655
000150 86 fd 03 43 e7 1d 1a 42 b8 1a c4 42 bc 4b 4a 41
       131.99033 38.5292 98.052185 12.64349
000160 ca 9c b6 41 21 44 61 40 7a f7 85 42 35 2f d0 41
       22.826557 3.5197833 66.98335 26.02305
000170 dc 32 90 42 fc 05 24 40 53 ea 94 41 47 21 04 41
       72.099335 2.5628653 18.614416 8.258124
000180 09 c1 05 41 3b 36 e6 40 f4 fd 93 41 aa ba d2 40
       8.359628 7.19412 18.499 6.585286

exp_avg f4 [50]
000000 6a 58 7a c0 a4 ee 76 41 6d 2e d2 3f c3 60 e5 3e
       -3.9116464 15.433262 1.6420418 0.44800386
000010 df 65 b6 40 06 6c 4b 3f b4 1a dc 3f 74 cd a2 40
       5.6999354 0.79461706 1.7195649 5.0875797
000020 26 1d ec 3f 6e da 16 41 6e 8b 2b bf 5e 98 b7 40
       1.8446395 9.428328 -0.6700963 5.7373495
000030 fe 6a 20 41 d0 f9 38 c1 b6 07 64 40 12 73 f7 40
       10.026121 -11.560989 3.5629706 7.7327967
000040 dc 38 5e c1 cb ed 7c 41 27 9a 5b bf d2 ff 95 bb
       -13.888882 15.808055 -0.8578209 -0.0045776153
000050 05 1d 58 40 a2 a3 44 c1 48 e9 85 bf ab 9b b3 3e
       3.3767712 -12.289949 -1.0461817 0.35079703
000060 1b 75 4a bf d9 d6 19 41 0d 0c 33 c0 27 15 6f 40
       -0.7908494 9.614953 -2.7976105 3.735666
000070 5c 68 17 c0 26 84 f8 40 a8 98 8d bf 20 8f 6f 41
       -2.3657446 7.7661314 -1.1062212 14.972443
000080 f9 bc 63 c1 d9 a0 c1 c1 90 46 03 40 d7 c1 af 3f
       -14.233636 -24.203539 2.0511818 1.373103
000090 91 2b ff c0 4f 4c 37 c1 4d b6 90 3f b8 5b 87 40
       -7.974068 -11.45613 1.1305634 4.229946
0000a0 ba 73 7c c0 36 67 73 c1 1a a5 34 41 42 76 12 c1
       -3.9445634 -15.212698 11.290308 -9.153872
0000b0 49 86 d9 bf d2 c4 21 c1 36 b7 e0 3f c4 61 21 40
       -1.6994106 -10.110552 1.7555912 2.5215921
0000c0 e2 42 8f c0 70 56 8a bf
       -4.4769144 -1.0807629

exp_avg_sq f4 [50]
000000 80 05 9a 42 7a 5a c0 42 5d f8 4b 44 fd e9 ca 44
       77.01074 96.17671 815.8807 1623.3121
000010 19 55 ff 44 e4 26 d8 44 cb c2 f0 43 d3 6a 40 44
       2042.6593 1729.2153 481.52182 769.6691
000020 83 68 e0 43 eb b9 89 43 71 1a ba 43 20 c7 2a 45
       448.8165 275.45248 372.20657 2732.4453
000030 43 e8 86 44 ce ef 8b 44 fe 0a 04 44 5a f5 1b 44
       1079.2582 1119.4939 528.17175 623.8336
000040 d2 d1 99 43 f7 d9 f7 43 09 d2 56 43 56 62 34 43
       307.63922 495.70285 214.82045 180.38412
000050 fa 27 9a 45 be e4 17 43 b0 ec 9e 43 b3 6f 3f 42
       4932.997 151.89352 317.84912 47.85908
000060 86 12 23 44 73 50 7e 43 c5 10 4f 44 e2 9f c6 43
       652.2894 254.31425 828.262 397.24908
000070 fd 8e 05 44 ff ce 12 42 72 9f 08 44 99 83 09 44
       534.2342 36.702145 546.49133 550.0562
000080 88 8b 0a 43 87 6f e9 44 bd c0 4d 44 e6 cc 46 43
       138.54504 1867.4852 823.01154 198.80038
000090 9d 7f e7 43 da 17 f6 42 0d d0 8d 42 07 d2 49 43
       462.99698 123.046585 70.90635 201.82042
0000a0 c7 6d 84 42 0e 5b 95 44 12 d8 8c 45 e8 c9 7f 44
       66.21441 1194.8455 4507.009 1023.1548
0000b0 3f 46 66 43 d1 d3 15 43 a1 94 19 43 48 a0 b4 44
       230.2744 149.82741 153.58058 1445.0088
0000c0 9c 26 37 43 d5 ce 43 43
       183.15082 195.80794

exp_avg f4 [50, 50]
000000 b6 c8 c1 3d 70 cb 9f 3d dd 67 c1 be 9c 5c d1 3e
       0.09462111 0.078024745 -0.37774554 0.40890968
000010 a6 c3 9d 3e 48 25 92 be 75 52 f8 be 77 1c bb be
       0.3081333 -0.28544068 -0.4850041 -0.36545154
000020 ed 24 a5 bd c9 7b 6d be a4 13 98 3e 85 5e e1 3e
       -0.08063684 -0.23191752 0.29702485 0.44017425
000030 76 e9 12 3e a6 4a ca bc 9f a1 df be 9d 59 a6 3e
       0.14346871 -0.024693798 -0.43677995 0.32490245
000040 e3 75 7d 3e 2e 2c 7a be 75 2c 9a 3d 0a b5 3d 3e
       0.24752001 -0.24430916 0.07528011 0.18526092
000050 9b 32 2d 3e c3 e0 83 be e2 52 8e 3e 27 ea 3e 3e
       0.16913836 -0.25757417 0.2779761 0.1864401
000060 f1 d0 41 b9 e7 09 16 3e a4 d1 b4 bc 17 91 37 3e
       -0.00018483751 0.14652215 -0.02207262 0.17926441
000070 0a 62 86 3e 33 52 10 be 4b 77 fe bd 8a ba e3 bd
       0.26246673 -0.14093857 -0.12425097 -0.11119564
000080 cc b4 bd 3e a8 25 94 bd 1b c3 9c be 28 d3 c1 3d
       0.37052 -0.07233745 -0.30617604 0.09464103
000090 98 b0 1c be 79 66 f6 3d 8d 26 af bc 8f f5 55 3e
       -0.1530174 0.12031264 -0.021380687 0.20894454
0000a0 c2 96 d3 3d b2 63 3d bc d8 f7 ca bc 3c ad 1e be
       0.10331489 -0.011559414 -0.024776384 -0.15495771
0000b0 12 22 28 3e 12 87 a6 be 69 09 86 be 86 d3 aa 3e
       0.16419247 -0.32524925 -0.26179054 0.33364505
0000c0 b1 5b c6 3d a2 7e e5 be a6 1f 3d be 20 e6 38 3d
       0.096854575 -0.44823176 -0.18469104 0.04514134
0000d0 8f 5b 69 be 2a 75 7a 3e 41 67 f6 3d f3 5a 51 be
       -0.22788833 0.24458757 0.12031413 -0.2044485
0000e0 bf ae 81 be e3 8f 69 be 3e 34 63 be 89 be d4 bd
       -0.25328633 -0.22808795 -0.22187898 -0.10387904
0000f0 05 a9 1c 3e 20 9a 83 3e f6 e3 39 3e 1d a6 05 be
       0.15298851 0.25703526 0.18153366 -0.13051648
000100 82 62 82 be 67 a3 5f 3e 2c 28 3b 3e c4 c3 49 be
       -0.2546578 0.21839677 0.18277043 -0.19703585
000110 7c 76 c2 3c 15 0b 4d 3e 4e fe a2 bd 38 e1 25 be
       0.023738138 0.20023759 -0.07958661 -0.16199195
000120 9d 90 51 3e 15 5f 0d 3e e0 6b 4c be 18 59 56 3e
       0.20465322 0.13805802 -0.19963026 0.20932424
000130 11 5f c8 3d cf 09 52 bc 95 a9 0d 3e 00 d9 8d 3d
       0.097837575 -0.012819721 0.13834222 0.06926155
000140 9e 44 69 3d fa c2 dc bd 3a 83 67 3e af 52 98 bc
       0.056950204 -0.10779376 0.22608653 -0.018594114
000150 f6 cc 2a be 13 c4 5a 3e bb 5a 32 3d 4c 6b 8c 3d
       -0.16679749 0.21363859 0.04354356 0.06856403
000160 64 8e 0c 3e 5a ae 1b 3e 9e f1 07 be 22 99 2d bd
       0.13726193 0.15203229 -0.13275763 -0.042382367
000170 aa 16 1e be 79 a6 39 3c 8b fa 58 3e 61 9e 5f be
       -0.15438333 0.011331194 0.21189325 -0.2183776
000180 e6 f1 4c be 96 73 39 3e e0 16 1d 3d bc 0d 84 be
       -0.20014152 0.18110499 0.038351893 -0.25791728
000190 4c 5e 85 3c 10 2f be bb 3c f6 bb 3c d8 78 b2 bc
       0.016280316 -0.00580395 0.022944562 -0.021786138
0001a0 c4 72 ac bc be 71 b7 3c d4 30 8a 3b d0 46 b4 3c
       -0.021050818 0.022393104 0.0042172465 0.022006422
0001b0 54 96 e3 3c af 33 67 3c 1a ec a7 bc de 06 8e bc
       0.027781643 0.014111443 -0.020498324 -0.017337259
0001c0 34 ef b3 bc 88 b7 6d 3c 38 98 95 3c a6 97 bc bc
       -0.021964647 0.014509089 0.01826106 -0.02302153
0001d0 bf c6 a9 bc ef ba b7 3c f4 06 14 bb 85 1f cd bc
       -0.020724652 0.022428004 -0.0022587152 -0.025039444
0001e0 9d 7f 62 3b 77 f9 99 3c aa b4 b9 bc c7 64 73 bc
       0.0034560927 0.018795712 -0.022669155 -0.01485557
0001f0 0b f8 b8 3c 86 58 dc bc dd d4 2d bc 33 67 11 bb
       0.022579214 -0.02689768 -0.010609833 -0.0022186756
000200 a4 42 90 bc c1 75 ac bb b6 ba 4c bb 3c 40 47 3c
       -0.017609902 -0.005263061 -0.0031239218 0.012161311
000210 31 19 b9 bc 61 d3 47 3b 9f 01 aa 3c b3 ea db bc
       -0.02259502 0.0030490982 0.020752726 -0.026845312
000220 09 85 d0 ba 42 93 e8 bb be c2 70 bc 5b b8 8b bc
       -0.0015908788 -0.0070976326 -0.014694868 -0.017055681
000230 28 fc 48 3c c3 af a1 3b 24 2d 8f 3c 23 d2 35 3b
       0.01226715 0.0049342825 0.01747758 0.002774366
000240 38 ec e1 bc 99 cc c4 3c 26 16 b8 3c c0 ec b6 bc
       -0.027578458 0.024023341 0.022471499 -0.022329688
000250 1f f9 99 bb 94 59 7f 3c 1c 35 47 3e df fa 11 3d
       -0.004698887 0.015585322 0.19453853 0.03563964
000260 75 90 2b be 2a ba 3d 3e e4 2a 4d 3e 27 b4 7a bd
       -0.16754325 0.18528047 0.20035893 -0.061206963
000270 44 3a 51 be 75 50 04 be 89 c5 05 3e 29 22 0f be
       -0.20432383 -0.12921317 0.13063635 -0.13977875
000280 01 06 29 3e 3a 3a 45 3e 32 d1 5c bd ab 15 ca 3d
       0.16506197 0.19260493 -0.05391044 0.09867414
000290 63 b2 3d be 19 0c 9d 3d 73 81 66 3d 28 a6 40 bc
       -0.1852508 0.07668323 0.056275796 -0.011758365
0002a0 1f df 59 3d 37 e5 4a bd e3 0b 46 3e 5f c6 d9 bd
       0.0531913 -0.049535003 0.19340472 -0.106335394
0002b0 3c 69 0a 3d 37 5d 41 3d 1e 15 20 3e b8 a5 ac bd
       0.033791766 0.047208037 0.15633056 -0.08430046
0002c0 fb 2d de bd c6 99 2f 3e f8 d9 0f 3e 25 47 30 be
       -0.10848614 0.17148504 0.14047992 -0.1721464
0002d0 2a 26 21 be ac a8 18 bb 29 b8 20 3e 6a 01 6c bd
       -0.15737215 -0.0023293896 0.15695252 -0.057618536
0002e0 30 54 24 be 4d 9c ee bd bd dc 2c be 6a 42 62 3d
       -0.1604774 -0.11650906 -0.1688108 0.05523912
0002f0 50 fe 09 be ae e5 68 3d 4a d8 36 3e cb f0 f4 3c
       -0.13475919 0.056859665 0.17855945 0.029899975
000300 1f 5d ed 3d f9 7c 1e be bc 6e ab bd ac 4b 4c bd
       0.11590027 -0.15477361 -0.0837073 -0.049876854
000310 be e6 cf bc bf 8a 36 3e 03 a8 7e 3d 3b 7f 46 be
       -0.025378581 0.17826365 0.062171947 -0.19384472
000320 08 a1 da be 06 4a 20 be 7b d7 41 3f 30 cb 53 bf
       -0.42700982 -0.15653238 0.7571942 -0.82731915
000330 d1 65 40 bf 63 d2 f1 3e e5 00 6d 3f 0d d6 2c 3f
       -0.7515536 0.47230825 0.9257949 0.67514116
000340 3a 22 62 bd 31 56 06 3f c7 c5 27 bf 63 21 5f bf
       -0.055208422 0.5247527 -0.6553616 -0.8716032
000350 64 6e 01 be 9c df d6 bd 92 67 5a 3f c8 a9 0b bf
       -0.12639767 -0.10491869 0.85314286 -0.5455594
000360 cd d7 d3 be df b8 b3 3e 5c 9d 38 be 2f e6 46 be
       -0.4137558 0.35101983 -0.18028778 -0.19423746
000370 25 dd 09 bf 9a 16 01 3f 3e 6a d9 be 21 91 a4 be
       -0.53853065 0.5042511 -0.4246387 -0.32141975
000380 f0 e8 5d be 73 fe c9 bd 11 72 3e 3e 76 67 02 bf
       -0.2167089 -0.098629855 0.185982 -0.5093912
000390 b6 20 11 bf b6 50 ea 3e 90 1e d0 3e 09 fa 1d 3e
       -0.5669054 0.45764703 0.40648317 0.15427412
0003a0 88 d3 3a bf 2b d3 3a 3e 22 89 28 3f 7b e5 8c 3c
       -0.7297902 0.18244617 0.6583425 0.017199269
0003b0 0d 4e ef 3e ba f0 7b be 6b 0f 63 3e 0e 52 ba be
       0.46739236 -0.24603549 0.2217385 -0.36390728
0003c0 54 eb d2 be 18 ef e0 bc 5e b1 01 be 66 49 e4 3e
       -0.41195166 -0.027457759 -0.12665316 0.4458725
0003d0 47 e1 02 be 4c c9 02 3f 45 66 c8 3e 2b 5e 3a bf
       -0.12781249 0.51088405 0.39140525 -0.7279994
0003e0 f2 f0 63 be e1 62 61 3f b6 3c 4c be d4 3a 0f be
       -0.22259882 0.880415 -0.19945034 -0.13987285
0003f0 aa 80 37 3f 34 a6 4d bf 0a c7 39 bf 72 0b da 3e
       0.716807 -0.8033173 -0.72569335 0.42586857

exp_avg_sq f4 [50, 50]
000000 42 cc 35 40 73 60 d3 3f 87 b8 cd 41 83 ca 03 42
       2.840592 1.6513809 25.715101 32.947765
000010 46 a0 86 41 d4 cf 66 41 dd fe 53 42 84 7c b2 41
       16.828259 14.425739 52.99889 22.310799
000020 6a 68 a7 40 f1 dc 27 41 c9 4a 7e 41 8b 1a 1c 42
       5.231496 10.491441 15.893258 39.02592
000030 77 2d b5 40 8b 38 8f 3f ee c2 1a 42 08 f9 98 41
       5.6618 1.118913 38.69036 19.121597
000040 e8 e7 35 41 2f bb 3b 41 38 6f 03 40 04 70 1e 41
       11.369118 11.733199 2.0536633 9.902348
000050 4c bf 89 40 f8 2c 36 41 01 ce 72 41 2a ae 19 41
       4.3046017 11.385979 15.175294 9.6050205
000060 de 64 0d 40 35 56 10 41 e8 4a cc 3f 11 b9 c4 40
       2.2092814 9.021047 1.596036 6.147591
000070 f0 a4 2d 41 4a 7b aa 40 68 de 56 40 2d d1 5b 40
       10.852768 5.32755 3.3573246 3.434642
000080 c0 3c bf 41 36 f7 6f 3f 68 dc 6b 41 ed d7 a9 40
       23.904663 0.9373659 14.74131 5.307608
000090 51 43 34 40 75 81 32 40 f5 a4 38 40 81 c7 f7 40
       2.8166087 2.7891514 2.8850682 7.7431035
0000a0 22 46 d3 3f de fd 3d 3f 7d bd a7 3f 5d 53 76 40
       1.6505778 0.74215496 1.3104702 3.848838
0000b0 57 b2 01 41 7c e1 9c 41 f3 b4 5b 41 98 f5 99 41
       8.10604 19.6101 13.731677 19.244919
0000c0 02 63 55 40 6f 81 24 42 0b 8a 19 40 a3 4a 9a 3f
       3.334168 41.1264 2.3990505 1.2054027
0000d0 70 d3 fd 41 ec fb 23 42 55 36 c3 41 72 de 72 41
       31.728241 40.996017 24.40153 15.179308
0000e0 c3 ce 80 42 bb 5a d3 41 26 10 58 40 1d db 35 41
       64.40383 26.419302 3.3759856 11.365994
0000f0 a3 fc 97 41 2f 8c 45 42 c0 21 a3 40 75 dc 4b 3f
       18.998358 49.386898 5.09787 0.79633266
000100 eb 94 39 42 02 f9 9d 41 a7 74 3a 41 1c da 3c 41
       46.395428 19.746586 11.65348 11.803249
000110 24 34 a1 3f 7a 2e 00 41 f0 8e ca 40 c2 10 50 41
       1.2594037 8.011347 6.3299484 13.004091
000120 91 ad 6e 41 9d 7e 01 41 47 3c 8f 3f 76 67 ce 40
       14.917375 8.093411 1.119027 6.4501295
000130 8c c1 39 3f 94 66 e7 40 a2 54 59 41 8f da 9d 40
       0.72560954 7.2312717 13.583162 4.9329295
000140 aa 65 50 40 97 75 36 40 41 3a ea 41 56 4c 5e 3f
       3.256205 2.850927 29.278444 0.8683523
000150 ee df 9d 41 c3 12 73 40 4b 16 94 40 2c 61 40 40
       19.73434 3.7980201 4.6277213 3.005931
000160 d8 76 a0 3f 8a 18 08 41 ee ea 14 40 61 c9 89 3e
       1.2536268 8.505991 2.326839 0.26911452
000170 35 f5 74 3f 60 47 8c 40 b9 d4 e1 40 72 f1 98 41
       0.95686656 4.383713 7.057217 19.117893
000180 6a 1c 56 41 71 14 ce 41 ff 2a f9 3f 5e 66 4e 42
       13.381937 25.759981 1.9466246 51.599968
000190 77 e9 0d 40 85 b9 9f 3f fd 90 6d 40 85 a3 55 40
       2.2173746 1.2478491 3.7119744 3.3381054
0001a0 ff 86 1a 40 69 ec c0 3f 97 cd 82 40 26 95 e3 3f
       2.4144895 1.5072147 4.0875964 1.7779891
0001b0 c2 9e 2d 40 83 8a 9d 40 cd 69 91 40 43 7f 39 40
       2.7128148 4.923158 4.544165 2.8983924
0001c0 08 b4 47 3f 55 6d 72 3e 87 a0 b0 40 5d 90 67 40
       0.7800908 0.2367452 5.5195956 3.6181862
0001d0 25 99 cd 3f 96 56 9a 3f 5c 5c db 3f 06 6d ce 3f
       1.6062361 1.2057674 1.7137561 1.6127021
0001e0 a8 ab df 3f e1 a0 0b 40 7b c7 ef 3f 5d 1d aa 40
       1.747426 2.1816943 1.8732752 5.3160844
0001f0 58 ac 05 40 35 57 36 40 53 3e de 3f a2 fd 35 40
       2.088644 2.8490727 1.736277 2.8436055
000200 7a 24 d7 3f 78 6a 85 40 81 a4 bb 3f 2b cc 31 3f
       1.6808007 4.1692467 1.4659578 0.6945216
000210 1e 44 14 40 10 e1 0d 3f 55 43 c5 3f 38 13 95 3f
       2.3166575 0.55421543 1.5411173 1.164649
000220 8a d1 e0 3e a0 da c5 3e 9f 1a 30 40 84 09 a8 3f
       0.43909866 0.3864336 2.7516248 1.3127904
000230 77 79 1b 3f b0 fd bd 3e 32 c1 a2 3e c7 0f 25 40
       0.60732216 0.3710761 0.3178802 2.579088
000240 39 29 9e 3f 19 99 0c 40 c9 13 37 40 a5 70 da 3f
       1.235633 2.1968443 2.8605826 1.7065626
000250 0d 98 46 40 83 54 3f 40 cd 61 02 41 29 2b 29 41
       3.1030304 2.9895332 8.148877 10.573037
000260 1e 41 4c 41 ad 2f 09 41 99 d0 7a 41 11 1a d5 40
       12.765898 8.57414 15.675927 6.659432
000270 f6 b0 49 41 fc 1b a9 40 e2 28 a3 41 7e 09 89 41
       12.605703 5.284666 20.394962 17.129635
000280 44 5a 5b 41 f3 b2 32 41 57 3f 3d 3f 45 66 8e 3f
       13.7095375 11.168689 0.73924774 1.112496
000290 d7 c3 91 41 24 5f 1d 41 26 24 38 41 b4 1d 9b 3f
       18.220625 9.835728 11.508825 1.211844
0002a0 cc 0a 84 41 d4 30 f8 40 4a 29 42 41 40 62 80 40
       16.505272 7.7559605 12.13508 4.0119934
0002b0 c1 f4 0d 40 66 16 19 41 64 80 8f 41 23 72 30 40
       2.2180636 9.567968 17.93769 2.7569664
0002c0 07 e7 9a 40 04 76 21 41 7e 50 6f 41 a9 ab 2a 41
       4.8407016 10.091312 14.957151 10.666909
0002d0 41 cc 79 40 ab 9e 2a 40 98 42 d4 40 37 fb a4 40
       3.9030917 2.6659343 6.633129 5.155666
0002e0 7b 94 0e 41 d8 3a 69 40 2a de e4 40 d4 da ef 3f
       8.91125 3.6442165 7.1521196 1.8738656
0002f0 11 d1 9a 40 81 15 06 41 64 32 a3 40 31 69 e2 3e
       4.838021 8.38025 5.099901 0.4422088
000300 d1 6b 23 40 94 2b 85 41 eb be 51 40 75 4c 25 40
       2.5534556 16.646278 3.2772777 2.5827916
000310 c8 a6 28 41 bb a8 e1 40 b6 5b ca 41 c4 0c 42 41
       10.540718 7.051847 25.29478 12.128117
000320 c0 ac 8c 41 03 72 a7 40 32 69 0f 43 a1 46 38 43
       17.58435 5.2326674 143.41092 184.2759
000330 f5 30 f2 42 b8 2d 79 42 c2 fa 90 43 46 d3 eb 42
       121.09562 62.294647 289.95905 117.91264
000340 db 98 7c 40 df cf 57 42 3e cf b2 42 10 ec 5e 43
       3.9468296 53.953 89.40477 222.92212
000350 85 ad 53 41 e3 16 43 3f 60 9a 4f 43 77 f8 a3 42
       13.229863 0.762068 207.60303 81.98528
000360 fe 26 3c 42 54 e4 2e 42 f9 e9 c5 40 f7 25 b7 41
       47.03808 43.722977 6.184811 22.893538
000370 bd d9 28 42 c8 0c 66 42 58 ff 65 42 8a f5 ea 41
       42.212635 57.51248 57.49936 29.369892
000380 8d 6e 18 40 a6 f1 54 41 d0 0f 11 40 06 e1 25 42
       2.3817475 13.308996 2.26659 41.46975
000390 b3 5b 84 42 a8 b5 ea 41 f6 95 a6 41 c8 27 12 41
       66.1791 29.3387 20.823223 9.134712
0003a0 98 8c 04 43 76 39 a0 40 27 ff bc 42 c6 aa a9 40
       132.5492 5.0070143 94.498344 5.3020964
0003b0 82 b2 fd 41 37 37 5c 41 f5 a2 3a 40 1c dc 0c 42
       31.712162 13.76348 2.916196 35.21495
0003c0 5d 8e 99 41 f2 5e 0a 3e c7 66 7b 3f 1b 1f df 41
       19.194513 0.13512781 0.982037 27.890188
0003d0 af a0 8b 41 04 4d 9b 42 dd 2e 4a 42 6e e3 f2 42
       17.453459 77.65042 50.545765 121.4442
0003e0 3b ff 11 41 1f ce 68 43 00 60 65 40 f5 a8 86 40
       9.124812 232.80516 3.5839844 4.2081246
0003f0 a9 9b bd 42 12 0d f5 42 ad 73 8a 42 9b 1c 3e 42
       94.80402 122.52553 69.22593 47.527935

exp_avg f4 [50]
000000 91 36 4f 3e 01 44 11 3e a4 78 94 bb 0c bd 58 3c
       0.20235659 0.14186098 -0.004530983 0.013228666
000010 6b 34 b0 be 91 bb 54 be 5a 35 26 be 47 77 89 bd
       -0.34414992 -0.20774676 -0.1623129 -0.067122035
000020 dc 27 5d 3b 60 b8 01 3b 2a 75 60 3e ef 9a 3e bd
       0.0033745682 0.0019793734 0.21919695 -0.046534475
000030 5c 34 c5 3d 63 71 ed 3d e4 ed 6f 3d 74 c4 af bd
       0.096291274 0.115938924 0.05857648 -0.08582392
000040 14 f4 18 3d 94 97 00 3e 5f 54 8e bd 74 31 d6 3d
       0.037342146 0.12557822 -0.06949686 0.10458651
000050 db 45 93 3d 56 da 1b 3d 10 53 68 3e 8e 70 a8 3e
       0.07191058 0.03805002 0.22687936 0.32898372
000060 02 98 b9 3c 57 96 64 3d 19 eb c9 3c 3d c9 69 bd
       0.02265549 0.055807438 0.024648236 -0.05707668
000070 b9 73 5c 3e ab 84 68 be af 7b e2 bd 4e 70 e0 bd
       0.2152852 -0.22706859 -0.11058747 -0.109589204
000080 6c 57 bf 3c 08 b8 86 3d 87 75 5c 3c fa cd 79 3d
       0.023357116 0.0657807 0.013455755 0.06098745
000090 53 8c c3 3d d2 4d b7 be b1 49 34 3e cc 36 52 3b
       0.09548249 -0.3580156 0.17606236 0.0032076119
0000a0 41 06 1f 3d 60 36 b5 be 46 db 21 be e9 a0 4b 3d
       0.038824324 -0.35393047 -0.15806302 0.049714003
0000b0 66 af d9 bc 13 b6 51 3d 31 3d b7 3d 31 ae 41 bd
       -0.026572894 0.05119903 0.08947218 -0.047285262
0000c0 11 4e 8d 3d b2 12 8e bd
       0.068996556 -0.069371596

exp_avg_sq f4 [50]
000000 5d e0 5d 43 29 f1 b4 41 88 2a 97 42 a3 68 fe 44
       221.87642 22.617754 75.58307 2035.2699
000010 9b 8f cf 41 7d 09 00 43 ac b5 98 43 ed b8 8d 43
       25.94512 128.03706 305.4193 283.44473
000020 fe f2 87 41 a1 1e c4 42 21 03 ab 41 4f 26 77 43
       16.993649 98.05982 21.376528 247.14964
000030 72 b1 29 43 73 fa 57 43 90 e1 de 44 cd 47 64 44
       169.69315 215.97832 1783.0488 913.1219
000040 ad 0f 00 44 61 17 80 41 1b da 61 41 3a 2f 90 43
       512.24493 16.011415 14.115748 288.36896
000050 33 fc 50 42 f2 14 85 43 32 f5 7d 41 17 59 ae 42
       52.24629 266.16364 15.872362 87.174
000060 2f 9a 83 42 d6 92 10 42 72 ec 36 42 03 c4 32 42
       65.80114 36.143394 45.730904 44.691418
000070 bd 8d 30 42 70 f6 d4 42 6c cd 6b 42 7d d8 d3 41
       44.138416 106.48132 58.950607 26.480707
000080 af ae e3 43 49 fc 3d 43 2c c4 a9 42 b5 ce a3 42
       455.36472 189.98549 84.88315 81.903725
000090 ce 9b e3 42 5c 78 e7 41 c9 98 81 44 34 d4 17 43
       113.804306 28.93377 1036.7745 151.82892
0000a0 ab 83 32 42 d3 54 a5 42 03 bc fe 42 05 0d 1c 44
       44.628582 82.66567 127.36721 624.2034
0000b0 43 e8 e2 40 2d c8 49 42 9a 25 fe 43 8c d7 6b 41
       7.0908523 50.445484 508.29376 14.740124
0000c0 57 2f 59 44 4d d4 81 42
       868.7397 64.91465
