weights/checkpoint/example0006_warm_adam.pth (torch, 73855 bytes, 25 tensors)

a f4 [5]
0	0x3e4ccccd	0.2
1	0x3e4ccccd	0.2
2	0x3e4ccccd	0.2
3	0x3e4ccccd	0.2
4	0x3e4ccccd	0.2

input_layer.weight f4 [50, 2]
0	0xbf8abc9f	-1.0838813
1	0xc0039351	-2.0558665
2	0xbe738d59	-0.23784389
3	0x39a81fd5	0.00032067174
4	0x3fc25d2b	1.5184683
5	0xbdec0b49	-0.1152559
6	0xbff4158c	-1.9069076
7	0x3d90d4c9	0.070718355
8	0xbff3ca8c	-1.9046187
9	0xbf995f24	-1.198216
10	0x3f6342d3	0.8877384
11	0xbf5516f0	-0.83238125
12	0x40581afd	3.3766472
13	0xbf62b829	-0.88562256
14	0x3fa43cb3	1.2831024
15	0xbed2313e	-0.41053194
16	0xbd7ef670	-0.06224674
17	0xbffb99ff	-1.9656371
18	0x3f563b84	0.83684564
19	0x3ec08523	0.37601575
20	0xbf9ddfcb	-1.2333921
21	0xbea757f3	-0.32684287
22	0xc01172da	-2.272635
23	0x3e3f5f8d	0.18688793
24	0xbe6a6149	-0.22888674
25	0x3fa1c7c1	1.2639085
26	0xbddfcfff	-0.10928344
27	0xbf7448fd	-0.9542387
28	0x4008371c	2.1283636
29	0xbeab22a7	-0.33424875
30	0xbf81430a	-1.0098584
31	0x3f467293	0.77518576
32	0xbf34ed3d	-0.70674497
33	0x3f00e06a	0.5034243
34	0x3f2313ed	0.6370228
35	0xbf8689ba	-1.0510781
36	0xbe4d0f22	-0.20025304
37	0xbe155b12	-0.14585522
38	0xbebe4f66	-0.3716995
39	0x3fb9d681	1.4518586
40	0xbf9fe270	-1.2490978
41	0xbfd17fbb	-1.6367105
42	0x3f4f332c	0.8093746
43	0xbdd5cb1e	-0.10439132
44	0xbf63c735	-0.8897584
45	0x3f80de83	1.0067905
46	0xbf012131	-0.5044127
47	0x3ec91e1e	0.3928079
48	0xbf07968e	-0.52964103
49	0xbfdbca12	-1.7171042
50	0xbeac499b	-0.33649907
51	0x3fd49667	1.6608399
52	0x3ea55ace	0.3229584
53	0x3f5d35ea	0.8641039
54	0xbf81738b	-1.0113386
55	0xbf8b7418	-1.0894804
56	0xbf743db7	-0.9540667
57	0xbe437ca7	-0.1909052
58	0x3f6d02de	0.925825
59	0x3f9af8d8	1.2107191
60	0x3f4c4f05	0.79808074
61	0x3f79b97c	0.9754865
62	0x3e830ddc	0.2559651
63	0xbec84ce6	-0.3912117
64	0xbfb30b82	-1.3987887
65	0x3e3a8c98	0.18217695
66	0x3ea200ea	0.31641322
67	0x3e0aaceb	0.13542525
68	0x3f9892a8	1.1919756
69	0x3ea0e16b	0.3142198
70	0xbce73f5f	-0.02822846
71	0x3fe45000	1.7836914
72	0x3f61d022	0.8820821
73	0x3f92a03b	1.1455148
74	0xbec4f591	-0.38468602
75	0x3d63e069	0.055633936
76	0x3e95bcc5	0.29245582
77	0x3f9fd46d	1.2486702
78	0xbf0f2ee8	-0.5593095
79	0x3eb53690	0.3539319
80	0xbf6c8aa5	-0.92399055
81	0xbfc91953	-1.5710853
82	0x3d53bfff	0.051696774
83	0xbea9035e	-0.3301038
84	0xbe7f338d	-0.24922009
85	0xbf99e3fa	-1.2022698
86	0x3f48da6c	0.78458285
87	0x3f5f0f53	0.8713276
88	0xbec70a8e	-0.3887524
89	0x3ff210fd	1.8911434
90	0x3f84a785	1.0363623
91	0xbf9d1a0a	-1.2273571
92	0x3f47cf1d	0.78050405
93	0xbf813e63	-1.0097164
94	0xbfc054b0	-1.5025845
95	0xbee0afe9	-0.4388421
96	0xbec828cc	-0.39093626
97	0xbdc85295	-0.09781376
98	0x401beccd	2.4363282
99	0xbea50ba3	-0.3223544

input_layer.bias f4 [50]
0	0xbc07cd0b	-0.008288632
1	0x3d7e25fe	0.06204795
2	0xbd64a712	-0.055823393
3	0x3ce2c9e8	0.027684167
4	0xbd11221c	-0.03543292
5	0xbdaee9a0	-0.08540654
6	0x3d1f1dd0	0.03884679
7	0xbcb7b514	-0.022425212
8	0x3c75fc8c	0.015013825
9	0x3c93ed7b	0.018057575
10	0x3c018450	0.007905081
11	0x3cf56e6c	0.02995988
12	0x3d30292f	0.043008026
13	0x3be00b95	0.006837318
14	0x3d85dcf4	0.06536284
15	0xbd6f95c2	-0.05849243
16	0xbd559e0f	-0.05215269
17	0xbcaadb15	-0.02085642
18	0xbb2bdf98	-0.0026225802
19	0x3c5559a3	0.013021859
20	0xbc28b71e	-0.010297565
21	0xbb9ef656	-0.004851143
22	0xbda7fde9	-0.082027264
23	0x3cae8794	0.021304883
24	0x3d5be2d3	0.053683113
25	0xbd3d8e7c	-0.04627846
26	0xbd3ba7b2	-0.045814224
27	0x3d1386e1	0.036017302
28	0xbc50e2cf	-0.012749388
29	0xbd16f425	-0.036853928
30	0xbe0f54c1	-0.13997175
31	0x3c13152f	0.0089772185
32	0x3d96df7b	0.07366844
33	0xbd35657f	-0.044286247
34	0xbbc889bf	-0.0061199362
35	0x3d38fbcb	0.045162003
36	0xbd7b12e9	-0.06129733
37	0x3b950fdf	0.004549011
38	0x3c24c29f	0.010056167
39	0xbd1af4c2	-0.037831075
40	0x3d93036e	0.071783885
41	0x3d26fbf3	0.04076762
42	0xbc8fdf58	-0.017562553
43	0xbd8075eb	-0.06272491
44	0x3c6f9095	0.014621873
45	0xbbb524d8	-0.0055280738
46	0xbc9a0ac2	-0.018803958
47	0xb86384d6	-5.424473e-05
48	0x3d239918	0.039940923
49	0x3d1e33b9	0.038623545

hidden_layers.0.weight f4 [50, 50]
0	0x3deda7bb	0.11604258
1	0x3e31504b	0.17315786
2	0x3da32e15	0.07967774
3	0x3d92cde5	0.071681775
4	0xbd428536	-0.04749032
5	0x3eae55ed	0.3404993
6	0xbde1c774	-0.11024371
7	0xbd05f8b8	-0.0327079
8	0xbea2ddc4	-0.3180982
9	0x3e4a48cc	0.19754332
10	0xbe4f34e2	-0.20235017
11	0x3ea4733e	0.32119173
12	0xbecb55bd	-0.3971385
13	0xbd81a612	-0.063305035
14	0x3d5ffa8d	0.054682303
15	0x3daf1a0f	0.08549892
16	0xbe191561	-0.14949562
17	0xbdba15b6	-0.09086172
18	0xbd6b0057	-0.05737337
19	0xbddf150b	-0.108926855
20	0x3df8fb1a	0.12157269
21	0xbe8531c1	-0.26014522
22	0xbe46f39c	-0.19428867
23	0xbd9d8488	-0.07691294
24	0xbe75ce6f	-0.2400453
25	0x3e6a8233	0.2290123
26	0x3e69293d	0.22769637
27	0x3d18cc5a	0.03730426
28	0x3e0f7ad1	0.14011694
29	0xbe514fc0	-0.20440578
30	0xbd610bb8	-0.054942816
31	0xbe873169	-0.26404884
32	0xbe00cab8	-0.12577331
33	0xbeb8b7bd	-0.3607768
34	0xbe2a4f81	-0.16631891
35	0x3ed22d88	0.41050363
36	0xbdff2a52	-0.12459244
37	0xbd378212	-0.04480178
38	0xbc846822	-0.016162936
39	0xbe414cbc	-0.18876928
40	0xbbedee94	-0.0072611067
41	0xbc05ef6f	-0.008174761
42	0x3e9e03b4	0.308622
43	0x3d43b752	0.04778225
44	0x3d067fd6	0.032836758
45	0xbd930d92	-0.07180323
46	0x3ee198cf	0.44061896
47	0x3f2daf21	0.6784535
48	0xbdbfd8e4	-0.093675405
49	0x3df4116d	0.11917386
50	0xbe214e22	-0.15752462
51	0x3e8b9ea6	0.27269477
52	0xbbae39b4	-0.0053169373
53	0x3ea965aa	0.33085376
54	0x3dd93679	0.10606093
55	0xbd89350a	-0.066995695
56	0x3ecfe8c0	0.40607262
57	0xbe043b9b	-0.12913363
58	0x3dc51b2d	0.09624324
59	0xbd34e434	-0.044162944
60	0x3df9628e	0.12177001
61	0xbdd3b12d	-0.10336528
62	0x3d97b552	0.07407631
63	0x3d7499f3	0.05971713
64	0x3e25dbf0	0.16197181
65	0x3e6338d8	0.22189653
66	0x3d5a61da	0.053315975
67	0xbdf256a4	-0.11832932
68	0xbd0c6681	-0.034277443
69	0xbe5bfa87	-0.21482287
70	0x3d4efe66	0.050535582
71	0xbe2d3d0f	-0.16917823
72	0xbdf70f35	-0.120634474
73	0x3ea986cc	0.33110654
74	0xbdad88f2	-0.08473386
75	0xbe018391	-0.12647845
76	0x3dcb5cad	0.09929786
77	0xbeb300b5	-0.34961477
78	0x3daf6f70	0.08566177
79	0x3deb3bfe	0.11486052
80	0xbe335451	-0.17512633
81	0x3d93db76	0.07219593
82	0xbdfdc194	-0.12390438
83	0x3e9f8ebc	0.31163585
84	0x3ea35ed3	0.31908283
85	0x3d2e83d6	0.042606197
86	0xbe841e23	-0.25804242
87	0x3cf8ad74	0.030356146
88	0xbdb8a407	-0.09015661
89	0xbdabb491	-0.0838405
90	0x3e3a0bc0	0.18168545
91	0xbe20163b	-0.1563348
92	0x3e4d0b43	0.20023827
93	0x3ea01c44	0.31271565
94	0xbee8eac2	-0.45491606
95	0xbe310422	-0.17286733
96	0x3ed5fb44	0.41793263
97	0x3e901bc3	0.2814618
98	0x3e87c840	0.26519966
99	0xbdb400c4	-0.087892085
100	0x3ea05d80	0.31321335
101	0xbe83dbb3	-0.25753555
102	0x3e19f3ec	0.15034455
103	0xbe3d6bb5	-0.18498118
104	0xbe81e472	-0.25369602
105	0xbdeba205	-0.11505512
106	0xbea93889	-0.33050945
107	0xbea65cb3	-0.324926
108	0x3d6afc15	0.05736931
109	0xbe6fab30	-0.23405147
110	0xbd95d165	-0.073153295
111	0x3d95bb4a	0.07311113
112	0xbe42c14c	-0.1901905
113	0x3da984c8	0.08277279
114	0xbdcf347d	-0.10117433
115	0x3dbf9392	0.09354319
116	0xbe18f454	-0.14936954
117	0x3e951744	0.29119313
118	0xbdb958f1	-0.09050167
119	0x3d85d72f	0.06535184
120	0xbd0a9d90	-0.03384167
121	0xbd6857a4	-0.056724206
122	0xbbbc417e	-0.005745112
123	0xbeea9707	-0.4581835
124	0x3e3145e7	0.17311822
125	0x3ed9ce11	0.4254003
126	0xbedc84bb	-0.43070015
127	0x3e29802a	0.16552797
128	0x3c69e867	0.0142766
129	0xbeb0bdd8	-0.3451984
130	0xbdebff20	-0.115232706
131	0x3d90a654	0.070629746
132	0xbe81d4c8	-0.25357652
133	0x3d021c73	0.031765413
134	0xbe9f7e0b	-0.3115085
135	0x3d8fc936	0.070208
136	0x3de00e42	0.109402195
137	0xbe33a787	-0.17544375
138	0xbaaea425	-0.0013324065
139	0x3de49036	0.111603186
140	0x3e383e19	0.17992438
141	0xbdba91f3	-0.09109869
142	0xbe7fd9e5	-0.24985464
143	0x3e8b4d7a	0.27207547
144	0xbe6a40d6	-0.22876295
145	0x3b56e8c4	0.0032792548
146	0xbdb6513d	-0.08902214
147	0x3f0d7687	0.55258983
148	0x3eb9a98e	0.36262172
149	0xbea10fd6	-0.31457394
150	0xbe293037	-0.16522299
151	0x3c156b71	0.009119854
152	0x3e4d1238	0.20026481
153	0x3e6f8e02	0.23394015
154	0xbde62b0c	-0.11238679
155	0xbdc0ace3	-0.094079755
156	0xbd0f8453	-0.035038304
157	0xbeb3abed	-0.35092106
158	0xbe901008	-0.2813723
159	0x3c9274cc	0.017877959
160	0xbd67ec12	-0.05662162
161	0x3cd97141	0.026543261
162	0x3ea42c94	0.3206526
163	0x3e034b04	0.12821585
164	0xbe0c28ec	-0.13687485
165	0x3ef3b198	0.4759643
166	0xbe179269	-0.14801945
167	0xbc367a16	-0.011137506
168	0xbe091ea9	-0.13390602
169	0x3e1e02eb	0.154308
170	0x3e1448b4	0.14480859
171	0xbe0369b3	-0.1283329
172	0x3d049a03	0.03237344
173	0x39f5aea6	0.00046860165
174	0xbd6e01f8	-0.058107346
175	0xbe088140	-0.13330555
176	0xbd11ec36	-0.03562566
177	0xbdb5f4d3	-0.08884587
178	0x3d1bce15	0.038038332
179	0x3c9e41ad	0.019318426
180	0x3e403efb	0.18774025
181	0x3d5143d5	0.05109008
182	0x3e873750	0.26409388
183	0x3de0eb6e	0.10982405
184	0xbdfc02e8	-0.12305242
185	0x3e5295b4	0.2056492
186	0x3dc9bad0	0.09850085
187	0xbe67c075	-0.2263201
188	0xbe1a4848	-0.15066636
189	0xbdda5824	-0.10661343
190	0x3c5e4b60	0.0135677755
191	0x3c4a09cc	0.012331437
192	0x3e48267b	0.19545929
193	0x3b416a5a	0.0029512853
194	0xbe2baaee	-0.16764423
195	0xbdc6f66a	-0.097149685
196	0xbdb81dad	-0.08990035
197	0x3d485b5b	0.04891525
198	0x3c8016a6	0.0156358
199	0x3eb0bc0b	0.34518465
200	0x3eaea2f3	0.34108695
201	0x3d312b8a	0.043254413
202	0xbd49a5f1	-0.04923052
203	0xbd85a0b4	-0.06524792
204	0xbca140fc	-0.019684307
205	0x3d980050	0.074219346
206	0xbde0113a	-0.10940786
207	0x3e2bafc6	0.16766271
208	0xbeace208	-0.33766198
209	0xbea76945	-0.32697502
210	0x3e76a2da	0.2408556
211	0xbde301a5	-0.11084298
212	0xbd9e4a8d	-0.07729063
213	0x3c958040	0.01824963
214	0xbe50b08c	-0.20379847
215	0xbe8068c3	-0.25079927
216	0x3e2b9393	0.16755514
217	0xbe93ec8b	-0.28891405
218	0xbe877e74	-0.26463664
219	0xbdca4ed3	-0.09878316
220	0xbe16e559	-0.14735927
221	0xbd772749	-0.0603402
222	0x3e06852e	0.13136742
223	0xbeb59f37	-0.35473034
224	0x3ecd1784	0.40057003
225	0xbe1ef1ec	-0.15521973
226	0x3dc86b0c	0.097860426
227	0x3db59e32	0.08868064
228	0x3d409279	0.047014687
229	0x3a87278a	0.0010311466
230	0x3df59b3b	0.119924985
231	0xbe07bc70	-0.13255477
232	0x3ea01424	0.31265366
233	0x3d9ae19b	0.07562562
234	0x3d41659d	0.047216047
235	0xbda885e1	-0.082286604
236	0xbda52879	-0.0806436
237	0xbe34265b	-0.17592756
238	0x3e5b6fd4	0.21429378
239	0x3e02811c	0.12744564
240	0xbda26aef	-0.07930552
241	0x3e0bbf0c	0.13647097
242	0xbe0650e4	-0.13116795
243	0x3e479bc3	0.19493012
244	0xbdf26a63	-0.11836698
245	0x3e6b0d42	0.22954276
246	0xbe73da6e	-0.23813793
247	0xbe0fd420	-0.14045763
248	0x3e8cc645	0.27495018
249	0xbe062a5d	-0.13102098
250	0xbd928c3f	-0.07155656
251	0x3e724268	0.23658144
252	0x3d13b6ab	0.036062878
253	0xbe52f99d	-0.20603032
254	0x3e8d1b58	0.27559924
255	0x3da939fa	0.08263011

hidden_layers.0.bias f4 [50]
0	0xbc64f227	-0.013973749
1	0xbbe22d98	-0.006902408
2	0xbc834787	-0.016025318
3	0xbd1786e2	-0.03699387
4	0x3cc37f28	0.023864344
5	0x3ccf4487	0.025301231
6	0xbbea74d3	-0.00715504
7	0xbd02c7f1	-0.03192896
8	0xbbd4e29d	-0.006496741
9	0xbd195222	-0.037431844
10	0xbd180483	-0.037113678
11	0xbd25e7bd	-0.040504206
12	0xbd79e62e	-0.061010532
13	0x3d0fbbf2	0.035091348
14	0xbd3df0b8	-0.046372145
15	0x3b885402	0.004160405
16	0xbd15b1b2	-0.036546417
17	0x3ca3329f	0.019921599
18	0x3d1862be	0.037203543
19	0xbc9637b3	-0.018337106
20	0x3bbfb473	0.0058503686
21	0x3cc26288	0.023728624
22	0x3d89b896	0.0672466
23	0xbc456509	-0.012048014
24	0x3c146563	0.009057376
25	0xbced8cd7	-0.028997822
26	0xbc90c04b	-0.017669817
27	0xbab9ae9e	-0.001416642
28	0x3c3e45ef	0.011613353
29	0xbb153071	-0.002276447
30	0x3c539055	0.012912829
31	0x3b9545c7	0.0045554372
32	0x3d513065	0.051071543
33	0x3c8bbe57	0.017058535
34	0xbc633e99	-0.013869905
35	0xbb868fd9	-0.0041065034
36	0xbc7129ca	-0.014719436
37	0x3c9258a0	0.017864525
38	0xbd8ab091	-0.067719586
39	0x3d433537	0.04765817
40	0xbcc0bbed	-0.02352711
41	0x3d0a1d5b	0.0337194
42	0x3d19a6c9	0.037512574
43	0xbca60991	-0.020268233
44	0xbca8142e	-0.020517435
45	0x3d390d82	0.045178898
46	0x3d2aaa03	0.041666042
47	0x3d099cba	0.03359673
48	0xbc22f07f	-0.009945034
49	0xbba59d3a	-0.0050541433

hidden_layers.1.weight f4 [50, 50]
0	0xbcffec87	-0.031240715
1	0x3d3f8842	0.046760805
2	0xbd422f52	-0.04740841
3	0xbdc674e1	-0.09690262
4	0x3e0d751a	0.13814202
5	0xbe48d70f	-0.19613288
6	0xbcc9cbfc	-0.0246334
7	0xbe0a3155	-0.13495381
8	0xbebeabd4	-0.3724047
9	0x3c68d0a9	0.014209905
10	0xbe3c0f3f	-0.18365191
11	0x3d3c8751	0.046027485
12	0x3e3a2092	0.18176487
13	0xbcbbebca	-0.022939581
14	0x3ed20e8e	0.4102673
15	0xbf0f8198	-0.5605712
16	0x3e4b88f7	0.19876467
17	0xbd15b6ad	-0.036551166
18	0xbeb114f5	-0.345863
19	0x3ea3d24c	0.3199638
20	0x3d35e6e5	0.04440965
21	0x3e3171e7	0.17328607
22	0x3d30a501	0.04312611
23	0xbe565e22	-0.20934346
24	0xbe51213f	-0.20422839
25	0xbe8cb140	-0.2747898
26	0xbc70ec7f	-0.014704823
27	0x3d9e1175	0.077181734
28	0xbe4e7a8e	-0.20163938
29	0xbe7e414f	-0.24829601
30	0x3d3c3518	0.04594907
31	0xbe034a9c	-0.1282143
32	0x3e40b2d2	0.18818215
33	0xbbf65a4c	-0.0075180884
34	0xbe40790c	-0.18796176
35	0x3d842711	0.06452764
36	0xbe48d68b	-0.19613092
37	0x3e1d1701	0.15340807
38	0xbda1484c	-0.07875118
39	0xbdde638d	-0.108588316
40	0x3dc1b8a6	0.09459047
41	0x3e499049	0.19683947
42	0x3d83434c	0.0640932
43	0xbddd3df2	-0.10802831
44	0x3d597ad1	0.053095642
45	0x3e8709a2	0.26374537
46	0x3ee49221	0.44642738
47	0x3e0941ee	0.13404056
48	0xbd6dbe56	-0.058042847
49	0xbf03365d	-0.51254827
50	0xbe561c07	-0.20909129
51	0xbd921e6e	-0.0713471
52	0x3d3b3daa	0.045713104
53	0xbe9997f4	-0.29998744
54	0xbcd4f752	-0.025996838
55	0x3d9c835e	0.07642244
56	0x3e66a854	0.2252515
57	0xbe7053a5	-0.23469408
58	0xbe73be08	-0.2380296
59	0xbd8ecc8c	-0.06972608
60	0xbdc2a06c	-0.09503254
61	0xbe1276f4	-0.1430319
62	0xbbbc397d	-0.005744158
63	0xbe2cce58	-0.16875589
64	0x3e9b468b	0.30327258
65	0xbe596ac9	-0.21232142
66	0x3e097c7e	0.13426396
67	0x3c693a06	0.014235025
68	0xbe78d7fe	-0.24301144
69	0xbdd43488	-0.10361582
70	0x3e331242	0.17487434
71	0xbebff380	-0.37490463
72	0xbe024069	-0.12719883
73	0xbc4a97ec	-0.012365323
74	0x3e0ba7ae	0.13638183
75	0xbe83ce2c	-0.25743234
76	0x3d4bce19	0.049757097
77	0x3e17fae7	0.14841805
78	0x3e54ee78	0.20794094
79	0xbc2bee61	-0.010493846
80	0x3c11b353	0.008892852
81	0xbe43d009	-0.19122328
82	0x3e1d04ea	0.15333906
83	0xbda19476	-0.07889645
84	0xbdba90ea	-0.091096714
85	0xbc8be9d7	-0.017079277
86	0x3c6b9140	0.014377892
87	0x3e4d2af7	0.20035921
88	0xbf0a9381	-0.54131323
89	0xbe9ae0a8	-0.30249524
90	0x3c3f85c0	0.011689603
91	0xbdd9b4f2	-0.10630216
92	0x3e8a8ad3	0.2705904
93	0xbddbc829	-0.10731537
94	0x3e8e7c67	0.27829286
95	0xbd8f5ab4	-0.06999722
96	0x3e6d45cb	0.23171155
97	0xbb09b0b3	-0.0021009862
98	0x3cba4a59	0.02274053
99	0xbe96f960	-0.29487133
100	0x3e0b80da	0.13623372
101	0xbe653fab	-0.22387569
102	0x3eab5f73	0.3347126
103	0xbd5a7e65	-0.053343195
104	0x3ea49850	0.32147455
105	0xbe353f77	-0.17699991
106	0xbb93354d	-0.004492438
107	0xbcfdd31e	-0.030984458
108	0x3f00bd5f	0.5028896
109	0x3d36905f	0.044571277
110	0xbeb3e2d6	-0.35134
111	0xbc8038a2	-0.015652005
112	0x3f0f6252	0.560094
113	0x3d02e435	0.031955916
114	0xbc6f4870	-0.014604673
115	0xbe45e58d	-0.19325848
116	0x3e695f81	0.22790338
117	0x3caa71bd	0.020806188
118	0xbe8e7429	-0.27822998
119	0xbe9816a2	-0.29704767
120	0xbec03b00	-0.37545013
121	0xbe8c9922	-0.2746058
122	0xbed2bfcd	-0.41161957
123	0x3e504dc1	0.20342161
124	0xbd944789	-0.07240207
125	0xbe1a7502	-0.15083697
126	0xbe32fcdd	-0.17479272
127	0x3e0ae9c5	0.13565738
128	0xbecb7cb1	-0.3974357
129	0xbc463920	-0.012098581
130	0xbe4ba239	-0.19886102
131	0x3e29476f	0.16531156
132	0xbe40807c	-0.18799013
133	0x3ebe632a	0.3718503
134	0x3b846115	0.0040398934
135	0x3d928ad1	0.071553834
136	0x3df70965	0.12062339
137	0x3db373ef	0.08762347
138	0x3db46243	0.088078044
139	0x3e5be4e8	0.2147404
140	0x3d46eddf	0.048566695
141	0x3eb11fe0	0.3459463
142	0xbe6db011	-0.23211695
143	0x3f0cf210	0.5505686
144	0xbe4a7cea	-0.19774213
145	0x3e9bc44c	0.304232
146	0x3c9280cc	0.01788368
147	0x3ec4abd8	0.38412356
148	0x3d72cf39	0.059279654
149	0x3eace66e	0.33769554
150	0xbe7ffb7c	-0.24998277
151	0x3e1ab982	0.15109828
152	0xbe89bfc7	-0.26904127
153	0x3e90131c	0.2813958
154	0x3dc8dd12	0.09807791
155	0x3ecc2210	0.39869738
156	0x3d50cf0a	0.050978698
157	0xbe2ef186	-0.17084321
158	0xbe9159b5	-0.28388754
159	0x3e2fc2e3	0.17164187
160	0xbe89fe02	-0.26951605
161	0x3e4b6771	0.19863679
162	0x3d50a7a4	0.050941125
163	0xbe18c7a2	-0.14919904
164	0x3be00e32	0.0068376297
165	0xbd376065	-0.044769663
166	0xbd1b62f7	-0.037936177
167	0x3e5a0397	0.21290432
168	0xbf00280c	-0.50061107
169	0xbe0594c6	-0.13045034
170	0xbe947aef	-0.2900004
171	0xbe56d4b1	-0.20979573
172	0x3e01d4c9	0.12678827
173	0x3dca790f	0.09886371
174	0xbd0d5f6d	-0.034514833
175	0x3d48d9a4	0.049035683
176	0x3e06ee91	0.13176943
177	0xbcfaa974	-0.03059838
178	0x3da67a4b	0.08128794
179	0x3dc5381b	0.09629842
180	0x3db47403	0.0881119
181	0x3efb071d	0.49028865
182	0xbec90c35	-0.39267126
183	0x3d687945	0.056756277
184	0x3c57ddf7	0.013175479
185	0xbe4daf1d	-0.20086332
186	0xbe9855fc	-0.297531
187	0xbd969c8b	-0.07354077
188	0xbe07f928	-0.1327864
189	0x3d2aafa1	0.0416714
190	0xbeca994d	-0.39570084
191	0xbdedc90b	-0.116106115
192	0xbd917ddf	-0.07104086
193	0x3c28c3e8	0.010300614
194	0xbe3e9ce4	-0.18614537
195	0x3e51d8e2	0.2049289
196	0x3eb49844	0.3527242
197	0x3cafc156	0.021454494
198	0xbdfa5063	-0.12222364
199	0x3bfb174d	0.00766269
200	0x3edab92d	0.42719403
201	0x3dd7ef32	0.1054367
202	0x3d8d70f2	0.06906308
203	0x3cb93eab	0.02261289
204	0xbd299a11	-0.041406695
205	0x3d17977b	0.037009697
206	0xbcbf40aa	-0.023346264
207	0x3e01fb31	0.12693478
208	0xbd49d56f	-0.04927581
209	0x3c2a1abb	0.01038235
210	0xbcedd8f4	-0.029034115
211	0x3dc0e253	0.09418168
212	0x3e0cfb1b	0.13767664
213	0x3ec6a77f	0.38799664
214	0xbd2a15ce	-0.0415247
215	0x3e86d785	0.26336303
216	0xbd184f8e	-0.037185244
217	0xbd54cf71	-0.051955644
218	0x3e86e6d9	0.26347998
219	0xbedf25e2	-0.4358359
220	0xbc5b1fbb	-0.013374264
221	0x3d4b3193	0.049607825
222	0xbe95da5e	-0.29268163
223	0xbe4b92c6	-0.19880208
224	0xbd51f867	-0.051262286
225	0xbdece696	-0.11567418
226	0x3ea98b0b	0.33113894
227	0x3d4f8153	0.050660443
228	0xbd0d453e	-0.034489863
229	0x3dd8c1dc	0.10583851
230	0xbbf35e4a	-0.0074270116
231	0x3c82671c	0.015918307
232	0xbdb34842	-0.087540165
233	0xbe46ee4e	-0.19426844
234	0xbd0ce4b5	-0.0343978
235	0x3d362bc7	0.044475343
236	0x3e5c4c5c	0.21513504
237	0x3de7e012	0.11322035
238	0x3df564f5	0.11982147
239	0xbd97b871	-0.07408226
240	0xbd714a97	-0.058909025
241	0xba521578	-0.00080140634
242	0x3d7e822a	0.062135853
243	0x3b238614	0.0024951743
244	0xbd8ffbc8	-0.07030445
245	0xbe072995	-0.13199456
246	0x3d843410	0.06455243
247	0x3e067cbe	0.13133523
248	0x3ea11917	0.31464455
249	0xbcdac1b9	-0.026703702
250	0xbdb81e9b	-0.089902125
251	0x3b357b4b	0.0027691897
252	0x3e048133	0.1293991
253	0x3d378827	0.04480758
254	0x3e325b52	0.17417648
255	0x3e276362	0.16346505

hidden_layers.1.bias f4 [50]
0	0xbd0ec124	-0.034852162
1	0x3bd7f45b	0.0065904087
2	0xba771d2c	-0.0009426649
3	0x3c831dd7	0.01600544
4	0x3d3bf03d	0.045883406
5	0x3c04f640	0.008115351
6	0x3d59e552	0.053197213
7	0x3b9b8c1d	0.0047469274
8	0xbc2dd6a8	-0.01061026
9	0x3cd7e468	0.02635403
10	0xbcc4bc20	-0.024015486
11	0x3c050211	0.008118168
12	0x3bb785cd	0.005600667
13	0xbba5de4b	-0.0050619
14	0xb991aa4a	-0.0002778343
15	0x3ce2b073	0.027672028
16	0x3c9864eb	0.018602809
17	0xba9ca3c4	-0.0011950661
18	0xbca499a0	-0.020092785
19	0x3d70e807	0.05881503
20	0xbbf22fa7	-0.0073909345
21	0x39c98c79	0.00038442368
22	0xbca58221	-0.020203652
23	0xbd3b4017	-0.045715418
24	0xbcf1e88b	-0.02952983
25	0x3ce29fd5	0.027664104
26	0xb839585d	-4.4189732e-05
27	0xbb3f6100	-0.0029202104
28	0xbc2d2691	-0.010568277
29	0xbb837637	-0.004011895
30	0xbcbc50ec	-0.022987805
31	0x3c784ad3	0.015154558
32	0x3b7fb85c	0.00390198
33	0xbc5aba81	-0.01335013
34	0xbcaceaa9	-0.021107988
35	0x388bd10b	6.666974e-05
36	0x3c41698e	0.011804951
37	0x3c63ee5b	0.013911809
38	0xbc322264	-0.010872457
39	0xbb8e7a0a	-0.0043480443
40	0xbb5a9cfc	-0.003335773
41	0xbd440be4	-0.047862902
42	0xbcacab6a	-0.02107783
43	0xbb134a5a	-0.0022474737
44	0x3c3b0bdf	0.0114164045
45	0x3c913238	0.017724141
46	0x3ca5bc09	0.020231264
47	0x3cdce3de	0.026964124
48	0x3d4e7468	0.050403982
49	0x3c021480	0.007939458

output_layer.weight f4 [2, 50]
0	0x3df0dd3b	0.11760946
1	0xbe55d3c0	-0.20881557
2	0xbe86d824	-0.26336777
3	0xbe089c17	-0.13340794
4	0xbe30e641	-0.17275335
5	0xbc11d35b	-0.008900489
6	0xbe7861ad	-0.2425601
7	0x3bb7e170	0.005611591
8	0x3cc67b35	0.024228672
9	0xbefb2902	-0.49054724
10	0xbdd922a1	-0.10602308
11	0xbca6e60b	-0.020373365
12	0xbb6a235b	-0.003572664
13	0x3e75e687	0.2401372
14	0xbd83ba87	-0.06432062
15	0x3de99ec5	0.11407236
16	0x3c6319b4	0.013861109
17	0x3d6b0e3e	0.05738663
18	0xbd8a08f2	-0.067399874
19	0xbdc814d9	-0.097696014
20	0x3f24fcd5	0.6444829
21	0xbdb5ca1e	-0.088764414
22	0x3da1b374	0.07895556
23	0x3ee79202	0.45228583
24	0x3e16a9c3	0.14713196
25	0xbc96b1a1	-0.018395247
26	0x3e700aab	0.2344157
27	0x3e70b3f9	0.23506154
28	0x3d3c3720	0.04595101
29	0xbc4cee83	-0.0125080375
30	0x3c307227	0.010769404
31	0x3d7b0c19	0.061290834
32	0xbc68d06c	-0.014209848
33	0x3cb958e9	0.022625403
34	0x3dd54564	0.10413626
35	0xbe26ebc0	-0.16300869
36	0xbe24e1fc	-0.16101831
37	0xbe82cd53	-0.25547275
38	0xbdd0bda8	-0.10192424
39	0x3d69c811	0.057075564
40	0x3d948e77	0.072537355
41	0xbe7e76b1	-0.24849965
42	0x3d2590b7	0.040421214
43	0xbd71378d	-0.058890868
44	0x3e4b768f	0.19869445
45	0x3dbd5b2e	0.09245907
46	0xbe155190	-0.14581895
47	0xbdac4138	-0.08410877
48	0xbe041cdf	-0.12901638
49	0x3c879094	0.016548432
50	0xbde89d33	-0.11358108
51	0xbd5f1d2b	-0.054471176
52	0xbe55a0ea	-0.20862165
53	0xbd346217	-0.04403886
54	0x3dbdaf16	0.092619106
55	0xbe215561	-0.15755226
56	0xbeadd62b	-0.3395246
57	0xbeccffa9	-0.40038803
58	0x3e859d9b	0.26096806
59	0x3e1f745c	0.15571731
60	0xbeaf1587	-0.34196112
61	0xbe285be9	-0.16441311
62	0x3dd6b98e	0.104846105
63	0x3d44e042	0.04806543
64	0x3dd9460a	0.10609062
65	0x3e431977	0.19052683
66	0xbdb87dad	-0.09008346
67	0x3e25ebf4	0.1620329
68	0x3dc1b465	0.09458236
69	0xbb54c46d	-0.0032465712
70	0x3e5467d1	0.20742728
71	0xbe7126ac	-0.23549908
72	0xbded04ca	-0.11573179
73	0xbea92daf	-0.33042666
74	0xbe7f4ba2	-0.24931195
75	0x3d822b54	0.063559204
76	0xbe940faf	-0.28918216
77	0xbc19466a	-0.009355167
78	0xbd55ef04	-0.052229896
79	0x3cff3b04	0.03115607
80	0xbe93919d	-0.28822032
81	0xbdfd3d3f	-0.123651974
82	0xbdd7e321	-0.10541368
83	0x3de80c40	0.113304615
84	0x3cc01442	0.02344716
85	0x3ed2a037	0.4113786
86	0xbbd50bbc	-0.006501643
87	0x3e8777da	0.26458627
88	0x3d1655fa	0.036703087
89	0x3dd732c7	0.10507732
90	0xbdc3c242	-0.09558536
91	0xbe20e397	-0.15711819
92	0x3e100110	0.14062905
93	0xbcd68555	-0.026186625
94	0xbe36cb72	-0.17851046
95	0x3e6d9244	0.23200327
96	0x3c7321b7	0.014839581
97	0x3da01101	0.07815743
98	0x3da55137	0.08072131
99	0xbd8f1996	-0.06987302

output_layer.bias f4 [2]
0	0x3c545fe2	0.012962313
1	0xbccfa08a	-0.025345106

exp_avg f4 [50, 2]
0	0xbf62bf83	-0.88573474
1	0xbdefc4cf	-0.1170746
2	0xbefd8dd5	-0.49522272
3	0x3d37d8f1	0.044884626
4	0x3f2857f8	0.6575923
5	0x3ea4f099	0.3221481
6	0xbf42f59e	-0.7615603
7	0x3dddd739	0.10832066
8	0xbfb8f48e	-1.4449632
9	0x3f694513	0.91121024
10	0x3fe0e9ff	1.757141
11	0x3ebae504	0.3650285
12	0x3e3deb8a	0.18546882
13	0x3e08f10f	0.13373207
14	0xbebbaefc	-0.3665694
15	0xbd37cf66	-0.044875525
16	0x3e498474	0.19679433
17	0x3e8675e7	0.26261827
18	0xc012b655	-2.2923787
19	0x3f18d1b3	0.59694976
20	0xbfa88ecd	-1.3168579
21	0xbcf16118	-0.029465243
22	0xbf114908	-0.5675206
23	0x3ebef824	0.3729869
24	0x3e83d5d3	0.25749072
25	0xbea41faa	-0.32055408
26	0xbe6abcd4	-0.22923595
27	0x3d5fa810	0.054603636
28	0xbed966ad	-0.42461148
29	0x3dcdb96e	0.100451335
30	0xc017bd53	-2.3709304
31	0xbe8e3db1	-0.27781442
32	0x3fa2931b	1.2701143
33	0x3dd0cc7a	0.10195251
34	0xbfbc6bea	-1.4720433
35	0x3e2bc7c7	0.16775428
36	0x3f132d69	0.57491165
37	0xbf2ccae1	-0.6749707
38	0xbf4e7f99	-0.8066345
39	0xbf067137	-0.525165
40	0x3eec73b2	0.4618202
41	0xbdda46b5	-0.106580175
42	0x3fb1e3b1	1.3897611
43	0xbf79a839	-0.9752231
44	0x4013de4b	2.3104427
45	0x3f798363	0.97466105
46	0x3da7d985	0.081957854
47	0xbd48ef9b	-0.04905663
48	0xbe83069c	-0.2559098
49	0x3eba56e1	0.36394408
50	0xbfed1e81	-1.8524934
51	0xbc235e57	-0.009971223
52	0xbe2163b7	-0.15760694
53	0x3eb33785	0.35003296
54	0x3f379562	0.71712315
55	0xbe817320	-0.25283146
56	0xc0227ddf	-2.5389326
57	0x3f15441b	0.58307046
58	0x3f870c75	1.0550677
59	0xbf533615	-0.825044
60	0xbedd0878	-0.43170524
61	0xbf009664	-0.5022948
62	0xbf58ebcc	-0.847348
63	0x3db45fe4	0.08807352
64	0xbe8ba282	-0.2727242
65	0x3ef10167	0.47071382
66	0x4056f10e	3.3584628
67	0x3d892aaa	0.06697591
68	0x3f9dbd43	1.2323383
69	0x3e115d5d	0.14195772
70	0xbffb6098	-1.9638853
71	0xbe47898b	-0.19486062
72	0xbf895d83	-1.0731663
73	0xbf058d3f	-0.5216865
74	0x3f99947e	1.1998441
75	0x3f63ac5e	0.88934886
76	0x3dc1de4b	0.09466227
77	0xbefac146	-0.4897558
78	0x3fa70d8b	1.3051008
79	0x3d7769b8	0.060403556
80	0x3e1905b2	0.14943579
81	0xbe65e086	-0.2244893
82	0x40749a3e	3.8219142
83	0x3f0d0bdc	0.5509622
84	0xc00ffe5b	-2.2498996
85	0x3e072af6	0.13199982
86	0x403f91c9	2.993273
87	0xbf1f58eb	-0.62245053
88	0x3e3c3d77	0.18382822
89	0xbcfd755c	-0.03093975
90	0x4079920f	3.8995397
91	0x40064725	2.0980923
92	0xbff500d9	-1.9140884
93	0xbf19181d	-0.5980242
94	0xbe21fa5b	-0.1581816
95	0x3d51e00d	0.051239062
96	0x3ec8cefb	0.39220414
97	0x3c435fe0	0.011924714
98	0xbed28096	-0.41113728
99	0xbee28bcc	-0.44247282

exp_avg_sq f4 [50, 2]
0	0x41de3c3e	27.779415
1	0x3fdbc59e	1.7169683
2	0x41a36f56	20.429363
3	0x40063f64	2.097619
4	0x41e6ca27	28.848707
5	0x41a66d2b	20.803305
6	0x41dabb31	27.341402
7	0x4163f8a2	14.248201
8	0x426f1b2d	59.77654
9	0x42129fce	36.65606
10	0x42e00a2a	112.01985
11	0x42d2e44e	105.44591
12	0x41a97d51	21.18619
13	0x40f24515	7.570933
14	0x41ef5ec4	29.921272
15	0x4253ec67	52.98086
16	0x40ecc399	7.3988767
17	0x41066e7b	8.401973
18	0x423d00f0	47.250916
19	0x41f9f14e	31.242825
20	0x41c9e541	25.23694
21	0x419df1e8	19.743118
22	0x428689f1	67.26942
23	0x42489a83	50.15089
24	0x41f0bec9	30.093157
25	0x42cc9ea4	102.309845
26	0x42c29e5b	97.30929
27	0x41aabd0b	21.342306
28	0x40eda9fa	7.426999
29	0x40a4e6f7	5.153194
30	0x42b411f2	90.03505
31	0x41bcde23	23.608465
32	0x4117e217	9.492698
33	0x411ab51b	9.669215
34	0x418d4d76	17.662823
35	0x4231e89e	44.477165
36	0x420227dc	32.538925
37	0x42033e16	32.81063
38	0x405aa5a4	3.41636
39	0x3ff23267	1.8921632
40	0x4342c4a0	194.76807
41	0x42f332ab	121.59896
42	0x4108499e	8.517973
43	0x40d07d12	6.5152674
44	0x42c40ade	98.021225
45	0x413535c9	11.325631
46	0x3f9c77b3	1.2224029
47	0x40855954	4.1671543
48	0x41fb2171	31.391329
49	0x4179e9d8	15.619591
50	0x41ed425c	29.657402
51	0x4005b389	2.089083
52	0x41787bc4	15.530216
53	0x4134d94d	11.303052
54	0x428fa986	71.8311
55	0x419557f8	18.667953
56	0x41c29ba5	24.325998
57	0x4232c796	44.69491
58	0x400787a4	2.1176538
59	0x40187544	2.3821573
60	0x4162097f	14.127318
61	0x4212a5d3	36.661938
62	0x4213c620	36.94348
63	0x418a6a4e	17.301907
64	0x412366fb	10.212642
65	0x413f33bb	11.9501295
66	0x428311c0	65.53467
67	0x432935b0	169.20972
68	0x42161b8d	37.526905
69	0x418ef3aa	17.868977
70	0x42676c89	57.85599
71	0x40891379	4.283627
72	0x42c3e8fd	97.955055
73	0x4211053a	36.255104
74	0x40e07cdd	7.015242
75	0x41a62ba3	20.771307
76	0x4107a73e	8.478331
77	0x41470ff8	12.441399
78	0x41abe28d	21.48562
79	0x40be5fbc	5.9491863
80	0x40fefee2	7.9686136
81	0x412775ee	10.466291
82	0x426ff0f3	59.985302
83	0x42d61469	107.03986
84	0x431a90bc	154.56537
85	0x42267288	41.611847
86	0x42d8eeec	108.466644
87	0x41663d75	14.390004
88	0x41e0d3f1	28.103487
89	0x4092234d	4.566809
90	0x428ba322	69.81862
91	0x420095ae	32.14617
92	0x429c75a6	78.22978
93	0x4067375e	3.6127543
94	0x41dd83e0	27.689392
95	0x41266143	10.398746
96	0x4138ba2b	11.545451
97	0x414d90ae	12.847822
98	0x41976335	18.92344
99	0x41566f2e	13.4021435

exp_avg f4 [50]
0	0x3ea8cb09	0.32967404
1	0x404cc45f	3.1994855
2	0x3eee9ddd	0.46604815
3	0x3f0421bf	0.5161399
4	0x4005c30d	2.09003
5	0x3e1fbe4b	0.15599935
6	0x3d3436c8	0.043997556
7	0x3fe1ea79	1.764968
8	0x3e2b1a6a	0.16709295
9	0x40438f8a	3.055636
10	0x3f33be62	0.70212376
11	0x401fc4ab	2.4963787
12	0x3f91c4dc	1.1388202
13	0xbff62b5a	-1.923198
14	0x3f24a68e	0.6431664
15	0x40310134	2.7656984
16	0xc01ab8d2	-2.4175305
17	0x4077dcf9	3.872862
18	0xbf0f8bbe	-0.56072605
19	0x3f32eeef	0.69895834
20	0x3f582ef1	0.84446627
21	0xc037dd56	-2.8728843
22	0xbf7d853a	-0.9903141
23	0xbe20b7b6	-0.1569508
24	0x3f8588f6	1.0432422
25	0x3fd57383	1.6675876
26	0xbf103b71	-0.563407
27	0x3ec3086c	0.38092363
28	0x3f9966ca	1.1984494
29	0xbe607c07	-0.21922313
30	0x3e46d26a	0.19416204
31	0x40610864	3.5161371
32	0xc003e5d4	-2.0609026
33	0xc092640c	-4.5747128
34	0xbea7f88d	-0.32806817
35	0x3f6d222d	0.92630273
36	0xbd9b472d	-0.07581935
37	0xc05d6ca1	-3.4597552
38	0x3ec689c3	0.3877698
39	0xbf20368d	-0.6258324
40	0xbe3370a4	-0.17523438
41	0xc0a93612	-5.2878504
42	0x3fd2911e	1.6450536
43	0xbff62810	-1.9230976
44	0xbe441728	-0.19149458
45	0xc0573004	-3.3623056
46	0x3f1ddaf6	0.6166223
47	0xbd8fc9fe	-0.07020949
48	0xbf5e158f	-0.86751646
49	0xbebd8321	-0.37014106

exp_avg_sq f4 [50]
0	0x42d85595	108.16715
1	0x42b39dc9	89.808174
2	0x44802970	1025.2949
3	0x44d67a44	1715.8208
4	0x451fd382	2557.2192
5	0x450c8e25	2248.884
6	0x44349087	722.25824
7	0x448f6740	1147.2266
8	0x43f8533e	496.65033
9	0x43ab6f50	342.86963
10	0x43fbe7b2	503.81012
11	0x4538641a	2950.2563
12	0x44ca7464	1619.6372
13	0x44962128	1201.0361
14	0x44135ef3	589.4836
15	0x443c7fbc	753.99585
16	0x43d1ca3c	419.57996
17	0x43f01d6c	480.22986
18	0x4399bdff	307.48434
19	0x42f5b182	122.846695
20	0x45bc5b2c	6027.3965
21	0x43318ed6	177.55795
22	0x43cdfffd	411.9999
23	0x4253ac83	52.91847
24	0x44541b0c	848.4226
25	0x43835792	262.68414
26	0x446fab0c	958.6726
27	0x43e4669c	456.80164
28	0x443bcb3b	751.1755
29	0x421a6894	38.602127
30	0x4420ff7b	643.9919
31	0x4442a03c	778.50366
32	0x434e35a4	206.20953
33	0x45098a31	2200.637
34	0x444b4b5f	813.1777
35	0x43719d89	241.61537
36	0x4406932c	538.29956
37	0x43149427	148.57872
38	0x430cfabc	140.97943
39	0x436fac37	239.67271
40	0x42c2401d	97.12522
41	0x44b15c03	1418.8754
42	0x4593737f	4718.437
43	0x4499b61b	1229.6908
44	0x437d3b03	253.23051
45	0x4332466a	178.27505
46	0x43630a2b	227.03972
47	0x44d50da2	1704.426
48	0x435c4f0b	220.30876
49	0x43916e5c	290.86218

exp_avg f4 [50, 50]
0	0x3e920537	0.28519604
1	0x3e96adc7	0.29429457
2	0xbfb8cf44	-1.4438252
3	0x3fc91b6b	1.5711492
4	0x3f93ec4e	1.155649
5	0xbf8ca620	-1.0988197
6	0xbff1198e	-1.8835924
7	0xbfb309fc	-1.3987422
8	0xbebb54c7	-0.36588117
9	0xbf5e21b8	-0.867702
10	0x3f8ec464	1.1153684
11	0x3fd98688	1.6994181
12	0x3f15cde5	0.58517295
13	0xbe0dcb57	-0.13847099
14	0xbfd75bb9	-1.6824867
15	0x3f9fb323	1.2476543
16	0x3f7439ec	0.9540088
17	0xbf749b35	-0.9554933
18	0x3e8f190c	0.27948797
19	0x3f3e2d7d	0.7428816
20	0x3f169674	0.58823323
21	0xbf79f4b4	-0.9763901
22	0x3f8a0ec4	1.0785756
23	0x3f3872d5	0.7205022
24	0xbd89cfcc	-0.06729087
25	0x3f1a3907	0.60243267
26	0xbd3620f3	-0.044465017
27	0x3f2478d5	0.64246875
28	0x3f7c4167	0.98537296
29	0xbef82ac1	-0.4847012
30	0xbed96333	-0.42458495
31	0xbee11164	-0.4395858
32	0x3fb51d82	1.414963
33	0xbe85f9e6	-0.2616722
34	0xbf93f149	-1.1558009
35	0x3ed4238e	0.41433376
36	0xbf09cedb	-0.5383126
37	0x3ee95f7b	0.45580658
38	0xbcf01cbd	-0.029310578
39	0x3f4e03d4	0.8047459
40	0x3eaa62b5	0.33278432
41	0xbd5d30be	-0.054001562
42	0xbe14eec5	-0.14544208
43	0xbf0c334f	-0.5476579
44	0x3f2c028a	0.67191374
45	0xbfa07f13	-1.253878
46	0xbf823885	-1.0173498
47	0x3fa20308	1.2657175
48	0x3eb86417	0.36013862
49	0xbfddc3ab	-1.7325338
50	0xbf3373a4	-0.7009833
51	0x3e4688ec	0.19388169
52	0xbf7f7651	-0.9978991
53	0x3f8aa2d7	1.0830945
54	0x3f09056c	0.535239
55	0xbf6594ba	-0.89680064
56	0xbf9b0d7f	-1.2113494
57	0xbf81412a	-1.0098011
58	0xbf6b6ac1	-0.9195977
59	0xbee7f1a9	-0.4530156
60	0x3f27d463	0.6555845
61	0x3f94e76a	1.1633122
62	0x3f48332c	0.7820308
63	0xbf0b6b85	-0.54460937
64	0xbf934e2f	-1.1508235
65	0x3f783328	0.9695306
66	0x3f4bae1d	0.7956255
67	0xbf5fc12f	-0.8740415
68	0x3de079da	0.10960741
69	0x3f603d01	0.87593085
70	0xbe8ca551	-0.27469876
71	0xbf31ced7	-0.6945624
72	0x3f6963e8	0.9116807
73	0x3f198f15	0.5998395
74	0xbf4d3e0b	-0.80172795
75	0x3f657094	0.89624906
76	0x3ecbc482	0.3979836
77	0xbc9426aa	-0.018084843
78	0x3f17b789	0.5926443
79	0x3e7f5158	0.24933374
80	0x3e5a9650	0.21346402
81	0xbeedf9ff	-0.46479794
82	0x3f7d4f6d	0.9894932
83	0xbd9fe204	-0.07806781
84	0xbf381621	-0.71908766
85	0x3f64807d	0.8925856
86	0x3e135201	0.14386751
87	0x3e983641	0.29728892
88	0x3f0d8018	0.5527358
89	0x3f28d1ed	0.6594532
90	0xbeffdca6	-0.4997303
91	0xbe3131e7	-0.17304192
92	0xbf235e4f	-0.6381578
93	0x3cecc182	0.028900865
94	0x3f6bab7e	0.9205855
95	0xbf7c2e39	-0.9850803
96	0xbf635992	-0.8880855
97	0x3f4961b2	0.78664696
98	0x3e2bc361	0.1677375
99	0xbf96a6b3	-1.1769623
100	0x3daea690	0.08527863
101	0xbd1b4b1c	-0.037913427
102	0x3e335573	0.17513065
103	0xbe3b6494	-0.18300086
104	0xbe09d8de	-0.13461635
105	0x3e2468c1	0.16055585
106	0x3e1ed633	0.15511398
107	0x3e315a16	0.17319521
108	0x3e250efe	0.16119
109	0x3dc07519	0.093973346
110	0xbe080b0e	-0.13285467
111	0xbe397840	-0.18112278
112	0xbe123524	-0.14278084
113	0x3dbaf3af	0.0912851
114	0x3e39e900	0.18155289
115	0xbe2ff676	-0.17183861
116	0xbe138a31	-0.14408185
117	0x3e23cf20	0.1599698
118	0xbcaab90a	-0.020840187
119	0xbe28075f	-0.16409062
120	0x3c1d8b5d	0.009615746
121	0x3e026730	0.12734675
122	0xbe296454	-0.16542178
123	0xbddab159	-0.10678358
124	0x3e02354d	0.12715645
125	0xbe29f421	-0.16597034
126	0xbd80e2a2	-0.06293227
127	0xbcb89c76	-0.022535544
128	0xbded25ec	-0.11579499
129	0xbca78efd	-0.020453924
130	0xbc844634	-0.016146757
131	0x3daad406	0.083412215
132	0xbe30a82a	-0.1725165
133	0x3c92d987	0.01792599
134	0x3e0f593b	0.13998882
135	0xbe22a133	-0.15881805
136	0xb9dc1f46	-0.0004198497
137	0xbd588253	-0.05285866
138	0xbdaf52d4	-0.0856072
139	0xbdf41493	-0.11917987
140	0x3d77264f	0.06033927
141	0x3cf0be21	0.029387536
142	0x3dd9e903	0.106401466
143	0x3c890547	0.01672615
144	0xbe319b05	-0.17344292
145	0x3e37ab96	0.17936549
146	0x3e25a6be	0.16176888
147	0xbe1e127b	-0.15436737
148	0xbd0701ab	-0.032960575
149	0x3e3698fd	0.17831798
150	0x3f443927	0.7664971
151	0x3e1378e7	0.1440159
152	0xbf2ead91	-0.6823359
153	0x3f41e769	0.7574373
154	0x3f502bd7	0.81316894
155	0xbe85a18d	-0.26099816
156	0xbf57c365	-0.84282523
157	0xbf084cd1	-0.5324221
158	0x3efdd3d6	0.4957568
159	0xbf0f9890	-0.56092167
160	0x3f2a1c38	0.6644931
161	0x3f4a54ec	0.7903583
162	0xbe4536a3	-0.19259124
163	0x3ec0bf4d	0.3764595
164	0xbf429cbf	-0.76020426
165	0x3ea6ac68	0.3255341
166	0x3e762225	0.24036463
167	0xbd905933	-0.070482634
168	0x3e587aa8	0.2114054
169	0xbe304bca	-0.17216411
170	0x3f454955	0.7706502
171	0xbedd0b0f	-0.431725
172	0x3e230dd3	0.15923242
173	0x3e4b6f5e	0.19866702
174	0x3f1ade32	0.60495293
175	0xbe9e43a5	-0.30910984
176	0xbed73cdd	-0.42038622
177	0x3f2ebc8f	0.6825647
178	0x3f1088b1	0.56458575
179	0xbf2e62ee	-0.68119705
180	0xbf1ee3ac	-0.6206615
181	0xbc9f5d0e	-0.019453552
182	0x3f23bf9f	0.63964266
183	0xbe68c36b	-0.22730796
184	0xbf25e039	-0.6479526
185	0xbee11dc7	-0.4396803
186	0xbf2b552a	-0.66926825
187	0x3e64783b	0.2231149
188	0xbf05566b	-0.5208499
189	0x3e73a205	0.23792274
190	0x3f3427d7	0.7037329
191	0x3deab2e3	0.11459901
192	0x3ee31bdd	0.44357195
193	0xbf1c926b	-0.61160916
194	0xbe9b23b0	-0.30300665
195	0xbe64d78f	-0.22347854
196	0xbdffc255	-0.12488238
197	0x3f38eded	0.72238046
198	0x3e7e76e8	0.24850047
199	0xbf4be5cf	-0.79647535
200	0xbfc23a61	-1.5174066
201	0xbf1f94b2	-0.62336266
202	0x40439b37	3.0563486
203	0xc056e9bb	-3.3580158
204	0xc03b9741	-2.9311068
205	0x3ff9521b	1.9478182
206	0x4076e0dc	3.8574743
207	0x4030148d	2.7512543
208	0xbd8c0461	-0.06836773
209	0x4003a36e	2.05685
210	0xc0250415	-2.5783741
211	0xc064a51b	-3.5725772
212	0xbf1e2aab	-0.61783856
213	0xbe9936c9	-0.2992461
214	0x405f91bf	3.4932706
215	0xc00fb579	-2.2454512
216	0xbfdab80e	-1.7087419
217	0x3fbf533a	1.4947274
218	0xbf3386c8	-0.70127535
219	0xbf640553	-0.89070624
220	0xc000023f	-2.000137
221	0x4001193d	2.0171654
222	0xbfe43f17	-1.7831753
223	0xbfa95383	-1.3228611
224	0xbf32d50c	-0.69856334
225	0xbf0553e9	-0.5208116
226	0x3f22fb34	0.63664556
227	0xbff6531e	-1.9244115
228	0xc00ee30d	-2.232608
229	0x3fd84bdf	1.6898154
230	0x3fbf9bd7	1.4969434
231	0x3f2abd96	0.66695535
232	0xc03c97e0	-2.9467697
233	0x3f31c0e3	0.69434947
234	0x4026e298	2.6075802
235	0xbd962780	-0.07331753
236	0x3fdf90ed	1.7466103
237	0xbf7a3816	-0.9774183
238	0x3f3f46fb	0.7471768
239	0xbfbf2dec	-1.4935889
240	0xbfbe8785	-1.4885107
241	0xbda125af	-0.07868516
242	0xbebdf880	-0.37103653
243	0x3fd59cb7	1.668845
244	0xbf24cf9e	-0.643793
245	0x4007d4fb	2.1223743
246	0x3fd33573	1.6500686
247	0xc0391b0b	-2.8922756
248	0xbf5e1929	-0.8675714
249	0x4067acd7	3.6199243
250	0xbf1e660b	-0.61874455
251	0xbf10da39	-0.5658298
252	0x403b848b	2.9299648
253	0xc0528d4e	-3.2898746
254	0xc03113c3	-2.7668312
255	0x3fee655a	1.862468

exp_avg_sq f4 [50, 50]
0	0x40419fa5	3.025369
1	0x3fe1f97a	1.7654259
2	0x41da573a	27.292591
3	0x420be33d	34.971912
4	0x418e10e7	17.758253
5	0x4175eed9	15.370812
6	0x4260c365	56.190815
7	0x41bd5bf2	23.669895
8	0x40b4c8b1	5.6494985
9	0x41324eff	11.144286
10	0x41871481	16.885012
11	0x42256a73	41.353954
12	0x40c2eccf	6.0914073
13	0x3f9b2eb4	1.2123628
14	0x42243f40	41.061768
15	0x41a2eb1d	20.364801
16	0x4141c78f	12.11122
17	0x41489338	12.535942
18	0x400b0cd9	2.1726592
19	0x412a78bf	10.654479
20	0x408f6892	4.481515
21	0x4141e26b	12.117778
22	0x4181a5aa	16.20589
23	0x4125296e	10.322615
24	0x40197f80	2.398407
25	0x411c1f13	9.7575865
26	0x3fdce626	1.7257736
27	0x40cfd460	6.4946747
28	0x4137e26f	11.492782
29	0x40b5d81e	5.6826315
30	0x40648199	3.57041
31	0x406cb805	3.6987317
32	0x41cb0b1a	25.38042
33	0x3f7d415f	0.98927873
34	0x4179415e	15.578459
35	0x40b850e7	5.759876
36	0x403a6128	2.91218
37	0x403e2145	2.9707806
38	0x4048f324	3.1398401
39	0x4103e799	8.244042
40	0x3fdb7c24	1.714726
41	0x3f4ca0ca	0.79932845
42	0x3fb57053	1.4174904
43	0x4081cbdc	4.056135
44	0x410b888f	8.7208395
45	0x41a752da	20.915455
46	0x416a5526	14.645788
47	0x41a31684	20.385994
48	0x4062d01d	3.5439522
49	0x422e60c3	43.594494
50	0x4024aee7	2.5731752
51	0x3fa64f77	1.2993001
52	0x4208d4b7	34.20773
53	0x4230a155	44.15755
54	0x41d25959	26.293627
55	0x41831815	16.386759
56	0x428a81e0	69.25366
57	0x41e3db09	28.48195
58	0x406754ee	3.6145587
59	0x414400a0	12.250153
60	0x41a40fc2	20.507694
61	0x42549452	53.144844
62	0x40b02cc4	5.5054646
63	0x3f59d7fa	0.8509518
64	0x4247c82f	49.94549
65	0x41aa6e73	21.30393
66	0x41490ca2	12.565584
67	0x414bfe43	12.749576
68	0x3fabee97	1.3432187
69	0x410a6e8a	8.651987
70	0x40d99ee7	6.8006473
71	0x4160c2ed	14.047589
72	0x4180c126	16.09431
73	0x410c1b3b	8.756648
74	0x3f96c0a7	1.1777543
75	0x40df127e	6.9710073
76	0x3f46afda	0.7761208
77	0x40f90a07	7.782474
78	0x416a4b1c	14.643337
79	0x40aa3d63	5.3199935
80	0x406079bb	3.5074298
81	0x40456e6e	3.084865
82	0x41fca49b	31.580374
83	0x3f6fe630	0.93710613
84	0x41aa2044	21.265755
85	0x4082e385	4.0902734
86	0x409f0d03	4.9703383
87	0x40500eea	3.2509103
88	0x3fac0893	1.3440117
89	0x4112fc6f	9.186629
90	0x401f6b24	2.4909143
91	0x3e948044	0.2900411
92	0x3f81ebd9	1.01501
93	0x40973f2f	4.726463
94	0x40f38eeb	7.611196
95	0x41a516bc	20.6361
96	0x4166bf45	14.421697
97	0x41de36d3	27.77677
98	0x4005676d	2.0844376
99	0x425e19d9	55.52524
100	0x401b4b1c	2.4264593
101	0x3fab2f03	1.3373722
102	0x407d29bd	3.9556725
103	0x406070f5	3.5068944
104	0x40245510	2.5676918
105	0x3fc71fd3	1.5556587
106	0x40881e5a	4.253705
107	0x3fec4c9c	1.8460879
108	0x403bda53	2.9352005
109	0x40ab233b	5.3480506
110	0x409d3783	4.9130263
111	0x40402d6c	3.0027723
112	0x3f53cf2b	0.8273799
113	0x3e7f8083	0.24951367
114	0x40bc0c48	5.876499
115	0x40786e45	3.8817303
116	0x3fd8b485	1.693009
117	0x3fa23aa8	1.267415
118	0x3fed8011	1.8554708
119	0x3fdb8992	1.7151358
120	0x3ff39f05	1.9032904
121	0x4015e50c	2.342105
122	0x3ffde14e	1.9834383
123	0x40b942f3	5.7894225
124	0x4010551c	2.2551947
125	0x40458738	3.086378
126	0x3ff31823	1.8991741
127	0x40461ec6	3.0956283
128	0x3fe170ad	1.7612511
129	0x4091ded8	4.5584526
130	0x3fcc59a8	1.5964861
131	0x3f3dd2cc	0.74149776
132	0x401bed5a	2.4363618
133	0x3f165b1c	0.5873277
134	0x3fcf6a2f	1.620428
135	0x3f9ffee0	1.2499657
136	0x3eec8331	0.4619384
137	0x3ecabaca	0.39595634
138	0x40408651	3.008198
139	0x3fb2230b	1.3916944
140	0x3f2a564a	0.66537917
141	0x3eca32e9	0.39491966
142	0x3eaa31b8	0.33241057
143	0x40338522	2.8050008
144	0x3fa70c1c	1.305057
145	0x4014adfe	2.3231196
146	0x4043cf34	3.0595217
147	0x3fe2f628	1.7731371
148	0x40581e18	3.3768368
149	0x4045c25d	3.089988
150	0x4109d012	8.613298
151	0x41334198	11.203514
152	0x415c2e92	13.76137
153	0x41132e32	9.198778
154	0x418768bd	16.926142
155	0x40de9bc3	6.956514
156	0x41592f99	13.5741205
157	0x40b25453	5.5727935
158	0x41b0c5dc	22.096611
159	0x419126a8	18.143875
160	0x4168232d	14.508588
161	0x41409aa5	12.037755
162	0x3f44070c	0.7657325
163	0x3f933c7b	1.1502832
164	0x419afd90	19.37381
165	0x41297aff	10.592528
166	0x41476999	12.463281
167	0x3fa0ced9	1.2563125
168	0x418f0e4f	17.881987
169	0x4106c223	8.422397
170	0x415173f8	13.090813
171	0x408a1807	4.315433
172	0x4018fa5f	2.3902814
173	0x412366e8	10.212624
174	0x4199427a	19.15746
175	0x40391ac4	2.8922586
176	0x40a74fa8	5.2284737
177	0x412a7609	10.653817
178	0x417f0ffd	15.941403
179	0x4136cb1a	11.424585
180	0x40860fbe	4.1894217
181	0x4039c530	2.9026604
182	0x40e292f4	7.0804386
183	0x40ab53f6	5.353999
184	0x4119dfa8	9.617104
185	0x407d8bc8	3.9616566
186	0x40f152f2	7.541375
187	0x3ff25948	1.8933496
188	0x40a61058	5.189495
189	0x4110c1f1	9.047349
190	0x40addfae	5.4335546
191	0x3ed27751	0.41106656
192	0x40288b69	2.633509
193	0x418dcd9a	17.725391
194	0x4058a2b3	3.3849304
195	0x403132ec	2.768733
196	0x4131d6e0	11.11496
197	0x40f05432	7.5102777
198	0x41db7ca0	27.435852
199	0x41511a0f	13.068862
200	0x4193f58a	18.494892
201	0x40b60207	5.6877475
202	0x431c146f	156.07982
203	0x43488098	200.50232
204	0x43038f85	131.56062
205	0x4287f609	67.98054
206	0x439da293	315.2701
207	0x43005af4	128.35529
208	0x408a95b9	4.3307767
209	0x4269e975	58.477985
210	0x42c25500	97.166016
211	0x43728039	242.50087
212	0x416a1437	14.629935
213	0x3f435ff3	0.7631828
214	0x4361d717	225.8402
215	0x42b2b78b	89.35848
216	0x424d3f13	51.311596
217	0x423f8076	47.87545
218	0x40d51b9c	6.6596203
219	0x41c9b9aa	25.215656
220	0x42350447	45.254177
221	0x427a6c76	62.60592
222	0x427b1b43	62.776623
223	0x4200559a	32.083595
224	0x40125b21	2.286812
225	0x416bfed1	14.749711
226	0x4012dfec	2.294917
227	0x423271e5	44.611225
228	0x428faf47	71.84234
229	0x41fb38b6	31.40269
230	0x41b19284	22.19654
231	0x41207d4a	10.030588
232	0x43104938	144.28601
233	0x40acff6a	5.4061785
234	0x42cd569d	102.66917
235	0x40bbe7e5	5.8720574
236	0x4207ee5d	33.982777
237	0x416f6624	14.962437
238	0x403b966f	2.9310567
239	0x4219c5a6	38.443016
240	0x41a28800	20.316406
241	0x3e0bfcb3	0.13670616
242	0x3f77a941	0.96742636
243	0x41efad9e	29.959774
244	0x419a79a2	19.309391
245	0x42a96636	84.69963
246	0x425cc22d	55.189625
247	0x430410a2	132.06497
248	0x411dc29e	9.860014
249	0x437d3fc7	253.24913
250	0x406eee56	3.7332969
251	0x408f9df4	4.4880314
252	0x42cc39a2	102.112564
253	0x4303d4f0	131.83179
254	0x42945686	74.16899
255	0x424d8c0e	51.386772

exp_avg f4 [50]
0	0x3f54a5b7	0.8306536
1	0x3f22abe8	0.6354356
2	0xbdadbde8	-0.08483487
3	0x3db90d7b	0.09035774
4	0xbfb74a46	-1.4319541
5	0xbf5e7ac9	-0.86906105
6	0xbf2fa074	-0.6860421
7	0xbe0b221d	-0.13587232
8	0x3df32660	0.11872554
9	0xbd8bfd7a	-0.06835456
10	0x3f5e9e76	0.8696054
11	0xbdfe667d	-0.12421892
12	0x3e74f410	0.23921227
13	0x3eea2566	0.45731658
14	0x3e5491cc	0.20758742
15	0xbe9af31d	-0.30263606
16	0x3e2ca3ab	0.1685931
17	0x3f070f46	0.5275768
18	0xbe336dc0	-0.17522335
19	0x3ea50cc1	0.32236293
20	0x3e41b32b	0.18916003
21	0x3e94bc56	0.2904994
22	0x3f514ff1	0.81762606
23	0x3fadda63	1.3582271
24	0x3e6eaef4	0.23308927
25	0x3e801b45	0.25020805
26	0xbcb49f04	-0.02204848
27	0xbe2db390	-0.16963029
28	0x3f498a72	0.78726876
29	0xbf63b5aa	-0.8894907
30	0xbeaec6df	-0.34136102
31	0xbf07d769	-0.53063065
32	0x3d8d6c50	0.069054246
33	0x3e91be4a	0.28465492
34	0x3de214eb	0.11039146
35	0x3e3610ab	0.17779796
36	0x3e99ed93	0.30064067
37	0xbfb61c15	-1.422732
38	0x3f23c766	0.6397613
39	0xbcd37195	-0.025810996
40	0x3e167515	0.14693101
41	0xbfb214eb	-1.3912634
42	0xbf43e660	-0.765234
43	0x3e85bce5	0.26120678
44	0xbe190aff	-0.14945601
45	0x3e5b349c	0.21406788
46	0x3eb26ffc	0.34851062
47	0xbe3f188a	-0.18661705
48	0x3ea30fa1	0.3184786
49	0xbe4edde5	-0.20201834

exp_avg_sq f4 [50]
0	0x436a06a7	234.02599
1	0x41b8efaf	23.117033
2	0x42a37af1	81.74012
3	0x45092ed2	2194.9263
4	0x41dfecf4	27.9907
5	0x4309862c	137.52411
6	0x43a52056	330.25262
7	0x43975edd	302.74112
8	0x4192d31c	18.35308
9	0x42ced792	103.421036
10	0x41b756ed	22.917444
11	0x4384fe5d	265.9872
12	0x433437f1	180.21852
13	0x4363d4ba	227.83096
14	0x44ef10a7	1912.5204
15	0x44748f06	978.23474
16	0x4408d82a	547.37756
17	0x41876546	16.92445
18	0x4179fb51	15.623857
19	0x439a8dba	309.10724
20	0x4259cb70	54.44867
21	0x438fce15	287.61002
22	0x4171ecf7	15.120353
23	0x42bb011b	93.50216
24	0x42896d29	68.7132
25	0x42181c9b	38.027935
26	0x4241412c	48.313644
27	0x423c7c8d	47.12163
28	0x423e4fa4	47.577774
29	0x42e29f87	113.31158
30	0x427dd589	63.45853
31	0x41e50e7b	28.63207
32	0x43f28f27	485.11838
33	0x4347f3ef	199.95287
34	0x42b4a825	90.32841
35	0x42aa58f7	85.17376
36	0x42f6444c	123.13339
37	0x41e2cf61	28.35126
38	0x448afd36	1111.9128
39	0x43223a39	162.22743
40	0x4234105d	45.01598
41	0x42b3a360	89.81909
42	0x430704ea	135.0192
43	0x442852be	673.29285
44	0x40eb9fe8	7.36327
45	0x4257c3fd	53.941395
46	0x440887c2	546.1212
47	0x4180d70e	16.105007
48	0x44675205	925.28156
49	0x428c709d	70.21995
