weights/checkpoint/example0004_warm_adam.pth (torch, 79323 bytes, 35 tensors)

a f4 [4]
000000 cd cc 4c 3e cd cc 4c 3e cd cc 4c 3e cd cc 4c 3e
       0.2 0.2 0.2 0.2

input_layer.weight f4 [50, 2]
000000 28 6c cc be 3b 5e 54 be d9 28 b4 3d 1f de 1a 3e
       -0.39926267 -0.20739071 0.087968536 0.15123795
000010 97 9a 18 3e ef 02 f0 bd 7d bd 96 be 5e f6 0c 3d
       0.14902721 -0.117193095 -0.29441443 0.03441464
000020 db 70 d8 3e ac b7 b6 3e 66 7a c4 bc 12 b5 49 3e
       0.42273602 0.35687006 -0.023984145 0.19697979
000030 54 2f 6f 3e 50 70 eb bd ea 41 cf 3d c7 e6 a5 3d
       0.23357898 -0.11496031 0.10119994 0.08100658
000040 3a 82 fa 3d 28 5a 9d 3d 01 db 4a be 1c 9e 41 3d
       0.1223187 0.076832116 -0.19810106 0.047269925
000050 d1 11 ee 3d 39 52 36 bc be db bf bd 62 87 b1 be
       0.11624492 -0.011128002 -0.09368084 -0.346736
000060 7b d5 dc bc 09 45 84 bd c1 cb 3b 3d 5a 59 9c be
       -0.026957264 -0.0645848 0.04584861 -0.3053692
000070 be df 2a be 11 a5 0a bd f7 fb 8e be c2 aa 7a be
       -0.16686913 -0.033848826 -0.2792661 -0.24479201
000080 44 82 cb 3e e4 ff 36 be ea 0e 40 3e c2 9c 98 bc
       0.39747822 -0.17871052 0.1875569 -0.018629435
000090 bf f6 fd 3c c0 de d8 bd a6 35 d6 3d 38 75 c7 be
       0.031001447 -0.10589361 0.104594514 -0.38956618
0000a0 84 95 05 bf 3f 7f 87 be f0 83 58 3e 23 e5 52 3c
       -0.5218127 -0.2646427 0.2114408 0.012872013
0000b0 df 1a 06 3d d2 90 1d be 69 f3 b4 3d 9a bd c0 be
       0.03274047 -0.15387276 0.08835489 -0.37644655
0000c0 82 54 88 be 9b 7f 95 bd 80 bd a5 3d 71 17 6b 3e
       -0.26626974 -0.072997294 0.08092785 0.22958161
0000d0 0e cb cc bd b1 f2 0c be 98 3a 6a 3e b8 d1 03 be
       -0.09999667 -0.13764454 0.22873914 -0.1287297
0000e0 eb ef 33 3e f4 af 18 3e a6 d0 05 3d 09 ab f6 be
       0.1757199 0.14910871 0.032669686 -0.48177364
0000f0 49 11 04 bd 83 28 57 be 87 be fd bc d5 3a 9f 3d
       -0.032243047 -0.21011548 -0.03097464 0.07774893
000100 b9 02 52 bd ad 69 77 3e 20 59 8e be 8c 16 83 bc
       -0.051272128 0.24161406 -0.27802372 -0.016001962
000110 fb c5 8e 3e 47 16 d8 bd f3 d8 30 be 99 8c 98 3d
       0.27885422 -0.10551124 -0.1727026 0.07448692
000120 35 f5 df bc 34 2c c9 3d ed f3 10 be 6e ec 0d be
       -0.027338604 0.09822884 -0.1415555 -0.13859722
000130 85 03 09 3e 35 84 03 be 87 62 cd bd a6 0e 0f be
       0.13380249 -0.12843402 -0.10028558 -0.13970432
000140 47 5f 4a be 39 40 4a 3b 50 bd 1d 3d 94 1d 30 3d
       -0.19762908 0.0030861034 0.03851062 0.042996958
000150 68 d7 1e 3e e2 49 c0 bd a0 27 be bd 58 ca d3 bd
       0.15511858 -0.09389092 -0.092849016 -0.103413284
000160 59 14 02 be 0e c4 60 3e 7d 9c 8c 3d cd 35 60 be
       -0.12703075 0.21949789 0.06865785 -0.21895523
000170 25 2d ab 3d f8 ec fc 3d 62 2d 07 3f 4c 80 5d bd
       0.0835822 0.12349886 0.52803624 -0.05407743
000180 57 2e 03 3e 91 34 fe bb 8a 92 47 be d5 92 dc bd
       0.12810646 -0.0077577312 -0.19489494 -0.107701935

input_layer.bias f4 [50]
000000 6e 4e 01 bd 3d bf 23 3c c9 45 c7 3c 17 eb 80 3b
       -0.031568937 0.009994325 0.024325268 0.003934275
000010 33 9a a2 3c d6 b6 8f 3c 84 69 4e 3c 42 46 f7 bc
       0.019848919 0.017543238 0.012598399 -0.030184869
000020 75 5f 26 3c 08 b4 84 bc 30 a8 4c bc 34 15 18 bc
       0.010154595 -0.016199127 -0.012491271 -0.009282399
000030 3b 7d 81 3c e0 41 5f 3c 03 23 31 3a 2e 58 d3 3b
       0.015806785 0.013626546 0.00067572313 0.006449721
000040 73 a6 27 bc dd f2 55 bc 12 74 e2 bc 54 23 81 bc
       -0.010232556 -0.013058391 -0.027643237 -0.015763916
000050 58 dc 6a bc d1 fe d8 bc 94 b2 d1 3b d7 6f 70 bb
       -0.014334761 -0.026488693 0.006399462 -0.0036687755
000060 a5 e3 b3 3c fc 26 a0 bc 8d bd 7b bc 18 be cb 3c
       0.021959135 -0.01954984 -0.015365017 0.024870917
000070 97 69 b3 bc 21 50 de bb f3 77 e3 bc 44 a0 f2 3b
       -0.021900935 -0.0067844545 -0.027767157 0.007404359
000080 19 1e 32 bc d4 94 ac 3b 72 1f bb 3c 32 56 cc ba
       -0.010871434 0.005266765 0.022842143 -0.0015589653
000090 9b 4c 7d ba 2b 08 a7 3c 3e ba e3 bc a6 a5 b5 3c
       -0.0009662599 0.020389637 -0.027798768 0.022173714
0000a0 d6 f8 35 3c 79 26 1d 3c 3d 3f da 3b 75 0f a8 bb
       0.01110669 0.009591692 0.0066603706 -0.0051287957
0000b0 0a 9a c4 3b 74 bd 8d 3c ab 19 08 3b 17 20 38 3b
       0.005999808 0.017302252 0.0020767252 0.00280953
0000c0 b9 db 6f bc 93 b9 4d 3c
       -0.014639788 0.012556451

input_ln.weight f4 [50]
000000 f5 45 91 3f 81 a4 93 3f ff bb 92 3f 47 e4 8c 3f
       1.1349474 1.1534578 1.1463622 1.1007165
000010 f4 57 8d 3f 3b f0 89 3f 93 32 82 3f 30 9c 64 3f
       1.1042466 1.0776438 1.0171684 0.89300823
000020 3a 16 84 3f c6 c9 70 3f 49 b8 56 3f c3 63 81 3f
       1.0319283 0.9405788 0.83874947 1.010857
000030 4a ed 8c 3f aa 35 7f 3f 37 0b 73 3f 3d 05 8b 3f
       1.1009915 0.9969126 0.9493899 1.0860974
000040 44 b5 89 3f 91 91 64 3f 0e 3d 70 3f 2f c5 7a 3f
       1.0758443 0.89284617 0.9384316 0.9795713
000050 a9 3e 83 3f f6 36 7a 3f a3 af 84 3f 2a 6b 89 3f
       1.0253497 0.97740114 1.03661 1.0735829
000060 91 2e 8c 3f a4 a6 7e 3f 3a b9 62 3f 5d 10 7b 3f
       1.0951711 0.99473023 0.88563883 0.98071843
000070 f5 fa 60 3f 87 e7 79 3f 2f 10 69 3f 97 b2 76 3f
       0.8788293 0.9761891 0.9104032 0.96366256
000080 c6 f2 8b 3f 08 34 85 3f 4f bb 74 3f 8d 94 90 3f
       1.0933464 1.0406504 0.9559831 1.1295334
000090 3f 51 84 3f 0c 4b 8e 3f 75 4f 93 3f d6 5b 92 3f
       1.0337294 1.1116652 1.1508623 1.1434276
0000a0 c7 2b 8d 3f d6 c7 85 3f 77 9e 74 3f d2 f4 87 3f
       1.1028985 1.045161 0.955543 1.0621588
0000b0 36 92 64 3f 4c 92 82 3f 1d a4 7a 3f 82 cc 84 3f
       0.892856 1.0200896 0.97906667 1.0374911
0000c0 fe 98 65 3f ea 6f 89 3f
       0.8968657 1.0737278

input_ln.bias f4 [50]
000000 d2 44 15 3e b3 09 89 be 9e 03 af 3d 7f 5e 1a bf
       0.14577034 -0.26765212 0.08545612 -0.6030044
000010 37 66 21 bf ec bf 63 bf 1f 57 07 bc a7 da 2a 3f
       -0.6304659 -0.88964725 -0.008260517 0.66739887
000020 00 d2 a1 3d 1f fe b7 3b c9 05 d6 bc 80 de 2d 3f
       0.079013824 0.0056150104 -0.026125805 0.67917633
000030 a8 8c 22 bf 22 19 9c bf 5f 51 b5 3c d8 cb 3b bd
       -0.63495874 -1.219517 0.022133527 -0.045848697
000040 e9 06 99 be 85 24 3f 3f 8d 90 3d 3f 98 7a 97 3e
       -0.29888085 0.746651 0.7404869 0.2958572
000050 2b 6a 82 3d 59 e2 da bd b9 32 f8 3e 08 34 37 3d
       0.06367906 -0.10687704 0.48476198 0.044727355
000060 d8 0c 23 3f 66 b1 a9 3e 7b 7f 5b be 60 1a 7c be
       0.63691473 0.33143157 -0.21435349 -0.24619436
000070 b2 a1 86 3f 60 e5 2f be 95 b4 ec 3e 14 60 03 bf
       1.0518095 -0.17177343 0.46231523 -0.5131848
000080 4d 13 3a 3e 58 3a 1f 3f d3 8e fb be 0f 25 06 bf
       0.18171425 0.621984 -0.49132404 -0.52400297
000090 0c 4c 10 3e b0 10 51 be f5 56 b8 3e 8b d7 a3 be
       0.1409151 -0.20416522 0.36003843 -0.32000384
0000a0 f2 b0 36 3e 26 bb 09 bf c1 60 98 3e 89 5d b1 3e
       0.17840937 -0.5380119 0.29761317 0.34641674
0000b0 6f 95 8f 3f 5c d2 31 be 47 f3 ff bd cb 82 3f 3f
       1.1217479 -0.17365402 -0.12497573 0.7480895
0000c0 d2 74 bb be 5e 61 a9 3e
       -0.36612564 0.33082098

hidden_layers.0.weight f4 [50, 50]
000000 14 3b b9 bd 6f be b3 3d 2b 97 5b 3e fa 34 5b bd
       -0.090444714 0.08776557 0.21444385 -0.05351732
000010 6f 6d e1 3d 1d 07 87 3e bf 9a 85 3d 07 59 48 bc
       0.11007201 0.26372615 0.06523656 -0.012228257
000020 2a ad 13 3d 25 01 5e bd ff cc 21 bd aa 0a dc bd
       0.036053814 -0.05420031 -0.03950214 -0.107442215
000030 d6 79 c2 bc de a1 20 bd 6c f8 82 3d 7e 19 cd bd
       -0.023739737 -0.03921687 0.06395039 -0.10014628
000040 56 a0 bd bc 09 a9 44 3b f0 a5 4e be ed 55 b4 3c
       -0.023147743 0.003000798 -0.20180488 0.022013629
000050 30 cf ab bc 03 43 4d be e8 8b 5c 3e aa 32 99 3d
       -0.020972818 -0.20045094 0.21537745 0.074803665
000060 ae 6f e3 3c bc e3 00 be ab 12 29 3e 88 32 23 be
       0.027763214 -0.12586874 0.16511028 -0.15937245
000070 7e 88 54 bd d5 66 8a 3d c8 73 09 be 79 27 53 be
       -0.05188798 0.06757895 -0.13423073 -0.20620526
000080 40 8b 24 be 91 bf 2b 3b f4 49 22 bd 95 d6 c9 3d
       -0.16068745 0.0026206712 -0.03962131 0.098553814
000090 d3 08 81 3d 97 ad 84 3b a1 cf 26 3d 70 65 bd 3d
       0.06300511 0.004049014 0.040725354 0.09247863
0000a0 9d 61 90 3e 3e 83 62 3e f6 36 d9 3b 4a af 60 3e
       0.28199473 0.22120377 0.0066288663 0.21941867
0000b0 20 66 36 bd 22 d7 d9 3d 23 91 14 bd 75 d4 15 3e
       -0.044530988 0.106367365 -0.036271226 0.14631827
0000c0 57 d0 4f 3d 20 14 b8 3e f4 d4 91 be 29 62 72 bd
       0.050735798 0.35952854 -0.28482783 -0.059175644
0000d0 bc b3 8b bc d4 b1 9d 3d ef 62 97 3e 28 bc f2 3d
       -0.017053477 0.07699934 0.29567668 0.11852294
0000e0 8f 3a 78 bd 17 c6 1b bd 59 79 0e 3d e9 15 b9 be
       -0.06060272 -0.03803071 0.034783695 -0.3614953
0000f0 0e e9 03 be e5 69 73 3d 77 e4 66 3d e7 42 0e 3e
       -0.12881872 0.05942716 0.056370225 0.13892709
000100 81 46 9c bd 14 9d 9a 3d a8 4c 0e 3e 7b 4e 98 bd
       -0.07630635 0.075494915 0.1389643 -0.07436844
000110 77 8a 4d be b5 50 75 3d 02 92 fc 3c d6 6e 13 3a
       -0.20072351 0.05989142 0.03083134 0.0005624121
000120 9f 55 43 3e f5 61 be bd d4 d3 b0 3d 19 58 6b 3d
       0.1907563 -0.092960276 0.08634153 0.057457063
000130 7f 82 23 bc 7b 0f 7a bc dc 1d a4 bc 88 88 70 3c
       -0.009979843 -0.01526248 -0.02003377 0.014680989
000140 2b fc a5 bd d5 96 f4 bc bd 54 30 be 50 01 bb 3d
       -0.08104738 -0.029857079 -0.17219825 0.0913111
000150 42 36 7a bc 2a 9f 7f 3e ce 06 42 3e 9a 01 14 3e
       -0.015271725 0.2496306 0.18947908 0.14453736
000160 37 72 50 bd c2 b8 73 3e d5 1b db 3a 29 cd 5b 3e
       -0.050890174 0.23800948 0.0016716669 0.21464981
000170 f7 86 0d be 34 44 33 bc d0 a9 77 bd 4a 0c 2c 3d
       -0.13821016 -0.010941554 -0.06046468 0.042003907
000180 cc b2 18 bd 36 c2 c7 3d 11 a5 c9 bc d0 ba b0 bd
       -0.03727989 0.0975384 -0.024614843 -0.08629382
000190 01 11 99 3d 2b 6c 15 be 3a 1c 54 be 87 e3 1b be
       0.07473946 -0.14592044 -0.20713893 -0.15223514
0001a0 fa 02 38 3e 41 51 2c bc a2 33 c5 3d 3b 66 5f bd
       0.17969885 -0.010517419 0.09628989 -0.054540854
0001b0 59 58 1c 3e 6f 45 35 3d ec 26 4a 3d 4b f1 b0 3d
       0.15268077 0.04425567 0.049353525 0.08639773
0001c0 c7 f9 77 bd ce c5 8a bd 48 f1 0d 3c e3 a6 b3 3b
       -0.06054094 -0.067760095 0.008663483 0.005482541
0001d0 73 cc 08 be b1 e6 a2 3d 98 ea e8 bc 36 df ae 3d
       -0.13359241 0.07954157 -0.028432176 0.08538668
0001e0 97 e6 c7 bc 98 5e 9b bd b3 bf 9e bd 59 f3 02 be
       -0.024401946 -0.07586402 -0.077514075 -0.12788142
0001f0 f7 06 a0 bc dd 27 0f 3c 83 1e 2e 3e 8a de 75 bd
       -0.019534571 0.0087375315 0.17003827 -0.060026683
000200 7f 7b 21 be 39 0c 9b 3c 24 77 85 3e 23 10 c4 bd
       -0.15769766 0.018926727 0.2606746 -0.0957339
000210 8c 68 58 be 0f 38 f6 bd cd 98 ee bd ab ed ab bc
       -0.21133631 -0.12022411 -0.11650238 -0.020987352
000220 a1 74 10 3e c1 82 b1 3d b4 38 1b 3d 1b 2c c6 bd
       0.1410699 0.086675175 0.037895873 -0.09676381
000230 70 6f 8a 3c 4a 62 05 3c 5b ff 03 3e 3a 22 1f 3e
       0.01689884 0.00814111 0.12890379 0.155404
000240 7f 82 bd bc 05 b7 00 3e 4c 0a 9e 3d ef 8b 87 3d
       -0.023133514 0.12569816 0.07716808 0.06618487
000250 83 e6 04 be 7f eb 83 3e 28 e6 84 be 76 f0 2d 3e
       -0.12978558 0.25765607 -0.25956845 0.1698626
000260 36 1f ee 3c 6a 2d 1b 3e a8 40 a1 3d 2d b3 5d 3e
       0.029067617 0.15154043 0.0787366 0.21650381
000270 14 a3 26 3e b9 c8 21 bc 52 8a 1c be 8b a9 d0 3d
       0.16273147 -0.009874516 -0.1528714 0.10188588
000280 65 9e b8 be 03 5d 23 3d 86 68 fa bc c8 68 00 bd
       -0.36058345 0.039883625 -0.030567419 -0.031349927
000290 ea 9e 81 be b3 2f 3b 3d 18 82 ff 3c f1 40 10 be
       -0.25316554 0.045699786 0.031189963 -0.14087273
0002a0 d8 6f 3e bb 55 bc 87 bd cc 55 29 be ec 68 c0 3d
       -0.0029058363 -0.06627718 -0.16536635 0.09395012
0002b0 f8 00 19 be c6 ef 6a 3e c0 0a ed 3d 3f 93 de 3d
       -0.14941776 0.22943029 0.11574316 0.10867929
0002c0 af 5b 2c bc 90 62 e8 3d 61 4d 68 be 96 24 ba 3d
       -0.010519906 0.11346924 -0.22685768 0.090890095
0002d0 2a 0b 4e be 7d 6b 96 bd 85 cb 5a 3e 60 2f 37 3c
       -0.20121446 -0.073447205 0.21366699 0.011180729
0002e0 a2 ed 11 bc b8 ab fc bc 48 45 61 3d b7 1e b0 3d
       -0.008906754 -0.0308436 0.054997712 0.085996084
0002f0 2d 19 9f 3e 8d ae 9d 3d a0 93 63 3d 4b 0a 53 3d
       0.31073895 0.076993085 0.055560708 0.051523488
000300 36 79 f7 bd ae e2 2d be cd bc 4b 3e 24 3c 0b be
       -0.12083666 -0.16981003 0.1989624 -0.1359716
000310 e7 66 2c bd 6e d8 4d 3d e2 0d aa 3c 96 6e 3e be
       -0.042090323 0.05025523 0.020758573 -0.18596873
000320 f2 f9 9f 3b 7a 0b 95 3c 73 d5 3e be a7 41 ae bd
       0.0048820907 0.018193949 -0.18636112 -0.08508616
000330 6c 08 7e 3d de c7 3d 3e 98 2c 01 be fc 71 42 be
       0.06201975 0.18533275 -0.12614667 -0.18988794
000340 a0 ed eb bb 08 df 1a be 77 76 40 bd ba 2f 35 3e
       -0.007199958 -0.15124142 -0.046987977 0.17693987
000350 d5 6e 93 3d 06 f6 84 bd e8 96 f2 bd 9e 91 d1 bc
       0.07198874 -0.06492238 -0.11845189 -0.025582131
000360 92 23 cd bd 6f 88 85 be f6 d9 ce 3d 33 77 72 be
       -0.1001655 -0.26080653 0.101001665 -0.23678283
000370 dd 4f d7 3c 39 8c 11 bd 03 56 b4 bc cc 16 a2 bd
       0.026283199 -0.035534117 -0.02201367 -0.079145044
000380 9a 20 41 3d 0b 8c 1a 3e 03 ea dd bd 7a 10 13 3e
       0.047150232 0.15092485 -0.1083565 0.14361754
000390 fa b3 70 be da 04 7b be 54 8d 5d bd 4b a4 3c bd
       -0.23506156 -0.2451357 -0.05408986 -0.04605512
0003a0 3a c6 00 be ac d9 0c 3e db 1b 52 3e 0d 7d e6 bd
       -0.12575617 0.1375491 0.20518439 -0.1125432
0003b0 a8 4f 82 3b 8d 51 c2 3e 0e 67 68 3d fe 62 c9 bd
       0.003976781 0.37952843 0.056738906 -0.098333344
0003c0 2c a8 5d 3e c4 95 08 3e 2b 24 ba 3d 9f d2 00 be
       0.21646184 0.13338381 0.0908893 -0.12580346
0003d0 24 12 63 be b2 d4 0a 3d 13 bb cf 3d 18 57 e5 bc
       -0.22174889 0.03389425 0.101431035 -0.027995631
0003e0 79 4a cb bc f3 f3 07 bd 48 8d d0 3d 1c 19 0a be
       -0.024815785 -0.033191632 0.10183197 -0.13486141
0003f0 db 17 35 bd 90 11 4c 3d a0 6b 4b be db ab 5e be
       -0.044212203 0.049821436 -0.19865274 -0.21745245

hidden_layers.0.bias f4 [50]
000000 c2 01 85 bc bb 7c 22 bb e9 67 53 3b e4 07 84 3b
       -0.01623619 -0.0024793583 0.003225798 0.004029261
000010 2e 2e c8 bb 7f e1 57 bc 8b 02 86 3b eb 2c d0 bb
       -0.0061090207 -0.013176321 0.0040896586 -0.006353011
000020 8a bc 3f bb 4f 22 8b 3c e3 1c 0c bc 74 b6 86 3b
       -0.0029256665 0.016984133 -0.008551809 0.0041111056
000030 02 1b c2 bc f1 66 f7 bb e0 23 a5 3b 34 4f 7b bb
       -0.023694519 -0.0075501134 0.005039677 -0.003834677
000040 bd 1d 9f 3c 34 e9 67 3b 92 aa e1 3b e8 02 d5 3b
       0.01942336 0.0035386803 0.0068867886 0.0065005906
000050 b9 ee 9c 3b bb 17 ab 3c a4 58 86 3b 86 4d 9c bc
       0.0047892 0.020885339 0.0040999223 -0.019079935
000060 e1 29 2d 3c d9 ce 31 3b 17 7e 57 3c 19 fe ce bc
       0.010569067 0.0027131347 0.013152621 -0.025267648
000070 db db 6e 3a cd 58 cf ba 1b d4 1d b9 35 4b 35 ba
       0.00091117405 -0.0015819311 -0.00015051702 -0.0006915809
000080 5a b0 ac 3b d9 63 c7 3c 23 a6 23 3c 12 e7 3c 3c
       0.005270046 0.024339603 0.009988341 0.011529701
000090 b2 10 73 bb ad 35 9b 3c 11 a6 26 3c 88 eb 5d 3a
       -0.0037088809 0.018946493 0.010171429 0.0008465578
0000a0 5a 68 8b 3c cd bd 15 3b c4 e4 ed bb a3 da 1c bc
       0.017017532 0.0022848726 -0.007259937 -0.009573611
0000b0 d8 82 00 bb fc f0 06 bc 30 10 e8 bb bd 41 10 bc
       -0.001960924 -0.008236166 -0.007082008 -0.008804736
0000c0 a0 69 06 3b fa d6 9e bc
       0.0020509735 -0.019389618

hidden_layers.1.weight f4 [50, 50]
000000 b6 0a 0c 3e 7b 5b 61 be fd 84 57 be 21 65 e0 3d
       0.13675961 -0.22007553 -0.21046825 0.10956789
000010 26 1f b8 3d 94 4e 2c be cb 82 2f ba 5b fb e0 bd
       0.08990316 -0.1682685 -0.000669521 -0.10985442
000020 9a e5 76 3e 5e 77 37 be 2f 97 34 bc 2e 3f 30 be
       0.24111024 -0.17916629 -0.011022373 -0.17211601
000030 92 36 98 3e a7 bd 65 bc 2f 05 7d 3e 20 99 8d 3e
       0.29729134 -0.014022267 0.24709009 0.27655888
000040 0a 1a dd bd 2d 54 eb 3d 8b 9e ef bc 58 d0 25 be
       -0.10795982 0.11490665 -0.029250404 -0.16192758
000050 32 2b 1e 3e 20 46 3b bd b6 b1 ec bd d2 0f a2 3d
       0.15446165 -0.045721173 -0.11557333 0.07913174
000060 b2 e7 0e 3e 97 b6 dc bd 96 66 22 3e c4 5f 3b be
       0.13955572 -0.10777014 0.15859446 -0.1829825
000070 a9 fc 01 3e c0 02 9f 3c a3 b4 9b bd 1a a9 84 bd
       0.12694038 0.019410491 -0.07602813 -0.06477566
000080 e9 17 e8 3d 11 81 fd 3d 8f c0 a9 3b c8 24 1f 3d
       0.113326855 0.12378133 0.0051804255 0.038853437
000090 85 cc a8 bd 79 9b 9b bb 5d ac ab bd 86 ea 56 be
       -0.08242134 -0.0047487584 -0.08382485 -0.20987901
0000a0 10 36 38 3d 31 cb a5 bd 21 58 8c be 05 f0 85 3e
       0.044973433 -0.08095396 -0.27410987 0.26159683
0000b0 9e 09 22 3d 2a fb 48 3d 6d d9 21 3e 44 51 4e bb
       0.039559953 0.049067654 0.15805598 -0.0031481544
0000c0 1b 21 e1 bd ff dc b6 bd 7a 32 2a be 40 06 54 be
       -0.109926425 -0.089288704 -0.16620818 -0.20705509
0000d0 b9 9a 83 bd c5 94 d5 3d e1 55 a5 be 25 9b c9 bb
       -0.064259954 0.10428766 -0.32292083 -0.006152528
0000e0 34 08 c9 3d 90 c6 87 bd 0e 3f 08 be ba 1c 55 39
       0.09816018 -0.0662967 -0.13305303 0.00020323964
0000f0 36 7f 36 3e 8b ba ba bd 94 fa 8f 3a 2e 8f fa bd
       0.17821965 -0.091176115 0.0010984712 -0.122343406
000100 67 f6 31 be 7d 96 70 3e c0 aa 39 3c 33 6e a6 3d
       -0.17379151 0.23494907 0.011332214 0.081264876
000110 57 35 2e be ba 43 6b 3d 91 94 94 bd 59 bb 2b 3d
       -0.17012535 0.057437636 -0.07254899 0.041926716
000120 f6 e4 e2 3d 2b 48 4b be ca 79 60 bd b6 9f 8b 3d
       0.11078827 -0.19851749 -0.054803647 0.06817572
000130 01 9a a5 3d b8 45 2f bd e3 de 22 be 0e 5c aa bd
       0.080860145 -0.0427911 -0.15905337 -0.08318339
000140 58 83 e2 3d 2d 9b 2c be 4a f4 87 be 19 49 54 be
       0.11060208 -0.1685607 -0.26553565 -0.2073101
000150 7c 9f 01 bd d9 20 6b be 6c 57 d1 3d 53 a4 fb 3d
       -0.031646237 -0.22961749 0.102217525 0.12287202
000160 dd 51 6d 3d 63 11 3f be f6 35 db 3c c0 56 da bd
       0.0579394 -0.18658976 0.026759129 -0.106610775
000170 ef 76 04 3e ef 3b 93 bd 55 56 0a 3d 11 e6 b8 3d
       0.12935995 -0.07189166 0.03377374 0.09028257
000180 05 be 14 bd 7b f4 b7 3c fe 51 dc 3c 69 81 91 bd
       -0.03631403 0.022455445 0.026894566 -0.07104761
000190 d8 c5 1b 3e ad 9c 37 3c 76 ab 93 bd a8 63 40 3e
       0.1521219 0.011206788 -0.07210438 0.18788016
0001a0 54 df c9 bd 55 59 21 be dc 01 16 be 47 bb 76 3e
       -0.098570496 -0.15756734 -0.14649147 0.24094878
0001b0 78 6c 80 3b 7e 0e 89 3e f9 aa 9f 3d 4f ff 92 3e
       0.0039191805 0.2676887 0.07796282 0.2871041
0001c0 a1 81 18 3e 7b eb ee bd fe a9 91 3e 2f 92 7b 3e
       0.148932 -0.11666008 0.28450006 0.24567483
0001d0 6a 5a 70 bd f9 45 06 be 27 76 f2 3d 79 df 67 3e
       -0.058679976 -0.1311263 0.11838942 0.22643842
0001e0 ea 23 9e bb 34 e6 f5 bd d2 fd c7 bd e3 b5 fd 3d
       -0.0048260586 -0.120067984 -0.09765209 0.12388208
0001f0 03 14 57 be 07 47 6a 3e 9a 24 3f 3d 90 3c b3 3c
       -0.21003728 0.22878657 0.046665765 0.021879464
000200 a9 46 46 3e d4 4c dc bd a0 3b 13 3d db 9f 04 3d
       0.19362892 -0.10756841 0.035945535 0.032379013
000210 8a 69 1f be db 1c 06 3e 02 44 08 3e 2a ef 04 bd
       -0.15567604 0.13096945 0.13307193 -0.032454647
000220 94 71 f0 3d 0e 4e b0 3d 65 ae 73 3d ec ff 64 be
       0.11740413 0.08608638 0.059492487 -0.22363251
000230 1d 4d 2a bc 5b 4d 1f 3e 54 12 2b be de 40 b3 bc
       -0.010394362 0.15556853 -0.1670621 -0.021881517
000240 37 5c 4d bd c5 93 d3 bd 4e ce 34 3c 93 73 a5 3e
       -0.05013677 -0.10330919 0.011035515 0.3231474
000250 c6 38 92 3e 1e 32 c9 bd 6b 7b e1 3e a5 0b 9e 3e
       0.2855894 -0.09824012 0.44039473 0.3086826
000260 2d a6 1c be 72 57 3f bd 7e 66 45 bc 11 14 0a bd
       -0.15297766 -0.046714254 -0.012048362 -0.033710543
000270 2b 49 40 be 71 3b 96 bd 7f 42 50 3c d8 15 3e 3e
       -0.18777911 -0.07335556 0.012711166 0.1856302
000280 fd ad 6d bd 0a 7b aa bd d5 95 bd bb 31 76 c3 bd
       -0.058027256 -0.08324249 -0.0057856836 -0.095440276
000290 76 c5 ea 3c e5 43 be 3d 14 33 d6 3c 30 ec 76 be
       0.02865861 0.092902936 0.026147403 -0.24113536
0002a0 e3 da b8 bc c5 33 4f 3e 46 c4 95 bd 0f 53 b3 3d
       -0.02256531 0.20234592 -0.07312827 0.087560765
0002b0 b5 e8 b1 bc 34 0d 00 3e 99 55 92 be 3e 06 a4 3d
       -0.021717409 0.12505037 -0.2858093 0.08009003
0002c0 84 08 74 be ee 31 3c 3e 2c 46 1c 3c 6f 63 07 3d
       -0.23831373 0.18378422 0.009538215 0.03305381
0002d0 80 38 92 3e dd 32 c2 3d 6e d1 9c bd 88 75 89 bd
       0.2855873 0.09482358 -0.07657133 -0.067118704
0002e0 6d b7 2f 3e 1f fc 0e bd fc 6e 12 be 9e 75 f8 3d
       0.17159815 -0.03490841 -0.1430015 0.12131809
0002f0 ab 4e 01 3e 6e f9 02 3c 39 56 05 3e 06 72 89 bc
       0.12627666 0.007994039 0.13021173 -0.016778003
000300 b9 42 1f 3e af dc 05 be 40 cd 28 be 43 8f b2 3d
       0.15552796 -0.13072465 -0.16484547 0.08718731
000310 0a 25 e3 bc 22 8e 93 bd 77 ef 48 3e 9d c3 c9 bb
       -0.027727623 -0.07204844 0.19622599 -0.006157352
000320 49 3c 2e 3e 28 93 a8 3d 15 51 c3 bd fc 1e a0 3d
       0.17015184 0.08231193 -0.095369495 0.0781841
000330 bf c8 3b be 8a 15 ae be f1 61 96 3c 6b aa 07 3d
       -0.18338297 -0.34000808 0.018357249 0.033121508
000340 15 52 a3 bc ec e9 e3 3d 34 dd 0f 3e 9c 67 0e be
       -0.0199366 0.111286014 0.14049226 -0.13906711
000350 d7 a1 b0 bd 30 b9 b5 bd a3 87 ef 3d 2c ff 6c 3e
       -0.086246185 -0.08873212 0.116957925 0.23144215
000360 4e f3 08 be de 75 31 be 60 27 6a be a4 1f d4 3d
       -0.13374063 -0.17330119 -0.22866583 0.103575975
000370 14 86 02 be d8 aa 92 3d 9c 4d 05 3e bc 41 a8 3d
       -0.12746459 0.07161492 0.13017887 0.08215663
000380 49 9e 81 3d e5 ba 93 3d c3 52 5a 3d d9 e5 50 3e
       0.063290186 0.07213382 0.053301584 0.2040018
000390 77 db 71 be 80 62 3e 3e 35 2e b5 be 9d 74 b0 bd
       -0.23618875 0.18592262 -0.35386816 -0.08615992
0003a0 b0 d7 e8 3d 30 f5 e6 b8 bf cf a4 3d 5e cb 9d 3d
       0.11369264 -0.000110129244 0.08047437 0.07704805
0003b0 a8 ee d0 bd c8 4b eb 3d 71 f4 aa 3d 57 da 97 3d
       -0.1020177 0.114890635 0.08347405 0.07414692
0003c0 dd 83 37 bd 41 c6 2d be d8 07 2f 3e f0 18 9e 3c
       -0.04480349 -0.16970159 0.17092836 0.019299
0003d0 f4 eb 99 3d 4c 3f 82 3b 34 c7 38 be ab ed b2 bd
       0.075157076 0.0039748307 -0.1804474 -0.08736738
0003e0 a1 3b c8 3d a8 52 26 3c 0b 61 85 3d a4 2a 96 3d
       0.09776998 0.010151543 0.0651265 0.07332352
0003f0 1b eb 54 be 83 94 cc 3e be 22 a5 be a3 f9 f5 3d
       -0.2079281 0.39957055 -0.3225307 0.12010505

hidden_layers.1.bias f4 [50]
000000 39 0b 38 3b 0e 0b 4c bb 39 c9 5b 3b 20 56 85 bb
       0.002808286 -0.0031134519 0.0033536686 -0.004069105
000010 95 38 17 ba f4 4b ad 3b 49 1d 1e bc 5e 9d be 3b
       -0.0005768624 0.0052885953 -0.009650537 0.0058170995
000020 42 44 55 bc 50 3d 3d 3c 9c f1 19 3c 0e d9 d8 3b
       -0.013016762 0.011550263 0.009395983 0.006617672
000030 98 29 8d 3a 5a 16 63 ba 3a 86 fa bb 63 34 21 bc
       0.0010769842 -0.00086626934 -0.0076453956 -0.00983915
000040 20 67 22 bc ba 3f 09 3c 4e 7c 3a 3c 4b 96 a0 3b
       -0.009912282 0.00837701 0.011382176 0.004900729
000050 21 c4 09 bc 72 1c e8 ba 9b fa 2b bc f9 ab ba bb
       -0.008408577 -0.0017708673 -0.010496761 -0.0056967703
000060 dd cf 0d 3c f0 21 79 bc cd 3f 40 3b cf 00 a3 3a
       0.0086555155 -0.015205845 0.0029334903 0.0012436154
000070 da 34 a1 3c 98 41 4f 3c 0f c3 50 bc fe 2d a0 bb
       0.019678522 0.012649916 -0.012741818 -0.004888295
000080 77 13 5b 3c d2 0c 32 bb 0c 3a 53 bc bd a1 4d 3c
       0.01337134 -0.0027168286 -0.012892257 0.012550768
000090 97 6f 8f bc 69 74 b7 bb 36 0b b8 3b 0f 8a 25 3c
       -0.017509265 -0.005598594 0.005616571 0.0101037165
0000a0 c9 2d dc bb b5 fb 4f 3a 87 9a 79 3c ae d8 bf bb
       -0.006719325 0.00079339306 0.015234596 -0.0058546877
0000b0 53 1d 94 bc 4d 7c 8c 3c 3f d7 b2 3c 52 bc 03 bc
       -0.01808039 0.017149115 0.021831153 -0.0080405045
0000c0 2b 31 74 3b df 59 70 3c
       0.0037260752 0.014669864

hidden_lns.0.weight f4 [50]
000000 00 00 80 3f 00 00 80 3f 00 00 80 3f 00 00 80 3f
       1.0 1.0 1.0 1.0
000010 00 00 80 3f 00 00 80 3f 00 00 80 3f 00 00 80 3f
       1.0 1.0 1.0 1.0
000020 00 00 80 3f 00 00 80 3f 00 00 80 3f 00 00 80 3f
       1.0 1.0 1.0 1.0
000030 00 00 80 3f 00 00 80 3f 00 00 80 3f 00 00 80 3f
       1.0 1.0 1.0 1.0
000040 00 00 80 3f 00 00 80 3f 00 00 80 3f 00 00 80 3f
       1.0 1.0 1.0 1.0
000050 00 00 80 3f 00 00 80 3f 00 00 80 3f 00 00 80 3f
       1.0 1.0 1.0 1.0
000060 00 00 80 3f 00 00 80 3f 00 00 80 3f 00 00 80 3f
       1.0 1.0 1.0 1.0
000070 00 00 80 3f 00 00 80 3f 00 00 80 3f 00 00 80 3f
       1.0 1.0 1.0 1.0
000080 00 00 80 3f 00 00 80 3f 00 00 80 3f 00 00 80 3f
       1.0 1.0 1.0 1.0
000090 00 00 80 3f 00 00 80 3f 00 00 80 3f 00 00 80 3f
       1.0 1.0 1.0 1.0
0000a0 00 00 80 3f 00 00 80 3f 00 00 80 3f 00 00 80 3f
       1.0 1.0 1.0 1.0
0000b0 00 00 80 3f 00 00 80 3f 00 00 80 3f 00 00 80 3f
       1.0 1.0 1.0 1.0
0000c0 00 00 80 3f 00 00 80 3f
       1.0 1.0

hidden_lns.0.bias f4 [50]
000000 00 00 00 00 00 00 00 00 00 00 00 00 00 00 00 00
       0.0 0.0 0.0 0.0
000010 00 00 00 00 00 00 00 00 00 00 00 00 00 00 00 00
       0.0 0.0 0.0 0.0
000020 00 00 00 00 00 00 00 00 00 00 00 00 00 00 00 00
       0.0 0.0 0.0 0.0
000030 00 00 00 00 00 00 00 00 00 00 00 00 00 00 00 00
       0.0 0.0 0.0 0.0
000040 00 00 00 00 00 00 00 00 00 00 00 00 00 00 00 00
       0.0 0.0 0.0 0.0
000050 00 00 00 00 00 00 00 00 00 00 00 00 00 00 00 00
       0.0 0.0 0.0 0.0
000060 00 00 00 00 00 00 00 00 00 00 00 00 00 00 00 00
       0.0 0.0 0.0 0.0
000070 00 00 00 00 00 00 00 00 00 00 00 00 00 00 00 00
       0.0 0.0 0.0 0.0
000080 00 00 00 00 00 00 00 00 00 00 00 00 00 00 00 00
       0.0 0.0 0.0 0.0
000090 00 00 00 00 00 00 00 00 00 00 00 00 00 00 00 00
       0.0 0.0 0.0 0.0
0000a0 00 00 00 00 00 00 00 00 00 00 00 00 00 00 00 00
       0.0 0.0 0.0 0.0
0000b0 00 00 00 00 00 00 00 00 00 00 00 00 00 00 00 00
       0.0 0.0 0.0 0.0
0000c0 00 00 00 00 00 00 00 00
       0.0 0.0

hidden_lns.1.weight f4 [50]
000000 00 00 80 3f 00 00 80 3f 00 00 80 3f 00 00 80 3f
       1.0 1.0 1.0 1.0
000010 00 00 80 3f 00 00 80 3f 00 00 80 3f 00 00 80 3f
       1.0 1.0 1.0 1.0
000020 00 00 80 3f 00 00 80 3f 00 00 80 3f 00 00 80 3f
       1.0 1.0 1.0 1.0
000030 00 00 80 3f 00 00 80 3f 00 00 80 3f 00 00 80 3f
       1.0 1.0 1.0 1.0
000040 00 00 80 3f 00 00 80 3f 00 00 80 3f 00 00 80 3f
       1.0 1.0 1.0 1.0
000050 00 00 80 3f 00 00 80 3f 00 00 80 3f 00 00 80 3f
       1.0 1.0 1.0 1.0
000060 00 00 80 3f 00 00 80 3f 00 00 80 3f 00 00 80 3f
       1.0 1.0 1.0 1.0
000070 00 00 80 3f 00 00 80 3f 00 00 80 3f 00 00 80 3f
       1.0 1.0 1.0 1.0
000080 00 00 80 3f 00 00 80 3f 00 00 80 3f 00 00 80 3f
       1.0 1.0 1.0 1.0
000090 00 00 80 3f 00 00 80 3f 00 00 80 3f 00 00 80 3f
       1.0 1.0 1.0 1.0
0000a0 00 00 80 3f 00 00 80 3f 00 00 80 3f 00 00 80 3f
       1.0 1.0 1.0 1.0
0000b0 00 00 80 3f 00 00 80 3f 00 00 80 3f 00 00 80 3f
       1.0 1.0 1.0 1.0
0000c0 00 00 80 3f 00 00 80 3f
       1.0 1.0

hidden_lns.1.bias f4 [50]
000000 00 00 00 00 00 00 00 00 00 00 00 00 00 00 00 00
       0.0 0.0 0.0 0.0
000010 00 00 00 00 00 00 00 00 00 00 00 00 00 00 00 00
       0.0 0.0 0.0 0.0
000020 00 00 00 00 00 00 00 00 00 00 00 00 00 00 00 00
       0.0 0.0 0.0 0.0
000030 00 00 00 00 00 00 00 00 00 00 00 00 00 00 00 00
       0.0 0.0 0.0 0.0
000040 00 00 00 00 00 00 00 00 00 00 00 00 00 00 00 00
       0.0 0.0 0.0 0.0
000050 00 00 00 00 00 00 00 00 00 00 00 00 00 00 00 00
       0.0 0.0 0.0 0.0
000060 00 00 00 00 00 00 00 00 00 00 00 00 00 00 00 00
       0.0 0.0 0.0 0.0
000070 00 00 00 00 00 00 00 00 00 00 00 00 00 00 00 00
       0.0 0.0 0.0 0.0
000080 00 00 00 00 00 00 00 00 00 00 00 00 00 00 00 00
       0.0 0.0 0.0 0.0
000090 00 00 00 00 00 00 00 00 00 00 00 00 00 00 00 00
       0.0 0.0 0.0 0.0
0000a0 00 00 00 00 00 00 00 00 00 00 00 00 00 00 00 00
       0.0 0.0 0.0 0.0
0000b0 00 00 00 00 00 00 00 00 00 00 00 00 00 00 00 00
       0.0 0.0 0.0 0.0
0000c0 00 00 00 00 00 00 00 00
       0.0 0.0

output_layer.weight f4 [2, 50]
000000 cd f5 39 3d dd 99 56 3d 2f e7 dd bd 07 b0 dc bd
       0.04540043 0.05239283 -0.108351104 -0.10775762
000010 b6 91 f0 bd c4 fe 4b be 53 b6 d1 bd b3 f6 b6 bc
       -0.11746542 -0.19921404 -0.10239854 -0.022334432
000020 83 6a de bd 3c 3a 90 bd a4 b5 65 3e 4b a3 e4 3d
       -0.10860159 -0.07042357 0.22432572 0.11163958
000030 08 4e 03 3d 17 63 1f 3e 61 5c 06 3e 66 16 92 be
       0.03205684 0.15565144 0.13121177 -0.28532714
000040 22 6f 24 be 39 b6 f0 3d 98 fb 5f 3d 0b 0e b9 be
       -0.16058019 0.11753506 0.054683298 -0.36143526
000050 47 50 05 be 2d 1d 90 bd c5 27 46 3e 72 73 9f be
       -0.13018905 -0.07036815 0.19351108 -0.31142765
000060 09 35 37 be 46 8b 45 3d 12 cd 9a 3e 54 62 4a be
       -0.17891325 0.048228525 0.3023458 -0.19764072
000070 a4 38 56 3e d6 a1 d0 3d 0a e2 fd be 7b 93 d0 3d
       0.20920044 0.10187118 -0.49586517 0.1018438
000080 5e d8 4e be e2 a1 b7 be 9f fe 8a be a9 fe ba bd
       -0.20199725 -0.35865694 -0.27147385 -0.09130604
000090 b7 90 a7 3e 2d 02 88 3e 20 ac 83 3e b5 42 ae 3c
       0.32727596 0.2656416 0.25717258 0.021272043
0000a0 24 8c c4 be 64 8f 34 3e 04 e7 b7 bd 38 61 5b 3e
       -0.3838817 0.17632824 -0.089796096 0.21423805
0000b0 8f ca 00 3e 06 07 7d 3d 45 aa 9b bd e5 13 8d 3e
       0.1257727 0.061774276 -0.07600836 0.2755424
0000c0 0e d3 cc 3e e4 37 11 bf 82 8d 9c bd 7b 87 3b 3c
       0.40004772 -0.5672591 -0.07644178 0.011445875
0000d0 d4 92 9a bd 95 b2 84 bc 2c 86 22 be 29 3e 57 be
       -0.075475365 -0.016198436 -0.15871495 -0.21019806
0000e0 e7 10 e9 3d dd 2b 97 bd a9 d5 73 3d 65 0a 10 be
       0.11380177 -0.07381413 0.059529934 -0.14066465
0000f0 e5 c8 84 bd 9c 7e ba bd 7f 3b be 3e e0 ad fa 3d
       -0.0648363 -0.0910618 0.37154767 0.12240195
000100 a3 af 7c 3d 0a bb 60 3e 33 e8 27 3e a5 b0 29 bc
       0.061690938 0.2194635 0.1639717 -0.010357057
000110 15 b7 19 be 27 60 cf be 00 cf 17 3e e4 30 27 3d
       -0.15011247 -0.40503046 0.14825058 0.04081811
000120 63 16 da 3e 33 9f cc 3d 27 c0 51 be c7 ae 54 3e
       0.42595205 0.09991302 -0.20483457 0.20769797
000130 81 e8 36 3d c7 20 2a bd af c6 b5 be 1e 07 95 be
       0.044655327 -0.041535165 -0.35503146 -0.29106992
000140 05 35 38 3d 3f 7b 09 3e d8 a4 4a be 94 24 26 bc
       0.04497244 0.13425921 -0.19789445 -0.010140557
000150 22 01 8f 3b 3f 6b 97 be 33 49 e4 3e 4a 86 56 3e
       0.0043641487 -0.2957401 0.44587097 0.20949665
000160 b3 03 80 3e a1 6c 30 be 56 56 0c 3c 13 0b 30 be
       0.25002822 -0.17228939 0.008565506 -0.17191724
000170 2c e7 e4 bd e7 f4 8c 3d ab 6f d5 3e 1f 6a 86 be
       -0.11176905 0.06882649 0.41686758 -0.2625284
000180 e1 37 b3 be 85 cc b9 3d 6e ca d1 bc 83 30 85 3e
       -0.3500357 0.09072212 -0.025609221 0.26013574

output_layer.bias f4 [2]
000000 e7 36 54 3b 34 00 63 bc
       0.0032381357 -0.013855029

exp_avg f4 [50, 2]
000000 da e3 c2 3e 3b 55 81 3f c8 fc e9 be 76 f5 a1 bf
       0.38064462 1.0104135 -0.4570067 -1.2653034
000010 f9 9c 2d c0 88 2d 84 3f 29 5e 7a 3e 39 00 11 be
       -2.7127059 1.0326395 0.24449982 -0.14160241
000020 3c 44 eb 3e 5e 18 11 c0 1a 74 52 3f c1 41 db 3f
       0.45950496 -2.2671123 0.82208407 1.7129441
000030 b9 9b ae be 54 ef 54 3f 81 a6 62 3f 9e c3 59 c0
       -0.34103182 0.83177686 0.88535315 -3.4025645
000040 51 9b 1a bf 2f 61 92 bf 27 6c 57 3e 62 d5 31 be
       -0.60393244 -1.1435908 0.2103735 -0.17366555
000050 d3 61 40 be 5e fb fd bc 95 ef 12 3f e6 0a e2 bd
       -0.18787317 -0.03100365 0.57396823 -0.11037235
000060 42 16 bb be f7 89 f3 3b b2 cb bf bf 92 f3 9c 3d
       -0.3654042 0.007432218 -1.4984038 0.07663645
000070 53 87 ec 3e a9 df 85 3f a2 f4 22 3f a9 b8 82 be
       0.46196994 1.0458881 0.6365453 -0.2553151
000080 03 ee 3e be 6d d3 ea 3e 1c 60 26 3f 11 c3 91 be
       -0.18645482 0.4586443 0.649904 -0.28469136
000090 45 1a 14 bf cc 95 0a bd 8e 95 09 3f a8 53 c9 bf
       -0.57852584 -0.033834264 0.5374383 -1.5728655
0000a0 56 09 a9 3f d8 fb dd 3e a1 01 f1 be b3 4f 14 c0
       1.3205974 0.43356204 -0.47071555 -2.3173645
0000b0 4e a5 05 3f 5d 15 e7 be 60 f2 65 3f ff d8 16 bf
       0.5220536 -0.45133486 0.8982296 -0.5892486
0000c0 44 ca 15 bf 90 50 62 3f 36 ed 81 3f 2f dc 94 3f
       -0.5851176 0.8840418 1.0150516 1.1629695
0000d0 f6 cf 64 3e 6e e3 c2 bf 37 11 b2 3f 91 0e 01 40
       0.22344956 -1.5225656 1.3911504 2.016514
0000e0 cc 49 64 40 ef 1b 0e c0 e5 87 6e bf ce 5a a8 bf
       3.5670042 -2.220455 -0.9317611 -1.3152711
0000f0 f8 49 0b bf c7 f4 56 be 2e bc f8 3f cb 39 ab 3f
       -0.5440974 -0.20991813 1.9432428 1.3377012
000100 f2 6c 0c 40 4d 37 c9 3f ee 7f 13 be 3e 99 60 bf
       2.1941495 1.5720001 -0.1440427 -0.8773383
000110 02 30 91 3f 5b d8 ea 3f ea 41 5e bf 39 83 a9 be
       1.1342776 1.8347276 -0.86819327 -0.33107927
000120 a8 25 70 bf 0c 68 f4 be ed 4b f6 bf 77 b2 26 40
       -0.9380746 -0.4773563 -1.9241921 2.6046426
000130 e6 36 f6 3e de 55 97 bf 73 d5 31 c0 19 cb 97 3f
       0.4808876 -1.182308 -2.778653 1.1858855
000140 df 04 b1 3e a7 fa 1c 40 0a 10 f1 be 26 61 90 3e
       0.3457403 2.4527986 -0.4708255 0.28199118
000150 a6 c4 1e bf 30 fb 06 3e 62 d7 93 3f 95 bd 86 3f
       -0.6201881 0.13181758 1.1550105 1.0526606
000160 1e a8 4e bf 19 1a 8b 3f db 80 1e bd c3 05 64 bf
       -0.80725276 1.0867339 -0.038697105 -0.8907129
000170 78 6a a4 be 8e 7f 18 bd f7 3f b1 bf 4a fb 1b bf
       -0.3211248 -0.03723102 -1.3847646 -0.6093031
000180 68 18 b9 bf 2f 14 26 bf f0 18 59 bf 7e 46 17 3e
       -1.4460573 -0.6487455 -0.84803677 0.14772984

exp_avg_sq f4 [50, 2]
000000 85 c7 ac 40 03 10 b7 3f 77 a2 be 41 ec 7b d4 3f
       5.3993554 1.4301761 23.829329 1.6600318
000010 b5 c9 62 40 40 df 8e 40 16 08 d9 3f 83 5f b8 3f
       3.5435612 4.464752 1.6955593 1.4404148
000020 d0 13 46 40 97 fe 70 40 11 68 a0 41 fa 4d 96 40
       3.0949593 3.765539 20.050814 4.6970186
000030 89 22 93 3e ad a2 e5 3f 07 2c 0e 40 25 12 8c 40
       0.28737286 1.794027 2.2214372 4.377215
000040 c2 25 00 40 6c c9 89 3f 12 79 9b 40 b0 57 a2 3f
       2.0023046 1.0764594 4.858529 1.268301
000050 ae 10 96 40 f8 db 20 40 fa 64 79 40 f0 7c 03 41
       4.689536 2.5134258 3.8967881 8.218002
000060 13 c9 03 41 62 7e 13 40 48 36 42 41 7d 8e 23 40
       8.23659 2.3045888 12.138252 2.5555718
000070 0b fc a0 3f 2c 71 36 40 e8 47 08 41 77 35 aa 3f
       1.2576917 2.8506575 8.517555 1.3297566
000080 af 35 54 40 23 3b df 3f 11 8b 0c 40 21 15 63 3f
       3.3157766 1.7439922 2.195988 0.88704115
000090 8a 24 3a 40 00 b1 c2 3f a9 3e 78 3f 06 e1 28 3f
       2.9084802 1.5210266 0.9697061 0.6596836
0000a0 d0 fd b3 40 87 81 e1 40 5d 87 9b 3f 20 79 b3 3f
       5.624733 7.0470614 1.2150685 1.402134
0000b0 4e fc 47 41 a9 3c 80 40 e0 8e 45 40 93 1b 96 3f
       12.499098 4.007405 3.0868454 1.1727165
0000c0 84 e3 ae 40 78 22 84 3f 0b eb 8e 40 3f ee 88 3f
       5.465273 1.0323019 4.466192 1.0697707
0000d0 0c 1d 8a 3f 37 01 c0 3f e1 82 24 41 c8 ff 83 40
       1.0790114 1.5000371 10.281953 4.1249733
0000e0 bb 3b 46 41 12 91 85 40 c5 aa ed 3f 2d 29 91 3f
       12.389583 4.173959 1.856774 1.1340691
0000f0 8e 7e 6a 40 dd 3e 70 40 dc e3 9a 40 26 6d d5 3f
       3.6639743 3.7538369 4.840315 1.6673934
000100 93 21 5c 40 49 0b ee 3f 3c 05 44 41 11 e9 20 40
       3.4395492 1.8597194 12.251278 2.5142252
000110 84 3e 97 40 b4 70 54 40 fc 16 0a 41 ca 4d a3 3f
       4.7263813 3.3193789 8.630611 1.2758114
000120 4c 63 b6 41 8c c6 ae 40 bc 70 37 40 35 b1 de 3f
       22.798485 5.4617367 2.8662558 1.7397829
000130 fd 7d d1 3f 57 2a 53 3f 64 45 e7 40 33 bd 8c 40
       1.6366574 0.8248648 7.2272205 4.3980956
000140 ac e3 ce 3f 50 b3 c0 3f c9 d4 01 41 72 64 e1 3f
       1.616323 1.5054722 8.1144495 1.7608778
000150 6a e2 2d 41 54 45 33 41 cc 05 48 41 d2 26 82 40
       10.867777 11.204426 12.501415 4.067239
000160 0f 4c 0b 40 25 e8 ae 3f ce 26 08 41 2a d5 62 40
       2.1765172 1.3664595 8.509474 3.5442605
000170 22 77 09 41 f2 16 7f 3f c0 ed a8 3f 76 c4 11 40
       8.591585 0.99644387 1.3197556 2.277616
000180 48 d1 ef 3f 9d 7f 4a 3f 38 f8 99 40 00 66 33 40
       1.8735743 0.7910097 4.81155 2.8031006

exp_avg f4 [50]
000000 5e e6 19 41 3c da ad c0 d1 cb 28 c1 fb 53 a7 3e
       9.618742 -5.43289 -10.54976 0.3268126
000010 6d cb f8 c0 99 a7 cc c0 b7 40 e7 c0 1c b8 a5 41
       -7.7748322 -6.3954587 -7.2266498 20.714897
000020 f7 03 0a c1 70 31 8c 40 73 a2 41 41 d5 c6 ab bf
       -8.625968 4.381035 12.10216 -1.3420054
000030 ba 05 87 c0 6c 1e 89 c0 24 cd 01 c0 bd d8 02 40
       -4.219449 -4.2849636 -2.0281458 2.0444787
000040 19 5c 31 40 67 1e 93 bf ec 33 59 41 0c 3f 53 3f
       2.7712462 -1.1493653 13.575176 0.82518077
000050 d1 26 38 40 4b 9b 2c 41 4c 50 b1 c0 f5 2a 5b 3f
       2.8773692 10.787913 -5.541052 0.8561242
000060 de b4 41 c1 08 40 31 41 4c 9b 16 40 da 47 10 c1
       -12.106657 11.078133 2.3532286 -9.017542
000070 13 e6 45 41 bd c9 22 40 07 f3 a2 41 d5 a8 c7 3f
       12.36867 2.5435631 20.368666 1.5598398
000080 a3 42 3a 40 13 ed e7 bf e7 9a c2 c0 18 fd 93 40
       2.9103172 -1.8119224 -6.081409 4.624645
000090 5a 1b 05 c0 c9 27 15 c1 a3 65 ae 40 0b 8c 56 c1
       -2.0797944 -9.322213 5.449907 -13.40919
0000a0 b7 77 a1 c0 aa 39 fb c0 d3 86 42 c0 48 3f 22 bf
       -5.0458636 -7.850789 -3.039479 -0.6337781
0000b0 92 f0 f1 bf 6a ff 0f c1 9e f7 e8 3f ac 89 8e bd
       -1.8901541 -8.999857 1.8200567 -0.069598526
0000c0 1a 0c 16 41 74 84 16 c1
       9.3779545 -9.407337

exp_avg_sq f4 [50]
000000 c0 6f 31 42 ef fd 42 42 a7 91 ac 42 d5 0d ae 41
       44.35913 48.747982 86.28448 21.756754
000010 6a 10 36 42 89 11 a0 42 3f de 2d 41 0f 04 bb 42
       45.51603 80.03425 10.866759 93.50793
000020 24 1d 24 42 59 b1 35 42 dd 7b c4 42 ab 02 18 42
       41.028458 45.42319 98.24192 38.002605
000030 76 c9 95 42 8c ca 33 42 82 28 c4 41 17 6a 39 42
       74.89348 44.9478 24.51978 46.353603
000040 7a 99 62 42 b2 42 59 42 62 07 27 42 3c 39 af 40
       56.64988 54.315132 41.75721 5.4757366
000050 f7 49 bd 41 56 7f 6a 42 15 51 5e 42 ae 7f e1 41
       23.661116 58.62435 55.57918 28.187344
000060 6d 92 1d 42 85 9d 67 42 a1 20 6d 41 a9 fd bf 42
       39.392994 57.903828 14.820466 95.99543
000070 df 1b a4 42 18 6f 16 41 29 20 9a 42 67 3b 8c 42
       82.054436 9.4021225 77.06281 70.11602
000080 84 91 6b 42 58 b3 94 42 a7 c4 b7 41 3b 46 38 42
       58.892105 74.35028 22.971022 46.068584
000090 54 f7 09 42 0a 1a b7 42 b4 c7 d3 41 f9 79 90 42
       34.49153 91.55086 26.472511 72.23823
0000a0 23 6c c5 41 5c 66 9b 42 f2 f9 da 42 59 7e 44 42
       24.677801 77.69992 109.488174 49.123386
0000b0 33 8e ab 41 92 b8 42 42 6a 04 a7 41 d0 b5 a5 41
       21.444433 48.680244 20.877155 20.713776
0000c0 fc 58 1d 42 8b d7 bb 42
       39.3369 93.92098

exp_avg f4 [50]
000000 e7 45 96 3d af 61 2f be f1 7f 74 be 6a d7 84 bd
       0.073375516 -0.17127107 -0.23876931 -0.064863995
000010 99 11 df 3d 9f 1a ab 3e 7b c8 12 bd 5f 46 e3 be
       0.10892028 0.33418748 -0.035835724 -0.44389626
000020 40 4c e5 bd 68 cd 8a bd b5 de 9c 3d 98 e2 30 bd
       -0.11196184 -0.067774594 0.076596655 -0.043184847
000030 cc 83 9e 3c a4 13 51 be 02 22 09 3d 60 fe 91 3d
       0.019349955 -0.20417649 0.033479698 0.07128596
000040 37 1e 34 3c c8 82 b5 3e e7 45 ce bd 5b f1 a2 3e
       0.010993532 0.3545134 -0.100719266 0.31824765
000050 cb e0 b0 bd 5f 1f f9 bd 6a 36 a3 3d 33 41 47 3b
       -0.08636626 -0.12164187 0.07969363 0.0030403852
000060 35 56 75 3d d9 17 f7 3e 8d 03 29 3e 25 5e b1 3e
       0.059896667 0.48260382 0.16505261 0.3464214
000070 d8 c2 ff 3e 0f 6a 4c 3e a3 34 57 bd 85 96 1a 3e
       0.4995334 0.19962333 -0.052540433 0.15096481
000080 74 aa 5c 3e 7e 08 71 3d 35 7f d2 3e f8 5c 43 3d
       0.21549398 0.05884599 0.41112676 0.047696084
000090 24 df fc bc 68 ea de 3d fe 02 41 3e aa d5 23 3e
       -0.03086812 0.10884553 0.18848798 0.15999475
0000a0 94 d8 af 3d 21 a5 f3 3b fd b9 f6 bc 0a da 05 be
       0.08586231 0.0074354564 -0.030117983 -0.13071457
0000b0 8b bd 78 3e 07 3f 0f 3c 65 b2 aa 3d 60 27 f8 bd
       0.24291055 0.008743054 0.08334807 -0.12116885
0000c0 c2 44 0f be ee 2d 0d 3e
       -0.13991073 0.13787052

exp_avg_sq f4 [50]
000000 7b ef 8a 3d cc 9a 90 3d 59 06 c4 3d 6d ec 6c 3e
       0.067839585 0.07060775 0.09571523 0.23137064
000010 1b 67 cc 3d 44 1e 2d 3f c9 88 a9 3c b4 3a 92 3d
       0.09980603 0.67624307 0.020695107 0.07140103
000020 74 0f 77 3c e1 c4 ff 3d 9a 30 59 3e f5 cc 2e 3e
       0.015079368 0.124887235 0.21209946 0.17070372
000030 91 45 e1 3d d4 8f ca 3d 7f 92 45 3d 5c 00 4b 3e
       0.10999597 0.09890714 0.048235413 0.19824356
000040 df ce 8e 3d 76 37 95 3d 9f be 30 3d 52 8a e4 3c
       0.06973051 0.07285969 0.04315054 0.027897988
000050 1b 96 ef 3c 31 75 03 3d 5d 72 6b 3e fd c0 7f 3d
       0.02924638 0.032094184 0.22992845 0.062439907
000060 33 25 d7 3d a4 b1 18 3d be 3e 0e 3d 0c 9f 27 3e
       0.10505142 0.037278786 0.034727804 0.16369265
000070 6f 98 1e 3f bb 66 43 3c 69 6a 18 3e 73 8a 73 3d
       0.61951345 0.011926348 0.14884342 0.059458207
000080 9e 5b 28 3e 6e 19 83 3e c4 2f 46 3e c4 34 44 3d
       0.16441199 0.2560534 0.19354159 0.047901884
000090 a0 92 40 3e 9c ad 6d 3d 92 20 8a 3c 44 a9 88 3d
       0.18805933 0.058026895 0.016861234 0.0667291
0000a0 ea 9e 67 3c f6 e7 10 3d e9 2f a0 3d fd bd cc 3d
       0.014137009 0.035377465 0.07821638 0.09997175
0000b0 2e f6 8d 3d ee 4d 4b 3d 1e 74 24 3e e5 db d0 3d
       0.06931721 0.049634866 0.1605992 0.101981916
0000c0 4f 75 07 3d ee 0b 49 3e
       0.03307086 0.19633457

exp_avg f4 [50]
000000 8c 0c cd 3e 42 c4 24 3f 6d ae eb 3f ad 19 3d 3d
       0.40048635 0.64361966 1.8412606 0.046167064
000010 a3 4a ed 3e 7a f1 a6 3f 6e e7 6d be 22 f0 c0 3e
       0.46346006 1.3042443 -0.23232815 0.37683207
000020 d9 f5 9d 3e 30 7e 37 be 04 8b fd bf 6a 56 97 3d
       0.3085163 -0.1791923 -1.9808049 0.07389529
000030 de 5f 3f bf 6b 70 22 3f f9 6a 9c 3f 15 ed ba 3c
       -0.74755657 0.63452786 1.2220145 0.022818128
000040 14 68 48 3e c2 5d 7c 3c 04 d4 00 bf 38 24 a8 bf
       0.19570953 0.015403213 -0.5032351 -1.3136053
000050 f7 a8 14 3d c4 5e 38 3e 0e 4f 32 3f 89 da 0a bf
       0.03629395 0.180049 0.6965188 -0.5423971
000060 6e 9d 10 bf 8d 30 aa bf c1 a6 4d bd 5f 03 0a 3e
       -0.5649022 -1.3296067 -0.050207857 0.13477848
000070 f4 63 01 bf 38 7c 19 3f 11 74 70 bf 5c db e7 3e
       -0.5054314 0.5995517 -0.93927103 0.45284545
000080 a9 c2 a6 bd fc 30 a1 be 81 d2 21 3e d3 78 3c 3f
       -0.08142597 -0.31482685 0.15802957 0.73621863
000090 66 ae d5 bf 5c 31 87 be b2 b7 9f bf 43 fe 5e 3f
       -1.6693847 -0.26404846 -1.2477934 0.8710672
0000a0 52 54 cc 3e 8f 89 55 3e 85 8c 43 be 27 6e 3a 3f
       0.3990808 0.20853256 -0.19096573 0.7282433
0000b0 de ca b5 be 56 68 1c 3f 06 ee 8f 3f 47 5e ec bc
       -0.35506338 0.61096704 1.1244514 -0.028853549
0000c0 b3 a6 34 bd 39 37 47 be
       -0.04410429 -0.1945466

exp_avg_sq f4 [50]
000000 d6 65 d2 3e b0 de a2 3e 5c 5e 5a 3f fb 7f 9c 3e
       0.4109332 0.31810522 0.8530023 0.3056639
000010 07 9f c1 3e fb 23 95 40 ca 49 69 3d b0 19 70 3f
       0.3781664 4.660642 0.056955136 0.93789196
000020 4c d4 21 3f ea f3 9f 3e 06 a5 83 3f 25 79 39 40
       0.63214564 0.3124078 1.0284736 2.898019
000030 c1 97 ff 3f 82 4a 1e 40 7a b0 92 3e 5a 9e 14 3f
       1.9968187 2.4732976 0.28650266 0.58054125
000040 10 34 2b 3f d0 53 0d 40 83 8c 15 3f 44 20 9b 3e
       0.66876316 2.2082405 0.5841753 0.30298054
000050 64 81 a6 3e 58 a0 01 3f f2 48 2e 40 08 da 41 3e
       0.32520592 0.5063529 2.7232022 0.18930829
000060 99 fe 51 3f 9f e1 0c 3f aa 5e f9 3d f8 22 51 3f
       0.8202911 0.5503177 0.12176259 0.81693983
000070 56 f1 7c 40 0f 81 9a 3d 26 2c af 3f 6a 26 e0 3f
       3.95223 0.07544147 1.3685348 1.7511723
000080 1d c2 3e 3f 0b bb 3c 40 b4 b1 f5 3f 06 26 b7 3f
       0.74514943 2.9489162 1.9194856 1.4308479
000090 4f 79 44 3f b0 39 22 3f d3 c7 3f 3e 97 5f 5c 3f
       0.767476 0.63369274 0.1872857 0.8608336
0000a0 a2 e9 c2 3e ff 9a f5 3f c7 24 9b 3f b9 8b 23 3f
       0.38068873 1.9187926 1.2120599 0.63885075
0000b0 5a 52 43 3f 1f 91 85 3f 5d 29 31 3f 2b 7e 03 3f
       0.76297534 1.0434912 0.6920374 0.5136439
0000c0 5b 72 45 3f 34 b9 d8 3f
       0.7712762 1.693152
